python/snapshots/first_with_speed/snapshot1400.pt (torch_old, 586867 bytes, 6 tensors)

layer0.weight f8 [256, 19]
0	0xbf9b3304ca50ed22	-0.026561808441539665
1	0x3fa101f8ee36992a	0.033218173102158424
2	0x3fc7013a522a29d9	0.1797249699778394
3	0xbf7b979a8b45b8d3	-0.006736377418162759
4	0x3fad14c8ea585fb8	0.056799200636475644
5	0xbfc55b2bc70d104a	-0.16684481829918446
6	0x3f76185e2886cf5f	0.005394332700621478
7	0x3fc3d456e03672ba	0.15491758296857033
8	0x3fb5e06c91ab8944	0.08545568996809033
9	0xbfbcf2498b71be55	-0.11307201055910217
10	0x3fc41aa2f56bf08d	0.1570628832195137
11	0xbfb3d5c719090576	-0.07748073922359375
12	0xbfb2833c2fcba6b7	-0.07231498877413399
13	0xbfba4478dd20cbd0	-0.10260730169902321
14	0x3f91a058b42e2a03	0.017213235852560526
15	0x3fa2270eea75173e	0.03545424091366421
16	0x3fc7fe2cb6f83086	0.18744429525429868
17	0xbfb4f7297f0149c7	-0.08189639425953664
18	0x3fccde29609f8b08	0.22552983491831236
19	0x3fca68723defc951	0.20631244682551622
20	0xbfcbf98599eef895	-0.21855230346949797
21	0xbfc3c34ab1c5e692	-0.15439733200382882
22	0x3fb07ccf87fe088e	0.06440445966839745
23	0xbfb5a83d6fcc71a5	-0.08459838847597341
24	0x3fc1d00921985792	0.13916124477753705
25	0x3fc9ce79195fcfdd	0.20161355723359878
26	0x3fc41086ee367f44	0.1567543662213159
27	0xbf8e22c62eb14dd4	-0.01471476392740715
28	0x3fc7a712bb98aa25	0.18478616867044298
29	0x3f9093697c793d38	0.01618733236528877
30	0xbfc79b50a34bb2d8	-0.18442733739302386
31	0xbfa28eaafecb9995	-0.03624472008032168
32	0xbfc29fe5e5f94685	-0.14550470093904636
33	0x3f834a0a38c1c856	0.009418563706479127
34	0x3fcb8acde8386ae2	0.21517347182164942
35	0x3fc2cb732033ce57	0.14683379242306913
36	0xbfad462eb7aeffcb	-0.05717607490760165
37	0x3fb2a18002c56801	0.07277679507879499
38	0x3f923daa00000000	0.01781335473060608
39	0xbfc45acc60000000	-0.15902094542980194
40	0x3fabe23c80000000	0.054460421204566956
41	0x3fa7a6ed80000000	0.04619543254375458
42	0xbfa4c59f80000000	-0.04057024419307709
43	0xbfc2f64280000000	-0.14814025163650513
44	0xbfc1e7b2c0000000	-0.1398833692073822
45	0xbfc8a27220000000	-0.19245745241641998
46	0x3f9adbdf00000000	0.026229366660118103
47	0x3fb0f66d40000000	0.06626017391681671
48	0x3fbd1b36c0000000	0.11369650065898895
49	0xbfb795ebc0000000	-0.0921313613653183
50	0xbf9507f700000000	-0.020538195967674255
51	0xbfb3f21e40000000	-0.07791317999362946
52	0x3fc108c8a0000000	0.13308055698871613
53	0xbfb381ac40000000	-0.07619740068912506
54	0xbf84f0b600000000	-0.01022474467754364
55	0xbfc36efc60000000	-0.15182451903820038
56	0xbf80568c00000000	-0.007977575063705444
57	0xbfc0c75875785f96	-0.131083543165684
58	0x3fca1553b59496ee	0.20377584806663357
59	0x3fb13bc4f6a72deb	0.06731825849345056
60	0x3f9d5f2dbf8ffece	0.02868339044289208
61	0xbfc3590c21ec14e8	-0.15115501076085214
62	0x3fc4bcc4e5fef02b	0.16201077680841655
63	0xbfa90149d4026569	-0.048837954645203414
64	0xbfc7ff73bbc35342	-0.18748327892412858
65	0x3f7814d1d12b7d8a	0.0058792301158229286
66	0x3fb1787ce9f23ed4	0.06824475013331305
67	0x3fc4d57fe40d2e5f	0.1627654899151478
68	0xbfccb37b401ffb00	-0.22422733908748427
69	0x3f82d32e53edfad8	0.009191858230904001
70	0x3fb5723ff57b0f5e	0.08377456420117599
71	0x3fc68ef69745f989	0.1762378920211172
72	0xbfb5346e7d92f3c9	-0.08283129277965808
73	0xbf8787cd05b6c1e5	-0.01148948835074832
74	0xbfc4e6e853f5f1a3	-0.16329673862118196
75	0x3fbd8f8e71148faf	0.1154717470240587
76	0xbfb3e589d670456a	-0.07772122845951449
77	0xbfb09dbf4f6a5859	-0.06490703286030576
78	0xbfb4a76f27db8c0a	-0.08067984316907953
79	0x3faab22d60b33e7f	0.05214063458845163
80	0xbfca0de9b6444952	-0.20354958915465687
81	0x3fc51c55dc34c6be	0.16492722751859462
82	0x3fba677636cdbab8	0.10314120138148553
83	0xbfc46467c375ca7b	-0.15931412738753523
84	0x3f9e452a30b323b9	0.029560717794797606
85	0xbfb1d220c4de34fc	-0.06961254888866003
86	0xbfcb745fc43d7c43	-0.21448895532646092
87	0xbf813a5616d27fa4	-0.00841204888484965
88	0x3fb560563a53560b	0.08350123332942176
89	0x3fc5a84610af6014	0.16919780554485497
90	0x3fb9a40d3ed0eeea	0.10015948089215568
91	0x3fc6fded0417516e	0.17962420177230903
92	0x3fcc1d7679183c1e	0.21964913285089066
93	0xbfb17dd488ddbb54	-0.06832626668413627
94	0x3f9c1adea2022216	0.027446249616817374
95	0xbfc487cae0c28363	-0.16039405798531012
96	0x3fb62d5896d01c34	0.08662942583042438
97	0xbf80d489b2105ac4	-0.008217883822039147
98	0xbfc0023ff05024a1	-0.12506865724598007
99	0x3f9e093e714b2dd6	0.029332137741944063
100	0xbf863fa5c74085ef	-0.010863585608663377
101	0x3fc840eddb373b8e	0.18948147968191303
102	0x3f526f4aeb534eff	0.0011251670487597008
103	0xbfc32f5f7b575893	-0.1498832084896021
104	0x3fa2bcfe3910fba2	0.036598152605157766
105	0xbfc01355fee3e76d	-0.12559008546650877
106	0xbf6da404f1928a09	-0.003618249564696589
107	0x3fcd17c5f1169386	0.22728800079235273
108	0xbfc8b7ff9956993a	-0.19311518656940924
109	0x3fb27d3c53977946	0.072223444374207
110	0x3fc56e0921276d8e	0.16742052191589746
111	0x3fc96a179c880c7d	0.19855017798554178
112	0x3fb32b88c307a880	0.07488302957031756
113	0x3fcb17b1d55bf667	0.21166060369425851
114	0x3fa499dbfefcc933	0.04023635375632963
115	0x3fc1d3e690219df9	0.13927919423734617
116	0x3faa38e83e180a60	0.051215417461226265
117	0x3fc2886e45b3c1e4	0.1447885361044562
118	0x3fc6d9ca4cd49f37	0.17852143050662914
119	0x3fc0a2d5928a9da9	0.12996930747361304
120	0x3f6ebf2b0b62ad47	0.0037532654487983127
121	0x3fcade982c0bc08a	0.20991804266623532
122	0xbfc52fbf154c0f3a	-0.16551960506341762
123	0x3fc766f5fb023a53	0.18282961612972545
124	0xbfc0ba95c5c6430a	-0.1306941238113029
125	0x3fc7feb5acdaacb2	0.18746062221666687
126	0x3fc77acf2d6c33ec	0.18343534200576472
127	0xbfc43db043bf3322	-0.15813258464768248
128	0x3fac5aa9d4c738bf	0.05537920687093977
129	0xbfa7601d50562bb7	-0.045655170494760915
130	0x3fc1688a341d68aa	0.13600280327483932
131	0x3fa62e1953e41c8f	0.04332045697270203
132	0xbf9c1e049d46c47d	-0.027458259677306963
133	0xbf9971f196f48ea8	-0.02484872325761836
134	0xbfc9f292370b00df	-0.2027151840939103
135	0x3fb32584d836815d	0.07479124334941419
136	0xbfa70f6e7fd74187	-0.04503960905606435
137	0x3fc26c0620676ccd	0.14392162878252748
138	0x3f9a5df7cb62b355	0.02574908427111507
139	0xbfccb4718fec5a91	-0.22425670173170834
140	0xbfcadfd2f4778e27	-0.20995556771150456
141	0x3fb9fb3503424f7a	0.10148936585966153
142	0xbfcd152ee30a8e72	-0.22720895849225858
143	0x3fbebb20ed3f425b	0.12004285614171677
144	0xbfb2fbedaed1cebb	-0.07415662305885011
145	0x3fa4f530c99d4fd0	0.040933155642647656
146	0x3f91759120189033	0.017050044616681425
147	0xbfa880c043c4562d	-0.04785729243500856
148	0x3fc59ce334bd7e5e	0.16885032725530186
149	0xbfada8497f6065a5	-0.057924553679366476
150	0xbf973c130b7bbb02	-0.02269010312641751
151	0x3f8098b0ae3fd6ae	0.008103733365696666
152	0x3fb89650f02e0128	0.09604364265215237
153	0x3fc4b5c9279df65b	0.1617976611559467
154	0x3fbd0562edf2cadf	0.1133634406021815
155	0xbfc00fbfc984b2b4	-0.1254806264854743
156	0xbfc681f78d1cd4c9	-0.1758412779833292
157	0xbfb9929742c676ae	-0.09989304905181015
158	0x3f933d1fe3922fe1	0.018787859215578243
159	0x3f90bd449299b922	0.016346999595435403
160	0xbfb10c0e87f763ff	-0.0665902215909142
161	0x3fbfd028dd7109ec	0.12427001386917141
162	0xbfc78d2a9e7bc483	-0.18399555910540152
163	0x3fc08a2cb721a1a3	0.12921675626718096
164	0x3fcc3cdfbcd00676	0.22060772628178754
165	0x3fb3fb0195bc6784	0.07804880052245095
166	0xbf8337e6e7fa77b2	-0.00938396830980168
167	0x3f97831999694055	0.022961044300530215
168	0xbfc14d4f3a967f45	-0.1351717983316069
169	0x3fc6d524d2df73de	0.17837963387037709
170	0x3fc9a20267e654ec	0.20025663445691266
171	0x3fc1adacd90f563f	0.13811264608982474
172	0x3faaead93e355e17	0.05257300266628933
173	0xbfa7b4f68d1f37be	-0.04630251381568894
174	0x3fccc2ad8085d161	0.22469109321140038
175	0xbfc3182fba4531f6	-0.1491756114504736
176	0xbf99aab04f59be8c	-0.025065188258337076
177	0x3fb2b9210ddf32a9	0.07313734615963575
178	0xbfc655586a0e2b5f	-0.17447953394397595
179	0xbfc5d5532be1826c	-0.1705726589452924
180	0xbfac12df319cb39f	-0.054831480795065383
181	0xbfaf4a30da8b4a69	-0.06111290614866933
182	0x3fc2dd8b9d89bf7a	0.14738602821625674
183	0x3fa75f4ea6c4dea6	0.0456490114760844
184	0xbfcb55bcbcc45196	-0.2135539933884842
185	0x3fbba6815a13dede	0.10800941895638114
186	0xbfc23091ed23407d	-0.1421072395228328
187	0xbfc19b11d4974785	-0.13754485016266585
188	0x3fc99d37649bb707	0.20011036312592287
189	0x3fc918b61516a87e	0.19606662778580025
190	0xbfc592f51865cb7c	-0.1685472840432246
191	0xbfa198672cb388e7	-0.034365867811873056
192	0xbfc96110ff15bbdf	-0.19827473120991976
193	0x3fa3ae1b31db5f7e	0.038437700115252035
194	0xbfb0bf2557680ec2	-0.06541665443370007
195	0xbfb6f4bde599f639	-0.0896719632673574
196	0xbfc209fee3e99980	-0.14093004349269833
197	0x3fc10c0f448d64c1	0.1331805309990042
198	0xbfcb12ed1750968c	-0.211515079864672
199	0x3fae93eb8b86f4b6	0.05972229078495543
200	0xbfc1fc4b997e7443	-0.14051194186041202
201	0x3fbd2c4860b91b92	0.11395695077327009
202	0x3fac306cf047f364	0.05505695756071452
203	0x3f978e8e9da571f8	0.02300474965282892
204	0x3faa3586089c8b77	0.0511896024238671
205	0x3fbf09bcb4ff6d79	0.1212423269166062
206	0xbfa9bf61f4482193	-0.05028825861888033
207	0x3fbe83ffa58351eb	0.11920163908809626
208	0xbfb7400c3ba1b1f2	-0.09082104163980612
209	0x3faa3f4bf1085ed3	0.05126416508954681
210	0x3fc49c1d2778ea4a	0.16101421763763063
211	0xbf8951f0de807c9e	-0.012363321104258692
212	0xbfbb76941141d485	-0.10727811261479488
213	0x3fcc29b136bf0f66	0.2200223462406214
214	0x3fc072270c5f18bf	0.12848365882945775
215	0x3fa9409c9c9d74c2	0.04932107364468542
216	0xbfcc874e108ddad7	-0.22287917908007301
217	0x3fba3358ae378064	0.10234598401393807
218	0xbfbcdc39274f3a4d	-0.11273534021095451
219	0xbfab3954c3bf133a	-0.05317177667124047
220	0xbfbb4cbfe8f735da	-0.10663985669744794
221	0x3fb06e5923963d90	0.06418377989597546
222	0xbfcb5d5a8234ea62	-0.21378642423390476
223	0xbfbd8b7e04127598	-0.11540973281304046
224	0xbfc1b4ca9592e719	-0.13832981398973557
225	0xbfc7d80b517e7664	-0.1862806461257832
226	0x3fc595ff41c64173	0.16864004813806907
227	0x3fbc8c1e622f091f	0.111513041468275
228	0x3fc7d6a201495318	0.18623757422269516
229	0xbfb23dd79ce5d156	-0.07125613766203762
230	0xbfca56e5f483ea8d	-0.20577692450736543
231	0xbfb2610da6814584	-0.07179341616690321
232	0x3f9ff140a6234dfc	0.031193742885831086
233	0xbfc858ffaac15167	-0.19021602475789764
234	0x3fc16449d8cbe431	0.1358730610443515
235	0xbfcc069d2614df02	-0.21895183906030274
236	0xbfc168893a40f4c1	-0.13600268692417752
237	0xbfbe5b9778900362	-0.11858507817670508
238	0x3fb51b95a12b4a6d	0.08245215592186535
239	0x3fc22c06af6e6880	0.14196857038479394
240	0xbfc907944ce176ff	-0.19554380182210448
241	0xbfab5028811da3db	-0.05334593368645076
242	0x3fb3b703e6b946a7	0.0770113409319274
243	0xbfb1cb01e9a8247e	-0.069503898186797
244	0x3fa4bbdbf8c792dc	0.040495752447702066
245	0x3fc8bc63da02e8b0	0.19324920792661748
246	0x3f9201fa3a63a8a7	0.017585668386268207
247	0x3fc7361b17f64d61	0.18133867902779868
248	0xbfa7fd61077ca59e	-0.046855003513267976
249	0x3fb14920048da025	0.06752205001032559
250	0x3fb54bec76eb665e	0.08318975356396538
251	0x3fae9b0356ba8148	0.05977640565584125
252	0x3fbdce10e10f8222	0.11642556662219097
253	0xbfb23374de217e0e	-0.0710976640998455
254	0x3fc0a40c74b75059	0.1300063676741299
255	0xbfcc4500963030b2	-0.2208557828274756

layer0.bias f8 [256]
0	0x3fb90eefd31f804d	0.09788416771289228
1	0x3fc4bab51f037133	0.1619478608544199
2	0x3fa33b2280000000	0.037560537457466125
3	0x3f674194b3ae2104	0.002838888581610745
4	0xbfb64fc4ec8f9da7	-0.08715468192496321
5	0x3fa93f416c01ba26	0.04931072658006412
6	0xbfc5580d3bf05f19	-0.16674962450701328
7	0xbf6a80e16a375c2d	-0.0032352831492335117
8	0x3fc13523a42e4c91	0.13443418041842795
9	0xbfcaf8f58bff8370	-0.2107226308426351
10	0x3f97b7a65f5892da	0.023161506242234654
11	0xbfb56b4417d15110	-0.08366799909100942
12	0x3fb36125fbc8c107	0.07570111653399546
13	0xbfb50e00f03971ec	-0.0822449289784754
14	0x3fc4e93c2d5e367c	0.16336776938662811
15	0xbfa7508a0c45388e	-0.04553634071145139
16	0xbf9e61e6e793bbe6	-0.0296703413814007
17	0xbf8d5bd32d03ab6b	-0.014335298358181444
18	0xbfb2acce64821cf6	-0.0729493136769753
19	0x3fa3e08eba08d3fd	0.03882261296204346
20	0x3fcc6c2fe3685021	0.22205160716896535
21	0x3fcc55ef4fedbaec	0.22137252238049798
22	0x3fcab644d4623bd2	0.20868740434931837
23	0x3fc1a802ed7143d9	0.13793980211133208
24	0x3fc9faad9086e11d	0.20296258503891176
25	0x3fcc0abb22852d82	0.2190774839931287
26	0xbfa5280d5c2e9dfa	-0.04132119894284965
27	0x3fcc2a6a37862406	0.22004440032131373
28	0xbfb05f518f559729	-0.06395444630979043
29	0xbf8df78fb4f64786	-0.014632342062018255
30	0xbfc15e03b8e34206	-0.13568159606667524
31	0xbfc61c49e49fd637	-0.17273830092715212
32	0xbfb914136c5ccd54	-0.09796258349961323
33	0xbfacc8af80000000	-0.05621860921382904
34	0xbf9c9caf43b38274	-0.027941454417375458
35	0xbfb26ac4a83308ed	-0.07194165331296505
36	0x3fb8bf4e57f4cf28	0.09666909835214865
37	0x3fc4637e01fad493	0.15928626152677747
38	0xbfc5d9f814dbe6ba	-0.17071438807015743
39	0x3fb865c6643e877e	0.09530296275491243
40	0x3fb13228a52a7924	0.06717161209460137
41	0xbfc1a8c9bd19a504	-0.13796350224883025
42	0xbf978f568309abad	-0.023007728336249467
43	0x3fa039c7bea27cf8	0.03169082834323861
44	0x3fa64ce152269dcb	0.04355529907052932
45	0xbf5a9a81a3e8d02b	-0.0016237512605927855
46	0xbfb40436f5f52487	-0.07818931107353154
47	0x3fae570fd7f3400e	0.05925797949896615
48	0x3fa7a9373b7ef579	0.046212888729750774
49	0xbfc38b440be0c01e	-0.15268755512215731
50	0x3f9b0d26a47420d9	0.026417354381039402
51	0xbfc20e5c945a5c8b	-0.1410632824306258
52	0x3fb48e2a02518f92	0.08029425198179599
53	0x3fb7b23e49d66d5b	0.09256352713275844
54	0x3fc9eebcf52abc82	0.20259820910493792
55	0x3fca39efaefce9ff	0.2048930744584396
56	0xbfbc45eced4d3076	-0.1104419783925453
57	0x3f94e71d6a219bc5	0.020412883379687736
58	0x3fc853cdd37ab29e	0.1900574953664504
59	0x3fb2a18361468fcd	0.07277699589627602
60	0xbfc8f9d9501bbe6f	-0.19512478267232633
61	0x3fba40775934d845	0.10254617622271762
62	0x3fa2094bdff0f8f9	0.03522717579515872
63	0x3fcbb4749bfe9f52	0.21644456498074277
64	0x3fc31c9e6e7180e4	0.14931087868445225
65	0xbf99b7b622432af0	-0.0251148661052793
66	0xbfb36b0db4c14dea	-0.07585225737539472
67	0xbfc12f5c1d79b3bb	-0.13425780715206578
68	0xbfc9486460000000	-0.19752173125743866
69	0x3fcaaa1daafdcf34	0.2083165249747424
70	0x3fac8311d083e909	0.05568748159744714
71	0xbfc2287a3bac039f	-0.14186027444523305
72	0xbfaa3023a2ec253a	-0.05114852298545221
73	0xbfc7c33d39ecf79b	-0.18564572647477182
74	0x3fc057aeee12dd5d	0.1276758825749579
75	0x3fa7236880000000	0.045192018151283264
76	0xbfaeca54ba68cc2d	-0.06013741279129934
77	0x3fa7ffd550248a8e	0.0468737278299801
78	0x3fbb5096e055a53d	0.10669844605367458
79	0x3fbdd7d1ffa6d82d	0.11657440654275382
80	0x3fc73b987d8baeab	0.18150621538312825
81	0xbfc98ea87ff5c69e	-0.19966608284044168
82	0xbfc55168c088d7e2	-0.16654691125012194
83	0xbf9aae365c66e401	-0.026055192365422645
84	0x3fc2ab64a13445a8	0.14585550185487972
85	0xbfa941d3d60232b6	-0.0493303488484335
86	0xbfb587b9e2d705df	-0.08410226619800863
87	0xbfbfa56372e64dc6	-0.12361737780729873
88	0xbfcb77052524f15e	-0.21456970513998902
89	0xbfba456300000000	-0.10262125730514526
90	0x3fcdaf0b23bccb31	0.23190440411561888
91	0x3fcbee22d20b3d55	0.21820483451890973
92	0xbfc0a3b3bf2596b2	-0.12999579270688383
93	0xbfc05bd664927faf	-0.1278026572299473
94	0xbfccad8a3d32f218	-0.22404602039559118
95	0xbfb5a5d258b0c75a	-0.08456148782059128
96	0xbf651a9627c7488e	-0.002576154014811988
97	0x3f9b55b300000000	0.026694104075431824
98	0x3fc5ff53e349135e	0.17185448263094377
99	0x3fc73a381a3413da	0.18146420745338682
100	0xbfb51c4d80df5936	-0.08246311565685435
101	0x3fb28b515187d385	0.0724383186387297
102	0x3fc01045a6152e4e	0.1254965840292805
103	0xbfc40648603a01bf	-0.15644173334659503
104	0xbf7204a345d5aeaf	-0.004398954185812861
105	0xbfcc70261d4c653c	-0.22217251234614277
106	0xbf9d4503f72bd510	-0.028583585702070258
107	0x3fc45269b6026530	0.15876504313636408
108	0x3fb379da0dc8533d	0.07607806049811656
109	0x3fcbf73aa790dd03	0.21848233396460878
110	0x3fc4bd43bd373126	0.16202589739840184
111	0x3fc4a8c160879ea9	0.1614000054680578
112	0x3fb8a3c815b94f5f	0.0962491086041246
113	0xbfba00a9c545619e	-0.10157261911570578
114	0xbfae86895bdd5af0	-0.0596201824798096
115	0xbfb7115b270ed41a	-0.09010858253061862
116	0xbfc62d06b64af4d3	-0.1732490911580614
117	0xbfc10078c5410a32	-0.13282689696832645
118	0xbfa07bb6ec3b2e1a	-0.03219386705094625
119	0xbfaf9819c239833e	-0.06170731063753586
120	0xbfb36703d019ca3a	-0.07579063253960153
121	0xbfa5515bf76a3528	-0.041636346771250665
122	0xbfc566d943830eec	-0.1672011928222824
123	0x3f99092678e4c0b1	0.024448968056447643
124	0xbfc7fe8214cf7c36	-0.18745447174203073
125	0xbfa4014478e5a231	-0.039072170026717486
126	0x3fc6dc33a834c749	0.1785950251883668
127	0x3fbe30c934e1aea4	0.11793191472105008
128	0x3fc9f09d9c3da66f	0.20265550736376123
129	0xbf9e1bdbcde85c70	-0.02940314716587661
130	0xbfcd67b0e8685e06	-0.22972689960509757
131	0xbfc085e040b64360	-0.12908557090534156
132	0x3fabe752ae31fd7d	0.054499229206153445
133	0xbfbf5e6845899a29	-0.12253429124539451
134	0x3fb417d3e3e36517	0.07848858178785566
135	0xbfa3dfee994dc02e	-0.03881784078009819
136	0xbfc0cdcc6ad2eda3	-0.1312804719544661
137	0x3fb45f19d4491741	0.07957612450362907
138	0xbf90abdcfd588bc2	-0.016280606234555746
139	0xbfbaa35efb97550d	-0.1040553440319238
140	0xbfba19001b57a25f	-0.10194397609269278
141	0xbfbd033e2fc89eba	-0.11333073298066668
142	0x3fbd34aa175ab8bb	0.11408484525847744
143	0x3fa5f9b305d2ba06	0.042920679531892644
144	0x3fc0c3842309f149	0.1309666796768261
145	0x3f72996122a7b3ae	0.004540805277866973
146	0x3fccf59995b4bd22	0.22624511537422004
147	0xbf9bdc148a8a06db	-0.02720672698570224
148	0xbfc6059d82f8aa26	-0.17204636473737017
149	0x3fc8c223df7750b3	0.1934246865408845
150	0x3f9ccf2eba8e0242	0.02813408864631329
151	0xbfa0e7afb06e4081	-0.03301762608237003
152	0x3fac1d5575dfd744	0.054911299361192906
153	0x3fc053c604903abb	0.12755656454870298
154	0x3fae61ed146f7aca	0.05934086679893864
155	0xbf95cee1b8bf2198	-0.021297003651655183
156	0x3fcbf1a77a2a5865	0.21831220116718267
157	0x3fc0187fe089a860	0.12574766601329923
158	0x3fcc27baf0f4603a	0.21996247067795754
159	0xbfcbaa27285e300b	-0.21613015624132034
160	0x3fc24599735f64a7	0.14274900563649348
161	0xbfcd7c0fcb1afed0	-0.23034856240518886
162	0xbfcb4029073af603	-0.21289551594775
163	0xbfb6f4f7a6fc1956	-0.08967540575767904
164	0x3fa27f3c80000000	0.036126986145973206
165	0xbfc4619614158a15	-0.15922809582396327
166	0x3f9e7e218ad1f772	0.029778026674186227
167	0xbfb77db932ec0bad	-0.09176213734831036
168	0x3fa48ea2a85def6c	0.040150721600155176
169	0xbfcc049eb2c567b6	-0.218890988627036
170	0x3f9ff6549b754530	0.031213113773735646
171	0xbfca5b68b89569b1	-0.20591458332894555
172	0xbfcb885860cfab64	-0.21509842612371266
173	0x3fa7066b899f68ca	0.044970856237073045
174	0x3fab57460154b8e5	0.05340021864172843
175	0xbfc35bbfcf43a616	-0.15123746509861807
176	0x3fc74661e3ae628f	0.1818353997921531
177	0x3fb0a8ba40000000	0.06507457792758942
178	0x3fbe7c504dc6279c	0.11908437632351226
179	0xbfb9fad64510c94b	-0.1014837187401884
180	0xbf9aa8965be64a17	-0.02603373466406297
181	0x3fc0da47c5d44965	0.13166138801222896
182	0xbf83f32e4bc529e4	-0.00974117439968309
183	0x3fb6cf5d8d346961	0.08910164544469047
184	0xbfc63b937f99db92	-0.17369312029378797
185	0x3f9ea651af297b04	0.029931331935922692
186	0x3f94b0fd57d0c664	0.020206411824068474
187	0x3f878e93b2428807	0.011502412679252684
188	0x3fcb0ff836d92678	0.21142485311638715
189	0xbf96e3b0ce7d8d5a	-0.022352945902992395
190	0x3fc9e25d74d21c83	0.2022206135190779
191	0xbfb7aac408d21c53	-0.09244942870474064
192	0xbfc3a0006862c252	-0.15332036110841557
193	0xbfb46553040dd675	-0.07967108582473677
194	0x3fcbf7ca91d2efdc	0.218499489977943
195	0xbfc798d56b5c8557	-0.18435161344772652
196	0xbfc17d7f267b88da	-0.13664235476523495
197	0xbfbd955c179a0970	-0.11556029869283235
198	0x3fc5e948ecc2070f	0.17118178902097056
199	0x3fc2b298d051f23e	0.14607534572486885
200	0xbfc9ca9c6f4ec8d2	-0.2014956992621309
201	0xbfa7d038a5c293f5	-0.04651047728956562
202	0x3faf4334a99c43e4	0.061059613899608484
203	0x3fb21e068782db59	0.07077065285089414
204	0xbfc2672d39df362a	-0.14377370191361766
205	0xbfc22c27a0000000	-0.14197249710559845
206	0x3f9d2569c3bce0cd	0.02846303231419327
207	0x3fc23c28f91cf149	0.1424609390613887
208	0x3fc8559d8f132811	0.19011277662349405
209	0x3fc36da7779b60e7	0.15178387966330506
210	0xbfc41d1753564e5f	-0.15713779038616146
211	0x3fc48c1956da7e7e	0.16052548161404795
212	0xbfc34df1c8890d1b	-0.15081617633595887
213	0x3fc75e9ddc850f0c	0.18257497088972519
214	0xbfc88166ed9c57ba	-0.19144903757176995
215	0xbfbef6906b2b44aa	-0.12094977013045374
216	0x3fc38fd5a8f34330	0.1528269839241374
217	0xbf73523a73ec446a	-0.004717090922683112
218	0xbfbcdc6763c407b7	-0.11273809610068396
219	0xbfc4f9d25fc75d17	-0.1638739555043933
220	0xbfcceb9f40000000	-0.22594061493873596
221	0xbfc59ff15b4ffe44	-0.1689435668813407
222	0xbf960fa96a174916	-0.0215441199305327
223	0xbfc45be6aea913ff	-0.15905459907858696
224	0xbfb20002a3ab8dcd	-0.07031265731671184
225	0x3fcb1f7600ef579d	0.211897612053403
226	0x3fb0428bcff87485	0.06351541354566066
227	0x3f59b9effd631023	0.0015702098512955307
228	0x3f6f2a3c35476c1e	0.0038043189945091834
229	0x3fb7f60fcb0ef3b1	0.09359835345726598
230	0xbfc55d47a02bb17b	-0.1669091732104667
231	0xbfc02883ac7299fd	-0.1262363998441315
232	0x3fc8fdc1c83b857c	0.1952440478990346
233	0x3fbb7f666e83c0a6	0.10741272161590362
234	0xbfc35d3677e96069	-0.1512821279054635
235	0xbfb82f7840000000	-0.09447433054447174
236	0x3fa30d1043a98909	0.03720904184298674
237	0x3fbedfbe959eb75d	0.12060156967956233
238	0x3fccc69798481e6b	0.2248105519831712
239	0xbfcc7a9886d9424d	-0.22249132713706601
240	0xbfca5fdf59e49fed	-0.20605079545316532
241	0x3fbfaa3129d45b93	0.1236906745074136
242	0xbfc022a57fa9224c	-0.12605732663566227
243	0xbf8d3e03959e0a36	-0.014278438571413959
244	0xbfcd7e6fa2793547	-0.23042102273249496
245	0xbfc62d3fa13bd66a	-0.17325587628117783
246	0x3f7bed45eaca84d8	0.006818078149678906
247	0x3fa399a665d58bdf	0.03828163140385476
248	0xbfc749f9e7ce3149	-0.18194507425904252
249	0x3fcc89b429fe9fa7	0.22295238543051463
250	0xbfb69f2e2b1f0396	-0.08836639931452192
251	0x3fc8d55e255078f4	0.19401146718968898
252	0xbfc9d969f6a39613	-0.20194744627876612
253	0x3fc30acd44aab6b3	0.1487671456611018
254	0x3fc1d17558904b98	0.13920466255566732
255	0x3fbd61072b4ba307	0.1147617798520849

layer1.weight f8 [256, 256]
0	0xbfaeaf216ecb6702	-0.059929890417789636
1	0xbfaf0c9f61fd9203	-0.06064317771123131
2	0xbf5ed25800000000	-0.0018812045454978943
3	0x3f81632089f17650	0.00848985119790338
4	0x3fa157615669b09e	0.03386978320927024
5	0x3f9451fb7a9b4285	0.019843987806611913
6	0xbf99b306f5fcbb30	-0.025096997035855384
7	0x3f9bca4e80000000	0.027138926088809967
8	0x3f8fed9fc2f26899	0.015589950691993247
9	0x3fa11d8fd4c32808	0.03342866394230276
10	0xbfabe591246f80df	-0.05448583192605993
11	0xbfaa3618c9f79168	-0.05119397607248538
12	0x3f89a1f08181abc0	0.012515906288362078
13	0x3fadd79040000000	0.058285243809223175
14	0xbfa7538edd2cc645	-0.04555937242402001
15	0xbfac4e179bbcad29	-0.055283296357027396
16	0x3fa7e66800000000	0.04667973518371582
17	0xbf9cb77e04d3e2c4	-0.028043717426927697
18	0x3fa682b5642ba245	0.04396597717078924
19	0xbfab92420674db9c	-0.053850234306472816
20	0x3fab20150b20ff52	0.05297914276934414
21	0x3f75ae1468c5b45b	0.005292968486498041
22	0x3f92b3026cf7f235	0.018260991955673062
23	0xbfa3798d7140620c	-0.03803674704994728
24	0x3faefcb2cfdc990d	0.06052168643354792
25	0xbfa6b1a826f1bbc5	-0.04432416415590227
26	0xbf6c013a007f59f2	-0.0034185536241964016
27	0x3f9507df00000000	0.020537838339805603
28	0xbfaf9b53a7294ad5	-0.061731924205238244
29	0xbf9ce52e6ea447ad	-0.028218007567438686
30	0xbf9f6577199d8452	-0.030660496653016907
31	0xbf91ba1435f4be7d	-0.01731139735528452
32	0x3f9fc0314c194607	0.031006593961427267
33	0xbfa690c500000000	-0.044073253870010376
34	0x3f59d96000000000	0.0015777051448822021
35	0xbfa021c200000000	-0.03150755167007446
36	0xbfac56591483413d	-0.05534628272437423
37	0xbf9ff4bd6d7c6d77	-0.031207046325204737
38	0xbfa4e1dfbe88ba5d	-0.04078578186851154
39	0x3f42b3814043ba5e	0.0005707150562822107
40	0x3f8dab711b4eeac2	0.014487155576593639
41	0xbfacc9b07c34323c	-0.05622626796875749
42	0xbf721a0b98521558	-0.00441936997697686
43	0x3faa2eda00000000	0.05113869905471802
44	0xbf7d5ace00000000	-0.007166676223278046
45	0xbfac8c883ab7a8e7	-0.05575967518582719
46	0x3f79496b1c33684b	0.00617353286653539
47	0xbfa73c97a58c3d17	-0.04538415809485679
48	0x3f912f4a00000000	0.01678195595741272
49	0x3fabaa6884311fdd	0.05403448690100252
50	0x3f98270280000000	0.02358631044626236
51	0xbf9f4aaa553b6470	-0.030558263256214635
52	0xbfa60af3c0000000	-0.0430523082613945
53	0xbfad046024f0c48e	-0.05667400790151432
54	0x3f8dcc7f8232a0fc	0.014550205384083352
55	0x3f9d025680000000	0.028329230844974518
56	0xbfaa60deeb31c594	-0.05152031537080429
57	0xbfa17eaca1ee3be3	-0.03416957356159125
58	0x3fadd4c42d87f140	0.05826390319632191
59	0x3faa819280000000	0.05176980793476105
60	0x3f986b1c04e382d0	0.023846090124495956
61	0x3f931d6adcd21077	0.01866690609723817
62	0xbfa1af135068d29d	-0.03453884464798771
63	0xbf879cd220ed0707	-0.01152958071691358
64	0x3fa3264e40000000	0.03740162402391434
65	0xbfacf44fa4bf55d8	-0.05655144582821564
66	0xbfa48b10f2969184	-0.040123490917980426
67	0x3f8866b700000000	0.011914663016796112
68	0x3faf620580000000	0.06129471957683563
69	0xbfafba34203febbd	-0.0619674958579348
70	0x3f8d2becb843ee47	0.01424393594105945
71	0xbf71cbc4aea0df2e	-0.00434471920930672
72	0x3fa2771208251e6d	0.036064685339224
73	0xbf79142e00000000	-0.006122760474681854
74	0x3fa2d4cfeee28c1b	0.036779878531227626
75	0x3f8ebfa300000000	0.015013955533504486
76	0x3f91a5a99e0700c3	0.017233515043472602
77	0x3f8c8bd41604d7dc	0.013938576623882364
78	0x3fa351cc63bcfdd4	0.03773344724185859
79	0xbf97f5a100000000	-0.023397937417030334
80	0xbf99bb3d1c938459	-0.025128321522860684
81	0x3fa8d582c0000000	0.04850395768880844
82	0x3fab4048ac8871b6	0.0532248221026949
83	0xbf5b663800000000	-0.0016723200678825378
84	0xbfa3bdb9513efd40	-0.03855685345433324
85	0x3f8f4f5500000000	0.015288032591342926
86	0x3f57d6f075fb49ec	0.0014550541163101905
87	0xbf936998820dde78	-0.01895750325954146
88	0xbf9543767d6f2c19	-0.020765162855053008
89	0xbfaea63580000000	-0.05986182391643524
90	0x3faff7157a96be5f	0.062431975569208424
91	0x3fa2c6ecfad9dc39	0.03667393266817282
92	0xbfad57a480000000	-0.057309284806251526
93	0xbf92f39200000000	-0.018507272005081177
94	0xbf9da67a80000000	-0.028955377638339996
95	0xbfa8b3bb40000000	-0.048246242105960846
96	0xbfacd8a8c0000000	-0.056340478360652924
97	0x3fa084f880000000	0.03226448595523834
98	0xbf9a4d210e2e6acb	-0.025684849253233815
99	0xbf715b8faf7f530a	-0.004237710258128366
100	0x3faa32739f30bb00	0.05116616552583331
101	0x3fa937996565375c	0.04925231325851939
102	0xbf9d5c5645803ff2	-0.0286725501937894
103	0xbf9e769580000000	-0.02974923700094223
104	0x3fa062e880000000	0.03200460970401764
105	0xbf7ffc7000000000	-0.007809102535247803
106	0xbfa2c5ae44c25c2d	-0.036664434331378316
107	0x3fa111686a72661d	0.03333593654060627
108	0xbf735d41a0b644bd	-0.004727608068962383
109	0x3faa0f052b52871e	0.050895844972968826
110	0xbfaf404a99afcca0	-0.0610373795133452
111	0xbf973c447d57b974	-0.02269083991080252
112	0xbf930313b5bd09a5	-0.018566425292428374
113	0x3faf3d15229e631f	0.06101289794532349
114	0xbf9d82ea0ab59aef	-0.028819710639619463
115	0xbf845bab47da283c	-0.009940469866041572
116	0xbfae215cb0a14330	-0.05884828239562123
117	0x3f8738ea585be6c1	0.011339026280882238
118	0xbf9665379d72804d	-0.021870488152331103
119	0xbfae6792c893ad04	-0.05938395212600692
120	0x3fa96a6680000000	0.04963989555835724
121	0x3fae889761dd89c7	0.059635859199960665
122	0x3fa2984840000000	0.03631807118654251
123	0xbf94eb1f80000000	-0.02042817324399948
124	0x3f8c374100000000	0.013777263462543488
125	0x3f9456c7b07bdd9a	0.01986228956863343
126	0x3fa318bc04f0348f	0.0372980838802529
127	0x3f7840742f783514	0.005920842980697633
128	0xbfadbfe987b4ca02	-0.05810479909486689
129	0xbf877dd50a61e4e5	-0.011470474604936285
130	0xbf90d771607c80cf	-0.016446849359568468
131	0xbf8dfa6d47a06295	-0.014637807606093825
132	0xbfa4719a80000000	-0.03992922604084015
133	0xbf928ed3c058cd4a	-0.018122967352792764
134	0xbfa31ba12acb7651	-0.03732017180821557
135	0xbf8372ed00000000	-0.009496547281742096
136	0xbf97fc7580000000	-0.023423992097377777
137	0x3fa02d57a7d2bc81	0.03159593509314452
138	0xbfab1d3300000000	-0.05295714735984802
139	0x3faff5dc00000000	0.06242263317108154
140	0x3fa4f54d6f3b062e	0.040934009387921896
141	0xbfad55e06fc8a627	-0.05729581226871643
142	0x3fac43b0360c9d4c	0.05520392093449775
143	0xbf6912eb26e41994	-0.0030607788859271044
144	0x3fafac4c00000000	0.061861395835876465
145	0xbf9356f37a6f3d48	-0.018886379573641393
146	0x3f840d5be2e6ee27	0.0097911051387803
147	0x3f2dc44000000000	0.0002271011471748352
148	0xbf7aa89b29aa76f1	-0.0065084515614708275
149	0x3fa565b3505a5d98	0.04179153781768291
150	0xbfad4e3d693447ff	-0.057237547962486694
151	0x3f87b5d8a2fbce00	0.01157731292139541
152	0x3fa9f6efa16a0b54	0.050712097600828315
153	0x3f9ccfef9535a609	0.028136962396649454
154	0xbf83bb4300000000	-0.009634517133235931
155	0x3f3c310c3234b690	0.00043016956097372775
156	0x3f66ce3400000000	0.0027838721871376038
157	0xbf8dce96eba43f03	-0.014554194513521695
158	0xbfaa35d140000000	-0.051191844046115875
159	0x3fa2d8f4c0000000	0.03681149333715439
160	0x3f6d5db14f63bf2a	0.0035847151840399287
161	0xbfa3882d1f4b713a	-0.038148317403939605
162	0xbf755f43a8da7822	-0.005217804236648889
163	0xbf924cdb37176223	-0.01787130855322706
164	0xbf91ad9480000000	-0.01726371794939041
165	0xbf665ddc4837cd27	-0.00273030303810064
166	0x3fa805b6a915699f	0.046918590679257514
167	0x3fa948adac46a03e	0.04938261726357539
168	0xbfabf65d00000000	-0.054613977670669556
169	0xbf9a9eb95d046a0a	-0.025996109297105753
170	0x3f9b80703e5e189b	0.026857141310323667
171	0xbf9c77459db1fa96	-0.02779873633380222
172	0xbf9d6c74653bb16e	-0.028734034231932375
173	0xbf89395bf76305ec	-0.012316435324808382
174	0x3fa7ef26599282b2	0.0467464432088084
175	0xbf93aa4c6ad0a060	-0.019204324740855205
176	0x3fa6e7cfc0000000	0.044737331569194794
177	0x3f9db0de00000000	0.028995007276535034
178	0xbf97fc97ea1e917e	-0.023424504913820858
179	0x3fad71774ab55b87	0.05750630175560106
180	0x3f840cb6184960fd	0.009789869896096532
181	0x3fad01c68eff2de3	0.0566541719013818
182	0x3fa1e0e480000000	0.03491891920566559
183	0xbf9791f04c61309f	-0.02301764932808281
184	0xbfa71d255d6f66be	-0.04514424100461899
185	0xbfa0c57b69b25de3	-0.03275666871303053
186	0x3facf26f30d64418	0.056537127219719874
187	0xbfa2f85d00000000	-0.037051111459732056
188	0x3fa7a0aba14a3f11	0.04614769309875844
189	0x3f931a8dfaa3e414	0.018655985281814294
190	0x3facb3a0d3042095	0.05605795455818555
191	0x3f81303c0c2c1306	0.00839278137346745
192	0xbf9c073bc9e01816	-0.02737134380006275
193	0x3f9973ff1542c729	0.024856553719195738
194	0x3f976456abbbaa01	0.022843698722605058
195	0xbfaaf7c6552f2651	-0.05267162122579506
196	0xbf969e24aab6da3f	-0.022087643546649934
197	0xbf9529d580000000	-0.02066739648580551
198	0x3f81f01d217214b3	0.008758761962108208
199	0x3fabaa1b80000000	0.05403219163417816
200	0x3f9d9a6080000000	0.028909213840961456
201	0x3f7dae5809847cf0	0.007246345420099262
202	0xbfa1673a912638b8	-0.03399069806902005
203	0xbf89cce47a00bac3	-0.012597832654220103
204	0xbf87922c00000000	-0.01150926947593689
205	0xbf78659c00000000	-0.005956277251243591
206	0xbf9f4abd60c759c0	-0.03055854705038441
207	0xbfa049e5329a6c24	-0.03181377642359731
208	0xbfa12207e7b48d5e	-0.0334627600043642
209	0x3f806c4200000000	0.008018985390663147
210	0xbfaceee180000000	-0.056510016322135925
211	0xbfac6031aa442f75	-0.05542140201040883
212	0xbfa4fa0d00000000	-0.04097023606300354
213	0xbf9d2df456b0e8e0	-0.028495614806367864
214	0x3faf496dca1754d0	0.061107092780426364
215	0xbf84445253ab601d	-0.009895938089741258
216	0xbf6c390aad6ca1c6	-0.0034451683562972428
217	0x3f8143e900000000	0.00843030959367752
218	0xbfa216c639dfa7e1	-0.03533000427690048
219	0xbf9fd4416927799c	-0.03108312801657008
220	0xbf72269a00000000	-0.004431344568729401
221	0xbfaf159300000000	-0.06071147322654724
222	0x3fa37795aff8e387	0.03802173398111735
223	0xbf7389205bac249e	-0.0047694457996466915
224	0xbfa2094086cfc2a5	-0.03522683759354565
225	0xbf87167800000000	-0.011273324489593506
226	0xbf924f8780000000	-0.01788150519132614
227	0xbfad4fad7e0675dd	-0.05724851764101022
228	0xbf83962fb702fa05	-0.009563801548549309
229	0xbfadae8f56cf407d	-0.05797241148650387
230	0x3f70160800000000	0.003927260637283325
231	0xbfa2a2423c00959d	-0.036394185852525164
232	0xbf79390b580c32f3	-0.0061579173204904135
233	0x3fae969fa0662291	0.05974291642184427
234	0x3faffb5e55203cf8	0.062464664355610766
235	0x3f9d599b80000000	0.02866213768720627
236	0xbf7e18ee00000000	-0.007347993552684784
237	0x3f87c33b33a81a77	0.01160284282106015
238	0x3f9e8a0a306f2c33	0.029823455053513647
239	0xbfab833fd3abbf08	-0.05373572787163822
240	0x3fa23fa259600157	0.035641740236317325
241	0xbf7d517000000000	-0.007157742977142334
242	0xbfa2c04a80000000	-0.03662331402301788
243	0xbf92cabf80000000	-0.018351547420024872
244	0xbf91d7dbc3a03f55	-0.017424997153340744
245	0xbfa515015b381cb6	-0.041175882706789776
246	0xbfac253500000000	-0.0549713671207428
247	0x3f9f686485850a11	0.030671663903612926
248	0x3fa06f864050d66c	0.032100863791509976
249	0xbfa28179418ff1bb	-0.03614405560799435
250	0x3fa491c85a490cce	0.040174733182107056
251	0xbf8723a76fb058b3	-0.011298473449681578
252	0x3f502539be0fd7c1	0.0009854377642546238
253	0x3f98d1fe1457d6a5	0.024238557807584233
254	0x3fa305d7acf92b4a	0.037153949608713946
255	0x3f86f3498f088676	0.011206221272973976

layer1.bias f8 [256]
0	0xbfaeb08e3c8dc68c	-0.05994076241667043
1	0xbfa97d022d05b51b	-0.04978186416233595
2	0x3fa2eef0154cc7c7	0.03697920093544798
3	0x3fa39f698d7724b2	0.038325594443059954
4	0x3f71be6fb75c5916	0.004332004920590179
5	0x3f892e8c0b80f175	0.012295812703194223
6	0x3fa2284bc4862403	0.03546368383383227
7	0x3fa3d8df9c74a7c8	0.03876398835048139
8	0xbfad63c1d953baa2	-0.05740171220701497
9	0xbf8bf2900e11869a	-0.01364624541219266
10	0xbfa30bdf5355d972	-0.0371999539592477
11	0xbf8c43f2779b7236	-0.013801473879930897
12	0xbf991c1558a42049	-0.02452119210741469
13	0xbf9a406380000000	-0.025636248290538788
14	0xbfa4fed5949ff055	-0.041006731407805454
15	0xbfb0058d4a82b6fd	-0.06258471554857788
16	0xbfaa0ba0cb476258	-0.05086996537619787
17	0x3fafab11b7da3417	0.06185202950755569
18	0xbfa151e8b1474cb6	-0.03382804073376049
19	0xbfa8590ec3d85b8a	-0.04755445614517047
20	0x3fad380ca6ccf8fe	0.057068248139772834
21	0xbfa650c20cf28d90	-0.0435848847203274
22	0x3fac08791b104882	0.05475214438787736
23	0x3fa6769fbf87754c	0.043873779420872866
24	0x3f6312b81077fcbf	0.0023282618528806804
25	0x3f78df385b4a1fe2	0.006072254317253086
26	0xbf803e864563bb2c	-0.007931756012536782
27	0x3fa1c588b1c11750	0.03471018953182059
28	0x3f9f712154ba7a4a	0.030704994961178657
29	0x3fa8a0c9f3626a30	0.048101721725477
30	0xbfa429738a0a08ad	-0.03937874851273313
31	0x3f93e55ac50f3e5c	0.019429605748710763
32	0xbfa6a2183b008aa7	-0.04420543403855009
33	0x3f83cfe6786fe53c	0.009673882055710174
34	0xbf938288d389fc01	-0.019052637015644084
35	0xbfa92d1551ce6364	-0.04917208312617197
36	0xbf94498b3a9b419f	-0.019811797573142106
37	0xbf78dae300b74a93	-0.006068121652293218
38	0xbfaa487cec753929	-0.051334289421549
39	0xbfa4d0ea33e9df77	-0.04065639384947322
40	0x3f91e1bf902c4c5b	0.01746272389852908
41	0x3fad7ce70fd21e5e	0.05759355610012727
42	0xbfa5bf0aa7d23940	-0.04247315691565001
43	0x3fa33ccdfc8575ed	0.037573277545316454
44	0xbfa3fd813360c028	-0.03904346229717276
45	0xbfa95122bf33d602	-0.04944714149489117
46	0x3f852aba31eee83e	0.010335402153817449
47	0xbf92f85a16bb1052	-0.01852551234948436
48	0x3fa04b73d84d3505	0.03182565703773758
49	0x3f810f3cceb28070	0.008329844530010372
50	0x3fa56373bfb70677	0.04177438464422505
51	0xbf96cf3500000000	-0.02227480709552765
52	0x3f762e2696879062	0.005415106520079234
53	0xbf74d31a08521587	-0.005084134759390741
54	0xbfb05e2cedd00a3c	-0.06393700414631892
55	0xbfa2d709a71a2767	-0.03679685749837241
56	0xbf78fcdd508d9697	-0.006100525389091913
57	0xbf8c905397283252	-0.013947156000562764
58	0x3fa38d3ba467591e	0.038186897105037185
59	0x3fa096c03c8ffcd5	0.03240013827598324
60	0xbfb067ab199ea22d	-0.06408185363273651
61	0x3fa6e3cb249ddf09	0.04470667669278156
62	0x3f91875f70d1478c	0.017117968808015457
63	0xbfa583ef2b8b4656	-0.04202220350783807
64	0xbfa2db5940fcba9a	-0.036829747374544655
65	0xbfac6fa440000000	-0.05553925782442093
66	0x3fad5628fbba3587	0.05729797432750688
67	0xbf9bb7ae65624421	-0.027067875802973988
68	0xbfabc087194590f0	-0.05420324500554041
69	0x3f996754140e62cf	0.024808229183323868
70	0x3fa5439da67a74ee	0.04153149277883893
71	0x3f630ff9ff5ed402	0.0023269541515795753
72	0xbf70e4848585eb76	-0.004124181425477205
73	0xbfa329bfa05cf98a	-0.03742789108808882
74	0xbfa6a812c0000000	-0.04425104707479477
75	0x3fad199a5e4243ca	0.05683596039410295
76	0xbf7e271c9ee4ab50	-0.007361518668669145
77	0xbfb1a8cae1963983	-0.06898181922426798
78	0x3f8401e18eecc3ea	0.009769212888928142
79	0x3fac765be3db0a69	0.055590507091911
80	0xbf8d3add00000000	-0.014272429049015045
81	0xbfaf58d5bb0ee7c2	-0.06122463138986191
82	0x3f9167020c37df7c	0.01699450683187774
83	0x3fa3fada5383cd12	0.03902323026150091
84	0xbfa7c9e99d37f9df	-0.046462345544558074
85	0xbf97a1ad070c5145	-0.023077682070906453
86	0x3fa27a7a05aa36d4	0.03609067267562485
87	0xbfaa0fc4b1c7fde5	-0.05090155286961443
88	0xbfa2473a6201cd52	-0.035699676955938245
89	0x3f6f80dc9a3b9d89	0.003845625747874674
90	0x3fa5e26ed0ceb8fe	0.04274317072791865
91	0xbfadc6bcb7ccad92	-0.05815686935087706
92	0xbfad0668feabd5eb	-0.056689530456349356
93	0xbfa184af12fccb07	-0.03421542269497562
94	0xbf713069e71de1f1	-0.0041965615108598845
95	0xbfaf01dae3514572	-0.06056102776404772
96	0xbf50cb6273b7d86e	-0.001025053162150093
97	0x3f60e1b0843d071d	0.002060742148302887
98	0xbfa053d409282650	-0.03188955890443579
99	0x3faf5b8a2d0e4b51	0.061245267868022986
100	0xbf9a1ee94256fcea	-0.025508541750011306
101	0x3fa28fc5b0c78cbd	0.03625314505532049
102	0x3f93eeb26d19f6a3	0.019465244206449694
103	0x3f8d5fca794f57f2	0.014342862917981567
104	0xbf88bcc05598725a	-0.01207876454560013
105	0xbf9310336258d5e8	-0.018616488340020526
106	0xbfa27e6c2270b21e	-0.036120776371124416
107	0xbf71200811b8fb20	-0.004180938263344897
108	0xbf915a937d6bedac	-0.016947083025099438
109	0x3fa912a2e1f81b88	0.048970308384062966
110	0xbfa7b5b6bb3200df	-0.04630824122523491
111	0xbf55f79bfd87ff3f	-0.001340772947628424
112	0xbfa6746240000000	-0.04385668784379959
113	0xbfa4ba6bb705b778	-0.04048477753791152
114	0xbfa2183ae899a3c2	-0.03534111108167039
115	0xbf9e7d03e9ed98b8	-0.029773770478094902
116	0x3f71483f40e6e54a	0.0042192908135175265
117	0xbfa4f38149803bc4	-0.04092029592731408
118	0x3f8d2227fdefa7a3	0.01422530406667361
119	0xbfae2f3b44185604	-0.05895409780729824
120	0xbfa548949f48772f	-0.04156937069295307
121	0x3f8acc8b72c3caff	0.013085450591892476
122	0xbfaaf708a64b55ec	-0.052665968226999954
123	0xbfaca6792cf61b1b	-0.05595759080738657
124	0xbf9e982c24976aec	-0.029877366765371713
125	0xbfae6311c892598a	-0.05934959004769087
126	0x3f96b90f7102e64c	0.022190324089683508
127	0xbf7d49340293f5bb	-0.007149890102707552
128	0xbf9377677b05d52c	-0.019010178455080837
129	0xbfa3e2723b2b52a1	-0.0388370225170196
130	0xbf9b9ba2cca28f09	-0.02696089147560968
131	0xbf9b046e1f902291	-0.026384087254003822
132	0xbf97bcaa364d2fc6	-0.023180636944104348
133	0xbf9d5abf894ae149	-0.028666489367169565
134	0x3fabdb1f40000000	0.054406143724918365
135	0xbfa5149e65056d57	-0.041172933417977724
136	0x3fa2ba8668cc3b12	0.03657932309407931
137	0xbf9d16c4298dbed1	-0.02840715888618101
138	0x3f7dd492fc30b624	0.0072828046423132654
139	0xbfa6001a7862a8c2	-0.042969538875085714
140	0x3fa4169bc4efcff6	0.0392349889661147
141	0x3fb0296d279bbf7c	0.06313211647989009
142	0x3fa6718001c20610	0.04383468648394395
143	0xbf844cb3ca1f5779	-0.00991192303255749
144	0xbfa7e9b0d5455356	-0.046704793962510635
145	0x3fa914d1052efcb2	0.04898694217944789
146	0x3fb03fe504ea8e75	0.06347495431924151
147	0xbfa0433452f21431	-0.031762728810499026
148	0x3fac99aaab3e8f4d	0.05585988369355608
149	0xbf9e36036640fd2f	-0.029502919307785532
150	0x3f9237a1378cc57f	0.01779033566999066
151	0xbf95ea4f6fb666fe	-0.02140163535441441
152	0x3faec3eb8f23471e	0.060088502142788366
153	0x3f829c5d0d7a44a7	0.009087302182964342
154	0x3f3fea556c7d7672	0.00048698983709081275
155	0xbfa747e814efff8c	-0.04547047858795769
156	0x3fa02e2f5b47d3ea	0.031602363484047505
157	0xbfacee500071a8b2	-0.05650568013591463
158	0xbf595f7800000000	-0.0015486404299736023
159	0x3f9ec42333f08d84	0.030045080227990364
160	0x3f85f2b4aa7b0809	0.010716830685286298
161	0xbfb039ed23e6c5b4	-0.06338388563633296
162	0xbfa6d95daa1fcef3	-0.0446271200343328
163	0xbf9d436918604a44	-0.028577463257599925
164	0xbf853cc89019566a	-0.010369841477920267
165	0x3fb00c60beef3eb0	0.06268887197006268
166	0x3f84d2322c5b588f	0.010166542032873841
167	0xbfa8f106a44b7950	-0.0487138820223999
168	0xbf623478d128ff40	-0.0022222861964848184
169	0xbf74ec0600000000	-0.005107901990413666
170	0xbfa3bf36399c6593	-0.03856820538767205
171	0x3f96ac3da42c636b	0.022141421456669457
172	0xbfad6c9a4a8cd727	-0.05746919784580334
173	0x3f92c431db37c35e	0.01832654858111781
174	0x3fac046179b94ceb	0.05472092257391544
175	0xbfacc8534121749f	-0.05621586008121792
176	0xbf8ed79a8319ffa5	-0.015059668661024104
177	0xbfa96d915fc1be8f	-0.04966406148821278
178	0xbf9acbada81268de	-0.02616759622888131
179	0xbf937077ae756af8	-0.018983716986762794
180	0x3f84db2f584ace01	0.010183687097515383
181	0xbf9551a75805274a	-0.020819296595880922
182	0xbfa7137ec5f3fd5d	-0.04507061163348667
183	0x3fa7058c8b9f9cd8	0.0449642105521037
184	0xbf988420c1aec515	-0.023941528150037323
185	0x3fa712be59cc2053	0.045064876996605684
186	0x3f827ee1395e2412	0.0090310664779896
187	0xbf9c1889962ddd52	-0.02743735293503608
188	0x3fa6aa48dc583ea9	0.04426791848902429
189	0xbf8659d650447e4b	-0.010913538288661281
190	0xbfa5d90514312bd8	-0.04267135497556013
191	0x3fab3e8701573eac	0.05321142093054951
192	0xbfa2245dbb17bcd8	-0.03543370159956688
193	0xbf8e5ceea6a64625	-0.01482569166253984
194	0xbf8bec151d9c8f57	-0.013633885351346171
195	0x3fad1b1917731272	0.056847366440284555
196	0xbfab8b3c50669ce1	-0.05379665833907566
197	0xbfa82984230ccbf5	-0.04719174316269196
198	0xbf9f8b9dac8b6879	-0.030806029945644717
199	0xbf953a4944358ae5	-0.02073015669646851
200	0x3f9ca24ba10866d3	0.02796285791746451
201	0xbfac02ca0c23b9e9	-0.054708780271415076
202	0xbfa972d8abd045dc	-0.04970433327992982
203	0xbfa1956d1914ec0b	-0.0343431561581938
204	0xbfa5db03f7b3e101	-0.04268658064569487
205	0x3f9ec5dc8d94a05f	0.030051656857864702
206	0xbf789a72e2bcf0e7	-0.006006668827293483
207	0x3f721913aa4dfdeb	0.00441844636668474
208	0xbfa9721d02884398	-0.0496987405387081
209	0x3f8adbb517c575f1	0.013114371097510765
210	0x3fa8c34b551fae52	0.048364977017482005
211	0x3fa8236328d854e3	0.04714498399349922
212	0x3f8f95432b6c8442	0.015421414148990679
213	0x3f99048e40fae1f8	0.024431441036286444
214	0x3fa208a5a4950fd6	0.035222221699342235
215	0xbf9fbfdb65ee1dc9	-0.03100531396515097
216	0x3f92c7b4606de3e5	0.018339937577795857
217	0x3faed5b1e9adf70e	0.06022411325009901
218	0xbfaeb7708c8a3e06	-0.05999328342033654
219	0x3f99cacf7ffb8c86	0.025187723337591915
220	0xbf84733caa6bd49d	-0.009985422087519341
221	0x3fa436784025a5e8	0.03947807105107498
222	0xbf7426d636155f3f	-0.004919850123165591
223	0x3fa37573da4c1ad1	0.03800546684037943
224	0xbfa2565b08b53457	-0.0358150909547496
225	0xbf9d8c3159bfd8f8	-0.0288551054981889
226	0x3f94289890bf9667	0.019686111292591593
227	0x3f9ccd4c2ce60806	0.02812689804114401
228	0x3fa06c88e78eb3eb	0.03207805468205279
229	0x3fa2c6fd2b038287	0.03667441511220653
230	0xbfa0033aa4b5959b	-0.03127463589298004
231	0x3f951f27e539c552	0.02062666260321084
232	0x3fa1de6a9de505bd	0.03490002801346346
233	0x3fab023f31cdbd76	0.05275151713328345
234	0x3fabe134b6dc155d	0.05445255977796635
235	0x3fb22ff04e8a785d	0.07104398648741168
236	0x3fa2ebfeee855f96	0.03695675527222801
237	0x3f8f349bb92bfcfc	0.01523706110810829
238	0xbfa4e9ae25c2cd46	-0.04084533892582924
239	0xbfaa7cebfbd00d5a	-0.05173432778249305
240	0x3faa6f33953c0dba	0.0516296500846027
241	0x3fa436be8441790e	0.03948016514253726
242	0x3f7e13fbfa0c27c9	0.007343277248546395
243	0xbfa6128e47df55a5	-0.0431103193983902
244	0x3fa2bc43b9749299	0.036592594517320616
245	0xbf93155ba2e840e5	-0.018636161630696164
246	0x3f74e85062eb8ae3	0.005104364404106862
247	0xbfaed0b1e71ca4d6	-0.0601859659785277
248	0xbfad31e7c334af77	-0.057021372393449114
249	0xbfadfee832412541	-0.05858541120012229
250	0x3faddd67aa1afe62	0.0583298106334922
251	0x3f9155701ccf5fcc	0.016927482374597777
252	0xbfa49e2d20a64d36	-0.04026928924136046
253	0xbfad9c9e42cb3e69	-0.05783552708964807
254	0xbf8d744c7fa7a491	-0.014381978650776868
255	0x3f986a25d62674d4	0.02384242171830382
