python/snapshots/first_with_speed/snapshot400.pt (torch_old, 586867 bytes, 6 tensors)

layer0.weight f8 [256, 19]
-0.03073309376579298 0.029554259545135474 0.17733258886294936 -0.00931044999195033 0.055694480695628976 -0.16784984285609897 0.0026094020951698297 0.15318519124316365
0.08291295792253804 -0.11649660244259367 0.15231969601038706 -0.08101835588873102 -0.07380880026128794 -0.10497419294341068 0.014144603690731353 0.03161437958516217
0.18266130023123214 -0.0782919876677398 0.22320778020618265 0.20499562300046426 -0.21983579785307505 -0.1521278766456253 0.07032814743817346 -0.07752331484079804
0.1416998063724002 0.20261984389137752 0.15684816311996308 -0.013334456867973844 0.18402932233898914 0.016663146248171987 -0.18042890317255245 -0.028678751128088348
-0.13966428644546186 0.012193046446379509 0.21506673964267098 0.1441356468141078 -0.051478173351799876 0.08284345280948029 0.01781335473060608 -0.15902094542980194
0.054460421204566956 0.04619543254375458 -0.04057024419307709 -0.14814025163650513 -0.1398833692073822 -0.19245745241641998 0.026229366660118103 0.06626017391681671
0.11369650065898895 -0.0921313613653183 -0.020538195967674255 -0.07791317999362946 0.13308055698871613 -0.07619740068912506 -0.01022474467754364 -0.15182451903820038
-0.007977575063705444 -0.13466512796983138 0.20031287202919154 0.06381737276647392 0.02524802703511599 -0.15289598904768179 0.16101236715881753 -0.05127627359990152
-0.19060152096861763 0.002457739204989598 0.0648092323735827 0.1599739575967349 -0.22532705983407322 0.007808097134266399 0.08016450475731292 0.17226366746476315
-0.08639457908892641 -0.009665655997733709 -0.1701483929178537 0.10877353135278096 -0.07824141296114848 -0.06506671764538295 -0.07909545290028568 0.054287188648393006
-0.20407488220541198 0.1665456845747775 0.10430168282999497 -0.15845579916688368 0.030371400320703807 -0.06993818108257444 -0.21326518558374727 -0.006875394486672356
0.08517101821033547 0.17003705097667454 0.10031016110057465 0.17994277497181338 0.21073270734992997 -0.08010724359745196 0.02562903253630097 -0.15736427918582635
0.08900532641103089 -0.006832546405917902 -0.12687273984510064 0.023805917030525165 -0.01320961116703134 0.1890451188233004 0.004185476476090811 -0.14698151759422218
0.03975298081786562 -0.12506204658558048 -0.005211350420856859 0.2277330283607213 -0.19276587829936934 0.07341354226546043 0.1704181119850184 0.1958107059940705
0.08641650162964012 0.21619719752461633 0.0421877812950022 0.14084879747502266 0.05336553802502942 0.14730944350307618 0.17984207899258522 0.1291858975461279
0.003216120390931018 0.21129799777160355 -0.16405041480628701 0.1839917050572289 -0.1294881263815706 0.18878278446491628 0.1846804178181973 -0.15622899748321248
0.05760827904236817 -0.043035141914006717 0.13497349045448861 0.05782522306322964 -0.020209976500059637 -0.024760682357025915 -0.20267455551220895 0.07508276406979142
-0.044685281325601484 0.1442945268133824 0.026162232219264326 -0.22414386395886016 -0.20983804391384378 0.101861650798581 -0.22682514345715346 0.12044803877004676
-0.07379448494724784 0.04130479115225272 0.017428356313214176 -0.04748051026793873 0.16897978762351173 -0.0582879376190607 -0.02159382307594676 0.00855452413308358
0.09613375467517031 0.16291850225995194 0.1165448757597723 -0.12048672230610981 -0.16977148606990786 -0.09576570588794305 0.02225881061787715 0.018415782055715972
-0.06434822523310224 0.12442978773196683 -0.18347523521390638 0.13110035257052766 0.22508695865442524 0.08343774641750444 -0.005563530574695904 0.02372058380088998
-0.13126051419966153 0.19908349200236933 0.21110011119703428 0.14603237063432434 0.06026597968288637 -0.042358202978999594 0.22512166265814665 -0.15186454977982272
-0.023973130544376556 0.07832220748776478 -0.16757148186630516 -0.1641672423378172 -0.04782688084658928 -0.05732848759763126 0.1468575796907702 0.044447416857219035
-0.21141750384417604 0.11329961048451533 -0.13497473386180675 -0.13417932646912234 0.2091114212616799 0.20407826371393403 -0.16496337234069985 -0.03127695823450772
-0.1957911789118597 0.039415386921821255 -0.06820866685087437 -0.09063769040399755 -0.1397437996774917 0.13608075537841324 -0.20891222877562995 0.06313703901789944
-0.13843591293778942 0.11655961312867169 0.05727175077779099 0.024910650087335912 0.053539473782841664 0.12474892673247627 -0.056475248435659584 0.12186248488380926
-0.09130970184229681 0.059569564632055844 0.16831059964443082 -0.008373774104182673 -0.10775590160906375 0.21299907154810696 0.1264851008525258 0.05357636684271418
-0.21468775180938746 0.10998917509538933 -0.10487991673268257 -0.05043568817446343 -0.10731029110564687 0.06266291956739616 -0.21371602677103035 -0.11095464235760727
-0.13108250853830875 -0.19584765369383236 0.1813173299284859 0.11854492694559164 0.18897886013774487 -0.0683940649246958 -0.20391765013673605 -0.07256119676431232
0.028743295629188113 -0.19021715285859386 0.13777043988130208 -0.2173487783915667 -0.13378099860317 -0.116469905891197 0.08579821892082139 0.1446771428389349
-0.19417443928643158 -0.05310616897653202 0.0785212860521587 -0.06628302782059872 0.036805635114829774 0.19963150696318918 0.02184854488833927 0.18094993582924326
-0.04723396075164036 0.06711753534878548 0.08278090005160377 0.05941454933531723 0.11602143875574877 -0.07152292283170175 0.12962105242398805 -0.2210566546391783
00000000: f213 8402 7f78 9fbf c3be d0c8 7843 9e3f
00000010: 8137 d792 d5b2 c63f 92cf cf71 5b11 83bf
00000020: 7e94 4faa fc83 ac3f dd53 da88 1a7c c5bf
00000030: 46d5 2515 5060 653f 7079 4f85 929b c33f
00000040: ff21 b19a c839 b53f 9b07 96a9 b8d2 bdbf
00000050: f35c 7338 367f c33f 34f4 ea74 9ebd b4bf
00000060: 7c7b 472f 22e5 b2bf 6eae 9db5 96df babf
00000070: 88f0 2192 d8f7 8c3f b89e cd8c c22f a03f
00000080: 1b76 5e0b 7261 c73f 0760 9296 f10a b4bf
00000090: 3e62 1992 1292 cc3f 0c19 4eec 4b3d ca3f
000000a0: 646f 2255 9423 ccbf 775e 801f ed78 c3bf
000000b0: 7537 3c85 0601 b23f 7b32 eb65 91d8 b3bf
000000c0: e807 1c21 3823 c23f 1f5d 8471 72ef c93f
000000d0: 64da 84c1 9913 c43f 7a51 4381 184f 8bbf
000000e0: 63ba 79d8 458e c73f dcc9 bcd0 2410 913f
000000f0: b48b 3057 4b18 c7bf 78b5 bd68 f65d 9dbf
00000100: 62e9 59f3 84e0 c1bf f474 cefd aaf8 883f
00000110: c47e 9c92 4e87 cb3f 2a90 a070 0973 c23f
00000120: f7f1 01de 585b aabf cb22 8180 3a35 b53f
00000130: 0000 0000 aa3d 923f 0000 0060 cc5a c4bf
00000140: 0000 0080 3ce2 ab3f 0000 0080 eda6 a73f
00000150: 0000 0080 9fc5 a4bf 0000 0080 42f6 c2bf
00000160: 0000 00c0 b2e7 c1bf 0000 0020 72a2 c8bf
00000170: 0000 0000 dfdb 9a3f 0000 0040 6df6 b03f
00000180: 0000 00c0 361b bd3f 0000 00c0 eb95 b7bf
00000190: 0000 0000 f707 95bf 0000 0040 1ef2 b3bf
000001a0: 0000 00a0 c808 c13f 0000 0040 ac81 b3bf
000001b0: 0000 0000 b6f0 84bf 0000 0060 fc6e c3bf
000001c0: 0000 0000 8c56 80bf e662 45f8 b43c c1bf
000001d0: a7a6 2a29 daa3 c93f 80da f2d8 5556 b03f
000001e0: 250d 9e69 9eda 993f 791e 5384 1892 c3bf
000001f0: e16d 99a1 0d9c c43f 033b 583c e240 aabf
00000200: a164 9071 a165 c8bf 06aa 3db0 4022 643f
00000210: affd 857d 5697 b03f 377a 0bd2 067a c43f
00000220: 2d12 7260 84d7 ccbf cbe2 5e1d 62fb 7f3f
00000230: ed91 3b36 a985 b43f 336c 0661 bc0c c63f
00000240: 7d16 bd83 f41d b6bf 77ba 3c63 96cb 83bf
00000250: 354a 862b 6cc7 c5bf d5a3 d407 95d8 bb3f
00000260: 1668 dc15 a107 b4bf ff50 5860 36a8 b0bf
00000270: b312 787f 993f b4bf d25a acc7 87cb ab3f
00000280: 1aef 8030 201f cabf e1f0 4476 5e51 c53f
00000290: 102f acdc 83b3 ba3f 7c43 a495 4748 c4bf
000002a0: 75d0 712c ae19 9f3f 48cb 7df8 77e7 b1bf
000002b0: 7f91 ba0a 464c cbbf c94a 7aa7 5f29 7cbf
000002c0: 09c9 c791 c4cd b53f 0ccc 862a c6c3 c53f
000002d0: 672a 623d edad b93f fee4 d366 5d08 c73f
000002e0: 83fb 2113 4af9 ca3f a37b 6c87 e881 b4bf
000002f0: d73f 4942 7f3e 9a3f d2b3 5440 8324 c4bf
00000300: 41ed 1a96 0dc9 b63f 7c03 cab5 71fc 7bbf
00000310: 69be 31ae 5d3d c0bf 85bb 630c 9460 983f
00000320: be67 a4ff a30d 8bbf d741 6865 a132 c83f
00000330: 8eea 5349 ca24 713f 4881 9755 4ad0 c2bf
00000340: c3ff 0fb1 805a a43f 9f27 077c 0802 c0bf
00000350: 075c 023a 7f58 75bf 98a0 831a 5b26 cd3f
00000360: 114e 8a63 8dac c8bf 3c19 1ddb 3acb b23f
00000370: 8394 cfbc 42d0 c53f 0dc1 3941 5310 c93f
00000380: 5283 5550 641f b63f 3d73 6d8a 59ac cb3f
00000390: fcd9 e709 a399 a53f f406 6b59 5507 c23f
000003a0: 9115 1a51 ba52 ab3f 086c 1e2d 09db c23f
000003b0: f1e0 dbb3 1005 c73f c552 88da 2989 c03f
000003c0: 2cff c47c b158 6a3f 2dd5 1113 d00b cb3f
000003d0: 8c7e 3e9f 9aff c4bf b260 fa49 0a8d c73f
000003e0: 88bb 0322 1193 c0bf 8d8d a9c6 082a c83f
000003f0: a7d1 5ea1 9ba3 c73f 2f4a 70d1 4fff c3bf
00000400: 1b7f ee14 d57e ad3f a2e1 32be b308 a6bf
00000410: 911c aab3 cf46 c13f 1a86 e183 449b ad3f
00000420: c494 7b90 ecb1 94bf 48df cc43 dd5a 99bf
00000430: c900 d465 3df1 c9bf 384c 2cc0 9f38 b33f
00000440: 94e1 cf3b fde0 a6bf f8df d338 3e78 c23f
00000450: cda0 16af 45ca 9a3f 4eb4 a602 bfb0 ccbf
00000460: 6585 0818 f9db cabf 907f e5ea 9a13 ba3f
00000470: bd8c 8736 9b08 cdbf 1a7b 62c3 aed5 be3f
00000480: 713d 7903 32e4 b2bf b085 55ce e625 a53f
00000490: e69b 8d31 bdd8 913f 3cac 988d 5d4f a8bf
000004a0: c895 c332 21a1 c53f 8f7a a6a3 ead7 adbf
000004b0: 9090 a0ef b01c 96bf 9053 13cb 0885 813f
000004c0: 7b1d 5fc4 389c b83f 7755 8f73 83da c43f
000004d0: 3594 e78d e2d5 bd3f 892f e8c3 37d8 bebf
000004e0: 6356 3b72 12bb c5bf 4df8 ddee 1984 b8bf
000004f0: 7e47 9b7e 03cb 963f ae64 a336 96db 923f
00000500: 808b ee12 2079 b0bf 3cff f46c a1da bf3f
00000510: 3750 6fd3 1d7c c7bf 086a 6477 e5c7 c03f
00000520: 5ea3 1643 a6cf cc3f af78 1d18 2d5c b53f
00000530: d6d8 e5dd c8c9 76bf afda aa6e 354a 983f
00000540: 3b31 dfff 24cd c0bf 7d6d a95f 917b c93f
00000550: 0ff9 e214 5405 cb3f 2a11 0450 30b1 c23f
00000560: 9e4a 99b7 2edb ae3f 4d36 0671 f9af a5bf
00000570: fe72 5e61 c9d0 cc3f eef0 5c2d 4c70 c3bf
00000580: a1ef ae8e 698c 98bf c2e1 b597 ec0c b43f
00000590: 2ed4 2d79 fb72 c5bf dc2c 75a4 6e03 c5bf
000005a0: 132a 36d2 c37c a8bf c8d0 b8d6 285a adbf
000005b0: 6d85 f8aa 3acc c23f 183d 96d3 cfc1 a63f
000005c0: 3d06 6890 ba0f cbbf 5937 ae09 3401 bd3f
000005d0: 8683 dc21 da46 c1bf dcf9 7dc5 c92c c1bf
000005e0: c3fd c4bd 29c4 ca3f 59e7 3c8e 3c1f ca3f
000005f0: e2de 9e10 851d c5bf 719c 7891 8803 a0bf
00000600: ccc7 2273 af0f c9bf 44aa 93eb 402e a43f
00000610: c2a2 6d89 1f76 b1bf dcf4 111c 0834 b7bf
00000620: 4780 b7f4 1fe3 c1bf ac8d fb1c 186b c13f
00000630: d7b3 29cb a2bd cabf 0687 bfbd bf29 b03f
00000640: 5771 549b 44b8 c1bf f00b 6cce d9d6 bd3f
00000650: 6d8a 2611 b952 ad3f b5f0 c96d 2d82 993f
00000660: 457c e2a1 8669 ab3f 17ef 86b0 8bef bf3f
00000670: 9617 21e2 52ea acbf e16c 2f3b 6132 bf3f
00000680: 705d 3897 1260 b7bf acff dce7 e67f ae3f
00000690: 5b80 85a4 338b c53f e658 5fef 4426 81bf
000006a0: f5a6 5c09 e495 bbbf 6151 30b7 8d43 cb3f
000006b0: d6e2 cbed a930 c03f 131d db8e 5c6e ab3f
000006c0: 37c1 6f64 e37a cbbf fade f225 4028 bc3f
000006d0: 5ec3 5f04 69d9 babf 016a 85de b4d2 a9bf
000006e0: abaf d2ee af78 bbbf 8bbe 3656 ad0a b03f
000006f0: da6a cef8 0b5b cbbf acea 4300 8667 bcbf
00000700: 69f5 9fc7 4fc7 c0bf 0b82 ce31 8911 c9bf
00000710: 73d5 1e01 6835 c73f d388 56d8 f558 be3f
00000720: 07a7 f693 7530 c83f d891 1700 4682 b1bf
00000730: bd0c 353b f919 cabf 23b4 0fdf 5e93 b2bf
00000740: e694 d3ea e16e 9d3f 003c 5521 0959 c8bf
00000750: 2ba7 d236 76a2 c13f e237 82b3 15d2 cbbf
00000760: cad5 e95a bc1f c1bf f958 c5c4 f8d0 bdbf
00000770: f7e9 5140 dff6 b53f ba68 7cd6 c784 c23f
00000780: 8228 3a41 b5da c8bf 06ab f055 bb30 abbf
00000790: 2146 a293 f819 b43f caf2 c4ac ecf7 b0bf
000007a0: 3adf 402e 30d8 a23f 6b3c d474 868d c93f
000007b0: 13dc 0a07 775f 963f 79c9 4c14 5e29 c73f
000007c0: 05b0 60b9 0c2f a8bf 06a8 4f63 9d2e b13f
000007d0: 5080 740a 2131 b53f 1481 9a74 956b ae3f
000007e0: 303f 17bd 94b3 bd3f 4cfb 7986 534f b2bf
000007f0: 615e 8432 6c97 c03f 1f85 1e9f 954b ccbf

layer0.bias f8 [256]
0.09397710887638111 0.16278751110756257 0.037560537457466125 -0.0006993631095652836 -0.0865123631568281 0.050846759060863084 -0.16498466949652726 -0.002862385118377776
0.13678567585630402 -0.20448208850248636 0.026114703461797655 -0.07756649550181041 0.07800385523169363 -0.08265378249083702 0.16377344335445326 -0.04341232062510662
-0.03359242031385523 -0.012875818839522058 -0.07351144709198608 0.04091514154552402 0.22192425654175327 0.21507296327276199 0.2108849736775054 0.13796366691973194
0.20602320415131475 0.22105330019258032 -0.04408878065587615 0.22007785737514496 -0.06039796612373596 -0.014187629403401304 -0.13424652015591393 -0.1739673979871596
-0.09478709246824081 -0.05621860921382904 -0.028767630868079975 -0.07233423704329375 0.09343330472488694 0.1622643635320222 -0.17042276521450986 0.09629510949007945
0.06133310326181136 -0.13856726134504058 -0.02399708282582442 0.03170238047518026 0.042034514990860555 -0.006120316205056012 -0.07457758751462329 0.06008941464367474
0.046202952020819185 -0.14810466069998945 0.024681425431051566 -0.135720353913898 0.07992805571005962 0.09135448267672255 0.20406380116574105 0.2048930744584396
-0.11037443607582863 0.02582981131571103 0.19171174426403553 0.07142417939950674 -0.19509788278466855 0.10674876695684218 0.04234971392352569 0.2147833592342258
0.14912690366184186 -0.02610252175965956 -0.07539551234673156 -0.1296251348354009 -0.19752173125743866 0.2145565753682107 0.05269273922131252 -0.13910240469971225
-0.04439571596155991 -0.18164018032739745 0.12702719677054553 0.045192018151283264 -0.07024038546471738 0.051326597930167785 0.10397206945545753 0.11592268640471792
0.1803542323632101 -0.1997500179553434 -0.1690040057972528 -0.027077969150087394 0.14360306016632146 -0.04705988278636522 -0.07874047671326324 -0.12230148724928488
-0.21642406150911292 -0.10262125730514526 0.2257689753378384 0.21387967224847768 -0.1299777003827463 -0.1278026572299473 -0.22499486015395984 -0.0846204517779761
-0.0051211698154885275 0.026694104075431824 0.17130506121825867 0.17993143050004495 -0.08329972474132036 0.07718897749263028 0.13183232738919304 -0.1580288880696531
-0.0041248414466771716 -0.2238699626867164 -0.028567730138345526 0.16411392420344925 0.07453494600068973 0.22124085633661195 0.15891352408595302 0.15767061708283925
0.10201273231682337 -0.09924579361349462 -0.056988222921855056 -0.08609939954468972 -0.17839441190299182 -0.13286496519630495 -0.029144043189172655 -0.06206096870171209
-0.08061238793777895 -0.04690324780888484 -0.16673506884464284 0.024047435239540938 -0.18744318810682536 -0.030521746571198063 0.1722153437985371 0.12552277673254003
0.2041881772119398 -0.026512594687589586 -0.22795550982088006 -0.131866871833226 0.054318129033835656 -0.12477482410534826 0.08169061435350299 -0.04678887443231084
-0.1312839686870575 0.08408089121712228 -0.016417750998390393 -0.10363710205777132 -0.10425418216687984 -0.11199240790240382 0.11626624638296268 0.04517348111589228
0.1308370679616928 -0.0014582264148144052 0.2260601234870909 -0.028245971714380518 -0.1700151989560116 0.1933345786830207 0.02889994319450297 -0.03347579063418914
0.05785427847991938 0.12825906220297253 0.05838333621470239 -0.02187856814235337 0.21805184391781623 0.12459007776508868 0.22103554394234892 -0.2161150174338455
0.1372291572172035 -0.2216217923065774 -0.21370629713172373 -0.08866425770005139 0.036126986145973206 -0.1571464276465938 0.029092307560548706 -0.0934561326070404
0.03860233650370261 -0.21862709599333086 0.03013215065682729 -0.20493940205476419 -0.21634589570532095 0.04602474309526662 0.050673378654081176 -0.14600697157576115
0.18232379458915537 0.06507457792758942 0.1165795805280121 -0.09951726751825528 -0.024888222602442195 0.1384451712520222 -0.009487481692506298 0.08923133904767588
-0.1771892739053055 0.03526092303672171 0.024014090303375476 0.011519595980644226 0.21028840596382353 -0.022489545230517213 0.19297331952760696 -0.09221585191954412
-0.15237809650724995 -0.08128985554027486 0.21761959865682426 -0.18747146448219978 -0.12806797527595307 -0.11525979668080391 0.1690217293433421 0.14216889658823
-0.20349544807150646 -0.04590795311773327 0.061481156378018244 0.06959678021141529 -0.14373156154737687 -0.14197249710559845 0.029064215769399132 0.14279429091996482
0.1938730552212265 0.1520701542566529 -0.15628076248405615 0.14834130823619257 -0.15171815334139546 0.18453721354312347 -0.19173849847426108 -0.12041189341497617
0.14556017977763697 -0.00475782868132832 -0.10911874614713686 -0.16044510922319677 -0.22594061493873596 -0.16866018395301358 -0.022636753014843445 -0.15882560155083814
-0.06592852330561573 0.2117481158846492 0.06246848297843309 0.0031488426178346326 0.0009413537325149901 0.09493975453030544 -0.1684148828039486 -0.1303639402035775
0.19461896879748 0.10496516137422057 -0.15155266021419828 -0.09447433054447174 0.036101423970247425 0.1238619973177166 0.22682776211643346 -0.21929600423101606
-0.20470404926906732 0.12071950229150746 -0.12955396381417175 -0.014380561357742508 -0.22749704664963433 -0.1708451488869863 0.00679106837718236 0.039377662319258044
-0.17787615104385385 0.21985168317393097 -0.08868627259986574 0.19485899849936886 -0.20184556740279538 0.15375156556197958 0.141928519232886 0.11388391688806146
00000000: 285a 3241 e20e b83f 6abd 339e 38d6 c43f
00000010: 0000 0080 223b a33f 1097 80d7 aeea 46bf
00000020: 0150 759a ac25 b6bf 8c49 8c1e 9608 aa3f
00000030: 251b eab7 371e c5bf 038a 1a4f db72 67bf
00000040: 429a 2e6a 3182 c13f d333 5e15 782c cabf
00000050: bbac 4015 d0bd 9a3f 4a13 72d9 65db b3bf
00000060: 599a 2e87 0ff8 b33f fa57 b05c cc28 b5bf
00000070: 5691 9437 87f6 c43f d516 a8c2 233a a6bf
00000080: f071 4895 0633 a1bf c788 9926 a35e 8abf
00000090: 6747 246d a5d1 b2bf 22cf b255 d4f2 a43f
000000a0: d399 0498 0368 cc3f 3a52 c1c7 8287 cb3f
000000b0: 91d3 9460 47fe ca3f 206e ba1e cba8 c13f
000000c0: 0605 06e6 f75e ca3f 1900 807b 794b cc3f
000000d0: ec33 13fe cd92 a6bf 0000 00e0 822b cc3f
000000e0: 2423 7e72 7bec aebf 67ee 5c62 670e 8dbf
000000f0: 3ef2 d56e fd2e c1bf 9668 764e 9044 c6bf
00000100: e1e8 3b86 f743 b8bf 0000 0080 afc8 acbf
00000110: 3d16 0c07 4375 9dbf 2e68 7b1e 7f84 b2bf
00000120: 2d8d 26bc 3eeb b73f af90 5623 14c5 c43f
00000130: e18b 8bc5 69d0 c5bf 2f4e 06da cba6 b83f
00000140: 39e5 5771 0d67 af3f 57f9 e26f 92bc c1bf
00000150: 72ca bef7 b092 98bf 7047 b15e 4b3b a03f
00000160: 64c0 6046 8c85 a53f ddff 11df 9d11 79bf
00000170: 80cf 634b 8417 b3bf 99f2 752d 0ac4 ae3f
00000180: 46ef d0cf e9a7 a73f 92ba 0bf1 17f5 c2bf
00000190: 211c 2e6c 1646 993f 371a bbd8 485f c1bf
000001a0: 0cbd 4e41 2a76 b43f 8284 70e3 0163 b73f
000001b0: 73f3 263c c31e ca3f ffe9 fcae ef39 ca3f
000001c0: a797 42c1 7f41 bcbf 9b89 734b 2173 9a3f
000001d0: 52c3 efab 028a c83f e01d aae2 da48 b23f
000001e0: 701c 0aa9 f7f8 c8bf 66cc f71e e353 bb3f
000001f0: adce 9798 dcae a53f 1669 d167 057e cb3f
00000200: 9736 1723 9716 c33f 4416 3495 9eba 9abf
00000210: 3e5c cbcb 1e4d b3bf 0ec7 6d71 8e97 c0bf
00000220: 0000 0060 6448 c9bf 9c92 2c01 9776 cb3f
00000230: 3967 62ef 8afa aa3f e077 7d8b 1bce c1bf
00000240: f359 4608 09bb a6bf c7a6 1245 fc3f c7bf
00000250: 9c80 ea5b 6d42 c03f 0000 0080 6823 a73f
00000260: d3ec 6d1e 46fb b1bf 5dce 0cd7 7a47 aa3f
00000270: 9e35 02de e99d ba3f a804 f9f2 1bad bd3f
00000280: 67fb d8f4 d815 c73f b32e 3f99 6891 c9bf
00000290: a766 e55a eca1 c5bf d852 c4bf 53ba 9bbf
000002a0: 228b 82c7 9561 c23f b4c4 0aa3 3b18 a8bf
000002b0: b9db 5afc 5528 b4bf 0ee3 fc77 264f bfbf
000002c0: 92e3 1f9d c8b3 cbbf 0000 0000 6345 babf
000002d0: 5e83 c36e ffe5 cc3f 7f0f cbba 6860 cb3f
000002e0: 1235 2dfa 1ba3 c0bf af7f 9264 d65b c0bf
000002f0: 938e 10af a1cc ccbf 038b f598 afa9 b5bf
00000300: 2a1f ff8d eff9 74bf 0000 0000 b355 9b3f
00000310: 6e2d c901 53ed c53f 9695 c23c fe07 c73f
00000320: 349f 8779 2153 b5bf 7549 f125 a8c2 b33f
00000330: 5898 58b7 e1df c03f 3c8c 0a65 4a3a c4bf
00000340: b0a9 d5b1 35e5 70bf 77e9 255c c5a7 ccbf
00000350: 731c a9ea db40 9dbf 1fd2 a260 af01 c53f
00000360: 256a 7be3 b814 b33f b89c 40d1 9e51 cc3f
00000370: f3ae 6b42 4757 c43f 7899 f4ff 8c2e c43f
00000380: 3e8c 13a5 811d ba3f f8e4 d51d 2c68 b9bf
00000390: a6bd 6973 8f2d adbf 01eb 3f39 9c0a b6bf
000003a0: e6cc 74ca a0d5 c6bf 07b2 261c b801 c1bf
000003b0: e79a 7ba1 efd7 9dbf 5326 dd8d 74c6 afbf
000003c0: b260 d871 03a3 b4bf faa7 d4d6 b303 a8bf
000003d0: bc5b e421 9357 c5bf 2d43 a00f e49f 983f
000003e0: e46d 636d 23fe c7bf 1442 5cbd 1741 9fbf
000003f0: 6cf7 bd02 270b c63f 4a14 7c5e 2111 c03f
00000400: 0775 ad93 d622 ca3f 5d11 761c 1e26 9bbf
00000410: f7d4 cf69 a52d cdbf 2d8a f97e 03e1 c0bf
00000420: 997a 8ff7 95cf ab3f 1a89 e52c 3ef1 bfbf
00000430: 6fd7 0915 ade9 b43f 01c1 011b b6f4 a7bf
00000440: 0000 00c0 e9cd c0bf b2fe fe45 5386 b53f
00000450: 24a5 729e d0cf 90bf 1087 fd0b f687 babf
00000460: fec2 e0ee 66b0 babf 6753 57d1 88ab bcbf
00000470: d0ef d7ed 9fc3 bd3f 1416 1480 fa20 a73f
00000480: 0000 00e0 44bf c03f e12f c1b0 3ee4 57bf
00000490: 7744 a7c2 89ef cc3f 6b2c 0713 83ec 9cbf
000004a0: 7564 abdb 0ec3 c5bf df93 50fe 2fbf c83f
000004b0: 05b0 815b f297 9d3f 5e92 f623 bd23 a1bf
000004c0: 3a86 0274 139f ad3f 23e8 c9fe ca6a c03f
000004d0: 82d7 58af 6be4 ad3f a96d 9eda 5567 96bf
000004e0: 76d1 3a71 1fe9 cb3f 283b 68a5 22e5 bf3f
000004f0: ec33 3e88 e44a cc3f 57c3 062a a8a9 cbbf
00000500: a71b 279b b990 c13f dbd1 0457 1a5e ccbf
00000510: 3ca4 905a ba5a cbbf 9155 2567 b3b2 b6bf
00000520: 0000 0080 3c7f a23f e471 b6c7 5f1d c4bf
00000530: c1a2 26b6 5fca 9d3f ad6a 28b9 bdec b7bf
00000540: 3249 aa79 afc3 a33f 94c8 a701 f9fb cbbf
00000550: c251 8466 f6da 9e3f 4256 be4e 743b cabf
00000560: 9dce 56e9 38b1 cbbf 324c cd1c 8e90 a73f
00000570: 81b7 3170 dcf1 a93f 64f4 f33f 5bb0 c2bf
00000580: 7882 85d7 6256 c73f 0000 0040 baa8 b03f
00000590: 40cc bfcd 28d8 bd3f 07d1 60b1 f679 b9bf
000005a0: 2840 8858 4c7c 99bf dd84 6845 92b8 c13f
000005b0: e2c7 b93c 2c6e 83bf 38f1 fc72 ddd7 b63f
000005c0: f508 505c 23ae c6bf f4fa 893e b80d a23f
000005d0: cf18 fc51 2697 983f 0000 0000 9697 873f
000005e0: 1ada 2b01 bbea ca3f 4f64 11d5 7f07 97bf
000005f0: 9391 2f88 59b3 c83f fcce 2a44 759b b7bf
00000600: 230c 901e 2081 c3bf 75c3 0a77 69cf b4bf
00000610: f58f 9981 f5da cb3f e12f 71a0 10ff c7bf
00000620: e1d1 bc0a 8864 c0bf 3aa4 4981 aa81 bdbf
00000630: 02e8 eb07 81a2 c53f da6b ad24 9732 c23f
00000640: e50d 2d8b 230c cabf b8af 884a 3f81 a7bf
00000650: c57d ed47 757a af3f c338 ea36 18d1 b13f
00000660: 10df 1fba cb65 c2bf 0000 00a0 272c c2bf
00000670: 6894 da80 02c3 9d3f de43 c754 1547 c23f
00000680: 3a19 e00f d5d0 c83f 9f70 9de9 0877 c33f
00000690: a275 ee0d 0201 c4bf 4699 c215 d9fc c23f
000006a0: 83c8 671d 806b c3bf 0406 8858 ea9e c73f
000006b0: 6561 2a1a e38a c8bf 694a 4458 50d3 bebf
000006c0: a256 df49 b7a1 c23f e162 61e9 f17c 73bf
000006d0: 551d 15c6 34ef bbbf fc58 7520 7789 c4bf
000006e0: 0000 0040 9feb ccbf ba96 1b2b a896 c5bf
000006f0: b9a7 8bc7 162e 97bf 0cd5 36b6 6554 c4bf
00000700: 21a0 7813 b1e0 b0bf 766a 5bf0 8f1a cb3f
00000710: eea0 d876 defb af3f c710 0b02 9acb 693f
00000720: ae12 60bf a5d8 4e3f 1f45 ccc4 f84d b83f
00000730: a5bc e66e 9e8e c5bf aa43 e0fd c3af c0bf
00000740: 494d 153d 46e9 c83f fc56 522f ffde ba3f
00000750: b6f2 9edb 1366 c3bf 0000 0040 782f b8bf
00000760: d31d 95c6 e27b a23f 9e63 b27b 6bb5 bf3f
00000770: aab6 0e2e b108 cd3f 9568 2837 e411 ccbf
00000780: da15 7c06 be33 cabf 0cd8 542a 79e7 be3f
00000790: 9513 d36a 3995 c0bf db45 d645 8e73 8dbf
000007a0: 6cfc a58b 9f1e cdbf 832e 93fb 40de c5bf
000007b0: 09be 5b89 f3d0 7b3f 7852 b517 4f29 a43f
000007c0: f260 bc4d a5c4 c6bf 5fee 9996 1924 cc3f
000007d0: 19aa 6bc0 24b4 b6bf cd6b f1c0 23f1 c83f
000007e0: 7d35 6b57 13d6 c9bf 8d14 e69c 21ae c33f
000007f0: 3dcb 3cb6 b62a c23f 6219 9312 7f27 bd3f

layer1.weight f8 [256, 256]
-0.059929890417789636 -0.06073120838834349 -0.0018812045454978943 0.00848985119790338 0.03386978320927024 0.019701870310728536 -0.02520307938398342 0.027138926088809967
0.015305713101788996 0.0333945643133788 -0.05452336370944977 -0.051288521545151775 0.012515906288362078 0.058285243809223175 -0.04556252062320709 -0.05537222344015837
0.04667973518371582 -0.028125688675610296 0.04372723506262693 -0.053927277688446885 0.052854597792777146 0.005245892041728867 0.018203121464958356 -0.038049990747868946
0.06040566676403735 -0.044370684849326436 -0.0034185536241964016 0.020537838339805603 -0.06184183400806211 -0.028371548164896985 -0.030722647136212488 -0.017320061573773565
0.03097439207553172 -0.044073253870010376 0.0015777051448822021 -0.03150755167007446 -0.05534628272437423 -0.03136031806359383 -0.04092006521336641 0.0005049206628959021
0.014487155576593639 -0.056324361690498884 -0.00441936997697686 0.05113869905471802 -0.007166676223278046 -0.05578572156976429 0.006048921144719046 -0.04538415809485679
0.01678195595741272 0.05403448690100252 0.02358631044626236 -0.030889950960236112 -0.0430523082613945 -0.05673768873675856 0.014541702895233308 0.028329230844974518
-0.051552231151216904 -0.034293805933492766 0.0580107121642131 0.05176980793476105 0.023817988231242322 0.01864908309405601 -0.03453884464798771 -0.011885002429584237
0.03740162402391434 -0.05659381820498069 -0.040123490917980426 0.011914663016796112 0.06129471957683563 -0.06208906682898444 0.0142211004007683 -0.00434471920930672
0.03584549928941539 -0.006122760474681854 0.03660806091812121 0.015013955533504486 0.01719726643846819 0.013710047307223038 0.037673250166786326 -0.023397937417030334
-0.025128321522860684 0.04850395768880844 0.05321260721539629 -0.0016723200678825378 -0.03886685970966915 0.015288032591342926 0.0014550541163101905 -0.018999944796836556
-0.020820724148154723 -0.05986182391643524 0.062379743892440685 0.03667393266817282 -0.057309284806251526 -0.018507272005081177 -0.028955377638339996 -0.048246242105960846
-0.056340478360652924 0.03226448595523834 -0.025684849253233815 -0.004237710258128366 0.05116616552583331 0.0490699580125319 -0.028753865864790746 -0.02974923700094223
0.03200460970401764 -0.007809102535247803 -0.036664434331378316 0.03319586552419143 -0.004727608068962383 0.050661309924378777 -0.06106565364115297 -0.02275953743021185
-0.018566425292428374 0.060913344487946344 -0.02885207990466828 -0.01002715353769669 -0.05884828239562123 0.0113132284154167 -0.021870488152331103 -0.05946536236124659
0.04963989555835724 0.05960064743060184 0.03631807118654251 -0.02042817324399948 0.013777263462543488 0.019741282515012323 0.0372636616230011 0.005619910930198358
-0.05824863986099323 -0.011470474604936285 -0.016598828898845744 -0.014725404690264858 -0.03992922604084015 -0.018122967352792764 -0.03739209834919211 -0.009496547281742096
-0.023423992097377777 0.03151711821556091 -0.05295714735984802 0.06242263317108154 0.040920639873013566 -0.05729581226871643 0.05520392093449775 -0.003276695306725469
0.061861395835876465 -0.018907672904460177 0.0097911051387803 0.0002271011471748352 -0.006533105602144944 0.04179153781768291 -0.05731337044063202 0.011470374949134155
0.05051818580751916 0.027888463551532714 -0.009634517133235931 0.00038458017118629575 0.0027838721871376038 -0.014656713362626283 -0.051191844046115875 0.03681149333715439
0.0035847151840399287 -0.03822660322215339 -0.005217804236648889 -0.018041030419818683 -0.01726371794939041 -0.002773196885701861 0.04666894514631005 0.04938261726357539
-0.054613977670669556 -0.026157290643607726 0.026857141310323667 -0.027925770809800146 -0.028734034231932375 -0.012316435324808382 0.046517631203695856 -0.019404922044046733
0.044737331569194794 0.028995007276535034 -0.023424504913820858 0.05735268578816636 0.009687994261887841 0.05642755209167573 0.03491891920566559 -0.02301764932808281
-0.04523507121276788 -0.032995972834597743 0.056223698727145804 -0.037051111459732056 0.045963596664442365 0.018655985281814294 0.05605675729611314 0.00839278137346745
-0.027373634178196545 0.02477257233074032 0.02273894453222701 -0.05267162122579506 -0.022087643546649934 -0.02066739648580551 0.008686197342018689 0.05403219163417816
0.028909213840961456 0.007246345420099262 -0.03399069806902005 -0.012761487598512427 -0.01150926947593689 -0.005956277251243591 -0.03055854705038441 -0.03190709838262299
-0.033541666226984554 0.008018985390663147 -0.056510016322135925 -0.05554260794549575 -0.04097023606300354 -0.028522602779333068 0.061107092780426364 -0.009895938089741258
-0.0035936437324359206 0.00843030959367752 -0.03538089447811701 -0.03125285273982534 -0.004431344568729401 -0.06071147322654724 0.03802173398111735 -0.004795535921004087
-0.035274620866215356 -0.011273324489593506 -0.01788150519132614 -0.057368819097237504 -0.009615870240281462 -0.058034160134572056 0.003927260637283325 -0.036394185852525164
-0.0061579173204904135 0.05974291642184427 0.06238957770666611 0.02866213768720627 -0.007347993552684784 0.011369365447626024 0.02981624109915999 -0.05383202723994314
0.035641740236317325 -0.007157742977142334 -0.03662331402301788 -0.018351547420024872 -0.017431402003402735 -0.041175882706789776 -0.0549713671207428 0.030671663903612926
0.032100863791509976 -0.03624149053774378 0.040174733182107056 -0.011298473449681578 0.0009854377642546238 0.02414236981663858 0.036874572456691 0.011202552124321126
00000000: 0267 cb6e 21af aebf f6bd bf33 2918 afbf
00000010: 0000 0000 58d2 5ebf 5076 f189 2063 813f
00000020: 9eb0 6956 6157 a13f b852 9e22 ba2c 943f
00000030: 31ce d906 d6ce 99bf 0000 0080 4eca 9b3f
00000040: 5290 b609 9a58 8f3f 9a25 2ea3 1719 a13f
00000050: 0000 0080 7cea abbf 26ab 6435 7d42 aabf
00000060: c0ab 8181 f0a1 893f 0000 0040 90d7 ad3f
00000070: 0000 0080 f853 a7bf a387 9081 bf59 acbf
00000080: 0000 0000 68e6 a73f 472a 2804 fbcc 9cbf
00000090: 97b4 1389 6a63 a63f 5581 112c 5b9c abbf
000000a0: 132a ed01 c20f ab3f fa03 1f6c b77c 753f
000000b0: 9529 82cd d6a3 923f 2d1a c0d3 497b a3bf
000000c0: 1f3e 7dd6 7ded ae3f 0870 a820 c1b7 a6bf
000000d0: f259 7f00 3a01 6cbf 0000 0000 df07 953f
000000e0: 13b7 2d9d bba9 afbf 893e 055e 6e0d 9dbf
000000f0: 734c c9f2 c175 9fbf 2ba4 18a8 59bc 91bf
00000100: 135c e943 c0b7 9f3f 0000 0000 c590 a6bf
00000110: 0000 0000 60d9 593f 0000 0000 c221 a0bf
00000120: 3d41 8314 5956 acbf ad59 f3a8 750e a0bf
00000130: ace5 ae8b 79f3 a4bf 30ad fadd 948b 403f
00000140: c2ea 4e1b 71ab 8d3f 7a87 dbf6 8bd6 acbf
00000150: 5815 5298 0b1a 72bf 0000 0000 da2e aa3f
00000160: 0000 0000 ce5a 7dbf 16a9 7333 f28f acbf
00000170: 36e6 e1e7 c0c6 783f 173d 8ca5 973c a7bf
00000180: 0000 0000 4a2f 913f dd1f 3184 68aa ab3f
00000190: 0000 0080 0227 983f 10d7 9884 9da1 9fbf
000001a0: 0000 00c0 f30a a6bf 2167 26eb b80c adbf
000001b0: 98c8 e752 0ac8 8d3f 0000 0080 5602 9d3f
000001c0: 441e a9d5 0d65 aabf 4423 e12d f58e a1bf
000001d0: e73c 207f 94b3 ad3f 0000 0080 9281 aa3f
000001e0: 72ee 0922 be63 983f 041a f5c7 be18 933f
000001f0: 9dd2 6850 13af a1bf 81ca fb05 2a57 88bf
00000200: 0000 0040 4e26 a33f 143c b16c ddf9 acbf
00000210: 8491 96f2 108b a4bf 0000 0000 b766 883f
00000220: 0000 0080 0562 af3f 8575 f05e 23ca afbf
00000230: 4351 13c9 f31f 8d3f 2edf a0ae c4cb 71bf
00000240: 114c 505e 575a a23f 0000 0000 2e14 79bf
00000250: e39c d3b0 4abe a23f 0000 0000 a3bf 8e3f
00000260: 1f3b bc03 299c 913f c634 7d66 0314 8c3f
00000270: ccfd cc82 e849 a33f 0000 0000 a1f5 97bf
00000280: 5984 931c 3dbb 99bf 0000 00c0 82d5 a83f
00000290: ea35 73cf ae3e ab3f 0000 0000 3866 5bbf
000002a0: ebd6 b366 5be6 a3bf 0000 0000 554f 8f3f
000002b0: ec49 fb75 f0d6 573f 47e5 1cb6 b874 93bf
000002c0: 6073 2e25 0752 95bf 0000 0080 35a6 aebf
000002d0: dbda e6df 3cf0 af3f 39dc d9fa ecc6 a23f
000002e0: 0000 0080 a457 adbf 0000 0000 92f3 92bf
000002f0: 0000 0080 7aa6 9dbf 0000 0040 bbb3 a8bf
00000300: 0000 00c0 a8d8 acbf 0000 0080 f884 a03f
00000310: cb6a 2e0e 214d 9abf 0a53 7faf 8f5b 71bf
00000320: 00bb 309f 7332 aa3f 9284 c291 b21f a93f
00000330: 3565 1746 a771 9dbf 0000 0080 9576 9ebf
00000340: 0000 0080 e862 a03f 0000 0000 70fc 7fbf
00000350: 2d5c c244 aec5 a2bf b4df 9369 0cff a03f
00000360: bd44 b6a0 415d 73bf af6f 987a 47f0 a93f
00000370: 0961 9852 ff43 afbf bc48 bdb3 464e 97bf
00000380: a509 bdb5 1303 93bf ba71 eeac 0830 af3f
00000390: f6d1 724e 668b 9dbf c88a 21c4 1d89 84bf
000003a0: 3043 a1b0 5c21 aebf fb7d 73d0 632b 873f
000003b0: 4d80 729d 3765 96bf 3535 2c75 3e72 aebf
000003c0: 0000 0080 666a a93f 58d9 11df f983 ae3f
000003d0: 0000 0040 4898 a23f 0000 0080 1feb 94bf
000003e0: 0000 0000 4137 8c3f 4cde 210b 0f37 943f
000003f0: 0000 0000 3914 a33f b418 6d5a e704 773f
00000400: eb98 7a06 c4d2 adbf e5e4 610a d57d 87bf
00000410: 14fb 168d 48ff 90bf 493a 855c 5a28 8ebf
00000420: 0000 0080 9a71 a4bf 4acd 58c0 d38e 92bf
00000430: d1c2 139f 0e25 a3bf 0000 0000 ed72 83bf
00000440: 0000 0080 75fc 97bf 0000 0000 0323 a03f
00000450: 0000 0000 331d abbf 0000 0000 dcf5 af3f
00000460: 45d3 f8d3 8cf3 a43f 27a6 c86f e055 adbf
00000470: 4c9d 0c36 b043 ac3f f38e cd65 bad7 6abf
00000480: 0000 0000 4cac af3f 858e 1273 885c 93bf
00000490: 27ee e6e2 5b0d 843f 0000 0000 40c4 2d3f
000004a0: 12c0 702e 75c2 7abf 985d 5a50 b365 a53f
000004b0: 3204 5597 2d58 adbf 3a30 3caa c77d 873f
000004c0: 1908 cb07 85dd a93f 99de 8e1b cb8e 9c3f
000004d0: 0000 0000 43bb 83bf ee0a 0842 2f34 393f
000004e0: 0000 0000 34ce 663f f37f 79c4 5604 8ebf
000004f0: 0000 0040 d135 aabf 0000 00c0 f4d8 a23f
00000500: 2abf 634f b15d 6d3f 3a46 5af5 6f92 a3bf
00000510: 2278 daa8 435f 75bf cd9a 8e0e 5979 92bf
00000520: 0000 0080 94ad 91bf d81f bebd d0b7 66bf
00000530: 02d1 48f2 fde4 a73f 3ea0 46ac ad48 a93f
00000540: 0000 0000 5df6 abbf 610d 770f fac8 9abf
00000550: 9b18 5e3e 7080 9b3f 74ee 5fc1 9298 9cbf
00000560: 6eb1 3b65 746c 9dbf ec05 63f7 5b39 89bf
00000570: 5a1e 6ab1 28d1 a73f 9910 3e46 e2de 93bf
00000580: 0000 00c0 cfe7 a63f 0000 0000 deb0 9d3f
00000590: 7e91 1eea 97fc 97bf 658b 98cb 545d ad3f
000005a0: cb2e 2694 4cd7 833f 8277 a775 12e4 ac3f
000005b0: 0000 0080 e4e0 a13f 9f30 614c f091 97bf
000005c0: 696d fb1e 0d29 a7bf add7 7220 d9e4 a0bf
000005d0: 9c24 9646 5ac9 ac3f 0000 0000 5df8 a2bf
000005e0: cdeb f560 8a88 a73f 14e4 a3fa 8d1a 933f
000005f0: affc 9ca6 78b3 ac3f 0613 2c0c 3c30 813f
00000600: 8fa7 457e d507 9cbf b148 fe2f fb5d 993f
00000610: fc25 72bc e048 973f 5126 2f55 c6f7 aabf
00000620: 3fda b6aa 249e 96bf 0000 0080 d529 95bf
00000630: fba6 15ac 11ca 813f 0000 0080 1baa ab3f
00000640: 0000 0080 609a 9d3f f07c 8409 58ae 7d3f
00000650: b838 2691 3a67 a1bf e344 12df b122 8abf
00000660: 0000 0000 2c92 87bf 0000 0000 9c65 78bf
00000670: c059 c760 bd4a 9fbf d592 2090 2056 a0bf
00000680: 261a ff8e 5f2c a1bf 0000 0000 426c 803f
00000690: 0000 0080 e1ee acbf 0727 52a9 1470 acbf
000006a0: 0000 0000 0dfa a4bf 4540 8978 0735 9dbf
000006b0: d054 17ca 6d49 af3f 1d60 ab53 5244 84bf
000006c0: 76b9 bcc9 6a70 6dbf 0000 0000 e943 813f
000006d0: 539c 5fd1 711d a2bf cc37 d9b8 5f00 a0bf
000006e0: 0000 0000 9a26 72bf 0000 0000 9315 afbf
000006f0: 87e3 f8af 9577 a33f d6fb 28df 7ba4 73bf
00000700: 6096 ffdd 830f a2bf 0000 0000 7816 87bf
00000710: 0000 0080 874f 92bf 8761 aa23 725f adbf
00000720: 51ff a241 7cb1 83bf 4d5a a847 a7b6 adbf
00000730: 0000 0000 0816 703f 9d95 003c 42a2 a2bf
00000740: f332 0c58 0b39 79bf 9122 66a0 9f96 ae3f
00000750: 0307 b9d7 86f1 af3f 0000 0080 9b59 9d3f
00000760: 0000 0000 ee18 7ebf c7cb 3066 d248 873f
00000770: 7365 a411 2688 9e3f ca24 f218 df8f abbf
00000780: 5701 6059 a23f a23f 0000 0000 7051 7dbf
00000790: 0000 0080 4ac0 a2bf 0000 0080 bfca 92bf
000007a0: 78b7 1c96 89d9 91bf b61c 385b 0115 a5bf
000007b0: 0000 0000 3525 acbf 110a 8585 6468 9f3f
000007c0: 6cd6 5040 866f a03f c85d 3ca1 3e8e a2bf
000007d0: ce0c 495a c891 a43f b358 b06f a723 87bf
000007e0: c1d7 0fbe 3925 503f 8ed9 3d03 c7b8 983f
000007f0: fecc 8255 39e1 a23f 97a9 0b18 5df1 863f

layer1.bias f8 [256]
-0.06020507011937048 -0.04854167623683146 0.04144388573094882 0.04019019127439414 0.003918096687380274 0.0086497934616792 0.041282146818470394 0.046088240866374454
-0.05411273973601007 -0.013382226040808675 -0.03622107475327725 -0.013076390716589495 -0.024777272653827197 -0.025636248290538788 -0.039228360244510166 -0.059949760461508565
-0.05378369559399658 0.048290441466272094 -0.034241540738954725 -0.04755445614517047 0.05888857102793489 -0.0433752745567396 0.055986801844989796 0.046016008384118734
0.0032968547773733576 0.0001417449867365285 -0.011179266228155224 0.03547601588633604 0.03151670366687004 0.04919589863930559 -0.03621258662491319 0.019591255613087045
-0.04411365964467614 0.0020768704792819637 -0.0191233743561434 -0.05129011338904227 -0.021923174994295774 -0.005065918123592195 -0.05220362330294838 -0.045512100107120555
0.014182967070018565 0.046898284277474174 -0.04614026725351426 0.03906962175318587 -0.043245347116996506 -0.04856876646323034 0.010656506467624944 -0.016810480242193376
0.030806727510624778 -0.0009454164861395865 0.04593940322647589 -0.02227480709552765 0.008174271303782808 -0.004056884034972124 -0.056892050015140826 -0.038051879938113396
-0.006219126602661679 -0.023284203154399354 0.040253105208446695 0.0327799358707677 -0.05406615277321072 0.050603535375954675 0.021357555765651876 -0.0468428926023483
-0.03698917234946306 -0.05553925782442093 0.05827781592612763 -0.026460171184681133 -0.05244543227581188 0.026257957667025447 0.04271771995529533 0.002219058619380143
-0.006815757606377815 -0.03740800991232366 -0.04425104707479477 0.05236166687323862 -0.010172427556920223 -0.06335965991453796 0.0129665030754987 0.055701681651722325
-0.014272429049015045 -0.05690483199430027 0.017917029118859954 0.036727909108232856 -0.05719077906282204 -0.023006403484516165 0.039090483353619976 -0.054309971618122836
-0.03798744663977957 0.00499192864032769 0.0450145854350323 -0.05816244259374296 -0.05534867859932693 -0.030939060437637497 -0.004290389443487256 -0.06032648869788778
-0.001930848162670399 0.013770174700886269 -0.03172258177150325 0.04703628477700808 -0.02537643164396286 0.03953490577028345 0.019731262945332215 0.008546237689183184
-0.0013778492742021894 -0.017388435619079646 -0.036242502156660375 -0.003792738564278827 -0.011213821903179839 0.05006717936201394 -0.04728979418409006 -0.0006355078292376665
-0.04385668784379959 -0.04001230199387739 -0.03745658524763962 -0.0347616119601983 -0.0008518975625278831 -0.040617605759736324 0.01379920090536651 -0.060121834816580975
-0.04033763790626186 0.005239144468879067 -0.05081120335770964 -0.0561210536768736 -0.03057863962415344 -0.05762241453171285 0.020205072145654854 -0.0034107113433093656
-0.018184873637196078 -0.037293367290362735 -0.026573253957876034 -0.02628662271238243 -0.02786821862467035 -0.02695682598246641 0.054406143724918365 -0.04144930073996011
0.035810374996197256 -0.026304542337169175 0.004344392889277222 -0.04283800688698558 0.03478084535691902 0.06124947278715403 0.047880261417615935 -0.006664942471127338
-0.04671453684568405 0.049096488684274936 0.06233866016246281 -0.029866461841141955 0.05599280054861986 -0.02997128906979917 0.015453299248274065 -0.021542662258097593
0.057794195817255534 0.009297304975317493 -0.002711759071123468 -0.045365752002570925 0.0330443288714294 -0.056458717365932894 -0.0015486404299736023 0.03667673934499718
0.010810687070522206 -0.05602167598794823 -0.0434007018650797 -0.03106332062718211 -0.009392530897339154 0.06157013639004765 0.009616536922562967 -0.053487686502193516
-0.001115931276531226 -0.005107901990413666 -0.03846269226113252 0.024930574601375523 -0.062215047545226616 0.013754965821117595 0.056269731213695544 -0.055754654109478
-0.01425636819216091 -0.04963524523649437 -0.026088175466377116 -0.019209412684325015 0.006845039860830243 -0.028346627406223547 -0.04058549286894002 0.047405973131727265
-0.022436593937371803 0.05309476205404499 0.00925868796872271 -0.027459769026414824 0.04273108652171826 -0.009855511425081162 -0.03963230702943133 0.05276241067469894
-0.035007184104391735 -0.01440111816843094 -0.013693535600253433 0.0574375326275536 -0.05174649707078688 -0.04614245140323992 -0.03284970866503197 -0.017618889588669556
0.029697100893478018 -0.050570866193523537 -0.049969646406424775 -0.026765993537638266 -0.036981858655862065 0.03154959836234227 -0.008427703656894714 0.01229168530867145
-0.03784281993627318 0.013211619573526796 0.05140726795723448 0.047615747665500426 0.015613520488496844 0.028159901707467176 0.03933654839725386 -0.02904960343866774
0.0214704690393534 0.04773685134449921 -0.05993329766771035 0.02536626888340644 -0.007317422190719907 0.040464582324157325 -0.0023844882370513167 0.03877073309320251
-0.03314496189186218 -0.03347831858352867 0.019134057192528916 0.030132598257993574 0.03641038828801862 0.03952956617941248 -0.030249000671226062 0.015101442371431146
0.03043927026179429 0.05307967446059865 0.054915843431119 0.062200900288685225 0.03746310451389381 0.012733801003470343 -0.03452413939933761 -0.048250662790258574
0.05134091312376916 0.04296023737569208 0.004311716383704322 -0.041787467086910716 0.034618796530557445 -0.027974992365154498 0.010798361244232113 -0.056836234400084375
-0.05607462502240455 -0.056863756847352225 0.06006555561062855 0.01828102956055142 -0.0403488413347269 -0.059792297630276284 -0.01586388009610469 0.026339767673087208
00000000: 6fa2 6eee 32d3 aebf ae44 dc5f 74da a8bf
00000010: d1cb aa0b 2238 a53f cd79 490a cf93 a43f
00000020: 6067 2812 6c0c 703f 19d1 47a0 fbb6 813f
00000030: aced fcfc ee22 a53f b5a3 80be e098 a73f
00000040: 731e ed3e aab4 abbf d92a 8bf9 2368 8bbf
00000050: 4a8b fb96 918b a2bf bbdb d173 cbc7 8abf
00000060: 56d6 ed9e 365f 99bf 0000 0080 6340 9abf
00000070: 72d9 a658 bd15 a4bf 0fa1 2b29 bcb1 aebf
00000080: 66ba 445b 8989 abbf 7834 9d55 86b9 a83f
00000090: 85e4 4673 1b88 a1bf 8a5b d8c3 0e59 a8bf
000000a0: 92a7 588d a426 ae3f 2d39 5ab3 4835 a6bf
000000b0: 3b1d dd55 4daa ac3f 585a 3406 698f a73f
000000c0: 96f2 596e 0102 6b3f 8008 312a 2c94 223f
000000d0: b8e1 beb6 27e5 86bf 9962 0c90 e929 a23f
000000e0: c8c9 0d17 f522 a03f ab9c 816f 3430 a93f
000000f0: 1be0 83c6 748a a2bf bd48 95e8 ba0f 943f
00000100: 0b26 f6ca 1096 a6bf 125e 2b59 8303 613f
00000110: 7b92 cbed 1395 93bf 2867 3a9f b242 aabf
00000120: 28fc 7f5e 0773 96bf 4003 a40a 00c0 74bf
00000130: 8242 a3ed 6eba aabf 9b91 10ab 5c4d a7bf
00000140: d0cb ce9d f50b 8d3f 89a7 6b4a 0d03 a83f
00000150: bddc c375 b29f a7bf 43e0 64f7 ee00 a43f
00000160: a7b1 240f 4124 a6bf 1a1e 225f 01de a8bf
00000170: 7dfd 2416 14d3 853f 4b29 7b3b c436 91bf
00000180: 8aa2 9e7c cc8b 9f3f 5301 cd71 bafa 4ebf
00000190: 7933 e994 5e85 a73f 0000 0000 35cf 96bf
000001a0: ccd6 581f acbd 803f c6d9 0f84 f39d 70bf
000001b0: 7b52 6f6c f420 adbf 4b62 c537 897b a3bf
000001c0: 14cd e315 3a79 79bf f70a 3f6c d0d7 97bf
000001d0: 3d8e dd14 0e9c a43f 4552 0f21 88c8 a03f
000001e0: 8384 f60b 8fae abbf 66df 00e3 b4e8 a93f
000001f0: 98d5 244e c1de 953f 7fe3 8da7 cafb a7bf
00000200: 1d17 18ab 3ef0 a2bf 0000 0040 a46f acbf
00000210: 5855 f802 97d6 ad3f 5f00 8a07 6018 9bbf
00000220: dffc e5b0 20da aabf 842d c2b5 5de3 9a3f
00000230: 28da 55d4 18df a53f 6633 5706 b42d 623f
00000240: c00a 4500 d7ea 7bbf 951e 5d86 2427 a3bf
00000250: 0000 00c0 12a8 a6bf f0b7 91fd 25cf aa3f
00000260: a457 6c1d 48d5 84bf a8f7 37b3 5638 b0bf
00000270: 2bd5 3895 2e8e 8a3f d57d 0d4a ee84 ac3f
00000280: 0000 0000 dd3a 8dbf ecbe cc50 a122 adbf
00000290: 018d 6d78 d758 923f decd f020 00ce a23f
000002a0: 3748 6a1b 1c48 adbf 9220 429a fd8e 97bf
000002b0: f060 2df7 aa03 a43f 079f e43f 84ce abbf
000002c0: 7cea f331 1773 a3bf e417 11a4 6a72 743f
000002d0: 1aab 92d8 260c a73f 5559 97b9 77c7 adbf
000002e0: 43fe eb78 a956 acbf 5f96 fe32 7dae 9fbf
000002f0: 84d3 8ca5 cc92 71bf 3b73 1410 1de3 aebf
00000300: aadd 946d 90a2 5fbf 040d 0190 8933 8c3f
00000310: 84af 8136 f13d a0bf 4468 afd1 2315 a83f
00000320: 0000 0080 47fc 99bf 07e9 aa4e eb3d a43f
00000330: dc64 3ca4 6e34 943f 8af4 079b b080 813f
00000340: c1b6 9364 1e93 56bf bd0c 4029 46ce 91bf
00000350: c2e3 f992 608e a2bf ac3f 1103 f311 6fbf
00000360: ead7 b2b2 45f7 86bf 39f6 ecc3 67a2 a93f
00000370: ee14 e92e 5e36 a8bf 4d0e e5ab 06d3 44bf
00000380: 0000 0040 6274 a6bf bfb4 0011 7e7c a4bf
00000390: 2020 5171 822d a3bf 5bf3 0c25 46cc a1bf
000003a0: 4433 d615 3cea 4bbf c780 c2b0 d4cb a4bf
000003b0: 9dbd cb64 c142 8c3f 131e a004 4ac8 aebf
000003c0: dde7 3587 22a7 a4bf f617 7222 a475 753f
000003d0: 742f 6211 ed03 aabf f286 5114 e6bb acbf
000003e0: 8750 91c4 0150 9fbf 484b dc63 af80 adbf
000003f0: 4ccd 5070 a3b0 943f c498 9eb5 c7f0 6bbf
00000400: f4ef 3636 0e9f 92bf 9559 bdc1 1d18 a3bf
00000410: 041e cae2 0436 9bbf 95e6 7c63 e1ea 9abf
00000420: 3aea 5c7e 7c89 9cbf c29f fef7 919a 9bbf
00000430: 0000 0040 1fdb ab3f 7f8a 3dbe d738 a5bf
00000440: f6ac eeca bc55 a23f a22c 4cf4 93ef 9abf
00000450: ee33 1616 6dcb 713f 60fa 35fd dcee a5bf
00000460: 6b9f ab82 cbce a13f 4740 0945 175c af3f
00000470: 223f d3f9 c283 a83f df66 17df b24c 7bbf
00000480: 0000 00c0 f7ea a7bf 8caa 7eca 2c23 a93f
00000490: 7035 5955 daea af3f 8374 6b53 5095 9ebf
000004a0: 5de6 559e 16ab ac3f 3eb8 7e29 cbb0 9ebf
000004b0: ecd5 17b7 faa5 8f3f 311e 7897 470f 96bf
000004c0: 3012 de69 3397 ad3f dcba 7a26 770a 833f
000004d0: 6dac cd90 f836 66bf 1842 6b0a 2e3a a7bf
000004e0: b261 a4af 2feb a03f f152 5231 28e8 acbf
000004f0: 0000 0000 785f 59bf c477 0528 4bc7 a23f
00000500: 6c4b 52db e923 863f 4a7f 7884 dfae acbf
00000510: de96 44e6 9d38 a6bf e6ae cb28 10cf 9fbf
00000520: 3ef5 3e28 643c 83bf 2739 69f4 1e86 af3f
00000530: 995c aabc d5b1 833f 94ff 87f0 bc62 abbf
00000540: 7214 9615 8e48 52bf 0000 0000 06ec 74bf
00000550: cf5e c1ca 61b1 a3bf ca65 558a 6687 993f
00000560: 093a 0d95 a6da afbf 8ed7 df42 902b 8c3f
00000570: a793 a2de 62cf ac3f 0000 00c0 df8b acbf
00000580: 3c18 2959 7132 8dbf e713 0a76 ca69 a9bf
00000590: 06f8 c2d1 dbb6 9abf 0ea7 04dd a1ab 93bf
000005a0: 462b 7965 8b09 7c3f aa81 a5f6 e506 9dbf
000005b0: c6d6 2029 9fc7 a4bf d5bd 7880 9845 a83f
000005c0: b250 c754 9ef9 96bf 45d8 3895 3c2f ab3f
000005d0: a57b 3c10 38f6 823f 6c58 b2e7 691e 9cbf
000005e0: 5943 4456 d9e0 a53f 9872 0c5a 202f 84bf
000005f0: 81e5 1c8d af4a a4bf e7a5 9cb8 ac03 ab3f
00000600: 9ff2 b42d 76ec a1bf 0854 795c 557e 8dbf
00000610: febe 8e3c 5b0b 8cbf 6384 65c8 7368 ad3f
00000620: 8803 3451 847e aabf 11e7 77bf fb9f a7bf
00000630: 6b83 cc50 add1 a0bf 88f9 4caa af0a 92bf
00000640: e876 7eb4 ea68 9e3f 7af7 dcb0 6ce4 a9bf
00000650: 4270 371a 9f95 a9bf 3371 8e6b 8b68 9bbf
00000660: 18c7 f142 49ef a2bf af1d 56da 4427 a03f
00000670: 00a6 b13c 8b42 81bf 12c8 4e13 622c 893f
00000680: 1588 0754 2260 a3bf 04c4 f68f b10e 8b3f
00000690: 0e5a 4ead 0d52 aa3f 69ee fe5d 1761 a83f
000006a0: fff7 fc3e fbf9 8f3f be8e 9103 f3d5 9c3f
000006b0: 3fb5 ce89 eb23 a43f 2e63 ece2 2dbf 9dbf
000006c0: 704b 6ac9 5afc 953f ed61 adee f670 a83f
000006d0: 2b37 d9c2 93af aebf 4364 1a7d 9df9 993f
000006e0: c6ae 0090 dff8 7dbf 3605 7513 c6b7 a43f
000006f0: 48db dd5f a288 63bf 79c0 5aed c1d9 a33f
00000700: fa96 b45e 60f8 a0bf 4ff5 e1f6 1124 a1bf
00000710: bfdd 86d7 e097 933f 2e11 3f70 14db 9e3f
00000720: f707 dde5 61a4 a23f ed68 ee23 383d a43f
00000730: e577 7a12 98f9 9ebf 2a9f dc48 81ed 8e3f
00000740: a56f 27d9 782b 9f3f 6afc c753 422d ab3f
00000750: 8148 23ef ed1d ac3f 0517 0be1 cbd8 af3f
00000760: 443a 6331 5d2e a33f 8bcf e8d6 2d14 8a3f
00000770: fd0f 49e3 25ad a1bf 7f93 6395 4fb4 a8bf
00000780: 7971 a02d 5b49 aa3f 5d2e 1d5d e2fe a53f
00000790: 0ce2 b88d 29a9 713f ffba 0ab9 2a65 a5bf
000007a0: 31eb d90d 8eb9 a13f 91ba 41f5 79a5 9cbf
000007b0: e0ab 2783 731d 863f 45ca f38f a319 adbf
000007c0: 2ea0 3631 d0b5 acbf bf61 f90f 3f1d adbf
000007d0: 916c ed99 e9c0 ae3f 192c 6620 43b8 923f
000007e0: 6ba4 ed73 9aa8 a4bf 42dd bf95 189d aebf
000007f0: d43e cdf8 9e3e 90bf 3fe9 f5e2 cff8 9a3f
