python/snapshots/first_with_speed/snapshot800.pt (torch_old, 586867 bytes, 6 tensors)

layer0.weight f8 [256, 19]
0	0xbf9c9ffdb7e8c17c	-0.027954067563940907
1	0x3fa0b059037d358e	0.03259542625037702
2	0x3fc70e4eb6197e15	0.18012412921505985
3	0xbf7aee3a8061d7ee	-0.006574848672348905
4	0x3fad50166af95d46	0.05725164466701442
5	0xbfc5626d4247d180	-0.16706624733309283
6	0x3f71758052326c25	0.004262448553300967
7	0x3fc3c5e4ea7a67fc	0.15447675179603937
8	0x3fb5f7cb6340b27c	0.08581229375040239
9	0xbfbcff104173ab5c	-0.11326696012444643
10	0x3fc4075138569e36	0.15647330523391795
11	0xbfb4102a00c1d572	-0.07837164419637135
12	0xbfb2abb3dfdcedcb	-0.07293247428326947
13	0xbfba7d275a0addd4	-0.10347219417859971
14	0x3f90b2878cc515be	0.016306035963926872
15	0x3fa18f6fc024a734	0.03429745884416349
16	0x3fc7b046b80956ed	0.18506702409893397
17	0xbfb4735ca4d94ff2	-0.07988528275137677
18	0x3fcd0b03d847fc3e	0.22689865170102225
19	0x3fca269e73081802	0.20430355660226956
20	0xbfcc3886540bec42	-0.22047499755703553
21	0xbfc3a7bbba811537	-0.1535563145318208
22	0x3fb14c6226f8c00b	0.0675717682977394
23	0xbfb49b7cdbf8cc03	-0.08049755449683009
24	0x3fc213a824a8f7b2	0.14122487821617608
25	0x3fc9d08e96828652	0.20167715405573233
26	0x3fc406975304a9f6	0.15645114472984262
27	0xbf8d1743b437b338	-0.014204529702476529
28	0x3fc782e6fc351d56	0.18368232073610596
29	0x3f9016cd67808c4d	0.015711984102506005
30	0xbfc7543971d6aac4	-0.18225782450220696
31	0xbf9edd8b40aa6e33	-0.03014199812115077
32	0xbfc202f246429015	-0.14071491652168847
33	0x3f866a8995c1af85	0.010945391543110148
34	0x3fcb67dfd2506d88	0.21410749215361258
35	0x3fc2530879bae615	0.14315896934367403
36	0xbfaa44ff70b851f2	-0.051307661542668984
37	0x3fb4bf92e03eac56	0.08104818320013982
38	0x3f923daa00000000	0.01781335473060608
39	0xbfc45acc60000000	-0.15902094542980194
40	0x3fabe23c80000000	0.054460421204566956
41	0x3fa7a6ed80000000	0.04619543254375458
42	0xbfa4c59f80000000	-0.04057024419307709
43	0xbfc2f64280000000	-0.14814025163650513
44	0xbfc1e7b2c0000000	-0.1398833692073822
45	0xbfc8a27220000000	-0.19245745241641998
46	0x3f9adbdf00000000	0.026229366660118103
47	0x3fb0f66d40000000	0.06626017391681671
48	0x3fbd1b36c0000000	0.11369650065898895
49	0xbfb795ebc0000000	-0.0921313613653183
50	0xbf9507f700000000	-0.020538195967674255
51	0xbfb3f21e40000000	-0.07791317999362946
52	0x3fc108c8a0000000	0.13308055698871613
53	0xbfb381ac40000000	-0.07619740068912506
54	0xbf84f0b600000000	-0.01022474467754364
55	0xbfc36efc60000000	-0.15182451903820038
56	0xbf80568c00000000	-0.007977575063705444
57	0xbfc1151c273f315c	-0.13345672527646968
58	0x3fc9cdd3378d4055	0.20159378254402563
59	0x3fb0ab04041c916e	0.0651094923055717
60	0x3f9b2882b22c4ee8	0.026521722912618367
61	0xbfc385d30405bfcf	-0.1525214929238232
62	0x3fc4a1478ef8ecff	0.16117186051437923
63	0xbfa9ee85283185da	-0.050647889286448325
64	0xbfc83ef78095cb02	-0.1894215944153857
65	0x3f6ec16f57fa917e	0.0037543463402746604
66	0x3fb0e5daae5ed260	0.06600729710664544
67	0x3fc4a393e60968c5	0.16124199611915038
68	0xbfccc72219f08739	-0.22482706324177018
69	0x3f807fd74436a359	0.008056337136467627
70	0x3fb4d18fd44cd2d9	0.08132265980823251
71	0x3fc637050eafccb1	0.17355406968235834
72	0xbfb5cb407147b480	-0.08513262525203125
73	0xbf85227506be1ec6	-0.010319628017682613
74	0xbfc57834669dc523	-0.16773085604249002
75	0x3fbc4f51b0276025	0.11058531332616946
76	0xbfb3f787cc77c75f	-0.07799576513187166
77	0xbfb09cc0201d7ff2	-0.06489182266295737
78	0xbfb454b582ee44fa	-0.07941755720664281
79	0x3fab6c74d14eda4f	0.05356183104543232
80	0xbfca070b5a2d383a	-0.20333997634082995
81	0x3fc55280334a51bc	0.16658022407922413
82	0x3fba87eb7b46f573	0.10363647231766553
83	0xbfc44e29dd0c4f68	-0.15863536160815817
84	0x3f9f0b78470b94ac	0.03031719144464222
85	0xbfb1dae92a8ba280	-0.06974656380374178
86	0xbfcb46504235f47f	-0.2130832980437027
87	0xbf7ac6b6a10817f4	-0.006537164110801175
88	0x3fb5bff3dd86f271	0.08496021421792378
89	0x3fc5c3250b1475f6	0.1700178436375805
90	0x3fb9b944dbc5b839	0.10048323026214313
91	0x3fc70ea4dd99bf68	0.18013439960804623
92	0x3fcb84fdb13fbd9f	0.21499606280074787
93	0xbfb2b949bdcd5085	-0.07313977130735523
94	0x3f99b3b464a6e3e8	0.02509958137827431
95	0xbfc456279e464a22	-0.15887923458338188
96	0x3fb67a4d4971cf6e	0.08780367892341953
97	0xbf7e28004cdaf7f0	-0.007362366841048726
98	0xbfc00bfe5225cfcc	-0.12536601077192555
99	0x3f9be771e3772ce2	0.02725007963981064
100	0xbf8857fa1890394e	-0.011886552691092202
101	0x3fc833ae4486b5b4	0.18907717081076003
102	0x3f62d39a2558271f	0.0022981653844497264
103	0xbfc2fae55b217786	-0.1482817358946102
104	0x3fa3cf9cbd5e6e54	0.03869333087569929
105	0xbfbfae7faaf669a4	-0.1237563888920819
106	0xbf6cda4ff5d2389e	-0.0035220681880395307
107	0x3fcd15f93045c74e	0.22723307473239135
108	0xbfc8c0b1d44363a0	-0.19338057388702357
109	0x3fb2a3224e735fbc	0.07280172744083208
110	0x3fc59d1b0e0fdf6e	0.1688569849645733
111	0x3fc92f0426d6b722	0.1967473210947271
112	0x3fb495466407493a	0.08040275518513776
113	0x3fcb54ada5795d02	0.21352167682446327
114	0x3fa59572a3291713	0.042155821244291534
115	0x3fc20fb00f48370d	0.14110375162311364
116	0x3fab196b90cb9c91	0.052928315568174907
117	0x3fc2b4bbb9fd8738	0.14614054280814925
118	0x3fc6e687d3c78220	0.17891023484027446
119	0x3fc08a3487236aad	0.12921768759300303
120	0x3f6a62837f0cca89	0.003220803097428619
121	0x3fcb141f8c64362b	0.21155161242534012
122	0xbfc4fb6d14dc43ed	-0.1639229156358221
123	0x3fc7948138bd4e8a	0.1842195059822312
124	0xbfc096a2fd39b259	-0.12959706654091255
125	0x3fc8269e97db072d	0.18867857374976307
126	0x3fc79727855a250d	0.184300365556091
127	0xbfc4160386ad7d6f	-0.15692180706080758
128	0x3fad0ea9f0522add	0.05675250109296368
129	0xbfa67e1df43a7574	-0.043930946410209254
130	0x3fc118c4178c078e	0.13356829786067376
131	0x3facbb6e4bfb6ce3	0.05611748387829054
132	0xbf987fa63bbb04c4	-0.023924443622267658
133	0xbf995159920cf983	-0.024724387683130466
134	0xbfc9f04f42052b09	-0.2026461670269202
135	0x3fb33ad323369de2	0.07511634454441876
136	0xbfa6dd028208dd9f	-0.04465492093407452
137	0x3fc278f7cdf6b8c6	0.14431664997886723
138	0x3f9ac97b7be47883	0.026159219204707995
139	0xbfccb0d1c246f07f	-0.22414609895884394
140	0xbfcadc52ce5abcae	-0.20984873844051805
141	0x3fba1466e2a1dd42	0.10187380822195727
142	0xbfcd084719dc550e	-0.2268151165268723
143	0x3fbed504485dda6e	0.12043787733805697
144	0xbfb2e3698d2aa7ed	-0.07378253647280504
145	0x3fa528ecdb36d871	0.04132785964922981
146	0x3f91dd7773e52b49	0.017446390579873215
147	0xbfa84ccc1362f17a	-0.047460915915027393
148	0x3fc5a1f16b9d768f	0.16900460962908823
149	0xbfaddf5da4ba2a65	-0.0583447707732219
150	0xbf95f2ebc703cb10	-0.021434482595348803
151	0x3f8168fa6a0d2ba5	0.00850101123946507
152	0x3fb81fc758e0e2cb	0.09423490447887699
153	0x3fc48edc70eeea92	0.16060977472610155
154	0x3fbd163be008f532	0.11362051219562799
155	0xbfbf8149441e8bfe	-0.12306650078839707
156	0xbfc6148cde95d167	-0.1725021445123602
157	0xbfb9016fedbd286f	-0.09767818025753326
158	0x3f945d1c067002d3	0.01988643445293088
159	0x3f901c987f5bfc9c	0.015734083913227268
160	0xbfb10f3b7b827bdc	-0.06663867726682277
161	0x3fbf58bb1f6df2f0	0.12244767682382096
162	0xbfc7c4e2f7617b04	-0.1856960018075925
163	0x3fc072e50887e20d	0.12850630680601718
164	0x3fcc7a7eea04f960	0.2224882738755225
165	0x3fb47c1b5583864b	0.08001871907938456
166	0xbf832878f771df7b	-0.009354538966576112
167	0x3f962083c1aae53b	0.021608408637552073
168	0xbfc123183fc59b90	-0.13388350595343157
169	0x3fc76631b2ac4532	0.18280621742500497
170	0x3fca3a3a410eb533	0.20490196396478097
171	0x3fc1fbd000c089a1	0.14049720799182544
172	0x3fabf21353e8a14d	0.05458126448894749
173	0xbfa782a7835362bf	-0.04591868856522784
174	0x3fccc3f2b7afc494	0.22472986191818178
175	0xbfc324b095786b13	-0.14955718325003228
176	0xbf98d5ed076aded1	-0.024253562524534204
177	0x3fb34fb77f8200c2	0.07543513167366014
178	0xbfc632044ed75a4e	-0.173401392456713
179	0xbfc5c643af737069	-0.17011304919185768
180	0xbfab6103893d297c	-0.05347453165321078
181	0xbfaede522748dbb0	-0.060289923949702895
182	0x3fc2af646c89763e	0.14597754764229082
183	0x3fa685724cd82541	0.04398686588326451
184	0xbfcb6d77fcb7b54a	-0.21427821960188914
185	0x3fbbfc652ada1dad	0.10931999489013462
186	0xbfc1e97c52f061f0	-0.1399379162765082
187	0xbfc155eada23bdce	-0.1354344906935538
188	0x3fc96279f4624aec	0.19831776078043306
189	0x3fc96a721a43e15e	0.19856096537092588
190	0xbfc54e41580e2948	-0.16645066070152326
191	0xbfa0a760087a317b	-0.032526970896557615
192	0xbfc931e823ea15c6	-0.19683553460724407
193	0x3fa3cd8d5e1713e8	0.038677613959897716
194	0xbfb0f0c52262f5d6	-0.0661738594962665
195	0xbfb6dafe84dbc56a	-0.0892790865289236
196	0xbfc1d888e151a130	-0.139420614260652
197	0x3fc1457751380830	0.1349324366165674
198	0xbfcaeef2ff2be9dc	-0.21041715106532777
199	0x3faf7d394726d9fb	0.06150225633193781
200	0xbfc1c890bef387d4	-0.13893327068131944
201	0x3fbdb1b33f4afb22	0.11599273963200266
202	0x3facea32845f779f	0.056474283846667854
203	0x3f9905fb13bd2715	0.024436877326741675
204	0x3fab109061d01874	0.05286074823384093
205	0x3fbf943c854d22ca	0.12335565809656682
206	0xbfab19b9ed60e24b	-0.05293065092741197
207	0x3fbf962194b8b475	0.12338456993957599
208	0xbfb76af98865a1c2	-0.09147605495457525
209	0x3fab6af9ec499a9c	0.053550539106074185
210	0x3fc4cd358a174e82	0.16251248591162343
211	0xbf8a2e9b45011cca	-0.012784207385392671
212	0xbfbbf0d69f0cee21	-0.10914365180081421
213	0x3fcbabde445a903a	0.21618250215135665
214	0x3fc026486cb117a0	0.12616830165114568
215	0x3fa96383f3764718	0.04958736750553622
216	0xbfcc567977b095a5	-0.22138899177768426
217	0x3fba8ea67541c35e	0.10373916971890426
218	0xbfbc541ea09b344b	-0.11065856381465371
219	0xbfaaef8415ae39cd	-0.0526086117234744
220	0xbfbbb6d6dbe6ecc6	-0.10825865620329286
221	0x3faf29b63db84a6f	0.060865111383596175
222	0xbfcbab58a6e8807c	-0.21616657399954764
223	0xbfbd418ae4802b12	-0.1142813499319966
224	0xbfc170847aba5609	-0.1362462615258411
225	0xbfc83b27c1ff9a5e	-0.18930527660923507
226	0x3fc56e972644a5d0	0.16743745201647053
227	0x3fbca09c69fbc03c	0.11182572925076867
228	0x3fc808770944af45	0.18775833084634477
229	0xbfb1d19a38cb8caf	-0.06960452925300119
230	0xbfca347d7e30d8c6	-0.2047268739858678
231	0xbfb2968be8d37c4e	-0.07260965761405311
232	0x3f9f5579a97cace2	0.03059949967352516
233	0xbfc8318a2c00594f	-0.18901183269981423
234	0x3fc1998491bf7a44	0.1374974929485281
235	0xbfcbdbd4629b9d4d	-0.21764616789662697
236	0xbfc152dcf303d8da	-0.13534128061264178
237	0xbfbe179d7377e53e	-0.11754783696223556
238	0x3fb5c6156fee1782	0.08505376799265998
239	0x3fc27a9e845bfbc3	0.14436704123360586
240	0xbfc8e6e75388441c	-0.19454661921238958
241	0xbfab344ad34e845b	-0.05313333348682
242	0x3fb3f3d5ea8bfb1a	0.07793938614120713
243	0xbfb16374dc55d238	-0.06792383555677695
244	0x3fa3ffc999b4963c	0.03906087876593431
245	0x3fc9b979f3fdfb1b	0.200972789894842
246	0x3f951a2890a72f4e	0.020607599095270594
247	0x3fc72e8a546da302	0.18110779879068423
248	0xbfa82112c44f95a4	-0.04712732931492816
249	0x3fb1362a6999e164	0.06723275259162659
250	0x3fb538f6dbf7a79d	0.08290045614526638
251	0x3fae7993a5edc0a8	0.05952130699631769
252	0x3fbdbf3be641cb07	0.11619924899586574
253	0xbfb244dbab8bfe21	-0.07136319101481849
254	0x3fc09a94f8f18816	0.12971746592944616
255	0xbfcc4a569b0736b5	-0.22101862497077254

layer0.bias f8 [256]
0	0x3fb8db2293453eb1	0.09709373565169234
1	0x3fc4aaf9d8fa9e0c	0.16146777243305654
2	0x3fa33b2280000000	0.037560537457466125
3	0x3f431ad0fde0de30	0.0005830307452531821
4	0xbfb623404863e499	-0.08647538916911159
5	0x3fa9df30cc70c9b9	0.05053093429195905
6	0xbfc5237d583051ef	-0.1651455574616558
7	0xbf67447606645a33	-0.0028402619528933525
8	0x3fc11d949e509b45	0.13371522646158432
9	0xbfcac4fd56910e99	-0.20913664557348424
10	0x3f99caefac79d2f1	0.025188202764598825
11	0xbfb51702e290d9c2	-0.08238237410919338
12	0x3fb3c6080f8e7667	0.07724047069356176
13	0xbfb520f68b2d30ad	-0.0825342263971744
14	0x3fc4e908b506c17c	0.16336163367442313
15	0xbfa707806ad96ecf	-0.0449791078978855
16	0xbfa07e11582ac34c	-0.03221182061441272
17	0xbf8873b4300ec077	-0.011939437595941833
18	0xbfb2dc6ed40731af	-0.07367603947131472
19	0x3fa481d8f11524b5	0.04005315726187445
20	0x3fcc9d708ba029b3	0.22355467622430822
21	0x3fcbea523738c65d	0.21808841415763683
22	0x3fcb03174114e3d2	0.2110318248540169
23	0x3fc1aab8ddd8df9b	0.13802252609616236
24	0x3fca165f35f7d25d	0.20380773673209066
25	0x3fcc40d5d3f6d7af	0.22072861528220986
26	0xbfa5d3265a4f5f0e	-0.04262657024781734
27	0x3fcc2a6900584276	0.22004425541719613
28	0xbfaf6d17bcc3c5c1	-0.061379186432428685
29	0xbf8d302d5a0b3c8d	-0.014252046881124048
30	0xbfc12a890620ba15	-0.13411057280741603
31	0xbfc63ef5cc9c8a08	-0.17379639139933567
32	0xbfb8ea798b2a4bc1	-0.0973278012045702
33	0xbfacc8af80000000	-0.05621860921382904
34	0xbf9d11ab8d86a3b3	-0.02838771868997343
35	0xbfb253aad6d6c89e	-0.07158916230290166
36	0x3fb884d81f6dfc38	0.09577704207730242
37	0x3fc46e5fcf8f7e9b	0.15961835512915887
38	0xbfc5b1a097043e17	-0.16948325513702464
39	0x3fb9491517609fd7	0.09877139874208694
40	0x3fb093f6e8556653	0.06475775882918215
41	0xbfc1c1d5f9e07317	-0.13872790051473124
42	0xbf96fb244bf12e52	-0.02244240487588762
43	0x3fa03b5b9f318210	0.03170286482123086
44	0x3fa60d8ff462f17c	0.04307222231134042
45	0xbf7338e7d3bae8b0	-0.004692941259856351
46	0xbfb3a5d66b494f9f	-0.07674923056884929
47	0x3fae970b1ba1fd77	0.05974611961664327
48	0x3fa7a9373b7ef579	0.046212888729750774
49	0xbfc2fb957108afad	-0.1483027269290437
50	0x3f9912363de0c83b	0.024483535315262577
51	0xbfc1e3710c7e536b	-0.13975346670181507
52	0x3fb47818db3c932e	0.07995753624397814
53	0x3fb770a5c9c3e2e8	0.09156261611850491
54	0x3fca38eda005d6ef	0.20486231149305165
55	0x3fca39efaefce9ff	0.2048930744584396
56	0xbfbc9f001671a9e2	-0.1118011526865881
57	0x3f9934df77d1763c	0.024615756691096488
58	0x3fc890f70c9b92aa	0.19192398181543996
59	0x3fb24cc23a92600c	0.07148374490714121
60	0xbfc90ab222324a2b	-0.19563891095875027
61	0x3fba9dbf93f7befc	0.10396954882139292
62	0x3fa427ab82dfede6	0.039365157819670135
63	0x3fcb746da7041eb2	0.21449061064799008
64	0x3fc31b574501b3eb	0.14927187795129213
65	0xbf998e043f2687f4	-0.024955812792207113
66	0xbfb35af25facbbc1	-0.07560648761567192
67	0xbfc0f42e125b531d	-0.1324517812378411
68	0xbfc9486460000000	-0.19752173125743866
69	0x3fcb03490240725c	0.21103775606106268
70	0x3fac0d7800b8f0ec	0.05479025849169425
71	0xbfc23079880e944a	-0.14210433143049023
72	0xbfa84d0253f5c303	-0.04746253275778225
73	0xbfc7979633270758	-0.18431355951002604
74	0x3fc0647e5d274bf6	0.12806682156096344
75	0x3fa7236880000000	0.045192018151283264
76	0xbfb099dee4fa070f	-0.06484788027048814
77	0x3fa90afd975db906	0.048911976554210354
78	0x3fbb3ce1f044d780	0.10639774433079019
79	0x3fbdca11fcfef744	0.1163645975747985
80	0x3fc741e55a01065b	0.18169848341681213
81	0xbfc99064a2462739	-0.19971902774369157
82	0xbfc5742d4abdaf84	-0.16760793828450116
83	0xbf9b416be588393b	-0.026616750607041367
84	0x3fc2a4303bbc5278	0.14563563267497037
85	0xbfa895908fe5708c	-0.048016088071308166
86	0xbfb4da2318adeb00	-0.08145350792430506
87	0xbfbf8bb8cec44ec1	-0.12322573707597952
88	0xbfcba999ce406268	-0.216113305767766
89	0xbfba456300000000	-0.10262125730514526
90	0x3fccfb5be136087e	0.22642086502679953
91	0x3fcb6f59affa4226	0.21433564274458766
92	0xbfc0a3a4d88ec1f8	-0.1299940164003741
93	0xbfc05bd664927faf	-0.1278026572299473
94	0xbfcc8970fc2bb23f	-0.22294437706968215
95	0xbfb5a8f38774fdf4	-0.08460924202972092
96	0xbf63ddb964e8bb90	-0.00242506227302592
97	0x3f9b55b300000000	0.026694104075431824
98	0x3fc5f65e85330277	0.17158109191770496
99	0x3fc71bda35f628f8	0.1805374873623078
100	0xbfb5489fa93a12bd	-0.08313939935221533
101	0x3fb2ce363fd7b161	0.07345904406219496
102	0x3fc072f065f5c11c	0.12850766161455673
103	0xbfc40ef365b9b6b6	-0.15670626132071214
104	0xbf719d7667c73d22	-0.004300558587103683
105	0xbfcc835459bcdfbf	-0.22275785810211166
106	0xbf9d8c5383d4a033	-0.028855614587115674
107	0x3fc4aa93357d89b8	0.16145553695521442
108	0x3fb37d39a97ea633	0.07612953556113027
109	0x3fcc2578e21750d3	0.21989356078723307
110	0x3fc4776ff2ba620a	0.1598949370570753
111	0x3fc42ff060eec448	0.1577129815391649
112	0x3fb9951e31d91f92	0.09993160931582981
113	0xbfb985257c8c8d8f	-0.09968790331600118
114	0xbfade6209ce5e21f	-0.058396357681832926
115	0xbfb6c9a819287592	-0.08901453603944834
116	0xbfc64d668658c4df	-0.1742370754232416
117	0xbfc101fa86e7e8de	-0.13287288272096637
118	0xbf9f022bf909bb6b	-0.030281722140382977
119	0xbfafc936e1b43fe0	-0.062082018901605585
120	0xbfb46a2754fed9b6	-0.07974477601133043
121	0xbfa5da075ee6ac1d	-0.04267905267200709
122	0xbfc55f312fe62f48	-0.166967533481847
123	0x3f98cc5abf579efa	0.02421705048428089
124	0xbfc7fe3a25377d14	-0.18744589631294473
125	0xbfa207b373debb5a	-0.03521500386647487
126	0x3fc6727d090c6b14	0.17536890928098414
127	0x3fbf73793acfde71	0.12285573659743833
128	0x3fc9fb9ccf4e4df1	0.20299110529286638
129	0xbf9dd3e798205fa5	-0.02912866464620802
130	0xbfcd1f9ef2f06418	-0.22752749311692422
131	0xbfc088ccdcf283ab	-0.12917481220668256
132	0x3fabbd7ee0069ebc	0.05418011173906964
133	0xbfbf86465536bbbd	-0.12314261989989368
134	0x3fb417d05068053a	0.07848836863560829
135	0xbfa50346c02c2cc5	-0.04104062171799109
136	0xbfc0cde9c0000000	-0.1312839686870575
137	0x3fb4f53cd499851d	0.08186702909872108
138	0xbf90a10fe25f8a3e	-0.016239402953838182
139	0xbfba9746183e795e	-0.10387075511832708
140	0xbfba5eb370491d8a	-0.10300752154681994
141	0xbfbcc6741c0d0f39	-0.11240316090430448
142	0x3fbd44105733470d	0.11431982163346906
143	0x3fa6ccb349df2fbc	0.04453048969989434
144	0x3fc0bf44e0000000	0.1308370679616928
145	0x3f6a6de590fb5f61	0.003226230975865649
146	0x3fccf59277ac5df5	0.22624426692412639
147	0xbf9c5db810e92831	-0.02770125964369913
148	0xbfc5b3ba0e973085	-0.16954732620650162
149	0x3fc8cae3a5ec6220	0.19369168855406915
150	0x3f9d9ff9146d10de	0.028930560943323573
151	0xbfa0b0535695b5ed	-0.032595257110056376
152	0x3fac9e7cc2b0622d	0.05589666248869594
153	0x3fc01f160121f204	0.12594866805365268
154	0x3fae4b14f177cfa7	0.059166578746867864
155	0xbf950ae6d144c0ed	-0.02054939892076473
156	0x3fcbe6800c1fe84b	0.21797180740378716
157	0x3fbfca1f7657e852	0.1241779006885804
158	0x3fcc3e467cd14009	0.22065049261664196
159	0xbfcbaa0cd48daf45	-0.2161270177706404
160	0x3fc1f5c74791f730	0.14031306261670684
161	0xbfcd02e62311db1b	-0.2266509696234714
162	0xbfcb42ff63a83a24	-0.21298210493155623
163	0xbfb70016b72bf3e9	-0.08984510395016766
164	0x3fa27f3c80000000	0.036126986145973206
165	0xbfc437f53ae06c15	-0.1579577004893912
166	0x3f9e533124ea927d	0.029614227178756714
167	0xbfb7b662a54ea16c	-0.09262672935313326
168	0x3fa43ccddabf4681	0.03952639861348662
169	0xbfcbfbc88ca602a0	-0.21862131946183627
170	0x3f9f86135ca3f2d8	0.030784895448038835
171	0xbfca730399602320	-0.20663495053329317
172	0xbfcbac9db2d33fd3	-0.21620532256792888
173	0x3fa7643d84193fba	0.045686647773095015
174	0x3fa99edaae36409c	0.05004008652315514
175	0xbfc322f379842e3e	-0.14950412209906178
176	0x3fc74e884fb949e1	0.18208412068140858
177	0x3fb0a8ba40000000	0.06507457792758942
178	0x3fbe49a097118cc3	0.11831096351811525
179	0xbfb98b255615afb5	-0.09977944709470317
180	0xbf995ac07a5cea3f	-0.02476025339931653
181	0x3fc142586804c9a1	0.13483719901121297
182	0xbf82f643c70f7925	-0.009258775245993231
183	0x3fb68193a6283774	0.08791468435830813
184	0xbfc673c85503c1c2	-0.17540840293032828
185	0x3fa0d08ebdf70aeb	0.03284116810711687
186	0x3f96edf3ac4a43ea	0.02239208926272688
187	0x3f879004aee632cc	0.011505161845684418
188	0x3fcad36c1adefca6	0.20957709610045078
189	0xbf96da90aba6a201	-0.0223181347625161
190	0x3fc9603cad2bf775	0.19824942069675058
191	0xbfb75ceb02f3ec3c	-0.09126156637277999
192	0xbfc38e4ae7dbf323	-0.1527799255490204
193	0xbfb4b6fc9c68c4d1	-0.08091715639672549
194	0x3fcbefd775361749	0.2182568857498899
195	0xbfc7c977dc459881	-0.18583582168065862
196	0xbfc0f0fe7e307c02	-0.13235455667106072
197	0xbfbd951a086e1325	-0.11555636125383424
198	0x3fc5ec8103440aaa	0.17128002795660296
199	0x3fc27d9dcbf8d667	0.1444585081059586
200	0xbfc9f0d58e513101	-0.20266217660026345
201	0xbfa7bcb9e1e73d44	-0.0463617409001196
202	0x3faf65268f489265	0.06131859301629986
203	0x3fb1b13cd8ce4378	0.06911068242176366
204	0xbfc265cbba1fdf10	-0.14373156154737687
205	0xbfc22c27a0000000	-0.14197249710559845
206	0x3f9c4e81e74ad871	0.027643232099500318
207	0x3fc24806af2e867e	0.14282306245609172
208	0x3fc88c7fc3b0af11	0.19178769164261003
209	0x3fc360a730f51834	0.15138711824892115
210	0xbfc41a09ec9916bb	-0.15704464008938665
211	0x3fc3c0c82861b967	0.15432073566212098
212	0xbfc35d2618493e11	-0.15128017602772606
213	0x3fc7768a0b301521	0.1833050303104438
214	0xbfc87d38ce7929e8	-0.1913214691324605
215	0xbfbef691f2c32f8a	-0.12094986130540356
216	0x3fc2e464d30d232d	0.1475950270198835
217	0xbf73abce5dfc05b5	-0.004802518960560877
218	0xbfbc689aa566b1e0	-0.11097113168825201
219	0xbfc4b128d10764f9	-0.16165647703636646
220	0xbfcceb9f40000000	-0.22594061493873596
221	0xbfc5a1f65e7a44a6	-0.16900519955791998
222	0xbf97034fe3b7dac2	-0.022473572038473895
223	0xbfc45bb71164d4f2	-0.15904892300901669
224	0xbfb1adf28edbd20d	-0.06906047809372513
225	0x3fcb1853f82808d4	0.21167993180285427
226	0x3fb0283fba8dd3d3	0.06311415009061187
227	0x3f554275a2725c18	0.0012975834631896496
228	0x3f6970edbe92e5fd	0.003105606407726168
229	0x3fb80092c3348cb8	0.09375874772790638
230	0xbfc57295f38d9211	-0.16755937950360125
231	0xbfc036f329b508f0	-0.1266769364975242
232	0x3fc8f5e940c7eb4d	0.19500461257106352
233	0x3fbb69e283437f85	0.10708442406348524
234	0xbfc35f754d5f86ac	-0.15135065343843246
235	0xbfb82f7840000000	-0.09447433054447174
236	0x3fa2bee15b52c030	0.036612551114899694
237	0x3fbf5a1f009e0375	0.12246888890332548
238	0x3fccd30086f51ca8	0.22518927182884352
239	0xbfcc02a35db7b3ad	-0.21883050991109823
240	0xbfca51a94ce588db	-0.2056171060058379
241	0x3fbf4c2593adf088	0.12225565772490843
242	0xbfc018b0f1d1ee31	-0.12575351531619242
243	0xbf8d3d488f27317d	-0.01427704512470806
244	0xbfcd54d070aa4257	-0.2291508245584903
245	0xbfc5c36c47e59871	-0.17002633581722962
246	0x3f7bb15d1c34a400	0.006760944091447563
247	0x3fa3cfe5a66226c3	0.03869550376937305
248	0xbfc733c294b1d66d	-0.18126709232790308
249	0x3fcc773a3d54be8d	0.22238853449515653
250	0xbfb6a7306baadf27	-0.08848860386467249
251	0x3fc8f3c72d351026	0.19493951518427471
252	0xbfc9ded1ab95d87d	-0.2021123969859139
253	0x3fc35e75a5c52b29	0.15132017702338743
254	0x3fc1f9c65ae5d81b	0.140435022720056
255	0x3fbd3bdca426c58c	0.11419466979602627

layer1.weight f8 [256, 256]
0	0xbfaeaf216ecb6702	-0.059929890417789636
1	0xbfaf0c9f61fd9203	-0.06064317771123131
2	0xbf5ed25800000000	-0.0018812045454978943
3	0x3f81632089f17650	0.00848985119790338
4	0x3fa157615669b09e	0.03386978320927024
5	0x3f9451fb7a9b4285	0.019843987806611913
6	0xbf99b306f5fcbb30	-0.025096997035855384
7	0x3f9bca4e80000000	0.027138926088809967
8	0x3f8fed9fc2f26899	0.015589950691993247
9	0x3fa11d8fd4c32808	0.03342866394230276
10	0xbfabe591246f80df	-0.05448583192605993
11	0xbfaa3618c9f79168	-0.05119397607248538
12	0x3f89a1f08181abc0	0.012515906288362078
13	0x3fadd79040000000	0.058285243809223175
14	0xbfa7538edd2cc645	-0.04555937242402001
15	0xbfac4e179bbcad29	-0.055283296357027396
16	0x3fa7e66800000000	0.04667973518371582
17	0xbf9cb77e04d3e2c4	-0.028043717426927697
18	0x3fa682b5642ba245	0.04396597717078924
19	0xbfab92420674db9c	-0.053850234306472816
20	0x3fab20150b20ff52	0.05297914276934414
21	0x3f75ae1468c5b45b	0.005292968486498041
22	0x3f92b3026cf7f235	0.018260991955673062
23	0xbfa3798d7140620c	-0.03803674704994728
24	0x3faefcb2cfdc990d	0.06052168643354792
25	0xbfa6b1a826f1bbc5	-0.04432416415590227
26	0xbf6c013a007f59f2	-0.0034185536241964016
27	0x3f9507df00000000	0.020537838339805603
28	0xbfaf9b53a7294ad5	-0.061731924205238244
29	0xbf9ce52e6ea447ad	-0.028218007567438686
30	0xbf9f6577199d8452	-0.030660496653016907
31	0xbf91ba1435f4be7d	-0.01731139735528452
32	0x3f9fc0314c194607	0.031006593961427267
33	0xbfa690c500000000	-0.044073253870010376
34	0x3f59d96000000000	0.0015777051448822021
35	0xbfa021c200000000	-0.03150755167007446
36	0xbfac56591483413d	-0.05534628272437423
37	0xbf9ff4bd6d7c6d77	-0.031207046325204737
38	0xbfa4e1dfbe88ba5d	-0.04078578186851154
39	0x3f42b3814043ba5e	0.0005707150562822107
40	0x3f8dab711b4eeac2	0.014487155576593639
41	0xbfacc9b07c34323c	-0.05622626796875749
42	0xbf721a0b98521558	-0.00441936997697686
43	0x3faa2eda00000000	0.05113869905471802
44	0xbf7d5ace00000000	-0.007166676223278046
45	0xbfac8c883ab7a8e7	-0.05575967518582719
46	0x3f79496b1c33684b	0.00617353286653539
47	0xbfa73c97a58c3d17	-0.04538415809485679
48	0x3f912f4a00000000	0.01678195595741272
49	0x3fabaa6884311fdd	0.05403448690100252
50	0x3f98270280000000	0.02358631044626236
51	0xbf9f4aaa553b6470	-0.030558263256214635
52	0xbfa60af3c0000000	-0.0430523082613945
53	0xbfad046024f0c48e	-0.05667400790151432
54	0x3f8dcc7f8232a0fc	0.014550205384083352
55	0x3f9d025680000000	0.028329230844974518
56	0xbfaa60deeb31c594	-0.05152031537080429
57	0xbfa17eaca1ee3be3	-0.03416957356159125
58	0x3fadd4c42d87f140	0.05826390319632191
59	0x3faa819280000000	0.05176980793476105
60	0x3f986b1c04e382d0	0.023846090124495956
61	0x3f931d6adcd21077	0.01866690609723817
62	0xbfa1af135068d29d	-0.03453884464798771
63	0xbf879cd220ed0707	-0.01152958071691358
64	0x3fa3264e40000000	0.03740162402391434
65	0xbfacf44fa4bf55d8	-0.05655144582821564
66	0xbfa48b10f2969184	-0.040123490917980426
67	0x3f8866b700000000	0.011914663016796112
68	0x3faf620580000000	0.06129471957683563
69	0xbfafba34203febbd	-0.0619674958579348
70	0x3f8d2becb843ee47	0.01424393594105945
71	0xbf71cbc4aea0df2e	-0.00434471920930672
72	0x3fa2771208251e6d	0.036064685339224
73	0xbf79142e00000000	-0.006122760474681854
74	0x3fa2d4cfeee28c1b	0.036779878531227626
75	0x3f8ebfa300000000	0.015013955533504486
76	0x3f91a5a99e0700c3	0.017233515043472602
77	0x3f8c8bd41604d7dc	0.013938576623882364
78	0x3fa351cc63bcfdd4	0.03773344724185859
79	0xbf97f5a100000000	-0.023397937417030334
80	0xbf99bb3d1c938459	-0.025128321522860684
81	0x3fa8d582c0000000	0.04850395768880844
82	0x3fab4048ac8871b6	0.0532248221026949
83	0xbf5b663800000000	-0.0016723200678825378
84	0xbfa3bdb9513efd40	-0.03855685345433324
85	0x3f8f4f5500000000	0.015288032591342926
86	0x3f57d6f075fb49ec	0.0014550541163101905
87	0xbf936998820dde78	-0.01895750325954146
88	0xbf9543767d6f2c19	-0.020765162855053008
89	0xbfaea63580000000	-0.05986182391643524
90	0x3faff7157a96be5f	0.062431975569208424
91	0x3fa2c6ecfad9dc39	0.03667393266817282
92	0xbfad57a480000000	-0.057309284806251526
93	0xbf92f39200000000	-0.018507272005081177
94	0xbf9da67a80000000	-0.028955377638339996
95	0xbfa8b3bb40000000	-0.048246242105960846
96	0xbfacd8a8c0000000	-0.056340478360652924
97	0x3fa084f880000000	0.03226448595523834
98	0xbf9a4d210e2e6acb	-0.025684849253233815
99	0xbf715b8faf7f530a	-0.004237710258128366
100	0x3faa32739f30bb00	0.05116616552583331
101	0x3fa937996565375c	0.04925231325851939
102	0xbf9d5c5645803ff2	-0.0286725501937894
103	0xbf9e769580000000	-0.02974923700094223
104	0x3fa062e880000000	0.03200460970401764
105	0xbf7ffc7000000000	-0.007809102535247803
106	0xbfa2c5ae44c25c2d	-0.036664434331378316
107	0x3fa111686a72661d	0.03333593654060627
108	0xbf735d41a0b644bd	-0.004727608068962383
109	0x3faa0f052b52871e	0.050895844972968826
110	0xbfaf404a99afcca0	-0.0610373795133452
111	0xbf973c447d57b974	-0.02269083991080252
112	0xbf930313b5bd09a5	-0.018566425292428374
113	0x3faf3d15229e631f	0.06101289794532349
114	0xbf9d82ea0ab59aef	-0.028819710639619463
115	0xbf845bab47da283c	-0.009940469866041572
116	0xbfae215cb0a14330	-0.05884828239562123
117	0x3f8738ea585be6c1	0.011339026280882238
118	0xbf9665379d72804d	-0.021870488152331103
119	0xbfae6792c893ad04	-0.05938395212600692
120	0x3fa96a6680000000	0.04963989555835724
121	0x3fae889761dd89c7	0.059635859199960665
122	0x3fa2984840000000	0.03631807118654251
123	0xbf94eb1f80000000	-0.02042817324399948
124	0x3f8c374100000000	0.013777263462543488
125	0x3f9456c7b07bdd9a	0.01986228956863343
126	0x3fa318bc04f0348f	0.0372980838802529
127	0x3f7840742f783514	0.005920842980697633
128	0xbfadbfe987b4ca02	-0.05810479909486689
129	0xbf877dd50a61e4e5	-0.011470474604936285
130	0xbf90d771607c80cf	-0.016446849359568468
131	0xbf8dfa6d47a06295	-0.014637807606093825
132	0xbfa4719a80000000	-0.03992922604084015
133	0xbf928ed3c058cd4a	-0.018122967352792764
134	0xbfa31ba12acb7651	-0.03732017180821557
135	0xbf8372ed00000000	-0.009496547281742096
136	0xbf97fc7580000000	-0.023423992097377777
137	0x3fa02d57a7d2bc81	0.03159593509314452
138	0xbfab1d3300000000	-0.05295714735984802
139	0x3faff5dc00000000	0.06242263317108154
140	0x3fa4f54d6f3b062e	0.040934009387921896
141	0xbfad55e06fc8a627	-0.05729581226871643
142	0x3fac43b0360c9d4c	0.05520392093449775
143	0xbf6912eb26e41994	-0.0030607788859271044
144	0x3fafac4c00000000	0.061861395835876465
145	0xbf9356f37a6f3d48	-0.018886379573641393
146	0x3f840d5be2e6ee27	0.0097911051387803
147	0x3f2dc44000000000	0.0002271011471748352
148	0xbf7aa89b29aa76f1	-0.0065084515614708275
149	0x3fa565b3505a5d98	0.04179153781768291
150	0xbfad4e3d693447ff	-0.057237547962486694
151	0x3f87b5d8a2fbce00	0.01157731292139541
152	0x3fa9f6efa16a0b54	0.050712097600828315
153	0x3f9ccfef9535a609	0.028136962396649454
154	0xbf83bb4300000000	-0.009634517133235931
155	0x3f3c310c3234b690	0.00043016956097372775
156	0x3f66ce3400000000	0.0027838721871376038
157	0xbf8dce96eba43f03	-0.014554194513521695
158	0xbfaa35d140000000	-0.051191844046115875
159	0x3fa2d8f4c0000000	0.03681149333715439
160	0x3f6d5db14f63bf2a	0.0035847151840399287
161	0xbfa3882d1f4b713a	-0.038148317403939605
162	0xbf755f43a8da7822	-0.005217804236648889
163	0xbf924cdb37176223	-0.01787130855322706
164	0xbf91ad9480000000	-0.01726371794939041
165	0xbf665ddc4837cd27	-0.00273030303810064
166	0x3fa805b6a915699f	0.046918590679257514
167	0x3fa948adac46a03e	0.04938261726357539
168	0xbfabf65d00000000	-0.054613977670669556
169	0xbf9a9eb95d046a0a	-0.025996109297105753
170	0x3f9b80703e5e189b	0.026857141310323667
171	0xbf9c77459db1fa96	-0.02779873633380222
172	0xbf9d6c74653bb16e	-0.028734034231932375
173	0xbf89395bf76305ec	-0.012316435324808382
174	0x3fa7ef26599282b2	0.0467464432088084
175	0xbf93aa4c6ad0a060	-0.019204324740855205
176	0x3fa6e7cfc0000000	0.044737331569194794
177	0x3f9db0de00000000	0.028995007276535034
178	0xbf97fc97ea1e917e	-0.023424504913820858
179	0x3fad71774ab55b87	0.05750630175560106
180	0x3f840cb6184960fd	0.009789869896096532
181	0x3fad01c68eff2de3	0.0566541719013818
182	0x3fa1e0e480000000	0.03491891920566559
183	0xbf9791f04c61309f	-0.02301764932808281
184	0xbfa71d255d6f66be	-0.04514424100461899
185	0xbfa0c57b69b25de3	-0.03275666871303053
186	0x3facf26f30d64418	0.056537127219719874
187	0xbfa2f85d00000000	-0.037051111459732056
188	0x3fa7a0aba14a3f11	0.04614769309875844
189	0x3f931a8dfaa3e414	0.018655985281814294
190	0x3facb3a0d3042095	0.05605795455818555
191	0x3f81303c0c2c1306	0.00839278137346745
192	0xbf9c073bc9e01816	-0.02737134380006275
193	0x3f9973ff1542c729	0.024856553719195738
194	0x3f976456abbbaa01	0.022843698722605058
195	0xbfaaf7c6552f2651	-0.05267162122579506
196	0xbf969e24aab6da3f	-0.022087643546649934
197	0xbf9529d580000000	-0.02066739648580551
198	0x3f81f01d217214b3	0.008758761962108208
199	0x3fabaa1b80000000	0.05403219163417816
200	0x3f9d9a6080000000	0.028909213840961456
201	0x3f7dae5809847cf0	0.007246345420099262
202	0xbfa1673a912638b8	-0.03399069806902005
203	0xbf89cce47a00bac3	-0.012597832654220103
204	0xbf87922c00000000	-0.01150926947593689
205	0xbf78659c00000000	-0.005956277251243591
206	0xbf9f4abd60c759c0	-0.03055854705038441
207	0xbfa049e5329a6c24	-0.03181377642359731
208	0xbfa12207e7b48d5e	-0.0334627600043642
209	0x3f806c4200000000	0.008018985390663147
210	0xbfaceee180000000	-0.056510016322135925
211	0xbfac6031aa442f75	-0.05542140201040883
212	0xbfa4fa0d00000000	-0.04097023606300354
213	0xbf9d2df456b0e8e0	-0.028495614806367864
214	0x3faf496dca1754d0	0.061107092780426364
215	0xbf84445253ab601d	-0.009895938089741258
216	0xbf6c390aad6ca1c6	-0.0034451683562972428
217	0x3f8143e900000000	0.00843030959367752
218	0xbfa216c639dfa7e1	-0.03533000427690048
219	0xbf9fd4416927799c	-0.03108312801657008
220	0xbf72269a00000000	-0.004431344568729401
221	0xbfaf159300000000	-0.06071147322654724
222	0x3fa37795aff8e387	0.03802173398111735
223	0xbf7389205bac249e	-0.0047694457996466915
224	0xbfa2094086cfc2a5	-0.03522683759354565
225	0xbf87167800000000	-0.011273324489593506
226	0xbf924f8780000000	-0.01788150519132614
227	0xbfad4fad7e0675dd	-0.05724851764101022
228	0xbf83962fb702fa05	-0.009563801548549309
229	0xbfadae8f56cf407d	-0.05797241148650387
230	0x3f70160800000000	0.003927260637283325
231	0xbfa2a2423c00959d	-0.036394185852525164
232	0xbf79390b580c32f3	-0.0061579173204904135
233	0x3fae969fa0662291	0.05974291642184427
234	0x3faffb5e55203cf8	0.062464664355610766
235	0x3f9d599b80000000	0.02866213768720627
236	0xbf7e18ee00000000	-0.007347993552684784
237	0x3f87c33b33a81a77	0.01160284282106015
238	0x3f9e8a0a306f2c33	0.029823455053513647
239	0xbfab833fd3abbf08	-0.05373572787163822
240	0x3fa23fa259600157	0.035641740236317325
241	0xbf7d517000000000	-0.007157742977142334
242	0xbfa2c04a80000000	-0.03662331402301788
243	0xbf92cabf80000000	-0.018351547420024872
244	0xbf91d7dbc3a03f55	-0.017424997153340744
245	0xbfa515015b381cb6	-0.041175882706789776
246	0xbfac253500000000	-0.0549713671207428
247	0x3f9f686485850a11	0.030671663903612926
248	0x3fa06f864050d66c	0.032100863791509976
249	0xbfa28179418ff1bb	-0.03614405560799435
250	0x3fa491c85a490cce	0.040174733182107056
251	0xbf8723a76fb058b3	-0.011298473449681578
252	0x3f502539be0fd7c1	0.0009854377642546238
253	0x3f98d1fe1457d6a5	0.024238557807584233
254	0x3fa305d7acf92b4a	0.037153949608713946
255	0x3f86f3498f088676	0.011206221272973976

layer1.bias f8 [256]
0	0xbfaeb08e3c8dc68c	-0.05994076241667043
1	0xbfa94da3aafcbe25	-0.04942046606299425
2	0x3fa3e00d5510af9f	0.03881875670808132
3	0x3fa45fed9cf8322f	0.039794373904531326
4	0x3f70eac3d26dfcdd	0.00413013928380154
5	0x3f82cac8d4ba7e53	0.009175843231161418
6	0x3fa355455bd92a88	0.03775994058795101
7	0x3fa5a96e4b7bc521	0.04230827971867713
8	0xbfad1510c3d7307b	-0.05680134192115901
9	0xbf8c43e4b9d40f98	-0.013801371499091705
10	0xbfa2c7ad6a2866eb	-0.03667966767188865
11	0xbf8bce02645c3748	-0.013576525390387353
12	0xbf99347b387d11f5	-0.024614262888706013
13	0xbf9a406380000000	-0.025636248290538788
14	0xbfa45deb9c63bd49	-0.03977905544331379
15	0xbfafcce758d4cf5d	-0.06211016616216967
16	0xbfab0e854f3b31b0	-0.052845159456043844
17	0x3facd547f36e250d	0.056314705339057004
18	0xbfa1ea9ae1afba4d	-0.03499301915131934
19	0xbfa8590ec3d85b8a	-0.04755445614517047
20	0x3fadc533847d2adc	0.058145151064840056
21	0xbfa6391068ae980c	-0.04340411451202905
22	0x3fad950e9bc1dc9c	0.05777784015020268
23	0x3fa65ec487c69050	0.04369177014749026
24	0x3f67c88b50d8cc95	0.0029032441150547796
25	0x3f73382b3fea1f75	0.004692238754280588
26	0xbf7fe85dbc7ac5a1	-0.007789961011142849
27	0x3fa1d02ee3aa0872	0.03479143647292994
28	0x3f9fbcf32c27c458	0.030994224138286647
29	0x3fa879ff262ecbb7	0.04780576077555259
30	0xbfa354a05a081674	-0.03775502299326386
31	0x3f94db8c27cc9013	0.020368757180349983
32	0xbfa76687265d0592	-0.04570410102179347
33	0x3f77cb9c0faf149b	0.005809411634747931
34	0xbf938b0652924177	-0.019085024633171934
35	0xbfaa043f5bbe80de	-0.05081365580486062
36	0xbf95b73d60f72892	-0.02120681671457498
37	0xbf722d47c85fc9d4	-0.004437714005677457
38	0xbfaac7e0509374b9	-0.05230618461221454
39	0xbfa584b42bc95e28	-0.042028074593585096
40	0x3f91e1d062b17609	0.01746297457099469
41	0x3fa99519fc073903	0.04996567918316155
42	0xbfa852d22cdc3a4c	-0.04750687406168605
43	0x3fa32556dd6f6842	0.03739425137582987
44	0xbfa50d2f52b2b22f	-0.04111621746537641
45	0xbfa90c8fc96aaff0	-0.048923962914471875
46	0x3f85cd9e4a40b444	0.010646092072500342
47	0xbf928750a2bf51fb	-0.018094310696897136
48	0x3f9ff75df8c54e2a	0.031217068012962347
49	0x3f616354913ae220	0.002122559710042063
50	0x3fa721c9eb779224	0.04517966269830634
51	0xbf96cf3500000000	-0.02227480709552765
52	0x3f764c7d740c92e5	0.005444040348071087
53	0xbf796920457fc805	-0.006203771648857885
54	0xbfaf7986bb8d63e1	-0.06147404708344318
55	0xbfa35e411f36369f	-0.03782847887042106
56	0xbf7ac3ae331d8621	-0.0065342716860370695
57	0xbf9203cde91a0714	-0.01759263739814461
58	0x3fa3d0477fa6ebe1	0.038698419888042464
59	0x3fa0ae5817087069	0.03258013993419768
60	0xbfaf20fd22cc0697	-0.060798559663465195
61	0x3fa929dc7973a1bf	0.04914750082554375
62	0x3f945657a89d49b2	0.01986062018051777
63	0xbfa5ef22ea1b2396	-0.04284009082545663
64	0xbfa2adc47f3dc9ec	-0.036481991321938384
65	0xbfac6fa440000000	-0.05553925782442093
66	0x3fad6e6ecf96052c	0.057483160820093054
67	0xbf9afdc896415b4d	-0.026358732386451412
68	0xbfaac6cbc823ba4e	-0.05229794328794367
69	0x3f996a64eb7c62c2	0.024819924233358
70	0x3fa598c62874d4f9	0.042181198538324645
71	0x3f629e2b12e12c6c	0.002272686127104564
72	0xbf76a8fd4081ebb0	-0.00553225447230947
73	0xbfa3277b12050e33	-0.03741058917014719
74	0xbfa6a812c0000000	-0.04425104707479477
75	0x3fada352002de047	0.05788666011989157
76	0xbf840e299fc18821	-0.009792638004174905
77	0xbfb163598b85b06f	-0.06792220741562159
78	0x3f8858bd228bb8a7	0.011888005844835027
79	0x3fab6f7da0f99206	0.053584981823210184
80	0xbf8d3add00000000	-0.014272429049015045
81	0xbfae82c5b43d199d	-0.05959146332911589
82	0x3f91c5ade0022549	0.01735564880121857
83	0x3fa38a55052e4c6e	0.03816476524584621
84	0xbfa87b6339d76eee	-0.04781637269090121
85	0xbf97b572df21c0a1	-0.023153109425437027
86	0x3fa3429dd744e240	0.03761761906429628
87	0xbfac55aacbfbdc00	-0.05534108867680487
88	0xbfa36622dc98a4bd	-0.037888612201933715
89	0x3f706409c205f6c4	0.0040016537826638755
90	0x3fa63bf12591fe0b	0.04342607101079573
91	0xbfadc777b9975955	-0.05816244259374296
92	0xbfaca482b0009c7e	-0.05594261549441003
93	0xbfa07e4f480e9d52	-0.03221366648295522
94	0xbf713a16cbc8b101	-0.0042057886571849066
95	0xbfaf115d989e90bb	-0.0606793640902494
96	0xbf6cbad1ca1ba4b0	-0.0035070512247910787
97	0x3f85b6e0a11d414b	0.010602717320268204
98	0xbf9f39607a65ee48	-0.030492312880126243
99	0x3fab897f61d62b3b	0.05378339833540343
100	0xbf9a24a07c241e8a	-0.025530345513316045
101	0x3fa30401e9c23a4d	0.03713994959354192
102	0x3f943f74de68dacd	0.01977331740837478
103	0x3f88cbbf095be033	0.01210736510573449
104	0xbf828afc59d55f3d	-0.009054156772137051
105	0xbf933a3547aac4e7	-0.018776733874521858
106	0xbfa288ad7ae6f7cb	-0.036199017765724394
107	0xbf70539957a13b6d	-0.003985976212858994
108	0xbf915c37dab08689	-0.0169533469417105
109	0x3fa910b3b1a6e1ca	0.0489555506096085
110	0xbfa8037b54d36bfc	-0.04690156374427798
111	0xbf58433547bd84d5	-0.0014808674158859798
112	0xbfa6746240000000	-0.04385668784379959
113	0xbfa4a4228a8da3e0	-0.04031475011181107
114	0xbfa2b844802bb616	-0.03656210007271114
115	0xbfa0f27dbbd6527e	-0.03310006063398861
116	0x3f691de3ea2438d9	0.0030660106141403407
117	0xbfa5002ba6c07c2c	-0.04101692591233816
118	0x3f8e3bed69af2d73	0.014762739932754987
119	0xbfae63a47f259d4a	-0.05935396244131626
120	0xbfa3a019341f6391	-0.03833082925093046
121	0x3f859b398c50f402	0.010549974054919534
122	0xbfaac4b474ea9a24	-0.052281989357016806
123	0xbfad17c8c3f18f36	-0.05682208434953255
124	0xbf9fcc7db7607463	-0.031053509061269923
125	0xbfaeb3f9cdd3928c	-0.05996685636072127
126	0x3f94cb51c4aa3168	0.020306851986377522
127	0xbf7b2742a0098cab	-0.006629238371348804
128	0xbf91e998f6fc0aa6	-0.0174926663157843
129	0xbfa38b0921fce8cd	-0.03817013301746073
130	0xbf9b4bc6c3be2c18	-0.026656251618572296
131	0xbf9ae552bdff80d5	-0.026265423628388646
132	0xbf9a910cff48d7c7	-0.025943949776966038
133	0xbf9ccf050104115b	-0.028133466898922915
134	0x3fabdb1f40000000	0.054406143724918365
135	0xbfa5364bbfe98e8c	-0.04142986982040239
136	0x3fa1fd474a8a6628	0.03513548645896619
137	0xbf9b9f0da582cbc2	-0.026973927714333497
138	0x3f625959a16aec18	0.0022398710819664484
139	0xbfa6001a7862a8c2	-0.042969538875085714
140	0x3fa29bfbcc105dcc	0.03634631029143129
141	0x3fae66ba7a6854cf	0.05937750572426525
142	0x3fa4e72abdba14b3	0.040826163921374635
143	0xbf8101f120f69c8f	-0.008304485147915734
144	0xbfa7e9b0d5455356	-0.046704793962510635
145	0x3fa8972964f34214	0.04802827222158981
146	0x3faffb3d10fdd93a	0.0624636729470915
147	0xbfa02ba327480d78	-0.03158292631635623
148	0x3facaae0dace4d0d	0.055991198262882326
149	0xbf9f1132a06d2b5b	-0.0303390417496233
150	0x3f9118ceefdc20b1	0.016696198835263135
151	0xbf96274aea262dd9	-0.021634264508561294
152	0x3faebeb8e0b84d5b	0.06004884474909985
153	0x3f827248ff313bbc	0.009007044113017552
154	0x3f66d27c0ee2ced9	0.0027859137545308385
155	0xbfa6e8dfdd1f3398	-0.0447454411911174
156	0x3fa02f1201a8efcd	0.03160911817801058
157	0xbfad07e9fb602e41	-0.05670100396681877
158	0xbf595f7800000000	-0.0015486404299736023
159	0x3fa0ce12ada2dd00	0.0328222119291528
160	0x3f85f384da375b6a	0.010718381795340643
161	0xbfad2767e1292e20	-0.05694126723809867
162	0xbfa61dcaf2c2492e	-0.043196050771387426
163	0xbf9f0f460d0ae61d	-0.030331701799445655
164	0xbf8a312f8bb5f4f2	-0.012789126826414397
165	0x3fb000c38850bf21	0.06251165464413734
166	0x3f845942cd5fce93	0.00993587674381694
167	0xbfaa29426ada5905	-0.051096034568376004
168	0xbf677600dfbf594f	-0.0028638856001449785
169	0xbf74ec0600000000	-0.005107901990413666
170	0xbfa3909af1b181ec	-0.038212625506961334
171	0x3f96642aa7fad5e5	0.02186648035304541
172	0xbfacb2c2dbd6e304	-0.05605133946978039
173	0x3f8f05cfb27ec9da	0.015147802958243629
174	0x3fabe25e3be3b127	0.054461426554413266
175	0xbfacadbcdf89d0ed	-0.05601301411380342
176	0xbf906f46c6808af9	-0.016049486032112068
177	0xbfa96b543d8aa338	-0.04964698077430402
178	0xbf9acbada81268de	-0.02616759622888131
179	0xbf94a93b6b063b0c	-0.020176819236037466
180	0x3f7c0270f9295d37	0.00683826570692441
181	0xbf994b896c0f47b8	-0.024702212543907115
182	0xbfa513fb31d633c0	-0.04116806968077169
183	0x3fa7d06038df31b3	0.046511656706204184
184	0xbf985721a1078aa8	-0.023769879773576946
185	0x3faaf695e78f5fbd	0.052662548557861545
186	0x3f826db0df2b0193	0.008998281298205046
187	0xbf9c067474b711d7	-0.02736837351200613
188	0x3fa5f17d932c44a7	0.042858051505512855
189	0xbf862955002cd3cb	-0.010821022098392327
190	0xbfa4e7fd078eb8eb	-0.040832431004092694
191	0x3faadf87516b6e95	0.05248663777248656
192	0xbfa1e32efebd6be8	-0.03493639812105426
193	0xbf8e27fb10cceb54	-0.014724694681367424
194	0xbf8cafe8a1e5e88c	-0.014007394257294935
195	0x3fad41a503520ee6	0.05714145341428693
196	0xbfaae1ad4a4f2c8a	-0.052503028222042294
197	0xbfa7f44599be1957	-0.046785521523861
198	0xbfa086eff3b8b2ac	-0.03227948999515226
199	0xbf93b55a88cd2a66	-0.019246496772476716
200	0x3f9ceef7d7c6425e	0.02825534109575966
201	0xbfaabca639f0570f	-0.05222053010235871
202	0xbfa97e3f31a8a2af	-0.04979131203828523
203	0xbf9f97844e7189d7	-0.030851428306400166
204	0xbfa48dd1950192aa	-0.040144490660883506
205	0x3f9fba9c5c4b4c99	0.030985301144778352
206	0xbf75eaccbcd95c63	-0.0053508756223755475
207	0x3f7f1648919219c3	0.007589610549194994
208	0xbfa56d8840a38958	-0.04185128964469936
209	0x3f8b09ddf115af42	0.013202413482495626
210	0x3fa9c14312a919ab	0.050302597072504916
211	0x3fa84d6baa792ccf	0.04746567207311047
212	0x3f8fd118d78cde5d	0.015535539701530593
213	0x3f99bcfd170fec76	0.02513499692211637
214	0x3fa21843e78b3497	0.03534137917959262
215	0xbf9e3ea1c55a1096	-0.02953579680480852
216	0x3f957b87a21bec22	0.02097904135642293
217	0x3fac9f05b6213329	0.0559007439447668
218	0xbfaeb08d2825f60a	-0.05994073023883224
219	0x3f99a97b0b40fdcc	0.02506057983577907
220	0xbf83a926591be803	-0.009599971384421485
221	0x3fa562062eece4d1	0.041763489940828465
222	0xbf6ef00d513c80ea	-0.0037765750984278717
223	0x3fa375fb693ea9ff	0.03800950679518066
224	0xbfa1f7bbd4091ac2	-0.035093183167693734
225	0xbfa0474e35b3ebe8	-0.03179401784469588
226	0x3f94599e86204af5	0.019873120247278348
227	0x3f9dcfbc90efd419	0.02911276468872268
228	0x3fa1628269b75671	0.03395469227295401
229	0x3fa3db780b693a32	0.03878379000945066
230	0xbf9f5bac76da0cf3	-0.030623144868980167
231	0x3f918394d8805810	0.017103505815690367
232	0x3fa0bcfe5a136e4f	0.032691906447976586
233	0x3faaafa272defb39	0.05212123539194242
234	0x3fac070bbc50b8d3	0.05474125551005362
235	0x3fb1611a44cb94d2	0.06788791827746657
236	0x3fa31e5194385ced	0.037340688079149455
237	0x3f886d7e10627dfc	0.01192759025099032
238	0xbfa44edd2f527fd6	-0.03966418459572167
239	0xbfa9386f0b958f59	-0.049258680500115566
240	0x3faa6eaafe7cb3df	0.05162557941944334
241	0x3fa4fdea60373b40	0.04099972176083222
242	0x3f65dcfae1b2a0d8	0.00266884804075938
243	0xbfa5b6acbd10f6a6	-0.0424093228143481
244	0x3fa2a99eeef35a52	0.03645035426022915
245	0xbf99c7331de137cc	-0.025173948954311062
246	0x3f78eace9aa2b443	0.006083304450084151
247	0xbfaedc7dab3a2b8d	-0.0602759620206462
248	0xbfacd656c606fa51	-0.0563227764828197
249	0xbfadf9b07a9d01b2	-0.05854560372108909
250	0x3fae821093781a37	0.05958606529388926
251	0x3f93a6497166166a	0.019189021631538607
252	0xbfa4a4299a0af655	-0.040314960531287504
253	0xbfacfe628178249e	-0.05662830191074274
254	0xbf8c1602f20162e7	-0.013713858614367648
255	0x3f98a1e7ea265245	0.024055122057307327
