python/snapshots/without_speed/snapshot2800.pt (torch_old, 584819 bytes, 6 tensors)

layer0.weight f8 [256, 18]
-0.1738283996697009 0.004846840249299254 -0.1819925268080794 -0.20867386976369262 0.0882050536489289 0.168240326456971 0.0875770626592111 0.05298919844042073
-0.2130032239654344 0.14236265314237198 0.014663668925692657 0.06118154454878674 -0.19333025285561997 0.1269561527299355 0.02582732161688337 -0.10142301988368299
0.04258405340622001 -0.13205626452232566 0.03514269349863397 0.04980600054839871 -0.043513848609247306 -0.24115717370271428 -0.0023930248180639856 0.20169840678182474
-0.04447589231134733 -0.20112715100751868 0.171701908359739 0.03760840025449982 -0.18114819715075475 0.027810935300367073 -0.15530980514389087 0.03535586104605636
-0.1983166498341371 -0.15476614778272743 -0.031105757065554168 0.14015414547772995 -0.07918822765350342 -0.022874057292938232 -0.2217698097229004 0.000588729977607727
-0.1349284052848816 -0.18963007628917694 -0.14983291923999786 -0.16047243773937225 -0.13818024098873138 -0.14981763064861298 0.2287856489419937 -0.0805562287569046
0.06252141296863556 0.05805830657482147 0.023798123002052307 -0.06146423518657684 0.12404556572437286 -0.2153971791267395 0.0843709872788209 0.15899139180498414
-0.18934472896706817 0.03739887324669764 0.0029796847097477916 0.19886536959734083 0.12802211212476264 0.17762772022627904 -0.022947206018961438 0.2310025649576135
-0.14326869450446209 0.08072788708251756 -0.2096311297409664 -0.1299627596062936 0.053558349130695355 0.05933353563973355 0.010151759684952346 -0.007100318933656428
0.1135124884580551 -0.01606106184419833 -0.17758462496184632 0.20511983149893565 0.16231482877473064 0.06383720323851347 0.10907980286479554 -0.13963575530020902
0.1679466775278216 0.10514659930728656 -0.09199907898114108 0.1647868027402049 0.05634573014123022 0.1633202706871004 0.15045466480928008 -0.2158664692093475
-0.11428307079885261 0.030339957263209844 0.12589997342340364 0.21593662132068145 -0.0292194963291015 -0.21640776741209491 -0.11287308797545982 0.061975035472597015
-0.23790785932362743 -0.11745511350240279 0.10046316441424766 -0.1975710636177946 0.19278766957658056 -0.11339207719807078 0.026704639877876187 -0.14067029119223887
-0.10463112564906073 -0.08905739179660285 0.1242294247448327 0.048547532582982666 0.10474623454736219 0.23385605112111657 -0.01963564145423063 -0.15886726450809457
0.10745437035806632 0.08669246665807906 -0.03460384332342068 -0.19469719899836632 0.2275188662610391 -0.1634152327062448 0.10987886184190324 0.07165080359725774
-0.02607758901992658 -0.006644175662277308 0.19109561039050285 0.17285248651785212 0.01724110623727413 -0.1769883270708562 -0.19917859679171826 -0.15190959392479403
-0.0680008879180279 -0.06764572341521854 -0.043515038725027426 0.12930599317129937 0.01964453916084525 0.040454911448829796 0.1610776511273923 0.0035245258685076605
0.2185209473992943 0.08252457146627665 -0.028480766312723615 0.13837063613138806 -0.06547737533478803 0.1929222331628321 -0.2222960656918011 0.11958726871144314
0.020677735534195323 0.08721084787496686 -0.2141835849782926 -0.06679955611866589 0.18971073799994542 0.017240411478730486 -0.18076083212349436 -0.06067600387204835
-0.14743497279185352 0.05966154344098711 0.18510631536863184 -0.043812633149547545 -0.1368325849932175 0.19667542412308944 -0.1935428173619656 0.09160631945400624
0.15095084676472834 -0.2297261712848192 0.14674491483963906 0.19975681576039248 -0.2247316122371015 0.20604124802656448 0.05589654923521906 -0.09661209593707644
0.21555882449723923 -0.14037461265483095 0.010339250744186432 0.10971179277002112 -0.21334976149884985 0.0030869309365918643 -0.20834164660401328 0.13050631853803107
-0.07211089437126694 0.016422732994544113 0.06985677917604684 0.051437201800554534 -0.11559458822011948 -0.1348377764225006 -0.209225133061409 -0.0099363774061203
-0.08641351759433746 -0.029776915907859802 0.16516448557376862 0.03856836259365082 0.034766778349876404 0.01451091468334198 0.09025655686855316 0.00856761634349823
-0.0813845843076706 0.14376981556415558 -0.22038286924362183 0.019124522805213928 0.004183158278465271 -0.22238144278526306 -0.14816227560444892 0.045978191661353154
-0.027239621380922868 -0.11145927042101736 0.21501127255258565 0.18767699743131405 0.23014975094145063 -0.04901545754143408 -0.14593547670862783 -0.056603551866767174
-0.13339750908386566 0.1879718581912141 -0.11276494571029996 -0.08490536258355286 0.018603842321593973 0.0064115315015369065 0.08965955203811579 -0.11891413681771372
-0.09525501252681995 0.027044744138852786 0.106445892995507 0.01775466873855145 -0.14191933172991908 -0.15960969767779587 0.18949909117181674 0.1240228233359934
-0.07612139113051283 -0.04814666244330584 0.021834917809714895 0.09050443284164401 -0.23255103294949725 -0.053559239632063105 0.19455619097567944 -0.13174376214469855
0.060960265129200525 0.052156223234984554 -0.15924444794654846 -0.14456278085708618 -0.0036648064851760864 -0.012021496891975403 -0.13206630945205688 0.033129796385765076
0.06773839890956879 0.14340351521968842 -0.16833049058914185 -0.08099564909934998 0.12694518268108368 -0.09682577848434448 -0.12851500511169434 -0.01335608959197998
-0.11831232905387878 -0.21898207068443298 0.06426660716533661 -0.18094302713871002 -0.07742318951196772 0.06935345226832336 -0.123666378705944 0.14842263789031657
00000000: d543 d94d 0240 c6bf 713c c1c5 47da 733f
00000010: cbe8 60f7 874b c7bf ec18 154b d3b5 cabf
00000020: 6d9a c33c 9b94 b63f 8a22 0026 e688 c53f
00000030: 1b45 004c 736b b63f 828b af74 6621 ab3f
00000040: a5e2 6f8c b043 cbbf 2d8a b57d f038 c23f
00000050: e340 cd53 fc07 8e3f 6c5f e9f9 2f53 af3f
00000060: 6fd0 abb4 0bbf c8bf 8a22 0066 1940 c03f
00000070: 7a4b c036 7a72 9a3f 1244 76e9 dbf6 b9bf
00000080: 38f2 6bb9 93cd a53f ec7a ad3c 38e7 c0bf
00000090: 703b 8a1e 39fe a13f e5f6 ff0e 2c80 a93f
000000a0: cb4d 6679 7247 a6bf 90dd 1fff 3cde cebf
000000b0: a192 a06a 899a 63bf 4541 64de 40d1 c93f
000000c0: 4514 e04d 8bc5 a6bf f51c f5d3 88be c9bf
000000d0: 5d6e 8800 54fa c53f bbc0 4b82 6841 a33f
000000e0: 02f5 3e37 dd2f c7bf 8851 5846 787a 9c3f
000000f0: 9aaa eb12 31e1 c3bf cf57 d4d5 291a a23f
00000100: 881b a5a2 7062 c9bf 939a a08b 60cf c3bf
00000110: bb68 4105 30da 9fbf f7e2 9c2f 92f0 c13f
00000120: 0000 0000 ae45 b4bf 0000 0000 4c6c 97bf
00000130: 0000 0000 f462 ccbf 0000 0000 a04a 433f
00000140: 0000 0080 5545 c1bf 0000 0060 cc45 c8bf
00000150: 0000 00a0 b92d c3bf 0000 0060 5c8a c4bf
00000160: 0000 00e0 e3af c1bf 0000 0060 392d c3bf
00000170: 0000 0020 d948 cd3f 0000 0040 559f b4bf
00000180: 0000 0040 6701 b03f 0000 0080 d1b9 ad3f
00000190: 0000 0000 895e 983f 0000 0080 3d78 afbf
000001a0: 0000 0040 73c1 bf3f 0000 0080 2292 cbbf
000001b0: 2b01 1847 5699 b53f 59ef 1276 d459 c43f
000001c0: 7eb1 4ab5 723c c8bf fded 00f3 f125 a33f
000001d0: 702b 2f0c da68 683f c11f 5da1 6b74 c93f
000001e0: 47cf 5e50 0763 c03f 6811 9e50 81bc c63f
000001f0: 2f47 8bed 787f 97bf 087d e4f6 7d91 cd3f
00000200: c7f8 b7ea a056 c2bf 1904 e532 95aa b43f
00000210: 8301 3b5f 31d5 cabf 0a7d 1aa5 9ea2 c0bf
00000220: 515f e3fb ff6b ab3f c2e5 4116 f760 ae3f
00000230: 1bf1 bf1e 72ca 843f c492 c759 3915 7dbf
00000240: ab6b 9d89 270f bd3f 8680 709d 4f72 90bf
00000250: 23e5 3dce 17bb c6bf 4c44 06dc 5d41 ca3f
00000260: b624 9f78 bbc6 c43f fe71 2d8c a257 b03f
00000270: 465b f569 a7ec bb3f 99ee 2e9d 95df c1bf
00000280: d217 bad7 467f c53f 2a77 4f35 e3ea ba3f
00000290: 7d72 7c6b 408d b7bf 5271 4ae4 bb17 c53f
000002a0: 5e9f 73f8 58d9 ac3f cffe afba ade7 c43f
000002b0: d578 7134 1942 c33f 5050 c730 83a1 cbbf
000002c0: 4a49 91c3 a741 bdbf 2881 d410 7011 9f3f
000002d0: 60dc 3586 7d1d c03f 4760 4aab cfa3 cb3f
000002e0: c66b 8e34 b7eb 9dbf 3d52 d1ed 3fb3 cbbf
000002f0: 6100 742d 40e5 bcbf a6e6 0b1d 31bb af3f
00000300: 07d0 a0c5 c373 cebf 48a4 3dcf 8911 bebf
00000310: 2aa3 9c35 f4b7 b93f 23eb 6f34 024a c9bf
00000320: d4a4 f32f 44ad c83f e1f3 305f 4307 bdbf
00000330: 9f2e b50b 7658 9b3f 5140 18ee 7b01 c2bf
00000340: 176f cefe 1ac9 babf 8ec4 3b19 77cc b6bf
00000350: fadd 7ae4 7fcd bf3f b8a5 7de1 38db a83f
00000360: af93 c233 a6d0 ba3f 22b9 c4bd feee cd3f
00000370: 6f11 8797 5d1b 94bf c6ce bb34 c355 c4bf
00000380: ec0a 802e 2182 bb3f 2024 1b3d 7a31 b63f
00000390: 0dae c74e 98b7 a1bf 8f0f 297b d6eb c8bf
000003a0: 6b36 e894 561f cd3f 581e 1254 caea c4bf
000003b0: 1af7 2166 0521 bc3f e9ad 2e02 b557 b23f
000003c0: 9217 ff5f 15b4 9abf 3490 da52 ec36 7bbf
000003d0: b1a7 842a d275 c83f b42f 50c0 0720 c63f
000003e0: ba6a be0d a7a7 913f 9c83 45b2 8da7 c6bf
000003f0: 054d a42b af7e c9bf 4e85 ed08 c671 c3bf
00000400: d5f6 b495 8168 b1bf 1e5a c8e9 3a51 b1bf
00000410: c794 6a68 9a47 a6bf de7b ec49 198d c03f
00000420: f299 f6b4 b21d 943f 0946 4593 81b6 a43f
00000430: f6b4 da45 319e c43f 8c49 da6a 77df 6c3f
00000440: 6d13 4991 7ef8 cb3f 1667 908f 5420 b53f
00000450: 103e 83df 0f2a 9dbf 8e9c 7406 21b6 c13f
00000460: 58da b011 20c3 b0bf f585 0dfd acb1 c83f
00000470: 167f 168e 3274 ccbf 6b34 2270 459d be3f
00000480: eeb2 7f57 8b2c 953f dcba 7a3b 7353 b63f
00000490: dc30 6922 5e6a cbbf a4bf ea94 c619 b1bf
000004a0: 0074 b403 7148 c83f 2907 e26d 78a7 913f
000004b0: b01f 2fc3 2b23 c7bf f798 90d8 ec10 afbf
000004c0: 96bd 3631 26df c2bf 47db d033 f58b ae3f
000004d0: 7f4a 6551 90b1 c73f d2d2 0e05 9c6e a6bf
000004e0: 6058 c9ea ba83 c1bf 7f8e 4409 a92c c93f
000004f0: 0201 79d3 02c6 c8bf 5271 2902 8373 b73f
00000500: db39 147b 5b52 c33f 540f 5acc aa67 cdbf
00000510: 4d97 0b91 89c8 c23f a307 6c9f a191 c93f
00000520: 29c5 7766 01c4 ccbf de57 f342 8f5f ca3f
00000530: a55a d9f5 789e ac3f 41a0 7200 92bb b8bf
00000540: 6638 ca7a 6e97 cb3f f344 4599 cbf7 c1bf
00000550: 12cc 7dbe be2c 853f 03ca ee71 1216 bc3f
00000560: 639c 1f84 0b4f cbbf 2793 5d6d c349 693f
00000570: 2e8e 4767 f0aa cabf e066 0559 6eb4 c03f
00000580: f088 020d dc75 b2bf 8172 7df4 1ed1 903f
00000590: 390b f745 22e2 b13f cdf0 0f17 fa55 aa3f
000005a0: 0000 0060 9b97 bdbf 0000 0040 5d42 c1bf
000005b0: 0000 00a0 e3c7 cabf 0000 0000 8659 84bf
000005c0: 0000 0040 321f b6bf 0000 0000 d77d 9ebf
000005d0: 0000 0020 1c24 c53f 0000 0080 3bbf a33f
000005e0: 0000 0080 f3cc a13f 0000 0000 e6b7 8d3f
000005f0: 0000 00c0 0d1b b73f 0000 0000 e68b 813f
00000600: 0000 00c0 9ed5 b4bf 0000 00a0 0c67 c23f
00000610: 0000 0080 8135 ccbf 0000 0000 6195 933f
00000620: 0000 0000 5c22 713f 0000 00c0 fe76 ccbf
00000630: 076c 1c40 fbf6 c2bf ea8a 071b 748a a73f
00000640: 6829 f20b b4e4 9bbf 9256 4b41 9888 bcbf
00000650: c73d f147 7d85 cb3f 7ce8 16c3 cc05 c83f
00000660: 0cf0 bc0a 8c75 cd3f 9d22 47d6 8d18 a9bf
00000670: c015 e581 03ae c2bf 66dd 3508 24fb acbf
00000680: 4e08 7169 2b13 c1bf 5cf3 bf3b 760f c83f
00000690: 1201 f6d9 29de bcbf 5827 8d9b 5bbc b5bf
000006a0: 859d 67b9 e20c 933f cfab dc61 fa42 7a3f
000006b0: 7e18 c7ab edf3 b63f bb05 aa28 2871 bebf
000006c0: e42f 95eb a162 b8bf f494 6b0e 9eb1 9b3f
000006d0: 508f 35bd 0940 bb3f ba64 55a6 472e 923f
000006e0: 6b9f 39a4 692a c2bf 3846 d32f 176e c4bf
000006f0: cc32 9a97 8141 c83f 8c88 2fb2 f5bf bf3f
00000700: d67b 6e05 b17c b3bf a80a 36e9 ada6 a8bf
00000710: 5a42 9d87 e45b 963f e1a8 326b 4c2b b73f
00000720: 5ea5 9574 3bc4 cdbf d096 3cdd 1d6c abbf
00000730: a8c8 bc9e 37e7 c83f 9d86 eec6 fadc c0bf
00000740: 44ba 2b12 2f36 af3f 1b7e 2772 38b4 aa3f
00000750: 0000 0040 1f62 c4bf 0000 0080 0881 c2bf
00000760: 0000 0000 a805 6ebf 0000 0000 ba9e 88bf
00000770: 0000 0080 8ce7 c0bf 0000 0080 63f6 a03f
00000780: 0000 00c0 4d57 b13f 0000 00e0 0b5b c23f
00000790: 0000 0080 da8b c5bf 0000 0080 21bc b4bf
000007a0: 0000 0060 bd3f c03f 0000 0000 93c9 b8bf
000007b0: 0000 0000 2e73 c0bf 0000 0000 705a 8bbf
000007c0: 0000 0080 b749 bebf 0000 00c0 9a07 ccbf
000007d0: 0000 00c0 c673 b03f 0000 0020 2429 c7bf
000007e0: d2e9 e792 01d2 b3bf e96d 5bd9 25c1 b13f
000007f0: c122 288c 99a8 bfbf 7ecb dc53 83ff c23f

layer0.bias f8 [256]
0.11393536906713957 -0.024405442142336926 0.048390910029411316 0.16271704468397571 -0.007734772601772276 0.0014248616326961072 0.045673027963957016 -0.1683106850565554
-0.0018736222119289556 -0.10625717511511326 0.04832784831523895 0.0753404049155356 -0.06730745915457619 0.10197098553180695 -0.00949497660043832 -0.1578855209390962
-0.17183799627766683 0.16241637374412668 0.05285056628661916 -0.016691235679776387 -0.08226110139965331 -0.18055474064296861 0.01156606459177577 0.16718515820370958
-0.08216095208983179 -0.03530361438994685 -0.1677207854128096 -0.11314723082735181 0.1429702030753334 0.05513371482348662 -0.18002983448712892 0.1476233990061933
-0.2262092806886305 -0.20376386320438838 -0.06902795989213223 0.18194029380756127 0.22181579235095183 0.21484556375094124 0.17581154455323633 -0.1681375551902986
0.23221018031286053 -0.07329775268467441 -0.1637095528487769 0.014967463663295492 0.09128199227010737 -0.10822282975520119 0.21304977807781492 0.2230381495430611
-0.2127887869607804 0.0667157918214798 0.1704906715242349 0.20174768018755307 -0.031760153599368866 -0.20224008814472025 0.04517572810269231 0.03778424310817682
-0.08820620096248143 -0.17522692225915104 -0.04422819578564743 0.13988181723521953 0.18604898388370647 -0.017147399648584288 -0.06189696936038212 -0.22110123932361603
0.15802633029008664 0.23417457332459382 0.2142207588220244 0.20155870933799855 -0.025306674451562514 0.20859477324501272 0.1272629793172165 0.13465092552641988
-0.0014856559210381717 0.20883264118700892 -0.008330972356102908 0.10234659441740232 -0.15346159345837868 -0.06560014772619238 -0.08974073957825898 -0.22666988982210967
-0.16428910302483327 -0.14486018938140172 -0.19060709324316075 -0.06728681074141879 0.169822098167417 0.23577987614966603 -0.23087601490459964 -0.1575486538180913
-0.07054252604109355 0.14487821163632156 -0.10782908100894692 -0.14852693325041158 0.19045735594521213 -0.09321632446755318 -0.04182711566204069 -0.16154886033159405
-0.16991787575917336 0.16846742701490042 0.22057225486173349 -0.03937903199043719 -0.07941565242772443 0.15977875905203434 0.21195012553631787 0.12353009451390033
-0.2241366309322731 0.16187613261351128 -0.21867920458316803 0.10366584562326829 -0.1744495364342436 -0.06740692200897455 -0.09124585711946372 -0.0174227647422344
0.17060199793422307 0.1383826214631656 0.228984431586137 0.08837512870541388 -0.06822570669614501 -0.06989223740663932 0.16540717433823057 -0.18170104537210452
-0.10878963319843449 0.15511540197360174 0.22603468596935272 -0.03994133367953423 -0.19443466700048798 0.2403953154546709 0.10096327799215521 -0.13835852218964756
0.06863848865032196 0.1744584090227406 -0.06865653616986145 0.010836533095896207 0.21049786903414971 -0.043359383940696716 -0.19210544228553772 -0.14128316134195756
0.11047850637799801 -0.11074822581375976 0.07994522543831918 0.14394826114689707 -0.12934241219874654 -0.12453782762645564 0.03417789450188589 -0.06905630740989577
-0.22779008026040465 -0.06643167512239442 -0.002808492623865713 -0.2154001709629879 0.24097603476294327 -0.12341541063887802 0.03522446084354397 -0.05528374028697003
-0.24862252077573993 0.10674676366315933 0.22098173906226795 0.04289491428991907 0.17047418536115833 -0.17115944623947144 0.15278132909083605 -0.2295049723713635
0.20411115160144852 -0.12962533706138082 0.13449742357783212 0.07137131904018348 0.1369108310225943 0.14319299598316473 -0.09666454982876847 0.07279498647223809
0.23562593539410323 0.0705757317221458 -0.03232363613514785 -0.1575083505383864 0.13727198256345804 0.11501813567239935 -0.04095488204351245 0.16399056170315046
0.044466529886084134 -0.0975442505287843 0.01314981459224541 -0.0682948872107391 0.06725293305029435 0.18865936042001427 0.18705930428325437 -0.15623115003108978
-0.22702415273906523 0.0363767067600054 -0.13841426372528076 -0.025695000459593713 -0.19625429354848442 0.1790907820088528 -0.1081967075073346 -0.08875374995368475
0.07707214940971456 -0.013184281441644049 -0.16174941612352908 -0.047589577476422784 0.00864193324139708 -0.10967888293424005 -0.19489916564147042 0.011478773493269095
-0.16199123603910448 -0.15369380213202488 0.01888906859419754 0.1022092837182717 0.08111778466679308 -0.10598937892179579 0.14163967455729598 0.025059953331947327
0.18890910831440585 0.19150319903578497 -0.16998756213750754 0.12738823964703963 0.14026627498170718 -0.0475382346616015 -0.006050434095808384 -0.11152928325768167
0.09751690670765308 0.14005004862850678 0.23637113504422583 -0.06946377584822228 -0.07437095313040412 0.09259195156695732 -0.1901850393695607 -0.17088835343157974
-0.0019016688020843638 0.010319791792507993 0.07882046871245234 -0.15381828394781955 -0.022321894372499252 0.08791256462174495 -0.018682653600353736 0.19921715236930612
0.20455167753043835 -0.07491446070493513 -0.07256945954640272 -0.04626592073210142 0.16812740226783224 -0.13136478974177992 -0.22725988924503326 0.03848859949337102
-0.22949613066436664 0.21481100814770512 0.23372637644930572 -0.07060479173080736 -0.07624347293885643 -0.03917382875897723 -0.11758751146165144 -0.21780039370059967
0.017004142210195316 -0.1865463156293326 0.03212640964614457 0.1851460654046896 0.07290877815153904 0.09431593964545558 -0.04197428797189867 0.030583862771376216
00000000: 1b45 004c de2a bd3f 320e 627f bdfd 98bf
00000010: 0000 0080 b1c6 a83f 6bb0 b580 e9d3 c43f
00000020: 25a1 dd35 7fae 7fbf d2c2 4787 4d58 573f
00000030: e237 d482 7462 a73f 3e50 f15b 348b c5bf
00000040: 51d1 0488 8ab2 5ebf 9ab2 1594 ab33 bbbf
00000050: 0000 0080 6dbe a83f c7fb 2d3f 8249 b33f
00000060: c383 d8c7 0f3b b1bf 0000 0040 c51a ba3f
00000070: cc24 cd2f 1a72 83bf f200 79be 9735 c4bf
00000080: 0883 1c97 c9fe c5bf a170 c84a 0fca c43f
00000090: 385e 8dbb 3a0f ab3f 8474 7fdd 8117 91bf
000000a0: 5494 3e44 100f b5bf 1083 19f1 6a1c c7bf
000000b0: 3920 52e9 f2af 873f 3f46 6ec1 5266 c53f
000000c0: baea 3b0a 8008 b5bf 8a88 78ba 5013 a2bf
000000d0: c28d 1aec df77 c5bf 1254 0988 37f7 bcbf
000000e0: 9d69 41fd d84c c23f b1d1 257c 7c3a ac3f
000000f0: ef97 b6b5 370b c7bf 1290 6dd3 52e5 c23f
00000100: 42ff 4dfb 6cf4 ccbf 42e4 482c ef14 cabf
00000110: 040e 3ffe d0ab b1bf 9c32 ddcd d149 c73f
00000120: f01b f1ba 7564 cc3f f91f 0037 0f80 cb3f
00000130: 54c5 0e21 fe80 c63f f8c7 620a 8885 c5bf
00000140: d3f9 1e2d 10b9 cd3f 27a6 a63a a4c3 b2bf
00000150: b19e c343 6ff4 c4bf 82dd 80f7 42a7 8e3f
00000160: c18a 83b3 415e b73f 8baa 7aca 7db4 bbbf
00000170: b1d3 a112 3745 cb3f 771e 069b 838c cc3f
00000180: 34dd 79b8 a93c cbbf 0000 0040 4914 b13f
00000190: 0f1e 3c69 a3d2 c53f 3086 3934 ded2 c93f
000001a0: 6bea 0cea dd42 a0bf 13c8 42d2 00e3 c9bf
000001b0: 7e50 8ce5 4521 a73f ab4f e8d0 7458 a33f
000001c0: e731 707c ae94 b6bf 3cab 3df6 d56d c6bf
000001d0: e3be ebfc 13a5 a6bf d447 2abb a5e7 c13f
000001e0: bf05 9efe 73d0 c73f 4bf6 ce82 168f 91bf
000001f0: 7eab 3fa6 f5b0 afbf 0000 00a0 0b4d ccbf
00000200: 495c 40f0 343a c43f edef fdb2 6ef9 cd3f
00000210: 30e8 a1f8 956b cb3f 8353 6a00 adcc c93f
00000220: d956 8f2c fee9 99bf 4318 9ac8 3bb3 ca3f
00000230: 1b59 143f 274a c03f a88c c1d4 3d3c c13f
00000240: 2091 03e6 4a57 58bf 0f25 1e2a 07bb ca3f
00000250: 7bb9 812e d40f 81bf 4635 e1eb 6233 ba3f
00000260: a642 8c26 a1a4 c3bf 98c5 18d9 2bcb b0bf
00000270: 7e83 9bc5 3ff9 b6bf a40e e3d9 8403 cdbf
00000280: c158 4ae2 6c07 c5bf a257 f157 c78a c2bf
00000290: 41b8 ee2f d065 c8bf 2c27 965b b539 b1bf
000002a0: 3832 e202 bbbc c53f 4d12 8ff4 082e ce3f
000002b0: a018 b962 588d cdbf 3ab9 d6e5 8d2a c4bf
000002c0: a7df 5232 130f b2bf 8dc3 7086 5e8b c23f
000002d0: c6bc 7dc8 af9a bbbf 615e 7138 ee02 c3bf
000002e0: da9d 8819 e860 c83f 7c9d 0a69 06dd b7bf
000002f0: a37d b51b 5d6a a5bf 3a46 ea0f a2ad c4bf
00000300: bb1a b273 debf c5bf 9e31 bc34 5790 c53f
00000310: a89f 842e b63b cc3f f918 180d 7d29 a4bf
00000320: 49b3 f78d 9554 b4bf 71aa 5c60 a173 c43f
00000330: d8e1 c784 2e21 cb3f 3b4d 0214 ab9f bf3f
00000340: 3c49 d855 82b0 ccbf 93fb c96b 5bb8 c43f
00000350: 0000 0020 aefd cbbf e703 aa48 d889 ba3f
00000360: baca e4c6 5c54 c6bf 1e75 8d7d 9441 b1bf
00000370: e53c 3974 e35b b7bf aa5e 18f3 45d7 91bf
00000380: 693f e148 49d6 c53f 0870 c290 85b6 c13f
00000390: 5b51 7aa2 5c4f cd3f 99cd 919f c09f b63f
000003a0: 77a5 016b 3d77 b1bf 71e1 e729 75e4 b1bf
000003b0: 6f3a 27f2 0f2c c53f 7cd7 c2d7 fa41 c7bf
000003c0: 282a bb2c a3d9 bbbf cc8f 4a4d d2da c33f
000003d0: 0000 0060 b4ee cc3f e00e d3c3 3073 a4bf
000003e0: 41e5 fc33 3ce3 c8bf 26a5 fe10 46c5 ce3f
000003f0: 60c1 12b9 bad8 b93f eab5 f667 bbb5 c1bf
00000400: 0000 00c0 4a92 b13f 01e7 a134 a754 c63f
00000410: 1096 8189 7993 b1bf 1abd fdd9 7631 863f
00000420: 018f b01b 98f1 ca3f 0000 0080 3333 a6bf
00000430: 0000 0040 e996 c8bf ae37 b80e 9115 c2bf
00000440: 0def cdc3 5148 bc3f 80ca f5e7 fe59 bcbf
00000450: 099b ba50 4a77 b43f 2493 f888 e56c c23f
00000460: 208f 30cb 4a8e c0bf 4b40 c508 b6e1 bfbf
00000470: 2d73 43d6 c37f a13f 5074 e895 acad b1bf
00000480: ee2b 89b0 3928 cdbf d6b5 1190 aa01 b1bf
00000490: d3d4 0eff d501 67bf 2c5f eb98 3b92 cbbf
000004a0: d89a 367e 4dd8 ce3f 3d32 8400 2798 bfbf
000004b0: e83b afc6 f008 a23f b0f1 1081 264e acbf
000004c0: fef3 e3dd dcd2 cfbf ac19 e382 c153 bb3f
000004d0: 1190 242f 2149 cc3f 1c71 147c 52f6 a53f
000004e0: 0c1e 781d 19d2 c53f 0000 0080 8de8 c5bf
000004f0: 1339 f1ad 568e c33f a55c 4d3f 6b60 cdbf
00000500: 7345 7070 5020 ca3f 8daf b423 9097 c0bf
00000510: c4de d429 3637 c13f 7264 2609 6445 b23f
00000520: a5e8 da4a 4b86 c13f 2dc9 61e9 2554 c23f
00000530: a776 3208 02bf b8bf bc05 3636 b1a2 b23f
00000540: dfb4 4d9b fd28 ce3f 7f4c a34b 4011 b23f
00000550: eb30 2d40 b98c a0bf 1463 34cf 3b29 c4bf
00000560: 7731 e2d9 2092 c13f aeeb 281b d471 bd3f
00000570: a912 facd 09f8 a4bf d610 af89 a4fd c43f
00000580: 7132 4127 51c4 a63f f417 eff5 a8f8 b8bf
00000590: c52d fa3c 4aee 8a3f abdb 0d13 c67b b1bf
000005a0: e9d6 02fc 7c37 b13f 634b 8b6b fd25 c83f
000005b0: 4590 272d 8ff1 c73f 0000 00e0 61ff c3bf
000005c0: 664c b59f 200f cdbf c4a5 bdbb f79f a23f
000005d0: 0000 0000 8fb7 c1bf be21 944a ca4f 9abf
000005e0: f3c2 3e56 dc1e c9bf 821d df5d 72ec c63f
000005f0: aa64 4788 c7b2 bbbf cdcc 72d5 90b8 b6bf
00000600: 9bab 2519 00bb b33f f1ab e74c 5c00 8bbf
00000610: 47e6 3272 34b4 c4bf 208c c83d a95d a8bf
00000620: 4c0a 2ba5 dcb2 813f fcad 434f ea13 bcbf
00000630: 9651 39b3 74f2 c8bf 83a6 03e6 2e82 873f
00000640: a866 83fa 20bc c4bf f0a1 e00e 3dac c3bf
00000650: f2b6 74ef a757 933f 5ce5 ea3a 632a ba3f
00000660: 9791 4498 22c4 b43f 5d45 31b4 1e22 bbbf
00000670: e413 05b5 3f21 c23f 0000 0000 51a9 993f
00000680: 173e 1075 2c2e c83f d912 7844 2d83 c83f
00000690: 10be 0d06 27c2 c5bf f9ea 9601 424e c03f
000006a0: 409b e3cb 3ef4 c13f f7bf 5c76 ee56 a8bf
000006b0: 62f0 1609 57c8 78bf 1b58 23e0 2e8d bcbf
000006c0: ddcf 1d35 def6 b83f 98d1 54f5 28ed c13f
000006d0: 65de 5dcb 6841 ce3f 9858 86c5 60c8 b1bf
000006e0: caa9 778b f909 b3bf 8057 da2b 1bb4 b73f
000006f0: 25ef 23be fb57 c8bf 21c2 a068 abdf c5bf
00000700: f484 0454 2d28 5fbf 0db8 0002 8b22 853f
00000710: 8318 6007 942d b43f ca96 8a49 51b0 c3bf
00000720: cd33 42f9 8cdb 96bf b337 f515 7081 b63f
00000730: 4933 dda8 8b21 93bf d33c 1d99 f27f c93f
00000740: e0e6 aad6 bf2e ca3f f8a4 b916 982d b3bf
00000750: 99b0 707f e993 b2bf 9c6a edb0 2ab0 a7bf
00000760: 96a0 26df 3285 c53f ddb7 e4b9 8fd0 c0bf
00000770: 0000 0020 da16 cdbf c08c 2f18 c7b4 a33f
00000780: 2289 e113 2160 cdbf eb57 6857 ed7e cb3f
00000790: 2cfb 87f3 beea cd3f b8b9 6cd7 2713 b2bf
000007a0: 254c ce36 b184 b3bf af00 c292 970e a4bf
000007b0: 5654 2514 371a bebf 0000 0020 e2e0 cbbf
000007c0: a3dd c1aa 8869 913f 8a9c 68ea bfe0 c7bf
000007d0: 1343 896d df72 a03f 4db7 f2c3 ddb2 c73f
000007e0: d68e c051 26aa b23f 3fcc 44e4 1625 b83f
000007f0: 1871 3964 a77d a5bf 14bc 8d49 6051 9f3f

layer1.weight f8 [256, 256]
-0.02500799137958474 0.03308861706413155 0.042068496346473694 -0.03322954617459368 -0.04493978662265958 0.055711903383017514 -0.025690211039856223 -0.01626929451096139
-0.05781414443562705 -0.006040373777870697 -0.0003987550735473633 0.03685679541892495 0.054616900100470156 -0.03668961673974991 0.016157428237718117 -0.04800263807941161
0.05054932438494185 -0.043512728634104825 -0.017360454390977813 0.0003844348214912229 -0.019560347870180034 -0.042189783877121016 -0.0547602959862297 -0.05012192464886304
0.013789672057047387 0.02228776230064983 -0.03625448399155834 -0.01879689990913758 -0.016666948117903965 0.04872963809944332 0.021311073063456025 -0.05882660229963796
0.015901070420895905 0.030561311847429513 -0.04413592744719262 -0.04493556832224252 0.0235520577156561 0.04446853466640362 -0.05094952556120641 0.00910420492122002
0.02643518849663408 -0.04900724168769214 0.044616599121263624 0.043248126655746365 0.05364292071043645 -0.025594145980994198 -0.01782593695915675 -0.00643531198017958
-0.052120657981912795 0.03688913583755493 -0.04055469288377824 -0.03240927972395994 -0.025778563193942325 0.0474087805498668 -0.056210701596949776 -0.055401364458441064
0.039495681670198304 0.004268468803691813 0.06202971409632984 -0.022833636350881786 0.035552686526365444 0.03745557670814819 -0.04646572193588546 -0.0271514430642128
0.05413329848621591 0.031144988444073585 0.02328739348992528 0.0050532135705540545 -0.04185433404313246 -0.05243214896317484 0.0065251780629997005 7.470234375595913e-05
0.034028653670050264 0.01086841994085841 -0.018616231302811082 -0.04413985255350764 0.05788861636612688 0.060455655926345685 -0.057256733013572626 0.0007054893360182104
0.02836334007345801 -0.01959010976182871 -0.018194452091121447 0.0587040978216907 0.01195445196735454 -0.02685398646405154 -0.005719148948792299 0.01417781124664244
0.0336452614889721 -0.057547927378009046 0.05953891447713679 -0.018201487430361134 -0.020711907322720814 0.032370595943212316 -0.05139225853517899 0.046691656486025176
0.0017502800964102508 -0.013377758207960389 -0.002673544077595274 -0.01659833855116196 0.04563363876614743 0.02982909529447159 -0.016883166284179126 -0.02752509413720436
0.015171350869955948 0.04788544522773266 0.004942812025547028 -0.019168820856912083 0.04512486552227443 0.02305377086602356 0.01463407707553632 0.03076106948270345
0.01645119153607188 0.037071549276891595 -0.017805602987441473 0.04558138638076776 0.026409487810516528 0.051463959465785025 0.04592706732020493 0.03198986185545579
-0.029352611078306775 -0.02862284356073967 0.05094318836927414 -0.0446462972418538 0.03396293160313869 -0.004534703236789884 -0.035513691490699016 0.00847937493060249
0.03242272138595581 -0.05883253228543056 0.035376025062077744 0.03987396650421867 -3.8293906356490634e-05 0.013024501502513885 0.054169923067092896 0.035223546694930045
0.020097649840012784 0.056300038031012016 0.03870609494258898 -0.03481726447879311 -0.046233184404361194 0.0031996232228484905 0.004918933673561612 -0.0073497513682065085
0.010258487811801442 -0.058748848427252476 0.02007235266067088 0.03934447416812904 0.05657263765674573 -0.011013329968988022 0.0199304273012275 -0.04753144575975285
-0.05704072494535413 -0.049047150519164105 0.006718286987548246 0.04803334048796393 0.009928594267599396 -0.049965471029281616 0.027435858151450252 -0.0378342114430556
0.014691365349847864 -0.00011466699658956728 0.019636217019644665 -0.04585421108265143 0.005788868434480215 -0.03410511452242087 0.022035896628894297 -0.04745765077366871
0.0370700578760977 -0.029297135481899314 0.05519495970112883 0.008281915633177674 0.024226989676397706 0.05249068532325836 0.01676119636333106 -0.022071727147634158
0.05340802138847451 0.05521516173207609 0.05105372377277346 -0.002225580413266284 0.019852639425042683 -0.02082488966494335 0.0014857669875630402 -0.030021488666534424
-0.030286796951183505 0.05447210775156262 -0.024190492928028107 -0.03218416283924836 -0.051252718556689246 0.017205849537152103 0.00789576405933228 0.034620201003926876
0.03947376235587327 0.054497063435952724 -0.05188656602761161 -0.04215252068474921 -0.00287348622933201 -0.03708633052321584 0.055997098149974944 -0.012920118361481225
-0.040569917720990716 -0.0057421117332203935 -0.05254886157071157 -0.060814440458461926 0.02624662524745034 -0.05522184264643289 -0.04318077272790359 0.03625398129224777
0.00838921124645843 -0.025204359092994358 -0.008961153342474404 0.04068953781776312 -0.010720300875002519 -0.009193184549459306 -0.020726212501533864 -0.0011274076521139136
0.05125825198844983 -0.05525506506890971 0.012583681590508735 0.027931535707286768 -0.03181931712093714 -0.06260973058162693 0.016243145971803125 -0.05866870012797252
0.04297353797367039 0.04253531458600078 -0.03515381638877124 -0.01858985716674225 0.05670332136532361 0.024074912370114884 0.05582561322924729 -0.031727258030858976
-0.0003875176033167428 0.012107136521737666 0.05995223279730834 0.007846683970904652 -0.022418055286545207 -0.029432365594894393 -0.04960155487060547 0.007963943871799405
-0.04803810741672592 0.015899664294702652 -0.031822586722654644 0.05756686569884355 0.0017348673630674049 0.00442714455191541 -0.004147322417741834 0.057572536170482635
0.003025645343313455 -0.057428450273129976 0.031920819106556815 0.006563558721562037 -0.03030813675407198 0.04359039090498678 -0.03685671101346116 -0.034868174972235766
00000000: 9ab3 74e4 b19b 99bf 7c14 52c0 fdf0 a03f
00000010: 0000 0080 008a a53f d95e 298c 7603 a1bf
00000020: e9c5 aa03 5902 a7bf 5852 0e46 4586 ac3f
00000030: 795d f9e0 884e 9abf a50e 6adf e5a8 90bf
00000040: 41c9 31c7 d099 adbf fc1c 4e7d cabd 78bf
00000050: 0000 0000 0022 3abf a056 ebd5 e4de a23f
00000060: 2018 7b0f bff6 ab3f 0000 0040 fbc8 a2bf
00000070: 364f 79a7 928b 903f dd78 5841 cd93 a8bf
00000080: ceed 22de 99e1 a93f 80eb e2e4 4c47 a6bf
00000090: 8b6b 695f f0c6 91bf d501 5afc be31 393f
000000a0: 056d 9ab9 a007 94bf 7f80 f43b e699 a5bf
000000b0: 45a1 c2a0 8a09 acbf f5df 5bb6 94a9 a9bf
000000c0: fa87 0f74 c23d 8c3f 31b0 ba68 9ad2 963f
000000d0: 7879 279e f28f a2bf 21f4 8099 7e3f 93bf
000000e0: ecb2 5cf4 2311 91bf 024f f753 17f3 a83f
000000f0: 7e9d 66e7 91d2 953f 3c03 063a 851e aebf
00000100: b470 b7c5 5e48 903f 4559 a1eb 764b 9f3f
00000110: 7ebb edf9 fb98 a6bf 9c0e be78 cb01 a7bf
00000120: 4fa9 91d6 071e 983f eabd 2f6c 94c4 a63f
00000130: 186f 1064 0e16 aabf 8f4b 24b3 39a5 823f
00000140: 84ff 3978 d311 9b3f 45b1 a128 7a17 a9bf
00000150: b54c 2ba4 fcd7 a63f 6b0b 3353 9e24 a63f
00000160: 55fb 39bc 1577 ab3f e365 d40f 5a35 9abf
00000170: 1361 0a61 f640 92bf a52d e9e7 e95b 7abf
00000180: f1e5 f412 8faf aabf 0000 0000 22e3 a23f
00000190: 9332 45af 95c3 a4bf 85ad 00f9 f297 a0bf
000001a0: 5c64 6c17 b265 9abf b884 02b4 f645 a83f
000001b0: 2596 162a a6c7 acbf 876c 0151 915d acbf
000001c0: 1aa5 362a c738 a43f 0955 a75e d07b 713f
000001d0: 2f12 d9d2 5bc2 af3f 28d0 8065 b361 97bf
000001e0: efd3 d433 f633 a23f 6754 079a 602d a33f
000001f0: 5b06 33e8 5aca a7bf 0000 0080 96cd 9bbf
00000200: 3aed 3e15 5cb7 ab3f 0dd5 34cb 78e4 9f3f
00000210: 6712 cb85 a6d8 973f c65a 67b0 adb2 743f
00000220: 747d d267 ee6d a5bf 9296 1cfa 62d8 aabf
00000230: 963b 1926 25ba 7a3f 93c2 537e 3095 133f
00000240: c190 4725 346c a13f 0036 a4a1 2e42 863f
00000250: bd3b 7b22 2210 93bf b5cc 55ae 7f99 a6bf
00000260: 54d7 34a4 93a3 ad3f 2baf 1f32 0bf4 ae3f
00000270: 35c7 8927 c150 adbf c5ab 1cd0 121e 473f
00000280: 0a54 1588 470b 9d3f b927 0203 6e0f 94bf
00000290: 39ce cc02 91a1 92bf ec18 92a8 760e ae3f
000002a0: 335e ee61 937b 883f b774 8586 9c7f 9bbf
000002b0: 5de1 225b f66c 77bf 0fc6 109d 4109 8d3f
000002c0: b560 85a3 f339 a13f 3d0f 1504 ec76 adbf
000002d0: a28b 0975 e27b ae3f cb00 0225 69a3 92bf
000002e0: 6d00 5b92 8035 95bf 7c33 dbf5 e092 a03f
000002f0: 0933 5a0b 1650 aabf c603 3503 f8e7 a73f
00000300: ce8c 77f1 34ad 5c3f 80d3 f94f cc65 8bbf
00000310: 5801 160c d4e6 65bf 960f fba4 27ff 90bf
00000320: ac37 32d4 4a5d a73f 513d 09b3 848b 9e3f
00000330: cf85 2c1c d249 91bf d8f0 8dcc 892f 9cbf
00000340: 54b0 943e 2812 8f3f e33e 6aea 7084 a83f
00000350: 0000 0000 ea3e 743f 43b8 bbca fda0 93bf
00000360: 5c23 4f3b 9b1a a73f 201b ad5f 689b 973f
00000370: 3f94 9293 78f8 8d3f 4c3b ac6d d47f 9f3f
00000380: 7eb9 82c6 94d8 903f ff39 83c7 0afb a23f
00000390: 1a05 11ca a13b 92bf 099c 9f87 7156 a73f
000003a0: f915 cdb9 160b 9b3f f80b a8ed 7b59 aa3f
000003b0: d36e 48a8 c083 a73f 0b0b f2a4 f960 a03f
000003c0: 5fbd 8862 9c0e 9ebf cb2f 0c84 4e4f 9dbf
000003d0: 0000 00c0 3915 aa3f a61f 1525 e1db a6bf
000003e0: 2106 06e1 9663 a13f b4d2 9521 fb92 72bf
000003f0: db8b 06bf d92e a2bf 0dc2 2370 a25d 813f
00000400: 0000 0000 b699 a03f f8ac 3634 4c1f aebf
00000410: d57f 686d ce1c a23f dbe0 314c 5c6a a43f
00000420: 71d3 7e9a b813 04bf 0000 0000 97ac 8a3f
00000430: 0000 0000 29bc ab3f 472c 351a d208 a23f
00000440: 1242 2873 7a94 943f 4fa8 36cc 5bd3 ac3f
00000450: 595b de07 49d1 a33f 1592 8b88 91d3 a1bf
00000460: 106a 033e e0ab a7bf e5c4 40a3 1836 6a3f
00000470: 4370 2534 e025 743f a0b0 29dc c51a 7ebf
00000480: e0ca 43ed 6602 853f 806d 583d 5414 aebf
00000490: a4e9 ecc8 d88d 943f 422e a97b f524 a43f
000004a0: c519 2bb9 16f7 ac3f 637d 4b20 288e 86bf
000004b0: bbf9 d055 a468 943f 7cb4 23aa 0a56 a8bf
000004c0: fa60 5c20 7134 adbf 8333 e246 b51c a9bf
000004d0: 55ba 586e a284 7b3f 50e1 0675 d397 a83f
000004e0: be90 655d 7155 843f 0000 0000 1395 a9bf
000004f0: 4921 fe45 2518 9c3f 38c0 a279 015f a3bf
00000500: 5481 b0ad 8116 8e3f 061e 4a00 2c0f 1ebf
00000510: 7a87 aa37 841b 943f a2bd f701 347a a7bf
00000520: ec05 b689 11b6 773f 5711 00bf 3976 a1bf
00000530: c8c1 6ffd 9390 963f b129 0984 5e4c a8bf
00000540: 8a32 7abc d8fa a23f 2c82 0b7b 1100 9ebf
00000550: ab09 a485 8342 ac3f 6e82 57e6 1bf6 803f
00000560: 64d5 5cc1 f5ce 983f 0ab5 9d21 0fe0 aa3f
00000570: 5ead e3d8 d829 913f 1db1 0f89 f899 96bf
00000580: 2946 6ad2 4b58 ab3f 72e6 c363 2945 ac3f
00000590: 59db e2b3 b623 aa3f 39fa dd62 613b 62bf
000005a0: c383 4714 4054 943f a407 37b0 1e53 95bf
000005b0: 2b71 bf27 c257 583f 0000 0000 f4bd 9ebf
000005c0: faaa 9f89 8003 9fbf de9e aca2 c4e3 ab3f
000005d0: 0000 0080 64c5 98bf c9fa af4d 717a a0bf
000005e0: d36b 10dc cb3d aabf c273 3f04 699e 913f
000005f0: 1b4b 4b83 a72b 803f 1885 2f2e bdb9 a13f
00000600: ccb2 bcac e735 a43f dff3 5e02 0ae7 ab3f
00000610: c973 6140 e090 aabf 75e6 91e3 0395 a5bf
00000620: c9f3 2c2c 238a 67bf bda3 73c1 fafc a2bf
00000630: 0839 73d2 a6ab ac3f c686 95ee dc75 8abf
00000640: 2f4a a08b 94c5 a4bf 1ea3 aa61 0a85 77bf
00000650: 0dc7 c633 afe7 aabf 4b8a c901 1223 afbf
00000660: 9acd 4534 65e0 9a3f 6af0 6190 0946 acbf
00000670: 965d 5d4d ca1b a6bf 0000 00c0 e18f a23f
00000680: 48cd 8adf 5c2e 813f 648e 15e8 2bcf 99bf
00000690: cdac 52a4 395a 82bf 76ec 6e54 42d5 a43f
000006a0: 7994 4a6d 86f4 85bf 915e e357 e0d3 82bf
000006b0: 68c5 7493 4039 95bf 788b afbf b078 52bf
000006c0: b48b e187 853e aa3f 4992 d152 644a acbf
000006d0: 0ef6 2727 79c5 893f 9935 8fa1 159a 9c3f
000006e0: 85b9 d41c 9f4a a0bf e36b 42f9 3007 b0bf
000006f0: 48a4 ee12 0ba2 903f 0d6b b2e8 d209 aebf
00000700: bb72 61a8 a000 a63f fed5 2452 30c7 a53f
00000710: 2050 7057 aeff a1bf c91c 4632 3809 93bf
00000720: 9d62 adbd 3708 ad3f af84 2205 18a7 983f
00000730: f190 32be 2c95 ac3f 02c2 441f 8e3e a0bf
00000740: a68c d06e 7765 39bf bdc6 455b a0cb 883f
00000750: 628c 5f1e 0fb2 ae3f 1ef2 4b18 ec11 803f
00000760: 0bba 2e39 c2f4 96bf a629 b29e 8423 9ebf
00000770: 0000 0000 6065 a9bf acfd cf73 664f 803f
00000780: d715 a268 7398 a8bf b60a a768 0048 903f
00000790: 18f0 7ed2 0c4b a0bf e6fe 047b 6779 ad3f
000007a0: 66de 95a5 8f6c 5c3f 90d1 0a91 3222 723f
000007b0: 6e17 6762 c8fc 70bf 0000 00c0 257a ad3f
000007c0: 81fb 8ff9 3cc9 683f a7ec 9007 4367 adbf
000007d0: 4996 3ff4 ec57 a03f 292b dfe0 63e2 7a3f
000007e0: 274f a5a0 1809 9fbf 17ab b6ce 7a51 a63f
000007f0: b8c2 e100 e2de a2bf 489a 5ace 3dda a1bf

layer1.bias f8 [256]
0.04099479228129449 0.05476086924685322 0.029604385998790915 -0.002637915969476631 -0.008778103705966519 0.015331981031018798 -0.061044898591910854 -0.023606435463428416
0.0575303353275881 -0.029002427344964717 0.010821687831665138 0.028072377578179358 0.024254433107344393 -0.001561657381643159 0.017577377987259012 -0.07332905516158643
-0.02484816205881796 0.014967478352137822 -0.009795763162444867 -0.012272489645031822 -0.04813336580991745 0.016859248788015094 0.032831463306627326 -0.03866371512413025
-0.04664983838744188 0.06702184737071123 -0.008856266018459149 -0.0038874372839927673 0.03118514455388098 -0.04780888557434082 -0.036243390216350015 -0.05245502056444208
0.0003081608298126489 0.02016786408873857 -0.043704036335246436 -0.054871898805555826 -0.028498826378352958 0.008197276243962366 -0.04793016114481814 -0.01924774158111688
-0.03281146478160285 -0.06053187559571894 0.016301637786862107 0.058277918093074775 -0.0003870110999255155 -0.05043018759058886 -0.042841604132807756 0.04851419446395017
0.050932513940191604 -0.060017384588718414 0.016753435134887695 -0.0011750986713392002 -0.039765793216646785 0.021337818314665857 -0.03430577367544174 0.045485248046564127
0.027577675879001617 -0.00511869810233209 0.05521694247949319 -0.029804841946781485 -0.010089638115782323 -0.018609002232551575 0.020766547250782297 -0.04055329867438533
0.002768699164570216 -0.017624316718455747 -0.04640115487297288 0.017781743376380308 -0.03582719909541587 -0.06085739065642625 -0.007972480637181966 0.03523677127162727
0.032944101850773906 -0.04545959270465031 0.00688675899029261 0.026873731761355216 0.06344697374484257 0.04653712771922719 -0.05490009979434123 -0.025937393400224426
-0.005435751662688963 0.0503199335159115 0.0065415679895899055 0.04628791774697337 -0.05114617198705673 0.030887939428502757 0.02357016136835535 -0.006688125431537628
0.043635283431397075 0.040793675587846086 -0.03537068655179639 -0.022953955133550818 -0.012195752704578032 -0.004664791470455355 -0.0242013300671626 0.004603122112473517
-0.01772136241197586 0.059266492416271334 0.04230671495766578 0.01916506141424179 -0.006774795044836417 -0.009675994515419006 -0.05023695434175687 0.04022178481472354
-0.05953506673299661 0.05033961720734038 0.01972720845163193 -0.043809798259838675 -0.04119713757811659 -0.025170117616653442 -0.01664230046920531 0.0027264077271502325
0.0360390953021162 -0.03691293302409953 -0.02497481448279142 0.01730707881744181 0.04016093089154245 0.037487030029296875 0.06842000559848548 -0.064974068657978
-0.022552508867979486 0.007558375597000122 0.035552647678125666 0.0011663671266315253 0.03537197809798367 0.03203440852960272 -0.01668421078716316 -0.03714550360940389
-0.02218685917230133 0.01189248263835907 -0.001332504749458638 0.032105902678235265 -0.05371168258218678 0.02721930580183721 0.0600951101950453 0.0052632569528420145
0.04706732560241641 0.03121021095661425 -0.020986182820776956 0.01567275897974745 -0.06835653363848387 -0.019085255614712002 -0.021858610293192856 -0.03825233841837212
-0.05250425521868718 -0.05594862730123833 -0.024532150311952296 -0.005306948280148534 -0.05959811061620712 0.0414367964694044 -0.00824141873570446 0.001860309717636787
0.03693916934670278 -0.01672822197857335 -0.02032499763055743 0.024990161110949264 -0.053174598701362985 0.05675979814199106 -0.010992975047052028 -0.013050550928065825
-0.01675341294826258 0.016577389946648844 -0.04437478217995448 0.009164609014987946 -0.011209994533776076 0.03496750444173813 0.053562803598980725 0.05125865763141442
-0.012632202056090213 0.01910545879873552 0.05216956947276735 0.07694370962698804 0.0431203197251285 0.05293275894433359 0.04018531014022417 -0.0665046364609188
-0.042653372103494284 -0.042189314977517704 0.03687838725964079 -0.0012347724777656594 -0.028287255948521058 -0.018928895707292028 0.025941919443444487 -0.03334033489227295
-0.05708013474941254 -0.062210030470182365 -0.03822860009243546 0.017670453914636217 -0.04745143134791228 -0.03269245572426073 -0.05506251583969777 -0.054908446967601776
-0.003334488739533424 0.047846971539675695 -0.020602644189346552 -0.07019999740441112 -0.02701719681670456 -0.025006588046627174 0.030352965983481604 0.003941912553336931
0.006341895345015621 -0.025258914418491006 -0.01703395276719344 -0.05066665298247489 -0.038193905803610505 -0.025074189056625413 -0.016005154726700915 0.021455246904558207
0.008012116150900802 0.011868472515223683 -0.038505670494025514 0.04364484151371216 0.020550280809402466 -0.05993764326325526 -0.0013372806076363656 0.029479267261195426
0.028997630727740295 -0.0643600831400931 0.047941251632726306 -0.0004670836304348833 -0.03276987909777838 -0.056182099496872626 -0.03964972363050824 -0.06691982007894864
-0.061556164200694034 0.027603618081907658 0.0010099284419338643 -0.0014668525935258088 0.06880365054214416 -0.059455267818601006 -0.0532038652360846 -0.04032927006483078
0.04348915395682886 -0.04903287628587456 -0.025541618495484652 -0.01728500453850609 -0.037520092037665105 0.0011998229797831363 0.03368324786424637 0.04678920838637486
0.02102553274341673 -0.005366029781756909 0.02433387178447374 -0.05987358952476861 0.014837348365763768 0.05814125826012824 0.024354601761613835 -0.045535133440703104
0.05275510970493969 0.05351801961660385 0.01199841416057217 0.0532539470350532 -0.058126772479730644 0.05015643825709761 -0.03221681168698316 -0.022473660378152474
00000000: 1817 4ff8 44fd a43f 9412 08dd 9d09 ac3f
00000010: c65b bbb6 9c50 9e3f 4623 315a 1c9c 65bf
00000020: 3145 b422 41fa 81bf e391 e3a8 5f66 8f3f
00000030: ee6c 14e6 4641 afbf 7888 2911 492c 98bf
00000040: 2e12 85b9 9d74 ad3f bf11 cef3 cfb2 9dbf
00000050: 799f 985a ae29 863f 1b1b 7a5e 01bf 9c3f
00000060: b58f ea73 27d6 983f 1002 6ed8 1096 59bf
00000070: 8338 6bde cdff 913f f3fd c365 b1c5 b2bf
00000080: 9121 a2ed cb71 99bf ee49 35f0 44a7 8e3f
00000090: 2b62 6013 cd0f 84bf cbc8 53ad 5122 89bf
000000a0: 0000 00c0 efa4 a8bf d1f6 b708 8d43 913f
000000b0: 5e13 5d1a 49cf a03f 0000 0000 bbcb a3bf
000000c0: 24ba 79d4 7ce2 a7bf 1620 9302 5828 b13f
000000d0: 4ec9 4fe7 3b23 82bf 0000 0000 8cd8 6fbf
000000e0: 5c78 eb9f ffee 9f3f 0000 0000 687a a8bf
000000f0: adcc 595f 7e8e a2bf a2aa ab6b 62db aabf
00000100: dba6 9aaf 1432 343f 75e5 c372 e2a6 943f
00000110: 4fb2 861d 6060 a6bf 99b6 ad65 2b18 acbf
00000120: b6df 13dd cb2e 9dbf f7a0 12cb bbc9 803f
00000130: 5acf 3755 4d8a a8bf 6576 7312 aeb5 93bf
00000140: 5878 5710 aacc a0bf a12a 19b4 08fe aebf
00000150: 3fca a964 60b1 903f 7bd3 9370 9ad6 ad3f
00000160: c24c 7204 f85c 39bf 068e dd4c fcd1 a9bf
00000170: 6a32 51b1 55ef a5bf 3899 3a3d dad6 a83f
00000180: 3035 5a93 d313 aa3f 0000 0040 99ba aebf
00000190: 0000 0000 d027 913f 26fb 3a97 b840 53bf
000001a0: d5e0 ba9a 2e5c a4bf 2063 51bf 94d9 953f
000001b0: 0000 00c0 8690 a1bf 19f2 9ea9 d749 a73f
000001c0: 0000 0080 523d 9c3f de6c 290f 58f7 74bf
000001d0: f5e1 4424 6545 ac3f 680c b215 2985 9ebf
000001e0: 36d6 e24d e0a9 84bf 0000 0000 3d0e 93bf
000001f0: bdfa 2b65 d343 953f c651 1ae7 66c3 a4bf
00000200: db46 a80b 62ae 663f 3a32 aedf 1b0c 92bf
00000210: 2b23 5a65 e4c1 a7bf 09d6 1199 6035 923f
00000220: 6f1c d850 f157 a2bf bfb1 2d2d b328 afbf
00000230: 9967 d63c e053 80bf ffdf 74d8 8d0a a23f
00000240: 2120 17a0 0cde a03f b572 e9cf 7a46 a7bf
00000250: 3648 384a 4a35 7c3f 815f 259c c984 9b3f
00000260: 2aa7 4395 0f3e b03f 982c 35e3 b6d3 a73f
00000270: c7e1 53aa dd1b acbf 2cfd 9601 558f 9abf
00000280: 9144 ed79 cc43 76bf e551 93c9 88c3 a93f
00000290: dd0f 47c9 54cb 7a3f 2eac d8c9 0cb3 a73f
000002a0: 0000 00c0 d42f aabf deb7 be86 16a1 9f3f
000002b0: e740 f4c0 c622 983f 0000 0000 0265 7bbf
000002c0: bb3e 9426 5d57 a63f 111e 119d e8e2 a43f
000002d0: 9b3d f44b 1b1c a2bf a326 73da 3d81 97bf
000002e0: 2c50 2138 16fa 88bf cea7 ee6c 631b 73bf
000002f0: f7f5 a1c4 3bc8 98bf 9fcc eb2e b9da 723f
00000300: 0000 0080 8c25 92bf 7d60 5a7d 2d58 ae3f
00000310: adea 49ca 39a9 a53f 0000 0080 01a0 933f
00000320: c58c 7932 e3bf 7bbf 0000 0000 02d1 83bf
00000330: 9ca0 e577 a8b8 a9bf a762 bb24 f397 a43f
00000340: 25b3 2a59 617b aebf f186 3243 1dc6 a93f
00000350: 6a85 908c 5e33 943f 426d 8ae5 3c6e a6bf
00000360: 1e74 2c8d ca17 a5bf 0000 0000 32c6 99bf
00000370: 3755 fbe0 ad0a 91bf a8eb c100 b155 663f
00000380: 8a68 665f b773 a23f d7a0 4680 40e6 a2bf
00000390: ad82 b56d ff92 99bf af73 0a66 f2b8 913f
000003a0: 5a1e 8339 f98f a43f 0000 0000 8031 a33f
000003b0: a708 7036 f983 b13f ec5c f9fb 23a2 b0bf
000003c0: 8e75 1f40 0118 97bf 0000 0000 88f5 7e3f
000003d0: 29a5 20e6 f433 a23f bc2b 7f2a 191c 533f
000003e0: 9357 40a2 461c a23f 2273 f661 d066 a03f
000003f0: b401 c36e aa15 91bf 1945 6446 bc04 a3bf
00000400: 7c18 2fea 26b8 96bf 0000 0000 165b 883f
00000410: 5a2d 8614 eed4 55bf b8ed 0554 2f70 a03f
00000420: 580e 3500 1980 abbf 6971 f4b0 60df 9b3f
00000430: 5ddd df49 c9c4 ae3f 78f6 b9c7 ec8e 753f
00000440: 0b5a 5860 3519 a83f a08e 70cd 91f5 9f3f
00000450: 0d4f 88e3 667d 95bf 8d40 060d 850c 903f
00000460: 6cf9 7154 d07f b1bf e9cf cdd2 158b 93bf
00000470: 0f8f 6181 1a62 96bf d93e 017d cf95 a3bf
00000480: a054 2176 d6e1 aabf 76a2 0769 4ca5 acbf
00000490: 575c 29bd f41e 99bf 6f77 e014 bdbc 75bf
000004a0: 0000 00c0 a483 aebf 98cb 5f2b 3437 a53f
000004b0: 6a39 8a7f e0e0 80bf fc9a 7359 b47a 5e3f
000004c0: 492c 92d8 b0e9 a23f 78d6 45f9 3321 91bf
000004d0: 2a45 7580 13d0 94bf f1ef c552 0597 993f
000004e0: 40f1 cc74 b339 abbf f0ac 7ec9 9e0f ad3f
000004f0: 56ae 8022 7c83 86bf 7754 724b 3fba 8abf
00000500: d930 d682 ce27 91bf c911 b2ce a9f9 903f
00000510: 3ec6 759c 4ab8 a6bf 0000 0000 e5c4 823f
00000520: 9e89 49ff 43f5 86bf 0000 00c0 42e7 a13f
00000530: 15b9 7a73 956c ab3f badb 5324 933e aa3f
00000540: 59b2 a875 e9de 89bf ead1 dca2 6190 933f
00000550: 48c0 7645 f8b5 aa3f f017 7b3c 95b2 b33f
00000560: 2c65 06d6 dd13 a63f 211e 1ba9 001a ab3f
00000570: 2cec a941 2b93 a43f c3cb a1a6 7206 b1bf
00000580: ff4b 7fac a9d6 a5bf a75e 2380 d699 a5bf
00000590: e333 6b56 b9e1 a23f 1283 3dda 023b 54bf
000005a0: 5219 c59c 55f7 9cbf d781 0cb0 1862 93bf
000005b0: 0195 6bbe 8490 9a3f 0000 0000 fc11 a1bf
000005c0: 0000 0080 9b39 adbf 9087 b43c fed9 afbf
000005d0: 8176 56f6 b292 a3bf cce3 ac16 3418 923f
000005e0: cd49 93d3 8d4b a8bf e2c0 52c8 10bd a0bf
000005f0: 1db2 8871 2731 acbf 0000 00c0 f51c acbf
00000600: b0c3 b902 ee50 6bbf 467b f3f3 657f a83f
00000610: 0379 040c dc18 95bf bbfe 0785 a0f8 b1bf
00000620: 8084 0763 65aa 9bbf 6915 61b7 539b 99bf
00000630: 464f f110 d914 9f3f 481f 0118 6525 703f
00000640: 09bb 9f91 f5f9 793f d684 700d 79dd 99bf
00000650: c010 3a38 5971 91bf 0572 1dc3 faf0 a9bf
00000660: 8380 aad0 268e a3bf e540 e357 0cad 99bf
00000670: 5872 79c0 a763 90bf 9577 213f 5df8 953f
00000680: fe0e b806 a868 803f 2d6d 736a 7f4e 883f
00000690: 0dfc f6e6 03b7 a3bf ce88 e1dd 9d58 a63f
000006a0: 0000 0000 220b 953f c3e0 3a93 25b0 aebf
000006b0: b583 6c1e f6e8 55bf bf00 3023 d02f 9e3f
000006c0: 9c6b 8c0e 8eb1 9d3f 9729 4104 e779 b0bf
000006d0: aca2 c877 c18b a83f 6296 ceea 5c9c 3ebf
000006e0: 5da4 09ae 36c7 a0bf f65b eb6f e6c3 acbf
000006f0: 82b2 93f4 f74c a4bf 5c7b b146 a821 b1bf
00000700: 57e7 3720 4a84 afbf 34fb a673 1f44 9c3f
00000710: de30 4868 f28b 503f 1d29 b4fa 6c08 58bf
00000720: 2486 ecb4 1d9d b13f 112d b6bd eb70 aebf
00000730: 9667 6b7a 893d abbf 0000 00c0 09a6 a4bf
00000740: 1359 f3db 3544 a63f 0a3e 2750 d61a a9bf
00000750: 0304 8000 9527 9abf 57fe d004 29b3 91bf
00000760: e946 7d60 d535 a3bf 90d7 621d 6ca8 533f
00000770: 0000 0040 ee3e a13f ca81 a64f c1f4 a73f
00000780: 7049 0e9e b787 953f 668b c0a6 b0fa 75bf
00000790: 575b ff7d faea 983f 3e57 ce49 c0a7 aebf
000007a0: f929 ec2f 0b63 8e3f aa13 8de5 b0c4 ad3f
000007b0: 39fe 4aa8 69f0 983f 0ac5 e489 6150 a7bf
000007c0: 015c c2bd b702 ab3f 0000 00c0 b666 ab3f
000007d0: db5e 63e3 9f92 883f 3704 ccf1 1944 ab3f
000007e0: 911b a5d5 cac2 adbf 0304 ffcb 1aae a93f
000007f0: 5a6a 27d1 b87e a0bf a4de 61d1 5503 97bf
