python/snapshots/without_speed/snapshot400.pt (torch_old, 584819 bytes, 6 tensors)

layer0.weight f8 [256, 18]
00000000: 4387 4028 0644 c6bf 69c7 aa2f 683f 733f
00000010: 1678 c94d e649 c7bf 8229 4cb6 63b7 cabf
00000020: 77f1 7eaf d683 b63f bd78 bf57 2780 c53f
00000030: 77f1 7eaf f559 b63f f1e2 fd5e f3f9 aa3f
00000040: 4387 40c8 9f4b cbbf bd78 bfd7 e331 c23f
00000050: 318d ece0 4ca1 8d3f 9c0c 2f02 5f44 af3f
00000060: 4387 4008 4fc4 c8bf bd78 bf97 5a37 c03f
00000070: e3c5 fbbd ee54 9a3f 890e 8110 e507 babf
00000080: dc73 1b13 dd67 a53f 2d9d db24 6301 c1bf
00000090: 42bf 4632 610c a83f e4d5 38ac ad01 af3f
000000a0: 5eb5 8dec a25e a1bf 9994 8e29 f74a cebf
000000b0: 417c e6ba 27b5 49bf 2489 f307 13b0 c93f
000000c0: 62b0 8d3b 3198 a7bf b920 4720 98ca c9bf
000000d0: 5e05 b76a 9441 c63f 74f6 ec47 1ca2 a33f
000000e0: 4fff 813b 2082 c7bf efd4 8e08 53b5 9c3f
000000f0: d59e bc0c 1381 c2bf c3fc 59ec e459 a73f
00000100: 56cb 13a4 48e6 c7bf 986c 7b79 7639 c2bf
00000110: b0af 2758 fe03 9cbf 6d76 2e16 30ef c83f
00000120: 0000 0000 ae45 b4bf 0000 0000 4c6c 97bf
00000130: 0000 0000 f462 ccbf 0000 0000 a04a 433f
00000140: 0000 0080 5545 c1bf 0000 0060 cc45 c8bf
00000150: 0000 00a0 b92d c3bf 0000 0060 5c8a c4bf
00000160: 0000 00e0 e3af c1bf 0000 0060 392d c3bf
00000170: 0000 0020 d948 cd3f 0000 0040 559f b4bf
00000180: 0000 0040 6701 b03f 0000 0080 d1b9 ad3f
00000190: 0000 0000 895e 983f 0000 0080 3d78 afbf
000001a0: 0000 0040 73c1 bf3f 0000 0080 2292 cbbf
000001b0: be3d 35a4 a7a9 b63f c600 4e9d 87e5 c43f
000001c0: 02d2 f68b 29dc c7bf 0ad2 3fa4 4d15 a33f
000001d0: 9899 369d bbe1 563f 0d17 4a67 77cd c83f
000001e0: 9f25 740e e8f2 bd3f 6ee5 fc23 3c4d c63f
000001f0: fb7a 9a36 e5d6 95bf 5dc6 2128 772d cd3f
00000200: 9851 2fee 80dc c2bf e2ef 3fdd 5ac6 b43f
00000210: 0d8e ce46 75e2 c9bf 797f 7bd6 558b bfbf
00000220: 3cff 26d8 381a af3f ec05 5c40 be5d b03f
00000230: 8975 cf3d 4279 693f 8d9e 21b1 8ec1 933f
00000240: 84de 810f cf51 c03f ef71 eb13 ff19 63bf
00000250: 66c8 a9ed 865f c6bf 3796 625d a25c ca3f
00000260: 755e 4a03 6d3c c33f 0347 2ad7 99c8 a93f
00000270: 85dc 9951 146d b73f 1128 a935 3458 c1bf
00000280: 6d17 324d 63f5 c53f 3e1c b8f9 d7f4 b93f
00000290: 456a 7047 e577 babf 92d0 dbb0 1bb3 c23f
000002a0: f82a 1c6d 274d a63f a6a8 2641 557b c43f
000002b0: c22b db72 63e2 c33f 36ba 1b9a 9c4a cabf
000002c0: 0114 7c7c 1616 c0bf f0ff 99c1 abc8 b43f
000002d0: 8239 3f9e 75a9 bf3f c6e2 8f3c be4a cb3f
000002e0: af0a d32f 7c47 a0bf 9977 f7d9 1bdc cbbf
000002f0: a12d 8d35 8f83 bbbf e377 c76c 8a88 b13f
00000300: c6aa 3f2c 7e3a cdbf e715 0981 dbb4 bcbf
00000310: f968 8711 500b bb3f 702e cc0f 0b23 c8bf
00000320: 8164 bc4d 9adb c93f c509 3da2 46ae bbbf
00000330: a72b 4cde d43d 993f cff0 675a bcf4 c1bf
00000340: 9e0a 1868 b1d0 babf d759 617a ca09 b7bf
00000350: 17a8 f448 2f5b bf3f 73d9 03cf eceb ac3f
00000360: 2520 0cbd 883a b93f 490a fd4e 470f cd3f
00000370: 230d df2a 4791 9fbf 600e 7b51 aadd c5bf
00000380: e068 e188 cc08 bb3f 6a10 08a2 c6c0 b43f
00000390: 03fc 7e52 18dd a8bf e90a 1b25 20d6 c9bf
000003a0: 6de7 a340 6834 cd3f df97 e589 9f0b c5bf
000003b0: 555d 255a b817 bd3f 4c57 9034 b36f b13f
000003c0: d700 44da 7bb0 a2bf 9661 712c d3b0 92bf
000003d0: 3a3d e406 ecbc c73f 91e2 fc5a e17b c53f
000003e0: b386 ac17 69b7 8f3f 742a 6aec 49f2 c0bf
000003f0: dede 34b3 0562 c8bf b28d 2926 a24c c2bf
00000400: 9b69 8dac a6f8 adbf d814 c98f 9b58 afbf
00000410: b780 7593 b8c6 a5bf e713 6aff d905 c03f
00000420: ddb2 b60f 456c 813f 2621 65d0 c28f 9d3f
00000430: fb6f 8bf3 6214 c33f 3787 3094 223f 90bf
00000440: 2eb0 ea18 3fc0 c93f 90d1 d6a2 acff b13f
00000450: ad70 4e20 c548 90bf 8298 4863 cf3b c33f
00000460: f51f 5eb6 70ef aabf 6c76 8db0 2234 ca3f
00000470: 6ee4 d5dd 4a7c cebf 7479 fc59 aa32 c83f
00000480: 1fd2 47d7 3925 953f 8af4 d1f5 d251 b63f
00000490: be05 1725 cc6b cbbf 760b 2eca dc1c b1bf
000004a0: 42fa e83a e946 c83f f863 48f3 1ba0 913f
000004b0: 61e6 f4b4 e522 c7bf f426 14db 720f afbf
000004c0: 8798 9de0 10e0 c2bf 18e9 a3eb b388 ae3f
000004d0: 42fa e87a a5b0 c73f e816 5c94 6274 a6bf
000004e0: be05 1765 3385 c1bf 103d 71f7 a52b c93f
000004f0: a281 5c8d 9cc5 c8bf 2ce1 8279 7874 b73f
00000500: 0102 a23a 5853 c33f cafc 0fa2 9f67 cdbf
00000510: 046f 7afa 65b5 c33f af07 908d 642e ca3f
00000520: e9a3 ab7d 9503 cdbf f47f 023b 4191 c93f
00000530: f275 6247 734d a73f aef7 3ab3 e6ac b9bf
00000540: 03de 19e8 1e3a cc3f 6809 6b84 15e6 c0bf
00000550: 04e1 1d77 3782 973f bc21 9618 1a99 bf3f
00000560: 6416 1b8c f817 cabf 5210 0e01 76f7 813f
00000570: 4209 b2bc 0955 cabf 6603 d792 5e08 c13f
00000580: ade5 1fc3 25f2 b0bf f3e9 c746 3152 983f
00000590: 97ad 7820 56d5 b53f 8b76 8577 6d05 b53f
000005a0: 0000 0060 9b97 bdbf 0000 0040 5d42 c1bf
000005b0: 0000 00a0 e3c7 cabf 0000 0000 8659 84bf
000005c0: 0000 0040 321f b6bf 0000 0000 d77d 9ebf
000005d0: 0000 0020 1c24 c53f 0000 0080 3bbf a33f
000005e0: 0000 0080 f3cc a13f 0000 0000 e6b7 8d3f
000005f0: 0000 00c0 0d1b b73f 0000 0000 e68b 813f
00000600: 0000 00c0 9ed5 b4bf 0000 00a0 0c67 c23f
00000610: 0000 0080 8135 ccbf 0000 0000 6195 933f
00000620: 0000 0000 5c22 713f 0000 00c0 fe76 ccbf
00000630: ecef f958 2247 c3bf d177 9969 8946 a63f
00000640: 030a 5331 e40b 9ebf 90fe 4d9f edeb bcbf
00000650: 04fe 81ac 0e76 cb3f a4ea fd26 16ea c73f
00000660: 845a f8ac 1760 cd3f 4661 b2d3 90dc a8bf
00000670: ff7c 923c 1da4 c2bf 1d71 dd55 0b42 adbf
00000680: 2a54 f55d cf40 c1bf 0305 5a38 c1d5 c73f
00000690: 5f27 223e afe6 bcbf 32e7 ee9f a6b4 b5bf
000006a0: f962 d4f2 3eb6 923f 019b b70f ca85 783f
000006b0: cf92 101d 5dd9 b63f 656c 3cbb 3789 bebf
000006c0: 1bb1 911a aaff b9bf 305c a9f3 c3b3 963f
000006d0: f120 e6f1 1d09 bb3f 5b6b d2ff 2ff7 923f
000006e0: 863e b8c2 c53b c2bf 7fd6 08e8 9064 c4bf
000006f0: 47fa 5270 2509 c83f 5e22 796e 21e9 bd3f
00000700: c69b 34bf 01f3 b5bf 8469 b47e c2a3 adbf
00000710: 25b2 0e75 bb40 943f e487 c67e 35ec b63f
00000720: 07e3 33b3 1865 cdbf 47ae 8da0 d9fe aabf
00000730: 88f1 54ac 8cb6 c83f 4f0b 20f1 5f58 c1bf
00000740: 93be 581e f99f a83f 4bfa a6e4 d081 963f
00000750: 0000 0040 1f62 c4bf 0000 0080 0881 c2bf
00000760: 0000 0000 a805 6ebf 0000 0000 ba9e 88bf
00000770: 0000 0080 8ce7 c0bf 0000 0080 63f6 a03f
00000780: 0000 00c0 4d57 b13f 0000 00e0 0b5b c23f
00000790: 0000 0080 da8b c5bf 0000 0080 21bc b4bf
000007a0: 0000 0060 bd3f c03f 0000 0000 93c9 b8bf
000007b0: 0000 0000 2e73 c0bf 0000 0000 705a 8bbf
000007c0: 0000 0080 b749 bebf 0000 00c0 9a07 ccbf
000007d0: 0000 00c0 c673 b03f 0000 0020 2429 c7bf
000007e0: 1a0b cee6 f3de b3bf 5d3c 13c6 a1c3 b13f
000007f0: 18ca 30b0 6ca1 bfbf d34f 725d 69fe c23f
-0.1739509293120652 0.004699141480772309 -0.18194273756211093 -0.20872160340543294 0.08794919762198626 0.16797344002310935 0.0873101762253493 0.05268822226111592
-0.21324536588604745 0.14214752230231467 0.014467812170158996 0.061068505302978 -0.19349086668904122 0.12668926629607383 0.0257146171051711 -0.10168296482975782
0.04180804117434153 -0.13285483646107235 0.046969449412584754 0.06055968024558547 -0.03392514360062181 -0.23666276482723417 -0.0007845348352936225 0.20068586242911934
-0.04608301021548368 -0.20149518562380367 0.17387633524598817 0.03834617975233537 -0.18365862756399529 0.028035447499594687 -0.1445640384856605 0.045607713557723105
-0.18671520244205436 -0.14237862521881506 -0.027358984118037888 0.19479943354683674 -0.07918822765350342 -0.022874057292938232 -0.2217698097229004 0.000588729977607727
-0.1349284052848816 -0.18963007628917694 -0.14983291923999786 -0.16047243773937225 -0.13818024098873138 -0.14981763064861298 0.2287856489419937 -0.0805562287569046
0.06252141296863556 0.05805830657482147 0.023798123002052307 -0.06146423518657684 0.12404556572437286 -0.2153971791267395 0.08852622755988812 0.16325469189542313
-0.1864063199442541 0.03727190618511507 0.0013965923470578897 0.19377033751896314 0.11698770859597694 0.17423202283115863 -0.021327573259095605 0.22794999560896914
-0.14735423689002114 0.08115165616612743 -0.2022234531151387 -0.12321983801257187 0.06074693335130951 0.06393040725017557 0.0031095784929521847 0.019293050347555286
0.12749660737221202 -0.0023317319859030776 -0.17479025463723302 0.20595197257823525 0.15028155003232127 0.05035858871009504 0.09150816909992628 -0.13550427074579877
0.17155114430732557 0.10139226767215434 -0.10339196199530772 0.1460909474914201 0.0435573883715587 0.1600138252372904 0.15534632785997188 -0.205401969192694
-0.12567406729081657 0.08118699528313278 0.12367949593974539 0.2132184787476687 -0.03179538806718562 -0.2176546873369574 -0.10747618729981535 0.06848969608060389
-0.2283475605066398 -0.11213466549187211 0.1056413691325452 -0.18856943389288316 0.20201424403856907 -0.10812798939608743 0.024649931018796114 -0.14028124250751836
-0.10474690238337778 -0.08999314773368582 0.12248511820931217 0.056487465162649374 0.09854941001333424 0.22702876431329092 -0.030827629081398144 -0.17082718828725074
0.10560301153001062 0.08106652694556407 -0.04856182105094577 -0.2018470936946735 0.22816184192907532 -0.16441721184963762 0.11364319039181699 0.06811065705582314
-0.036502714532618157 -0.01825265845067888 0.18545294128896633 0.16784302656903496 0.01548654654976942 -0.13239406627356554 -0.1904914021522392 -0.14296366561312152
-0.05853768211700868 -0.06122289781755236 -0.04253174591099323 0.12517857524304007 0.00850728944973283 0.028868717164443634 0.149059647482204 -0.015865841192982812
0.20117939678800795 0.07030753112377952 -0.01590259561236056 0.15026275966483033 -0.05260803438346776 0.20471604939205024 -0.2381681044751391 0.1890461863885765
0.020649818195993427 0.0871860361239262 -0.21422721682578855 -0.06684665618926808 0.18966403366535373 0.01721233055477353 -0.1807524808480592 -0.06066473888684057
-0.14746294944342628 0.0596367097040959 0.18507832051723666 -0.04385669766456407 -0.13687746463805966 0.19664454061646852 -0.19353062536630455 0.09162095038016521
0.15098097670490065 -0.22972484029012313 0.15397333841689698 0.20454079544293566 -0.22667187343839082 0.1997453249105089 0.04551277395624344 -0.10029451251736418
0.2205237038904074 -0.1320216080258192 0.02295767464190225 0.12342990017180616 -0.20385653344253563 0.008772775561517818 -0.20572015489239887 0.1330679146758726
-0.06619487775596751 0.023751039452671163 0.08528650563009986 0.08211406867982356 -0.11559458822011948 -0.1348377764225006 -0.209225133061409 -0.0099363774061203
-0.08641351759433746 -0.029776915907859802 0.16516448557376862 0.03856836259365082 0.034766778349876404 0.01451091468334198 0.09025655686855316 0.00856761634349823
-0.0813845843076706 0.14376981556415558 -0.22038286924362183 0.019124522805213928 0.004183158278465271 -0.22238144278526306 -0.15060834259554612 0.04350690282875259
-0.029342237005730364 -0.11297497882150709 0.21454032347899965 0.18683125404262058 0.2294950098591536 -0.048557782976049554 -0.14563336808803481 -0.057144502860611214
-0.13479034507568716 0.18621077777428505 -0.1128949667637733 -0.08478776363963617 0.018273337908882834 0.005986966421437812 0.08925420722568876 -0.11928127595131029
-0.10155738018665199 0.022170125719949307 0.10560786395774692 0.01852107046998284 -0.14244911201284455 -0.15931903199968997 0.18777912125183802 0.11683854052638185
-0.08573923986533236 -0.05789001270950947 0.019778183955781032 0.08954176278214693 -0.22964771986132623 -0.05272560200577608 0.19307096876753982 -0.13550948404016558
0.048095498041559236 0.02197958369810697 -0.15924444794654846 -0.14456278085708618 -0.0036648064851760864 -0.012021496891975403 -0.13206630945205688 0.033129796385765076
0.06773839890956879 0.14340351521968842 -0.16833049058914185 -0.08099564909934998 0.12694518268108368 -0.09682577848434448 -0.12851500511169434 -0.01335608959197998
-0.11831232905387878 -0.21898207068443298 0.06426660716533661 -0.18094302713871002 -0.07762073883899881 0.06939135633295863 -0.12355689336326525 0.14838902533358453

layer0.bias f8 [256]
00000000: 77f1 7eaf 6019 bd3f 452c e3f1 254e 8cbf
00000010: 0000 0080 b1c6 a83f b3a8 af42 037b c53f
00000020: 9530 d773 1017 803f 20a4 3675 1b15 58bf
00000030: 725e 1f64 7cd7 a43f 8659 20aa 9653 c4bf
00000040: 11de 828b a227 5fbf 4c4e 2c6a a925 b9bf
00000050: 0000 0080 6dbe a83f f497 22c9 8d11 b33f
00000060: 2641 bbfb 8feb b2bf 0000 0040 c51a ba3f
00000070: 3079 7f03 84a0 83bf 7a20 bed8 1119 c4bf
00000080: 081e b24d 9303 c6bf 33f5 7c07 04fd c43f
00000090: 8e2a 79eb 15d8 ac3f 3e34 a501 5607 91bf
000000a0: 9cbf ccbc 9d59 b2bf 03cf 55e4 e6f4 c6bf
000000b0: 07e7 b541 dd4d 8f3f 61c5 2c80 5faf c53f
000000c0: 860f ce6a 7bbf b3bf 2016 8d67 9c72 a2bf
000000d0: 3dd6 f876 8464 c5bf d0dc e2bc cf66 bdbf
000000e0: 9ee5 b342 c355 c23f 97a7 9ebf d4c7 ab3f
000000f0: 83af 9c1d 94df c6bf 3c84 1391 a7d6 c23f
00000100: 0f2a 23e5 c6b6 ccbf 213e 9450 9519 cabf
00000110: dff4 80a3 1470 b1bf 2c10 6283 6d4e c73f
00000120: b3c6 4d32 c06a cc3f d946 2fb6 962c cb3f
00000130: c8e2 dab5 0f6d c53f 9760 5671 e31c c5bf
00000140: bb24 bfb5 e927 cd3f 0843 e205 2fd2 b2bf
00000150: 51c3 52d7 a164 c5bf f041 fef2 4583 8e3f
00000160: 4b25 4637 dadd b63f 07ee 911b e225 bbbf
00000170: 7370 4286 f58b cc3f 9fb5 f934 0724 cc3f
00000180: 2dc2 1232 6087 cabf 0000 0040 4914 b13f
00000190: b23d a2b8 e3eb c53f 78a8 6d76 24c1 ca3f
000001a0: c706 bdc2 b416 a0bf dc0a 2814 3cee cabf
000001b0: 7cec a609 e16b a93f ee7b 0046 0528 a33f
000001c0: 48b1 af8f af54 b5bf 5504 49b5 a76e c6bf
000001d0: fd50 d798 5d74 a7bf 3c6c 8a84 2f28 c33f
000001e0: 9ae1 0a9f 7a38 c93f 013a 317e 4831 90bf
000001f0: 0000 0080 26b0 afbf 0000 00a0 0b4d ccbf
00000200: ada7 b64e 1c0e c43f a644 35d5 72c3 cd3f
00000210: 6e69 b76a 76e0 ca3f 338e 2e01 ac11 cb3f
00000220: 8273 b3cf ee72 99bf ff82 f02b 1521 cb3f
00000230: be81 3cfc c87f c03f e86b f22d 2f7a c23f
00000240: 5bf8 2bef 9e43 903f 1ac6 4cce ef03 ca3f
00000250: bfe7 6a92 5396 80bf 6aed 32a7 bb31 bd3f
00000260: e0a1 8dbb 9ba4 c3bf 649f 16fa 1513 b2bf
00000270: 9119 3fe2 ca2e b9bf b50b b58d facf cbbf
00000280: 4f14 d458 12bf c5bf 9283 2571 f04d c3bf
00000290: 95fe 2936 635f c8bf 7296 f0fc 9cb6 b1bf
000002a0: 7f7e bbc9 d594 c43f 183d 375a 051b ce3f
000002b0: e03c 97da d78f cdbf 8189 47ae a08c c3bf
000002c0: ec41 9b7a 71d0 b0bf 91c8 06f4 e787 c33f
000002d0: f324 0e43 f291 bcbf a181 f771 c1d8 c1bf
000002e0: 1e6a 3151 a0c2 c73f 23e2 3da3 a654 b8bf
000002f0: 1cb9 0c42 e969 a5bf 8f1e 619d 4ede c3bf
00000300: d7b4 55c0 aa88 c5bf c8fc 4556 c779 c53f
00000310: 6036 0ba9 216a cb3f 2ded 8d1c 7061 a4bf
00000320: 5520 860c 6cb9 b4bf ac70 3bfd 1a6a c43f
00000330: 74d3 74bd b62e cb3f c9f7 e30e c623 bf3f
00000340: 086d d7c5 63af ccbf 589d b42f 8569 c63f
00000350: 0000 0020 aefd cbbf 0474 777d df31 b83f
00000360: 7b88 158b cf47 c6bf 9845 afdd ba32 b2bf
00000370: 8bdc 8a65 4243 b7bf bbea cdc3 ddef 94bf
00000380: 9669 7a06 6810 c53f f0f7 75c5 8f7e c13f
00000390: 0000 00a0 684f cd3f 4b6e 8fb6 f940 b43f
000003a0: 2374 b837 c9c7 adbf 634f f885 deec b1bf
000003b0: a6b8 42bd a450 c53f 531f fbec 6f4d c7bf
000003c0: 44a4 e7e8 ecb8 b8bf 502c 0b30 4fd6 c53f
000003d0: 0000 0060 b4ee cc3f 5fb6 9d4b 8ae6 a2bf
000003e0: 174a 2af5 aa66 c9bf c149 4238 8ee0 cd3f
000003f0: ab7b c56d 75f1 b93f 48f1 d0a6 7219 c2bf
00000400: 0000 00c0 4a92 b13f 35ee 1ca3 b285 c63f
00000410: e082 57e9 8db4 a8bf c786 7743 ec2b 943f
00000420: 8027 ad03 dd71 ca3f 0000 0080 3333 a6bf
00000430: 0000 0040 e996 c8bf 1d6c 7f3a 094c c4bf
00000440: 10f5 ba29 c618 be3f 085a 52f9 931f babf
00000450: a26d ffad feb3 b43f 9e4f 6e50 27ad c33f
00000460: 6ca6 c23c 004d c0bf 6c43 28c1 e21d bdbf
00000470: 0cd3 63a7 7aa3 a03f 65c7 d720 0260 b1bf
00000480: 357a 7ff6 9bd0 cdbf aece 6d7b b982 b1bf
00000490: 91e5 9f59 0186 643f 3b77 0abf 3d65 cbbf
000004a0: d779 0fa6 3040 ce3f 5f41 ebe6 e811 bfbf
000004b0: c62a 6f42 8bee 953f d3d2 effb 699c aabf
000004c0: e42a 46ce 15d8 cdbf b9ee 9094 52c2 bc3f
000004d0: a034 3ce1 b633 cd3f 79f6 2e9b 5a74 af3f
000004e0: 7102 9fc8 cea6 c53f 0000 0080 8de8 c5bf
000004f0: 142d 42a3 e355 c43f b474 e3ff 8d5f cdbf
00000500: 9119 d767 4b52 c93f bfcf ea0b 20b1 c0bf
00000510: 145d 1f4d f757 c23f 81d8 9868 d80b b33f
00000520: 2b46 1d9c 4a5a c13f 0b7c e3cd 6143 c33f
00000530: 990c 31d1 f716 b9bf 9529 f706 5eaf b23f
00000540: f8be cd9e c95b cd3f 8adb a57d 6c17 b23f
00000550: 78cc bc44 849e a8bf 2617 5c67 279b c4bf
00000560: c23b 3056 45f2 c03f 3f82 72ab 0cc1 bd3f
00000570: a98a f232 e7b4 a0bf 31be 82e4 e5f7 c63f
00000580: 1657 3fce bc64 a73f 7f7b f917 8667 b5bf
00000590: 6a48 6c97 26ff 933f 747a 5c7d 162f b2bf
000005a0: 4f93 b80c 31c7 b03f ef61 4f65 6075 c93f
000005b0: 13c9 cdd5 fb24 c83f 0000 00e0 61ff c3bf
000005c0: 64fa 7da4 259c cdbf ecdd 4ba1 190c a13f
000005d0: 0000 0000 8fb7 c1bf e9d5 c035 71de 94bf
000005e0: 42b3 a5ca 3396 c7bf bb51 ac43 3dbf c63f
000005f0: e0c1 7ea9 3eb0 bbbf ab90 1b31 a799 b5bf
00000600: fb91 fd45 45d8 b33f edab 5109 3f06 70bf
00000610: 2b5c 0f4f 667f c4bf e0cb 6158 03d2 a6bf
00000620: e438 48b9 4b5e 8f3f c0ce 8e91 fe01 bcbf
00000630: d560 2aa6 5f96 c7bf ef8d 9ac3 2cc8 863f
00000640: 191c c459 d669 c3bf 2d36 ba4b 273d c2bf
00000650: 92f9 17ad dfe5 9a3f 78bf e077 fca5 ba3f
00000660: ace9 e111 c4f6 b33f 956f 8a24 1237 bcbf
00000670: 6d15 956b a2e5 c13f 0000 0000 51a9 993f
00000680: 2332 4be8 725f c83f 07b1 6f11 752e c93f
00000690: 5c6b 6e91 9d4f c5bf a456 dc75 28bb c13f
000006a0: 03db 43b7 c5e9 c13f 8a0e d47d 6e46 a4bf
000006b0: c38d fa05 6048 7a3f 454b bab0 3d9b bcbf
000006c0: 0c63 85c9 8362 b83f 4060 e665 0e30 c23f
000006d0: 3708 dfef 7f3a ce3f b882 1cdb 51a0 b1bf
000006e0: 88cf 1fd2 9f49 b2bf ccb4 ddc5 62ab b73f
000006f0: bc51 f411 6336 c7bf c82b 9152 85ea c4bf
00000700: fd96 02dd 8a30 81bf c5aa 57cd c4a2 833f
00000710: cd1d 6ae3 9659 b63f fe54 eb18 3656 c2bf
00000720: f631 f321 e10c 9abf 6aeb 30ed d8d0 b53f
00000730: 67e1 b297 cb91 9bbf 1cc2 59fb 5b79 c93f
00000740: aedf 80e3 d873 ca3f e4cc e195 274f b1bf
00000750: 0fba f006 6397 b2bf 43a4 4316 0871 a5bf
00000760: a0c9 e019 04fa c43f fcbe ad13 6878 c0bf
00000770: 0000 0020 da16 cdbf 8793 8be3 7194 a33f
00000780: 09e2 881b 66d4 cbbf dd2d afc4 51ab cb3f
00000790: fb38 ec50 d1e2 cd3f db19 063d cc12 b4bf
000007a0: a735 c296 82ae b2bf c95e 0dae ef44 a4bf
000007b0: 829a 00f5 a724 bebf 0000 0020 e2e0 cbbf
000007c0: bbcb d634 978c 903f c443 6a82 a41a c8bf
000007d0: fc73 1ff9 fac5 9e3f e022 1a29 8dd6 c63f
000007e0: b7e1 f97a eaa1 b23f 83a1 389c f51a b83f
000007f0: cefa 670a ae25 a7bf 15f7 776e ab3d 993f
0.11366848263327776 -0.013820930904691173 0.048390910029411316 0.16781655079041044 0.007856491599248986 -0.0014698761122906648 0.04070652696799194 -0.15880091959907022
-0.001901539550130841 -0.0982309231006237 0.04832784831523895 0.07448660049939787 -0.0739068975046889 0.10197098553180695 -0.009583503109692332 -0.15701506693972417
-0.1719841126798516 0.16397142758970915 0.05633610248022079 -0.016629546976492764 -0.0716799341141709 -0.1793488135259552 0.015285233085467377 0.1694144607404651
-0.07714053494970416 -0.03603066219379181 -0.16713004883938423 -0.1148500286243348 0.143242271012963 0.05425896491153919 -0.17869807668591528 0.14717573722649202
-0.22432790935847932 -0.20390573915982294 -0.0681164645365757 0.18208092608631554 0.22200777488938214 0.2122982396672828 0.16739078883781233 -0.1649441054730729
0.2277805459437213 -0.07351964849136661 -0.16713355077583938 0.014898821332992335 0.08932269906485606 -0.10604680226418149 0.22302121215477974 0.21984949194613265
-0.20725634045585775 0.0667157918214798 0.17126127734489455 0.20901923926004762 -0.03142323376824901 -0.21039534553718553 0.04965117686102702 0.03741470794215461
-0.08332345254865914 -0.175251925962615 -0.04580967417465052 0.1496638676806884 0.19703610196826277 -0.015813000394979685 -0.061890795826911926 -0.22110123932361603
0.1566806206076853 0.2325271168761322 0.20997505388988763 0.21147680337627292 -0.024852496554433674 0.21194710393412916 0.1288996917364908 0.14435376876357897
0.015882953021894113 0.2032451398204536 -0.008099224954424387 0.11404011566167119 -0.1534609475886688 -0.07060372691796385 -0.09837024711223409 -0.21728450698182447
-0.16989354455305025 -0.15081601643308012 -0.19041099686363752 -0.06919270682609538 0.1607920870801429 0.23519961266581713 -0.230952245458389 -0.1527291155790174
-0.06568059199640403 0.15258502402645438 -0.11160196435061547 -0.13942735733782022 0.18562702145102689 -0.0950416706599602 -0.04182366305609461 -0.15522177395381617
-0.16823324576708984 0.1677788897759227 0.21417637590495797 -0.03980589245380837 -0.08095431619415312 0.15948808064320497 0.21236309290693678 0.12163961280381765
-0.22410247001867156 0.17509522275325184 -0.21867920458316803 0.09451100171231991 -0.17406648913589948 -0.07108657753203429 -0.09087004641593148 -0.02044626720042218
0.16456318203274795 0.13667485372201282 0.22898586094379425 0.0791164465621758 -0.05816487126524119 -0.07002058764220247 0.16652354470483494 -0.18205069609961785
-0.09657173811105318 0.17060270162469005 0.22603468596935272 -0.03691513226554543 -0.19844567271191302 0.23341539141672565 0.10134061746565119 -0.14140160699197168
0.06863848865032196 0.17595513309957914 -0.04825252030764715 0.019698802583554078 0.20659983329306542 -0.043359383940696716 -0.19210544228553772 -0.15857043606124047
0.11756552237325857 -0.10204434239344817 0.08087150333397244 0.153721727631475 -0.12734988180936868 -0.11373727050546528 0.032497246678678676 -0.0678712206061199
-0.23292874847443704 -0.06840094817544681 0.0025053049439491344 -0.21402713611763055 0.2363339243738227 -0.12136703145666193 0.021417785577606784 -0.0519745941200306
-0.23315689632393977 0.1123401272497472 0.22814069745837617 0.06143458504037098 0.16915306850389158 -0.17115944623947144 0.15887113067251646 -0.22947859758906974
0.19782393045734328 -0.13040543157478443 0.1433095099043632 0.0743994956363583 0.13556797621508684 0.1504938369098173 -0.09800671441284904 0.07298839254432317
0.22936363462530784 0.07066991870475028 -0.04808438624459027 -0.16098492190229158 0.1323935194818358 0.11622695146298499 -0.03263018128315782 0.17944024713277565
0.04569044130009396 -0.08361089787784513 0.019528010360837213 -0.07103100357606157 0.06553942261286959 0.19889454790860792 0.188628653904353 -0.15623115003108978
-0.2313277295288173 0.03329544156980177 -0.13841426372528076 -0.02037979975303542 -0.18427131075750408 0.17771116070129075 -0.10815803182663997 -0.08437581013601185
0.0775187774539247 -0.00391220687479697 -0.1601379285845906 -0.04457102254755063 0.015316573707448496 -0.10940543225916155 -0.1842765389781166 0.011123990744926508
-0.151667398291665 -0.142491256691231 0.02626752370815095 0.10409524847704954 0.0779840987833384 -0.11021531478985332 0.13982038739247163 0.025059953331947327
0.1904128679510829 0.196730264200035 -0.1664921722520728 0.13852411036412093 0.13994666527261054 -0.03959985052099764 0.006416678515651811 -0.11174378933564551
0.09525321645686463 0.1420915601308952 0.23616027080976362 -0.06885253524206802 -0.07143591766344859 0.09245889025415294 -0.18134725929907158 -0.16340700656505036
-0.008393368596738332 0.009587800518564457 0.08730452587234723 -0.14325596062432305 -0.025439756104605103 0.08521800795362613 -0.026923352369267486 0.19901609204272652
0.20666037663045017 -0.06761405381421387 -0.07262247962419387 -0.04187798759250729 0.16387988341882664 -0.12867451630471993 -0.22725988924503326 0.03824191954280481
-0.21741939873187757 0.21616575340008995 0.23348442508035547 -0.07841183175887727 -0.07297531300192493 -0.039588441845521745 -0.11774682742598411 -0.21780039370059967
0.016161310768165054 -0.18831306808399806 0.030052110152485753 0.17842258936823097 0.07278314115854455 0.09416136802668089 -0.04520934941318942 0.024649313561886894

layer1.weight f8 [256, 256]
00000000: 906c 78e4 6f9f 99bf 08ac 9b77 dfcc a13f
00000010: 0000 0080 008a a53f 6b5a bc14 f7d5 9ebf
00000020: 6783 d23e ae40 a5bf 057f 3ce3 95f2 ac3f
00000030: 7bb2 2c6d ec7a 99bf c3e5 bd4c 1197 87bf
00000040: a330 4d40 bd99 adbf 897f db72 b37b 70bf
00000050: 0000 0000 0022 3abf 07eb c633 ccf3 a23f
00000060: d285 5cf1 2d55 ac3f 0000 0040 fbc8 a2bf
00000070: 3298 7c55 4fdb 903f fdc6 a160 c58b a7bf
00000080: 5623 81c8 1484 a93f d62e 6680 4abd a6bf
00000090: a426 e60e 4127 89bf 57b6 e3a1 9b31 6d3f
000000a0: 3612 ee9a 3127 91bf 9335 09b2 f19a a5bf
000000b0: 5822 55d2 f30f abbf 5aa9 8ef0 bb84 a6bf
000000c0: dcf1 3c91 c47e 8b3f 0884 634d 32bc 963f
000000d0: ef74 b050 4c93 a2bf 53da 19db 1d62 92bf
000000e0: dd35 5c6a 4e11 91bf cc3d 6b57 aeb1 a83f
000000f0: 4f4b 9f7d eb46 973f 9421 040f c7ea adbf
00000100: fd34 fbd2 2666 903f 3875 bea4 152e 9f3f
00000110: 7901 fc33 fb9e a6bf c238 06f7 560c a7bf
00000120: 5f7c 5a0e e5ef 973f f4aa ba52 b1b5 a83f
00000130: 9e02 ceac fe3d aabf 4ca3 89d0 85df 863f
00000140: 92f3 ea1a 0f0c 9b3f 1a0a 3f53 7900 a9bf
00000150: 5fd3 f31f ada2 a63f f505 f1fc 0824 a63f
00000160: a647 7e85 07a6 ab3f ab26 7058 4e45 98bf
00000170: 3e5e 8a15 fa75 92bf bcd4 ba14 521d 79bf
00000180: 2a73 4e6e d245 a9bf 0000 0000 22e3 a23f
00000190: 80fa 13f6 77e4 a4bf ea7b 35da 5484 9bbf
000001a0: 7a8d 3662 9acd 98bf 9aeb 2dd5 f390 a93f
000001b0: 8e40 7975 3cdf abbf c711 1171 cc35 acbf
000001c0: 4294 4c23 a3e5 a43f 5535 250d a178 713f
000001d0: 7842 fe78 34ca af3f f355 08fe 4d29 93bf
000001e0: be01 bc8c 7ad3 a33f 4866 cb79 b160 a33f
000001f0: 0000 0080 62ca a7bf 0000 0080 96cd 9bbf
00000200: 08b0 a3ce 430d ad3f bcba ba51 7bb0 9f3f
00000210: f55f f06d 9b91 973f 891c ec79 ef56 883f
00000220: c9c3 a0fd 0a7a a5bf 8de9 6762 4e3a a9bf
00000230: 3077 0ea2 2d47 7a3f 39be 1d16 33f7 763f
00000240: f9d2 b48e abc5 a33f dbd0 cac9 8acd 873f
00000250: ff62 9ff7 8c11 93bf 246d 0af1 f69b a4bf
00000260: 000e 33ba 93a3 ad3f 696b 6e0c 86da ae3f
00000270: 0d63 759d daeb acbf 7921 69af aead 7f3f
00000280: 7af7 399b ef08 9e3f 94f3 07a2 c861 93bf
00000290: 0000 0080 a9a1 92bf bed8 aaa3 223b ae3f
000002a0: 086b e11a 2422 8a3f 067c 1090 c79d 9bbf
000002b0: 7089 da90 6139 77bf aab7 62d8 c420 913f
000002c0: 3ae3 67a3 874e a23f 4992 4192 7666 adbf
000002d0: 7044 9604 b62f af3f 6089 3589 7b43 90bf
000002e0: 54dc 0d3a 4aeb 90bf 5420 71ba 4af6 a03f
000002f0: 3db5 e3c9 e340 aabf 837b c9df af99 a73f
00000300: 0f90 123b c57d 613f e5f9 3c3a 29ae 8abf
00000310: 7462 c82e 3fbd 66bf b475 ac69 9ff8 90bf
00000320: c8e2 80d3 bbeb a73f 61a1 039e d486 9e3f
00000330: 5148 b7f7 3a63 91bf f29f 4f7b 7f41 9cbf
00000340: f0d9 f0b8 87ba 8f3f e168 3efc f3a5 aa3f
00000350: 0000 0000 ea3e 743f c159 5048 ace0 92bf
00000360: 4cad 4ff8 1149 a83f 97e4 87a2 f831 983f
00000370: 0902 3fec 43b7 8d3f e14d 8c1c 4bbf a03f
00000380: 0413 d0cf d81d 903f a578 e30a df1f a33f
00000390: 0000 0080 a83b 92bf d271 395f 1fe9 a63f
000003a0: c30d c33b a1da a03f 2b98 5d70 1157 aa3f
000003b0: a9b8 8787 4284 a73f 1e31 7ba6 0459 a03f
000003c0: 59dd c607 caca 96bf a866 e2ca d634 99bf
000003d0: 0000 00c0 3915 aa3f 30d4 98d6 ab16 a6bf
000003e0: 291f 298d b01a a13f 40d8 b12e d8db 74bf
000003f0: 672b 5eef f23d a2bf f581 3eee 2349 813f
00000400: 0000 0000 b699 a03f bb3f 4380 bbe2 adbf
00000410: a542 f610 0bfe a53f 7b47 95d4 dfab a63f
00000420: 1848 d0b7 fc5f 6b3f 0000 0000 97ac 8a3f
00000430: 0000 0000 29bc ab3f bcfc 7b22 f16c a23f
00000440: af72 39f7 5f8f 9c3f 2c37 0046 60b9 ad3f
00000450: 3856 4c22 b9d3 a33f 8a69 1c00 131c a0bf
00000460: 8647 8514 87d5 a7bf c77a fa87 c8bc 743f
00000470: d775 f9cd f38e 783f 083a 74fd ffaf 7dbf
00000480: 12c9 ac21 6b2d 853f 0094 a7fd 9430 acbf
00000490: d62b a753 8158 983f 6a52 902e c60a a53f
000004a0: faef 0e90 f753 ac3f aa76 eb9b 72f6 81bf
000004b0: d24e fe18 5916 953f 7fa5 ff25 459e a8bf
000004c0: 46f3 9eb5 0df0 abbf b9da ccf2 4171 a8bf
000004d0: 7713 6db2 2f94 7e3f 6583 50b8 7a03 aa3f
000004e0: cbf2 f8e8 43c0 7d3f 0000 0000 1395 a9bf
000004f0: 2a7a c4c3 751c a03f 6aae 57ce 4678 a3bf
00000500: d12e 1d05 928d 913f 7226 0641 b366 2f3f
00000510: e721 0dcf 9ded 9b3f 94be a81d a4d5 a6bf
00000520: ff15 d1b9 ee31 783f 2fd2 f078 cf03 a0bf
00000530: c495 ce55 4469 963f c06b dbdc bf4d a8bf
00000540: d9af b125 6db0 a33f 9354 ecd8 8539 9ebf
00000550: 111b 35c4 7421 ac3f 8ba6 556b 61a6 833f
00000560: bab5 7674 8b4b 983f 4bac 2ead 8fe9 aa3f
00000570: 2b29 f5ac ca62 923f fe23 c7ac ad8a 93bf
00000580: 0f4d da36 dd5c ab3f 582c 13ca eff0 ad3f
00000590: 2e15 cb91 7b39 ab3f 7ce3 e23b ada4 543f
000005a0: 2fd2 9578 8d85 953f 2a91 5c06 f72b 92bf
000005b0: 3a9d 86f4 142c 473f 0000 0000 f4bd 9ebf
000005c0: 3abb 5491 528e 9dbf b7df 0f95 20e7 ab3f
000005d0: 0000 0080 64c5 98bf 223c 7a13 20a6 9ebf
000005e0: b252 7f0c 28df a8bf 46d7 c3f5 4762 913f
000005f0: c574 e1be 572b 803f 19e6 c44a e191 a33f
00000600: e049 6f50 3138 a43f cd6d 5118 dba3 ad3f
00000610: 14f8 59c7 f85f a9bf 3e94 3e11 67af a3bf
00000620: 4a2c e29c bc84 313f 21e2 cad3 61a7 a2bf
00000630: bdb9 7ac1 2c01 ae3f 3573 6cdd ac1f 8abf
00000640: df71 0458 3d89 a2bf f320 b5ee 2c6d 72bf
00000650: 15e7 b64a b563 a9bf 2ede 856e d61b afbf
00000660: e6cd a4af d41a 9b3f 09eb e317 7f0e aabf
00000670: 218a 27d7 affa a5bf 0000 00c0 e18f a23f
00000680: 40df 7904 ef30 7c3f 252c acb0 3f0f 9abf
00000690: eb45 8ec2 b229 7cbf 3cc9 2d60 183d a53f
000006a0: 1a9a 0b32 15c1 85bf b90b 0093 e811 70bf
000006b0: 982e 4155 2875 8cbf 70b5 1226 cb72 53bf
000006c0: 4b1e 9d08 996a aa3f 96da 0afb b5e9 abbf
000006d0: 63b6 0a5e 0448 8a3f 776a d257 ee93 9c3f
000006e0: 8bf4 3662 9857 9fbf e147 65a1 bffd afbf
000006f0: 59a7 9ac7 2759 913f 0b04 d4b2 f8eb adbf
00000700: 4c69 2994 c868 a73f fdc1 e9db f3a6 a53f
00000710: 62fd 9317 08e4 9ebf 3c5b 4069 cd73 89bf
00000720: 9440 e071 5489 ae3f f174 ff54 17aa 983f
00000730: 1389 f4a2 22bb ac3f 15df 0121 7f3e a0bf
00000740: 58dd 5cee 7b4b 313f f405 ada6 f86c 8f3f
00000750: 56c4 0d7c 48a9 ae3f 0252 800c 98fa 853f
00000760: b9e8 5e88 e130 95bf cfea 3ab2 b6ca 9cbf
00000770: 0000 0000 6065 a9bf 6ed6 b19f 4126 813f
00000780: 91af bf0b ac90 a7bf c27e e261 a6b0 903f
00000790: 05b5 9bb7 32ee 9ebf c8d3 0038 cd19 ae3f
000007a0: e640 90b6 36f2 5e3f 3bd7 d5bd 0e03 7b3f
000007b0: 4968 0e8a bb2b 71bf 0000 00c0 257a ad3f
000007c0: df34 4448 17bb 693f 7aa1 ec35 53d9 abbf
000007d0: d3d0 b217 8176 a03f 7653 c1a2 32db 7e3f
000007e0: e75b 5b7e 7306 9fbf cb5f c8fa 4b52 a63f
000007f0: 9e3c 9ac1 c4b5 a2bf 4f8b cc22 74c8 a1bf
-0.025022266692854844 0.03476618132648218 0.042068496346473694 -0.030113087311372782 -0.04150909916757577 0.056538280476386794 -0.024882978595246002 -0.011518607286904797
-0.057813562487895064 -0.004024220439276757 -0.0003987550735473633 0.03701627857249972 0.055337367737830725 -0.03668961673974991 0.01646160086888688 -0.04598824314679282
0.0498358244663623 -0.04441292588589156 -0.012281902568037247 0.0035636939711512316 -0.016751074868368764 -0.04219775484362311 -0.052856082368241075 -0.04398143111696369
0.013425384218515406 0.022202287648614344 -0.03628004536606421 -0.017952410219061864 -0.01666758083506702 0.04823059861302745 0.02273147539365122 -0.058431835730576115
0.016014677645945764 0.03044923608796532 -0.04418168077063717 -0.04501601949151414 0.023376063347879113 0.04826120505216194 -0.05125423297341068 0.011168523241580929
0.026413188951426365 -0.04883174077214765 0.044209871435589625 0.043243676067969895 0.054001078649107456 -0.0237018815496756 -0.018028171124198737 -0.006131477955638672
-0.04936082455171793 0.03688913583755493 -0.04080557707674348 -0.026871991938033725 -0.024221813435031582 0.0499340245941859 -0.05443753179554377 -0.05509795074661699
0.040814493235565866 0.004265431505996749 0.06208957650153918 -0.01871225226394375 0.0387228295130657 0.03784708606481196 -0.04646594822406769 -0.0271514430642128
0.056741827940499034 0.030946661818854734 0.02301638468279062 0.011884566219590791 -0.04194673868222016 -0.049272965919914126 0.006415537122760814 0.005606841617790397
0.03861747853298953 0.011622509272776351 -0.01862163792961535 -0.04025241558448503 0.057888618926451585 0.06026095296620932 -0.056486922951711184 0.00773399578481137
0.029330962991017874 -0.01892770279845342 -0.018194817006587982 0.05904491660969445 0.012760431356743776 -0.026969068687432006 -0.0056699572720922825 0.016726566035394498
0.03575538510989991 -0.05742235694268467 0.06091088109963827 -0.01588242554624608 -0.0165225599225461 0.033129058131237926 -0.05127631988021129 0.04609441382193948
0.002135167328178873 -0.013027498330868201 -0.002775786784934115 -0.01657342035752203 0.04672038037137366 0.029811212677402724 -0.016980096215611976 -0.027593604947384116
0.015492496806570139 0.0520473714270382 0.004942812025547028 -0.01843518439644654 0.04743248134749453 0.023628125114531242 0.014509707114371844 0.03270945285307981
0.01573885696781742 0.03735253341595638 -0.01780570298433304 0.04474733388335363 0.032918013138921086 0.051445527044777194 0.04593093780918995 0.0319291547035354
-0.022257954334887618 -0.024615627415733116 0.05094318836927414 -0.043141717859193185 0.033406750899813105 -0.005092472517494839 -0.03562888309450934 0.00844028540433415
0.03242272138595581 -0.05837045613009147 0.04295382101111515 0.04428004713066876 0.003341668691526866 0.013024501502513885 0.054169923067092896 0.03598741098357425
0.027890681709652195 0.058054932160401 0.03872469466857037 -0.03146418930392077 -0.046550961737593474 0.00506285030829074 0.0059957049957950126 -0.007247924767638476
0.010340535130670268 -0.05505815121049551 0.0237751204784152 0.04109782522588008 0.0553281176903226 -0.00877084291772275 0.020593063497996784 -0.04808250511980371
-0.05456583826114651 -0.04773908699865132 0.007465540233913318 0.05080779552395746 0.007263436578395409 -0.049965471029281616 0.031467132708929604 -0.038027012527746276
0.01714161068166115 0.00023957193526440466 0.027273622286232337 -0.044598702068808255 0.005906994364584416 -0.03127907134367935 0.02188593648647498 -0.047468181333634174
0.038455401278809816 -0.02951630722516947 0.05494274993048099 0.009594689453211977 0.023725680335407985 0.0525631808189578 0.0179549854340532 -0.01908370368053979
0.053442871995821865 0.05847882596716464 0.053172933146507936 0.0012599651086430954 0.021017275319041125 -0.01774583793953003 0.0007071592636308862 -0.030021488666534424
-0.028863229866313157 0.054497736164136716 -0.024190492928028107 -0.029930592716990508 -0.04857754852824793 0.016976475119882005 0.007895169747082051 0.03822235143384151
0.03949121577138093 0.05789074584819396 -0.04956033166398313 -0.03844759068969282 0.0002673111420185599 -0.03643327436788391 0.058602713220682535 -0.01275572825175573
-0.036203305239016485 -0.004498649136913213 -0.04958883797685424 -0.060759259215896186 0.026469538898892163 -0.050891849199578294 -0.04292821408650505 0.03625398129224777
0.0068826042767041185 -0.02544879451583539 -0.006875704079804627 0.041481744518835545 -0.01062218245483586 -0.003923328869862291 -0.013895335294498865 -0.001187036883759287
0.05159452657840954 -0.05451744737131496 0.012832674140862815 0.027908062086320542 -0.030607586855456986 -0.06248282284890628 0.016941663320415887 -0.058440944509136804
0.045721309744026856 0.042289372057783915 -0.03016674655827723 -0.012427906775014479 0.0596414937027713 0.024086346209391377 0.056115229026788914 -0.03172681119843738
0.00026389861737948416 0.01534456499723811 0.05988527788475355 0.010731876260288157 -0.020694278667840325 -0.028117041233353398 -0.04960155487060547 0.008373749433512514
-0.046025635179687836 0.01629886600915032 -0.030205528694684087 0.05879060085900495 0.001888802939223716 0.006594712814480814 -0.0041920972588745465 0.057572536170482635
0.003140969727729911 -0.0543924334836587 0.03215411581314389 0.007533262058207471 -0.030298046672068948 0.04359662472069167 -0.03654303420364012 -0.034732465026783836

layer1.bias f8 [256]
00000000: d0e9 8aeb 3b40 a63f 0491 19c5 0290 a63f
00000010: d3ba ddb7 a4cc a43f 32fe bc0a f88d 7bbf
00000020: 559e 4b8c da1e 98bf 5f4e 8c7e 2781 8a3f
00000030: ee6c 14e6 4641 afbf d898 ec14 9fba 96bf
00000040: 0000 0000 0c09 ad3f 0ffc f93b 775c 9abf
00000050: bfec e2bc 087f 863f 2f27 4b94 58f2 9f3f
00000060: 2f04 b1f8 0af6 893f 0bf7 a653 aaca 93bf
00000070: 3037 9e59 231e 8c3f 5682 3cee 571e 91bf
00000080: 039f 56c2 74c7 a0bf c898 2e7a 6931 8f3f
00000090: 95a3 57ec 10e5 74bf 968b 8772 d95a 88bf
000000a0: 0000 00c0 efa4 a8bf 89de 75c8 98a8 913f
000000b0: 0435 34d8 6333 a23f 0000 0000 bbcb a3bf
000000c0: df3e 597e fd05 a9bf 5417 8ffc 4fe0 ae3f
000000d0: 487d bd44 9612 7bbf 0000 0000 8cd8 6fbf
000000e0: b109 d147 4912 9c3f 0000 0000 687a a8bf
000000f0: e327 6b08 a04f a6bf bf61 f07e f01d a3bf
00000100: 1f47 53a2 d97c 5e3f 4669 cc8f a27f a03f
00000110: 8ca5 08d1 7151 adbf f0d9 f75d e1b3 a3bf
00000120: 9b07 b4e5 7c11 9dbf d01a a3a1 f505 823f
00000130: deee 9125 b27a abbf 2b21 fa48 45cd 99bf
00000140: 1ca6 500b 38b1 a4bf 1a0c a110 b0b4 adbf
00000150: bf31 c96b b4f2 873f c86f 39be d167 ae3f
00000160: ec99 420b d871 76bf fa3b 505e 448b a8bf
00000170: e84b 6cc8 4ede 99bf 509b e7e5 a35f a73f
00000180: 7134 1ba8 f089 af3f 0000 0040 99ba aebf
00000190: 0000 0000 d027 913f c7a0 98bb 94c4 62bf
000001a0: 516e bfc2 d04c a3bf fa9b 879b 696f 923f
000001b0: 0000 00c0 8690 a1bf 22f9 f866 9e1c a73f
000001c0: 0000 0080 523d 9c3f 04b5 6480 cd11 6ebf
000001d0: a795 efb3 9eab ab3f d181 3a27 5e36 a1bf
000001e0: 2931 c883 8936 90bf 0000 0000 3d0e 93bf
000001f0: 4d6b 0ddc 2647 903f 7bdd f397 4092 a4bf
00000200: 0000 0000 8cd5 673f 872e fb52 0baf 90bf
00000210: 8f0b f4bd fc26 a9bf dbb2 7cb1 fef1 a43f
00000220: defd 0e6f c203 a2bf 1e4f 115d 6e4b aebf
00000230: 9ef6 528e bf65 79bf fadd 9e7f 1bde a03f
00000240: 505e 82f6 d90f 773f 8876 a514 d673 a7bf
00000250: f74f 35e7 fbb6 8b3f 7993 573e c285 9a3f
00000260: 61f6 74e3 1c25 a63f 2867 b4e6 7925 a83f
00000270: c239 aadd 5517 abbf 7604 7ade b44b 9abf
00000280: 8fe4 6dc1 b6b8 8ebf 73b3 8f29 47f3 a43f
00000290: 8dc1 dbcd 9c35 7f3f 3aeb 6bfc 7f46 a73f
000002a0: 0000 00c0 d42f aabf 48af a10f 9d68 a03f
000002b0: 1f72 2fa9 7343 8e3f 0000 0000 0265 7bbf
000002c0: dda2 17c5 fb25 a73f ab6b 3f6e 7762 a83f
000002d0: 0538 cbf9 3b61 9cbf 2b55 422f 5b02 95bf
000002e0: ea4d f882 81c6 85bf ece4 b975 10bc 91bf
000002f0: 5242 4084 d90f 98bf 97fa 3f05 42f1 843f
00000300: 0000 0080 8c25 92bf a255 7f89 7b07 ad3f
00000310: febf 68b3 9c7d a23f 0000 0080 01a0 933f
00000320: 4530 9504 fdc2 78bf 0000 0000 02d1 83bf
00000330: 7a0b cfeb 512c aabf ca29 2a40 0872 a83f
00000340: f2a8 5006 475a adbf 8851 9721 8e8f a63f
00000350: db84 03cf a1f1 953f 8ea8 e02a 5393 a4bf
00000360: bec2 f34f 4f69 a4bf 0000 0000 32c6 99bf
00000370: 1d43 07e9 4d0e 97bf 4db3 2b8e 2a5b 633f
00000380: c679 6222 777f a53f deda 9ad6 7bb1 a2bf
00000390: 1e55 3448 3a5d 97bf 5fc2 2486 bf8e a03f
000003a0: 46a9 becf 6083 a23f 0000 0000 8031 a33f
000003b0: c12d e632 d6a1 af3f 37ed 37c6 9f71 b0bf
000003c0: c425 4e79 e835 96bf 0000 0000 88f5 7e3f
000003d0: fe08 7773 9801 a23f 92c0 0827 c480 613f
000003e0: e390 0085 0549 a23f 2744 9b29 e1f3 a13f
000003f0: 0d87 4e05 8dbb 90bf 29b8 266c 3696 a2bf
00000400: e8ac 03e7 5b2e 97bf 0000 0000 165b 883f
00000410: ded8 e224 eb88 81bf 2563 6fcc ffeb 9f3f
00000420: 509b 3557 414b abbf bd07 ac75 fd9b 8f3f
00000430: 9248 8006 296f ae3f beed cf2b e2b7 773f
00000440: 4024 a915 c1a9 a53f b4e9 2f15 f682 983f
00000450: b738 db73 4038 6dbf 0000 0000 4035 8c3f
00000460: 97e4 76b2 3e42 aebf 2b42 e04c a5e7 8abf
00000470: 8db2 0a6a 20cd 98bf d559 9a1a 5522 a4bf
00000480: ac17 cbec a47a abbf abe7 d48b 5c2a adbf
00000490: 302b 7d3e 6630 97bf 52fe bcc5 3662 62bf
000004a0: 0000 00c0 a483 aebf 3283 e27b 76a3 a53f
000004b0: 0000 0000 b11a 80bf e212 9da3 e46e 7a3f
000004c0: 7393 5f3c 0666 a33f b93a d0d0 c908 90bf
000004d0: 68db c813 71fd 9bbf 926d b50f 4779 8d3f
000004e0: 2996 d36b 3090 abbf bd71 b32f 231e ae3f
000004f0: 1e2e eb5b 2108 8bbf b63b 2fb8 d8de 8ebf
00000500: ebbd 3e12 d001 9bbf ebc5 e588 fb09 943f
00000510: 8563 3537 4049 a8bf 0000 0000 e5c4 823f
00000520: fa57 055b 8fd0 88bf 0000 00c0 42e7 a13f
00000530: 1537 fc7b 5569 ac3f 4d0b 2d79 416d 993f
00000540: 9729 bbbb a59a 7ebf 1df6 051f 12f0 843f
00000550: 0242 cbe9 5a2d 9f3f aeec 7f8c 9da7 af3f
00000560: 9daa c62e 7736 a43f 7164 8c3a fffd ad3f
00000570: bf75 500d 0dac a33f d6c5 505f f7d1 afbf
00000580: aec7 3f5e 97e0 a1bf de88 6887 1cce a4bf
00000590: 9c54 1a7d 384a a33f c58a 4492 f4c8 3bbf
000005a0: 43b2 9e34 8c0b 9fbf ab4a 7838 7bb1 92bf
000005b0: cb9c fc18 012f 963f 0000 0000 fc11 a1bf
000005c0: 0000 0080 9b39 adbf ab7c 8c0a d4c6 aebf
000005d0: 8e6f 27c8 fa87 a3bf 19f9 eb06 ab58 913f
000005e0: e271 71b8 3567 aabf f1b5 1403 dbad a0bf
000005f0: 279f 4be6 6741 adbf 0000 00c0 f51c acbf
00000600: 6145 3641 65f1 61bf 6525 1be7 5391 a43f
00000610: f547 1d72 9315 91bf b353 1283 2d79 acbf
00000620: 0e9d d059 a8d4 9abf ee09 e231 29e2 9ebf
00000630: e863 0536 647b 9a3f 9bcb 4106 3354 573f
00000640: 5a1e f0a2 a477 7b3f c088 1ae0 e08d 9bbf
00000650: 3bd7 833c caba 91bf d5b7 6cd2 c53d acbf
00000660: 9aaa 61f9 2a11 a3bf 9f7a 1cbb 97a5 98bf
00000670: 68fd ed28 347e 92bf a855 6dc6 6d79 9c3f
00000680: 38ee 84f8 2566 73bf 67b3 5c66 f8c4 813f
00000690: 4c2b f13c bf6d a2bf cbb5 526a c53c a63f
000006a0: 0000 0000 220b 953f 2d12 a8ad 15c4 aebf
000006b0: 31bd 1ec6 f318 6b3f 37b1 273e f05e ab3f
000006c0: cba8 6611 4173 9e3f 26cc 4230 96f0 adbf
000006d0: 95df f933 e9f9 a83f d632 9386 3028 3fbf
000006e0: 964a f3ac 4f1e a1bf 018b b01e c121 adbf
000006f0: f581 0a0f f532 a4bf 0071 4726 d182 b0bf
00000700: 32f0 491a c4e5 aebf 6df3 78ef effa a13f
00000710: dc07 78b1 bd8c 583f ee6a b74b c1f6 75bf
00000720: 0000 0080 8c6d ad3f b3b7 7aa3 3f54 adbf
00000730: ff08 8d16 9801 abbf 0000 00c0 09a6 a4bf
00000740: 5114 269c 3685 aa3f 70c0 dae0 0811 a6bf
00000750: 775a ba9d ea24 96bf 17f2 1803 58e2 91bf
00000760: 9a2f cbec fda6 a3bf b2ac 415f fd33 623f
00000770: 0000 0040 ee3e a13f 2249 3faf 5d65 a53f
00000780: f443 cf7c 9fcd 983f a923 7101 b81a 72bf
00000790: 5b63 709e 8f2f a63f ee46 afef 6093 aebf
000007a0: 8967 5802 060c 74bf 0000 0080 11c1 ad3f
000007b0: 165f 50d4 78bc 913f 260b ee09 e6b0 a9bf
000007c0: 7cc5 0a75 8de3 ad3f 0000 00c0 b666 ab3f
000007d0: 685f 9b3e 40b4 913f 403a 4ac4 e160 a63f
000007e0: f356 ffbc d70b aebf 3772 2cf0 3a21 a83f
000007f0: 0ef0 a55a 11bb a1bf 7ea6 8ec5 24ab 9dbf
0.04345881700779197 0.04406746536258946 0.04062380547008151 -0.0067271889818694575 -0.02355519753737519 0.012941654729309691 -0.061044898591910854 -0.02219627919398523
0.0567096471786499 -0.02574335387771148 0.01098448587833045 0.03119791417228795 0.012676320757352226 -0.01932779441425851 0.013729358837533207 -0.016717313686174094
-0.03277172920507889 0.015230964699935248 -0.0051012669623355005 -0.011892031486189041 -0.04813336580991745 0.01724470828545902 0.03554832472046068 -0.03866371512413025
-0.04887382666913508 0.06030511816020004 -0.0066095228065415415 -0.0038874372839927673 0.02741350651582203 -0.04780888557434082 -0.043576241519602175 -0.03733779477642284
0.001860821278843301 0.03222377782204204 -0.05726199795419537 -0.03848175308296564 -0.028387023467992028 0.008800429339669874 -0.0536704703199271 -0.025197107867399964
-0.04041457307932836 -0.058019163160246204 0.011693391360631076 0.05938582846712809 -0.005479663774315285 -0.04793752337729269 -0.025262099249697828 0.04565155202344917
0.0615992741782997 -0.060017384588718414 0.016753435134887695 -0.0022910027444319222 -0.03769543053905678 0.018003130071431152 -0.03430577367544174 0.045140218801394974
0.027577675879001617 -0.003670598383129888 0.054043731179074066 -0.03361791828979544 -0.015833042782149285 -0.018609002232551575 0.015896422558721302 -0.04017831663980594
0.002909444272518158 -0.01629274076439782 -0.04912557429090391 0.04090877453413607 -0.03518493276305511 -0.05916924367980257 -0.00620055033249192 0.03294454510563223
0.005630351464922592 -0.04580563547163502 0.013532608025947452 0.0259008741903872 0.04325189854214951 0.04716092053622695 -0.052912410076817476 -0.02567942245378104
-0.015000751283638784 0.04091856367435911 0.007619488254690399 0.04545974689786765 -0.05114617198705673 0.03204813781562038 0.014777091599108392 -0.006688125431537628
0.045211665925142454 0.04762623997495238 -0.02771466934319024 -0.02051680065104226 -0.010632526215920774 -0.017318970857080382 -0.0234979617089855 0.010225787911619917
-0.01772136241197586 0.056697712454176555 0.03611459436467611 0.01916506141424179 -0.006045330382516372 -0.009675994515419006 -0.05111938479924212 0.04774499686489582
-0.05732938720787385 0.0440639892582651 0.021429565677753764 -0.040186499580458265 -0.03986595011690984 -0.025170117616653442 -0.022515504215166893 0.002362807384420773
0.04198810858473538 -0.036510343500983686 -0.022816572815902984 0.03233908188338285 0.036158585891217274 0.037487030029296875 0.061781591141961474 -0.0642337664539142
-0.021690018085370757 0.007558375597000122 0.0351684227894271 0.0021365958312103495 0.03571336029588836 0.03506377823726608 -0.016340449761293608 -0.036302281095558726
-0.022637783026692754 0.01189248263835907 -0.008561932624030207 0.03117370305321567 -0.05330852689330945 0.015434246209682695 0.05944183544501515 0.005790599328061528
0.04231074704564053 0.02393707756343995 -0.0035668619956147024 0.013773441314697266 -0.05909915855904407 -0.01313714161736453 -0.024219995949055707 -0.03932443570845449
-0.053670076280055795 -0.056963817662519865 -0.022645566524526817 -0.0022440976880771313 -0.05959811061620712 0.042262747404726034 -0.00786340981721878 0.006453412171883529
0.03788775908450406 -0.015658524866064314 -0.027333990891033194 0.014391474882976128 -0.053834450876632474 0.05882368047034301 -0.013199101083407657 -0.015073483582367913
-0.02637410270079769 0.019569330435336523 -0.047433859576535155 0.009164609014987946 -0.012116546597706435 0.03496750444173813 0.05549113405696297 0.024830840130799548
-0.0074717019994729105 0.01022352368522222 0.030446453590061047 0.061825679207652015 0.039478039226499485 0.05857846822454683 0.03842201983955417 -0.0621487907268478
-0.03491662049772458 -0.04063500550206965 0.03767563368925517 -0.00042396517734936647 -0.03031748839537075 -0.01825516254582264 0.021663682127066857 -0.03334033489227295
-0.05708013474941254 -0.060110689437572994 -0.03814681714331335 0.01693980436083917 -0.05156867863181326 -0.03257641232117326 -0.057139632093649965 -0.054908446967601776
-0.0021903016692667453 0.040171262704073375 -0.016683868255604712 -0.05561201310152999 -0.026201849443308105 -0.030159610433210852 0.025861326024230552 0.0014238832746087174
0.006705897437320718 -0.026908410719109765 -0.017314109748404177 -0.055158788620573475 -0.03724035543640021 -0.02406918601547636 -0.018059554098269898 0.027806964145687424
-0.004736088107445684 0.008676472305148853 -0.03599355334207263 0.0434323971070217 0.020550280809402466 -0.06008975739317566 0.0033077965935814015 0.053458697879110444
0.029736534773896744 -0.05847615565416957 0.04878166923020825 -0.00047541794499465545 -0.03343438135347758 -0.056898150440494184 -0.039451273046555636 -0.0644961088614231
-0.060346725663265835 0.03511762426612717 0.0014983990166688088 -0.005362277089683272 0.05747641623020172 -0.057283390718438375 -0.05274653697280662 -0.04032927006483078
0.05179758697617188 -0.0430987143021192 -0.021625200154256476 -0.01746499556451128 -0.03838342204616581 0.0022220562623736723 0.03368324786424637 0.04178898586509862
0.024221889488959605 -0.004420012256624619 0.04333161171979923 -0.05971815992201167 -0.0048942789776677065 0.058113619685173035 0.017320526083579223 -0.05017775412763674
0.058376713311541345 0.05351801961660385 0.01728916532633154 0.043707900248695086 -0.058684102841352635 0.047128526514118745 -0.03463033896966304 -0.02897317367356899
