python/snapshots/without_speed/snapshot600.pt (torch_old, 584819 bytes, 6 tensors)

layer0.weight f8 [256, 18]
000000 7e 4e 11 7c 00 40 c6 bf 5a a4 00 33 4a e0 73 3f
       -0.17382818277348017 0.004852571335541256
000010 d9 de 2a a3 2b 46 c7 bf c7 ff 94 74 01 b2 ca bf
       -0.1818289324489715 -0.20855730240327672
000020 62 3e cd 5d e0 95 b6 3f 29 9f e6 2e 2c 89 c5 3f
       0.08822443285066009 0.16824867525178291
000030 62 3e cd 5d ff 6b b6 3f eb f3 ec 7e 72 15 ab 3f
       0.08758541145402313 0.05289800452599266
000040 80 e8 99 b4 56 45 cb bf e3 8b 37 6a 05 3a c2 3f
       -0.21305354898851547 0.14239566503883258
000050 14 46 4d 6e 88 25 8e 3f cc 9c 31 de ba 56 af 3f
       0.014720025888581602 0.061208572028414204
000060 cc b3 04 dc ee be c8 bf 29 9f e6 6e 5f 40 c0 3f
       -0.19332681410869978 0.1269645015247474
000070 41 ff 10 77 bc 92 9a 3f 77 3c 43 13 48 fb b9 bf
       0.025950379149662032 -0.10149050207404452
000080 f6 37 7d 65 21 91 a5 3f 75 69 31 f1 a8 f0 c0 bf
       0.042122882498560374 -0.13234435822489457
000090 d8 b2 ee 1a 50 7b a6 3f c0 4e 97 1a fb 88 ad 3f
       0.04390955284848069 0.05768570613477442
0000a0 f9 03 a2 c0 76 f2 a2 bf 9f f5 c8 22 7e 94 ce bf
       -0.037006102576022167 -0.2389066381310103
0000b0 a7 89 d5 98 93 e8 66 bf 91 61 67 d0 5f 8d c9 3f
       -0.002796448016554726 0.19962690044372924
0000c0 83 2c cd b7 25 84 a8 bf ca 4e 89 26 12 01 ca bf
       -0.047883204161359515 -0.2031576812902272
0000d0 42 89 fe 46 26 15 c6 3f df 5e b5 fa b5 a1 a2 3f
       0.17252043215291663 0.036390005926191675
0000e0 a5 68 43 fb 44 9c c7 bf 47 5c 34 9e 21 dd 9b 3f
       -0.1844564654227884 0.027210736542738336
0000f0 a9 29 67 26 73 d1 c2 bf c6 c8 3b 22 ff ae a5 3f
       -0.14701690077920418 0.04235074322595404
000100 8a c1 d2 e4 94 59 c8 bf 17 89 84 33 27 a0 c2 bf
       -0.19023381398211497 -0.14551248565209882
000110 3c 90 43 ec 84 e8 9f bf 54 e1 a8 35 5e 2b c7 3f
       -0.031160427971272706 0.18101098651983227
000120 00 00 00 00 ae 45 b4 bf 00 00 00 00 4c 6c 97 bf
       -0.07918822765350342 -0.022874057292938232
000130 00 00 00 00 f4 62 cc bf 00 00 00 00 a0 4a 43 3f
       -0.2217698097229004 0.000588729977607727
000140 00 00 00 80 55 45 c1 bf 00 00 00 60 cc 45 c8 bf
       -0.1349284052848816 -0.18963007628917694
000150 00 00 00 a0 b9 2d c3 bf 00 00 00 60 5c 8a c4 bf
       -0.14983291923999786 -0.16047243773937225
000160 00 00 00 e0 e3 af c1 bf 00 00 00 60 39 2d c3 bf
       -0.13818024098873138 -0.14981763064861298
000170 00 00 00 20 d9 48 cd 3f 00 00 00 40 55 9f b4 bf
       0.2287856489419937 -0.0805562287569046
000180 00 00 00 40 67 01 b0 3f 00 00 00 80 d1 b9 ad 3f
       0.06252141296863556 0.05805830657482147
000190 00 00 00 00 89 5e 98 3f 00 00 00 80 3d 78 af bf
       0.023798123002052307 -0.06146423518657684
0001a0 00 00 00 40 73 c1 bf 3f 00 00 00 80 22 92 cb bf
       0.12404556572437286 -0.2153971791267395
0001b0 04 af 6c b1 2f 81 b6 3f 58 dc 42 42 f9 d6 c4 3f
       0.08790872651723808 0.16281047568711204
0001c0 a3 95 cf 89 53 ea c7 bf 3b db 3c 88 2d 4e a3 3f
       -0.18683857182547312 0.03770582473810299
0001d0 c1 6a 95 cc ee c7 59 3f 09 c1 6f e8 07 c6 c8 3f
       0.0015735466025349895 0.19354342317047493
0001e0 db 70 46 7c d5 d8 bd 3f 83 25 20 55 46 50 c6 3f
       0.11658987316190254 0.17432479053995217
0001f0 ad 44 b7 47 3d 04 96 bf 22 bc 0e f2 1f 45 cd 3f
       -0.02150054693430963 0.22867202109543522
000200 09 0b f8 4c 7f af c2 bf 55 14 9e cf 04 0e b5 3f
       -0.14598075159309357 0.08224515980516973
000210 70 7d ad ad 5c f8 c9 bf af 80 0b 78 f6 af bf bf
       -0.20289190750461783 -0.1237787287786911
000220 14 52 49 00 25 0c af 3f 74 02 30 0e 14 38 b0 3f
       0.0606395304536457 0.06335568758368898
000230 8b 78 e6 6a 86 ce 53 3f 30 e8 8d d8 56 1a 8d 3f
       0.001208907382170862 0.014210394366944795
000240 72 ca 7b a0 e8 18 c0 3f db e5 d7 42 2c 33 6f bf
       0.1257601531611559 -0.0038085808253043147
000250 d8 b8 9c 60 2f 90 c6 bf 71 f6 37 99 0c 54 ca 3f
       -0.1762751790751682 0.20568997842194706
000260 66 7d ba 8b 74 45 c3 3f 11 04 e3 67 cc fd a9 3f
       0.15055710623435486 0.05076445358418636
000270 5d 90 d5 b8 77 bf b7 3f 66 73 0b fa 03 5c c1 bf
       0.09276531469873946 -0.13562059125151932
000280 42 93 44 d0 32 f0 c5 3f 46 63 57 32 96 fd b9 3f
       0.1713927761967629 0.10152567605053972
000290 df 9d f0 6f a6 50 ba bf 8e ab 40 2b 66 b4 c2 3f
       -0.10279312355907376 0.14613034355110383
0002a0 10 31 c4 6c c1 68 a5 3f 28 bf f9 56 14 46 c4 3f
       0.041814846541543216 0.15838865515569833
0002b0 27 3f b7 64 a3 c2 c3 3f 51 28 6e 3b 63 7b ca bf
       0.1543773881698993 -0.20689049150343178
0002c0 92 86 27 84 f3 50 c0 bf 7e f7 d3 25 2f f8 b3 3f
       -0.12747043564654753 0.07800573991332091
0002d0 4b 98 12 7f 06 e1 bf 3f a5 06 af 2e 77 64 cb 3f
       0.12452736475333485 0.21400346545674612
0002e0 35 21 18 bf 08 ce 9f bf 50 9c 24 d9 0d cb cb bf
       -0.031059395469157997 -0.2171342191952328
0002f0 a5 10 8b f8 54 6e bb bf 35 9b c0 72 b2 97 b1 3f
       -0.10715228145551466 0.06872096349307528
000300 7d 9a b6 7a bd 30 cd bf 6e e4 91 a9 f7 9e bc bf
       -0.22804993144855593 -0.11180065050020158
000310 07 4e c1 ba e4 11 bb 3f 74 cf ee ec a7 23 c8 bf
       0.1057417827553807 -0.1885881335161873
000320 1a d5 f0 9d 70 e0 c9 3f a6 b3 6f 37 65 88 bb bf
       0.20216186248732343 -0.10754997828889987
000330 5f de 38 95 c5 62 9a 3f 13 de 3e 56 7f d3 c1 bf
       0.025767409546658345 -0.13926688872537393
000340 76 25 67 2c 11 af ba bf ed 06 d5 5e 26 d9 b6 bf
       -0.10423381170325804 -0.08925094428289145
000350 e6 17 c5 01 b0 6b bf 3f b4 9c b3 12 c1 0c b0 3f
       0.12273693125925397 0.06269461351949951
000360 3d f5 c1 36 61 65 b9 3f 90 a3 ce 44 83 25 cd 3f
       0.09920318209511421 0.2277072988483977
000370 7c 07 65 00 46 e3 9e bf b1 c0 d3 a9 3e a5 c5 bf
       -0.030163854383551833 -0.16910537044851062
000380 77 4c ba 3c 96 6b bb 3f 84 2a 74 6d 45 05 b5 3f
       0.1071103952656801 0.08211168214999459
000390 78 6d 21 2b 24 bc a8 bf 50 96 93 c6 36 c1 c9 bf
       -0.048310404076540914 -0.2012089223491551
0003a0 27 9d 04 51 b8 37 cd 3f 6f 23 31 1f 07 de c4 bf
       0.2282629390331092 -0.163025751333659
0003b0 45 7f c3 c4 7a 95 bd 3f 62 35 65 eb 25 95 b1 3f
       0.11556212714958487 0.06868206974941907
0003c0 b2 10 36 be 0b 76 a2 bf 96 7f 88 00 f8 cd 91 bf
       -0.036056868523730926 -0.017387270958465338
0003d0 6c c1 27 6c 5d e2 c7 3f 01 5d cb 2f 8c 93 c5 3f
       0.18659560948391218 0.1685652955409083
0003e0 ed bc 01 3f e0 f9 8f 3f e2 2c f3 95 b6 41 c1 bf
       0.015613319323362929 -0.1348179084946884
0003f0 e9 79 55 73 7e 96 c8 bf d4 30 9b 04 cf 84 c2 bf
       -0.19209271079576176 -0.14467799878037246
000400 04 72 9d 8a 6a a0 ae bf 49 5e 9c d7 ec 9f af bf
       -0.059817628308085374 -0.06176700717895451
000410 0b 41 d3 42 5b 6e a6 bf 08 75 b1 ad 46 d4 bf 3f
       -0.04381070318925325 0.12433282604748197
000420 58 c7 9b 84 52 4f 80 3f 75 a1 38 8b ab 7f 9e 3f
       0.007963795349016742 0.02978389775503972
000430 85 21 1a ff bc 32 c3 3f 88 be 33 8d 38 19 8e bf
       0.1499859090438457 -0.014696542557856476
000440 83 a1 5c 32 f6 e4 c9 3f 6e aa 76 6e 18 46 b2 3f
       0.2022998567492885 0.07138207146514627
000450 cb eb 04 b1 95 fe 91 bf 98 cb 64 0d 32 11 c3 3f
       -0.017572726182361536 0.14896226552954484
000460 58 67 f0 e7 6d 70 ab bf cc 91 02 1c 35 0e ca 3f
       -0.05359214264190254 0.20355857722928616
000470 f3 34 9d 9f 52 a3 ce bf d0 c0 c7 93 20 ee c6 3f
       -0.2393592147222204 0.17914206710657377
000480 5d 7c bd ca 11 33 95 3f 67 8f 2f 69 14 55 b6 3f
       0.020702627181318756 0.08723571365368131
000490 ff 45 06 bc 2a 6a cb bf ed a0 50 cd 66 19 b1 bf
       -0.21417745762714444 -0.06679384720394284
0004a0 8b af 57 39 a4 48 c8 3f 36 0e be e6 f3 ad 91 3f
       0.1897168426506791 0.01726513954009886
0004b0 f9 5a 45 1e 72 22 c7 bf 09 1f 62 2e 00 0e af bf
       -0.18073870161125408 -0.060653691923162674
0004c0 50 ec a1 0c 6e de c2 bf 98 d5 ae c1 2c 8f ae 3f
       -0.14741302124807243 0.05968608726781638
0004d0 8b af 57 79 60 b2 c7 3f cb 41 a1 9a 76 6d a6 bf
       0.18513112950256203 -0.043803888679238755
0004e0 a6 8f 30 7f 78 83 c1 bf b7 cb 7a 25 65 2d c9 3f
       -0.13682466707643676 0.19669784860670145
0004f0 82 ee 44 b7 40 c5 c8 bf b1 e3 f8 9e 24 75 b7 3f
       -0.1935196776265578 0.09163121110112972
000500 ae a7 f1 7b d6 54 c3 3f d3 41 40 26 19 66 cd bf
       0.1510265450663701 -0.22967829101300072
000510 a1 38 3c 0a d9 73 c3 3f 9e c7 e3 28 aa f3 c9 3f
       0.15197289466636213 0.20274855610437909
000520 84 fe 8c fa 67 37 cd bf 8f 2e 46 42 e8 73 c9 3f
       -0.22825336202548752 0.19884970890085582
000530 34 2d 3f 67 6c b2 a6 3f 01 b7 d7 c4 f7 c1 b9 bf
       0.0443300128968879 -0.1006159644673197
000540 5b d8 a1 f0 3d 33 cc 3f b0 74 62 5e 27 f6 c0 bf
       0.22031378030414114 -0.13251201733229356
000550 e2 4d 7d bb 8a f8 96 3f 7e 10 1b 74 7d 82 bf 3f
       0.022432487195443225 0.12308487019169154
000560 36 a9 7f ef 90 11 ca bf 29 1a ab df 6b c2 80 3f
       -0.20366107649108195 0.008183329356495754
000570 9b 5a 99 04 64 97 ca bf 53 fe e4 df 45 cf c0 3f
       -0.2077450773674244 0.13132546837185774
000580 7b 97 08 7a bb 46 b1 bf 8c 5f 7b e1 f6 82 96 3f
       -0.06748553971610065 0.021983964454960467
000590 68 c3 19 f3 4d fd b4 3f e5 39 6a 1f f9 7c b2 3f
       0.0819901197917382 0.07221943871466115
0005a0 00 00 00 60 9b 97 bd bf 00 00 00 40 5d 42 c1 bf
       -0.11559458822011948 -0.1348377764225006
0005b0 00 00 00 a0 e3 c7 ca bf 00 00 00 00 86 59 84 bf
       -0.209225133061409 -0.0099363774061203
0005c0 00 00 00 40 32 1f b6 bf 00 00 00 00 d7 7d 9e bf
       -0.08641351759433746 -0.029776915907859802
0005d0 00 00 00 20 1c 24 c5 3f 00 00 00 80 3b bf a3 3f
       0.16516448557376862 0.03856836259365082
0005e0 00 00 00 80 f3 cc a1 3f 00 00 00 00 e6 b7 8d 3f
       0.034766778349876404 0.01451091468334198
0005f0 00 00 00 c0 0d 1b b7 3f 00 00 00 00 e6 8b 81 3f
       0.09025655686855316 0.00856761634349823
000600 00 00 00 c0 9e d5 b4 bf 00 00 00 a0 0c 67 c2 3f
       -0.0813845843076706 0.14376981556415558
000610 00 00 00 80 81 35 cc bf 00 00 00 00 61 95 93 3f
       -0.22038286924362183 0.019124522805213928
000620 00 00 00 00 5c 22 71 3f 00 00 00 c0 fe 76 cc bf
       0.004183158278465271 -0.22238144278526306
000630 c1 7f b8 6c a1 39 c3 bf f2 01 a2 9a 36 8e a6 3f
       -0.1501962452757635 0.04405375135047852
000640 f8 da 7d 64 c8 9c 9d bf 2d 0e c1 14 6c dd bc bf
       -0.028918391355058554 -0.11275363451664396
000650 43 d5 b5 2a 7b 82 cb 3f e3 c1 31 a5 82 f6 c7 3f
       0.2149194677873912 0.18721039835101214
000660 d6 ee 88 66 fb 65 cd 3f b8 4d eb c9 4b ec a8 bf
       0.22967474466883314 -0.04867779579003745
000670 6f 51 1a 6b a2 a2 c2 bf 26 35 d9 9d 0d 1b ad bf
       -0.1455882094347873 -0.0568470244585149
000680 08 dd 5c 69 d0 2e c1 bf bc e8 6f c5 47 e7 c7 3f
       -0.13424115318932928 0.1867456163452682
000690 5e a2 9d 02 f0 d6 bc bf 5f 1a d3 3e 89 99 b5 bf
       -0.1126546865831499 -0.0843740251903937
0006a0 1f 54 7a 0c 28 2b 93 3f 77 cb ac 2f d0 d5 79 3f
       0.018719316255175863 0.006307423808538873
0006b0 f9 93 be e3 11 cc b6 3f 71 15 28 40 1e 81 be bf
       0.08905135927359699 -0.11915768686602292
0006c0 f8 02 63 f2 3b e8 b9 bf 56 45 98 3d 7a fa 96 3f
       -0.10119986217160803 0.022439870843361596
0006d0 2c a7 e0 07 79 21 bb 3f 6d 75 a4 ec b3 40 93 3f
       0.10597950403521555 0.018801509207255252
0006e0 2c 33 c1 9c fd 3d c2 bf 68 4c 34 79 60 68 c4 bf
       -0.14251680521047072 -0.159435328656943
0006f0 d9 b3 8a e8 4f 10 c8 3f ba 8e 5a 96 75 03 be 3f
       0.1879978070695916 0.11724028511758436
000700 70 d9 25 fd dc d3 b5 bf 5c 62 e0 d1 e8 7a ad bf
       -0.08526402645461473 -0.057578349704446835
000710 6c 14 fd 29 de 4c 94 3f 42 5b e9 7d 84 17 b7 3f
       0.01982447749403031 0.09020259927761479
000720 fa c8 4f d8 85 58 cd bf 0c 6e 7d 80 eb c3 aa bf
       -0.2292640024384765 -0.052276000437554954
000730 33 02 2a 9a d8 c1 c8 3f 09 9e 45 35 85 4d c1 bf
       0.1934157135729194 -0.13517823315781666
000740 3f 3b 3e a8 63 48 a8 3f 6f 81 6f 3c 2a 94 95 3f
       0.04742728642224003 0.021073017061895735
000750 00 00 00 40 1f 62 c4 bf 00 00 00 80 08 81 c2 bf
       -0.15924444794654846 -0.14456278085708618
000760 00 00 00 00 a8 05 6e bf 00 00 00 00 ba 9e 88 bf
       -0.0036648064851760864 -0.012021496891975403
000770 00 00 00 80 8c e7 c0 bf 00 00 00 80 63 f6 a0 3f
       -0.13206630945205688 0.033129796385765076
000780 00 00 00 c0 4d 57 b1 3f 00 00 00 e0 0b 5b c2 3f
       0.06773839890956879 0.14340351521968842
000790 00 00 00 80 da 8b c5 bf 00 00 00 80 21 bc b4 bf
       -0.16833049058914185 -0.08099564909934998
0007a0 00 00 00 60 bd 3f c0 3f 00 00 00 00 93 c9 b8 bf
       0.12694518268108368 -0.09682577848434448
0007b0 00 00 00 00 2e 73 c0 bf 00 00 00 00 70 5a 8b bf
       -0.12851500511169434 -0.01335608959197998
0007c0 00 00 00 80 b7 49 be bf 00 00 00 c0 9a 07 cc bf
       -0.11831232905387878 -0.21898207068443298
0007d0 00 00 00 c0 c6 73 b0 3f 00 00 00 20 24 29 c7 bf
       0.06426660716533661 -0.18094302713871002
0007e0 d8 e7 ce 9e 8a d0 b3 bf 6c fa 54 64 04 cb b1 3f
       -0.07740084054140028 0.0695040459586182
0007f0 20 a2 d8 be 74 9f bf bf f5 cb 76 78 9a 01 c3 3f
       -0.12352685603458058 0.14848643190416025

layer0.bias f8 [256]
000000 62 3e cd 5d 6a 2b bd 3f 36 32 b2 4a d8 eb 91 bf
       0.1139437178619516 -0.017501239356123764
000010 00 00 00 80 b1 c6 a8 3f 62 fa 08 12 d6 6f c5 3f
       0.048390910029411316 0.16747547035807303
000020 1f 58 53 2f cf 5f 79 3f 1e aa f8 5f f3 15 46 bf
       0.006194886508827962 -0.0006740034440942432
000030 30 1e c4 d6 a4 5e a5 3f f6 11 71 68 20 68 c4 bf
       0.04173770066887206 -0.15942769145671293
000040 2b 3a 28 54 23 4a 5e bf 0b f3 a0 02 a5 93 b9 bf
       -0.0018487305648055101 -0.09990912737061934
000050 00 00 00 80 6d be a8 3f 85 46 8a c5 66 2a b3 3f
       0.04832784831523895 0.0748657448077897
000060 12 f1 98 00 d4 d0 b2 bf 00 00 00 40 c5 1a ba 3f
       -0.07349896444879203 0.10197098553180695
000070 08 b4 69 94 91 4f 83 bf 35 d3 95 19 e1 f2 c3 bf
       -0.009429108945562717 -0.15584958791046125
000080 ad ce 80 22 3b 0a c6 bf 38 87 d9 26 f6 15 c5 3f
       -0.17218722519611643 0.1647327127166649
000090 70 4f 4f e4 49 8b ac 3f f3 98 0c bc b0 19 91 bf
       0.05575018798813758 -0.016699563481915324
0000a0 a7 59 48 09 fb 47 b2 bf 13 04 10 3c 0d f8 c6 bf
       -0.07141083695055404 -0.17944493706457418
0000b0 4d 2f 79 f6 c6 0a 90 3f 38 60 98 84 ba c8 c5 3f
       0.015666111749211443 0.17018825029731643
0000c0 36 e8 4e 6d 19 e4 b3 bf d8 b8 ed 75 21 6e a2 bf
       -0.07769926947267511 -0.03599648060377242
0000d0 7b 67 e5 5e bd 69 c5 bf 27 a0 6b 61 9d 1c bd bf
       -0.16728942044829495 -0.11371787670543708
0000e0 b9 8c 27 4c f1 52 c2 3f a7 5c 8b f5 fa 10 ac 3f
       0.14315620630723006 0.05481704947822524
0000f0 98 e6 89 b6 53 f6 c6 bf 2d 2e a2 48 db cd c2 3f
       -0.17939230359097702 0.1469072441726537
000100 5c df 9e 2e 73 b8 cc bf 11 31 ff fd 52 2a ca bf
       -0.22437896515270495 -0.2044166317194898
000110 b3 3a 57 03 c0 77 b1 bf 5a c0 c5 18 ba 52 c7 3f
       -0.06823349076806089 0.182212125869685
000120 17 3f 15 74 85 6b cc 3f 5e 27 10 1c a1 42 cb 3f
       0.22203128975024164 0.21297086591976727
000130 10 cc 29 ac f6 89 c5 3f c9 e2 2e f1 30 5e c5 bf
       0.16827281385812443 -0.1669369866993036
000140 8a e3 57 43 52 30 cd 3f c7 2c 38 c2 36 e0 b2 bf
       0.22803715027091825 -0.07373373262105352
000150 47 7b f8 0b f2 2c c5 bf a2 9d e1 42 69 83 8e 3f
       -0.16543412765983076 0.014899084428363466
000160 23 49 9a da 0d fb b6 3f 4d 67 b7 0d cf 18 bb bf
       0.08976828181247191 -0.1058473022925714
000170 f9 57 39 48 72 4d cc 3f fb 56 82 1b c8 55 cc 3f
       0.22111347700655395 0.22136784880847657
000180 bd 2f 53 47 98 8a ca bf 00 00 00 40 49 14 b1 3f
       -0.20735457880652844 0.0667157918214798
000190 f4 bf 75 29 f0 08 c6 3f 8d 0d 1b 61 a4 b2 ca 3f
       0.17214777016079064 0.2085767244480902
0001a0 89 14 85 23 a2 40 a0 bf 51 07 57 0d 76 df ca bf
       -0.031743113361280946 -0.2099444928299428
0001b0 fc 45 19 3a 31 29 aa 3f 82 16 b9 07 a8 29 a3 3f
       0.051095522253159914 0.03742718786501788
0001c0 6f 5d 24 c3 b2 44 b5 bf f0 cb 8c c2 6c 6d c6 bf
       -0.08307950271806928 -0.1752143812132938
0001d0 c6 9b a9 f2 c0 5d a7 bf 84 cc b9 97 b1 2b c3 3f
       -0.04563715898694158 0.14977092655644608
0001e0 e2 aa 9e 0e 08 29 c9 3f 51 56 c8 98 7d 48 91 bf
       0.19656468118531395 -0.01687809224139009
0001f0 00 00 00 80 26 b0 af bf 00 00 00 a0 0b 4d cc bf
       -0.061890795826911926 -0.22110123932361603
000200 d7 f7 60 b7 b7 2a c4 3f 70 b3 40 bb 85 bc cd 3f
       0.15755363897363736 0.23231574671936128
000210 1f 76 c6 db f9 ea ca 3f 70 59 62 53 18 00 cb 3f
       0.21029589873516927 0.21094039985173252
000220 c9 ff 86 a7 d7 bd 99 bf 76 68 8c 96 53 07 cb 3f
       -0.02513825378423443 0.21116108752250157
000230 cc 4a 93 12 33 79 c0 3f 63 21 b6 0e e5 3d c2 3f
       0.12869871527671817 0.14251387804348345
000240 63 c5 2b 43 ad fa 8c 3f 3d ac 9b c9 8c 13 ca 3f
       0.014150003063579225 0.20372161716599804
000250 6e 79 c0 51 6d bf 80 bf 63 cd 01 48 3d 00 bd 3f
       -0.008177618081444318 0.11328490264877682
000260 e0 a1 8d bb 9b a4 c3 bf ca 6d 00 80 ad f8 b1 bf
       -0.1534609475886688 -0.07020077109375858
000270 83 f0 42 7c cd 22 b9 bf 45 07 b9 98 b6 d8 cb bf
       -0.09818729671218489 -0.2175510640827786
000280 9c 68 64 e2 6e c5 c5 bf 54 45 c9 6d 25 42 c3 bf
       -0.17008768133456875 -0.15045612202315317
000290 6c 3b 15 51 64 62 c8 bf 4c e1 92 07 cf 9f b1 bf
       -0.19050268134239035 -0.06884473738580715
0002a0 34 3e 87 39 c4 b7 c4 3f af 82 ab f8 2c 5a ce 3f
       0.16185810860632588 0.23712694303596524
0002b0 7e 87 97 7b 1d 87 cd bf b4 ff f4 4d f6 70 c3 bf
       -0.23068588766824044 -0.1518848305367989
0002c0 ce 4b 69 25 2e 02 b1 bf 3d 3f 1f 2f db 62 c3 3f
       -0.06643951810228474 0.15145435143358013
0002d0 69 05 b4 e4 71 3b bc bf c8 25 b9 6b b3 ff c1 bf
       -0.11028205712866214 -0.14061587104724382
0002e0 5a b5 eb 6c 7e 85 c7 3f d2 cf ab f2 2e e8 b7 bf
       0.18376140898127852 -0.09338658737743735
0002f0 f3 de cc 0a 0e 4a a5 bf c1 99 bc c6 fd f9 c3 bf
       -0.04158061868514364 -0.15606662944737873
000300 b5 38 d5 81 63 86 c5 bf 32 af 02 1f e5 9a c5 3f
       -0.16816371764656926 0.16878952039893985
000310 a1 bd e6 4b fa 79 cb 3f dc b2 81 8a 32 6a a4 bf
       0.2146599646198242 -0.03987272206072642
000320 26 38 8c 66 57 62 b4 bf 30 4a d2 ff 33 6a c4 3f
       -0.07962557080847485 0.15949106208116026
000330 c5 f4 83 50 5a 39 cb 3f 49 8d e3 9e e2 29 bf 3f
       0.21268776828211436 0.12173286799548068
000340 1b 72 58 b0 ac b9 cc bf 6c 00 21 32 8c 25 c6 3f
       -0.22441633806819614 0.17302086303425612
000350 00 00 00 20 ae fd cb bf 14 95 93 70 aa 27 b8 3f
       -0.21867920458316803 0.09435525177430676
000360 fb f3 5b b3 57 4b c6 bf de 5b 1d 17 73 56 b2 bf
       -0.17417427308819797 -0.0716316157753307
000370 d4 90 5b 70 a8 6e b7 bf 16 c7 bc b8 15 7d 95 bf
       -0.0915322565375079 -0.02098497333572088
000380 f3 38 d1 71 8f 35 c5 3f 12 8e 1c 3b c9 85 c1 3f
       0.16569703156932966 0.13689532648378183
000390 00 00 00 a0 68 4f cd 3f 39 33 6c ee 76 42 b4 3f
       0.22898586094379425 0.07913916893830909
0003a0 91 3f 2d 00 e4 3d ad bf 71 96 4a 89 01 dd b1 bf
       -0.05711281301648719 -0.06977853395309254
0003b0 74 1a 7f 93 c0 43 c5 3f c6 04 43 f9 ac 57 c7 bf
       0.1661301346013776 -0.18236314936624448
0003c0 d6 49 aa b6 00 cd b8 bf a1 86 5f 67 c7 78 c5 3f
       -0.09687809428786606 0.1677483801604938
0003d0 00 00 00 60 b4 ee cc 3f 5f fd bf 2b 33 3a a3 bf
       0.22603468596935272 -0.03755340489441993
0003e0 0a 4d 7b 1d 11 70 c9 bf b7 32 55 8a 79 ea cd 3f
       -0.1987325090363828 0.23371810202151774
0003f0 53 c3 b7 ca 20 f1 b9 3f 9b 2f f3 2d 26 2c c2 bf
       0.10133557271161679 -0.14197232478761354
000400 00 00 00 c0 4a 92 b1 3f 41 d7 d4 3a 6d 8c c6 3f
       0.06863848865032196 0.17616048214557092
000410 20 a2 ef d3 ea cd a9 bf 4f 24 65 86 10 09 94 3f
       -0.050399149294950485 0.01956582851679328
000420 f0 a7 6c 3f 12 95 ca 3f 00 00 00 80 33 33 a6 bf
       0.20767429444214214 -0.043359383940696716
000430 00 00 00 40 e9 96 c8 bf 04 47 28 b5 cb 30 c4 bf
       -0.19210544228553772 -0.15773912759373598
000440 f8 d1 cb 2f 8c 29 be 3f 68 cf 00 4d 6d 12 ba bf
       0.11782146613024469 -0.10184367303810193
000450 94 6b c6 8b 5a b2 b4 3f db 89 81 32 5f 89 c3 3f
       0.0808464614150764 0.15262975660432584
000460 5f f4 1d a2 98 64 c0 bf 98 09 b9 e8 4e 01 bd bf
       -0.12806995311612732 -0.11330121213635491
000470 0e 27 bf 53 4f 96 a1 3f bc ae 26 8d 71 6c b1 bf
       0.03434989831255396 -0.06806096740791195
000480 07 c7 86 e1 33 ba cd bf 41 47 f4 11 d1 78 b1 bf
       -0.2322449542239655 -0.06824976623854885
000490 5e 27 2e e1 9b 71 4b 3f e2 46 27 f8 78 7f cb bf
       0.0008375178461943291 -0.21482765309206459
0004a0 ec c2 04 ea 93 6d ce 3f b0 1c 7e 6b c2 d8 be bf
       0.23771904875459116 -0.12049498676616355
0004b0 6b 7e bd aa d0 d5 95 3f ec f9 f2 16 0f 0b ab bf
       0.021323452397494707 -0.052818748046309455
0004c0 d7 de b4 85 ae 08 ce bf 50 c1 46 ca ae 9a bc 3f
       -0.2346399453033345 0.11173527181995735
0004d0 39 bd da 27 df 1c cd 3f 47 49 ad a6 1b 91 ad 3f
       0.22744359441774423 0.0577477112734806
0004e0 b5 e7 44 10 6e 86 c5 3f 00 00 00 80 8d e8 c5 bf
       0.16816497606651884 -0.17115944623947144
0004f0 b6 b2 b6 ba 5f 66 c4 3f 40 49 ac dd 67 42 cd bf
       0.15937420479658265 -0.22858904193760488
000500 9b 86 e1 18 37 9a c9 3f 98 83 89 2a 37 a6 c0 bf
       0.20001877512827523 -0.13007249428758594
000510 63 73 c1 ae a6 4b c2 3f 9a 8c 6d 87 f9 60 b3 3f
       0.14293368847838925 0.0756984668383204
000520 79 30 ef 1d 01 65 c1 3f 38 ff 2f 7d e5 ee c2 3f
       0.13589490853917477 0.14791554081602398
000530 46 76 65 dc e3 29 b9 bf d1 d8 19 39 9c a7 b2 3f
       -0.09829544192094727 0.0728700293928768
000540 41 a6 d1 40 fe 51 cd 3f 4f 23 f8 b1 e9 fd b1 3f
       0.22906473317134338 0.07028065295174922
000550 71 b2 d2 5b a9 e9 a7 bf ec 24 53 69 cb 6a c4 bf
       -0.046704571207872976 -0.15950911181270244
000560 a7 37 38 1f 13 f6 c0 3f b3 d5 d1 f2 45 bc bd 3f
       0.1325096037330102 0.11615407160009887
000570 95 74 a5 f9 11 c4 a0 bf 14 a1 36 ac af d2 c6 3f
       -0.03274589703026113 0.17830463322503276
000580 aa a6 6f 43 ad 42 a7 3f 35 af b5 f5 60 a9 b5 bf
       0.045430578691435144 -0.08461576460620963
000590 e0 30 96 f0 9f 60 93 3f bc fa 60 fd b7 16 b2 bf
       0.018923281726117902 -0.07065916000372402
0005a0 22 6c e5 2c 75 e6 b0 3f 25 43 ef cb 59 40 c9 3f
       0.0660165056810205 0.1972763295912269
0005b0 71 0b 55 0c e6 5c c8 3f 00 00 00 e0 61 ff c3 bf
       0.19033504106672752 -0.15623115003108978
0005c0 ea 5d 2c 49 70 aa cd bf 42 14 ed f1 d5 2c a1 3f
       -0.2317638737956565 0.03354519441794725
0005d0 00 00 00 00 8f b7 c1 bf d3 e7 bb 41 1f 7f 95 bf
       -0.13841426372528076 -0.020992744814954122
0005e0 4e 72 ff 06 71 99 c7 bf 39 78 14 85 c1 c9 c6 3f
       -0.18437016336146644 0.17803210256619353
0005f0 e0 c1 7e a9 3e b0 bb bf db e8 2c a0 40 e3 b5 bf
       -0.10815803182663997 -0.08549884710820115
000600 15 94 82 b0 1a d3 b3 3f b6 23 93 54 98 12 6f bf
       0.07743994530990535 -0.003793046493772735
000610 70 cb 70 b1 97 a4 c4 bf b9 7b 85 c6 06 a8 a6 bf
       -0.16127296604244235 -0.04425069020611922
000620 d4 dd 8c 42 df ff 8c 3f 65 e0 b5 56 9d 14 bc bf
       0.01415991231770778 -0.10968955389933084
000630 48 94 d5 40 d3 98 c7 bf ed 2d 9f 16 58 d7 87 3f
       -0.18435135522591595 0.01164120501552809
000640 f2 da 5c 71 b1 02 c4 bf c7 a3 dc df 99 62 c2 bf
       -0.15633218798912868 -0.14363406592135972
000650 50 2b 8a 27 b2 63 99 3f 77 dc 21 01 f8 af ba 3f
       0.024794372237504192 0.10424757030146901
000660 2c 9d bc 21 8f e6 b3 3f 1c 96 50 06 47 fd bb bf
       0.07773680280353251 -0.10933345703286829
000670 51 25 10 c5 94 f9 c1 3f 00 00 00 00 51 a9 99 3f
       0.1404291116926211 0.025059953331947327
000680 37 81 77 e2 ba 7d c8 3f d8 af d2 9b b6 f5 c8 3f
       0.19133697565031024 0.19499857529206
000690 fa 43 72 ba 83 77 c5 bf 9f 5d 93 01 20 9d c1 3f
       -0.16770979503465339 0.13760757519660857
0006a0 cf e6 f7 08 a8 ee c1 3f bb 95 93 06 cf 9b a4 bf
       0.1400957149306152 -0.04025122599868377
0006b0 85 22 ab c5 02 94 79 3f 9b 75 4a 44 28 9b bc bf
       0.006244669750863911 -0.11174251239068271
0006c0 f7 d9 63 42 10 5d b8 3f c6 f7 b8 41 07 44 c2 3f
       0.09517003651476573 0.14270106038196512
0006d0 4e 52 cb 56 f2 44 ce 3f 2b 3a 24 4d d0 a1 b1 bf
       0.23647908437728166 -0.0688753307660838
0006e0 f8 a4 34 6c 8b 83 b2 bf bc 13 c8 0e 87 c2 b7 3f
       -0.0723197116064006 0.09281200514676774
0006f0 c6 83 e0 da 03 41 c7 bf 1b 50 a6 6e 5f 1b c5 bf
       -0.18167160212854422 -0.16489785101714535
000700 87 13 15 bc 9a 24 80 bf 77 42 5a 95 85 45 85 3f
       -0.007882317414109398 0.010386508579615523
000710 87 e4 7f 54 b5 32 b6 3f 71 cb 26 33 91 77 c2 bf
       0.08671124756792113 -0.14427390096315265
000720 99 18 fa 13 a0 a3 99 bf 9c fd a4 84 1f ce b5 3f
       -0.025038243502898714 0.08517643917456613
000730 44 a0 f1 7d 90 5e 9b bf 1c c2 59 fb 5b 79 c9 3f
       -0.02672792214107768 0.19901609204272652
000740 a9 ff cc 76 b6 3f ca 3f 2a 7f e5 06 15 a7 b1 bf
       0.20506935883349556 -0.06895572107668771
000750 23 7d 7e 17 d5 95 b2 bf 8d 24 63 65 6d bb a5 bf
       -0.07259876082979537 -0.04244558203351643
000760 70 45 9a 81 de e8 c4 3f d8 5d 38 74 d5 c3 c0 bf
       0.1633566029382041 -0.13097637343228885
000770 00 00 00 20 da 16 cd bf b3 f1 cb c2 68 4b a3 3f
       -0.22725988924503326 0.03768470170868756
000780 89 2c a0 7a 47 fc cb bf 93 df 1b 89 a8 7b cb 3f
       -0.2186364506490899 0.2147112531163172
000790 10 e1 d5 93 c1 e2 cd 3f 26 95 6e 5e 09 cc b3 bf
       0.23348254889038644 -0.07733210139720778
0007a0 b6 1e 9e 22 d6 c1 b2 bf fc 05 70 ca 1a 27 a4 bf
       -0.07327020974309559 -0.03936084481393817
0007b0 61 26 3a 0f 51 2e be bf 00 00 00 20 e2 e0 cb bf
       -0.1178942358184485 -0.21780039370059967
0007c0 ee d7 f8 20 45 b8 90 3f cc 3c be b6 ea 31 c8 bf
       0.01632793439622298 -0.18902334139827415
0007d0 5b 66 b0 31 b6 08 9f 3f aa ad 40 84 5b c6 c6 3f
       0.030306669981746342 0.17792839009903832
0007e0 b7 e1 f9 7a ea a1 b2 3f b5 f7 7b 96 00 18 b8 3f
       0.07278314115854455 0.09411624597484443
0007f0 cc 2d 4b 32 64 b7 a7 bf db 0e 3b d8 3a 04 9a 3f
       -0.046321040286411014 0.02540676064269474

layer1.weight f8 [256, 256]
000000 5e 4e fd ca fd 9b 99 bf 0d 22 95 bc b8 60 a1 3f
       -0.025009122385496567 0.03394105245621768
000010 00 00 00 80 00 8a a5 3f 49 04 f2 f5 3e c1 9f bf
       0.042068496346473694 -0.031010612260164803
000020 0f 9a 14 23 83 09 a6 bf c4 bb 12 76 83 e8 ac 3f
       -0.04304132273891891 0.056461437381009755
000030 49 70 77 23 9a 7f 9a bf ab 1c 2e b4 ba b2 8c bf
       -0.025877388395983556 -0.01401277410856346
000040 94 8f 39 cd f0 99 ad bf af c5 af a9 33 35 70 bf
       -0.057815098811970916 -0.003956987197839919
000050 00 00 00 00 00 22 3a bf e2 73 f2 18 00 da a2 3f
       -0.0003987550735473633 0.03681946091203493
000060 3a a8 9e b1 18 24 ac 3f 00 00 00 40 fb c8 a2 bf
       0.05496289413652318 -0.03668961673974991
000070 16 00 65 9b 65 94 90 3f 8f 94 8b 88 22 82 a7 bf
       0.016191089257745338 -0.045914725463981225
000080 a1 ca 36 07 7c 74 a9 3f a1 20 f8 a7 45 c9 a7 bf
       0.049716831093424625 -0.04645745921522005
000090 45 62 36 b4 ca e1 8a bf ef 74 43 30 f7 1c 68 3f
       -0.013125976204535603 0.00294349936494475
0000a0 6e b6 54 8a 9e b1 92 bf e2 f5 24 ea cf a1 a5 bf
       -0.018255688851402878 -0.04225015385825849
0000b0 39 3f 0c 58 0d c9 ab bf c9 ea 14 50 5b 67 a7 bf
       -0.054268280981089885 -0.045710423970793786
0000c0 ea 8e c3 ac 63 7a 8b 3f ef f1 fe 25 d0 b9 96 3f
       0.013417032918773459 0.022193195647320193
0000d0 fe d9 fe 71 63 ac a2 bf ff 15 e7 a7 72 ce 92 bf
       -0.03647146956011581 -0.018365661142317077
0000e0 dd 35 5c 6a 4e 11 91 bf 19 a7 42 ed b2 88 a8 3f
       -0.01666758083506702 0.04791793009037643
0000f0 58 9d ae 85 aa f0 96 3f 7c 97 66 f9 63 c6 ad bf
       0.022402443322474624 -0.05815422458117234
000100 7b 45 18 b5 0c 2c 90 3f 37 96 2b 45 84 f0 9e 3f
       0.01579303603472713 0.030214373323266677
000110 8e 6f e7 1f 81 9a a6 bf db ef 0f 32 7b 0e a7 bf
       -0.04414752497152029 -0.04503235803710456
000120 8a 78 8a 8e 2b 15 98 3f 81 08 1a 7d c4 d1 a8 3f
       0.023518257689481938 0.048475399275973004
000130 00 a8 9d 66 44 f6 aa bf 5e 95 f2 f5 bb c1 85 3f
       -0.05266011955866645 0.010623424952721446
000140 18 23 1c ec ec 1d 9a 3f 0e f1 d8 cf 61 0d a9 bf
       0.02550478163815048 -0.0489302221508031
000150 29 ec 80 16 e6 7c a6 3f f5 05 f1 fc 08 24 a6 3f
       0.043921652075788416 0.043243676067969895
000160 13 b9 49 68 3e 22 ab 3f 76 76 ae ed f3 86 99 bf
       0.05299563429876932 -0.024928866750647725
000170 ce 42 29 5d 8c d2 91 bf 5e 71 47 d7 a1 f5 7f bf
       -0.01740474051104251 -0.007802612486980413
000180 b8 c4 83 01 c4 52 aa bf 00 00 00 00 22 e3 a2 3f
       -0.051412701783087156 0.03688913583755493
000190 73 65 58 bd 31 e9 a4 bf 42 9e 50 bb 60 84 9b bf
       -0.04084163128227205 -0.026872168953700155
0001a0 40 ab b4 ee fa fd 99 bf b5 0e 3b 6e f8 cf a8 3f
       -0.025382920093004246 0.04846168847646252
0001b0 65 bf 0a f6 61 c0 ab bf a0 12 7b ca 0e 49 ac bf
       -0.054202138218328234 -0.055244886605156696
0001c0 cd 28 d8 e8 8c 74 a4 3f 61 7a 7f b8 a6 79 71 3f
       0.039951709197411846 0.004266406300273391
0001d0 ee 09 ee 26 09 07 b0 3f e1 95 c4 0b 93 0e 94 bf
       0.06260735702929995 -0.019586846917396875
0001e0 fb c2 b5 da 21 73 a3 3f ea 4f 40 ae 07 66 a3 3f
       0.03798776430892833 0.037887802143956
0001f0 00 00 00 80 62 ca a7 bf 00 00 00 80 96 cd 9b bf
       -0.04646594822406769 -0.0271514430642128
000200 58 47 6f 87 e3 07 ad 3f c4 7d 7b d4 91 b2 9f 3f
       0.05670081165557289 0.030954626649757136
000210 a8 37 04 f5 25 98 97 3f cb af 89 c4 86 b7 82 3f
       0.023041337089175024 0.00913911139760861
000220 76 21 e9 f2 e1 86 a5 bf 3e 8b 2a a6 ef ea a9 bf
       -0.042044697668248185 -0.050620545419653315
000230 3a 16 1d 96 d3 e1 79 3f 26 0d be 90 58 f4 70 3f
       0.00631888056688506 0.004139276465028352
000240 c9 0e 7d 33 31 63 a2 3f 86 56 61 fb e8 f5 87 3f
       0.03591302636644184 0.01169950501586504
000250 9a d0 01 de 4f 11 93 bf 07 cc 6f 35 38 61 a5 bf
       -0.01862072746776331 -0.0417573514204364
000260 00 0e 33 ba 93 a3 ad 3f bb c9 5b 28 d7 d6 ae 3f
       0.057888618926451585 0.06023285262735408
000270 ad 41 06 f4 5f 44 ac bf 81 82 f0 d2 2f d7 77 3f
       -0.055209158456935505 0.005820452511244968
000280 8f e9 08 3d 0a f8 9d 3f cd 11 b3 0c 24 89 93 bf
       0.029266509986180685 -0.019077838206401233
000290 00 00 00 80 a9 a1 92 bf c9 58 8b 4f 9d 2b ae 3f
       -0.018194817006587982 0.05892650218963664
0002a0 f9 bb 83 cf 7f 56 8a 3f d8 7d c1 f1 b6 aa 9c bf
       0.012860296745627041 -0.0279949746185347
0002b0 0b da de d8 a6 fc 77 bf ee f7 38 11 a8 2d 90 3f
       -0.005856181856805263 0.01579916577451706
0002c0 b4 58 5b 4e 09 de a2 3f 30 c4 2e 0b 19 d2 ad bf
       0.03685025292877367 -0.05824354421145761
0002d0 da 38 55 2a fc 0c af 3f bc c0 ce 18 3d 02 91 bf
       0.06064594284781473 -0.016610102309358096
0002e0 38 b1 02 10 74 20 91 bf af 3b e9 17 0e a4 a0 3f
       -0.01672536227913321 0.03250164071925298
0002f0 cd 2a 0f f1 05 44 aa bf 46 e3 95 0f 2e 95 a7 3f
       -0.05130022590272674 0.046060027506376985
000300 75 50 aa 24 d3 4a 5e 3f b6 69 a2 a7 c7 fc 89 bf
       0.0018488943048043081 -0.012689170649811437
000310 72 8d 17 ff 8a 36 66 bf 6f c2 8c cc 4f f9 90 bf
       -0.002711554982612157 -0.01657604871724277
000320 db 2f b8 9f 08 bc a7 3f 61 a1 03 9e d4 86 9e 3f
       0.04635645818424879 0.029811212677402724
000330 7c bf b4 c7 b8 74 91 bf 08 3c fe 01 86 44 9c bf
       -0.017046820820894024 -0.02760514628567637
000340 9e 88 81 22 8c 37 8f 3f 2d 8c 1d 6c 65 b9 a9 3f
       0.015242667010344765 0.05024258560913384
000350 00 00 00 00 ea 3e 74 3f 67 82 a5 b9 05 3e 92 bf
       0.004942812025547028 -0.017814721542324465
000360 04 10 e8 f2 b1 8d a7 3f 30 38 ef a3 26 b5 97 3f
       0.04600292291800659 0.023151973491444433
000370 70 b7 b9 d5 5f fa 8d 3f dc 27 4b 3b 09 71 a0 3f
       0.014637707433589248 0.03211239670561358
000380 29 80 aa 4e 30 97 8e 3f b1 01 e0 85 6e f2 a2 3f
       0.014936807060905792 0.03700585731712936
000390 00 00 00 80 a8 3b 92 bf 59 a7 fe 21 25 0f a7 3f
       -0.01780570298433304 0.04503742256140581
0003a0 5d 7b 00 2e 92 62 a0 3f a8 67 b8 bc 40 53 aa 3f
       0.032002037158455045 0.05141641906466471
0003b0 a0 fe 37 67 56 91 a7 3f 4b 92 64 7f 21 5a a0 3f
       0.04603071222299815 0.03193764381493177
0003c0 23 96 98 d9 f5 3c 98 bf d3 8b 3d 49 6b 92 99 bf
       -0.023670045286186558 -0.02497260698818222
0003d0 00 00 00 c0 39 15 aa 3f 06 b4 43 81 fd 28 a6 bf
       0.05094318836927414 -0.04328148081717846
0003e0 0f af 45 29 52 07 a1 3f 9b ea 78 3d 79 d5 74 bf
       0.03325897935687127 -0.005086396784060777
0003f0 a8 61 ad 82 f3 38 a2 bf 06 65 52 db 6b 1f 81 3f
       -0.03559075327092681 0.008360712652847112
000400 00 00 00 00 b6 99 a0 3f 5d 89 76 9c 32 1a ae bf
       0.03242272138595581 -0.05879362258862628
000410 40 3b f0 6f f1 7b a4 3f 88 b1 31 57 f7 c9 a5 3f
       0.04000811091838452 0.04255650462514199
000420 f2 94 57 a0 0b 45 69 3f 00 00 00 00 97 ac 8a 3f
       0.0030846812321551004 0.013024501502513885
000430 00 00 00 00 29 bc ab 3f 4d 9e 34 9a 2e 69 a2 3f
       0.054169923067092896 0.035958725284498706
000440 54 99 35 af 51 be 9a 3f 1d a4 57 7a 7a 2c ad 3f
       0.0261166346730531 0.056979968485230105
000450 3d bf e2 5b a7 c7 a3 3f 5b 73 1a 1c 75 ca a0 bf
       0.03863261219646439 -0.032794627838689215
000460 e8 22 08 b7 d8 e0 a7 bf 39 bf fd 23 80 3c 78 3f
       -0.04663731798433962 0.005917072819883456
000470 91 c1 45 09 67 99 7d 3f 25 33 12 3d a9 1a 7e bf
       0.007226374135243311 -0.007349644744988369
000480 47 86 c6 81 30 01 85 3f ac cc 61 b2 8c 66 ad bf
       0.010256175003465219 -0.057423016333723126
000490 9e b3 97 4c 83 8f 98 3f ff 62 1a 1b 8c b2 a4 3f
       0.023984958219375956 0.04042470770690975
0004a0 d8 7e 6e 92 81 48 ac 3f 3e 21 48 e5 40 62 82 bf
       0.05524067795272253 -0.008976466176151218
0004b0 d4 0f 52 ba ce 31 95 3f 6f 1b 53 2f 43 65 a8 bf
       0.020697813150505187 -0.04764757111256911
0004c0 b1 64 e4 70 27 ba ac bf 81 bf c5 d3 19 d9 a8 bf
       -0.056107742815762925 -0.048531348324899255
0004d0 fe 28 65 76 49 f8 80 3f 45 29 30 80 7d 58 a9 3f
       0.008286069799073644 0.04950325193211084
0004e0 9e be 98 3c 29 3f 7b 3f 00 00 00 00 13 95 a9 bf
       0.00665203197563327 -0.049965471029281616
0004f0 fc f5 34 15 14 c8 9d 3f 64 b6 9e 56 82 2a a3 bf
       0.029083551210751665 -0.03743369395611465
000500 93 ef 07 86 1c fc 90 3f 00 f0 1b df d2 b8 2b bf
       0.01658672874508189 -0.0002115018283389558
000510 94 be 82 fb 02 d2 99 3f 97 8a bb c3 52 56 a7 bf
       0.025215193367954372 -0.04558046950639499
000520 75 d2 87 9c 65 23 77 3f 93 e4 85 22 90 6f 9f bf
       0.005648991508213731 -0.030699016673200474
000530 a5 55 74 4a f4 41 97 3f c0 6b db dc bf 4d a8 bf
       0.022712533039415245 -0.047468181333634174
000540 b5 61 18 d7 ad 55 a3 3f f7 14 86 ba 1d 3c 9e bf
       0.03776305437731101 -0.029526199826723745
000550 75 51 40 9e 7d b5 ab 3f a3 17 19 00 53 2a 82 3f
       0.05411903912332409 0.008869789543620337
000560 8f bf 85 40 36 57 98 3f fb ff de 54 dd d6 aa 3f
       0.02377018708051498 0.05242053662323084
000570 07 be 10 87 4a ce 91 3f 30 37 1e a6 4c 37 95 bf
       0.017388500684488075 -0.020718763007202046
000580 58 e7 93 1e 3c 4c ab 3f 48 59 6c 7e 29 36 ad 3f
       0.053316000683436726 0.057053848917507255
000590 c4 62 aa 15 5d a3 aa 3f a4 05 fa 0d 87 3e 31 3f
       0.05202761544678006 0.0002631263468871553
0005a0 b4 19 e7 d6 7b 2e 94 3f 28 10 cc 9c 6a d8 92 bf
       0.019708571426031177 -0.01840368825925523
0005b0 73 15 ef 0a e1 4b 3b bf 00 00 00 00 f4 bd 9e bf
       -0.00041651004988481967 -0.030021488666534424
0005c0 83 eb e0 77 57 9c 9e bf 12 7a 68 05 1d f7 ab 3f
       -0.029893271152313893 0.05461970034615517
0005d0 00 00 00 80 64 c5 98 bf e8 b0 5c f4 46 e5 9f bf
       -0.024190492928028107 -0.03114806047885646
0005e0 3a ae 68 5d d6 c5 a9 bf ae 4c 58 65 d3 7f 91 3f
       -0.05033750429387536 0.017089179096797018
0005f0 c5 74 e1 be 57 2b 80 3f bc a7 ad cf 28 91 a3 3f
       0.007895169747082051 0.038216853476867624
000600 23 be 39 c2 0e 31 a4 3f da c7 a7 1c 41 43 ad 3f
       0.03943678017537546 0.05715373492047578
000610 bc 99 ea 4c 41 6a aa bf d8 aa e4 4d 27 fa a3 bf
       -0.051591911925516126 -0.039017894991351276
000620 c1 b7 c5 f6 8a 9b 57 bf bd 43 6b a4 71 02 a3 bf
       -0.0014408928937785644 -0.03712802059238338
000630 0e 22 ba e4 5d 0e ae 3f e8 ce 82 20 6e e6 89 bf
       0.05870335976675643 -0.012646541945606285
000640 04 b7 8d ed ea 35 a3 bf 06 b4 f2 6f 21 5f 72 bf
       -0.03752073430847072 -0.004485254873697114
000650 22 08 50 82 44 8c a9 bf 5a f1 76 8c 94 37 af bf
       -0.049898281962683436 -0.0609709187951661
000660 46 2f 68 9c 57 09 9b 3f 71 03 ce ef 0c b6 aa bf
       0.026402825280498442 -0.052170185349502136
000670 60 73 28 1d 66 21 a6 bf 00 00 00 c0 e1 8f a2 3f
       -0.04322356325085397 0.03625398129224777
000680 44 f6 d3 47 ed 51 7b 3f 42 54 f6 bd d2 73 9a bf
       0.006669928433664266 -0.025832455486654256
000690 79 03 df 76 b7 03 81 bf 7e aa bd 32 1f d1 a3 3f
       -0.008307870211753375 0.038704848236041464
0006a0 99 30 98 b4 e4 ec 85 bf 25 cf 35 3e 66 b8 77 bf
       -0.010705744515711312 -0.005791091334106634
0006b0 fe 2d 56 25 d6 ec 90 bf 26 4d ec 9b d7 71 53 bf
       -0.016528459576461423 -0.0011868100697867783
0006c0 27 2f 7a 73 37 29 aa 3f f4 25 aa 2f 46 4b ac bf
       0.05109570774683752 -0.05526179630130548
0006d0 a0 a9 39 f4 65 36 89 3f d8 59 a5 2b 54 9b 9c 3f
       0.012310787692702274 0.02793628231423803
0006e0 96 2d 40 13 e8 ff 9f bf d5 70 fd 34 1e 0f b0 bf
       -0.03124964349266931 -0.06273068231297725
0006f0 59 07 35 e3 66 cb 90 3f dc cb 88 0d 60 e0 ad bf
       0.016400916688560006 -0.05835247197355617
000700 c5 5b 9c 25 5f b7 a6 3f 45 f0 a4 ce 16 a5 a5 3f
       0.04436776479831609 0.042275154805310446
000710 3a 54 68 ad ea 9e 9f bf 56 73 18 5d 72 32 8f bf
       -0.03087965663333512 -0.01523293825726461
000720 ae 66 d1 ee 69 ed ad 3f fb e2 84 3c c1 9e 98 3f
       0.058451948549828145 0.02404310161475374
000730 55 73 e0 5c 44 7e ac 3f 15 df 01 21 7f 3e a0 bf
       0.05565084108113775 -0.03172681119843738
000740 ea b7 9c 18 f8 fd 45 bf 9a 63 ce 26 9e c5 8e 3f
       -0.000671144619649897 0.015025363501807654
000750 36 0e 5b b8 4d a9 ae 3f bf 8c 6c 2c cc 7b 82 3f
       0.05988543391643157 0.009025187593186932
000760 dd e3 59 19 a5 a1 95 bf 25 9e 0d 39 c0 d0 9d bf
       -0.021124438926992773 -0.02911663387513221
000770 00 00 00 00 60 65 a9 bf 77 6a c4 79 8e d6 7e 3f
       -0.04960155487060547 0.007528835816880012
000780 03 a8 8b e7 40 4c a8 bf 62 94 cf 34 07 01 90 3f
       -0.047456768288455485 0.01562892207939049
000790 76 84 3e 51 bc bb 9f bf f4 45 f8 71 d6 67 ae 3f
       -0.03098959203601167 0.05938596860154269
0007a0 b0 3f c5 4a 77 28 5e 3f 34 99 c6 ab 1e c5 7d 3f
       0.0018407025300639472 0.007268066223707504
0007b0 b4 cf 37 6e 53 37 71 bf 00 00 00 c0 25 7a ad 3f
       -0.004203153515380299 0.057572536170482635
0007c0 74 9d 10 33 3d 26 69 3f bd 09 31 6f 35 6e ac bf
       0.0030699916174118883 -0.05552832586592469
0007d0 1e 68 a2 b7 97 77 a0 3f ec 36 f7 6d c3 43 80 3f
       0.032162419477757206 0.007941748422037397
0007e0 e7 5b 5b 7e 73 06 9f bf 4a ef e1 d5 3e 53 a6 3f
       -0.030298046672068948 0.04360386238928855
0007f0 b9 ff a9 3b 07 b1 a2 bf e1 e3 59 ca 14 ac a1 bf
       -0.03650686839409851 -0.03451600046259507
