python/snapshots/without_speed/snapshot200.pt (torch_old, 584819 bytes, 6 tensors)

layer0.weight f8 [256, 18]
0	0xbfc643fc20000000	-0.173949733376503
1	0x3f733f9800000000	0.00469931960105896
2	0xbfc749e500000000	-0.18194258213043213
3	0xbfcab76260000000	-0.20872144401073456
4	0x3fb683eac0000000	0.08795039355754852
5	0x3fc5803160000000	0.16797463595867157
6	0x3fb65a09c0000000	0.08731137216091156
7	0x3faafa1b80000000	0.05268941819667816
8	0xbfcb4b95c0000000	-0.21324416995048523
9	0x3fc231ede0000000	0.1421487182378769
10	0x3f8da16e00000000	0.014468058943748474
11	0x3faf446780000000	0.061068758368492126
12	0xbfc8c44500000000	-0.193489670753479
13	0x3fc03764a0000000	0.12669046223163605
14	0x3f9a553f00000000	0.025715813040733337
15	0xbfba07d100000000	-0.10168176889419556
16	0x3fa5684280000000	0.04181106388568878
17	0xbfc10157c0000000	-0.13285347819328308
18	0x3fa95d05135c5828	0.049537809956902656
19	0x3fb01c8f5133115b	0.0629357884636809
20	0xbfa0584fee36d46c	-0.03192376883399892
21	0xbfce0f688eeb113e	-0.2348452279894761
22	0x3f3d205b002cbe49	0.00044443341919284514
23	0x3fc9aabb3962ff4c	0.20052280714116433
24	0xbfa7a8fcc3dc0cad	-0.04621114626754639
25	0xbfc9a88092476d8a	-0.20045478003053702
26	0x3fc65ca52583e26e	0.17470230418964
27	0x3fa3e3d015c200ab	0.03884744897459432
28	0xbfc796b604c42d85	-0.18428683502893875
29	0x3f9c3f2aadd06b26	0.027584711893818746
30	0xbfc267d961748e8b	-0.143794224343868
31	0x3fa89768e724b288	0.04803016492437445
32	0xbfc78b1fce18b26a	-0.1839332348184997
33	0xbfc1e66e88911736	-0.13984471958445405
34	0xbf99a29a2b6b56b9	-0.02503434076319053
35	0x3fc9fbe8236f6908	0.20300008516534995
36	0xbfb445ae00000000	-0.07918822765350342
37	0xbf976c4c00000000	-0.022874057292938232
38	0xbfcc62f400000000	-0.2217698097229004
39	0x3f434aa000000000	0.000588729977607727
40	0xbfc1455580000000	-0.1349284052848816
41	0xbfc845cc60000000	-0.18963007628917694
42	0xbfc32db9a0000000	-0.14983291923999786
43	0xbfc48a5c60000000	-0.16047243773937225
44	0xbfc1afe3e0000000	-0.13818024098873138
45	0xbfc32d3960000000	-0.14981763064861298
46	0x3fcd48d920000000	0.2287856489419937
47	0xbfb49f5540000000	-0.0805562287569046
48	0x3fb0016740000000	0.06252141296863556
49	0x3fadb9d180000000	0.05805830657482147
50	0x3f985e8900000000	0.023798123002052307
51	0xbfaf783d80000000	-0.06146423518657684
52	0x3fbfc17340000000	0.12404556572437286
53	0xbfcb922280000000	-0.2153971791267395
54	0x3fb6b2fa0cb3964a	0.08866846857162006
55	0x3fc4e89420ce9c93	0.16334773637683905
56	0xbfc7ddbf0aeaee1c	-0.18645465882387746
57	0x3fa30ca7850c7223	0.037205920211111264
58	0x3f481a598c0bedbc	0.0007355630151261654
59	0x3fc8c08022a583f7	0.1933746499226172
60	0x3fbdfc4b65ab4a50	0.11713095886379077
61	0x3fc65bc8d64f732a	0.1746760412633191
62	0xbf95a1fc6385e03f	-0.021125739645384774
63	0x3fcd288956a950c0	0.22779957515252214
64	0xbfc2ee322f6566c9	-0.1478941661287563
65	0x3fb4cf34faa91722	0.08128672713891352
66	0xbfc9e006fcdf50f4	-0.20214927050859155
67	0xbfbf72ad7a8cb4dd	-0.12284359208998148
68	0x3faf3b575ecde07c	0.0609996131160537
69	0x3fb07f608dcf7436	0.06444362127463496
70	0x3f7369646e9944f1	0.004739181816675529
71	0x3f976266f774d7a1	0.02283631215433213
72	0x3fc074ed754223f2	0.12856834626680286
73	0xbf4dd112f5bed86d	-0.0009099333360527269
74	0xbfc63b2492d09cb6	-0.17367989700981007
75	0x3fca7d87e3009b86	0.20695589622593163
76	0x3fc34136b3250b98	0.15042766330051616
77	0x3fa9b316a6234043	0.05019446161316001
78	0x3fb747d01f1bb8c8	0.09093952903251357
79	0xbfc142ad975edd65	-0.13484735385075478
80	0x3fc602cf4b75e715	0.17196074661824726
81	0x3fb9f1a46be1b848	0.10134341844397554
82	0xbfbaca91aace62f3	-0.1046534578330343
83	0x3fc2971d02661e65	0.14523661248334743
84	0x3fa69e24a2fcaad7	0.0441752861937254
85	0x3fc48fc83d5c249b	0.1606378841027308
86	0x3fc3fedac2d325d2	0.1562150431912373
87	0xbfca369df46df0c6	-0.20479177889854422
88	0xbfbff70359e44452	-0.12486287064190663
89	0x3fb5426770b7cd1e	0.08304449560073521
90	0x3fbf79bb62bd4bb7	0.12295123253470207
91	0x3fcb338041df1787	0.21250918594722298
92	0xbfa0a5dbdc57ca1a	-0.03251540245755198
93	0xbfcbf582204a48f5	-0.2184298188845514
94	0xbfbbb13a5b040328	-0.10817303392469724
95	0x3fb17de2ceae611e	0.06832711740424144
96	0xbfcd382ff72176ab	-0.2282772022908167
97	0xbfbcb63481eda6b2	-0.11215522930219882
98	0x3fbafd38c8676eca	0.10542635815312021
99	0xbfc82fedb7373e0a	-0.18896266408999934
100	0x3fc9cd674537f408	0.20158091430485592
101	0xbfbbcd1ee2f85d08	-0.10859864274276643
102	0x3f988edeb6c52dc1	0.023982505708131322
103	0xbfc20a379a22d5f0	-0.1409368040673793
104	0xbfbafb1431aa0e24	-0.10539365971094888
105	0xbfb734318143c2b3	-0.09064015775562488
106	0x3fbee4f34d0228f8	0.12068100576485452
107	0x3faa75d8ae50d394	0.051680346754813616
108	0x3fb8facb59918728	0.09757681786279859
109	0x3fccee8bc3867d6e	0.2260298447335844
110	0xbfa051600e5ee1b7	-0.031870843652942175
111	0xbfc60e8fde58e75e	-0.17231939656067657
112	0x3fbaaedb7ac62ab5	0.10423061129965101
113	0x3fb4a11d03d20d0d	0.08058339446329317
114	0xbfa925686eb5f824	-0.04911352492762003
115	0xbfc9ecfa47bf11bf	-0.20254448416939216
116	0x3fcd1ae573856420	0.2273833097522422
117	0xbfc52ce0ff84d7d3	-0.16543209530362776
118	0x3fbcd076cf7636dd	0.11255590977654202
119	0x3fb143c99da55b8d	0.06744060610559029
120	0xbfa2f94b0e4f2b29	-0.03705820607827654
121	0xbf93e027150fa03e	-0.019409762058700368
122	0x3fc78f5f1a5c4b4c	0.18406285082945784
123	0x3fc555e27b04a849	0.1666834927248735
124	0x3f90e3e8a661d0ef	0.016494403033406376
125	0xbfc10d88fd3b46a2	-0.13322555889913185
126	0xbfc84a28913b27e6	-0.18976313678132256
127	0xbfc242e22edd518b	-0.14266612327868375
128	0xbfadf5ada395145b	-0.05851500150542029
129	0xbfaf2978b4620c99	-0.06086327745381332
130	0xbfa5448e90df105b	-0.04153867262314811
131	0x3fbff14103f436cc	0.12477499338657622
132	0x3f810c9027b8f175	0.008324743473274701
133	0x3f9e601428481730	0.029663386305421813
134	0x3fc32dc50a54a481	0.14983428005624336
135	0xbf8dc60633dcb6d3	-0.014537857492168104
136	0x3fc9e4504e6b652a	0.20228008107259515
137	0x3fb23fa1141bda1b	0.07128340474069043
138	0xbf9029c47c80b125	-0.01578433046249574
139	0x3fc370c09021772a	0.15187842404969248
140	0xbfaa289313384631	-0.05109080896012264
141	0x3fca6689eb4d0b17	0.20625423421196196
142	0xbfce62dbb5f39a44	-0.23739191421846517
143	0x3fc9175ab58cf39b	0.196025217674017
144	0x3f9532d700000000	0.020701751112937927
145	0x3fb6553a40000000	0.08723796904087067
146	0xbfcb6a1880000000	-0.214175283908844
147	0xbfb1197580000000	-0.06679472327232361
148	0x3fc8489ce0000000	0.18971596658229828
149	0x3f91adc300000000	0.017264410853385925
150	0xbfc7228e20000000	-0.1807420402765274
151	0xbfaf0e1b80000000	-0.06065450608730316
152	0xbfc2dfa340000000	-0.14744988083839417
153	0x3fae8f8280000000	0.059688642621040344
154	0x3fc7b25920000000	0.1851302534341812
155	0xbfa66d9400000000	-0.04380476474761963
156	0xbfc1837fc0000000	-0.1368255317211151
157	0x3fc92bf120000000	0.19665350019931793
158	0xbfc8c55e60000000	-0.19352321326732635
159	0x3fb774f040000000	0.09162808954715729
160	0x3fc3563620000000	0.15106846392154694
161	0xbfcd658ee0000000	-0.22966180741786957
162	0x3fc3ab5644d785d7	0.15366628991527762
163	0x3fca23935280d0fd	0.20421067741848012
164	0xbfcd038d062ba216	-0.22667086411753762
165	0x3fc98d6815494080	0.19962788619386984
166	0x3fa7275cca06205b	0.045222186719059386
167	0xbfb9b528a81a0fe6	-0.100420514145355
168	0x3fcc3e514ada6f47	0.22065178065246924
169	0xbfc10343babc2890	-0.13291212671203256
170	0x3f9701373691391d	0.022465574937364886
171	0x3fbf74a9144e5e88	0.12287384744410634
172	0xbfc9fa59467df589	-0.20295253698342844
173	0x3f84d7ceb539fce2	0.010177245050043419
174	0xbfca38c795f4ddbc	-0.20485777685256135
175	0x3fc101a06ab4d4bf	0.13286214075347932
176	0xbfb0fda2fe0f1c7a	-0.06637018873799319
177	0x3f981d49018c5d56	0.02354921409559315
178	0x3fb5e2bf5d88dc95	0.0854911425930019
179	0x3fb5dcf5ee80c18c	0.0854028422625161
180	0xbfbd979b60000000	-0.11559458822011948
181	0xbfc1425d40000000	-0.1348377764225006
182	0xbfcac7e3a0000000	-0.209225133061409
183	0xbf84598600000000	-0.0099363774061203
184	0xbfb61f3240000000	-0.08641351759433746
185	0xbf9e7dd700000000	-0.029776915907859802
186	0x3fc5241c20000000	0.16516448557376862
187	0x3fa3bf3b80000000	0.03856836259365082
188	0x3fa1ccf380000000	0.034766778349876404
189	0x3f8db7e600000000	0.01451091468334198
190	0x3fb71b0dc0000000	0.09025655686855316
191	0x3f818be600000000	0.00856761634349823
192	0xbfb4d59ec0000000	-0.0813845843076706
193	0x3fc2670ca0000000	0.14376981556415558
194	0xbfcc358180000000	-0.22038286924362183
195	0x3f93956100000000	0.019124522805213928
196	0x3f71225c00000000	0.004183158278465271
197	0xbfcc76fec0000000	-0.22238144278526306
198	0xbfc3480dcdd5e858	-0.1506364111954237
199	0x3fa62b5f6097f8dd	0.043299656430450396
200	0xbf9e8e0c7cb53422	-0.029838748084603968
201	0xbfbd0358b7398416	-0.11333231423624598
202	0x3fcb6dc7bb548a4b	0.21428772589668407
203	0x3fc7dfc923c20e3c	0.18651689764020485
204	0x3fcd576923c20e3c	0.22923006292340797
205	0xbfa8dae8619e31b5	-0.04854513351083104
206	0xbfc2a861a6bdcedd	-0.14576359407111897
207	0xbfad718102601eb4	-0.05750659135816019
208	0xbfc14eaba75771dd	-0.1352133338067593
209	0x3fc7c851afe97577	0.18580075349283806
210	0xbfbcf782572167e5	-0.11315168978890673
211	0xbfb5c21c9f837366	-0.08499316114780484
212	0x3f92bd2b742af8f8	0.01829975029499395
213	0x3f78bf2d3c181bb0	0.006041695306982328
214	0x3fb6c66385494cfe	0.08896467212735001
215	0xbfbea30a26b86a0c	-0.11967528767892349
216	0xbfba018c53fa6bdc	-0.10158612299203135
217	0x3f96ab2cbc3ed430	0.022137354840840284
218	0x3fbb089296ac0893	0.1055995576716973
219	0x3f92dae4ca359992	0.018413138238793154
220	0xbfc23c61cca76220	-0.1424677132879575
221	0xbfc46571831de708	-0.15934580709636514
222	0x3fc8070246997d23	0.18771389434093874
223	0x3fbdf9558e7d2ca3	0.11708578804716523
224	0xbfb5e07864b9292c	-0.0854563947588402
225	0xbfad68caccd7be84	-0.05744012594720707
226	0x3f9454546e8802ec	0.0198529427016209
227	0x3fb6c65a2e0ebb17	0.088964115376012
228	0xbfcd7f43b222f725	-0.23044630239558575
229	0xbfab12c7810432ed	-0.05287764978320362
230	0x3fc8b596d55bd556	0.1930416623869557
231	0xbfc159c5cd619987	-0.13555214432126325
232	0x3fa8ddf7dfd2a4a7	0.0485684834214422
233	0x3f92ce0d4543de08	0.018364150383574113
234	0xbfc4621f40000000	-0.15924444794654846
235	0xbfc2810880000000	-0.14456278085708618
236	0xbf6e05a800000000	-0.0036648064851760864
237	0xbf889eba00000000	-0.012021496891975403
238	0xbfc0e78c80000000	-0.13206630945205688
239	0x3fa0f66380000000	0.033129796385765076
240	0x3fb1574dc0000000	0.06773839890956879
241	0x3fc25b0be0000000	0.14340351521968842
242	0xbfc58bda80000000	-0.16833049058914185
243	0xbfb4bc2180000000	-0.08099564909934998
244	0x3fc03fbd60000000	0.12694518268108368
245	0xbfb8c99300000000	-0.09682577848434448
246	0xbfc0732e00000000	-0.12851500511169434
247	0xbf8b5a7000000000	-0.01335608959197998
248	0xbfbe49b780000000	-0.11831232905387878
249	0xbfcc079ac0000000	-0.21898207068443298
250	0x3fb073c6c0000000	0.06426660716533661
251	0xbfc7292420000000	-0.18094302713871002
252	0xbfb3ef3e78d5689e	-0.07786932420768486
253	0x3fb1ae07a912b0f3	0.06906173589476676
254	0xbfbfc2ea16ed4f0d	-0.12406790790310769
255	0x3fc2edaa9489587a	0.14787800076254937

layer0.bias f8 [256]
0	0x3fbd1974c0000000	0.11366967856884003
1	0xbf8801d17db4da8c	-0.011722218178517062
2	0x3fa8c6b180000000	0.048390910029411316
3	0x3fc57b71ba334289	0.1678297194653349
4	0x3f82152a0299f14e	0.008829429821383041
5	0xbf61e1a726a5ab09	-0.002182795016030585
6	0x3fa43fffa56e9c9e	0.03955077070650613
7	0xbfc43aac3b070e7f	-0.1580405510159046
8	0xbf5e4dd000000000	-0.0018496066331863403
9	0xbfb9304dc4907506	-0.09839330719883685
10	0x3fa8be6d80000000	0.04832784831523895
11	0x3fb2fcc6c7841c70	0.07416956301686795
12	0xbfb2ed3770bfd6e3	-0.07393213751478415
13	0x3fba1ac540000000	0.10197098553180695
14	0xbf84add0b76a7833	-0.01009715137234588
15	0xbfc3fba0c01794f2	-0.15611657504556536
16	0xbfc5fac0174557ad	-0.1717147935511866
17	0x3fc4f3da964474bc	0.1636918290832109
18	0x3fad82454ae37ede	0.057634511367494076
19	0xbf9154531a721b58	-0.016923235406035658
20	0xbfb1c934dbf2bdc1	-0.06947641725377364
21	0xbfc6f2933844db47	-0.1792778038740954
22	0x3f8c225a73e1d7ea	0.013737398778385274
23	0x3fc5b5692fae7dd1	0.16959872081950647
24	0xbfb35b627f9dd237	-0.07561317077290473
25	0xbfa2789ae71bd129	-0.03607639380598677
26	0xbfc556ea35953d21	-0.16671493164401688
27	0xbfbd724ea0d2fc86	-0.1150254385602115
28	0x3fc254590279acc1	0.1431990873419178
29	0x3fab5eb3dd549d50	0.05345689846790924
30	0xbfc6bbb6260aca5d	-0.17760350091482993
31	0x3fc2c1329e519b74	0.14652092676552864
32	0xbfccb2b145208fb5	-0.22420326114035807
33	0xbfca01ebe0608c79	-0.2031836362449189
34	0xbfb167ce0dd0397a	-0.0679901870464387
35	0x3fc74fab3268ac3b	0.18211879693385122
36	0x3fcc6290d65c0016	0.22175798861280843
37	0x3fcb30e8430ee378	0.21243003153156415
38	0x3fc54d1a1d7506f6	0.16641546667420187
39	0xbfc4db4a818b9cb3	-0.16294223142106076
40	0x3fcd2c5f2071d127	0.22791661342820044
41	0xbfb2c38b2bdd205e	-0.07329625912564228
42	0xbfc555d75d841c4b	-0.16668216768468577
43	0x3f8e8345f2fe41f0	0.014898821332992335
44	0x3fb6db799a289a28	0.0892864228595519
45	0xbfbb235674cb4cbd	-0.1060079608098929
46	0x3fcc8d26c5cbb38a	0.22305760057443208
47	0x3fcc398ad5b639b2	0.22050605235240323
48	0xbfca8813f9e34391	-0.2072777719645527
49	0x3fb1144940000000	0.0667157918214798
50	0x3fc604bce85f9773	0.1720195898662343
51	0x3fcaffd13178d2c9	0.21093192020057064
52	0xbfa00c6d29ea7967	-0.03134480606716999
53	0xbfcadc448adb9548	-0.2098470380798665
54	0x3fa9293ade8e6bd0	0.04914268461944682
55	0x3fa3274b3d5c593f	0.03740916370422775
56	0xbfb5110fa3c377f8	-0.08229158161290673
57	0xbfc66eabd981f0cc	-0.17525241966712313
58	0xbfa78be114103afd	-0.04598906869806816
59	0x3fc34b3b2a3801ff	0.15073337136711015
60	0x3fc9453a6a277493	0.1974251764612843
61	0xbf903f0c874150eb	-0.015865512614554083
62	0xbfafb02680000000	-0.061890795826911926
63	0xbfcc4d0ba0000000	-0.22110123932361603
64	0x3fc3fb60148693ce	0.15610886575919242
65	0x3fcdc5de36b16a83	0.23260095282133272
66	0x3fcaa0fbaf320794	0.20803781561340584
67	0x3fcb28167c608aac	0.21216088364697805
68	0xbf9909a4ff0fb1f2	-0.0244508534123486
69	0x3fcb3c6d9226f1c7	0.2127816165574485
70	0x3fc08b181097f1ce	0.12924481210929034
71	0x3fc28ccbae9e651c	0.14492174173646155
72	0x3f90ab0aab990df5	0.0162774722323444
73	0x3fca0da0de049b6f	0.2035409053871393
74	0xbf80a56200000000	-0.008127942681312561
75	0x3fbd435df36f619e	0.11430918877829874
76	0xbfc3a44320000000	-0.1534503847360611
77	0xbfb26f669238ff30	-0.07201233930481687
78	0xbfb8dbb710818ca8	-0.09710258629779622
79	0xbfcbd8332aa293c5	-0.2175353964022674
80	0xbfc5ac6ce48bbb2d	-0.16932450446571448
81	0xbfc35d0edff7243f	-0.1512774079876937
82	0xbfc85f6880000000	-0.19041162729263306
83	0xbfb1b355aa040c09	-0.06914267922188357
84	0x3fc48d53dfc023e8	0.16056297707862588
85	0x3fcdeff728b8363c	0.23388566482792494
86	0xbfcd937f462b8871	-0.23106375623962408
87	0xbfc3a4a6c15e0fc0	-0.1534622615982908
88	0xbfb0684056cbdc93	-0.06409074896861204
89	0x3fc3be94a05b0788	0.15425355748999103
90	0xbfbc287df6697671	-0.109992859515353
91	0xbfc1be5f2d2f4ad4	-0.13862218576703944
92	0x3fc7ba0ade0cbabf	0.18536506502410607
93	0xbfb86022e85fca7c	-0.09521692441175306
94	0xbfa558fcb1fe0426	-0.04169454262501686
95	0xbfc3da3efeb43135	-0.15509784161293685
96	0xbfc56ffab961c30e	-0.16747983981942877
97	0x3fc566564fa0105a	0.16718558204604755
98	0x3fcb5cd215c84c44	0.21377016128153248
99	0xbfa463192176aa8d	-0.03981855901232221
100	0xbfb4582f31c9c579	-0.07947058644801598
101	0x3fc4631c48a5fccb	0.15927461192402456
102	0x3fcb2ca4fb66ed6e	0.2122999408291934
103	0x3fbf0ca0103fe3dc	0.12128639599531205
104	0xbfcca559a84b61af	-0.22379608838560958
105	0x3fc66f7ca85b312d	0.17527731152075302
106	0xbfcbfdae20000000	-0.21867920458316803
107	0x3fb833dbc720c9ed	0.09454129802251261
108	0xbfc64fc29e3bb704	-0.17430908895715203
109	0xbfb2072aaf6d78c3	-0.07042185576344466
110	0xbfb73112f2761f93	-0.09059256000011677
111	0xbf958ca13f02576b	-0.021044272871754737
112	0x3fc50b6f118f3ab7	0.1644114337672897
113	0x3fc1a3c1cd601d1c	0.13780996826265202
114	0x3fcd4f68a0000000	0.22898586094379425
115	0x3fb45976d2ce0e69	0.07949011465648827
116	0xbface4113e89c43f	-0.056427515873004534
117	0xbfb1f1b6ed5c51ea	-0.0700945214742387
118	0x3fc56a6dfc5aa14e	0.16731047460531062
119	0xbfc74d4736785bdf	-0.18204584273982413
120	0xbfb857a1887fb20a	-0.09508714277735222
121	0x3fc5fdcb14ee8cc7	0.17180765649854932
122	0x3fcceeb460000000	0.22603468596935272
123	0xbfa1e9ebffbc7048	-0.03498780724314138
124	0xbfc96b63b28e6da0	-0.1985897657258251
125	0x3fcdfbac58bcdccb	0.23424295742890985
126	0x3fb9f6469a62ffc7	0.10141412038046758
127	0xbfc206c46afa6ea7	-0.140831520305132
128	0x3fb1924ac0000000	0.06863848865032196
129	0x3fc6770e12a4745d	0.17550826940797296
130	0xbfa85efc8ec622e3	-0.047599689892256845
131	0x3f927203cc1bca30	0.018013057072446326
132	0x3fca6e416efc0594	0.20648973387873737
133	0xbfa6333380000000	-0.043359383940696716
134	0xbfc896e940000000	-0.19210544228553772
135	0xbfc44da5eea80131	-0.15861963418138594
136	0x3fbe785308a44d9f	0.1190235038850944
137	0xbfb9efb226f8d8b7	-0.10131371928659659
138	0x3fb4a99b20eba550	0.08071298173640185
139	0x3fc3b1b84c03a887	0.1538610812343146
140	0xbfc0523275d77400	-0.1275084567450051
141	0xbfbcf99f608856b3	-0.11318393809082287
142	0x3f9fab6f742ecb2b	0.030927411524042697
143	0xbfb17d20938932a3	-0.0683155403323306
144	0xbfcdd821ef7ea24f	-0.23315834230494878
145	0xbfb1489365b2a6ab	-0.06751366837365917
146	0x3f677d60748810db	0.002867401494088024
147	0xbfcb48b701caa6d2	-0.21315658175927027
148	0x3fce24d81a729914	0.23549939433468892
149	0xbfbf1c600f9ef32f	-0.12152672177667222
150	0x3f9599a7fbadf8f5	0.02109396432523965
151	0xbfab2c301370d90a	-0.053071501134057966
152	0xbfcdd1e7d1ebd9b3	-0.23296830892622963
153	0x3fbcf188249d2f52	0.11306048292061391
154	0x3fcd43fdcee7e34b	0.2286374340326581
155	0x3fb077d6811f200c	0.06432858135588065
156	0x3fc58fd608a3aa37	0.1684520284828339
157	0xbfc5e88d80000000	-0.17115944623947144
158	0x3fc45d864b0a7b44	0.1591041437540871
159	0xbfcd6bebbdfc6752	-0.2298559835115222
160	0x3fc9313bb7519514	0.19681498004062148
161	0xbfc0a73c2373c7c0	-0.1301036046129962
162	0x3fc267a26e0b6e3b	0.14378767369531595
163	0x3fb304c200d871d5	0.0742913486541917
164	0x3fc1702f37462b8f	0.13623609732561845
165	0x3fc34752613712b8	0.15061406847794045
166	0xbfb934c860a7e11e	-0.09846165046463226
167	0x3fb2b660cc89258a	0.07309536927745888
168	0x3fcd664398875bd4	0.22968335101788162
169	0x3fb22abf454c8f52	0.07096476976272229
170	0xbfa8ba3e5fce1aa4	-0.04829592627998139
171	0xbfc494f2eec367b1	-0.16079556139339737
172	0x3fc0ee5ee629efd0	0.1322744964453464
173	0x3fbdbfe5da696a73	0.11620937902754651
174	0xbfa0dd4b3786d49a	-0.03293833782974183
175	0x3fc736159fe7f378	0.18133802707589175
176	0x3fa771b3f9b18bd2	0.045789360265892434
177	0xbfb5398e3b540a69	-0.08290947864956312
178	0x3f93e98c0d995b5d	0.019445598917026675
179	0xbfb23b724899e37a	-0.07121958038795909
180	0x3fb0a5f2e150bee4	0.06503217697968072
181	0x3fc97945fe5b74e8	0.19901347083842968
182	0x3fc7f93f4cf125ab	0.18729392296726863
183	0xbfc3ff61e0000000	-0.15623115003108978
184	0xbfcd9c0cebbbe48c	-0.23132478247115207
185	0x3fa17a83d0aad845	0.03413783952912345
186	0xbfc1b78f00000000	-0.13841426372528076
187	0xbf93ea41af70b1c2	-0.019448305447598242
188	0xbfc79e4451ac0af8	-0.18451742160694784
189	0x3fc6ccd7fae87c60	0.17812633277296452
190	0xbfbbb05440000000	-0.10815931856632233
191	0xbfb552e5739f59af	-0.08329614708723086
192	0x3fb3e1e140000000	0.07766540348529816
193	0xbf679df76b8a1c9b	-0.002882941477142587
194	0xbfc45e0a740ad05f	-0.1591198984730253
195	0xbfa6478646a89e2d	-0.04351443874866976
196	0x3f8e1ba50d8b6457	0.014701165653081256
197	0xbfbc13917a4c42c9	-0.10967358814037732
198	0xbfc766c6365f28e8	-0.18282392172688522
199	0x3f87a543d61f3bca	0.011545686695084618
200	0xbfc338f38dc481ba	-0.15017551824804604
201	0xbfc20e54ebfbf2b7	-0.14106236956276572
202	0x3f9c579183927d77	0.027677796988994054
203	0x3fbaedb882c42140	0.10518983070881394
204	0x3fb3ecb32735c760	0.07783050257947144
205	0xbfbc2fb6c4382600	-0.11010305681715948
206	0x3fc1e4048651a40c	0.13977104719677447
207	0x3f99a95100000000	0.025059953331947327
208	0x3fc8514e91762503	0.18998128988850035
209	0x3fc95614ae9bb1a5	0.1979394772128106
210	0xbfc53ea0af52cb8d	-0.16597374497140685
211	0x3fc1d709923232d1	0.13937492025833945
212	0x3fc1e9e2b4e2a6a3	0.13995012123387082
213	0xbfa351cc8fa3b05c	-0.037733452352626456
214	0x3f7e33da5c02a3d9	0.007373669592348053
215	0xbfbc97542350f918	-0.1116840921613157
216	0x3fb8511dea193334	0.09498774495405088
217	0x3fc25232b8584f65	0.1431334877130396
218	0x3fce362a823162ad	0.2360280166347101
219	0xbfb1803b12397e87	-0.06836289591728405
220	0xbfb228d77c27b229	-0.07093569546822977
221	0x3fb7ad0d1888bb53	0.09248430108048682
222	0xbfc730cf14669f7d	-0.1811770295728329
223	0xbfc4cdf4dacd0005	-0.162535292469329
224	0xbf82f87b18a901ac	-0.00926300210005667
225	0x3f83e7f2cf960a16	0.009719750366234552
226	0x3fb66d87518173f0	0.08760877361187602
227	0xbfc2546e675510b0	-0.14320163770219585
228	0xbf9a6872a8e5bcd4	-0.025789062079124417
229	0x3fb5d0b25b27fcbe	0.0852157089757268
230	0xbf9bb1d09d0c0bd4	-0.0270454974988857
231	0x3fc9795bfb59c21c	0.19901609204272652
232	0x3fca9746fe54eace	0.20774161737957403
233	0xbfb1174a1873c113	-0.06676161858536415
234	0xbfb2a678d3c4d64e	-0.07285266084803618
235	0xbfa42ad9948a967e	-0.03938941896676072
236	0x3fc4f298cccc4f2b	0.1636534690848007
237	0xbfc072c335d31539	-0.1285022747817182
238	0xbfcd16da20000000	-0.22725988924503326
239	0x3fa3aa1160487285	0.03840688991860922
240	0xbfcbb653ba182795	-0.21650168024671915
241	0x3fcbaf1406e29234	0.21628046356376418
242	0x3fcde526614ef63d	0.2335556006564036
243	0xbfb413516b28e7a7	-0.07841976991849596
244	0xbfb2af91620e026b	-0.07299145358957453
245	0xbfa4a4d8609fc74f	-0.04032016925329051
246	0xbfbe1bada7478d67	-0.11760983785602762
247	0xbfcbe0e220000000	-0.21780039370059967
248	0x3f906106eb47bf16	0.015995128736846352
249	0xbfc81e1b16826999	-0.18841875647633513
250	0x3f9f8ec9e2b84e1f	0.03081813284195622
251	0x3fc6f1d80fbeacc8	0.17925549286642295
252	0x3fb2a1d8c0000000	0.07278208434581757
253	0x3fb826d6122be82d	0.09434259360924165
254	0xbfa6a96a986f4b40	-0.04426129446769389
255	0x3f9845a25ec8f690	0.02370313361665538

layer1.weight f8 [256, 256]
0	0xbf999f6100000000	-0.025022044777870178
1	0x3fa2776050ac853b	0.036067018363846924
2	0x3fa58a0080000000	0.042068496346473694
3	0xbf9e38edcd9aebc7	-0.029514041589873388
4	0xbfa4dbc4cb450d6f	-0.0407392023212435
5	0x3facd594e34ec941	0.056316998240975476
6	0xbf98771191fdf4ab	-0.02389171079220335
7	0xbf8265d10b6d8343	-0.008983262215851112
8	0xbfad997340000000	-0.05781135708093643
9	0xbf7764f168186fb1	-0.005711501116390781
10	0xbf3a220000000000	-0.0003987550735473633
11	0x3fa310f28b9a8af8	0.037238673726525506
12	0x3fac882e5a54d6d6	0.0557264790790392
13	0xbfa2c8fb40000000	-0.03668961673974991
14	0x3f911796b0182601	0.016691545961327495
15	0xbfa8a20c1cfab376	-0.04811132291556579
16	0x3fa9a2bb4cf3453d	0.050069668906540056
17	0xbfa52dafddfbf4bf	-0.04136418900268656
18	0xbf8ae2fedacb93a1	-0.013128272106266272
19	0x3f6f9ce2f9226ff8	0.0038589890546756288
20	0xbf8eb6530a0c96bc	-0.014996193641830906
21	0xbfa592cb42d27c13	-0.042135574252135786
22	0xbfaa3e5bb32951ff	-0.05125700532940768
23	0xbfa67e27e8865d00	-0.04393124307096663
24	0x3f8c57f948f6d035	0.013839671649158539
25	0x3f96cf44263d96b5	0.02227503283884032
26	0xbfa285c5b971ebc2	-0.036176852118806405
27	0xbf91e02660347e67	-0.017456626531496513
28	0xbf91114e6a5c35dd	-0.01666758083506702
29	0x3fa8d8447a98205f	0.048524990048520726
30	0x3f96d365bbb1b1c7	0.022290792065563083
31	0xbfae5aec6d34f711	-0.059287441569251816
32	0x3f907ea06deb43f5	0.016108042439387977
33	0x3f9e3ae44ccac2ad	0.029521529376043066
34	0xbfa69d99a0c295c8	-0.04417114341167011
35	0xbfa7049d9b2d7da9	-0.0449570896078016
36	0x3f979c95569c6d69	0.02305825558788169
37	0x3fa7790ad85065ba	0.04584535494377513
38	0xbfa910faa244569e	-0.04895766478345574
39	0x3f87b59d24993973	0.011576869658850275
40	0x3f9d4a761f540310	0.02860436025821672
41	0xbfa8e3902b7ebef1	-0.04861116915651376
42	0x3fa71f6672e5f9ea	0.04516143944328006
43	0x3fa62408fcf105f5	0.043243676067969895
44	0x3fac5f0796813da3	0.055412518617795635
45	0xbf96574a3388fbf2	-0.02181735934777502
46	0xbf92c359e0ef9c07	-0.01832333026314006
47	0xbf6ffdd2f433512f	-0.0039052124207989074
48	0xbfa8875b3c8b398a	-0.04790768732128743
49	0x3fa2e32200000000	0.03688913583755493
50	0xbfa4e3ff5e42f31b	-0.04080198312428803
51	0xbf9f8d2ad812ab5d	-0.03081194824032295
52	0xbf97797e8af310d3	-0.022924401503375002
53	0x3fa9f13f9bc3365b	0.050668704761488846
54	0xbfac8f5261b99848	-0.055780958585089524
55	0xbfac2ba917ebb9c2	-0.05502060334207527
56	0x3fa5401698de057c	0.0415045796971851
57	0x3f71789c8ccabdb8	0.004265414737047939
58	0x3faf53044c921b4e	0.061180242869389376
59	0xbf92b88133bd37d8	-0.018281954558282937
60	0x3fa44f1b6de8fb05	0.03966603962589058
61	0x3fa36c6ac5929752	0.03793653165602841
62	0xbfa7ca6280000000	-0.04646594822406769
63	0xbf9bcd9680000000	-0.0271514430642128
64	0x3fac6b10bb9108c6	0.055504343887621085
65	0x3f9fa9c84751dab5	0.030921105721484838
66	0x3f96cdcaa473da1a	0.022269407546412358
67	0x3f89c2ee69c41500	0.012578833201141837
68	0xbfa57be873444e64	-0.041960968084961775
69	0xbfa8f66c9d8c8ed6	-0.048755068046629255
70	0x3f7b152651f0a58e	0.006611966789060187
71	0x3f74363a8ddd879a	0.004934529044335801
72	0x3fa58bb2b5500781	0.04208143676079513
73	0x3f874445f3ebd258	0.011360689646133057
74	0xbf93100100000000	-0.018615737557411194
75	0xbfa4d378411c96b0	-0.04067588610477679
76	0x3fada3d2c0000000	0.05789049714803696
77	0x3faef3f6187a87ae	0.06045502709208904
78	0xbfae342937629a45	-0.058991706858524874
79	0x3f7ddec3ffb776fc	0.007292523976017536
80	0x3f9df3554ca8a008	0.029248554996371495
81	0xbf93caa4f75210ee	-0.019327714534043965
82	0xbf92a1a980000000	-0.018194817006587982
83	0x3fae4bca7e487d81	0.059171989360261364
84	0x3f879f38d5391f4f	0.011534160620740556
85	0xbf9a16f6081bf187	-0.025478214497512332
86	0xbf765785e0ebb6f3	-0.005454562152164877
87	0x3f912f4e72efb52c	0.01678202225223406
88	0x3fa044c6d64c0e69	0.03177472463542303
89	0xbfacdba86d1bf6f9	-0.05636335689449185
90	0x3faefb53c498b465	0.06051122450694705
91	0xbf90a272e455bcc3	-0.016244692980248453
92	0xbf90e076f3f3118d	-0.016481264724249867
93	0x3fa15ece1c780a1d	0.03392643067856602
94	0xbfaa3adfac078c02	-0.051230420827572246
95	0x3fa7b98e9ea3b5a3	0.04633756338612762
96	0x3f68d5e54af1f10d	0.003031680905733697
97	0xbf8a0ce061efc465	-0.012719872463977386
98	0xbf671e7e15e5afaa	-0.002822157154858081
99	0xbf90f0f380000000	-0.016544155776500702
100	0x3fa7dd2e57e7e48a	0.04660935233182169
101	0x3f9e84ab469f0787	0.029802967248322012
102	0xbf911052858b6fa7	-0.016663827324790905
103	0xbf9c1fa3891562a6	-0.027464442483820982
104	0x3f8ff9438dbab620	0.015612151873337032
105	0x3fab0ebcae95245b	0.05284680968413432
106	0x3f743eea00000000	0.004942812025547028
107	0xbf944d5748c0090b	-0.019826282325092353
108	0x3fa95e6f38d3939f	0.049548602759194475
109	0x3f990bebf4e3df6e	0.024459540197283962
110	0x3f8dba13a9759d85	0.014515069588653126
111	0x3fa173577776557e	0.03408311208037683
112	0x3f91c5c77762872f	0.017356030141520037
113	0x3fa2fa111f2266df	0.03706410889681221
114	0xbf923ba880000000	-0.01780570298433304
115	0x3fa7097bc9d65b6b	0.04499422873339295
116	0x3f9e95a660a7de1e	0.029867744111440435
117	0x3faa5ec131746b37	0.05150417069145024
118	0x3fa7a16b2a1518be	0.046153401267063895
119	0x3fa057951607f73f	0.031918200435014026
120	0xbf984e83b11e777b	-0.023737008748518456
121	0xbf9b710b4b96d615	-0.02679841660365952
122	0x3faa1539c0000000	0.05094318836927414
123	0xbfa6c4901df8defd	-0.04446840635176661
124	0x3fa124efcad6ab92	0.03348492957169137
125	0xbf759778ff2af335	-0.005271408694792969
126	0xbfa23c201b87e3ce	-0.03561497055120065
127	0x3f81f0b6c7a1ea63	0.00875990673761357
128	0x3fa099b600000000	0.03242272138595581
129	0xbfadd06b914bb2dc	-0.05823074482564092
130	0x3fa724eaacfbf8f5	0.0452035270845829
131	0x3fa62dfd2c64d55a	0.04331961790959822
132	0x3f59b9e88139ebf3	0.0015702028803434825
133	0x3f8aac9700000000	0.013024501502513885
134	0x3fabbc2900000000	0.054169923067092896
135	0x3fa26feb5efcbccb	0.036010127396701806
136	0x3f99d6dd91009bd6	0.025233709311716833
137	0x3fae6dac4c82353e	0.059430488910133125
138	0x3fa3d276128e07a3	0.03871506668566773
139	0xbf9e5e75fe1a7a0e	-0.029657214769594424
140	0xbfa7bec2d0a35e2d	-0.04637726590015876
141	0x3f57186c584a2f09	0.0014096315436828452
142	0x3f73d3c0b7b5bda4	0.004840615084830278
143	0xbf7d74eba99555bd	-0.007191582256685644
144	0x3f85196792ec3db5	0.01030236165163854
145	0xbfab2948b267dbe6	-0.053049346712150044
146	0x3f97be72deadc523	0.02318744167445631
147	0x3fa52b53ec547860	0.041346190070030486
148	0x3facaf6ecc1f2bbe	0.05602594606133192
149	0xbf85d0653d274de0	-0.010651389054067317
150	0x3f9565d4051debfc	0.020896256267842958
151	0xbfa8d377ea88bb8e	-0.048488376025822
152	0xbfab12c16b0f55fc	-0.05287746841319671
153	0xbfa8662dd94bd98e	-0.04765456464331229
154	0x3f74cfec4e18247f	0.005081103388428264
155	0x3fa9e7dd6a8d76bf	0.050597113854320856
156	0x3f817d4bd3fce76b	0.008539764792306411
157	0xbfa9951300000000	-0.049965471029281616
158	0x3fa070acd91e2a1f	0.03210964346279276
159	0xbfa459ecbde6279f	-0.03974857156852284
160	0x3f91c51af3afb35f	0.017353459475930474
161	0x3f494dddb1dbf4b1	0.0007722218030889097
162	0x3f9ca06d571650b0	0.027955730858210515
163	0xbfa63387b40fd382	-0.04336189339657094
164	0x3f78f7373025eb36	0.006095138147766124
165	0xbfa167e0fbdd3912	-0.033995657677779914
166	0x3f945e8710873675	0.019891844161796308
167	0xbfa84ee109f78803	-0.04747679945627683
168	0x3fa459da2da4e71c	0.03974801833324035
169	0xbf9e286256ad614d	-0.029450928249702902
170	0x3faca86426e951d8	0.055972223043372515
171	0x3f85d38c0eacea98	0.01065740031991895
172	0x3f98d0058549f75b	0.024231039295492845
173	0x3faaef9372f65e19	0.05260906961774143
174	0x3f92b82a6a9c1581	0.01828066135114659
175	0xbf926fcb277cffcc	-0.01800458363072703
176	0x3fab7d637a0bbba3	0.053691013954327425
177	0x3fae79a1fe0479ac	0.059521734483712535
178	0x3fac3ac05505ca26	0.05513573682664612
179	0x3f5cdf9745745633	0.0017622926005221972
180	0x3f95f1154f2ccf04	0.021427472073994216
181	0xbf9385cb8fcc0dc1	-0.019065075542142432
182	0x3f5efea83eab009e	0.0018917696967691087
183	0xbf9ebdf400000000	-0.030021488666534424
184	0xbf9dd1dc955812b9	-0.02912087117694526
185	0x3fac1311712f57d0	0.05483297831203482
186	0xbf98c56480000000	-0.024190492928028107
187	0xbf9c97a4cca3050f	-0.027922224988974394
188	0xbfa7f6f1363f6bb1	-0.046805894729650695
189	0x3f91b3bddd277d40	0.017287222502884392
190	0x3f802c3500000000	0.007896818220615387
191	0x3fa25c3f39daa4eb	0.035860038578286645
192	0x3fa44c0480000000	0.039642468094825745
193	0x3fada60419f903c2	0.05790722672509886
194	0xbfa8bd37696bbdff	-0.04831860696674183
195	0xbfa3e3fa0b0768b7	-0.038848699423128456
196	0x3f6783b15eecf903	0.0028704132340912083
197	0xbfa2642c638b4017	-0.03592051234375065
198	0x3fac921e185b97a9	0.055802288506853266
199	0xbf89b611f340e009	-0.012554302440648273
200	0xbfa28144dc27c3e1	-0.03614249408190751
201	0xbf7651edbe53ca91	-0.005449227033056518
202	0xbfa9fc8e7ae0e345	-0.050754978656590434
203	0xbfaefc11153a622e	-0.0605168665326271
204	0x3f9c2bf1d6281460	0.02751138562782207
205	0xbfa9cafe37eda547	-0.05037683899611039
206	0xbfa5e744c275bfe0	-0.042780064332759826
207	0x3fa28fe1c0000000	0.03625398129224777
208	0x3f7b791a9bee3ed5	0.006707290593922462
209	0xbf9b33fdcfd46633	-0.026565519151608718
210	0xbf792b45760a378a	-0.006144782383342826
211	0x3fa618778bfbb031	0.043155418241298434
212	0xbf85938ae3024b21	-0.010535321285976064
213	0xbf70d49dd2be2567	-0.004109016892365736
214	0xbf8db4ff742647cd	-0.014505382282354784
215	0xbf538d9b32ebd081	-0.0011934295286524512
216	0x3faab6eaf6e90228	0.05217680229225535
217	0xbfab82486b439b50	-0.05372835454345781
218	0x3f8d5c3edb1d148e	0.014336100637260676
219	0x3f9c992d6836f32e	0.02792807529998525
220	0xbf9ecbd0ac529705	-0.030074368016946646
221	0xbfafd2897230c9ab	-0.06215314406326241
222	0x3f91b55f0f061689	0.01729343918989071
223	0xbfae8ad84d624d90	-0.05965305275563104
224	0x3fa78725b5482e48	0.04595296705164437
225	0x3fa576aeb05f168b	0.04192109969112064
226	0xbf9f8f4fbfcf5430	-0.030820127565523048
227	0xbf86c756ce438213	-0.01112239663092488
228	0x3fae40473cb84808	0.0590841542836103
229	0x3f98c030dde894f1	0.024170650047513346
230	0x3facd3ba868a57ac	0.05630286114062186
231	0xbfa03e7f2101df15	-0.03172681119843738
232	0x3f6073894a864bfd	0.002008216997816613
233	0x3f8b74811fbac2e5	0.0134058082397543
234	0x3faea7602b3dcf4a	0.059870724943634615
235	0x3f893589956de963	0.012309145806047089
236	0xbf95727ab8786b72	-0.02094451666753678
237	0xbf9ba73223e209f9	-0.027004989090082508
238	0xbfa9656000000000	-0.04960155487060547
239	0x3f823c1763da5b96	0.008903677687426097
240	0xbfa6a553e3d391cc	-0.04423010021290316
241	0x3f9128d77667a208	0.016757361032349066
242	0xbf9d9291e64359cb	-0.028879432372230156
243	0x3facae911e062648	0.056019339480439856
244	0x3f5f641756b0e9b4	0.0019159534374596334
245	0x3f72f3f919134885	0.004627202071065044
246	0xbf712cefcaf147a6	-0.004193245592505257
247	0x3fad7a25c0000000	0.057572536170482635
248	0x3f6a3c817865581c	0.0032026795117117268
249	0xbfab525f5a465fbb	-0.05336282708157066
250	0x3fa07b49af1d3f52	0.032190611482859524
251	0x3f7bb981523e71c5	0.0067687083827902604
252	0xbf9f06a300000000	-0.030298754572868347
253	0x3fa652a34470189a	0.04359922609732898
254	0xbfa2c50049a8e932	-0.036659249297786536
255	0xbfa2060ddfe182a9	-0.03520243986054556

layer1.bias f8 [256]
0	0x3fa6026ac13b8771	0.042987190330463394
1	0x3fa6d4dd12d375d8	0.0445927701455095
2	0x3fa4e59a3cde5fda	0.04081422799134744
3	0xbf771555c9ad1546	-0.0056355811200934965
4	0xbf98538c50e4ad14	-0.02375621074422181
5	0x3f89be839ff1ba43	0.01257040817128286
6	0xbfaf4146e6146cee	-0.061044898591910854
7	0xbf93d78273c5a245	-0.01937679130188232
8	0x3fad090c00000000	0.0567096471786499
9	0xbf98d4c24c60f97a	-0.02424911109141579
10	0x3f88de5daffca4b6	0.012142879422372448
11	0x3f9e22abd636f146	0.029429135274527306
12	0x3f8c3b4c06b542cf	0.013784975008691273
13	0xbf93700b4b062ee6	-0.018982101873503597
14	0x3f8cbf66769cbdfb	0.014036942000159583
15	0xbf8afa13f51017c6	-0.013172298351502475
16	0xbfa14aed3d42845d	-0.033774770477301465
17	0x3f8f1ab58e01eadb	0.015187662502503077
18	0xbf77a2f4cf92afad	-0.0057706416056752365
19	0xbf89473102b24b62	-0.012342818159856331
20	0xbfa8a4efc0000000	-0.04813336580991745
21	0x3f9285ef80000000	0.01808904856443405
22	0x3fa30c6cae6e00ef	0.037204166691482736
23	0xbfa3cbbb00000000	-0.03866371512413025
24	0xbfa93b834095f942	-0.04928217090035726
25	0x3fae3dc3af68d663	0.05906497493962772
26	0xbf796d4a9d824ce3	-0.006207744089027775
27	0xbf6fd88c00000000	-0.0038874372839927673
28	0x3f9dbfec4ebff812	0.029052440935622377
29	0xbfa87a6800000000	-0.04780888557434082
30	0xbfa6e939168d4206	-0.044748100283531086
31	0xbfa2ce29a6390fa0	-0.03672914651954717
32	0x3f5b70a000000000	0.0016748011112213135
33	0x3fa23552e5c0c376	0.03556307844735944
34	0xbfad3a6ac20dbf2b	-0.05708631151980933
35	0xbfa2a864c3839609	-0.036440991274314945
36	0xbf9ee1ed6a68fd7e	-0.030158719653852632
37	0x3f8204a8018bb173	0.008797943637056637
38	0xbfab57937f6d2346	-0.05340252809998573
39	0xbf9938831cac647d	-0.024629639268003423
40	0xbfa41d98402b8a2a	-0.03928828986478934
41	0xbfaa795fd300aab6	-0.05170726252284423
42	0x3f8ec2a0a43ea5c2	0.015019660007811523
43	0x3fae88dc8497a6c9	0.059637919602960894
44	0xbf6c7546fe3dcf71	-0.0034738909325202007
45	0xbfa87417d3eb9316	-0.04776071988979973
46	0xbf9a771c5a8904fa	-0.0258449964769669
47	0x3fa762bcf4f66893	0.04567518701806352
48	0x3fafe2f7c111536c	0.062278501813728265
49	0xbfaeba9940000000	-0.060017384588718414
50	0x3f9127d000000000	0.016753435134887695
51	0xbf5a47eda8a1bead	-0.0016040631185453666
52	0xbfa306115f35639d	-0.03715566909040222
53	0x3f921d881dab7c99	0.017690779505639218
54	0xbfa19086c0000000	-0.03430577367544174
55	0x3fa70b8ac884244c	0.045009934403488744
56	0x3f9c3d5280000000	0.027577675879001617
57	0xbf2b3f0eeeb7afa0	-0.00020787293702484184
58	0x3fac19ecba2fbca5	0.05488528988632283
59	0xbfa0db74615bc692	-0.03292430580576168
60	0xbf8f567c24b33f0e	-0.015301675672531736
61	0xbf930e3d00000000	-0.018609002232551575
62	0x3f8fcd74f4d29808	0.015528596612352188
63	0xbfa4924097f3dd7b	-0.04017831663980594
64	0x3f67d58c00000000	0.002909444272518158
65	0xbf9074fae4674148	-0.01607124346793512
66	0xbfa8afe8e961b354	-0.048217085350961725
67	0x3fa586ae16fe8091	0.042043152148154246
68	0xbf9f2dabccc61042	-0.030447658894914527
69	0xbfaddae24c03f5d1	-0.05831057718203748
70	0xbf74f7c46186f389	-0.005119101632257713
71	0x3f9fd76ae28662d1	0.03109519012068313
72	0x3f789e8f73783128	0.006010589938807244
73	0xbfa77b725cf20511	-0.045863698812363414
74	0x3f8f387c0977d2b0	0.01524445442098829
75	0x3f9ac4c561d724d5	0.02614124688787885
76	0x3fa632391e5ec4c7	0.04335192199449405
77	0x3fa84a144a85d2cc	0.04744017991734992
78	0xbfa8c059b2815071	-0.04834251693742509
79	0xbf99aa9b079c89b3	-0.025064871158187518
80	0xbf8e7395c3a84ea2	-0.014868898423663627
81	0x3fa519508c81460e	0.04120876040600417
82	0x3f8031cb9e8d51bd	0.007907477165340343
83	0x3fa70e2ca826a01a	0.04503001740096142
84	0xbfaa2fd4c0000000	-0.05114617198705673
85	0x3fa0871a6e299257	0.032280755946690824
86	0x3f8c3627667d76ec	0.013775165381669528
87	0xbf7b650200000000	-0.006688125431537628
88	0x3fa78a9ccd65a900	0.04597940451897564
89	0x3fa912e1aaab58a6	0.04897217949262371
90	0xbf9dbb7516717d19	-0.02903540563090443
91	0xbf93ab9874eaef96	-0.01920927251443024
92	0xbf898dce90e04414	-0.012477506443277199
93	0xbf8f2b4bdefa3cee	-0.015219300024254836
94	0xbf973b9da8ed71a7	-0.022688353953854847
95	0x3f828bb9497d634f	0.009055564456205948
96	0xbf92258c80000000	-0.01772136241197586
97	0x3fad985abfbd0290	0.05780299749904316
98	0x3fa41bb18afe28ae	0.03927378484429887
99	0x3f93a00180000000	0.01916506141424179
100	0xbf71a0a8ff0b4998	-0.0043036080757751435
101	0xbf83d10200000000	-0.009675994515419006
102	0xbfaa0802ce9c96fe	-0.050842368813659874
103	0x3fa7e7bb51c13643	0.046689847688508944
104	0xbfacb4c4bbdd9a81	-0.05606665414125179
105	0x3fa5bd20a5686e32	0.04245855349674023
106	0x3f959278e97b8319	0.021066560030592905
107	0xbfa3ce77800bc2d2	-0.03868459165631112
108	0xbfa420c9021e96fb	-0.039312631138541186
109	0xbf99c63200000000	-0.025170117616653442
110	0xbf976a1945472509	-0.022865671971691124
111	0x3f72c905234835cd	0.004586238927470854
112	0x3fa528573f127814	0.04132340092586176
113	0xbfa2a81300000000	-0.036438554525375366
114	0xbf9719025e9edce4	-0.02255634024160437
115	0x3fa1307e72e39004	0.03357310440495101
116	0x3fa284d498472470	0.0361696658979519
117	0x3fa3318000000000	0.037487030029296875
118	0x3fb0045ed9a2f084	0.06256668866530118
119	0xbfb0715d585de963	-0.06422980697053542
120	0xbf94aeba83ebc647	-0.020197786619013305
121	0x3f7ef58800000000	0.007558375597000122
122	0x3fa3a0b8814bbe18	0.03833557680433958
123	0x3f7d1748b4487f6a	0.007102283478644592
124	0x3fa19f5b08337dd6	0.03441891169654425
125	0x3fa23e9ad8694115	0.0356338872121588
126	0xbf90c9e7df38a30a	-0.01639520931181252
127	0xbfa275804b068695	-0.03605271259153856
128	0xbf97b4065b623eb8	-0.023147677734015132
129	0x3f885b1600000000	0.01189248263835907
130	0xbf806ad1e7729a73	-0.008016242862436606
131	0x3f9fbd0f7e51e64d	0.030994646153408124
132	0xbfab42a99708df83	-0.05324296921429463
133	0x3f8e2b058e5986b1	0.01473049488703579
134	0x3faeaf0aabb4286b	0.05992921205513898
135	0x3f80bab1cca45a28	0.008168591554334872
136	0x3fa5a7477a814987	0.04229186411307056
137	0x3f988958742060e7	0.023961431587026374
138	0xbf5cf589eabdc456	-0.0017675253720563964
139	0x3f8c354000000000	0.013773441314697266
140	0xbfad30fbb91953ab	-0.05701433786877116
141	0xbf8f6187bb544832	-0.015322742847761448
142	0xbf98ae6c861bf0f2	-0.02410287445580734
143	0xbfa41a447b757cee	-0.03926290518824681
144	0xbfac0afacf886888	-0.054771268685912367
145	0xbfac760859ab558f	-0.055588017412144024
146	0xbf960cc71d510d5d	-0.02153311840471638
147	0x3f2c9a6658898848	0.00021822451914760483
148	0xbfae83a4c0000000	-0.05959811061620712
149	0x3fa5e94fdbb55a31	0.04279565388667484
150	0xbf801ab100000000	-0.00786340981721878
151	0x3f74f48163b741f1	0.005115991046708222
152	0x3fa3759700000000	0.03800651431083679
153	0xbf90791066cc9f9a	-0.016086822771427124
154	0xbf9a9b2fb3d3ea22	-0.025982613898103087
155	0x3f8c850d3b44fa22	0.013925650950679606
156	0xbfab8ffb00000000	-0.05383285880088806
157	0x3fadf5ef33dcd3d1	0.058516955452809
158	0xbf8d1b641d1447d8	-0.014212400567462355
159	0xbf8d9e9b262d503a	-0.014462673285073991
160	0xbf9a64b03a3a9961	-0.02577472072030085
161	0x3f96582354924efa	0.021820594822727003
162	0xbfa9d7df74df0b03	-0.05047510434771676
163	0x3f82c4e500000000	0.009164609014987946
164	0xbf8c61156e8a53d1	-0.013857047496722704
165	0x3fa1e742c0000000	0.03496750444173813
166	0x3fac5069a59dbc84	0.055301000086609015
167	0x3f98dfb77ac28827	0.0242909115482989
168	0xbf80187f842c42cf	-0.00785922643766082
169	0x3f80e0f78fea2ebd	0.008241590575628671
170	0x3f9e3d61cf1de70c	0.029531029001623785
171	0x3faf3a2a01976441	0.06099063176561304
172	0x3fa4a6c0117dc623	0.04033470357434179
173	0x3fae62da5c313b61	0.059347938302940724
174	0x3fa44364806051ae	0.03957666461079455
175	0xbfaf4e4d2a99e9a2	-0.06114426751169623
176	0xbfa0471d9418c173	-0.031792568519793195
177	0xbfa4a2655bccd001	-0.04030148263555589
178	0x3fa353fac0000000	0.037750087678432465
179	0xbf468c901a8008c5	-0.0006881431227159443
180	0xbf9e21e7611805e6	-0.02942620782960672
181	0xbf91ef79e3468fe4	-0.017515091416171816
182	0x3f97e690b38ed762	0.023340474089955328
183	0xbfa111fc00000000	-0.03334033489227295
184	0xbfad399b80000000	-0.05708013474941254
185	0xbfad4e5d7c0d8f9d	-0.057238503831086286
186	0xbfa387fac8276f8e	-0.03814681714331335
187	0x3f92a388975e9a5b	0.018201956023086257
188	0xbfa8bc8b2fcb5110	-0.048313474258664724
189	0xbfa0addb0314b5f1	-0.03257641232117326
190	0xbfad36d453924dcc	-0.05705894012603671
191	0xbfac1cf5c0000000	-0.054908446967601776
192	0xbf60d3d800000000	-0.0020541399717330933
193	0x3fa3a315c05f42ea	0.038353614552425544
194	0xbf909aa280625a81	-0.016214884839963254
195	0xbfad68cf49902fa1	-0.05744025967587097
196	0xbf9a43a846e613d6	-0.02564871723872727
197	0xbf9ed72ffb59f2dc	-0.030117749897260335
198	0x3f9bbea37378f2d3	0.027094415591124865
199	0x3f5a7e1800000000	0.0016169771552085876
200	0x3f7b77a4a2f01e5a	0.006705897437320718
201	0xbf9dce625fa2d464	-0.02910760601726671
202	0xbf91baca3c83d73b	-0.017314109748404177
203	0xbfad93dca79e227d	-0.05776872202028913
204	0xbfa2f5db7f4f00c1	-0.03703199318943141
205	0xbf9735fdbede1604	-0.022666897558812252
206	0xbf927adc1be51eae	-0.018046797945571562
207	0x3f9da36e0aaac8e3	0.028943747902936755
208	0xbf72f4b400000000	-0.004627898335456848
209	0x3f834cb1c718a13d	0.009423626793321755
210	0xbfa272c98d623093	-0.03603200770257433
211	0x3fa7054dff2e21b9	0.04496234645836545
212	0x3f950b2200000000	0.020550280809402466
213	0xbfaec666811c1573	-0.06010742498441859
214	0x3f69b111a17dd72e	0.0031361908294752694
215	0x3fac90123e05ce18	0.055786676474692765
216	0x3f9d7a305e80e8a3	0.028786426322974134
217	0xbfae66e8e82e373b	-0.059378889410352596
218	0x3fa994e41e6f629b	0.049964073863241164
219	0xbf4241e51404aada	-0.0005571716829185461
220	0xbfa21585b7e9ed0e	-0.035320452404414934
221	0xbfae6de80b2979ed	-0.05943226944212996
222	0xbfa4f7c95680460b	-0.040952960786068436
223	0xbfafbbc3a4f49c52	-0.061979402433558164
224	0xbfaec3373a1d830e	-0.06008312782683421
225	0x3fa2371022d93c47	0.035576347593285144
226	0x3f714bf18d11ee81	0.004222816046531742
227	0xbf703482fcd1a6b4	-0.003956329031191853
228	0x3fad6d8c80000000	0.05747641623020172
229	0xbfad8dd871a68e82	-0.057722820161214564
230	0xbfaaf128646d31f8	-0.052621137866115164
231	0xbfa4a609c0000000	-0.04032927006483078
232	0x3faaf0c5a44cad80	0.05261819487199215
233	0xbfa62212a73c6561	-0.04322870532468915
234	0xbf9651cf3fc50e39	-0.021796453730770635
235	0xbf9215c728bf454c	-0.017661201345452057
236	0xbfa315e03318b593	-0.037276273953788984
237	0x3f6546453268a1a5	0.0025969840528612003
238	0x3fa13eee40000000	0.03368324786424637
239	0x3fa5691ba0e18044	0.04181753481748321
240	0x3f9595bf62c7eb88	0.021079054264173475
241	0xbf654d04af6b3936	-0.0026002017506022946
242	0x3fa647a63bf46748	0.04351539117688091
243	0xbfae921200000000	-0.05970817804336548
244	0xbf79948748d29c28	-0.006245163397728105
245	0x3fadc11180000000	0.058113619685173035
246	0x3f944b96080ab18f	0.01981958793719368
247	0xbfa9955169a1f0bf	-0.04996733107052042
248	0x3facc4413b1a6ef8	0.05618480535960474
249	0x3fab66b6c0000000	0.05351801961660385
250	0x3f91653113c5a9d0	0.01698757823161562
251	0x3fa6379500000000	0.04339280724525452
252	0xbfadbba4de7a224b	-0.05807223525795687
253	0x3fa937ef493be8b3	0.04925487297983135
254	0xbfa19d9796678e57	-0.03440545760147689
255	0xbf9ca7b2919e893e	-0.02798346532620965
