python/snapshots/without_speed/snapshot1600.pt (torch_old, 584819 bytes, 6 tensors)

layer0.weight f8 [256, 18]
00000000: 87ea e126 ce40 c6bf 6878 4e2a 38c0 733f
00000010: 9980 9839 0e4c c7bf 60a0 3c5c 71b8 cabf
00000020: e09e 812b 1988 b63f 63cf c095 4882 c53f
00000030: e09e 812b 385e b63f 8ec0 4ac7 0505 ab3f
00000040: 1d59 27cc f546 cbbf f02e b356 b834 c23f
00000050: 1f35 9c57 11b8 8d3f ba16 a5d4 5f3b af3f
00000060: e42f 44e8 c5c5 c8bf 63cf c0d5 7b39 c03f
00000070: 747a bc67 f660 9a3f 580c 1a31 00fd b9bf
00000080: e988 fa81 3565 a53f c048 5330 53fd c0bf
00000090: eb7c 7eb3 c8d1 a33f 94b3 7fbe c22b ab3f
000000a0: c7ae 7043 6cbd a4bf 750e 1930 dcce cebf
000000b0: 9ea3 3c38 3cfa 6abf 86c4 9542 f3b4 c93f
000000c0: 9049 6949 0a44 a7bf ebfc 8c02 25cb c9bf
000000d0: e55b b6ac 4b3d c63f d68c fd2f 3da2 a33f
000000e0: 945a 72f7 d433 c7bf 7205 1850 3acf 9d3f
000000f0: 7ff5 f11b 0040 c3bf 8179 10a4 74eb a33f
00000100: ea0e 7c8b 71ef c8bf 06fd 216b 9f5d c3bf
00000110: eecd b467 e11d 9ebf 11e9 b212 9a9f c43f
00000120: 0000 0000 ae45 b4bf 0000 0000 4c6c 97bf
00000130: 0000 0000 f462 ccbf 0000 0000 a04a 433f
00000140: 0000 0080 5545 c1bf 0000 0060 cc45 c8bf
00000150: 0000 00a0 b92d c3bf 0000 0060 5c8a c4bf
00000160: 0000 00e0 e3af c1bf 0000 0060 392d c3bf
00000170: 0000 0020 d948 cd3f 0000 0040 559f b4bf
00000180: 0000 0040 6701 b03f 0000 0080 d1b9 ad3f
00000190: 0000 0000 895e 983f 0000 0080 3d78 afbf
000001a0: 0000 0040 73c1 bf3f 0000 0080 2292 cbbf
000001b0: 5aac 04a7 7361 b63f aabe 8c1f 19c9 c43f
000001c0: baa6 2a95 f5f3 c7bf d4c8 00b7 da5f a33f
000001d0: 5541 2de7 df3a 653f 7a77 cb31 58f3 c83f
000001e0: fc0a 3a30 e84d bf3f ac16 4bda 8778 c63f
000001f0: a9c8 7b4c 8fd4 96bf 8143 5916 b17d cd3f
00000200: 741f eb54 f34b c2bf 9838 9c47 355b b53f
00000210: 470d 3141 a630 cabf 2925 f19c 2115 c0bf
00000220: 1987 1331 d8da ad3f ca1d 3bf2 1bfc af3f
00000230: 189c 1f7e 6331 7d3f 88f2 c89a 02b2 44bf
00000240: bb33 48de 51eb be3f 7836 b595 c8cb 82bf
00000250: d9f8 44bd 83ef c6bf a99e 9168 990d ca3f
00000260: c4a4 ee4f 2ef1 c33f 89d4 d48a 4c5b ac3f
00000270: 960f 184e 7c80 bb3f fb56 c564 40cd c0bf
00000280: bec2 d6b2 a032 c63f 2415 b898 aa86 bb3f
00000290: 860f 1278 a3bb b8bf 935d c7ee e5dc c33f
000002a0: c3f6 c5ee 430c a93f 4805 0128 41d8 c43f
000002b0: 2c80 7f9a d0c5 c33f 90de 43b8 86cc cabf
000002c0: 9467 5c67 542a bebf 0bf8 1900 b929 b03f
000002d0: 3f06 bb85 e20b c03f 7be3 fcfb 8782 cb3f
000002e0: 46e7 3207 5d3d 9fbf 785a 4d54 7ebe cbbf
000002f0: c023 e4d6 73e5 bbbf b0ca b618 2024 b13f
00000300: a742 9baf 67b0 cdbf a625 de53 b042 bdbf
00000310: adf0 f5df 395e ba3f c560 d190 f2cb c8bf
00000320: d2b9 dcfc 382b c93f 6c41 0e31 2db4 bcbf
00000330: 3560 00fd a0de 9a3f 69fc e401 19e4 c1bf
00000340: 9877 04d6 06cc babf fe8f 8263 0fe7 b6bf
00000350: b788 f6c8 63f6 bf3f 9eae b72a b802 ae3f
00000360: 7262 0202 ddf8 b93f d418 8f9e 7169 cd3f
00000370: 6823 0189 cfa0 9cbf 3c89 c64e 8850 c5bf
00000380: 2fef 5388 3977 bb3f 37f1 5daf 1370 b53f
00000390: d602 a418 7b32 a5bf 3452 cefa 585f c9bf
000003a0: 9c5c d8df 680f cd3f 182b 8a1e def3 c4bf
000003b0: 326c ac93 ccfc bc3f 79a0 b9cb b582 b13f
000003c0: d90c 0f9b 53f1 9dbf 028d 3d76 80e7 84bf
000003d0: 7999 4c5f 2538 c83f 3a63 3a85 71cb c53f
000003e0: 00f3 3b5b 9032 933f 4d21 7e59 7948 c4bf
000003f0: a3f1 8413 7b21 c9bf 9ebc 6086 d108 c3bf
00000400: e983 b4d4 6c07 b0bf 76f1 aaae fb4b b0bf
00000410: b726 77cb 7e17 a6bf f548 ae92 6e2d c03f
00000420: bb8e a7e0 fa7f 903f 5a2f ec46 ca70 a13f
00000430: 2e7f 6187 4bcd c33f d1c2 d593 426b 7fbf
00000440: 7d28 d9b1 6ee8 ca3f a7c6 1130 c65d b43f
00000450: 929f 8d89 6b39 96bf 8f60 937b ffac c23f
00000460: 3bea 0fed 4050 adbf 4528 7281 2e75 c93f
00000470: 8388 912f 02f3 cdbf 1bb5 d688 a7c1 c33f
00000480: dcc6 254b f231 953f 3de8 8ade d054 b63f
00000490: 2601 b648 476a cbbf 3100 ec89 a419 b1bf
000004a0: 4c2e c6be 8148 c83f 171b 8861 dfac 913f
000004b0: 305d bae4 7e22 c7bf 2a39 3df3 300e afbf
000004c0: 9b3c dc1f 77de c2bf 0f0b 2c91 b18e ae3f
000004d0: ff0c da2f 3db2 c73f e36b 68bf 036e a6bf
000004e0: 3488 0274 9583 c1bf ff50 b9e7 552d c93f
000004f0: 823e 04f5 55c5 c8bf 53f6 12bf dc74 b73f
00000500: 3995 6873 6f54 c33f 5ee6 04bc 5b66 cdbf
00000510: 2c03 b35f f629 c33f 7fb8 504e e0d6 c93f
00000520: f334 4599 03fb ccbf 8c73 5c93 14f3 c93f
00000530: 8e3c 3c8d a189 a93f 495c 6300 6231 b9bf
00000540: 39df 4e25 1833 cc3f 9f90 7517 0e51 c1bf
00000550: 541d 5bb0 2148 923f 867d 3670 2c25 be3f
00000560: 099d 2f99 c09b cabf 4974 1cbe 3e7b 7b3f
00000570: b36e e212 8b5e cabf 2014 c617 ca0e c13f
00000580: 263a e1ae 1e90 b1bf aa53 19bb 850f 943f
00000590: 987d a55a 71e4 b33f dcd6 418c dfca b13f
000005a0: 0000 0060 9b97 bdbf 0000 0040 5d42 c1bf
000005b0: 0000 00a0 e3c7 cabf 0000 0000 8659 84bf
000005c0: 0000 0040 321f b6bf 0000 0000 d77d 9ebf
000005d0: 0000 0020 1c24 c53f 0000 0080 3bbf a33f
000005e0: 0000 0080 f3cc a13f 0000 0000 e6b7 8d3f
000005f0: 0000 00c0 0d1b b73f 0000 0000 e68b 813f
00000600: 0000 00c0 9ed5 b4bf 0000 00a0 0c67 c23f
00000610: 0000 0080 8135 ccbf 0000 0000 6195 933f
00000620: 0000 0000 5c22 713f 0000 00c0 fe76 ccbf
00000630: 332c caeb eb25 c3bf bb88 a39e e5e3 a63f
00000640: a66a 81cc 99ed 9cbf a2c5 1d25 4ba7 bcbf
00000650: 1295 37b6 9797 cb3f 6247 0342 1c06 c83f
00000660: 0c8c 8c31 5174 cd3f f255 3c66 65d5 a8bf
00000670: d943 8cd2 32a6 c2bf f8d4 aa98 ebed acbf
00000680: 99cc 5a8d 4619 c1bf fd21 cbf8 2406 c83f
00000690: 0122 d788 97b3 bcbf 6ff0 502d 5a99 b5bf
000006a0: 76cd c54b 32ed 923f fd2a 4f7d 7e76 793f
000006b0: dbe3 c932 eee2 b63f eb84 68ae 014e bebf
000006c0: 23f0 0a8c a520 b9bf 9374 35ae 2bf2 993f
000006d0: b5d9 6060 d38b bb3f 6438 eb3f 1837 933f
000006e0: f47d 6b47 f741 c2bf 5131 a239 7c4d c4bf
000006f0: 10c5 bcd0 bf0e c83f 55c7 99ee e5f1 be3f
00000700: 0ca3 c280 ae8c b4bf acf9 86fe c33f abbf
00000710: 20c3 eae3 9d81 963f 5f8a 684d 3aa2 b73f
00000720: 260e 3814 f38d cdbf e083 28b3 797c abbf
00000730: 2172 e69c 92c8 c83f 0ded e022 6118 c1bf
00000740: 5179 e3cc 2ec6 ab3f e8e8 78c3 345d 9d3f
00000750: 0000 0040 1f62 c4bf 0000 0080 0881 c2bf
00000760: 0000 0000 a805 6ebf 0000 0000 ba9e 88bf
00000770: 0000 0080 8ce7 c0bf 0000 0080 63f6 a03f
00000780: 0000 00c0 4d57 b13f 0000 00e0 0b5b c23f
00000790: 0000 0080 da8b c5bf 0000 0080 21bc b4bf
000007a0: 0000 0060 bd3f c03f 0000 0000 93c9 b8bf
000007b0: 0000 0000 2e73 c0bf 0000 0000 705a 8bbf
000007c0: 0000 0080 b749 bebf 0000 00c0 9a07 ccbf
000007d0: 0000 00c0 c673 b03f 0000 0020 2429 c7bf
000007e0: 2228 e2c9 2ac9 b3bf 7945 acc5 02d0 b13f
000007f0: 6f84 3eec ed99 bfbf 0113 bf1b 8b03 c33f
-0.1738527002197154 0.004821986575647676 -0.18200853168764722 -0.20875374797583657 0.08801419555822632 0.168038437959349 0.08737517416158935 0.05277269418491058
-0.21310303181116633 0.14223388894458067 0.014511237608099635 0.06099986525309249 -0.19353555527811672 0.12675426423231348 0.025760507661397772 -0.10151673506520476
0.04178778850224935 -0.13273086413989255 0.03870989981737146 0.05306824279237002 -0.040507682068292854 -0.24068786953477042 -0.0032931495824368292 0.2008346629259316
-0.045440980397546515 -0.20151198029086656 0.17374559338779175 0.03834716044254953 -0.18126928408010612 0.029110823763408296 -0.15039063801297556 0.038905758883845294
-0.19480723677417383 -0.1512946389302458 -0.02941086001847098 0.16112066185980514 -0.07918822765350342 -0.022874057292938232 -0.2217698097229004 0.000588729977607727
-0.1349284052848816 -0.18963007628917694 -0.14983291923999786 -0.16047243773937225 -0.13818024098873138 -0.14981763064861298 0.2287856489419937 -0.0805562287569046
0.06252141296863556 0.05805830657482147 0.023798123002052307 -0.06146423518657684 0.12404556572437286 -0.2153971791267395 0.08742449596017945 0.16238702812687694
-0.18713254722142897 0.037840685691109904 0.002591550169576499 0.19492628508936233 0.122282516264061 0.1755533042798353 -0.022295226138290634 0.2303983077167935
-0.14294282575996997 0.08342297552391853 -0.20460966284927393 -0.12564487612898148 0.05831027602267919 0.06247031528397036 0.0071271788055815785 -0.0006315720289147989
0.1207781951599846 -0.009177748745652567 -0.1791844057242489 0.20354001623058096 0.15579775717677624 0.055384056040943604 0.1074292841586256 -0.13126377983524393
0.17342003567093472 0.10752359608166678 -0.09661313706788918 0.15517877730483728 0.048921702286845135 0.1628495641071288 0.15447433036661218 -0.20936664578743036
-0.11783339999638393 0.06313663723446454 0.1253626969319601 0.21492099575132415 -0.030507520260221875 -0.21675089947048654 -0.10896991726271121 0.06695747950906639
-0.23194595407996596 -0.11429884002259047 0.10300027578154199 -0.19372398444352804 0.19663154932773225 -0.11212427566193178 0.026239886705383426 -0.13977348892692312
-0.10467570042643926 -0.08946319751208873 0.1248533597595579 0.0586144973893543 0.10145360278182539 0.22978039018761953 -0.027957194077575492 -0.16652015539609433
0.10728797510449505 0.08374140769405335 -0.041400763280767514 -0.1982222771299732 0.2270327656740151 -0.16369225016782063 0.11323240857420627 0.06840072845227664
-0.029240900363004172 -0.010207179649745605 0.18921343949586936 0.17027110104825188 0.01874757344102118 -0.1584617316223195 -0.19633425191012774 -0.1487066179410918
-0.06261329834934738 -0.06365941061353006 -0.04314800485333364 0.12638647234104608 0.016113204919647055 0.03406364551309933 0.15470260725396073 -0.007670650547297612
0.21021827396390683 0.07955588029451609 -0.021703415175039327 0.14590447935075132 -0.05725291150880137 0.19888860054590132 -0.23397853205375804 0.15434736424996562
0.020698343121188553 0.08723168786210152 -0.21418086099948502 -0.06679752700074527 0.1897127324594855 0.017261019065723717 -0.18074022453650107 -0.060655145351676445
-0.14741410308531475 0.059682415934750314 0.18512692295562513 -0.0438080950882165 -0.13682811893983315 0.19669603171008274 -0.1935222097749723 0.09162692704099955
0.15101426253492337 -0.22968622856733395 0.14971809075179843 0.20187000106801986 -0.2264103411093071 0.20273072429054328 0.049878166666638454 -0.09840977200961833
0.22030927488025911 -0.13528610368223767 0.01785328520670977 0.11775472392627337 -0.207878184125754 0.006709332550397803 -0.2060102312287789 0.13326383744075176
-0.06860534448171815 0.019590463204014398 0.07770451033638037 0.06950184988258051 -0.11559458822011948 -0.1348377764225006 -0.209225133061409 -0.0099363774061203
-0.08641351759433746 -0.029776915907859802 0.16516448557376862 0.03856836259365082 0.034766778349876404 0.01451091468334198 0.09025655686855316 0.00856761634349823
-0.0813845843076706 0.14376981556415558 -0.22038286924362183 0.019124522805213928 0.004183158278465271 -0.22238144278526306 -0.14959477437182186 0.04470746575840808
-0.028250125033404537 -0.11192769676360695 0.21556373975105508 0.18768647406846656 0.2301122180880103 -0.048503082971517744 -0.14569697647723848 -0.056502687822481634
-0.13358384992679787 0.18768751285666943 -0.11211535540417829 -0.08437121969558502 0.018482957720562486 0.006216520404403123 0.08940018405873167 -0.11837778575911144
-0.09815439862262614 0.025337870128499928 0.10760232069956184 0.018764857198043564 -0.14263812053012226 -0.15861466230524937 0.18795011226897218 0.12087857318127011
-0.08027163165628454 -0.053220867939205746 0.021978823696090832 0.09231914892056058 -0.23089445578817552 -0.05368404685965067 0.19362099324361373 -0.13355650141770817
0.05424638987618614 0.028675865584070787 -0.15924444794654846 -0.14456278085708618 -0.0036648064851760864 -0.012021496891975403 -0.13206630945205688 0.033129796385765076
0.06773839890956879 0.14340351521968842 -0.16833049058914185 -0.08099564909934998 0.12694518268108368 -0.09682577848434448 -0.12851500511169434 -0.01335608959197998
-0.11831232905387878 -0.21898207068443298 0.06426660716533661 -0.18094302713871002 -0.07728831700129082 0.06958024335860626 -0.12344252603226534 0.14854563574603932

layer0.bias f8 [256]
00000000: e09e 812b a31d bd3f 8487 dcc7 6697 96bf
00000010: 0000 0080 b1c6 a83f b83e ba1e fe4d c53f
00000020: 032f 695c 88ec 623f f960 34fc 2b3d 473f
00000030: 2638 f037 d2fc a53f 7c00 0f87 8fee c4bf
00000040: 3b92 a34d 1b5c 5ebf 70b4 009e a637 babf
00000050: 0000 0080 6dbe a83f 8eb9 063d 214a b33f
00000060: a5b1 96ff 6308 b2bf 0000 0040 c51a ba3f
00000070: 2341 e55f 8730 83bf ffff bca0 0552 c4bf
00000080: fbd3 baf3 2232 c6bf cf7e 9b5c 6fe4 c43f
00000090: b43b 500b 0e03 ad3f 0725 f3ac cdb6 8fbf
000000a0: 189d 67c1 2084 b3bf 1ec1 3256 0e03 c7bf
000000b0: c384 ecc6 16be 8d3f 4854 a978 9bd9 c53f
000000c0: 3a15 2cb3 e091 b4bf 6626 05b6 4862 a2bf
000000d0: fed0 60c3 8868 c5bf 4b22 6865 380c bdbf
000000e0: 7dd8 062b f64f c23f b367 ed4e e804 ac3f
000000f0: 7fc1 665a 5bef c6bf 9f85 3e7c 16eb c23f
00000100: 34cf f03a 52be ccbf dde7 145a 4013 cabf
00000110: 9cb6 b27c c098 b1bf d48b fa5e a44b c73f
00000120: bd7f 30c5 8170 cc3f 8ae0 5537 8092 cb3f
00000130: 6cf0 dfae 3a2e c63f 9c81 6d80 7dab c5bf
00000140: b8ec 0e2d 385b cd3f ef88 d99a a0c9 b2bf
00000150: 5b0c e026 555f c5bf 7125 e7f9 42a5 8e3f
00000160: 3f9b b965 1b5c b73f eaef 5cb0 bf0c bbbf
00000170: 62c7 5cfb 22cc cb3f 2511 679d f6cc cc3f
00000180: 22aa 4bc3 a199 cabf 0000 0040 4914 b13f
00000190: 2135 3414 e7ec c53f 2312 3a21 f947 ca3f
000001a0: b670 fe51 66ac a0bf ae30 5496 fd66 cabf
000001b0: 4eee f243 815e a93f ba0a e0f2 b2cc a23f
000001c0: 4095 86b8 86c5 b5bf 082b 1e5e 496d c6bf
000001d0: 7681 ea13 14b0 a7bf 3f03 8748 5290 c23f
000001e0: 9bfa 7532 ccd5 c83f 8926 fa93 678f 92bf
000001f0: 0000 0080 26b0 afbf 0000 00a0 0b4d ccbf
00000200: b031 63cf 1e39 c43f 1f5b 1af0 6ad9 cd3f
00000210: 6048 c10c 733a cb3f e8bf 8639 d191 ca3f
00000220: db81 183d 67ce 9bbf 2063 08ef 94e8 ca3f
00000230: ef4b 8597 c661 c03f 351b 4a88 56a2 c13f
00000240: ca59 962f 6edc 803f fc37 4a33 1f64 ca3f
00000250: 7bb9 812e d40f 81bf fc12 ea59 5978 bc3f
00000260: a642 8c26 a1a4 c3bf 2195 f306 546d b1bf
00000270: 5783 24a8 9db5 b7bf f93e 0838 2f72 ccbf
00000280: 2f61 859d b389 c5bf 371b 98b8 85fe c2bf
00000290: eef6 5e21 1e61 c8bf 3501 6455 a368 b1bf
000002a0: 3da7 6c6a c743 c53f 59bf 2dda a24d ce3f
000002b0: 0b52 ec65 8a86 cdbf 573e 279f 80d3 c3bf
000002c0: 8ff7 4e41 6251 b1bf 2119 de3a 92fe c23f
000002d0: 1516 1111 7d07 bcbf 40aa 18c4 0dd4 c2bf
000002e0: 0215 0d5c 5f58 c73f 2e58 3609 6895 b7bf
000002f0: 1077 36ce 7a1e a5bf 0244 c3f9 836d c4bf
00000300: 9a27 aedc 8e9c c5bf 8060 eef8 8fcf c53f
00000310: 619b a3ee 41e9 cb3f 0350 f3c2 4e5a a4bf
00000320: 62d1 044e a10f b4bf ace4 9470 a86f c43f
00000330: b2dd 3426 8f3a cb3f 3fef 89fc 2a05 bf3f
00000340: 2c36 5144 88ab ccbf dcaf 3045 bc8d c53f
00000350: 0000 0020 aefd cbbf f054 b021 842b b93f
00000360: c823 9df2 4144 c6bf 726b 4c67 88e1 b1bf
00000370: e789 c913 3c87 b7bf 46f6 b831 d7fe 90bf
00000380: cd05 d55a c286 c53f 7e43 24b6 5fa5 c13f
00000390: 5b51 7aa2 5c4f cd3f 6b15 9769 9cee b43f
000003a0: fadc de62 5b9c aebf 9153 0b1b 02d9 b1bf
000003b0: 7b57 4f76 0538 c53f 25a8 0491 2c4e c7bf
000003c0: f503 4ab4 2af6 b9bf fbd9 b0c5 21f7 c43f
000003d0: 0000 0060 b4ee cc3f 19a5 220f cbd6 a3bf
000003e0: a18c 25a5 eb4d c9bf fa9e c988 5643 ce3f
000003f0: 0574 cd47 83d9 b93f dc9a de3d f303 c2bf
00000400: 0000 00c0 4a92 b13f 08a5 0d6d 3780 c63f
00000410: 976b 7c96 a0eb adbf 65b3 94b9 2066 903f
00000420: 5aa7 8331 04c7 ca3f 0000 0080 3333 a6bf
00000430: 0000 0040 e996 c8bf e144 40f8 da28 c3bf
00000440: 2c13 d54e 1a36 be3f df21 e2fd a8af bbbf
00000450: 0102 7d04 9395 b43f 7fce 8309 e038 c33f
00000460: 05f8 b4a9 2951 c0bf 1b1c 4c9e df23 bebf
00000470: dd74 f887 7633 a13f 6b5c 5dd6 a398 b1bf
00000480: fa5f 8d29 dd55 cdbf 42bb 5440 fdb0 b0bf
00000490: 567d b790 704c 6abf c52f 4ff8 15c1 cbbf
000004a0: eed3 e88e b580 ce3f 5481 6c04 2fb4 bebf
000004b0: 851a ffba 2117 9a3f e7c2 71a2 4bc9 abbf
000004c0: e76a 1c08 e4e5 cebf a8c8 547b b414 bc3f
000004d0: 6ed9 3487 b7e6 cc3f f4a4 5b3a be44 a83f
000004e0: fbb4 1816 b8f1 c53f 0000 0080 8de8 c5bf
000004f0: 7cf0 c3a7 8a42 c43f cd5e 92c9 f27e cdbf
00000500: 42f2 e0cc 2fde c93f d0b8 0c2b 419c c0bf
00000510: 6de4 9ddf 65cb c13f 0d49 039f 1fcf b23f
00000520: 3bc6 cca0 1083 c13f c3f7 2ec4 6949 c23f
00000530: a2f3 fa73 b914 b9bf c0d5 28cc dfa2 b23f
00000540: 6637 732c b3e2 cd3f 8d74 8abc c5fd b13f
00000550: 7c67 84bf 5623 a5bf d17d bab6 d743 c4bf
00000560: 4901 c33a de15 c13f dcc8 e066 cda2 bd3f
00000570: 67a8 3cea 5edb a2bf cf37 892d 1c1f c63f
00000580: fb4a d031 bc33 a73f 56bd 62ac 03ee b6bf
00000590: 269b c8d9 995f 923f 612a 96b3 4592 b1bf
000005a0: 353b b626 f3c9 b03f 555f c74a f5c1 c83f
000005b0: 9d51 4403 51b5 c83f 0000 00e0 61ff c3bf
000005c0: f5a8 15e4 8b5c cdbf fdd9 dd41 2133 a13f
000005d0: 0000 0000 8fb7 c1bf 7cb2 9bff 4d3f 9bbf
000005e0: e592 0d01 0373 c8bf e5d7 049b 0dd7 c63f
000005f0: 69f7 55e1 d8b0 bbbf 6674 2346 463b b6bf
00000600: b213 161e 7ecc b33f 47c7 13a4 8752 76bf
00000610: bb2a f2b7 f6a2 c4bf fd97 0fa6 4a13 a8bf
00000620: 26a7 7b90 f759 873f 838a a4d1 0a80 bbbf
00000630: 01d8 a802 7555 c8bf d479 ee71 f7a8 8a3f
00000640: 48a8 67c1 e487 c4bf f751 c10a 4db7 c2bf
00000650: 1b25 6d5f 2d56 953f b3ac 929d 7368 ba3f
00000660: 9a59 c348 b14d b43f 1902 1868 bd7b bbbf
00000670: 2aa3 7b2f 8b2c c23f 0000 0000 51a9 993f
00000680: a096 47fd 5d81 c83f f41c f48e fcb9 c83f
00000690: cfc3 afef 768d c5bf f054 a131 72b3 c03f
000006a0: bb88 f06b 8ff5 c13f 5a31 6370 9ac7 a6bf
000006b0: f915 5cc0 51bf 5e3f fd6f 5fe3 289e bcbf
000006c0: 4db7 9bd0 229f b83f e091 de26 9f19 c23f
000006d0: e172 f4f0 4aac ce3f a69f af1c 70b6 b1bf
000006e0: d272 0542 eeea b2bf 70f7 a7df 06f4 b73f
000006f0: 2adc 26d1 6aeb c7bf 018e 6d7c ee85 c5bf
00000700: 39f2 ff71 e395 63bf 3cd4 24ba 1784 873f
00000710: ea98 d418 1f4b b53f a031 c8ef aaf4 c2bf
00000720: 3135 46ec a3c1 99bf 5eed e08e ce29 b63f
00000730: ec60 3468 14e3 97bf 4b43 c6ad 8079 c93f
00000740: 49db 4edd 61f1 c93f f9b9 c040 12ed b1bf
00000750: 46eb 6e21 d494 b2bf 0006 fc1c cbe8 a5bf
00000760: 759d 67ce 483c c53f 79e0 7e0d f1d9 c0bf
00000770: 0000 0020 da16 cdbf 911d 50e9 acfc a23f
00000780: 26b1 e52e e1b7 ccbf e08e 7578 f053 cb3f
00000790: 99a3 9412 81e8 cd3f 04b0 2abb ce72 b3bf
000007a0: b201 da86 2e5b b3bf 7741 d5a9 37d9 a3bf
000007b0: 6abf 295b de38 bebf 0000 0020 e2e0 cbbf
000007c0: 702e 926e 53b8 903f 5186 df32 0e15 c8bf
000007d0: 839b 8f90 d19f 9e3f 3cb3 19e1 8212 c73f
000007e0: ed5d 2616 f7a3 b23f b0c3 a116 e128 b83f
000007f0: dee4 c4b2 9fcc a6bf 5b9a 1c2a fae3 9b3f
0.11373348056951782 -0.02206192583901824 0.048390910029411316 0.1664426469837872 0.0023100531864538323 0.0007091965457304553 0.04294449742165822 -0.16353029341371783
-0.0018530146249357133 -0.10241166455735295 0.04832784831523895 0.07534988155268804 -0.07044053068120222 0.10197098553180695 -0.00936990510368269 -0.1587531123022927
-0.17340504551762578 0.16322128316732296 0.05666393173316156 -0.015485388603695428 -0.0762348625354331 -0.17978076180362107 0.01452272219245499 0.1707033480803679
-0.08035091757127058 -0.03590609762120493 -0.1672526315684379 -0.11346771693946171 0.14306523419299202 0.05472494090527338 -0.17917959131365177 0.14779931131947152
-0.22455814245187755 -0.20371250532644938 -0.0687370590628355 0.18199591291076322 0.22218343857184478 0.21540835096289285 0.17328580416495087 -0.1692959668244044
0.2293462963114956 -0.07338908939849252 -0.16697182081415715 0.01496364903586553 0.09124919160386201 -0.10566328101862124 0.21716725610309157 0.22500498471902933
-0.20781347309032677 0.0667157918214798 0.17129219519157693 0.20532144663242588 -0.032565305241605655 -0.20626802292134044 0.04954914049582425 0.03671797957215035
-0.08504526143095337 -0.17521016212079865 -0.04626524680247972 0.14502934018494248 0.19402458633336014 -0.01812517014199114 -0.061890795826911926 -0.22110123932361603
0.157993174804131 0.23319756244446752 0.212721234539063 0.20757499035744265 -0.027154553512561335 0.21022283240815742 0.12798387907477557 0.13776666311988497
0.008232937648057343 0.20618047718420474 -0.008330972356102908 0.1112113804357015 -0.15346159345837868 -0.06807446641649452 -0.09261498789829879 -0.22223463283489034
-0.16826482001739282 -0.14839240563761688 -0.19046379689637355 -0.06800289950115686 0.16613094994073122 0.236744267017907 -0.23066835381236248 -0.15489204188496572
-0.06764806837506242 0.14839389681237328 -0.10948926607769523 -0.14709636759774192 0.1823844146221419 -0.09212351059827092 -0.04124816672559295 -0.15959214873740285
-0.16884027266888496 0.17039680151788517 0.2180559554319315 -0.03975149278417691 -0.0783634963489184 0.15965753075741895 0.21272458425094737 0.12117260613916601
-0.2239847501354445 0.16838792208125042 -0.21867920458316803 0.09832025358658192 -0.1739580568921879 -0.06984760782181157 -0.09190726740920462 -0.016597139749356303
0.16817502436792467 0.1378593100894498 0.228984431586137 0.08176591470608734 -0.059786659068260264 -0.06971753273258076 0.1657721355138014 -0.1820731838318476
-0.10141245748128809 0.16379186776039475 0.22603468596935272 -0.03874811706311671 -0.19769044460108368 0.2364299934299579 0.10097523215286237 -0.14074554940199036
0.06863848865032196 0.1757878572928251 -0.058438318605303845 0.01601458676047986 0.209198497940913 -0.043359383940696716 -0.19210544228553772 -0.14968430635102606
0.11801304268471985 -0.10814911077807875 0.08040732249811101 0.15017319168656582 -0.12747689043493451 -0.11773488630943556 0.03359575662418888 -0.06873535140526747
-0.22918285874288796 -0.0652006418283522 -0.0032102774182331357 -0.2168300116012444 0.23830289342882288 -0.11993688447956191 0.025478865660057543 -0.05427013738597513
-0.24139070888562417 0.10969093333258917 0.22579092122914396 0.04739946806314235 0.17143918112689235 -0.17115944623947144 0.15828068916005467 -0.2304366573559861
0.20209310058443647 -0.1297685108378972 0.1390197126272911 0.07347295410298589 0.13681228496129613 0.1428653915335741 -0.0979724796442967 0.0727977631985004
0.23348083181775364 0.0702785096459186 -0.041285239103856036 -0.15832039282120872 0.133479860965972 0.11576541673347002 -0.036829916089417485 0.17282440398633844
0.04531658275677405 -0.08956931074748317 0.017942813794571986 -0.06863818773687448 0.06558150954354576 0.19341913367565647 0.19303333911433365 -0.15623115003108978
-0.22938679348892035 0.03359321526561485 -0.13841426372528076 -0.02660867569550128 -0.19100987960259555 0.17843790120394867 -0.10816722394335233 -0.08684195721021268
0.07733906015898986 -0.005449800345773976 -0.16122325879799412 -0.04702218319998506 0.011402067276737048 -0.1074225198577015 -0.19010794286595004 0.013017590679564352
-0.16039714282607265 -0.14621890092043063 0.020836552571641947 0.10315630528446 0.07931049372141388 -0.10735687056877231 0.1419843656397231 0.025059953331947327
0.19144797198457741 0.19317585926203373 -0.1683796568245541 0.13047625945424768 0.1403064038323175 -0.04449160215299015 0.0018766687730374916 -0.11178832579702198
0.09617822258925664 0.14140691183014464 0.2396329571282854 -0.06919003200857662 -0.07389725791785942 0.09356730423311688 -0.1868718644379624 -0.16814976764281656
-0.0023908083239787795 0.011482415550384421 0.08317751270496712 -0.1480916662989218 -0.0251527417145116 0.08657542217490774 -0.023327177868027002 0.19902046666222825
0.2026789026837952 -0.07002367096786334 -0.0725834447502339 -0.042791697776930704 0.16590223387104755 -0.1316510501762911 -0.22725988924503326 0.03708401058252798
-0.22436156072525043 0.2134991253070586 0.23365796477562809 -0.0759705740881032 -0.07561007301592929 -0.03876661251217944 -0.11805524564419803 -0.21780039370059967
0.01632814752933459 -0.1881425617603321 0.02990653462247962 0.18025241843442952 0.07281441012161567 0.09437376787697249 -0.04452990586509896 0.027236851520820653

layer1.weight f8 [256, 256]
00000000: 20b3 96f2 039c 99bf 8586 f98c 9ce5 a03f
00000010: 0000 0080 008a a53f fd6d 9e82 e6ad a0bf
00000020: ec09 dfe9 0b81 a6bf 03f3 b162 ed80 ac3f
00000030: d200 d1b9 cb88 9abf 9aac 8efa 4199 8cbf
00000040: 8e39 679d e399 adbf 2b3e b92f 8c61 78bf
00000050: 0000 0000 0022 3abf da01 57c5 7bd9 a23f
00000060: fffc 0076 9912 ac3f 0000 0040 fbc8 a2bf
00000070: a695 9e86 7e94 903f 1f3c 5e7c 1e81 a8bf
00000080: 1fd6 f3d7 7aa3 a93f ac44 a222 c710 a7bf
00000090: 3dfa ce42 1f24 91bf 73bf 3431 bb80 463f
000000a0: 3bd8 859d cd65 92bf 8f1c 4b66 1799 a5bf
000000b0: 16ec 90fe 78c7 abbf c827 e126 3df2 a8bf
000000c0: 6820 a6ef eaca 8b3f f503 930c e4bc 963f
000000d0: 1e9e 707f ef98 a2bf 291b 4d22 d149 93bf
000000e0: 0b12 8895 2211 91bf b95f f6d5 bef1 a83f
000000f0: e4f4 2357 0c5c 953f ebc5 e5c4 a127 aebf
00000100: 002c bbd5 633a 903f 1476 03a7 812f 9e3f
00000110: 6df4 7d5a 159b a6bf 6692 b5e2 3b05 a7bf
00000120: 1b55 fba3 56bc 973f c44d 65ac 4e27 a73f
00000130: a88a 4814 1543 aabf d3a7 3c56 ba22 843f
00000140: 99ef 6735 046f 993f d079 0e2d d916 a9bf
00000150: 7277 3dec 39ed a63f 30be 9006 8624 a63f
00000160: db68 f06c 8287 ab3f cb2f dca4 7541 99bf
00000170: 7ac8 28c3 fd9e 92bf 2921 4967 ba08 7fbf
00000180: 06fc abfb 3b4c aabf 0000 0000 22e3 a23f
00000190: 849a 411d 06e2 a4bf 8311 d09f e33e a0bf
000001a0: 31b7 6ac4 6644 9abf 7eab f2cf 9878 a83f
000001b0: 6201 2e2a 4b0d adbf 020f 0164 e85c acbf
000001c0: 5903 5e5e 0064 a43f a05f 5550 077b 713f
000001d0: 69e3 e578 b0a3 af3f aceb d3b3 3442 96bf
000001e0: a8f2 fb11 3129 a23f 6e66 2d95 80a5 a33f
000001f0: 0000 0080 62ca a7bf 0000 0080 96cd 9bbf
00000200: b883 7984 bdd7 ab3f 812b 778c fcc2 9f3f
00000210: 3b64 c00f 213a 973f 98b7 e38a 9159 7b3f
00000220: dc17 dbb3 2f78 a5bf bb2a a814 b24b aabf
00000230: 8bb9 f87c 3e3e 7a3f 283d 998d da49 4a3f
00000240: a002 516e e021 a23f 3e9c 92da 636e 873f
00000250: bd3b 7b22 2210 93bf d0aa 8914 875f a6bf
00000260: 54d7 34a4 93a3 ad3f 85fe b4f7 b326 af3f
00000270: 9e85 5857 02c9 adbf 46b8 eec3 08cf 5d3f
00000280: 68a4 fe08 b48e 9c3f 3f68 7447 5ea0 94bf
00000290: 39ce cc02 91a1 92bf 8817 f58a 772e ae3f
000002a0: 22c6 d3dd ab1b 883f 85e3 010f aea4 9bbf
000002b0: f879 621b c962 78bf f90a 2fe2 9855 8d3f
000002c0: 31f1 e0ff 1f29 a13f ef17 6513 90f8 adbf
000002d0: 44d2 853c a246 ae3f df55 51b8 0c54 92bf
000002e0: 8d5b b97f 7f94 93bf 271a d224 979d a03f
000002f0: 518c 2867 e44b aabf 1db8 5d0c d1a6 a73f
00000300: 694e 5018 c31f 5c3f 0968 cb69 8cf1 8abf
00000310: f363 d8e4 2a96 66bf 979d 0681 8afd 90bf
00000320: ad02 7ab7 ec3b a73f 0047 be53 3d8b 9e3f
00000330: fa41 90e8 5880 91bf b554 f8cb 4a33 9cbf
00000340: c538 1483 56be 8e3f 3265 59bf f498 a93f
00000350: 0000 0000 ea3e 743f 3901 01fc 52da 93bf
00000360: 91f4 5d82 1516 a73f 6091 fa39 4965 973f
00000370: 070f 4720 daf8 8d3f fec5 1c38 485e a03f
00000380: 836f 2521 65ab 903f 63d8 d45a a1bd a23f
00000390: 1a05 11ca a13b 92bf f09d 6e39 5964 a73f
000003a0: 7e4a be2d e702 9c3f 05c7 880d b756 aa3f
000003b0: 55d8 287f 4a93 a73f 14d0 01c5 c060 a03f
000003c0: b44d 31ca 8bec 9cbf 9d23 bf76 2dac 9dbf
000003d0: 0000 00c0 3915 aa3f c890 000e 796a a6bf
000003e0: 016f 03e5 2232 a13f 916d 115e db3a 73bf
000003f0: 12fd ce4c 7633 a2bf ac4d 1d3f 64c9 803f
00000400: 0000 0000 b699 a03f c35e 0878 b728 aebf
00000410: cf72 13e6 5105 a33f 73f9 8083 e6c7 a43f
00000420: c60d 063d 7eb2 303f 0000 0000 97ac 8a3f
00000430: 0000 0000 29bc ab3f a061 d8a8 8675 a23f
00000440: cf07 6d4f 084a 953f 1649 c168 d1d8 ac3f
00000450: 236f bed2 02d4 a33f 57f1 5f07 858b a1bf
00000460: 0729 d287 12a4 a7bf d4f6 42fd e32f 623f
00000470: 0e41 60c1 ce94 743f 1c3a e526 971a 7ebf
00000480: 20f9 30fb ec02 853f cbcd 7319 bba0 adbf
00000490: 7cdb 5e34 962f 953f 7dc7 bb36 80c6 a33f
000004a0: 5db1 a1ba 58b4 ac3f 8ecc 0c11 71cd 85bf
000004b0: ca23 baca 1cb8 953f ded6 ebc4 3f61 a8bf
000004c0: e0ab 0bd5 f2bf acbf 0acb f4bb 6f02 a9bf
000004d0: ebd1 1870 76e7 783f c8fb e41b 9acd a83f
000004e0: 7579 6be3 4c70 803f 0000 0000 1395 a9bf
000004f0: d9a8 4647 499b 9c3f 29fc 4ca4 25a9 a3bf
00000500: 4acd 0c2d 700b 913f 8193 9e67 2555 21bf
00000510: f644 9a98 4fa0 963f c304 005b e63f a7bf
00000520: e541 9683 5700 763f e644 df5b b269 a1bf
00000530: 186b 1eae aa0d 963f b129 0984 5e4c a8bf
00000540: c5d5 3e52 d5ba a33f c52b 925e 551b 9ebf
00000550: 2b0b 53dd 6101 ac3f c2b8 bb87 73eb 813f
00000560: ed79 3fb7 f732 983f d6bd dc17 33de aa3f
00000570: c5a5 96ec ff2f 913f db6d 7c22 1d56 96bf
00000580: 0cc8 f950 b565 ab3f aa85 01c5 4e64 ac3f
00000590: c74b f170 538e aa3f de42 1cf2 f2a4 53bf
000005a0: 54b8 f012 11c7 943f 7a25 e643 f8e2 95bf
000005b0: 49b6 7c4f 0c44 323f 0000 0000 f4bd 9ebf
000005c0: e9e2 31ab 3a8e 9fbf f2a2 fe27 8220 ac3f
000005d0: 0000 0080 64c5 98bf 26c9 08da e3ac 9fbf
000005e0: 6c66 6dd2 1ae0 a9bf 5d7a 3faa b67e 913f
000005f0: 607a 0363 8d2b 803f 1ea1 8890 291f a23f
00000600: 3c65 0aa6 f931 a43f 707f d22a e26a ac3f
00000610: 7bbd f093 8295 aabf 6baf cd31 f6c9 a5bf
00000620: bc0d 3b51 7165 62bf 82ec d867 b700 a3bf
00000630: c846 8529 ab71 ac3f d011 ab3b fbdb 89bf
00000640: 3fb0 48ee 616f a4bf c463 db18 f647 78bf
00000650: 1cfe b7b1 4a94 aabf 3b8b fbb5 0832 afbf
00000660: c056 5dac 04ca 9a3f 4aef cb98 654d abbf
00000670: 4de2 9b22 6019 a6bf 0000 00c0 e18f a23f
00000680: e961 c8d0 863e 7e3f 24c4 e269 8b4f 9bbf
00000690: c820 b485 4f77 82bf 7add b3c4 3600 a43f
000006a0: af2a fa48 dbeb 85bf 8f86 093f 90e3 7dbf
000006b0: 8668 a84c 24e0 92bf 69a3 993b 8f2b 53bf
000006c0: 7f7e 94f3 1dd4 a93f 6413 42d5 8a90 acbf
000006d0: dcf3 968b 50b5 883f ae8f 520a 49b6 9c3f
000006e0: 459b ccd8 4268 a0bf 256a b4da 2714 b0bf
000006f0: fd45 b221 48af 903f aeff d640 d33a aebf
00000700: 99c8 db7e b262 a63f 78d4 9c59 be97 a53f
00000710: 231e db1b 5bb4 a1bf 8685 6c16 057a 90bf
00000720: a0ef 2782 f27a ad3f 98f5 f04d be9a 983f
00000730: c497 3870 1958 ac3f bd63 e639 783e a0bf
00000740: c3f6 6608 0657 1bbf 1bd7 968d f7b8 883f
00000750: d54c 062e 01af ae3f bb40 4d2b f57c 803f
00000760: 7f2e b01a 2287 96bf e6b8 810a 31ad 9dbf
00000770: 0000 0000 6065 a9bf 3df3 0de5 4aa7 803f
00000780: a4ab 85b4 159b a8bf 8b98 0aac afb3 8f3f
00000790: 298d 7992 2f69 a0bf 1493 b02e d081 ad3f
000007a0: d2bc adec ed0e 603f 4e31 5a2e bd60 723f
000007b0: fc4d 0332 4638 71bf 0000 00c0 257a ad3f
000007c0: 54a2 0032 85d6 683f 6be9 7325 1484 acbf
000007d0: 736a fcb3 d07b a03f 0505 6102 51c2 7d3f
000007e0: 32d3 6f0e 6405 9fbf c0eb c6db 5f53 a63f
000007f0: 1ebf 5276 87b2 a2bf a62c 04c5 7679 a1bf
-0.02500921409744017 0.03300179692156483 0.042068496346473694 -0.03257675499409272 -0.043953296946273784 0.05567113714002938 -0.025912459579786447 -0.013964190920736908
-0.05781470581461 -0.005952403643803043 -0.0003987550735473633 0.036815517272319645 0.054829402594345204 -0.03668961673974991 0.016191460577507442 -0.047860100442555835
0.0500753773321032 -0.04504988000656715 -0.016739357426326363 0.0006867326759785033 -0.017966473330908377 -0.042183619725215775 -0.05425623042580001 -0.0487231359443992
0.01357062858438969 0.022204936282609073 -0.03632305555975911 -0.018836276739672506 -0.016666927696876537 0.04871937143178635 0.02085894853461391 -0.05889611748251496
0.015847740097154173 0.02947809774274475 -0.04415194253577046 -0.04496180670210918 0.02317939163079528 0.045221766037367966 -0.05129304764365844 0.009831863171331811
0.024837556609767473 -0.04900244402891796 0.044778642738250066 0.04324740247863834 0.05376823024580953 -0.024663770854246352 -0.018184628521517678 -0.007576683176530965
-0.05136287161985113 0.03688913583755493 -0.04078692538387421 -0.03172980619277423 -0.025651555765470128 0.04779508150507804 -0.05674204721344968 -0.055396330077682535
0.03982545043891745 0.0042677198119562 0.06179572559171371 -0.021736930347269798 0.03547051758321135 0.03837205716145041 -0.04646594822406769 -0.0271514430642128
0.054380342885230915 0.031017252038320734 0.02268268259658533 0.006677216077361957 -0.04193257399087688 -0.051358761808008656 0.006407016844191547 0.0008022610811141738
0.03541470858227069 0.011441021068391174 -0.018616231302811082 -0.043697568184901336 0.05788861636612688 0.06084215544478603 -0.05817420307381414 0.0018193803405029004
0.027888119744293866 -0.020143006430864082 -0.018194452091121447 0.05894826480157095 0.011771528918390454 -0.026995391527154595 -0.005953584264857252 0.014323419954853632
0.03351688383597418 -0.05853700863603694 0.05913264263918852 -0.01789874911294997 -0.019121162577302498 0.03245231937858178 -0.05136026152856544 0.046194584617168945
0.0017165570473069108 -0.013156029680818209 -0.0027571523448952583 -0.016592182278740344 0.04537906398491507 0.029828031765254615 -0.0170911685891628 -0.02753941411909429
0.015011478305066448 0.04999508701139134 0.004942812025547028 -0.019387528067683155 0.04509036270517542 0.022847313083404486 0.014634803876908643 0.03196931538549207
0.016278820179067132 0.03660301431448045 -0.017805602987441473 0.04568747354579361 0.02735482422537893 0.0514428333302828 0.04604561617127049 0.031988166855541206
-0.028246101585251274 -0.028977117893905214 0.05094318836927414 -0.0437810735313931 0.033585634666193805 -0.004694802192797624 -0.035548874736827454 0.008196623970127735
0.03242272138595581 -0.05890439357989188 0.037149962745137814 0.04058761935492585 0.00025477964393180415 0.013024501502513885 0.054169923067092896 0.03605290232752911
0.02079022393014168 0.056341690099218564 0.038726890779086774 -0.03426757540725827 -0.04617364795656625 0.002220101634604935 0.0050247265226206605 -0.007349577367064455
0.010259486594915546 -0.05786690412233105 0.020689341494029886 0.03862381618627262 0.05606343534677436 -0.010645755131554215 0.021210145829659223 -0.04761695174049206
-0.056151951319257654 -0.04884671372783174 0.006080114982570421 0.048443618683897294 0.00802669590978831 -0.049965471029281616 0.027936120009749075 -0.0383998644888311
0.016645195722231144 -0.00013223725892177673 0.02209591263687557 -0.045409391983420665 0.0053714197650980055 -0.034009526934491593 0.021536509396905407 -0.04745765077366871
0.038534799852111536 -0.02940114392962891 0.05469804598535285 0.008749868945838183 0.02363192611653091 0.05247649828231331 0.016784666838850066 -0.02181287310587075
0.053510347494821614 0.05545278696878182 0.05186711076444044 -0.0011989948765782003 0.020290629178070965 -0.021373633522249837 0.00027871418523059806 -0.030021488666534424
-0.030815998743920856 0.05493551958290323 -0.024190492928028107 -0.030932960684546228 -0.05053790873234906 0.017084936276541608 0.007895569404749725 0.03539399995162483
0.03944378043997651 0.055502956130338954 -0.05192192130959491 -0.042556470469974204 -0.002245637247911351 -0.037114840914420646 0.05555472261279487 -0.012626612432890122
-0.039912281358141836 -0.005928002659595092 -0.05191262645166381 -0.06092860433070376 0.026161263485241504 -0.0533248662013351 -0.04316234991523924 0.03625398129224777
0.007383848784705973 -0.026670626008755374 -0.009016629474459484 0.03906413222460521 -0.010703766979778121 -0.007297099553939325 -0.01843315809137682 -0.0011700533636036187
0.05044644926442476 -0.05579027035950082 0.012064580211580571 0.028039113287959765 -0.032045449223281376 -0.0628075512835627 0.01629364686647782 -0.05904255072118701
0.04372175024572406 0.04217333644775406 -0.03457913126981917 -0.01609046887745571 0.057578638446982966 0.024027799136310785 0.05535964484106118 -0.03172660548006643
-0.00010429357835214496 0.012071546562633586 0.05992892920326091 0.008050837882962339 -0.021999867323798213 -0.02898098589542366 -0.04960155487060547 0.008131585231006983
-0.04805820301665811 0.015479443013941349 -0.03205250418684564 0.05763102121298949 0.0019602438891791274 0.004486788738756365 -0.00420405788482325 0.057572536170482635
0.0030319787474762192 -0.05569518048465024 0.03219463536352842 0.0072653927255157446 -0.03029400194278082 0.04360484655213481 -0.03651831931472159 -0.0341298213480397

layer1.bias f8 [256]
00000000: fe1b 66e7 d370 a53f 5deb 0490 2c9a a93f
00000010: 54c2 7040 77ac a53f 08e2 043a 10c9 80bf
00000020: defa 1295 6cb7 94bf 1633 e640 f837 8d3f
00000030: ee6c 14e6 4641 afbf 36e7 324c 4c5d 98bf
00000040: 2584 4bcd 4064 ad3f 991f c64d a745 9bbf
00000050: 285b 7eb8 14fd 863f cec8 7b19 fe5f a03f
00000060: f204 f83f a5e8 903f bde0 2b6e 83bd 85bf
00000070: aa92 1f3f 7d7a 8b3f caf1 f756 815d aabf
00000080: 1ff2 8ac9 54e9 9dbf c3dd 701f 76f0 8e3f
00000090: 3ae5 f143 2f80 83bf 6f5d 3c10 a68c 87bf
000000a0: 0000 00c0 efa4 a8bf 0b19 cb32 da4e 913f
000000b0: 9d0c d61c 7624 a13f 0000 0000 bbcb a3bf
000000c0: 2090 f6d8 cfd2 a8bf 51fc d46f 5b39 b13f
000000d0: 6fa1 08c9 19c0 80bf 0000 0000 8cd8 6fbf
000000e0: 286a 7170 6702 a13f 0000 0000 687a a8bf
000000f0: 3e42 df26 eb4d a3bf ec12 038e 82a5 a2bf
00000100: 3a2b 9e31 65c8 493f 5e7e 7d01 56d0 983f
00000110: 8302 b57c 72f1 a9bf abcf 6bc3 da76 abbf
00000120: 6ec2 cfdf 7869 9bbf 9a4b 7cf8 d46b 813f
00000130: 8136 8da0 b45e a7bf e303 0927 6f2d 93bf
00000140: 7cd0 7122 f91f a1bf 0312 bff7 8caa aebf
00000150: 148a 66b7 ff3d 8b3f 6f10 33d5 eb0e ad3f
00000160: 6460 363e cc9a 61bf ca6b 86a6 d35c a9bf
00000170: 4404 87ba 8182 a1bf a964 ca31 090c a93f
00000180: e1dd 13b6 5510 ac3f 0000 0040 99ba aebf
00000190: 0000 0000 d027 913f c38c 60b4 4aff 44bf
000001a0: a104 ac83 d871 a4bf 0aba 0307 0a20 963f
000001b0: 0000 00c0 8690 a1bf c485 7c3d 92fc a83f
000001c0: 0000 0080 523d 9c3f c9a8 918e b47a 72bf
000001d0: b558 e59c aeba ab3f 6d4a 7795 f413 a2bf
000001e0: 8185 4791 3218 85bf 0000 0000 3d0e 93bf
000001f0: fba6 2417 5396 953f 5985 8059 078d a4bf
00000200: 0000 0000 8cd5 673f a4da 0a16 9e19 91bf
00000210: da7d 4a17 b3db a8bf fd35 9168 ad25 9a3f
00000220: 096d 68a4 2212 a2bf ea96 54e5 2fbb aebf
00000230: 5e0c 7c49 3b53 80bf 6d25 aaa8 b9b1 a23f
00000240: 1a68 d0ed 0adb 973f 9b7e 2da5 4d51 a7bf
00000250: e58b d08e 2220 813f e45e 0136 e672 9c3f
00000260: ec29 7cd0 fa6d ab3f 4b0f e427 c204 a83f
00000270: e62d ff89 a689 abbf 8f7c f151 6cd9 9abf
00000280: 09e1 1347 297a 83bf 1a75 aa22 443a a83f
00000290: a1ba 2b76 e507 7b3f 87ff e9de 4c0f a73f
000002a0: 0000 00c0 d42f aabf d398 208d c536 9f3f
000002b0: dfe6 8887 6a56 933f 0000 0000 0265 7bbf
000002c0: cb2f 7c67 279d a63f 706b 60c0 a177 a53f
000002d0: cb2a bd16 a348 a1bf 4cef fe5c 63fe 95bf
000002e0: fabb 067e dd45 89bf bcb6 59fc 0bfb 8abf
000002f0: f855 8182 c48d 98bf a55a 768c 37c3 783f
00000300: 0000 0080 8c25 92bf b7f8 a0cc 51d8 ac3f
00000310: 3145 47e1 b98a a33f 0000 0080 01a0 933f
00000320: b771 9b29 4c3e 81bf 0000 0000 02d1 83bf
00000330: 84b7 afbd c420 acbf 5005 284f f314 a53f
00000340: 2e0a 61e2 ea5b aebf c1b0 3a83 1ed3 a83f
00000350: fd55 69b0 07ae 943f 8ffb 92bf 51f7 a5bf
00000360: 67c8 aa7d c1f8 a4bf 0000 0000 32c6 99bf
00000370: bfee 1daa 293f 92bf 559d 8b71 11ed 763f
00000380: 6dcd 9ce2 c4fd a33f 8382 7ab2 4ebd a2bf
00000390: 6abc 7e84 73ae 94bf 282e 41a5 7aac 9d3f
000003a0: 59b6 80ff 6286 a33f 0000 0000 8031 a33f
000003b0: a2db 406f 895b af3f a384 e466 2275 b0bf
000003c0: 0da8 4a68 4d91 97bf 0000 0000 88f5 7e3f
000003d0: 42bb 01af da19 a33f 18d4 2f9c b20e 40bf
000003e0: 79e1 14e4 6134 a13f 5dd2 1cf8 c32d a23f
000003f0: 3dc1 bcf2 343e 91bf 4549 8b18 2721 a3bf
00000400: 97df 2d03 219b 97bf 0000 0000 165b 883f
00000410: c88f f494 c8dd 583f d0be f479 5f3d 9f3f
00000420: e6c7 0c44 ee8e abbf 20f4 6627 21f4 983f
00000430: 3e9b 9fc9 0ff5 ad3f b09e 5c6e 87f6 773f
00000440: 7339 76e9 3e86 a63f 0766 400c c832 9a3f
00000450: 0d41 1830 3b8a 8ebf 775e 74db 1827 8c3f
00000460: 91d9 7f85 4e72 b1bf 1b53 060c 7835 93bf
00000470: c38d bbc3 6a04 99bf 5461 b135 f1ae a3bf
00000480: 78c1 f6ba 6b8c abbf f89f 8029 5f98 acbf
00000490: 0cf2 d441 0e3b 99bf 7ba9 f11c 347f 72bf
000004a0: 0000 00c0 a483 aebf f24f 43aa 66b7 a53f
000004b0: 0000 0000 b11a 80bf 816e c3a1 247d 673f
000004c0: 067f 64ac 93f9 a23f 3a53 7195 fc7b 90bf
000004d0: 4f2f ee1a 5470 97bf 68f1 4784 8a7d 953f
000004e0: 7e71 6115 0692 abbf 0d6c 142b fd9c ad3f
000004f0: 8fb3 a147 5b0f 85bf 4df0 9105 c02a 90bf
00000500: b585 c981 3829 98bf b01b 5229 6fbb 8f3f
00000510: 2b46 c74c 964d a5bf 0000 0000 e5c4 823f
00000520: 4e54 598a d5dd 82bf 0000 00c0 42e7 a13f
00000530: dde7 2eca 97d1 ab3f 35fd 1149 679e a23f
00000540: 249d cb7f 547b 85bf 8b92 5d7e f636 913f
00000550: e647 0d4f 6204 a53f 2ff2 4059 26a2 b33f
00000560: b24c 661c 4250 a63f 3f42 c048 0ddd ad3f
00000570: 547e fbe8 1265 a43f 6bf8 bcf9 171d b0bf
00000580: 8703 a76e 5e44 a5bf c634 920c 3536 a5bf
00000590: 4749 d3fc 4dff a23f 7763 abf2 02a0 53bf
000005a0: 2c59 7761 642c 9dbf 8c12 d16c 935e 94bf
000005b0: b8ba 4ad8 1358 963f 0000 0000 fc11 a1bf
000005c0: 0000 0080 9b39 adbf 02b8 b6b3 7ead afbf
000005d0: d5c6 2abc f06b a3bf 6a15 e025 8930 8d3f
000005e0: 1ba3 2a31 fc2e a8bf ef33 1b00 10ae a0bf
000005f0: aa50 1b6d 792c acbf 0000 00c0 f51c acbf
00000600: 59c1 a9e6 202a 63bf f3a9 2a9d e621 a73f
00000610: ae9c bd21 306d 93bf bffc 83d1 2341 b0bf
00000620: e203 7b7f a8b2 9bbf e628 51c8 817c 99bf
00000630: 864e abbd c3a5 9c3f 4d8e fff1 334e 633f
00000640: c4fa 3083 e65c 7a3f b0db a952 90c5 9bbf
00000650: 3bd7 833c caba 91bf cbb5 6883 8d95 a8bf
00000660: 1aa5 ba9b 365c a3bf 13ee 7e13 625a 98bf
00000670: aaa3 5ba7 2c20 90bf 6ddb 94c0 80e8 973f
00000680: dad4 cc21 b9e1 6f3f c2fa cae0 0c98 823f
00000690: 734a edb7 1363 a3bf 14a7 615e 1343 a63f
000006a0: 0000 0000 220b 953f ef8a 8a33 7b98 aebf
000006b0: db4c e586 89fa 2dbf 3801 ae6b 4d3a 9e3f
000006c0: 7e24 8e56 1c52 9b3f 887e f150 5539 afbf
000006d0: 0a67 09fa 413a a83f d297 2e01 1136 52bf
000006e0: 4a8c b71c 7687 a0bf d3f8 232e 678d acbf
000006f0: 0568 5acb f1a4 a4bf 4388 68a8 3344 b1bf
00000700: 04d5 3f65 9d09 afbf 6725 9ce6 48b8 a03f
00000710: ca75 f090 894d 42bf 4b14 e9ef 0cd0 78bf
00000720: 6ff2 8cc7 a622 b03f 19b2 05d1 c0fd adbf
00000730: 8c99 aecf 7a19 abbf 0000 00c0 09a6 a4bf
00000740: 7b69 9a3d 437f a93f 3ed7 c5a3 c3d5 a8bf
00000750: 3bb9 7663 f87f 96bf 3888 761a 7cfd 90bf
00000760: d21c 3ad0 e5b3 a4bf f6fd 5941 d564 473f
00000770: 0000 0040 ee3e a13f bb80 e2be b16d a73f
00000780: f158 ff25 1534 973f 1932 635d a95f 73bf
00000790: b1c6 e3e5 aaf7 a13f 790e d004 9c94 aebf
000007a0: 46ff 39c9 9cd6 6e3f 0000 0080 11c1 ad3f
000007b0: 6f99 c8fa a51a 963f 98b7 d38b 4969 a7bf
000007c0: 1f68 61f2 15fc ab3f 0000 00c0 b666 ab3f
000007d0: 7f84 79f8 6468 8e3f 0070 e1fe 45c7 a73f
000007e0: 12c3 4d52 299a acbf 8d75 de0c d515 a93f
000007f0: f865 9a10 a1f4 9ebf aa05 1786 f43a 9bbf
0.0418764324158971 0.05000437982604098 0.04233143483759663 -0.008195997973062155 -0.020230957602275328 0.014266910057608533 -0.061044898591910854 -0.023793403769310127
0.057405495701239574 -0.02663289463228544 0.011224901085183328 0.031982365237028895 0.016512472180697686 -0.010615374374069448 0.013417223442908483 -0.05149463831546404
-0.029210400391763366 0.015107081255435589 -0.009521836529745021 -0.01149873482749683 -0.04813336580991745 0.016902360296421153 0.0334813032341341 -0.03866371512413025
-0.04848336719013013 0.06728145103714779 -0.00817890305286603 -0.0038874372839927673 0.0332214665183595 -0.04780888557434082 -0.03770384644997592 -0.036418990931940204
0.0007868284330795124 0.024232238617854278 -0.050670221064597086 -0.05364116321098263 -0.02676953187978131 0.00850645430867818 -0.04564442119463497 -0.018728005177994233
-0.03344706101862102 -0.05989494823692001 0.013301847252312128 0.056754464888883464 -0.0021490086671285703 -0.049536336972969844 -0.03419881250329884 0.04891995175166503
0.05481212470652586 -0.060017384588718414 0.016753435134887695 -0.0006407847183748306 -0.03993107421229892 0.021606594732412922 -0.03430577367544174 0.04880196571890452
0.027577675879001617 -0.004511552143507022 0.05415864625199288 -0.03530849766288644 -0.010300059374403816 -0.018609002232551575 0.0210812552333328 -0.04013846366457114
0.002909444272518158 -0.01669928559814572 -0.04855117472947841 0.02553435278632853 -0.03529461152012387 -0.060021874184071525 -0.00797125165946094 0.03651218589682057
0.023296519055385635 -0.04554216996507173 0.008362073882443208 0.027782055898881178 0.053573453855353254 0.046911303872575326 -0.053784565301238804 -0.02622002840177778
-0.009510347825639547 0.04731953547637087 0.006599327406304895 0.0450386068450817 -0.05114617198705673 0.03048237489579082 0.018884338877092396 -0.006688125431537628
0.04416773927923109 0.04192834351871155 -0.03375730183195954 -0.021478226233497197 -0.01234028855182422 -0.013174146307587058 -0.023978300538450598 0.006045548426661417
-0.01772136241197586 0.05633788702879044 0.038167771100811605 0.01916506141424179 -0.00841960432028875 -0.009675994515419006 -0.05493750396259059 0.041175464069974965
-0.05929502499977378 0.048485711592861865 0.020195121900846037 -0.04290252173949859 -0.04096035632154909 -0.025170117616653442 -0.017819071777451564 0.005597179545225946
0.03904547945276247 -0.03660055092519079 -0.02019672866998371 0.028978267990437484 0.038134664239220135 0.037487030029296875 0.061245245772105564 -0.06428732883479653
-0.023015222063499197 0.007558375597000122 0.03730662714303047 -0.0004900333518650405 0.03360277089308545 0.03550541309087827 -0.016838862720022652 -0.03736231016741213
-0.023052707499544658 0.01189248263835907 0.0015177210623926619 0.030507556742292163 -0.053824849898219715 0.024368780164639614 0.05851029716705235 0.005850342777001735
0.04399296378970776 0.025584340808654484 -0.014912092595324578 0.013746446797582508 -0.06815043219817186 -0.018758655294351372 -0.024430912205287713 -0.03844407825880816
-0.05380570084833186 -0.05585000402089685 -0.024639342086844748 -0.004515842024469636 -0.05959811061620712 0.04241486385731709 -0.00786340981721878 0.0028672900644844406
0.03706037024880797 -0.016097971555001346 -0.02288943685884642 0.02098671371821706 -0.05384844790453068 0.05783835554958481 -0.010283196567081791 -0.015788078632326386
-0.023594744607526603 0.015494221161373861 -0.04160756766544823 0.009164609014987946 -0.009212177548002878 0.03496750444173813 0.05433344214493705 0.03636477248164242
-0.01048913969994076 0.01681122919343862 0.04104907240856885 0.07669295958562182 0.04358107182192707 0.05832711709092963 0.03983363241217988 -0.06294393393634017
-0.04153723812806392 -0.04142919329124477 0.03710406981703556 -0.0011978176868778481 -0.02848965496908666 -0.019892028347629195 0.021820364071283932 -0.03334033489227295
-0.05708013474941254 -0.06187053626796059 -0.037932894677749886 0.014252730816233867 -0.04723346805741909 -0.032577991497966134 -0.05502681214207546 -0.054908446967601776
-0.0023394243810842927 0.045180517850287226 -0.018971206721656024 -0.0634939562332759 -0.027048714428705163 -0.024889018870717282 0.02797609181545948 0.002356625991511574
0.006436253012963081 -0.027120833440189507 -0.017314109748404177 -0.04801599721063673 -0.037812906751535105 -0.02378228420250934 -0.01574773570510827 0.0233478658239749
0.003891812883376572 0.009079075441488785 -0.03786527271463038 0.04348049666516665 0.020550280809402466 -0.05975708965458703 -0.00022871903224572815 0.029519281098601996
0.02668041494647299 -0.060984293108728826 0.04731947114187392 -0.0011115232525553587 -0.03228348827885748 -0.055766319639575145 -0.0403209267362428 -0.06744692670375323
-0.0606202303023711 0.03265598120749296 -0.0005585595807848173 -0.006057787452452844 0.06302873966064636 -0.05857660819569705 -0.05292876992398296 -0.04032927006483078
0.04979906203262182 -0.04850589155368688 -0.02197254283026349 -0.016591967692541426 -0.040435010593734014 0.0007139245305580178 0.03368324786424637 0.04575877623688159
0.022659616893940308 -0.004729901868085772 0.03509267860671395 -0.059727550113191925 0.0037644445636146077 0.058113619685173035 0.021586030418029475 -0.045725153273323105
0.05465763648744847 0.05351801961660385 0.014847554047437093 0.04644221054397235 -0.055863658234448846 0.048994691677971415 -0.030230061186193397 -0.026592083629798736
