python/snapshot200.pt (torch_old, 3364 bytes, 6 tensors)

layer0.weight f8 [16, 10]
0.13361555337905884 -0.1351657658815384 -0.04845482110977173 -0.08830977976322174 -0.12318316102027893 -0.29988980293273926 -0.07786639034748077 -0.2966378927230835
0.14431226253509521 -0.011808931827545166 -0.11245526373386383 -0.04523852467536926 0.010050714015960693 -0.02678757905960083 -0.24775585532188416 -0.11733604967594147
0.3122105300426483 -0.314301997423172 0.3153119385242462 -0.08288604021072388 -2.605363183889227e+72 -2.605363183889227e+72 -1.083601791457928e+34 -1.8341595691727794e+34
-2.605363183889227e+72 -1.0793203674028793e+35 -1.060377483491152e+34 -2.605363183889227e+72 8.483021705483135e+31 7.656004534439515e+33 1.8996671359444387e+145 1.8996671359444387e+145
8.068343725432824e+106 -4.442535983580248e+144 1.8996671359444387e+145 7.769983045592239e+107 7.807470345447004e+106 1.8996671359444387e+145 -1.8615802617255996e+105 -8.188653696104315e+106
0.047936081886291504 -0.01129060983657837 -0.11057774722576141 0.20421043038368225 -0.2205411195755005 0.12171775102615356 -0.2525487244129181 -0.07326479256153107
0.15128973126411438 0.16684818267822266 -5.06817162848832e+72 -5.06817162848832e+72 -2.107913357341624e+34 -3.56796148348317e+34 -5.06817162848832e+72 -2.0995847711162872e+35
-2.0627354798555345e+34 -5.06817162848832e+72 1.6501887413408747e+32 1.4893104043598883e+34 -1.408943741436439e+145 -1.408943741436439e+145 -5.984123313295579e+106 3.294936861167368e+144
-1.408943741436439e+145 -5.762835381005728e+107 -5.790638934330598e+106 -1.408943741436439e+145 1.3806954962327696e+105 6.07335472494797e+106 -8.546795019691516e+144 -8.546795019691516e+144
-3.6300296333444403e+106 1.9987419743610582e+144 -8.546795019691516e+144 -3.495794138910538e+107 -3.5126600551354428e+106 -8.546795019691516e+144 8.375438311597839e+104 3.684158308768574e+106
-0.2629713714122772 0.3139079511165619 0.18222525715827942 -0.1766522377729416 -0.2880956828594208 -0.30705010890960693 0.22912654280662537 -0.2855827808380127
0.26025739312171936 0.05320337414741516 -1.5916742480132818e+145 -1.5916742480132818e+145 -6.760223772311773e+106 3.722267963235355e+144 -1.5916742480132818e+145 -6.510236286748458e+107
-6.541645773535588e+106 -1.5916742480132818e+145 1.559762395808026e+105 6.861027896610023e+106 -1.2058285369195904e+72 -1.2058285369195904e+72 -5.015185486910288e+33 -8.488958328148064e+33
-1.2058285369195904e+72 -4.995369964313837e+34 -4.907697465778637e+33 -1.2058285369195904e+72 3.9261588230897346e+31 3.5433941814714304e+33 -0.10397514700889587 -0.2104436755180359
-0.2334466278553009 0.030019909143447876 0.03330907225608826 -0.30719706416130066 -0.01040622591972351 -0.05788847804069519 0.03464969992637634 -0.17495039105415344
0.26125839352607727 -0.15693692862987518 -0.25762271881103516 -0.18269073963165283 -0.21487174928188324 0.2935582101345062 -0.03886875510215759 -0.07621939480304718
-0.2679405212402344 -0.18249210715293884 -0.1840779334306717 -0.30116739869117737 0.041905730962753296 -0.30166199803352356 0.035657525062561035 -0.01937851309776306
0.14858967065811157 0.14817675948143005 -0.14110712707042694 -0.14310334622859955 -0.26170969009399414 -0.22720716893672943 -0.021573901176452637 -0.2784138321876526
0.08002662658691406 0.10545668005943298 0.26090678572654724 -0.2966628074645996 -0.2766585350036621 -0.0036100447177886963 -9.954810577941513e+71 -9.954810577941513e+71
-4.1403250965491604e+33 -7.008125083573814e+33 -9.954810577941513e+71 -4.1239662388914515e+34 -4.051587530883571e+33 -9.954810577941513e+71 3.241270726816309e+31 2.925276421939618e+33
00000000: 0000 0080 501a c13f 0000 00a0 1c4d c1bf
00000010: 0000 0000 12cf a8bf 0000 0040 789b b6bf
00000020: 0000 0080 ee88 bfbf 0000 0000 6531 d3bf
00000030: 0000 0040 0def b3bf 0000 0080 1dfc d2bf
00000040: 0000 0000 d378 c23f 0000 0000 482f 88bf
00000050: 0000 0040 dec9 bcbf 0000 0000 8129 a7bf
00000060: 0000 0000 7895 843f 0000 0000 346e 9bbf
00000070: 0000 00c0 76b6 cfbf 0000 0040 bc09 bebf
00000080: 0000 00e0 41fb d33f 0000 0020 861d d4bf
00000090: 0000 0020 122e d43f 0000 0000 0538 b5bf
000000a0: 5fbf d6a9 e497 f7ce 5fbf d6a9 e497 f7ce
000000b0: f8bc 0132 0eb2 00c7 f1dd 3be0 7b42 0cc7
000000c0: 5fbf d6a9 e497 f7ce 61ed c8d3 75c9 34c7
000000d0: 2c88 1aa3 7356 00c7 5fbf d6a9 e497 f7ce
000000e0: 022d a0db d4ba 9046 5c1a 88cd 8597 f746
000000f0: 3c64 e00e 5057 185e 3c64 e00e 5057 185e
00000100: aac6 b1e4 ef96 2156 e584 2a51 fcc4 f6dd
00000110: 3c64 e00e 5057 185e 6a45 101a 872c 5556
00000120: c37a 3405 5805 2156 3c64 e00e 5057 185e
00000130: aa22 af36 42f9 c9d5 ffa0 a3fd 14da 21d6
00000140: 0000 0000 148b a83f 0000 0000 881f 87bf
00000150: 0000 00c0 d24e bcbf 0000 0040 9123 ca3f
00000160: 0000 0000 b13a ccbf 0000 0000 e528 bf3f
00000170: 0000 0020 c229 d0bf 0000 0040 7bc1 b2bf
00000180: 0000 0040 765d c33f 0000 0000 485b c53f
00000190: 2814 5d78 a7f2 06cf 2814 5d78 a7f2 06cf
000001a0: d461 f547 203d 10c7 c0ed 5a35 907c 1bc7
000001b0: 2814 5d78 a7f2 06cf eef2 4546 e037 44c7
000001c0: f0f0 4c90 0ec8 0fc7 2814 5d78 a7f2 06cf
000001d0: f730 c77a a945 a046 00cd 6c34 4bf2 0647
000001e0: 6489 ebaf a20d 12de 6489 ebaf a20d 12de
000001f0: 49ac ad5f 7817 1ad6 28ba 7ae1 3ce3 f05d
00000200: 6489 ebaf a20d 12de cc30 480e 9668 4fd6
00000210: 90a9 85d2 803f 19d6 6489 ebaf a20d 12de
00000220: 291c e308 9e43 c355 c8c9 e5f7 117b 1a56
00000230: 26c3 60c0 0fe7 05de 26c3 60c0 0fe7 05de
00000240: d315 ea0c aba7 0fd6 6c0f 7118 0a7d e45d
00000250: 26c3 60c0 0fe7 05de 920b dd31 800d 43d6
00000260: 5d98 9113 a7a1 0ed6 26c3 60c0 0fe7 05de
00000270: 3c31 0943 235f b755 256b a49f 4010 1056
00000280: 0000 00e0 85d4 d0bf 0000 0060 1117 d43f
00000290: 0000 0040 2853 c73f 0000 0060 8a9c c6bf
000002a0: 0000 00e0 2870 d2bf 0000 0080 b5a6 d3bf
000002b0: 0000 00c0 0454 cd3f 0000 0000 fd46 d2bf
000002c0: 0000 00a0 0ea8 d03f 0000 0000 793d ab3f
000002d0: 1834 dbcc 0765 14de 1834 dbcc 0765 14de
000002e0: 5e0a 2da2 c079 1dd6 c705 35c0 ee13 f35d
000002f0: 1834 dbcc 0765 14de d0d2 99af b2bd 51d6
00000300: 54ef caa8 c685 1cd6 1834 dbcc 0765 14de
00000310: b59f 5e00 37c3 c555 51c5 2118 45ea 1d56
00000320: fda4 fc51 d5d6 e5ce fda4 fc51 d5d6 e5ce
00000330: eb24 6449 91e8 eec6 c508 5d7b 9b28 fac6
00000340: fda4 fc51 d5d6 e5ce cb33 bca9 d03d 23c7
00000350: 84f7 7e38 fb3e eec6 fda4 fc51 d5d6 e5ce
00000360: 2c68 a489 d0f8 7e46 e17b 3183 7dd6 e546
00000370: 0000 0080 1d9e babf 0000 0080 d1ef cabf
00000380: 0000 0040 94e1 cdbf 0000 0000 8abd 9e3f
00000390: 0000 0000 e30d a13f 0000 00e0 1da9 d3bf
000003a0: 0000 0000 dc4f 85bf 0000 0000 8fa3 adbf
000003b0: 0000 0000 9bbd a13f 0000 0040 c664 c6bf
000003c0: 0000 0020 75b8 d03f 0000 0060 8216 c4bf
000003d0: 0000 0000 e47c d0bf 0000 0000 6962 c7bf
000003e0: 0000 00e0 ea80 cbbf 0000 0060 a8c9 d23f
000003f0: 0000 0000 9be6 a3bf 0000 0040 1d83 b3bf
00000400: 0000 0000 f025 d1bf 0000 00c0 e65b c7bf
00000410: 0000 00a0 dd8f c7bf 0000 00a0 5346 d3bf
00000420: 0000 0000 ab74 a53f 0000 0020 6e4e d3bf
00000430: 0000 0000 b441 a23f 0000 0000 f6d7 93bf
00000440: 0000 0080 fc04 c33f 0000 00c0 74f7 c23f
00000450: 0000 0060 cc0f c2bf 0000 00e0 3551 c2bf
00000460: 0000 0000 dabf d0bf 0000 00e0 1f15 cdbf
00000470: 0000 0000 7817 96bf 0000 0040 88d1 d1bf
00000480: 0000 0000 a07c b43f 0000 0080 35ff ba3f
00000490: 0000 0060 b2b2 d03f 0000 0000 86fc d2bf
000004a0: 0000 0000 c6b4 d1bf 0000 0000 d092 6dbf
000004b0: ff6d 5d3a 8e07 e2ce ff6d 5d3a 8e07 e2ce
000004c0: d907 31fd 4784 e9c6 45a9 f796 6f98 f5c6
000004d0: ff6d 5d3a 8e07 e2ce 955e b1df 16c5 1fc7
000004e0: ae78 f32b 47f8 e8c6 ff6d 5d3a 8e07 e2ce
000004f0: 4c5f d7b0 b191 7946 3bc8 d2bc 4507 e246

layer0.bias f8 [16]
-0.2856951057910919 -0.08126822113990784 -7.656474641982537e+33 5.582620244465911e+106 -0.29645198583602905 -1.4894018536337025e+34 -4.14051372760426e+106 -2.511677440716956e+106
-0.013088613748550415 -4.67751044981699e+106 -3.543611759233442e+33 0.005340248346328735 -0.09715054929256439 -0.30931687355041504 0.09522140026092529 -2.925456044940772e+33
00000000: 0000 0020 d448 d2bf 0000 0080 fecd b4bf
00000010: 21a1 85bd e497 f7c6 d8f7 2e23 5057 1856
00000020: 0000 00c0 11f9 d2bf 761b 828b a7f2 06c7
00000030: 9936 fbbe a20d 12d6 0f8c a6d2 0fe7 05d6
00000040: 0000 0000 34ce 8abf 7cef dedd 0765 14d6
00000050: fde3 3464 d5d6 e5c6 0000 0000 a8df 753f
00000060: 0000 00c0 dbde b8bf 0000 0000 d9cb d3bf
00000070: 0000 0000 6e60 b83f ba08 6849 8e07 e2c6

layer1.weight f8 [4, 16]
-0.022748053073883057 -0.14619550108909607 -0.2400117814540863 -0.08052295446395874 0.09892529249191284 0.18850484490394592 0.10121756792068481 -0.12476477026939392
0.20905369520187378 -0.1818608045578003 0.20594251155853271 0.039555519819259644 0.1603812873363495 -0.11803975701332092 0.03203701972961426 0.025395989418029785
-0.05868086218833923 -0.1160057783126831 -0.015687167644500732 -9.157252616704697e+217 0.004055500030517578 0.12069812417030334 -1.6997558378102372e+218 -1.1068765525006707e+218
-0.11924642324447632 -4.4887494221781975e+216 -0.09620964527130127 0.22626769542694092 -0.09327632188796997 0.012196630239486694 0.10179755091667175 0.07713869214057922
-0.05932974815368652 -0.18659240007400513 -0.196025550365448 -0.17685341835021973 -0.08515763282775879 0.15173646807670593 -0.000987321138381958 -0.11383315920829773
-0.06367504596710205 -0.05396902561187744 0.18349063396453857 -0.08289477229118347 -0.07770302891731262 0.24156129360198975 -0.15656951069831848 0.16325637698173523
0.017170637845993042 0.1774834394454956 -9.214340469750368e+72 -9.8244111757962e+72 -0.04383000731468201 -5.803988492432151e+72 -9.515023467107121e+71 -1.3901464240963037e+72
0.1468447744846344 -3.0618702785449353e+72 -3.834755555012118e+72 0.13628187775611877 0.05740326642990112 0.2176949679851532 0.08983680605888367 -3.817532062460901e+72
00000000: 0000 0000 444b 97bf 0000 00c0 88b6 c2bf
00000010: 0000 00c0 b4b8 cebf 0000 0000 279d b4bf
00000020: 0000 0000 2b53 b93f 0000 0040 ed20 c83f
00000030: 0000 0000 65e9 b93f 0000 0080 95f0 bfbf
00000040: 0000 0080 45c2 ca3f 0000 0000 3747 c7bf
00000050: 0000 0000 535c ca3f 0000 0000 9f40 a43f
00000060: 0000 00c0 5f87 c43f 0000 0080 da37 bebf
00000070: 0000 0000 2867 a03f 0000 0000 6801 9a3f
00000080: 0000 0000 6b0b aebf 0000 0000 8eb2 bdbf
00000090: 0000 0000 4c10 90bf cf54 857b 309a 30ed
000000a0: 0000 0000 809c 703f 0000 0080 12e6 be3f
000000b0: a061 15ae 23d1 3eed ef49 9f0c 6311 34ed
000000c0: 0000 0000 ef86 bebf 0fb1 e3bb d00a eaec
000000d0: 0000 0000 32a1 b8bf 0000 0000 57f6 cc3f
000000e0: 0000 0000 f5e0 b7bf 0000 0000 8cfa 883f
000000f0: 0000 0080 670f ba3f 0000 0080 5cbf b33f
00000100: 0000 0000 7860 aebf 0000 0080 42e2 c7bf
00000110: 0000 0080 5d17 c9bf 0000 0000 22a3 c6bf
00000120: 0000 0000 e4cc b5bf 0000 00c0 196c c33f
00000130: 0000 0000 202d 50bf 0000 0080 2b24 bdbf
00000140: 0000 0000 024d b0bf 0000 0000 d4a1 abbf
00000150: 0000 0000 9f7c c73f 0000 0080 9738 b5bf
00000160: 0000 0080 58e4 b3bf 0000 0000 7beb ce3f
00000170: 0000 0040 780a c4bf 0000 00c0 95e5 c43f
00000180: 0000 0000 2e95 913f 0000 0000 c7b7 c63f
00000190: 4dec a688 4bdc 14cf cc23 87a7 de3d 16cf
000001a0: 0000 0000 e370 a6bf 6d6c 672f 8f47 0acf
000001b0: c544 cadf a53b e1ce 1031 7db1 6c2d e9ce
000001c0: 0000 0040 cfcb c23f 88d6 894a 31ba fbce
000001d0: a2d2 49e9 f75c 01cf 0000 0040 af71 c13f
000001e0: 0000 0000 f663 ad3f 0000 00c0 6ddd cb3f
000001f0: 0000 0080 8bff b63f 27cf 9012 0149 01cf

layer1.bias f8 [4]
-0.11843281984329224 -2.42396546455182e+107 0.1426033079624176 -6.152391143205246e+34
00000000: 0000 0000 9d51 bebf d4d3 0f3a 116c 3ad6
00000010: 0000 0040 d340 c23f f80b f2de b9b2 27c7

layer2.weight f8 [9, 4]
-0.20523929595947266 5.616532336922324e+217 -0.07593828439712524 -0.40374135971069336 -0.10724425315856934 -0.2778944969177246 0.04728353023529053 0.26106250286102295
0.32639575004577637 0.4614587426185608 -0.3251953721046448 0.3105032444000244 -0.1242935061454773 0.2235214114189148 0.44327545166015625 -0.26122480630874634
0.17638707160949707 -5.05487910323009e+217 -0.026885569095611572 0.040205955505371094 -0.08396071195602417 0.2308557629585266 0.2686556577682495 0.18902534246444702
-0.24775999784469604 0.07848465442657471 0.2265012264251709 -0.3043365478515625 -0.3155753016471863 0.07620471715927124 0.14157432317733765 -0.4291691184043884
0.21294647455215454 -0.06791388988494873 0.3690391182899475 -2.7770669365483344e+72
00000000: 0000 0000 4845 cabf 5dd3 3dc8 a45d 246d
00000010: 0000 0000 b170 b3bf 0000 0000 e6d6 d9bf
00000020: 0000 0000 5c74 bbbf 0000 0000 06c9 d1bf
00000030: 0000 0000 8c35 a83f 0000 0080 3fb5 d03f
00000040: 0000 0000 abe3 d43f 0000 0040 8a88 dd3f
00000050: 0000 0040 00d0 d4bf 0000 0000 49df d33f
00000060: 0000 0000 b3d1 bfbf 0000 0080 599c cc3f
00000070: 0000 0000 a05e dc3f 0000 0040 e8b7 d0bf
00000080: 0000 0000 da93 c63f 6c71 0481 4754 22ed
00000090: 0000 0000 e487 9bbf 0000 0000 e095 a43f
000000a0: 0000 0000 737e b5bf 0000 0080 ae8c cd3f
000000b0: 0000 0080 a731 d13f 0000 0080 fb31 c83f
000000c0: 0000 0080 99b6 cfbf 0000 0000 9217 b43f
000000d0: 0000 0000 fefd cc3f 0000 0000 407a d3bf
000000e0: 0000 00c0 6232 d4bf 0000 0000 2782 b33f
000000f0: 0000 0080 1b1f c23f 0000 00c0 8177 dbbf
00000100: 0000 0080 d441 cb3f 0000 0000 ce62 b1bf
00000110: 0000 0040 569e d73f 5125 b033 f225 f9ce

layer2.bias f8 [9]
2.0036695156200117e+86 -0.3753208518028259 -0.4338245391845703 2.005520225416479e+86 -6.041849487040223e+107 -0.015804290771484375 2.011638571561711e+86 1.8854576822413595e+86
-1.4542338978815746e+35
00000000: 2dd5 a373 f6c8 d951 0000 00c0 4105 d8bf
00000010: 0000 0000 c8c3 dbbf 8006 af4b 0fcf d951
00000020: a836 59a7 f076 50d6 0000 0000 002f 90bf
00000030: 1ffe 655c 37e3 d951 29f0 ae72 8543 d851
00000040: 7c81 043b ed01 3cc7
