python/snapshot0.pt (torch_old, 586855 bytes, 6 tensors)

layer0.weight f8 [256, 19]
000000 9d 7c 4f 6b 8f 8a bb bf 6a ed b0 43 9f 55 c7 3f
       -0.10758301133999955 0.1823004799387989
000010 3e b8 fb 58 45 04 a1 bf 98 5d 65 5d 02 e3 c3 3f
       -0.03323570929738694 0.15536527214383677
000020 a3 09 b3 c0 bc c3 ca 3f ee 0c 02 df 78 2f c4 3f
       0.2090984288134453 0.157698735132818
000030 5b 74 ad 9d 9b 84 c9 3f 1a 34 66 4c a2 36 cc 3f
       0.1993593711767144 0.22041729669982218
000040 65 0f b9 8f 71 e4 a2 bf d3 40 c7 af 86 0a 90 3f
       -0.03689913634710144 0.015665153959901822
000050 ce 2f 0e 54 e6 03 b0 bf 16 e8 f8 75 21 c5 ca 3f
       -0.06255950500616267 0.20914095173230923
000060 31 bf 38 50 c8 84 93 bf cd 2f 0e 94 4d 5b b5 bf
       -0.01906121244081688 -0.08342442383417321
000070 16 e8 f8 b5 9a 01 c9 3f ea 17 07 6a 25 89 cc bf
       0.19536146054616726 -0.22293536831983768
000080 54 03 90 a8 bb cc 98 bf 73 f3 36 5a a8 c9 a2 bf
       -0.024218494570962548 -0.03669477559331016
000090 95 8e f1 47 51 12 bd 3f 3d 69 ce f5 35 21 c3 bf
       0.11356075293002228 -0.14945101263294616
0000a0 8d 23 03 49 0c 74 ac 3f 08 09 1f 7d 03 1e c3 bf
       0.05557287589323954 -0.1493534432357324
0000b0 8b 68 13 95 67 0a ae bf e4 17 2a de a7 a1 c9 bf
       -0.05867313093922729 -0.20024584148285307
0000c0 eb 78 e1 f9 3c ce 9d bf 11 23 35 6b 2a 15 c5 bf
       -0.029107048751364422 -0.16470842585319947
0000d0 73 d0 b1 14 74 79 c0 3f d8 45 3e e9 11 3f c4 bf
       0.12870646486738088 -0.15817474259215092
0000e0 cb 76 91 4f a2 ab 6d bf d8 45 3e 89 19 4a c6 bf
       -0.003621880544001898 -0.17413634492235874
0000f0 d8 45 3e e9 52 9c c0 bf 25 d1 0d b6 17 c8 96 3f
       -0.12977062596159672 0.02224766777676836
000100 73 17 f9 a4 fe 02 ae bf 42 74 83 6d 29 54 bf 3f
       -0.0586165977843355 0.12237795756978279
000110 28 ba c1 f6 aa 0c cd 3f bd 88 7b db eb ff c3 3f
       0.22694909142178799 0.15624759880944863
000120 97 82 af e4 9e 52 a3 3f 50 6c 89 1a df 7c b9 bf
       0.03773972074100589 -0.09956163785811722
000130 00 00 00 00 07 50 ae bf 00 00 00 00 38 4e 70 3f
       -0.059204310178756714 0.003980845212936401
000140 00 00 00 00 c8 e4 a0 bf 00 00 00 40 ec 53 cc bf
       -0.03299546241760254 -0.22131112217903137
000150 00 00 00 40 b1 80 c5 bf 00 00 00 00 f5 d3 9b 3f
       -0.16798987984657288 0.027175739407539368
000160 00 00 00 c0 7d f8 b4 bf 00 00 00 c0 ab 05 b4 bf
       -0.0819166749715805 -0.07821153104305267
000170 00 00 00 40 9c 9c bc 3f 00 00 00 00 2d 9a 97 3f
       0.11176468431949615 0.023049071431159973
000180 00 00 00 20 2e a9 cc bf 00 00 00 00 d2 ea bd bf
       -0.22391296923160553 -0.11686432361602783
000190 00 00 00 00 c0 44 3b 3f 00 00 00 00 4c d6 71 bf
       0.0004160851240158081 -0.004354760050773621
0001a0 00 00 00 e0 fc 21 c1 3f 00 00 00 00 7c 5d c7 bf
       0.13384972512722015 -0.1825404167175293
0001b0 00 00 00 a0 a6 b0 c9 bf 00 00 00 80 2f 35 c4 bf
       -0.2007034569978714 -0.15787309408187866
0001c0 00 00 00 00 64 27 72 bf c0 82 ab 0e a0 dc c0 3f
       -0.00443209707736969 0.13173294750506237
0001d0 8b 4d 3e 4c 8d c8 c0 bf fd 6e 95 e8 34 bb bf 3f
       -0.13112035963841281 0.12395029714883417
0001e0 3e b5 e0 7f 86 76 c7 bf 76 b5 14 a9 3b 36 98 bf
       -0.18330460781127472 -0.023644382662657525
0001f0 13 7d a4 99 ad f1 a3 3f 89 cd 84 08 3b dc ac bf
       0.0389532327701493 -0.0563677261256102
000200 f0 6e 78 de 4d 24 cc bf 36 76 1f 78 a2 cc b8 bf
       -0.21985791552366818 -0.09687247688949516
000210 83 b3 84 08 cc b6 c7 bf 7d 4c 7b d7 5f ad c8 3f
       -0.18526602188049077 0.19279096623958827
000220 01 ce 12 22 54 99 a7 bf 03 99 f6 2e 3f e3 b2 3f
       -0.04609167972503415 0.07378001114429726
000230 03 99 f6 2e db e8 b2 3f 7d 4c 7b d7 51 9a cb 3f
       0.07386560341419472 0.21564696332515956
000240 83 b3 84 c8 fe be c7 bf c3 3a df 64 17 a8 a2 3f
       -0.18551621237693547 0.03643868547771014
000250 10 b8 84 19 06 ad 90 3f 1b ad 6a 2e f9 c5 a8 3f
       0.016285033519288616 0.048385416904546306
000260 00 00 00 60 cb b6 ca 3f 00 00 00 60 bd 8d cc 3f
       0.2087034434080124 0.22307555377483368
000270 00 00 00 40 e6 91 b0 3f 00 00 00 00 59 7e ac bf
       0.06472624838352203 -0.055651456117630005
000280 00 00 00 20 90 25 c8 bf 00 00 00 20 a2 b2 c9 3f
       -0.1886463314294815 0.20076395571231842
000290 00 00 00 40 c8 b9 bf 3f 00 00 00 80 4e f8 ae 3f
       0.12392856180667877 0.060488179326057434
0002a0 00 00 00 e0 bb c9 cc bf 00 00 00 00 13 cf a2 bf
       -0.22490642964839935 -0.036736100912094116
0002b0 00 00 00 60 4e ae c2 bf 00 00 00 60 42 94 c6 bf
       -0.14594440162181854 -0.17639951407909393
0002c0 00 00 00 80 43 c8 a1 3f 00 00 00 c0 f9 ae b2 3f
       0.03473101556301117 0.07298241555690765
0002d0 00 00 00 20 87 39 c9 3f 00 00 00 00 0d 9d a1 bf
       0.19706811010837555 -0.03440132737159729
0002e0 00 00 00 80 05 d6 c8 bf 00 00 00 40 2b 02 c0 bf
       -0.19403141736984253 -0.12506619095802307
0002f0 00 00 00 80 58 89 b5 bf 5c fd 3b 3c f4 8b c0 bf
       -0.08412697911262512 -0.12927105847482323
000300 8e 76 12 44 43 07 cd 3f e8 53 c7 52 48 97 b6 3f
       0.22678414176782663 0.08824588795626165
000310 b4 f6 54 9a 5f 4b c7 bf a4 20 04 33 a5 12 86 bf
       -0.1819877151082686 -0.010777750605953713
000320 02 35 9d 0b ba 37 c1 bf ee ee af 4b 8a 44 a2 3f
       -0.13451314513296359 0.03567917035976885
000330 bb bc 71 19 14 35 ab 3f aa eb e7 3f 53 0a b2 3f
       0.05313933191870875 0.07047004995540243
000340 2b d0 9d 18 3a 6a 62 bf c2 88 9d 97 fa 69 cb 3f
       -0.002247918576296489 0.21417171862692014
000350 7d ee c4 50 85 5d b6 bf 7d ee c4 f0 41 c0 bf bf
       -0.08736451360612736 -0.12402736786037312
000360 7d ee c4 b0 73 d0 be bf ff 45 ec bc ee da 91 3f
       -0.1203682238164507 0.017436723977032994
000370 7d ee c4 d0 32 d5 b3 bf 1a 21 c5 65 33 76 b6 3f
       -0.07747190091043339 0.08774110064144161
000380 3a 52 e4 cd b5 e1 b0 3f 0d ff 90 dd 3f d2 c1 3f
       0.06594406391770571 0.1392288047663829
000390 3a ce ae 96 d2 c9 c2 3f 8b 57 cf 4e 9e 53 bb 3f
       0.14678413732109324 0.10674466537542864
0003a0 14 00 aa 9d dd 1a c4 3f 04 09 e1 f5 a0 62 b2 3f
       0.15706987570229158 0.0718174553194651
0003b0 b3 91 62 8a 2b 75 a4 bf b4 cf 68 36 c2 ad 9b bf
       -0.03995643677015739 -0.02703002411926976
0003c0 b1 45 16 01 b9 33 98 bf 91 0b 35 4a 69 12 63 3f
       -0.023634806338639517 0.0023281151240168237
0003d0 cc 07 e6 b4 8b 92 8c 3f 17 b3 e8 35 63 c3 bb 3f
       0.013951388795934515 0.1084501272786834
0003e0 e9 4c 17 4a 89 60 bb bf 39 67 ba 50 fc ad 83 bf
       -0.10694177683699348 -0.009609194959285016
0003f0 17 b3 e8 b5 e5 e5 b2 3f 72 a6 0b 45 42 33 c0 bf
       0.07382045451295159 -0.12656429644930572
000400 72 a6 0b 65 da 77 c5 bf 72 a6 0b 65 a5 3a c7 bf
       -0.16772012647497864 -0.18147723611700745
000410 de 76 78 29 94 fe 8c bf c9 45 d2 55 dd a3 bf 3f
       -0.014157445445614977 0.12359412522552939
000420 22 78 57 62 df 3d c7 3f ca 19 18 ac d2 b7 b3 3f
       0.18157570173110665 0.07702366544263053
000430 7a 64 12 f3 d9 8f 85 bf eb 54 0a 0c 1c ff c7 bf
       -0.010528280954803505 -0.18747282588871114
000440 ad ce e3 67 74 9d cc bf ba 09 44 6c 56 55 c4 3f
       -0.2235551364207046 0.1588542965547058
000450 21 ad d5 ed 04 22 88 bf 7a fd 2b 0b 6a 32 a2 3f
       -0.011783636577738012 0.03554088007330854
000460 3f eb 48 62 a7 32 b0 3f 13 37 eb e4 0c 42 cd bf
       0.06327291631252495 -0.22857819726635195
000470 66 92 19 48 65 75 9f bf b8 cd fc b6 a4 ed c0 3f
       -0.03072126629412466 0.13225230154931267
000480 71 67 9b f9 6d 7c 37 3f b8 cd fc f6 40 20 c7 3f
       0.0003583687299460936 0.18067180690705498
000490 48 32 03 e9 14 c3 c0 bf cc 36 f3 db fa 87 a1 3f
       -0.1309534204250602 0.0342405694478721
0004a0 8f 49 66 20 6d fb 73 bf 51 67 37 3b d8 88 bb 3f
       -0.00487845065653615 0.10755683370316872
0004b0 c3 a6 72 73 de 97 b6 3f f8 38 9a 74 55 5e 93 3f
       0.08825483625937651 0.018914542428825037
0004c0 8a 3f 1e 76 90 f8 c6 3f 65 2c 68 78 d8 bc ae 3f
       0.17946058051574837 0.060034527490721946
0004d0 a6 5a d7 6d 69 0d cd 3f 6c fc c8 3a da 00 b3 bf
       0.22697179663983497 -0.07423175749953409
0004e0 31 21 c2 b4 cd cf c1 bf 33 c6 04 68 8b d3 b0 3f
       -0.1391541607483844 0.06572791375654034
0004f0 cb 84 b9 ca 61 8c c1 3f 47 f7 7e 2d 22 9a bb 3f
       0.13709661863962305 0.10782064066640117
000500 f7 4b 5c a5 0f 85 c8 3f 3d d0 8e ea 7f 6d ac bf
       0.19156070303196746 -0.055522916204978824
000510 18 68 47 35 a0 42 bd bf d2 81 76 54 43 e6 74 bf
       -0.11429787922625712 -0.005102408416320663
000520 18 68 47 35 91 37 b5 bf 18 68 47 b5 17 02 b9 bf
       -0.08287913847689798 -0.09768818069224527
000530 f7 4b 5c 65 e4 7d cc 3f 8b 5f e2 2a 31 97 9c 3f
       0.22259192418331938 0.027920501940200942
000540 01 eb cb 0e ba 4a cc 3f ab ee 37 2d 4e 97 c0 bf
       0.22103048059928912 -0.12961747367795814
000550 2c 50 71 8f ba 30 c2 3f 00 00 00 a0 49 0a cd 3f
       0.142112083473536 0.22687645256519318
000560 00 00 00 20 56 35 c7 3f 00 00 00 e0 00 1f c0 3f
       0.18131519854068756 0.12594614923000336
000570 00 00 00 20 b8 9a c3 3f 00 00 00 e0 10 55 c3 3f
       0.15315915644168854 0.15103350579738617
000580 00 00 00 80 8c e0 c2 bf 00 00 00 40 f0 d8 c8 bf
       -0.14747768640518188 -0.19412043690681458
000590 00 00 00 00 7d cd c1 bf 00 00 00 20 24 03 bf bf
       -0.13908350467681885 -0.12114167958498001
0005a0 00 00 00 e0 af a2 c3 3f 00 00 00 00 bc b6 8d 3f
       0.15340231359004974 0.014508694410324097
0005b0 00 00 00 60 1d 7c c9 bf 00 00 00 80 53 4f a8 3f
       -0.19910018146038055 0.04748021066188812
0005c0 00 00 00 00 86 e6 97 bf 00 00 00 00 b5 10 9c bf
       -0.023340314626693726 -0.027407482266426086
0005d0 00 00 00 00 87 c5 b3 bf 00 00 00 40 1f 02 be 3f
       -0.07723277807235718 0.11721988022327423
0005e0 00 00 00 00 56 6e c8 bf 00 00 00 c0 d8 1f be 3f
       -0.19086718559265137 0.11767344176769257
0005f0 00 00 00 80 5b 96 a3 bf 00 00 00 40 35 a8 ba 3f
       -0.038256511092185974 0.10412915050983429
000600 00 00 00 e0 45 e6 c5 3f 00 00 00 40 ad a2 bc 3f
       0.17108987271785736 0.11185725033283234
000610 00 00 00 20 24 2a c1 3f 00 00 00 60 e2 ae c8 3f
       0.13409854471683502 0.19283704459667206
000620 00 00 00 c0 a4 e4 c0 bf 00 00 00 e0 17 81 c3 3f
       -0.1319776475429535 0.15237711369991302
000630 00 00 00 00 a7 3f 95 3f 00 00 00 40 2f fe c4 bf
       0.020750626921653748 -0.16400709748268127
000640 00 00 00 20 61 96 c5 bf 00 00 00 40 00 b6 b1 3f
       -0.16865171492099762 0.0691833645105362
000650 00 00 00 c0 d4 b1 b9 bf 00 00 00 00 69 32 b5 bf
       -0.10036973655223846 -0.08280044794082642
000660 00 00 00 60 38 05 cc 3f 00 00 00 80 00 a5 a0 bf
       0.21890930831432343 -0.032508864998817444
000670 00 00 00 40 82 59 c5 bf 00 00 00 e0 49 35 c2 bf
       -0.166794091463089 -0.14225123822689056
000680 00 00 00 80 25 7d b8 bf 00 00 00 00 28 52 8d bf
       -0.09565958380699158 -0.014316856861114502
000690 00 00 00 00 c0 40 88 3f 00 00 00 00 f1 06 94 3f
       0.01184225082397461 0.019557729363441467
0006a0 00 00 00 e0 e3 0c c6 3f 00 00 00 c0 bf 41 ca bf
       0.17226837575435638 -0.20513150095939636
0006b0 00 00 00 20 a8 13 ca 3f 00 00 00 80 7a df a5 bf
       0.20372487604618073 -0.04272063076496124
0006c0 00 00 00 60 85 9f bb bf 00 00 00 00 57 d1 95 3f
       -0.10790284723043442 0.02130638062953949
0006d0 00 00 00 40 df 72 b0 3f 00 00 00 00 d8 d5 a8 bf
       0.0642528086900711 -0.04850649833679199
0006e0 00 00 00 c0 fc ba b3 3f 00 00 00 80 55 72 c8 bf
       0.07707194983959198 -0.1909891963005066
0006f0 00 00 00 c0 0a 8a b0 3f 00 00 00 c0 c9 ee c8 bf
       0.06460635364055634 -0.19478723406791687
000700 00 00 00 00 20 70 4f bf 00 00 00 40 ba b1 b1 bf
       -0.0009594112634658813 -0.06911815702915192
000710 00 00 00 20 e4 79 c7 bf 00 00 00 e0 ac 93 bc bf
       -0.18340732157230377 -0.11162834614515305
000720 28 ad e7 36 78 80 ba bf 42 dd 49 ad 48 e2 bc bf
       -0.10352279034093625 -0.11282781820942936
000730 98 6d ca 9a 10 b7 c1 3f c5 bf 0e b6 8b bc 9a 3f
       0.13839919622556063 0.026109869944491288
000740 1b 21 39 d6 29 fd ca bf 6b 84 1e 03 a0 54 cb bf
       -0.2108509346019297 -0.21352005150132256
000750 86 ea 13 92 56 a9 b0 bf 36 a8 f2 50 27 20 c7 bf
       -0.06508389536240075 -0.1806687493565861
000760 c9 54 b7 86 6a 01 a2 3f 4a 29 1c a6 54 79 6d bf
       0.035167054123726844 -0.0035978940294444694
000770 5d 8f 67 8d fc 5f c0 3f a3 70 98 52 16 24 c0 bf
       0.12792927650945787 -0.1261012938783824
000780 5d 8f 67 cd b4 ac c3 3f 5b eb f1 ac 95 71 73 3f
       0.1537080767585576 0.00474699465768932
000790 9c c2 61 ca 1b 89 ab bf 5d 8f 67 cd fd 16 cb 3f
       -0.053780430273836916 0.2116391423179448
0007a0 7e 6b 54 dc 4e 2e a7 bf 79 59 df f1 b7 29 c5 3f
       -0.045275177379344264 0.1653356486337534
0007b0 58 63 fd 37 c9 00 a9 3f 00 00 00 a0 e8 ea c7 bf
       0.04883412178487018 -0.18685634434223175
0007c0 00 00 00 e0 88 b9 c8 3f 00 00 00 60 95 a2 c7 3f
       0.19316206872463226 0.18464915454387665
0007d0 00 00 00 00 a7 5d a3 bf 00 00 00 40 b8 06 cd bf
       -0.037823885679244995 -0.22676756978034973
0007e0 00 00 00 e0 c0 0f c0 3f 00 00 00 20 93 be c0 bf
       0.1254807561635971 -0.13081587851047516
0007f0 00 00 00 a0 d1 8b bf bf 00 00 00 a0 97 2c c6 3f
       -0.12322721630334854 0.17323584854602814

layer0.bias f8 [256]
000000 cd 2f 0e 14 27 55 b1 bf 8d e8 06 db f4 d9 a3 3f
       -0.06770557632097436 0.038772250878040905
000010 00 00 00 60 aa 73 bd bf fd 66 09 91 a4 75 b9 bf
       -0.11504616588354111 -0.09945133725105033
000020 00 00 00 80 51 21 af bf 7d ee c4 70 04 88 be bf
       -0.06080107390880585 -0.11926295998721943
000030 e9 4c 17 ca ae d0 b4 bf 64 9b f9 6d 0d 65 b2 3f
       -0.08130924638617255 0.07185443816125098
000040 f7 4b 5c 25 4e c9 c7 3f 00 00 00 40 27 2b bb 3f
       0.18583084892506438 0.10612721741199493
000050 00 00 00 a0 c3 25 cb bf 00 00 00 00 5b 3b 90 3f
       -0.21208997070789337 0.015851423144340515
000060 4a e1 30 05 8b 0f bc bf 00 00 00 c0 32 dd bb 3f
       -0.10961216809017063 0.10884396731853485
000070 8e c9 6f 3c db 79 c8 bf 00 00 00 60 ff 5a c1 3f
       -0.19121876193055382 0.13558952510356903
000080 e8 6e 85 5d 11 54 a1 3f 54 23 42 97 ef 8a b2 3f
       0.03384451166740893 0.07243249361830567
000090 eb f6 97 95 de fa cc bf 4c a4 e6 8c 3b 68 c1 bf
       -0.22640592865348394 -0.13599342708519868
0000a0 be fe e0 46 ba 1e 88 3f c9 79 64 be 99 2f c4 bf
       0.011777358329822515 -0.15770265385158513
0000b0 00 00 00 00 ac 53 af bf 20 8e 93 0f e2 fa b0 bf
       -0.061185240745544434 -0.06632817154200454
0000c0 00 00 00 a0 4b 15 c4 3f 00 00 00 80 8c bd a1 bf
       0.15689988434314728 -0.03464926779270172
0000d0 32 c0 6e 2d 84 ae 9f 3f 00 00 00 80 59 c5 af bf
       0.030939164422022887 -0.06205253303050995
0000e0 2b 23 43 c9 bd 74 bc bf b4 aa 89 be 2c 46 66 3f
       -0.11115633166913301 0.0027190088188054577
0000f0 ae a4 60 e8 a1 da c7 bf 2a 47 e1 2b 09 92 c0 3f
       -0.18635963293607943 0.12945665972306958
000100 62 9b 80 98 4f 38 a7 3f d5 2d 69 a4 4d 20 9d 3f
       0.04535149323083122 0.02844353977188326
000110 db 93 b1 99 02 18 c5 bf cd 75 22 d2 01 e1 94 bf
       -0.16479523186276776 -0.020389584017370944
000120 99 76 25 61 05 d5 95 3f 31 e5 9f f7 24 93 c7 3f
       0.021320423178045365 0.1841779908279846
000130 00 00 00 60 69 04 c9 3f 9d 7c 81 79 0b 05 b0 3f
       0.1954471319913864 0.06257697788668044
000140 00 00 00 c0 24 b4 b3 3f 00 00 00 00 4a 1f 8f bf
       0.0769675225019455 -0.01519639790058136
000150 01 29 9f 01 05 3a b7 3f 00 00 00 c0 7d 09 b5 3f
       0.09072905816643485 0.082176074385643
000160 00 00 00 40 2c b2 b3 3f 76 ba cc b1 7d 50 c0 bf
       0.07693745195865631 -0.12745639020564042
000170 97 b6 9e 0c 9d 87 bf bf fc 62 d5 47 96 6f c4 3f
       -0.12316304739098381 0.15965536601540709
000180 7d 0f cb 3c ce d4 ac bf 5a 09 01 47 49 2e a3 3f
       -0.0563110779962974 0.03746251098393101
000190 70 a7 3e 5f d6 62 c9 3f 00 00 00 00 97 5e 98 bf
       0.19832877779600322 -0.02379833161830902
0001a0 00 00 00 00 98 98 7b bf 00 00 00 40 9a ab b4 3f
       -0.006737321615219116 0.0807434469461441
0001b0 de 58 b2 83 3b 6f c1 bf ab c8 7a ed 1b 6f c4 3f
       -0.1362070458459987 0.1596407804077605
0001c0 00 00 00 60 4b 86 c1 bf 00 00 00 80 77 d9 a7 bf
       -0.1369108408689499 -0.04658101499080658
0001d0 97 0f 46 f3 ef b8 c3 3f be 18 2d 5d 6e b8 cb 3f
       0.15408133867833548 0.21656589078538063
0001e0 f8 b3 88 c5 1b f3 66 bf 6f d4 11 58 6c f4 8c 3f
       -0.0028014700331113716 0.014138075292274814
0001f0 e1 3d eb 6c ff 05 c5 3f 00 00 00 20 22 60 c8 3f
       0.16424553697878166 0.19043375551700592
000200 00 00 00 20 6e 6d c5 3f ec dc 1a 96 01 30 c8 bf
       0.16740204393863678 -0.18896503285734612
000210 53 70 4a 41 17 8c c5 bf 4e a3 5c f2 ff 0e b2 bf
       -0.16833773315454667 -0.07054137866056218
000220 00 00 00 00 fc 17 a5 bf 27 3e f0 91 25 d3 b0 bf
       -0.04119861125946045 -0.06572184384298706
000230 a3 f0 45 ad 6d ae c5 bf 6a 89 9a a4 3b 1e bc bf
       -0.16938563309293383 -0.10983631867069268
000240 48 eb fe 86 0b 4c cd bf 89 ca 7e 99 25 f5 ba 3f
       -0.22888321010199264 0.10530314443057355
000250 00 00 00 20 09 f9 cc bf 00 00 00 c0 e8 3a ba bf
       -0.22634996473789215 -0.10246138274669647
000260 64 ad 36 77 a2 97 c8 3f 38 11 e2 ae f3 84 bc bf
       0.19212752171493286 -0.11140368480306939
000270 43 95 27 1d de 8c c0 bf 65 62 22 50 2a ac c3 3f
       -0.12929893897595876 0.1536915675431089
000280 a9 5d a8 27 36 f8 bd bf c5 49 f0 15 66 12 c4 3f
       -0.11706865757184083 0.15681148596975283
000290 00 00 00 00 36 00 8e 3f 00 00 00 40 ac a3 ca bf
       0.014648839831352234 -0.20811989903450012
0002a0 00 00 00 c0 c4 df bd 3f cf 58 73 7b f5 65 c3 3f
       0.11669568717479706 0.15154903915271808
0002b0 d3 90 7b 5e 65 6d 77 3f 04 09 0c bd 10 c1 a9 bf
       0.005719562504712355 -0.05030109698965826
0002c0 36 a0 3f 2a 28 61 c6 3f 00 00 00 40 67 09 c4 bf
       0.1748399931232158 -0.15653696656227112
0002d0 00 00 00 a0 d4 65 c1 3f ac 63 1b 2f 80 59 bc bf
       0.13592012226581573 -0.11074067258904446
0002e0 00 00 00 e0 1b 0f c8 bf 47 cd ae 91 7a 44 bc bf
       -0.18796108663082123 -0.1104199033423373
0002f0 db 27 49 0f f3 17 91 3f 9d 6e ef e0 b9 a9 99 3f
       0.01669292240902807 0.025061516145668084
000300 0c 9f 06 49 48 8b b0 bf 00 00 00 80 19 b4 ac bf
       -0.06462528021677033 -0.056061550974845886
000310 00 00 00 00 01 64 a3 bf ea c7 ed a6 38 c5 bb bf
       -0.03787234425544739 -0.10847810817156725
000320 db b2 eb a2 94 f7 a6 bf 29 0d b6 6b 68 1b c5 3f
       -0.0448576401593976 0.1648989225323956
000330 13 5c 85 dc 72 9e a8 bf 00 00 00 a0 3c a6 c4 3f
       -0.048083867472705454 0.16132314503192902
000340 67 81 b6 31 1e 92 c1 bf 00 00 00 00 c1 b7 9d bf
       -0.13727166583431513 -0.029021278023719788
000350 7c d4 13 70 86 11 c1 3f 20 9b 5e 37 df 59 98 3f
       0.13334732506305957 0.023780334238519107
000360 68 cd 6c e3 88 d0 b9 bf 03 00 d6 4a b8 fa a8 bf
       -0.10083823730820074 -0.048787840972181605
000370 00 00 00 80 ca e4 c4 bf 52 77 ed b5 c5 63 a8 bf
       -0.16323214769363403 -0.047636202295264454
000380 00 00 00 00 78 ec a5 bf 91 f6 b6 2f a6 76 b7 3f
       -0.04281973838806152 0.09165419258985198
000390 00 00 00 20 8f 23 c5 3f a0 07 1b e2 e0 3b c5 bf
       0.16514767706394196 -0.1658898452788522
0003a0 78 aa 48 b4 4c 64 ca bf 3b d0 3a ff b0 d3 b7 3f
       -0.20618590166971607 0.09307390433497258
0003b0 ad 46 72 9e 10 54 c6 3f c3 43 79 34 10 b5 b2 3f
       0.17444045769348318 0.07307530671211197
0003c0 b4 9d c6 63 cd 2b cb bf e6 17 91 f2 64 f5 b9 bf
       -0.2122742402254808 -0.10140067026176744
0003d0 34 b6 63 d8 c0 fd ba bf b0 8d c3 68 c2 63 4d 3f
       -0.1054344681067157 0.000896902014144654
0003e0 f2 91 fb c5 33 81 9a bf 96 c1 e4 b6 e6 1b 97 3f
       -0.02588349243059613 0.022567372239053883
0003f0 7e 6b 87 e6 04 56 b7 3f 00 41 65 c8 58 de b1 3f
       0.09115629795216582 0.06979899303883386
000400 53 6c 00 7c 08 9c cb bf 3a c7 69 83 7d cf b4 bf
       -0.21569925360458572 -0.08129105051355348
000410 00 00 00 00 80 3e 81 bf 10 43 bc 17 10 7d c6 3f
       -0.008419990539550781 0.17569161566691394
000420 0c 46 5e 3d 25 4e b3 3f bd d5 e5 e0 10 8e b1 bf
       0.07541115520714231 -0.06857400408428922
000430 00 00 00 20 ad 7b c8 bf 00 00 00 c0 ce c9 c9 bf
       -0.19127430021762848 -0.20147117972373962
000440 d1 b6 a4 6d 4e cc b4 3f f2 b0 e1 49 1a 47 a4 3f
       0.08124246765938926 0.039604970473051795
000450 18 39 50 7b 80 3a 94 bf 00 00 00 40 e3 35 c0 bf
       -0.01975441696782196 -0.12664452195167542
000460 b0 56 cb d4 02 e5 c3 bf a4 d8 66 d3 51 c8 c5 bf
       -0.1554263628992678 -0.17017577001906148
000470 00 00 00 20 73 77 c7 3f 00 00 00 60 71 43 c0 3f
       0.18333281576633453 0.12705819308757782
000480 00 00 00 40 a7 fc b1 bf 87 ee 42 93 26 b4 c7 3f
       -0.07026143372058868 0.1851852625894603
000490 88 96 19 1a cd 67 a2 bf 00 00 00 00 bc 98 80 3f
       -0.035948190151242676 0.008103817701339722
0004a0 00 00 00 60 fd 87 cc 3f ad 25 64 20 35 41 c1 3f
       0.22290007770061493 0.13480247575379903
0004b0 00 00 00 00 d7 25 97 3f 00 00 00 00 69 4b b1 bf
       0.022605285048484802 -0.06755691766738892
0004c0 00 00 00 60 06 21 be bf 00 00 00 00 97 1e 9b 3f
       -0.11769142001867294 0.02648387849330902
0004d0 90 ec 73 a8 7f 1d c3 bf ab c3 f3 c1 92 26 c5 3f
       -0.14933772778735888 0.1652396628410576
0004e0 00 00 00 c0 87 be b0 3f 92 90 0b 14 e7 15 c9 bf
       0.06540726125240326 -0.1959809158207731
0004f0 00 00 00 a0 b3 02 ca 3f 1e 1f e2 b5 65 08 c2 bf
       0.20320744812488556 -0.14088126545925034
000500 00 00 00 80 0e 48 b3 bf 9a c9 7a 30 24 66 a6 3f
       -0.07531824707984924 0.0437480267695662
000510 47 23 78 7e 87 b1 c5 3f a4 8c 6d 2b 6c b5 b7 3f
       0.16948026347406595 0.0926120382333005
000520 00 00 00 20 31 aa c7 3f 00 00 00 60 75 11 c1 3f
       0.18488134443759918 0.13334529101848602
000530 00 00 00 80 2e 4e b0 bf 00 7c ad 1b 6e c0 bd 3f
       -0.06369295716285706 0.11621750045513579
000540 0a 1f ed 98 02 6f bf bf 00 00 00 c0 9e 49 b5 3f
       -0.1227876304011454 0.0831546038389206
000550 53 df 73 d5 0c 88 69 bf 00 00 00 60 cd 43 bf bf
       -0.003116631570829678 -0.12212833017110825
000560 ec 69 86 4d 88 15 77 bf 00 00 00 c0 9a b8 bf 3f
       -0.005635769303263132 0.12391059100627899
000570 00 00 00 80 67 9a b9 bf 66 2b 0c 62 fd a8 b8 3f
       -0.10001227259635925 0.09632857936609937
000580 20 38 3d c5 2f 1b c4 3f 00 00 00 80 14 95 ab 3f
       0.15707966929261463 0.0538717657327652
000590 00 00 00 80 50 0e ac 3f 9d f3 4b 3b f0 99 b2 3f
       0.05479671061038971 0.07266141364739416
0005a0 09 4f 2f fb 3a b0 91 3f 00 00 00 40 ac 54 b0 3f
       0.017273828106978893 0.06379200518131256
0005b0 4b ed d0 9b d2 9a b2 3f dd 09 bc 46 40 01 c3 bf
       0.07267490676979553 -0.14847567991098645
0005c0 2a c0 72 c1 70 77 94 bf 8e e8 88 50 1b ee bf bf
       -0.019986879164832917 -0.12472696987325291
0005d0 00 00 00 a0 f9 e6 c5 bf d7 2d fe 58 f6 82 b1 bf
       -0.1711113005876541 -0.0684045760410109
0005e0 91 04 c9 44 80 b0 cc bf 85 93 33 cb 7d 4d be bf
       -0.22413638456967935 -0.11836992464993841
0005f0 00 00 00 00 3b 3f ad bf 32 e0 e1 b0 b4 12 83 3f
       -0.057123035192489624 0.009313022277851333
000600 00 00 00 c0 00 c5 b4 3f 00 00 00 80 1c ed a1 bf
       0.08113102614879608 -0.0350121408700943
000610 43 df 07 a8 a9 eb bf 3f 92 5f 4f af ec 28 c4 3f
       0.12468967773736232 0.1574989181524385
000620 d1 91 af 6b 82 cc aa 3f 55 b3 19 c4 a9 59 cc 3f
       0.052341533322564644 0.22148630213942036
000630 c4 92 a9 b1 d8 71 cb 3f 1a b1 d4 7e 90 1b 99 bf
       0.21441181826516786 -0.02451921247590958
000640 00 00 00 c0 4c 5b cd bf 00 00 00 80 bf c8 c7 bf
       -0.22934874892234802 -0.18581384420394897
000650 c1 67 f9 da 84 0b b5 bf f3 cc a6 b2 5d ee b8 3f
       -0.08220701547671096 0.09738717662439793
000660 2d a9 a6 85 02 12 99 3f 00 00 00 40 5a b0 b6 bf
       0.024482764632616828 -0.08862842619419098
000670 35 05 f3 84 4b 6d c0 bf a3 a6 41 8d a3 f9 c7 bf
       -0.12833541862168266 -0.18730587384498162
000680 ae 87 db 6a b3 46 be bf b8 e6 02 85 bb b5 b5 3f
       -0.11826630934549939 0.08480426785799977
000690 d1 f7 8a e7 f0 da a4 bf 00 00 00 c0 19 31 bc 3f
       -0.040732887520320234 0.11012421548366547
0006a0 fe fc da a5 0f dc c4 bf 00 00 00 80 df 0c ac bf
       -0.16296573255929298 -0.05478571355342865
0006b0 7b b0 c4 66 df 5c 68 3f 29 73 74 d6 1e 39 c6 bf
       0.002973972636160891 -0.17361817809514804
0006c0 97 0f f6 0a 9f 59 b0 bf e0 31 b3 12 8c f5 b2 bf
       -0.0638675119171793 -0.07405925232450938
0006d0 3d 36 38 cc 12 3e a4 bf d9 26 82 17 2d 0e 92 3f
       -0.03953608267702833 0.017632202682341756
0006e0 00 00 00 80 3e ac b5 bf 71 48 52 06 f0 2c ba bf
       -0.08465948700904846 -0.10224819330531588
0006f0 5a cf 0e b2 59 36 bb 3f 01 19 cf 6a 93 17 a0 bf
       0.10629807088008417 -0.03142986944981097
000700 76 d8 48 b5 09 52 bd bf 0a 88 4a fd 1e 9c a0 3f
       -0.11453304935352712 0.03244110910351601
000710 e0 09 9f cf 1c 06 bc 3f 00 00 00 c0 a2 bf c9 bf
       0.10946827000501669 -0.2011607587337494
000720 00 00 00 00 f4 a0 73 3f b1 b9 3c 62 4b 1e ab bf
       0.004792168736457825 -0.05296550344643281
000730 92 88 22 61 86 17 93 bf 00 00 00 e0 3d 88 c6 3f
       -0.018644427946704463 0.17603276669979095
000740 8b b5 ce 0f d5 cb b8 bf 00 00 00 00 dc 62 7c 3f
       -0.09686023364948519 0.006930217146873474
000750 00 00 00 a0 f4 23 c6 3f 7d 77 be 3a fd 77 cc 3f
       0.17297227680683136 0.222411779101943
000760 00 00 00 20 3c d4 c5 3f 00 00 00 80 2a 1e b0 bf
       0.17053939402103424 -0.06296029686927795
000770 34 a6 55 1a a9 2e a8 3f 00 00 00 a0 04 6e c8 bf
       0.04723099180666815 -0.19085748493671417
000780 00 00 00 a0 93 c8 ba bf b4 2e 9f 2a 6b fb cb 3f
       -0.10462305694818497 0.21861018735068216
000790 09 6c f4 82 ce 28 93 3f 46 bc f0 8e 1f 89 bd bf
       0.018710352652401983 -0.11537358512644955
0007a0 8b d3 79 c8 7a 42 be bf 00 00 00 e0 0f 71 c7 3f
       -0.11820189852171674 0.18313787877559662
0007b0 ad 7f de 3e 61 f6 bc 3f 00 00 00 80 41 60 a0 3f
       0.11313445839777954 0.031984373927116394
0007c0 13 5a a0 07 77 f2 c0 3f 00 00 00 40 39 53 c6 bf
       0.13239944336301387 -0.17441478371620178
0007d0 00 00 00 60 72 e6 ca 3f 00 00 00 80 ff 27 a7 3f
       0.21015767753124237 0.045227035880088806
0007e0 c5 91 b9 7a 1b 8c c5 bf 93 29 7d 55 b9 f5 b6 bf
       -0.16833823673654372 -0.0896869500840352
0007f0 17 ca 03 65 45 cb cc bf a3 54 6e ec e1 42 b6 bf
       -0.22495334083903692 -0.08695804617157647

layer1.weight f8 [256, 256]
000000 00 00 00 80 f8 25 95 bf 00 00 00 00 82 55 8c 3f
       -0.020652659237384796 0.013834968209266663
000010 00 00 00 00 47 9c 85 3f 00 00 00 c0 e5 ed a0 3f
       0.010551981627941132 0.03306501358747482
000020 00 00 00 40 1a fe aa 3f 00 00 00 80 2b 30 94 bf
       0.05271989852190018 -0.019715003669261932
000030 00 00 00 00 37 66 9b bf 00 00 00 80 78 a7 a2 3f
       -0.02675710618495941 0.03643395006656647
000040 00 00 00 c0 3c 75 ad bf 00 00 00 00 5c 02 85 3f
       -0.0575350746512413 0.010258406400680542
000050 00 00 00 00 9e 51 ac 3f 00 00 00 00 00 21 72 bf
       0.055310189723968506 -0.004426002502441406
000060 00 00 00 00 09 c2 81 bf 00 00 00 00 e8 06 51 bf
       -0.008670873939990997 -0.0010392442345619202
000070 00 00 00 c0 65 28 a7 3f 00 00 00 00 8f 7f 9d bf
       0.04523008316755295 -0.028806909918785095
000080 00 00 00 80 da 5c 9c 3f 00 00 00 80 b6 03 9f bf
       0.027697958052158356 -0.030287601053714752
000090 00 00 00 00 0c 84 a5 3f 00 00 00 80 c2 20 a9 3f
       0.04202306270599365 0.04907806217670441
0000a0 00 00 00 c0 c9 d2 a9 bf 00 00 00 00 fd ab a1 bf
       -0.05043631047010422 -0.03451529145240784
0000b0 00 00 00 80 4a 5f a2 3f 00 00 00 00 d5 21 89 bf
       0.03588326275348663 -0.012271560728549957
0000c0 00 00 00 40 1e 5c ab bf 00 00 00 c0 40 ac ad 3f
       -0.05343718081712723 0.0579548105597496
0000d0 00 00 00 00 1f f5 8a bf 00 00 00 80 cc a0 93 bf
       -0.013162843883037567 -0.019168086349964142
0000e0 00 00 00 80 06 8c a0 3f 00 00 00 40 9a 8f a0 bf
       0.03231830894947052 -0.03234560042619705
0000f0 00 00 00 80 2f ff ad 3f 00 00 00 40 ac e4 a2 3f
       0.058587536215782166 0.03690088540315628
000100 00 00 00 00 1d 0f 81 3f 00 00 00 c0 6d 83 a5 bf
       0.008329607546329498 -0.0420183464884758
000110 00 00 00 00 bf 13 9b bf 00 00 00 00 e2 79 82 bf
       -0.0264425128698349 -0.009021535515785217
000120 00 00 00 c0 92 d1 a1 3f 00 00 00 00 f9 ac 9d bf
       0.034802041947841644 -0.028980150818824768
000130 00 00 00 80 46 5d ab bf 00 00 00 00 a5 33 84 3f
       -0.05344600975513458 0.00986412912607193
000140 00 00 00 40 e7 29 a6 3f 00 00 00 80 47 3c ac 3f
       0.043288446962833405 0.05514739453792572
000150 00 00 00 40 25 6f a4 3f 00 00 00 80 3c e7 95 3f
       0.03991047292947769 0.021389909088611603
000160 00 00 00 00 97 b4 93 3f 00 00 00 40 94 60 a1 3f
       0.01924358308315277 0.033939965069293976
000170 00 00 00 00 fe ff 91 bf 00 00 00 00 de ba 75 3f
       -0.017578095197677612 0.005305163562297821
000180 00 00 00 00 e6 59 90 bf 00 00 00 40 f8 53 ae bf
       -0.01596793532371521 -0.059234388172626495
000190 00 00 00 00 a8 b9 a6 bf 00 00 00 40 b2 3f a7 bf
       -0.04438519477844238 -0.04540783911943436
0001a0 00 00 00 80 1d 1d 9d bf 00 00 00 00 67 c1 86 bf
       -0.028431378304958344 -0.011111073195934296
0001b0 00 00 00 00 9b 24 a0 3f 00 00 00 00 0c 58 8a bf
       0.03152927756309509 -0.012863248586654663
0001c0 00 00 00 80 d4 66 9c 3f 00 00 00 00 e4 75 6a 3f
       0.027736015617847443 0.0032300427556037903
0001d0 00 00 00 c0 4b 39 a2 bf 00 00 00 80 b1 cd 9e 3f
       -0.03559338301420212 0.030081532895565033
0001e0 00 00 00 80 ee 63 94 bf 00 00 00 00 14 1c 77 bf
       -0.019912458956241608 -0.005642011761665344
0001f0 00 00 00 00 ae 11 7e 3f 00 00 00 00 ad 84 a4 3f
       0.007341079413890839 0.04007473587989807
000200 00 00 00 40 a6 19 aa bf 00 00 00 c0 00 2f a4 3f
       -0.050976939499378204 0.03942110389471054
000210 00 00 00 40 6a bc a0 bf 00 00 00 c0 16 48 a9 bf
       -0.03268749266862869 -0.04937811940908432
000220 00 00 00 00 f4 c8 a0 3f 00 00 00 00 e0 6f 39 bf
       0.0327831506729126 -0.0003881379961967468
000230 00 00 00 80 51 03 ac 3f 00 00 00 00 de d9 a1 bf
       0.05471281707286835 -0.03486531972885132
000240 00 00 00 c0 c1 9b a5 3f 00 00 00 00 c9 ee 81 3f
       0.042203955352306366 0.008756227791309357
000250 00 00 00 40 cf 71 aa bf 00 00 00 c0 43 88 a4 3f
       -0.0516495481133461 0.040102116763591766
000260 00 00 00 80 c3 47 a4 bf 00 00 00 80 56 77 90 3f
       -0.039610013365745544 0.016080237925052643
000270 00 00 00 80 da 92 a5 bf 00 00 00 00 67 26 9d 3f
       -0.04213602840900421 0.028466805815696716
000280 00 00 00 00 68 fe 6a bf 00 00 00 00 84 a9 a7 bf
       -0.0032951384782791138 -0.046215176582336426
000290 00 00 00 80 34 8a a6 bf 00 00 00 80 23 ca 9d 3f
       -0.044023171067237854 0.02909141033887863
0002a0 00 00 00 c0 64 86 a6 bf 00 00 00 00 5d c7 8e 3f
       -0.04399409145116806 0.015028692781925201
0002b0 00 00 00 40 89 6a af 3f 00 00 00 40 1f 82 a7 bf
       0.06135968118906021 -0.045914627611637115
0002c0 00 00 00 40 77 5d af bf 00 00 00 40 f1 43 a4 bf
       -0.06125996261835098 -0.03958085924386978
0002d0 00 00 00 00 72 d2 81 bf 00 00 00 40 b9 a4 a7 3f
       -0.008702173829078674 0.04617861658334732
0002e0 00 00 00 40 1c c7 ad bf 00 00 00 00 86 ce 8f 3f
       -0.0581597164273262 0.015530630946159363
0002f0 00 00 00 40 a5 a6 a6 bf 00 00 00 80 19 c4 95 bf
       -0.04424015432596207 -0.021255873143672943
000300 00 00 00 80 4b 81 a6 3f 00 00 00 00 15 9e a8 3f
       0.04395519196987152 0.04808107018470764
000310 00 00 00 c0 d7 b3 a7 3f 00 00 00 c0 bc 4d a9 bf
       0.046293966472148895 -0.04942121356725693
000320 00 00 00 c0 7f 4f a5 bf 00 00 00 00 d9 69 91 bf
       -0.04162215441465378 -0.01700533926486969
000330 00 00 00 00 d5 bd 9d 3f 00 00 00 80 f7 fa 91 bf
       0.029044464230537415 -0.017558924853801727
000340 00 00 00 00 61 81 a2 3f 00 00 00 00 f9 cb 84 bf
       0.036143332719802856 -0.010154671967029572
000350 00 00 00 80 c6 2c ac bf 00 00 00 00 49 ae a5 bf
       -0.05502910912036896 -0.0423453152179718
000360 00 00 00 00 91 e7 84 3f 00 00 00 80 17 3e 97 bf
       0.010207302868366241 -0.022697798907756805
000370 00 00 00 00 85 c2 97 bf 00 00 00 00 ff d0 82 3f
       -0.023202970623970032 0.009187690913677216
000380 00 00 00 00 db 51 a9 bf 00 00 00 80 6f b2 9e 3f
       -0.049452632665634155 0.029977552592754364
000390 00 00 00 00 55 00 a2 3f 00 00 00 00 85 cf 83 bf
       0.035158783197402954 -0.009673155844211578
0003a0 00 00 00 00 ca d0 9e 3f 00 00 00 80 ad bf a4 bf
       0.030093342065811157 -0.040524885058403015
0003b0 00 00 00 40 d6 18 aa bf 00 00 00 40 47 a7 a3 bf
       -0.050970740616321564 -0.03838560730218887
0003c0 00 00 00 00 d7 d2 91 3f 00 00 00 00 80 fa 28 3f
       0.017405852675437927 0.00019057095050811768
0003d0 00 00 00 00 9e b0 76 3f 00 00 00 40 0c 66 a8 bf
       0.005539529025554657 -0.04765356332063675
0003e0 00 00 00 40 03 8e a8 3f 00 00 00 40 79 42 ad 3f
       0.04795847088098526 0.05714777857065201
0003f0 00 00 00 00 f0 30 8d 3f 00 00 00 c0 63 5f a5 3f
       0.014253497123718262 0.04174339026212692
000400 00 00 00 c0 58 e6 a2 bf 00 00 00 00 ae a2 a5 3f
       -0.03691365569829941 0.04225677251815796
000410 00 00 00 00 25 25 ae 3f 00 00 00 40 55 f3 a9 3f
       0.058877140283584595 0.0506846085190773
000420 00 00 00 80 d7 55 98 3f 00 00 00 00 cb 89 ad bf
       0.0237649604678154 -0.05769190192222595
000430 00 00 00 80 c1 73 90 bf 00 00 00 00 00 b5 24 bf
       -0.016066573560237885 -0.00015798211097717285
000440 00 00 00 00 ec e0 8d bf 00 00 00 80 68 31 aa bf
       -0.014589160680770874 -0.051158204674720764
000450 00 00 00 00 fc 56 90 3f 00 00 00 80 e3 52 a6 3f
       0.0159568190574646 0.0436011403799057
000460 00 00 00 80 be 2c af 3f 00 00 00 40 82 8c aa bf
       0.060888245701789856 -0.051853246986866
000470 00 00 00 00 73 63 ac 3f 00 00 00 80 84 52 98 bf
       0.055446237325668335 -0.023752279579639435
000480 00 00 00 c0 be 7d a0 bf 00 00 00 c0 7b 5a a7 bf
       -0.0322093591094017 -0.04561220854520798
000490 00 00 00 80 90 66 94 3f 00 00 00 00 5c fc 60 bf
       0.01992250233888626 -0.0020734593272209167
0004a0 00 00 00 00 0d 4e ac 3f 00 00 00 00 e0 7a 7d bf
       0.05528298020362854 -0.007197260856628418
0004b0 00 00 00 40 0f 6c a5 bf 00 00 00 40 b3 9f af 3f
       -0.04184005409479141 0.061765290796756744
0004c0 00 00 00 00 c0 4a 9a 3f 00 00 00 80 3f a0 a6 bf
       0.02567577362060547 -0.04419134557247162
0004d0 00 00 00 80 bd 92 91 bf 00 00 00 80 b5 3a aa 3f
       -0.017161332070827484 0.05122916400432587
0004e0 00 00 00 40 c8 08 a7 bf 00 00 00 40 90 a4 a1 3f
       -0.044988878071308136 0.034458644688129425
0004f0 00 00 00 00 e3 3d a4 bf 00 00 00 c0 8a d2 ac bf
       -0.03953465819358826 -0.05629380792379379
000500 00 00 00 80 0f 70 9c bf 00 00 00 80 e1 cb 9e bf
       -0.027771227061748505 -0.030074618756771088
000510 00 00 00 80 73 41 a5 3f 00 00 00 00 28 f0 a3 bf
       0.04151497781276703 -0.03894162178039551
000520 00 00 00 00 4c 73 6e 3f 00 00 00 00 97 0a 90 3f
       0.003717087209224701 0.01566539704799652
000530 00 00 00 80 4e 69 aa bf 00 00 00 80 04 7c 97 bf
       -0.051584675908088684 -0.022934027016162872
000540 00 00 00 c0 0c 5c a5 3f 00 00 00 00 15 31 aa 3f
       0.04171790927648544 0.05115571618080139
000550 00 00 00 00 13 34 af 3f 00 00 00 00 67 a7 8d 3f
       0.060944169759750366 0.01447945088148117
000560 00 00 00 00 74 39 89 bf 00 00 00 40 72 a3 a1 3f
       -0.012316614389419556 0.034450121223926544
000570 00 00 00 40 90 a8 ab 3f 00 00 00 80 e6 e6 a3 bf
       0.054020412266254425 -0.038871005177497864
000580 00 00 00 c0 83 bc ae bf 00 00 00 00 b2 78 9b 3f
       -0.06003200262784958 0.026827603578567505
000590 00 00 00 c0 69 1c a4 bf 00 00 00 c0 70 cf a6 bf
       -0.0392792746424675 -0.04455139487981796
0005a0 00 00 00 00 90 ce 48 bf 00 00 00 00 d0 e8 8d bf
       -0.0007570460438728333 -0.01460421085357666
0005b0 00 00 00 00 80 2b 6a bf 00 00 00 00 a5 33 97 3f
       -0.003194570541381836 0.02265794575214386
0005c0 00 00 00 80 bd 75 96 bf 00 00 00 40 86 7e ae bf
       -0.02193351835012436 -0.05955905467271805
0005d0 00 00 00 80 3d f3 ad bf 00 00 00 80 77 7e a5 bf
       -0.05849640071392059 -0.04198049008846283
0005e0 00 00 00 c0 ea 21 a9 3f 00 00 00 80 d6 1c a3 bf
       0.04908689111471176 -0.03732939064502716
0005f0 00 00 00 40 34 84 a9 bf 00 00 00 00 1d d2 9a bf
       -0.04983676224946976 -0.02619214355945587
000600 00 00 00 00 18 3b 72 bf 00 00 00 00 cd 39 87 bf
       -0.004450887441635132 -0.011340714991092682
000610 00 00 00 00 12 07 75 3f 00 00 00 40 e3 53 a7 3f
       0.005133695900440216 0.045561887323856354
000620 00 00 00 40 ac 33 a7 3f 00 00 00 80 b7 54 ae bf
       0.04531610757112503 -0.05924008786678314
000630 00 00 00 00 f0 47 68 3f 00 00 00 c0 49 e1 a9 3f
       0.0029639899730682373 0.05054693669080734
000640 00 00 00 40 24 37 aa 3f 00 00 00 00 d9 4f 82 3f
       0.051201947033405304 0.00894135981798172
000650 00 00 00 00 78 00 75 bf 00 00 00 00 02 41 86 bf
       -0.005127400159835815 -0.010866180062294006
000660 00 00 00 80 24 26 9e 3f 00 00 00 c0 90 6c af 3f
       0.029442377388477325 0.06137516349554062
000670 00 00 00 00 44 8b 72 3f 00 00 00 c0 63 11 a1 3f
       0.004527345299720764 0.03333579748868942
000680 00 00 00 00 f6 09 9c bf 00 00 00 40 dc ee a8 3f
       -0.02738174796104431 0.04869735985994339
000690 00 00 00 00 f0 6f 70 bf 00 00 00 00 b4 f8 9d bf
       -0.004013001918792725 -0.029269039630889893
0006a0 00 00 00 00 8d 2e 93 bf 00 00 00 c0 80 a3 a0 bf
       -0.018732264637947083 -0.032497428357601166
0006b0 00 00 00 00 2a 4c a0 3f 00 00 00 00 68 4a 75 3f
       0.03183108568191528 0.0051979124546051025
0006c0 00 00 00 00 6d 31 a7 bf 00 00 00 00 0e 60 8f bf
       -0.04529896378517151 -0.015319928526878357
0006d0 00 00 00 00 e8 8b 7e 3f 00 00 00 c0 ab 81 ac 3f
       0.007457643747329712 0.05567681044340134
0006e0 00 00 00 40 72 cb aa bf 00 00 00 00 33 de 82 3f
       -0.052333422005176544 0.009212873876094818
0006f0 00 00 00 80 e9 dd ab 3f 00 00 00 80 3e 8f a0 bf
       0.05442743003368378 -0.03234286606311798
000700 00 00 00 c0 61 16 ae 3f 00 00 00 00 ba 27 71 bf
       0.0587645098567009 -0.004188276827335358
000710 00 00 00 00 7a f8 ad bf 00 00 00 80 38 4c ab bf
       -0.0585363507270813 -0.053315892815589905
000720 00 00 00 80 1e be 98 bf 00 00 00 40 1b 46 a9 3f
       -0.024162746965885162 0.049362994730472565
000730 00 00 00 00 19 15 91 bf 00 00 00 80 9e 13 9e bf
       -0.01668204367160797 -0.0293717160820961
000740 00 00 00 80 94 57 a1 3f 00 00 00 c0 19 3a ab 3f
       0.03387130796909332 0.05317764729261398
000750 00 00 00 80 45 b1 a4 3f 00 00 00 80 6a 20 a1 3f
       0.040414974093437195 0.03345043957233429
000760 00 00 00 00 a1 f1 91 bf 00 00 00 00 c9 f6 8d 3f
       -0.017523303627967834 0.014630861580371857
000770 00 00 00 80 b4 54 af bf 00 00 00 c0 33 7f a8 3f
       -0.06119312345981598 0.04784547537565231
000780 00 00 00 80 4a 00 99 bf 00 00 00 00 1b ef ae 3f
       -0.02441517263650894 0.06041797995567322
000790 00 00 00 80 fe 35 99 3f 00 00 00 00 ec fa a9 bf
       0.02462003380060196 -0.050742506980895996
0007a0 00 00 00 80 51 f9 9a bf 00 00 00 00 77 f9 99 3f
       -0.026341699063777924 0.025365695357322693
0007b0 00 00 00 c0 2d 1a a4 bf 00 00 00 00 39 87 82 bf
       -0.03926222771406174 -0.009046979248523712
0007c0 00 00 00 c0 1a 05 a9 3f 00 00 00 40 b0 b6 a6 3f
       0.04886706918478012 0.04436255246400833
0007d0 00 00 00 00 08 34 56 bf 00 00 00 40 66 be a4 3f
       -0.0013551786541938782 0.04051513224840164
0007e0 00 00 00 00 ca 09 a7 bf 00 00 00 80 fd 41 a5 3f
       -0.044996559619903564 0.04151909053325653
0007f0 00 00 00 00 c9 87 9b 3f 00 00 00 00 b0 86 5b bf
       0.02688516676425934 -0.0016800612211227417
