python/snapshot1200.pt (torch_old, 586867 bytes, 6 tensors)

layer0.weight f8 [256, 19]
000000 bf ac 5a 77 e8 07 9c bf f3 b5 38 eb 6f e3 a0 3f
       -0.027373916897585057 0.03298520799976847
000010 a2 e6 ef 19 87 09 c7 3f 3e df 89 2a 08 65 7c bf
       0.17997826353512375 -0.006932289027296977
000020 7c d7 b4 52 80 90 ad 3f 17 5a f5 d9 4c 44 c5 bf
       0.057743082138059315 -0.16614685671329774
000030 e1 6e 32 1f 40 a3 76 3f 09 1d 99 5a 28 ca c3 3f
       0.005526781536129483 0.15460686134085957
000040 d8 be af 36 96 d7 b5 3f 92 90 cc 3b 35 04 bd bf
       0.08532084307784815 -0.11334545812548161
000050 44 a6 45 1d 5e 22 c4 3f af 9a 0e f6 58 bb b3 bf
       0.15729881696033676 -0.07707744605304855
000060 d0 26 4e 3a 43 85 b2 bf 4e d4 e4 ab 79 47 ba bf
       -0.07234592603176826 -0.10265312620761444
000070 78 46 14 3e 34 61 91 3f 85 af 43 91 20 e3 a1 3f
       0.016972366608632744 0.03493596814391168
000080 53 53 b0 6a 65 13 c8 3f 59 6f 84 6b c4 20 b4 bf
       0.18809192380345027 -0.07862498879370373
000090 9e 14 c0 59 3f f7 cc 3f d3 19 db 22 2a 86 ca 3f
       0.22629539377536373 0.20721937848993707
0000a0 e7 a3 d8 d2 35 d0 cb bf e2 a6 ff 3b a8 7d c3 bf
       -0.21729157252528283 -0.15227225236531355
0000b0 4a ce 6b c5 f2 f1 b0 3f 1a 3a 57 19 e5 f1 b4 bf
       0.06619183845378376 -0.08181602352781461
0000c0 f8 1a 1b 4b 66 2b c2 3f 9f 4f e6 80 f3 21 ca 3f
       0.14194945018081007 0.20416110795906392
0000d0 99 64 0e ed 6c 32 c4 3f 94 9c f2 93 7d a7 8a bf
       0.15778886389742722 -0.01301477535009913
0000e0 ce a3 fe 25 55 ea c7 3f 34 1c 85 2f 4b 8b 93 3f
       0.18683876376351666 0.019086050773037225
0000f0 f8 27 e3 60 a4 63 c7 bf 3b c2 7c 4a d0 3f a1 bf
       -0.1827283356745395 -0.0336899844099929
000100 3e 13 5a 90 8d 4a c2 bf 75 60 56 43 38 a8 87 3f
       -0.1429001765101478 0.011551322512602472
000110 23 84 27 5f 60 c5 cb 3f 36 09 82 8b 7a f6 c2 3f
       0.21696095129212364 0.1481469327155282
000120 47 a1 84 19 e1 74 a8 bf 29 c8 f5 10 dd 37 b4 3f
       -0.047766718258858414 0.07897740997376047
000130 00 00 00 00 aa 3d 92 3f 00 00 00 60 cc 5a c4 bf
       0.01781335473060608 -0.15902094542980194
000140 00 00 00 80 3c e2 ab 3f 00 00 00 80 ed a6 a7 3f
       0.054460421204566956 0.04619543254375458
000150 00 00 00 80 9f c5 a4 bf 00 00 00 80 42 f6 c2 bf
       -0.04057024419307709 -0.14814025163650513
000160 00 00 00 c0 b2 e7 c1 bf 00 00 00 20 72 a2 c8 bf
       -0.1398833692073822 -0.19245745241641998
000170 00 00 00 00 df db 9a 3f 00 00 00 40 6d f6 b0 3f
       0.026229366660118103 0.06626017391681671
000180 00 00 00 c0 36 1b bd 3f 00 00 00 c0 eb 95 b7 bf
       0.11369650065898895 -0.0921313613653183
000190 00 00 00 00 f7 07 95 bf 00 00 00 40 1e f2 b3 bf
       -0.020538195967674255 -0.07791317999362946
0001a0 00 00 00 a0 c8 08 c1 3f 00 00 00 40 ac 81 b3 bf
       0.13308055698871613 -0.07619740068912506
0001b0 00 00 00 00 b6 f0 84 bf 00 00 00 60 fc 6e c3 bf
       -0.01022474467754364 -0.15182451903820038
0001c0 00 00 00 00 8c 56 80 bf f4 49 d5 ec bf fb c0 bf
       -0.007977575063705444 -0.13268279136771322
0001d0 ee 86 01 20 f5 e7 c9 3f d6 77 11 a2 a1 dd b0 3f
       0.20239128172675386 0.06588182646507276
0001e0 44 f1 a2 60 2c 2f 9c 3f 88 86 4a 67 c7 72 c3 bf
       0.027523702047561174 -0.15194027465354432
0001f0 ae dd 0a 3b cd a5 c4 3f fb 78 68 96 ec ae a9 bf
       0.16130986578876388 -0.0501626905063279
000200 e0 54 bd 29 c2 2a c8 bf 11 ce 27 7a c5 1c 72 3f
       -0.1888048843199277 0.004421969790644479
000210 54 dd 7a aa 3a 19 b1 3f ed 3f 8b 7b de b4 c4 3f
       0.06679121648891356 0.16176968605441236
000220 e7 ba 3e d1 32 bf cc bf d9 8e 6e b8 f1 fe 81 3f
       -0.22458491532366695 0.008787048760332027
000230 85 1f da cc 44 24 b5 3f 49 a5 ae 52 d4 57 c6 3f
       0.08258466721792786 0.1745553401681639
000240 4b f1 0f f7 97 9d b5 bf bb 6e 96 6a 99 76 86 bf
       -0.08443593770784223 -0.010968397679611433
000250 e2 9d 79 33 4e 41 c5 bf 91 2a a0 21 42 ed bc 3f
       -0.16605546487265516 0.1129952747434493
000260 01 67 8e 2d 1e c2 b3 bf ba d8 8a d6 25 75 b0 bf
       -0.07718075382436142 -0.06428753364420717
000270 2b ec 66 fd 84 5e b4 bf 57 a0 ef e6 73 0e ab 3f
       -0.07956725298474569 0.05284464067500554
000280 08 75 52 6a cc f6 c9 bf 6b 96 db 29 a4 56 c5 3f
       -0.2028441924239035 0.16670658153377657
000290 db 45 90 b0 54 8c ba 3f 4d ac 99 90 d9 57 c4 bf
       0.10370377836831983 -0.15893096504746254
0002a0 24 d7 8a 71 f5 33 9f 3f 72 e8 de f7 38 9a b1 bf
       0.0304716444540737 -0.06875949908763504
0002b0 65 4a 9f fe 68 32 cb bf c1 39 d7 ad f6 10 7d bf
       -0.21247589524007818 -0.007096255865191415
0002c0 e4 c6 81 87 7b 91 b5 3f 9b 8a 34 3d 4f bf c5 3f
       0.08425113733553818 0.16990080345666034
0002d0 c0 f4 e6 93 6d e2 b9 3f e3 1a 74 f7 81 1b c7 3f
       0.10111126767056344 0.18052696783725883
0002e0 97 94 40 3f 66 18 cc 3f e4 4d cd 85 00 16 b1 bf
       0.2194946106766664 -0.06674197451257374
0002f0 e1 05 dd c6 28 61 9b 3f 26 34 90 05 e2 71 c4 bf
       0.026737820756585044 -0.15972543021817492
000300 97 a6 79 76 2a 4d b6 3f 88 2b b5 1c 23 96 7e bf
       0.08711495773754972 -0.007467400700373335
000310 72 3e bf 39 85 d8 bf bf 98 46 ce 5a 78 e4 9d 3f
       -0.12439758930053715 0.02919185690149692
000320 cd d9 33 f1 bf 61 87 bf 35 92 dd f6 31 2e c8 3f
       -0.011416911648194717 0.1889097648046502
000330 eb 05 28 4e 08 f3 5f 3f 27 ef 16 60 66 17 c3 bf
       0.0019500332933833863 -0.1491516083896098
000340 9b 23 53 59 ca ef a2 3f e0 ce 41 a0 ce 08 c0 bf
       0.036985705760861985 -0.12526877236415768
000350 4a 3b a2 54 b5 56 68 bf 98 53 69 70 8e 2b cd 3f
       -0.0029710332501688185 0.22789173592414325
000360 97 59 81 cd 75 a4 c8 bf 15 69 18 61 f1 9a b2 3f
       -0.19251892599522755 0.0726767408417895
000370 73 3d 29 9f 72 7e c5 3f f1 f9 4e 21 df 28 c9 3f
       0.16792137881791866 0.19655980230704942
000380 f3 ae e7 e5 7b 83 b4 3f f3 16 90 57 61 50 cb 3f
       0.08013128626742709 0.21339051032571596
000390 17 55 7b 41 74 eb a4 3f 61 d2 c2 3f 20 e2 c1 3f
       0.040858872407321715 0.1397133170445555
0003a0 d1 f8 2a 47 99 70 aa 3f 37 4f 5c ff e8 8f c2 3f
       0.05164031022785454 0.14501678913858893
0003b0 c8 26 bb 0d 78 d5 c6 3f 4e 7c 84 06 0c 8d c0 3f
       0.1783895556493944 0.12930441206205717
0003c0 3c 15 b3 ff 16 2c 65 3f a5 2f c9 1c f1 eb ca 3f
       0.0025845002361132557 0.2103253737026282
0003d0 b9 98 7a cd c1 26 c5 bf 7c 7c 31 e7 88 6c c7 3f
       -0.16524527104519907 0.18299971855865127
0003e0 9c 0c 3c d2 01 b5 c0 bf 7f 3d 35 cd 6b 09 c8 3f
       -0.13052389874801384 0.18778750915451423
0003f0 a3 d8 ad 74 b0 79 c7 3f 42 ee 47 33 c3 3d c4 bf
       0.18340116212101973 -0.15813484195665423
000400 12 3d b5 7c 9c 49 ac 3f 98 75 0b d4 0f 4b a7 bf
       0.05524910948099139 -0.0454945513099389
000410 82 81 59 4c a5 22 c1 3f 6e 44 6e 0c d6 c1 a7 3f
       0.13386980274209398 0.04640072728864984
000420 e9 e2 48 71 51 99 9a bf 3a dc 53 16 ba 68 99 bf
       -0.02597548726973545 -0.02481356393124321
000430 bd 1b a9 c1 75 f1 c9 bf b7 00 bb f4 3d 38 b3 3f
       -0.2026812739952372 0.0750769350515864
000440 95 bd 95 7b 50 e8 a6 bf 73 87 ff 66 dd 75 c2 3f
       -0.04474116810421972 0.14422194985587175
000450 26 c6 6f c7 d7 b6 9a 3f db db b3 1e af b1 cc bf
       0.026088115260739418 -0.22417248725079628
000460 11 ce f4 19 f8 dc ca bf d1 84 72 90 e3 0e ba 3f
       -0.20986844317813838 0.10178968693300595
000470 cc 73 72 9c 57 0b cd bf b2 77 6f 7a cf ce be 3f
       -0.22690863741891432 0.12034317721506119
000480 f7 32 bc bb e2 e7 b2 bf 24 21 f6 34 a9 1b a5 3f
       -0.07385079463365317 0.04122666141035072
000490 5b 03 38 7b 8f c1 91 3f e7 3e bb 16 d5 59 a8 bf
       0.017339937110594544 -0.0475603666542364
0004a0 a4 75 86 e7 e7 9e c5 3f 22 b7 af ba 0a cf ad bf
       0.16891192250197407 -0.05822022942434858
0004b0 72 7d dc f3 00 68 96 bf f7 19 6d d3 04 57 81 3f
       -0.02188111771022023 0.008466756536688698
0004c0 8e 5f 8f 1f a4 72 b8 3f 7a bd d3 79 b9 b4 c4 3f
       0.09549928446301534 0.16176527451123573
0004d0 48 d2 f1 b4 13 fd bc 3f 9e 7f 13 a2 84 ee bf bf
       0.11323664825051438 -0.12473324734628341
0004e0 81 e0 4a f9 b5 60 c6 bf 5f 70 83 1a ee 3a b9 bf
       -0.17482638046726964 -0.0985554518442213
0004f0 d1 8e e0 b8 23 b2 94 3f a0 1e f4 97 d5 4f 90 3f
       0.020210798415191192 0.01592954387618184
000500 38 94 0c b8 f4 06 b1 bf fd 09 6e 95 06 d5 bf 3f
       -0.06651238911997914 0.12434426449002696
000510 b9 ed 23 92 1a 8d c7 bf 9d 3c d9 17 71 7b c0 3f
       -0.18399364600905502 0.12876714386445523
000520 0a 55 a8 94 f0 4f cc 3f 07 68 ea 7a 42 24 b4 3f
       0.22118956812543217 0.07867827893133504
000530 7c 81 55 30 19 82 82 bf ca c7 2c 41 df 72 97 3f
       -0.009037205493485294 0.022899139740907327
000540 0e 3a 2e b5 dd 37 c1 bf 88 7e 40 0f 99 dc c6 3f
       -0.13451739641864474 0.17860711331103496
000550 03 be 8e 75 47 ad c9 3f 61 7f c2 44 1e be c1 3f
       0.20060055961720033 0.1386144481411931
000560 18 b7 ed a3 35 04 ab 3f e3 d4 7f d8 17 e0 a7 bf
       0.05276649118500937 -0.04663157003225551
000570 5e 2f 1d 1b 79 ca cc 3f 5d 41 56 a2 ca 39 c3 bf
       0.22492898773122766 -0.15020115782364032
000580 5b b9 3b 32 ae 8e 9a bf d1 fe 35 b1 fb bf b2 3f
       -0.0259349077377292 0.07324193073690856
000590 e1 da bc 14 fb 46 c6 bf bf a2 0d 8c 55 d7 c5 bf
       -0.17404116165717823 -0.17063397730387028
0005a0 f4 ae d5 74 a2 20 ac bf 2a 79 54 9a aa a1 af bf
       -0.054936482202576103 -0.06178029188071073
0005b0 1b 84 18 0f c3 c0 c2 3f ec 11 d8 d8 e1 7c a7 3f
       0.14650762784097612 0.04587465068837901
0005c0 8f 42 93 de 61 56 cb bf 35 07 dc bf a9 a4 bb 3f
       -0.21357367866450658 0.10798130926198442
0005d0 a8 db c2 e4 a7 2c c2 bf 33 e1 9d d1 22 b8 c1 bf
       -0.14198778791407318 -0.13843188510123525
0005e0 c4 02 2c c5 e5 4e c9 3f ed 96 94 c4 3f 43 c9 3f
       0.1977202618363859 0.19736477945951184
0005f0 67 11 65 a2 ee 86 c5 bf 55 75 b4 15 9e 77 a1 bf
       -0.1681803029006332 -0.03411573424294071
000600 84 61 d4 39 d4 55 c9 bf 9b d9 d1 68 2e 93 a3 3f
       -0.19793179343902179 0.038232279105545795
000610 fc c0 00 11 2b de b0 bf c1 e9 01 47 6f ff b6 bf
       -0.0658900181304069 -0.08983512385922322
000620 f8 a1 45 c0 76 09 c2 bf 10 1a 72 b9 06 17 c1 3f
       -0.14091381443292028 0.13351520590750043
000630 cb b7 12 8a bd 0a cb bf bd 75 0a 7c aa be ae 3f
       -0.21126527063228048 0.06004841579599993
000640 2b 6c 1a 3d a6 f5 c1 bf 13 69 e2 99 84 54 bd 3f
       -0.14030912383609126 0.11457089192336793
000650 96 73 17 d9 e6 4e ac 3f 57 52 bf 9d bf d5 97 3f
       0.05528947258037602 0.023276323321470418
000660 22 2f 0f 31 09 61 aa 3f 27 e8 a3 c2 62 21 bf 3f
       0.051521575201688444 0.12160317661246776
000670 3d 54 30 b0 a1 f9 a9 bf a5 0e 79 35 30 f6 be 3f
       -0.05073266292325982 0.12094403558244922
000680 36 61 fe 4f af 05 b7 bf 2f 57 c7 68 82 ee aa 3f
       -0.08993049338312606 0.05260093239819096
000690 d9 cd 31 98 dc af c4 3f 6a 06 e4 1e db c3 88 bf
       0.16161687308668496 -0.012092315559587525
0006a0 d8 51 3e 77 71 87 bb bf a9 45 8f 09 ae f1 cb 3f
       -0.10753544961182315 0.21831298319606887
0006b0 d8 07 7a af f0 35 c0 3f ff ac 6b 08 f3 e8 a8 3f
       0.1266461235828149 0.048652262475878054
0006c0 a1 10 79 75 55 5a cc bf dd f0 fa ae cb 5f ba 3f
       -0.2215067695234483 0.1030242254445883
0006d0 03 ca f2 97 be c9 bc bf 7d 04 77 a4 29 70 ab bf
       -0.11245337686231242 -0.05359010822895358
0006e0 42 14 67 ac 0a 18 bb bf 6d 74 81 af 5c 87 b0 3f
       -0.10583559712456839 0.06456546101385792
0006f0 69 48 93 70 89 5a cb bf 69 27 d9 ac c1 83 bd bf
       -0.21370046612588858 -0.11529169530800022
000700 17 34 14 92 ee 9a c1 bf 16 c9 82 95 a0 46 c8 bf
       -0.13754064686546094 -0.18965537357650736
000710 3a 70 67 ae eb ef c5 3f dc 7e 50 64 e5 ee bc 3f
       0.17138429656813675 0.1130202646168032
000720 39 de 2a 38 49 dc c7 3f a8 67 fa f7 aa 2c b2 bf
       0.18641009562064584 -0.07099407724527274
000730 2f a7 84 8f 29 4b ca bf 99 88 dd b5 8d 80 b2 bf
       -0.20541877277110518 -0.07227407159874345
000740 8a ef 50 79 12 86 9f 3f 3d ef aa 1b 28 51 c8 bf
       0.030784882216024857 -0.18997670508348988
000750 88 63 69 0a 5f 6a c1 3f 86 12 2b 1e 7c ff cb bf
       0.1360586930120713 -0.21873427842196608
000760 92 8a 6e ec c3 66 c1 bf 68 92 16 26 cc 44 be bf
       -0.13594864887734964 -0.11823726587187766
000770 6a d8 18 4a b7 71 b5 3f 90 83 f0 f9 1c 51 c2 3f
       0.08376641806612076 0.14310037807538523
000780 89 c2 2b 4b af fc c8 bf af cb c7 a9 c5 54 ab bf
       -0.19521132631736673 -0.0533811349631813
000790 23 67 fb 5d 51 cc b3 3f 91 bb 08 99 e1 bc b1 bf
       0.07733639282687625 -0.06928834901985527
0007a0 9e 01 88 b8 5e 70 a5 3f 73 12 f4 fc 06 1f c9 3f
       0.04187294008807217 0.1962593779682212
0007b0 80 00 42 21 c4 25 94 3f b1 16 4b aa 40 33 c7 3f
       0.019675316362282036 0.18125160517791053
0007c0 bc cb 77 38 59 0d a8 bf 0f 0d 10 ec 23 41 b1 3f
       -0.04697684110933362 0.06740021241425985
0007d0 48 d3 6d 5e f0 43 b5 3f a4 8e ca 14 cf 8d ae 3f
       0.08306791596789964 0.059675666130059285
0007e0 1c 67 55 2e 33 c7 bd 3f a3 8a d4 4f e4 3b b2 bf
       0.11632079964820402 -0.07122637700062255
0007f0 62 68 56 09 0a a0 c0 3f 54 22 c6 4b d2 47 cc bf
       0.12988400894102187 -0.22094181728268103

layer0.bias f8 [256]
000000 ab 51 59 6d 52 07 b9 3f 53 12 58 0d e5 fe c4 3f
       0.09776797456408441 0.16402876998485513
000010 00 00 00 80 22 3b a3 3f 9d c1 13 b9 5c 9e 56 3f
       0.037560537457466125 0.0013805299279817447
000020 69 65 25 56 84 0b b6 bf 86 43 d0 fb 0a 9d a9 3f
       -0.08611323455024479 0.0500262672795833
000030 6c 0b 3a e2 b8 50 c5 bf c4 b1 30 c4 0f 0b 68 bf
       -0.16652594610431082 -0.0029349620758891432
000040 aa 2c 4f 41 97 35 c1 3f 61 d4 1f 69 d3 fc ca bf
       0.13444796265534836 -0.2108406317999281
000050 55 57 3f 55 b8 06 98 3f a8 35 a3 fb 2a 43 b5 bf
       0.023463134959306704 -0.08305615085119789
000060 15 ca ac d4 c2 76 b3 3f 02 05 b7 08 fd 15 b5 bf
       0.07603089992770891 -0.08236676657454114
000070 a8 9a c8 3f c8 ec c4 3f f0 b5 29 7b 1a 79 a7 bf
       0.16347601999696804 -0.04584582093671574
000080 c1 00 b5 b5 eb 22 a0 bf 6b 67 d6 de 7d 00 8b bf
       -0.03151642411330747 -0.013184531557999887
000090 91 02 89 63 e2 b2 b2 bf b2 f2 3b 4d 95 a3 a4 3f
       -0.07304205827768785 0.040310540845870504
0000a0 96 f3 b3 c6 16 81 cc 3f 61 61 f5 0f b0 31 cc 3f
       0.2226894827107599 0.22026634959434957
0000b0 76 11 56 2d 25 e0 ca 3f 4b 91 85 57 93 a9 c1 3f
       0.20996536935502846 0.13798753522417892
0000c0 46 35 69 5e da 12 ca 3f 7e 15 74 af 07 1e cc 3f
       0.2037003479949055 0.21966644351065762
0000d0 e7 23 9b 40 fb 34 a5 bf 06 24 86 37 6a 2a cc 3f
       -0.04141984141967452 0.22004440032131373
0000e0 df 9b dc cb b0 2e b0 bf 42 68 06 6a cf 58 8e bf
       -0.06321244217961873 -0.014817829535605512
0000f0 03 a0 75 f8 58 68 c1 bf 61 df eb 93 aa 2d c6 bf
       -0.13599693424043843 -0.17326862547610758
000100 db 96 ae 1e 49 12 b9 bf 00 00 00 80 af c8 ac bf
       -0.09793526648590094 -0.05621860921382904
000110 49 0f 21 2d ec d2 9c bf 08 aa 8c 9a aa 88 b2 bf
       -0.028148355726684646 -0.07239786408596427
000120 59 c6 b5 67 4a a3 b8 3f 96 0b 28 a2 8f 68 c4 3f
       0.09624161750778039 0.1594409505633762
000130 03 87 48 e0 55 c5 c5 bf 75 71 24 49 55 95 b8 3f
       -0.17008470012029173 0.09602864299490028
000140 83 7e 23 40 d6 10 b1 3f 9b d9 e1 65 c2 d0 c1 bf
       0.0666631609524249 -0.13918333029478167
000150 d8 7a 4e d5 63 57 97 bf f8 7c a2 be c7 39 a0 3f
       -0.022794303793143594 0.03169082834323861
000160 fc f7 70 ca c6 28 a6 3f c3 8a f2 87 1c 7b 69 bf
       0.043279850208349985 -0.0031104619261709
000170 1c 5f bf a3 23 e4 b3 bf e3 77 e1 7a 62 8b ae 3f
       -0.07769987819426344 0.05965717077263812
000180 79 f5 7e 3b 37 a9 a7 3f a7 02 a4 2a 30 6a c3 bf
       0.046212888729750774 -0.1516781051832556
000190 85 7e 69 1d b5 54 99 3f 54 04 5f eb 93 13 c2 bf
       0.02473719589249736 -0.14122246735317623
0001a0 b6 eb 1b b7 c7 8f b4 3f d9 58 4c 28 e2 10 b7 3f
       0.08031891079364936 0.09010137065738223
0001b0 11 ca 3c 01 a5 ef c9 3f ff e9 fc ae ef 39 ca 3f
       0.2026258712808873 0.2048930744584396
0001c0 1a 31 04 6f f6 32 bc bf 01 da e2 5d 48 40 96 3f
       -0.11015262804375361 0.0217295939734985
0001d0 eb 1f be 3b 56 5b c8 3f 6d 75 bc 39 4c 7f b2 3f
       0.1902873794281271 0.0722549096066893
0001e0 a9 39 0f d5 2f f9 c8 bf 0d 26 17 85 74 a7 ba 3f
       -0.19510457900328262 0.10411766289976061
0001f0 a2 e8 fe 16 27 df a3 3f 4d 45 60 4d 46 a2 cb 3f
       0.038811894948098016 0.21588972833755307
000200 43 ac 2b b3 42 1c c3 3f da e3 2c 17 f1 71 9a bf
       0.14929994343342132 -0.025825278319846358
000210 8a 4f f9 ad 15 3e b3 bf f4 87 57 6a 8e 38 c1 bf
       -0.0751660871258634 -0.13453846161343075
000220 00 00 00 60 64 48 c9 bf de e8 46 80 f5 12 cb 3f
       -0.19752173125743866 0.2115160824158186
000230 d9 a5 e5 ea 44 2d ac 3f e9 fc ea a1 f0 29 c2 bf
       0.05503287665744567 -0.141904906331525
000240 c2 04 ca 3d d9 d0 a9 bf 9e 2d ce 05 c4 c9 c7 bf
       -0.05042151335966018 -0.18584490092721934
000250 68 a7 9a fa 79 50 c0 3f 00 00 00 80 68 23 a7 3f
       0.12745594727067133 0.045192018151283264
000260 da bb d8 59 c6 69 b0 bf 03 24 52 f4 2e fc a8 3f
       -0.06411399549027355 0.04879900677139661
000270 5e 52 51 2e 2a 61 bb 3f 18 04 05 8e 98 d6 bd 3f
       0.10695136671831437 0.11655572383189428
000280 a2 03 62 6e 85 3e c7 3f c7 73 67 d0 c3 8e c9 bf
       0.18159549608028863 -0.19966933895093872
000290 6f ed d0 78 a7 55 c5 bf 8f 5e 1d 89 d8 d6 9a bf
       -0.16667645835137132 -0.026210196846788988
0002a0 9d 77 63 3f cb b3 c2 3f ba 6b 47 cb 52 11 a9 bf
       0.14611187548774476 -0.048960292162255795
0002b0 91 bd eb 3a ce 62 b5 bf bd 2c 6c 98 58 91 bf bf
       -0.08353890360353079 -0.12331155511144494
0002c0 bd d0 a2 fe dd a8 cb bf 00 00 00 00 63 45 ba bf
       -0.21609091695211716 -0.10262125730514526
0002d0 78 22 ce d3 49 73 cd 3f 15 e5 2c 65 1d e2 cb 3f
       0.23008082239200056 0.21783797683910025
0002e0 b2 96 25 bf b3 a3 c0 bf af 7f 92 64 d6 5b c0 bf
       -0.12999579270688383 -0.1278026572299473
0002f0 66 a4 4c 69 0e 9c cc bf d5 6d 1a 13 7b 9f b5 bf
       -0.2235124601514002 -0.08446473328006417
000300 4c 28 b5 aa 80 1e 60 bf 00 00 00 00 b3 55 9b 3f
       -0.001967669775386793 0.026694104075431824
000310 e8 2f 8d 73 55 fb c5 3f 90 ec 14 0c 36 1b c7 3f
       0.17173259870685276 0.18051791753700686
000320 cc 95 dd e9 42 35 b5 bf a6 21 ab 13 84 f1 b2 3f
       -0.08284395417793816 0.07399774055659822
000330 73 42 e7 12 07 1d c0 3f 42 26 33 0d 09 08 c4 bf
       0.12588585303321373 -0.156495219655243
000340 1a c5 e6 8e 19 da 71 bf 31 48 4b c3 7a 7b cc bf
       -0.004358386837723738 -0.22251829658358838
000350 04 93 b9 d1 3b cc 9b bf 13 4b 20 ad 9f 82 c4 3f
       -0.027146277118293774 0.16023632005143237
000360 41 d8 01 5d b0 76 b3 3f 31 af e7 c0 cd f1 cb 3f
       0.07602979918178311 0.21831676406088144
000370 3f 1e 4e 50 97 7e c4 3f 03 c7 f8 af 26 67 c4 3f
       0.16011325284147124 0.15939792244312664
000380 e1 4a bb 77 40 fa b8 3f e3 35 fb 78 7a a4 b9 bf
       0.09756853984007875 -0.10016599134106445
000390 20 07 09 55 89 b9 ad bf 1e 08 e0 83 b3 04 b7 bf
       -0.0580561558058561 -0.08991548509223476
0003a0 a9 81 92 d6 a6 43 c6 bf b7 84 af 29 ac 1e c1 bf
       -0.17393956639444966 -0.13374855075293166
0003b0 f0 01 72 37 a0 16 9f bf eb 7e 7a e4 62 a8 af bf
       -0.030359748252978436 -0.061831560507242
0003c0 b5 21 4d da a8 af b3 bf e8 5b 14 60 4c 35 a6 bf
       -0.07689910249349093 -0.043375384071786816
0003d0 a6 e6 78 67 0a 64 c5 bf 9a dd 61 ae 16 03 99 3f
       -0.16711549808842568 0.024425844567728207
0003e0 e1 f1 b4 24 1a 00 c8 bf e2 bc 00 57 8f 21 a3 bf
       -0.1875031165344714 -0.03736541688010121
0003f0 a3 3b ac bf e6 be c6 3f 5e 74 46 b5 17 bd be 3f
       0.17770084723494248 0.12007282424606688
000400 af 5f 7f cd 51 eb c9 3f 7e bc 0e 31 b8 e6 9c bf
       0.20249388250408404 -0.02822387504027945
000410 fd cc 93 05 88 57 cd bf 87 27 2b e7 df 86 c0 bf
       -0.22923374435740831 -0.1291160467865746
000420 c7 a2 ef a2 ca bd ab 3f e9 b9 36 9a c4 8e bf bf
       0.05418236960378447 -0.1232722164629433
000430 21 43 53 d7 19 2f b4 3f a3 08 96 58 88 61 a4 bf
       0.07884370333637182 -0.03980661469815174
000440 a3 ed d2 6a cc cd c0 bf 63 a0 9c 30 d0 73 b4 3f
       -0.1312804719544661 0.07989216982662266
000450 12 b6 88 ea 5c a4 90 bf c6 6c e0 2d 17 9b ba bf
       -0.01625199491006952 -0.10392899389300955
000460 85 a2 a4 e4 c3 7e ba bf 4f 2c 1e cc 5a e3 bc bf
       -0.10349678356272747 -0.11284415706011085
000470 4c 27 b4 af 5a 32 bd 3f 15 39 d1 ef 23 20 a6 3f
       0.11404959478036608 0.04321396162468908
000480 49 f1 09 23 84 c3 c0 3f 3d ba c7 73 b4 ec 6a 3f
       0.1309666796768261 0.0032866978128745215
000490 22 bd b4 95 99 f5 cc 3f 17 d2 f8 ca 00 cd 9b bf
       0.22624511537422004 -0.0271492122539759
0004a0 57 02 91 0a 6f ed c5 bf d2 23 cd 05 3c b8 c8 3f
       -0.1713084031671481 0.19312238963382683
0004b0 a0 0c 1b b2 0b 43 9d 3f 26 b3 b2 7d 4d 0d a1 bf
       0.028576071496683952 -0.03330461654090859
0004c0 b3 a5 55 ee e7 77 ac 3f 1d ad 30 60 52 3c c0 3f
       0.05560231003148477 0.12684087464126828
0004d0 4e 08 5a 85 a7 3d ae 3f 9a e0 8a 55 64 42 95 bf
       0.05906413557842481 -0.020761077614878866
0004e0 0d 45 bf b8 10 e5 cb 3f 5a 63 7e 37 a6 0e c0 3f
       0.2179280187688523 0.12544706067708483
0004f0 1b 3e 8b 4f 88 41 cc 3f 91 3f 17 c6 1a aa cb bf
       0.22074989208202642 -0.21612867996600163
000500 44 4d ba 0c a0 0a c2 3f bf 64 25 2e 75 49 cd bf
       0.1409492551943946 -0.2288042521784401
000510 2c 20 59 7e 9a 45 cb bf 64 8e c4 92 16 0a b7 bf
       -0.21306162995665667 -0.08999768336485087
000520 00 00 00 80 3c 7f a2 3f 75 52 33 97 33 52 c4 bf
       0.036126986145973206 -0.15875859148822583
000530 21 f9 37 5d 46 fc 9d 3f 00 52 f4 5d 3a 75 b7 bf
       0.029282664718260357 -0.09163250726516736
000540 ac 7c 87 fc e3 f4 a4 3f 71 30 a3 3d 48 f6 cb bf
       0.04093086679108046 -0.21845343598977565
000550 6f 74 8f 3c a2 33 9f 3f bd c5 ab 54 dc 43 ca bf
       0.030470404573737783 -0.2051959432060765
000560 aa cb e6 31 b3 a8 cb bf 0c c9 0e ff 4f 1a a7 3f
       -0.21608581482504735 0.04512262333391179
000570 68 97 15 17 2d 2c aa 3f 4f 46 ce 40 75 2b c3 bf
       0.051118287151253494 -0.14976373352378622
000580 76 db d9 b0 13 64 c7 3f 00 00 00 40 ba a8 b0 3f
       0.1827416051416681 0.06507457792758942
000590 24 70 03 48 32 a4 be 3f c6 12 bf e2 c8 ea b9 bf
       0.119692938405422 -0.10123878036308573
0005a0 36 1a 23 4f 18 3d 9a bf a0 8e f3 af 0a 22 c1 3f
       -0.025623683767458348 0.13385137168289862
0005b0 cf 75 47 bf 31 df 83 bf ca 81 95 d6 5b ba b6 3f
       -0.009703053140522137 0.08878110875003312
0005c0 cc 75 4e 7d 89 5a c6 bf 5a 0b 13 88 76 00 a0 3f
       -0.17463797205429754 0.03125353251518588
0005d0 f1 64 6b 71 ac 86 95 3f c2 c1 e5 c5 10 98 87 3f
       0.021021551535203412 0.011520510711051982
0005e0 57 60 91 42 d5 f3 ca 3f 50 b0 33 1e d5 da 96 bf
       0.21056619406113228 -0.02231915470922302
0005f0 d6 fd 2a d9 34 b7 c9 3f 40 db 74 eb fb 56 b7 bf
       0.20090351680663215 -0.0911710214466952
000600 78 ce e2 ed c6 49 c3 bf 32 b0 37 c0 3b 7b b4 bf
       -0.1506889974167398 -0.08000539248286101
000610 da 7b e7 bf 00 f1 cb 3f e7 58 e2 90 b5 b6 c7 bf
       0.21829232569049745 -0.18526334356710736
000620 bb cd 09 5c d1 53 c1 bf 3f fa 93 d1 37 99 bd bf
       -0.13537041658456225 -0.11561917177821444
000630 eb ea 8e 00 a9 da c5 3f bd 3a 01 38 ef 7e c2 3f
       0.17073547866114977 0.14449873194322108
000640 44 d8 17 9a 5c d7 c9 bf 2b a9 d7 cd 0a c5 a7 bf
       -0.20188481830672533 -0.046425187709092285
000650 a3 18 78 f7 f8 5a af 3f 16 92 87 2d ea 97 b1 3f
       0.061240940292962585 0.06872428523599469
000660 2a 36 df 39 2d 67 c2 bf 00 00 00 a0 27 2c c2 bf
       -0.14377370191361766 -0.14197249710559845
000670 f6 6d 04 c3 1a 33 9e 3f 1f 44 f1 46 70 54 c2 3f
       0.029491823342238953 0.14320186103808027
000680 be 30 04 2c 0e 58 c8 3f e9 f6 a1 cc 0f 61 c3 3f
       0.19018723630177264 0.15139958850698257
000690 fd 83 a1 3d ae 19 c4 bf 85 69 e4 ca 3a fd c3 3f
       -0.1570337105686405 0.15616545588347833
0006a0 cb 5a ac 6e 1a 5a c3 bf 34 b3 9f 8f 18 67 c7 3f
       -0.15118723300903122 0.18283373844988093
0006b0 f7 94 41 66 0f 8b c8 bf 8a 2f c3 f2 91 f6 be bf
       -0.19174377911546234 -0.12094986130540356
0006c0 b0 ec 53 14 02 3e c3 3f 6a 44 ec 73 3a 52 73 bf
       0.15032983772821273 -0.004717090922683112
0006d0 e8 91 ac f1 d9 b7 bc bf 93 62 37 8f 1f d7 c4 bf
       -0.11218034887549033 -0.16281504147516
0006e0 00 00 00 40 9f eb cc bf 28 d0 26 12 f6 a1 c5 bf
       -0.22594061493873596 -0.1690051640158583
0006f0 0d 55 52 dd c3 8d 96 bf d9 6c e8 75 d7 5b c4 bf
       -0.02202516592349917 -0.15905278451177798
000700 24 2d 10 ab d1 dd b1 bf e1 c7 8d e8 40 1d cb 3f
       -0.06979093958232291 0.21183024745147264
000710 ec a5 63 3c ab 40 b0 3f 80 0c de 5d bf 1f 62 3f
       0.06348676895472466 0.0022124040251028654
000720 84 61 77 ec 44 ef 6c 3f 8c c6 e4 f4 dd 14 b8 3f
       0.0035320612111997014 0.09406840542649259
000730 6d d3 37 bc 2a 62 c5 bf 9d ed 0f 11 73 58 c0 bf
       -0.16705831709227983 -0.1276992638885134
000740 43 8f fe b8 55 14 c9 3f 5b de cb e0 76 85 bb 3f
       0.19593307049682993 0.10750525463287756
000750 c7 36 88 96 f9 5d c3 bf 00 00 00 40 78 2f b8 bf
       -0.15130538797568802 -0.09447433054447174
000760 13 8a b7 6e b4 e0 a2 3f 15 d2 d3 84 96 20 bf 3f
       0.03687061168217922 0.12159100287301101
000770 01 ea 38 12 e0 ce cc 3f 1d c5 4c 27 ad 35 cc bf
       0.22506333246003865 -0.22038807314815126
000780 45 4a ed 4e 8b 58 ca bf 69 a8 a2 6f 2d 9e bf 3f
       -0.20582715371945617 0.12350734687302779
000790 8f a1 c8 56 99 2b c0 bf 19 a0 3f 54 2f 62 8d bf
       -0.1263305352924928 -0.014347429045258807
0007a0 9b 5d 68 f4 62 5d cd bf fb 11 f2 05 60 12 c6 bf
       -0.22941243108719508 -0.1724357632666765
0007b0 d8 84 ca ea 45 ed 7b 3f b3 b5 da 5a 2c 79 a3 3f
       0.006818078149678906 0.03803385361730296
0007c0 f5 f8 f6 ac 78 3e c7 bf 87 16 0c 4f 5b 4f cc 3f
       -0.18159397550147785 0.22117177352645376
0007d0 71 77 07 30 7b a1 b6 bf 61 66 f8 c9 9f f0 c8 3f
       -0.08840150759303157 0.19484326707679414
0007e0 08 f2 21 9f 85 d9 c9 bf 5b ca fa 0f 8a ff c2 3f
       -0.20195074339052632 0.1484234407449375
0007f0 b6 af a0 1b eb f2 c1 3f 12 fc 51 bb 90 4f bd 3f
       0.140225780954436 0.11449532101868012

layer1.weight f8 [256, 256]
000000 02 67 cb 6e 21 af ae bf 03 92 fd 61 9f 0c af bf
       -0.059929890417789636 -0.06064317771123131
000010 00 00 00 00 58 d2 5e bf 50 76 f1 89 20 63 81 3f
       -0.0018812045454978943 0.00848985119790338
000020 9e b0 69 56 61 57 a1 3f 85 42 9b 7a fb 51 94 3f
       0.03386978320927024 0.019843987806611913
000030 30 bb fc f5 06 b3 99 bf 00 00 00 80 4e ca 9b 3f
       -0.025096997035855384 0.027138926088809967
000040 99 68 f2 c2 9f ed 8f 3f 08 28 c3 d4 8f 1d a1 3f
       0.015589950691993247 0.03342866394230276
000050 df 80 6f 24 91 e5 ab bf 68 91 f7 c9 18 36 aa bf
       -0.05448583192605993 -0.05119397607248538
000060 c0 ab 81 81 f0 a1 89 3f 00 00 00 40 90 d7 ad 3f
       0.012515906288362078 0.058285243809223175
000070 45 c6 2c dd 8e 53 a7 bf 29 ad bc 9b 17 4e ac bf
       -0.04555937242402001 -0.055283296357027396
000080 00 00 00 00 68 e6 a7 3f c4 e2 d3 04 7e b7 9c bf
       0.04667973518371582 -0.028043717426927697
000090 45 a2 2b 64 b5 82 a6 3f 9c db 74 06 42 92 ab bf
       0.04396597717078924 -0.053850234306472816
0000a0 52 ff 20 0b 15 20 ab 3f 5b b4 c5 68 14 ae 75 3f
       0.05297914276934414 0.005292968486498041
0000b0 35 f2 f7 6c 02 b3 92 3f 0c 62 40 71 8d 79 a3 bf
       0.018260991955673062 -0.03803674704994728
0000c0 0d 99 dc cf b2 fc ae 3f c5 bb f1 26 a8 b1 a6 bf
       0.06052168643354792 -0.04432416415590227
0000d0 f2 59 7f 00 3a 01 6c bf 00 00 00 00 df 07 95 3f
       -0.0034185536241964016 0.020537838339805603
0000e0 d5 4a 29 a7 53 9b af bf ad 47 a4 6e 2e e5 9c bf
       -0.061731924205238244 -0.028218007567438686
0000f0 52 84 9d 19 77 65 9f bf 7d be f4 35 14 ba 91 bf
       -0.030660496653016907 -0.01731139735528452
000100 07 46 19 4c 31 c0 9f 3f 00 00 00 00 c5 90 a6 bf
       0.031006593961427267 -0.044073253870010376
000110 00 00 00 00 60 d9 59 3f 00 00 00 00 c2 21 a0 bf
       0.0015777051448822021 -0.03150755167007446
000120 3d 41 83 14 59 56 ac bf 77 6d 7c 6d bd f4 9f bf
       -0.05534628272437423 -0.031207046325204737
000130 5d ba 88 be df e1 a4 bf 5e ba 43 40 81 b3 42 3f
       -0.04078578186851154 0.0005707150562822107
000140 c2 ea 4e 1b 71 ab 8d 3f 3c 32 34 7c b0 c9 ac bf
       0.014487155576593639 -0.05622626796875749
000150 58 15 52 98 0b 1a 72 bf 00 00 00 00 da 2e aa 3f
       -0.00441936997697686 0.05113869905471802
000160 00 00 00 00 ce 5a 7d bf e7 a8 b7 3a 88 8c ac bf
       -0.007166676223278046 -0.05575967518582719
000170 4b 68 33 1c 6b 49 79 3f 17 3d 8c a5 97 3c a7 bf
       0.00617353286653539 -0.04538415809485679
000180 00 00 00 00 4a 2f 91 3f dd 1f 31 84 68 aa ab 3f
       0.01678195595741272 0.05403448690100252
000190 00 00 00 80 02 27 98 3f 70 64 3b 55 aa 4a 9f bf
       0.02358631044626236 -0.030558263256214635
0001a0 00 00 00 c0 f3 0a a6 bf 8e c4 f0 24 60 04 ad bf
       -0.0430523082613945 -0.05667400790151432
0001b0 fc a0 32 82 7f cc 8d 3f 00 00 00 80 56 02 9d 3f
       0.014550205384083352 0.028329230844974518
0001c0 94 c5 31 eb de 60 aa bf e3 3b ee a1 ac 7e a1 bf
       -0.05152031537080429 -0.03416957356159125
0001d0 40 f1 87 2d c4 d4 ad 3f 00 00 00 80 92 81 aa 3f
       0.05826390319632191 0.05176980793476105
0001e0 d0 82 e3 04 1c 6b 98 3f 77 10 d2 dc 6a 1d 93 3f
       0.023846090124495956 0.01866690609723817
0001f0 9d d2 68 50 13 af a1 bf 07 07 ed 20 d2 9c 87 bf
       -0.03453884464798771 -0.01152958071691358
000200 00 00 00 40 4e 26 a3 3f d8 55 bf a4 4f f4 ac bf
       0.03740162402391434 -0.05655144582821564
000210 84 91 96 f2 10 8b a4 bf 00 00 00 00 b7 66 88 3f
       -0.040123490917980426 0.011914663016796112
000220 00 00 00 80 05 62 af 3f bd eb 3f 20 34 ba af bf
       0.06129471957683563 -0.0619674958579348
000230 47 ee 43 b8 ec 2b 8d 3f 2e df a0 ae c4 cb 71 bf
       0.01424393594105945 -0.00434471920930672
000240 6d 1e 25 08 12 77 a2 3f 00 00 00 00 2e 14 79 bf
       0.036064685339224 -0.006122760474681854
000250 1b 8c e2 ee cf d4 a2 3f 00 00 00 00 a3 bf 8e 3f
       0.036779878531227626 0.015013955533504486
000260 c3 00 07 9e a9 a5 91 3f dc d7 04 16 d4 8b 8c 3f
       0.017233515043472602 0.013938576623882364
000270 d4 fd bc 63 cc 51 a3 3f 00 00 00 00 a1 f5 97 bf
       0.03773344724185859 -0.023397937417030334
000280 59 84 93 1c 3d bb 99 bf 00 00 00 c0 82 d5 a8 3f
       -0.025128321522860684 0.04850395768880844
000290 b6 71 88 ac 48 40 ab 3f 00 00 00 00 38 66 5b bf
       0.0532248221026949 -0.0016723200678825378
0002a0 40 fd 3e 51 b9 bd a3 bf 00 00 00 00 55 4f 8f 3f
       -0.03855685345433324 0.015288032591342926
0002b0 ec 49 fb 75 f0 d6 57 3f 78 de 0d 82 98 69 93 bf
       0.0014550541163101905 -0.01895750325954146
0002c0 19 2c 6f 7d 76 43 95 bf 00 00 00 80 35 a6 ae bf
       -0.020765162855053008 -0.05986182391643524
0002d0 5f be 96 7a 15 f7 af 3f 39 dc d9 fa ec c6 a2 3f
       0.062431975569208424 0.03667393266817282
0002e0 00 00 00 80 a4 57 ad bf 00 00 00 00 92 f3 92 bf
       -0.057309284806251526 -0.018507272005081177
0002f0 00 00 00 80 7a a6 9d bf 00 00 00 40 bb b3 a8 bf
       -0.028955377638339996 -0.048246242105960846
000300 00 00 00 c0 a8 d8 ac bf 00 00 00 80 f8 84 a0 3f
       -0.056340478360652924 0.03226448595523834
000310 cb 6a 2e 0e 21 4d 9a bf 0a 53 7f af 8f 5b 71 bf
       -0.025684849253233815 -0.004237710258128366
000320 00 bb 30 9f 73 32 aa 3f 5c 37 65 65 99 37 a9 3f
       0.05116616552583331 0.04925231325851939
000330 f2 3f 80 45 56 5c 9d bf 00 00 00 80 95 76 9e bf
       -0.0286725501937894 -0.02974923700094223
000340 00 00 00 80 e8 62 a0 3f 00 00 00 00 70 fc 7f bf
       0.03200460970401764 -0.007809102535247803
000350 2d 5c c2 44 ae c5 a2 bf 1d 66 72 6a 68 11 a1 3f
       -0.036664434331378316 0.03333593654060627
000360 bd 44 b6 a0 41 5d 73 bf 1e 87 52 2b 05 0f aa 3f
       -0.004727608068962383 0.050895844972968826
000370 a0 cc af 99 4a 40 af bf 74 b9 57 7d 44 3c 97 bf
       -0.0610373795133452 -0.02269083991080252
000380 a5 09 bd b5 13 03 93 bf 1f 63 9e 22 15 3d af 3f
       -0.018566425292428374 0.06101289794532349
000390 ef 9a b5 0a ea 82 9d bf 3c 28 da 47 ab 5b 84 bf
       -0.028819710639619463 -0.009940469866041572
0003a0 30 43 a1 b0 5c 21 ae bf c1 e6 5b 58 ea 38 87 3f
       -0.05884828239562123 0.011339026280882238
0003b0 4d 80 72 9d 37 65 96 bf 04 ad 93 c8 92 67 ae bf
       -0.021870488152331103 -0.05938395212600692
0003c0 00 00 00 80 66 6a a9 3f c7 89 dd 61 97 88 ae 3f
       0.04963989555835724 0.059635859199960665
0003d0 00 00 00 40 48 98 a2 3f 00 00 00 80 1f eb 94 bf
       0.03631807118654251 -0.02042817324399948
0003e0 00 00 00 00 41 37 8c 3f 9a dd 7b b0 c7 56 94 3f
       0.013777263462543488 0.01986228956863343
0003f0 8f 34 f0 04 bc 18 a3 3f 14 35 78 2f 74 40 78 3f
       0.0372980838802529 0.005920842980697633
000400 02 ca b4 87 e9 bf ad bf e5 e4 61 0a d5 7d 87 bf
       -0.05810479909486689 -0.011470474604936285
000410 cf 80 7c 60 71 d7 90 bf 95 62 a0 47 6d fa 8d bf
       -0.016446849359568468 -0.014637807606093825
000420 00 00 00 80 9a 71 a4 bf 4a cd 58 c0 d3 8e 92 bf
       -0.03992922604084015 -0.018122967352792764
000430 51 76 cb 2a a1 1b a3 bf 00 00 00 00 ed 72 83 bf
       -0.03732017180821557 -0.009496547281742096
000440 00 00 00 80 75 fc 97 bf 81 bc d2 a7 57 2d a0 3f
       -0.023423992097377777 0.03159593509314452
000450 00 00 00 00 33 1d ab bf 00 00 00 00 dc f5 af 3f
       -0.05295714735984802 0.06242263317108154
000460 2e 06 3b 6f 4d f5 a4 3f 27 a6 c8 6f e0 55 ad bf
       0.040934009387921896 -0.05729581226871643
000470 4c 9d 0c 36 b0 43 ac 3f 94 19 e4 26 eb 12 69 bf
       0.05520392093449775 -0.0030607788859271044
000480 00 00 00 00 4c ac af 3f 48 3d 6f 7a f3 56 93 bf
       0.061861395835876465 -0.018886379573641393
000490 27 ee e6 e2 5b 0d 84 3f 00 00 00 00 40 c4 2d 3f
       0.0097911051387803 0.0002271011471748352
0004a0 f1 76 aa 29 9b a8 7a bf 98 5d 5a 50 b3 65 a5 3f
       -0.0065084515614708275 0.04179153781768291
0004b0 ff 47 34 69 3d 4e ad bf 00 ce fb a2 d8 b5 87 3f
       -0.057237547962486694 0.01157731292139541
0004c0 54 0b 6a a1 ef f6 a9 3f 09 a6 35 95 ef cf 9c 3f
       0.050712097600828315 0.028136962396649454
0004d0 00 00 00 00 43 bb 83 bf 90 b6 34 32 0c 31 3c 3f
       -0.009634517133235931 0.00043016956097372775
0004e0 00 00 00 00 34 ce 66 3f 03 3f a4 eb 96 ce 8d bf
       0.0027838721871376038 -0.014554194513521695
0004f0 00 00 00 40 d1 35 aa bf 00 00 00 c0 f4 d8 a2 3f
       -0.051191844046115875 0.03681149333715439
000500 2a bf 63 4f b1 5d 6d 3f 3a 71 4b 1f 2d 88 a3 bf
       0.0035847151840399287 -0.038148317403939605
000510 22 78 da a8 43 5f 75 bf 23 62 17 37 db 4c 92 bf
       -0.005217804236648889 -0.01787130855322706
000520 00 00 00 80 94 ad 91 bf 27 cd 37 48 dc 5d 66 bf
       -0.01726371794939041 -0.00273030303810064
000530 9f 69 15 a9 b6 05 a8 3f 3e a0 46 ac ad 48 a9 3f
       0.046918590679257514 0.04938261726357539
000540 00 00 00 00 5d f6 ab bf 0a 6a 04 5d b9 9e 9a bf
       -0.054613977670669556 -0.025996109297105753
000550 9b 18 5e 3e 70 80 9b 3f 96 fa b1 9d 45 77 9c bf
       0.026857141310323667 -0.02779873633380222
000560 6e b1 3b 65 74 6c 9d bf ec 05 63 f7 5b 39 89 bf
       -0.028734034231932375 -0.012316435324808382
000570 b2 82 92 59 26 ef a7 3f 60 a0 d0 6a 4c aa 93 bf
       0.0467464432088084 -0.019204324740855205
000580 00 00 00 c0 cf e7 a6 3f 00 00 00 00 de b0 9d 3f
       0.044737331569194794 0.028995007276535034
000590 7e 91 1e ea 97 fc 97 bf 87 5b b5 4a 77 71 ad 3f
       -0.023424504913820858 0.05750630175560106
0005a0 fd 60 49 18 b6 0c 84 3f e3 2d ff 8e c6 01 ad 3f
       0.009789869896096532 0.0566541719013818
0005b0 00 00 00 80 e4 e0 a1 3f 9f 30 61 4c f0 91 97 bf
       0.03491891920566559 -0.02301764932808281
0005c0 be 66 6f 5d 25 1d a7 bf e3 5d b2 69 7b c5 a0 bf
       -0.04514424100461899 -0.03275666871303053
0005d0 18 44 d6 30 6f f2 ac 3f 00 00 00 00 5d f8 a2 bf
       0.056537127219719874 -0.037051111459732056
0005e0 11 3f 4a a1 ab a0 a7 3f 14 e4 a3 fa 8d 1a 93 3f
       0.04614769309875844 0.018655985281814294
0005f0 95 20 04 d3 a0 b3 ac 3f 06 13 2c 0c 3c 30 81 3f
       0.05605795455818555 0.00839278137346745
000600 16 18 e0 c9 3b 07 9c bf 29 c7 42 15 ff 73 99 3f
       -0.02737134380006275 0.024856553719195738
000610 01 aa bb ab 56 64 97 3f 51 26 2f 55 c6 f7 aa bf
       0.022843698722605058 -0.05267162122579506
000620 3f da b6 aa 24 9e 96 bf 00 00 00 80 d5 29 95 bf
       -0.022087643546649934 -0.02066739648580551
000630 b3 14 72 21 1d f0 81 3f 00 00 00 80 1b aa ab 3f
       0.008758761962108208 0.05403219163417816
000640 00 00 00 80 60 9a 9d 3f f0 7c 84 09 58 ae 7d 3f
       0.028909213840961456 0.007246345420099262
000650 b8 38 26 91 3a 67 a1 bf c3 ba 00 7a e4 cc 89 bf
       -0.03399069806902005 -0.012597832654220103
000660 00 00 00 00 2c 92 87 bf 00 00 00 00 9c 65 78 bf
       -0.01150926947593689 -0.005956277251243591
000670 c0 59 c7 60 bd 4a 9f bf 24 6c 9a 32 e5 49 a0 bf
       -0.03055854705038441 -0.03181377642359731
000680 5e 8d b4 e7 07 22 a1 bf 00 00 00 00 42 6c 80 3f
       -0.0334627600043642 0.008018985390663147
000690 00 00 00 80 e1 ee ac bf 75 2f 44 aa 31 60 ac bf
       -0.056510016322135925 -0.05542140201040883
0006a0 00 00 00 00 0d fa a4 bf e0 e8 b0 56 f4 2d 9d bf
       -0.04097023606300354 -0.028495614806367864
0006b0 d0 54 17 ca 6d 49 af 3f 1d 60 ab 53 52 44 84 bf
       0.061107092780426364 -0.009895938089741258
0006c0 c6 a1 6c ad 0a 39 6c bf 00 00 00 00 e9 43 81 3f
       -0.0034451683562972428 0.00843030959367752
0006d0 e1 a7 df 39 c6 16 a2 bf 9c 79 27 69 41 d4 9f bf
       -0.03533000427690048 -0.03108312801657008
0006e0 00 00 00 00 9a 26 72 bf 00 00 00 00 93 15 af bf
       -0.004431344568729401 -0.06071147322654724
0006f0 87 e3 f8 af 95 77 a3 3f 9e 24 ac 5b 20 89 73 bf
       0.03802173398111735 -0.0047694457996466915
000700 a5 c2 cf 86 40 09 a2 bf 00 00 00 00 78 16 87 bf
       -0.03522683759354565 -0.011273324489593506
000710 00 00 00 80 87 4f 92 bf dd 75 06 7e ad 4f ad bf
       -0.01788150519132614 -0.05724851764101022
000720 05 fa 02 b7 2f 96 83 bf 7d 40 cf 56 8f ae ad bf
       -0.009563801548549309 -0.05797241148650387
000730 00 00 00 00 08 16 70 3f 9d 95 00 3c 42 a2 a2 bf
       0.003927260637283325 -0.036394185852525164
000740 f3 32 0c 58 0b 39 79 bf 91 22 66 a0 9f 96 ae 3f
       -0.0061579173204904135 0.05974291642184427
000750 f8 3c 20 55 5e fb af 3f 00 00 00 80 9b 59 9d 3f
       0.062464664355610766 0.02866213768720627
000760 00 00 00 00 ee 18 7e bf 77 1a a8 33 3b c3 87 3f
       -0.007347993552684784 0.01160284282106015
000770 33 2c 6f 30 0a 8a 9e 3f 08 bf ab d3 3f 83 ab bf
       0.029823455053513647 -0.05373572787163822
000780 57 01 60 59 a2 3f a2 3f 00 00 00 00 70 51 7d bf
       0.035641740236317325 -0.007157742977142334
000790 00 00 00 80 4a c0 a2 bf 00 00 00 80 bf ca 92 bf
       -0.03662331402301788 -0.018351547420024872
0007a0 55 3f a0 c3 db d7 91 bf b6 1c 38 5b 01 15 a5 bf
       -0.017424997153340744 -0.041175882706789776
0007b0 00 00 00 00 35 25 ac bf 11 0a 85 85 64 68 9f 3f
       -0.0549713671207428 0.030671663903612926
0007c0 6c d6 50 40 86 6f a0 3f bb f1 8f 41 79 81 a2 bf
       0.032100863791509976 -0.03614405560799435
0007d0 ce 0c 49 5a c8 91 a4 3f b3 58 b0 6f a7 23 87 bf
       0.040174733182107056 -0.011298473449681578
0007e0 c1 d7 0f be 39 25 50 3f a5 d6 57 14 fe d1 98 3f
       0.0009854377642546238 0.024238557807584233
0007f0 4a 2b f9 ac d7 05 a3 3f 76 86 08 8f 49 f3 86 3f
       0.037153949608713946 0.011206221272973976
