python/snapshot0.pt (torch_old, 488788 bytes, 12 tensors)

layer0.weight f8 [64, 10]
0.032189305281851904 -0.07153009309747396 -0.24407703115918813 0.31067776248476353 -0.2932892076276364 0.26559215352556553 0.11071091458818735 -0.30436075165250454
0.07782179743480801 0.11473048947096559 0.1744810314689839 -0.29669940752637775 0.14509942846643567 0.07740288691866032 0.19101172113293705 0.03570523577081784
0.03625488000261411 0.062329974940892305 0.06578899083001866 0.18415496486680769 0.26510604278342215 0.22237559215323438 0.21777667657629957 -0.30276460393174204
0.20834706435087585 -0.014262327987985957 0.14215584651724805 0.30585809604422537 -0.04191291969325148 0.31541912605389166 -0.12764213979244232 -0.2731575071811676
0.011852055788040161 0.15815532207489014 -0.10493515431880951 -0.17983245849609375 -0.023786604404449463 -0.20604246854782104 -0.0046980977058410645 -0.09237641096115112
-0.2753812372684479 -0.05185055732727051 -0.17646454274654388 -0.015871912240982056 0.11623239517211914 -0.15510646998882294 -0.1539485901594162 0.31288501620292664
0.14961233735084534 0.2521841824054718 -0.013726146470883062 -0.013270707380154302 -0.3084940328711055 0.29618862127127427 -0.2166732536145404 -0.21425660098729368
0.047732381570956606 0.2819484755879857 -0.10389118036517724 0.24671735374169487 -0.23919591307640076 -0.06985010206699371 -0.1331455409526825 0.008041858673095703
-0.14118511974811554 -0.023987621068954468 -0.17008499801158905 0.03755331039428711 -0.005235731601715088 0.2521207630634308 -0.283454567193985 -0.09033729135990143
-0.24087971448898315 -0.18882231414318085 -0.2404240220785141 -0.1981913447380066 -0.22134335339069366 0.16507360339164734 -0.2921191155910492 0.28044363856315613
0.16897136878490296 0.07876584839343884 0.19008488368511048 -0.21524640012264404 0.2401515562718757 -0.01378338623523859 0.08786509346484997 -0.1496903656768814
0.03451734290106103 -0.16961540024076527 -0.02713826298713684 -0.22707997262477875 -0.15690523386001587 -0.12297627329826355 0.021438509225845337 -0.20338594913482666
0.266134113073349 0.21021035313606262 0.06130132079124451 0.052276283502578735 0.29850032925605774 -0.24092596769332886 0.029749572277069092 -0.24396252632141113
-0.29593539237976074 0.17580541968345642 -0.2439681738615036 0.12030458450317383 0.22348901629447937 0.18405577540397644 0.09664580225944519 0.28593751788139343
-0.1347622573375702 -0.11930346488952637 0.0030880868434906006 0.06274518370628357 -0.28034326434135437 -0.06304287910461426 0.008355766534805298 0.22242698073387146
-0.17066737344615215 -0.2677581392800075 0.30322747597344096 0.15638079414017445 -0.24074183714952083 -0.16622289350383038 0.13300745854027515 0.19093274244911915
-0.07433366498962073 -0.2109455821358988 -0.23260580922566496 0.2985982057908909 0.2611880657533543 -0.03363629604779316 -0.1984321913978804 0.25337353919543193
-0.16798065031968198 -0.09907151187859595 -0.22829899884349758 0.2703064539232894 -0.19229024257724564 0.048741568064043096 -0.01806394364898477 0.254674751495669
-0.17988656599876335 0.08111815545494287 -0.11666601505344183 -0.04075724985664172 0.11588583005460683 0.14138684049708816 0.18707630038261414 -0.24045798182487488
0.03835868835449219 -0.025937706232070923 0.27240899205207825 -0.0710328072309494 -0.1417226940393448 0.10615363717079163 0.2889910042285919 -0.19824965298175812
-0.04065468907356262 -0.21957576274871826 -0.028164029121398926 0.0582851767539978 -0.1283089816570282 -0.217063769698143 0.008850693702697754 -0.2733147442340851
0.11330440640449524 -0.3040075898170471 0.22350960200062378 -0.2529545801378191 0.17486923163166626 0.16943638746967896 0.15523903564210276 0.26147990648975966
-0.023662366221040537 0.2964827341341078 0.2421466527379437 -0.0478340950230131 0.17639142274856567 -0.27161312103271484 -0.07471692562103271 -0.12459111213684082
-0.2450045794248581 0.08900055289268494 -0.14536122977733612 -0.16901163756847382 -0.08559836447238922 0.21348091959953308 -0.07289524376392365 -0.17291708290576935
0.10695156455039978 -0.2655959129333496 -0.15909917652606964 -0.035662949085235596 0.10569074749946594 -0.1917295753955841 0.00021415948867797852 0.20100602507591248
0.04991977465806603 0.2957747484510959 -0.2317414377862392 -0.21860230910124165 0.15650355530015528 -0.10003114687742592 0.3078314567869724 0.012897213823181358
-0.07422168105138907 -0.25331178495424383 -0.0908760279417038 -0.0654168426990509 -0.28292861580848694 -0.2525305449962616 0.21541151404380798 0.18172407150268555
0.2367967665195465 -0.17751410603523254 0.1911391317844391 0.17998811602592468 0.29757306230512454 0.256765099887522 0.1578482414528457 0.15334275615659632
-0.10424655818811011 -0.24653985845598303 -0.042586800928441366 -0.2591967557624261 -0.035825174392429805 0.23647565382050345 -0.1971188739878356 0.301202331389744
0.10813582381184718 -0.0073290423494992395 -0.1355370008796847 -0.28817185321871547 0.2261660440820039 -0.030452545080822496 0.04568716547787507 -0.00815224076393774
-0.1710688581075234 0.09817777971367386 0.29939143756966113 0.22643386224846415 -0.03517799450571905 -0.1561983337010903 -0.002086769541697241 -0.05023164649863694
-0.0604606585340473 -0.04043069696787823 -0.24908196926116943 0.2696312367916107 0.24810275435447693 -0.08933310210704803 0.00712817907333374 0.1667671799659729
00000000: ecda eeda 1d7b a03f 8a92 88d2 cb4f b2bf
00000010: 4549 4489 ea3d cfbf 62db 5dfb 24e2 d33f
00000020: edf2 c118 40c5 d2bf 62db 5d3b 76ff d03f
00000030: 766d 77ed 8c57 bc3f 9e24 a284 a57a d3bf
00000040: f9ff e51a 21ec b33f 34c2 2134 fa5e bd3f
00000050: bd3f f7f9 6455 c63f 2760 0483 1ffd d2bf
00000060: bd3f f739 9e92 c23f 747f eef3 acd0 b33f
00000070: e395 b573 1273 c83f defe dce7 f447 a23f
00000080: defe dce7 ff8f a23f defe dce7 b6e9 af3f
00000090: 1041 0d1c 8cd7 b03f 2fde bfcf 6392 c73f
000000a0: 7b83 ee55 7ff7 d03f fe06 ddab cd76 cc3f
000000b0: fe06 dd2b 1be0 cb3f 857c 11ca 7e60 d3bf
000000c0: 2a64 cdd9 1dab ca3f ad90 2f42 9135 8dbf
000000d0: fe06 ddab 2932 c23f 7b83 eed5 2d93 d33f
000000e0: 1c8b b936 9c75 a5bf a8cc bbb3 d32f d43f
000000f0: 0000 00e0 9356 c0bf 0000 00a0 697b d1bf
00000100: 0000 0000 e445 883f 0000 0000 6f3e c43f
00000110: 0000 00c0 07dd babf 0000 0000 c004 c7bf
00000120: 0000 0000 845b 98bf 0000 0080 995f cabf
00000130: 0000 0000 503e 73bf 0000 0000 fba5 b7bf
00000140: 0000 00a0 d89f d1bf 0000 0000 288c aabf
00000150: 0000 00e0 6396 c6bf 0000 0000 ba40 90bf
00000160: 0000 0000 68c1 bd3f 0000 0060 87da c3bf
00000170: 0000 0060 96b4 c3bf 0000 00e0 4e06 d43f
00000180: 0000 0040 7f26 c33f 0000 0020 c923 d03f
00000190: e756 8a31 741c 8cbf e756 8a31 ac2d 8bbf
000001a0: b152 8cc1 5dbe d3bf 4fad 731e c1f4 d23f
000001b0: 699f 18fd f2bb cbbf 67a5 18a3 c26c cbbf
000001c0: 506a 9df3 6070 a83f 4fad 739e 710b d23f
000001d0: d3e2 02c6 9c98 babf 1f8f d62a 6f94 cf3f
000001e0: 0000 00c0 f89d cebf 0000 0040 b2e1 b1bf
000001f0: 0000 00c0 e90a c1bf 0000 0000 4078 803f
00000200: 0000 00a0 5a12 c2bf 0000 0000 3690 98bf
00000210: 0000 0060 58c5 c5bf 0000 0000 303a a33f
00000220: 0000 0000 1072 75bf 0000 0020 bf22 d03f
00000230: 0000 00a0 1e24 d2bf 0000 0040 5820 b7bf
00000240: 0000 0080 25d5 cebf 0000 0060 542b c8bf
00000250: 0000 00e0 36c6 cebf 0000 0080 555e c9bf
00000260: 0000 00a0 fa54 ccbf 0000 00c0 2121 c53f
00000270: 0000 0060 14b2 d2bf 0000 00e0 c9f2 d13f
00000280: 1d1d 7293 daa0 c53f 423a e4a6 ff29 b43f
00000290: 1d1d 7293 b354 c83f e3e2 8dac 318d cbbf
000002a0: 01b7 2244 49bd ce3f 122e dec8 763a 8cbf
000002b0: 423a e4a6 537e b63f e3e2 8dcc 0d29 c3bf
000002c0: c34b cfd5 41ac a13f 004d 771a f5b5 c5bf
000002d0: 0000 0000 22ca 9bbf 0000 00e0 f410 cdbf
000002e0: 0000 0080 7815 c4bf 0000 0080 5f7b bfbf
000002f0: 0000 0000 faf3 953f 0000 0000 8d08 cabf
00000300: 0000 0060 5708 d13f 0000 0040 2ce8 ca3f
00000310: 0000 0000 e362 af3f 0000 0000 f5c3 aa3f
00000320: 0000 0020 a11a d33f 0000 0080 a9d6 cebf
00000330: 0000 0000 ac76 9e3f 0000 0000 2a3a cfbf
00000340: 0000 0000 9bf0 d2bf 0000 00c0 ca80 c63f
00000350: 0000 0060 593a cfbf 0000 0000 48cc be3f
00000360: 0000 00c0 499b cc3f 0000 00c0 238f c73f
00000370: 0000 0080 c7bd b83f 0000 00e0 cc4c d23f
00000380: 0000 00c0 e33f c1bf 0000 0000 ac8a bebf
00000390: 0000 0000 304c 693f 0000 0080 1110 b03f
000003a0: 0000 00e0 24f1 d1bf 0000 0000 9423 b0bf
000003b0: 0000 0000 d41c 813f 0000 00c0 7c78 cc3f
000003c0: 4104 b9b1 6dd8 c5bf 2d82 dc08 f322 d1bf
000003d0: d37d 2337 1468 d33f bffb 462e 4904 c43f
000003e0: f506 abe6 a0d0 cebf 4104 b9b1 ca46 c5bf
000003f0: bffb 466e 6306 c13f bffb 46ee 7b70 c83f
00000400: 334b 1ff4 8707 b3bf f232 41cc 4300 cbbf
00000410: abee bdf3 06c6 cdbf ac08 21a6 3b1c d33f
00000420: ac08 2126 4eb7 d03f 9fba f7ce c638 a1bf
00000430: 6985 43de 3966 c9bf ac08 21a6 4537 d03f
00000440: abee bdd3 6380 c5bf 46dd 7b27 c05c b9bf
00000450: c805 dfce e638 cdbf 79e3 df70 b34c d13f
00000460: 4ec6 9a77 f79c c8bf c5e6 94a1 a7f4 a83f
00000470: 5d32 d6bc 5a7f 92bf e29c 3254 974c d03f
00000480: e62a fae2 8506 c7bf 6b73 cad0 28c4 b43f
00000490: 958c 35ef d2dd bdbf 3b19 6b5e 22de a4bf
000004a0: 7f83 279a b1aa bd3f 9087 02c8 f618 c23f
000004b0: 0000 00c0 1df2 c73f 0000 00c0 53c7 cebf
000004c0: 0000 0000 c0a3 a33f 0000 0000 6a8f 9abf
000004d0: 0000 0020 266f d13f 0000 00c0 342f b2bf
000004e0: 0000 0020 f823 c2bf 0000 0080 e22c bb3f
000004f0: 0000 0020 d47e d23f 0000 00a0 3e60 c9bf
00000500: 0000 0000 b1d0 a4bf 0000 0000 0f1b ccbf
00000510: 0000 0000 08d7 9cbf 0000 0000 8ed7 ad3f
00000520: 0000 00c0 6d6c c0bf 0000 00e0 bec8 cbbf
00000530: 0000 0000 5020 823f 0000 0020 fd7d d1bf
00000540: 0000 0080 8401 bd3f 0000 0040 dc74 d3bf
00000550: c9a2 776f f69b cc3f 992e 4468 6830 d0bf
00000560: c9a2 776f 1d62 c63f c9a2 776f 17b0 c53f
00000570: c99c 926a dfde c33f 67d1 bb37 16bc d03f
00000580: 98e9 4284 f23a 98bf 67d1 bbb7 92f9 d23f
00000590: 0134 2c59 a9fe ce3f d6e3 83e3 b57d a8bf
000005a0: 0000 0080 fe93 c63f 0000 0000 1c62 d1bf
000005b0: 0000 0000 a620 b3bf 0000 0000 34e5 bfbf
000005c0: 0000 0060 4f5c cfbf 0000 0080 bdc8 b63f
000005d0: 0000 0060 329b c2bf 0000 0060 2ca2 c5bf
000005e0: 0000 0040 c6e9 b5bf 0000 00c0 5753 cb3f
000005f0: 0000 0040 43a9 b2bf 0000 00a0 2522 c6bf
00000600: 0000 0080 2d61 bb3f 0000 0000 86ff d0bf
00000610: 0000 00a0 5c5d c4bf 0000 0000 6a42 a2bf
00000620: 0000 0080 8c0e bb3f 0000 0040 988a c8bf
00000630: 0000 0000 0012 2c3f 0000 00c0 90ba c93f
00000640: aa00 29af 158f a93f 1720 e535 f9ed d23f
00000650: cfbf 3514 b4a9 cdbf cfbf 3514 29fb cbbf
00000660: 0967 dcf9 4e08 c43f ac7f 6b28 a49b b9bf
00000670: 1720 e5b5 82b3 d33f 9602 a4bc da69 8a3f
00000680: 7a15 c52c 3100 b3bf 9f78 04a2 4236 d0bf
00000690: 0000 00c0 a643 b7bf 0000 0080 28bf b0bf
000006a0: 0000 00a0 801b d2bf 0000 00e0 7529 d0bf
000006b0: 0000 00c0 9a92 cb3f 0000 0000 bc42 c73f
000006c0: 0000 0040 5b4f ce3f 0000 0040 c8b8 c6bf
000006d0: 0000 0040 3f77 c83f 0000 00c0 d909 c73f
000006e0: 6159 b1e2 6f0b d33f 6159 b1e2 d66e d03f
000006f0: e0b2 6205 5f34 c43f e0b2 6245 bca0 c33f
00000700: 5774 2306 e7af babf 204d 9d3a 9e8e cfbf
00000710: c134 75ea efcd a5bf 9fa6 4efd ad96 d0bf
00000720: bd28 c760 ad57 a2bf aec9 ba8f d544 ce3f
00000730: 61de 99f6 303b c9bf df10 b324 e646 d33f
00000740: 4943 cc12 caae bb3f 5ccb 3bd3 0e05 7ebf
00000750: b58c 16c5 4659 c1bf 21ef 4c5b 6871 d2bf
00000760: 9f21 6649 02f3 cc3f dbf2 ceb4 f32e 9fbf
00000770: 8b19 26e3 4e64 a73f 4908 c33b 1fb2 80bf
00000780: d5ca 7797 95e5 c5bf 446a 10d1 2d22 b93f
00000790: 8c1a 44b4 3a29 d33f 2b35 88e8 c8fb cc3f
000007a0: b5c1 e19f d902 a2bf d5ca 7797 4efe c3bf
000007b0: 97b7 f2dd 4518 61bf 7a2b df5d f6b7 a9bf
000007c0: c75b 320e b3f4 aebf 3b8a 7612 55b3 a4bf
000007d0: 0000 0000 ebe1 cfbf 0000 0060 a341 d13f
000007e0: 0000 00c0 d4c1 cf3f 0000 00c0 88de b6bf
000007f0: 0000 0000 7032 7d3f 0000 0080 a058 c53f

layer0.bias f8 [64]
0.09156947896501841 -0.3129329113448897 0.11940490261809308 -0.09749023616313934 -0.08176496624946594 0.17279749964537386 -0.005400180816650391 0.012020915746688843
0.0951739938211427 -0.04372629523277283 0.10367703437805176 -0.18144062161445618 0.18846487173683887 0.2775873896936314 0.14634730312759597 0.2951922118663788
0.2605932652950287 0.10529636566868415 0.2799732983112335 0.0493428111076355 0.1135472859209597 -0.1994580775499344 -0.13946448015722357 0.1723167940038026
0.2978867183123064 -0.238673597574234 -0.07414668798446655 0.02757883071899414 -0.04026922583580017 -0.08749012649059296 0.3106231371187798 0.23365919092779694
0.06770148873329163 -0.029752994369176552 -0.16822447867055657 -0.2947833047039222 0.2919293091401236 0.3095894753932953 0.21281127209889833 -0.29432839155197144
0.12126221161931182 -0.11585243046283722 0.05209597350772584 0.06402732327920074 0.2468975917998805 -0.2512986190788007 0.020424723625183105 0.10880426677265705
-0.013569580259477274 -0.03496297850826718 0.14794006573587806 -0.08344607055187225 0.10833415389060974 -0.3083873391151428 -0.2505289614200592 0.04260328412055969
0.15928390622138977 -0.267221712344181 -0.2606387138366699 0.13582745228134172 -0.2792029082775116 -0.16969837226519438 -0.2552207112312317 -0.20715146115319513
00000000: 766d 77ed 1871 b73f 2760 04c3 1707 d4bf
00000010: e60d bad7 5191 be3f 0000 00c0 1ef5 b8bf
00000020: 0000 0080 8cee b4bf 995a e77c 3a1e c63f
00000030: 0000 0000 801e 76bf 0000 0000 6c9e 883f
00000040: 423a e4a6 525d b83f 0000 0000 4b63 a6bf
00000050: 0000 0000 948a ba3f 0000 0040 7239 c7bf
00000060: bffb 46ee 9d1f c83f ac08 21e6 fdc3 d13f
00000070: b239 6528 82bb c23f 0000 00e0 6de4 d23f
00000080: 0000 0060 8fad d03f 9745 efde b3f4 ba3f
00000090: 0000 0020 15eb d13f 0000 0000 7643 a93f
000000a0: 5480 9457 6f11 bd3f 0000 00a0 d787 c9bf
000000b0: 204d 9dda f8d9 c1bf 9f21 6609 7a0e c63f
000000c0: 8c1a 4474 9310 d33f 0000 0040 db8c cebf
000000d0: 0000 0000 47fb b2bf 0000 0000 a03d 9c3f
000000e0: 0000 0000 2b9e a4bf 0000 00c0 c065 b6bf
000000f0: dd96 d3dd 3fe1 d33f 2fec b85b 8be8 cd3f
00000100: 0000 0080 e254 b13f ff40 18a7 9177 9ebf
00000110: 946a 2335 6188 c5bf ae0c 47cb badd d2bf
00000120: 8c0b e044 f8ae d23f 0000 0060 50d0 d33f
00000130: 3e45 f156 663d cb3f 0000 00c0 46d6 d2bf
00000140: 6f44 2551 0a0b bf3f 0000 0040 81a8 bdbf
00000150: 2a1c f0cc 52ac aa3f acda 883b 1864 b03f
00000160: 35ee 1e1d 579a cf3f 5c4c 9ecd 4615 d0bf
00000170: 0000 0000 38ea 943f a52d 74af 98da bb3f
00000180: f2ad 7a3b 5eca 8bbf 570b 87e2 aae6 a1bf
00000190: 9945 0d38 b3ef c23f 0000 00c0 b85c b5bf
000001a0: 0000 0080 c9bb bb3f 0000 0040 9ebc d3bf
000001b0: 0000 00a0 aa08 d0bf 0000 0000 19d0 a53f
000001c0: 0000 0040 6a63 c43f fe28 d318 291a d1bf
000001d0: 0000 0000 4eae d0bf 3343 b940 cb62 c13f
000001e0: 0000 00e0 75de d1bf e91e 881f adb8 c5bf
000001f0: 0000 0040 8955 d0bf fb5c 7c67 f083 cabf

layer1.weight f8 [128, 64]
0.1186433732509613 0.09385810792446136 -0.06315010786056519 0.04546572268009186 -0.11154919862747192 -0.06998920440673828 0.10887821018695831 0.030922070145606995
0.10448548197746277 0.10161153972148895 -0.0911501795053482 0.05550992488861084 -0.024174422025680542 -0.1033751368522644 0.0844288170337677 0.11406546831130981
0.08037726581096649 -0.02996218204498291 -0.0018529295921325684 -0.026191890239715576 0.1101997047662735 -0.11968585848808289 -0.11102510988712311 -0.09457075595855713
-0.0034895092248916626 0.0691152811050415 -0.09587091207504272 0.08208420872688293 -0.0015660524368286133 -0.029456526041030884 0.012335926294326782 0.11110532283782959
0.04414604604244232 0.056528255343437195 -0.07524925470352173 -0.02347332239151001 -0.10276742279529572 -0.05732420086860657 -0.023580312728881836 0.00805722177028656
-0.10458388924598694 0.04541926085948944 -0.10585473477840424 0.04468993842601776 0.08760575950145721 -0.030429109930992126 -0.024786069989204407 0.06808196008205414
-0.11643528938293457 0.01691034436225891 -0.07028277218341827 0.01515159010887146 -0.09166817367076874 -0.10625414550304413 0.1229483038187027 0.0927634984254837
0.12469157576560974 -0.05889756977558136 -0.11511538922786713 -0.08514077961444855 0.0005996376276016235 -0.061419740319252014 0.002384185791015625 0.008145526051521301
0.075482577085495 0.11428062617778778 0.011591672897338867 -0.0715705156326294 0.0677977055311203 -0.047676071524620056 -0.11373648047447205 -0.08311504125595093
-0.019993260502815247 0.09104402363300323 -0.059483230113983154 0.022045299410820007 0.02589157223701477 0.00011038780212402344 -0.057400912046432495 0.09548239409923553
0.11969342827796936 0.003813028335571289 0.06944552063941956 -0.020277991890907288 0.07002127170562744 -0.1229947954416275 0.04170180857181549 0.12393893301486969
-0.11201941967010498 0.08471433818340302 0.10498620569705963 -0.012526199221611023 0.05306446552276611 0.05517008900642395 -0.09084361791610718 0.02369709312915802
0.059784263372421265 0.04188302159309387 -0.05889429152011871 0.014510557055473328 0.12174691259860992 -0.06639014184474945 0.028138235211372375 0.12491229176521301
-0.09196776151657104 0.0820692777633667 0.027936309576034546 -0.07586126029491425 0.06007924675941467 -0.022051900625228882 -0.051343128085136414 0.08116824924945831
0.050410911440849304 -0.09929658472537994 -0.07162527740001678 0.026501208543777466 0.12241590023040771 0.004809290170669556 0.03476676344871521 0.08464309573173523
0.06865885853767395 0.006332993507385254 0.0878257155418396 0.05296516418457031 0.04210090637207031 0.05783356726169586 -0.03271597623825073 0.09385794401168823
-0.07215311118179862 0.09714616080827311 -0.023436414551041205 0.0681203156709671 0.061845600605010986 0.042905003493451326 0.08108942210674286 -0.08725422620773315
0.06557406276232582 -0.004937797784805298 -0.04957292973995209 -0.025144070386886597 0.12363923118019986 0.055962291925666555 -0.08180972289601578 0.1056903749704361
-0.07174082100391388 0.01590595482751431 0.08328746259212494 -0.10136082768440247 -0.08374567812689991 -0.09234660863876343 -0.024132283253734146 0.06687335097437402
-0.09221916645745683 -0.06518766283988953 -0.11232548952102661 0.08331568539142609 -0.06188470125198364 -0.025919631123542786 -0.07603967658983612 0.020456351460441915
-0.07381604611873627 -0.10480963036313193 -0.10819618067746344 -0.01451326490314035 0.08862320307324917 0.09263205528259277 -0.06494833404782617 0.06480921804904938
0.06451124589773913 0.0031545311212539673 0.05485054069617836 0.09282157889290046 0.12023999970384582 0.01622242452248673 0.02441786229610443 0.11151826310744783
0.09724915103035611 -0.1038239178918624 0.04721639256781591 -0.07232223451137543 -0.07121017575263977 0.10976505279541016 0.035366401076316833 0.11909151077270508
-0.09607444703578949 0.09034328650416114 0.01823495328426361 -0.11017195476649656 -0.06461670994758606 0.0661342888948765 0.12190365791320801 -0.05814283149265227
0.010626360774040222 -0.05598767101764679 0.05422943830490112 0.07429744303226471 -0.09660609066486359 -0.10036765038967133 0.01625560224056244 -0.09085364639759064
-0.007182523608207703 -0.06916844844818115 -0.11918364465236664 -0.10911089181900024 0.10923142731189728 -0.04458452761173248 0.06642469763755798 -0.0077531784772872925
-0.06841953098773956 -0.013873472809791565 0.09718281030654907 0.016081616282463074 0.11168321967124939 0.11193020641803741 0.12114326655864716 0.037557125091552734
-0.058526188135147095 -0.08571617305278778 -0.05273059010505676 -0.02675652503967285 0.032691746950149536 0.05444467067718506 -0.11757299304008484 0.0034653544425964355
-0.004263937473297119 -0.024565577507019043 0.08679080009460449 -0.00946943461894989 0.10575452446937561 -0.08269456028938293 -0.09815998375415802 0.05387979745864868
-0.09887735545635223 0.030767083168029785 0.08934669196605682 -0.09746289253234863 0.0471278578042984 -0.0802554041147232 -0.017450690269470215 -0.05540892481803894
0.07960885763168335 -0.008236795663833618 -0.10307425260543823 -0.06215658783912659 -0.014173731207847595 0.0017454028129577637 0.029699131846427917 0.09247718751430511
0.1193627417087555 -0.037841975688934326 0.023648887872695923 -0.046652138233184814 0.04970806837081909 -0.004105210304260254 0.04180794954299927 0.09856384992599487
00000000: 0000 0080 695f be3f 0000 00c0 1507 b83f
00000010: 0000 0000 9b2a b0bf 0000 0080 4847 a73f
00000020: 0000 0000 7d8e bcbf 0000 0000 d0ea b1bf
00000030: 0000 0040 71df bb3f 0000 0000 09aa 9f3f
00000040: 0000 0080 8fbf ba3f 0000 00c0 3603 ba3f
00000050: 0000 0040 9e55 b7bf 0000 0000 cc6b ac3f
00000060: 0000 0000 2ec1 98bf 0000 0000 cb76 babf
00000070: 0000 0080 209d b53f 0000 0000 6533 bd3f
00000080: 0000 00c0 9a93 b43f 0000 0000 68ae 9ebf
00000090: 0000 0000 c05b 5ebf 0000 0000 0cd2 9abf
000000a0: 0000 0040 0c36 bc3f 0000 0080 bba3 bebf
000000b0: 0000 0040 246c bcbf 0000 0000 ca35 b8bf
000000c0: 0000 0000 0896 6cbf 0000 0000 8ab1 b13f
000000d0: 0000 0000 ff8a b8bf 0000 0080 7803 b53f
000000e0: 0000 0000 80a8 59bf 0000 0000 da29 9ebf
000000f0: 0000 0000 9443 893f 0000 0000 6671 bc3f
00000100: 0000 0080 4f9a a63f 0000 0080 45f1 ac3f
00000110: 0000 0000 8943 b3bf 0000 0000 6409 98bf
00000120: 0000 0040 f74e babf 0000 0000 9959 adbf
00000130: 0000 0000 7025 98bf 0000 0000 4e80 803f
00000140: 0000 0080 02c6 babf 0000 0080 3141 a73f
00000150: 0000 00c0 4b19 bbbf 0000 0080 99e1 a63f
00000160: 0000 00c0 546d b63f 0000 0000 cf28 9fbf
00000170: 0000 0000 8561 99bf 0000 00c0 d16d b13f
00000180: 0000 0000 b4ce bdbf 0000 0000 f250 913f
00000190: 0000 0040 0dfe b1bf 0000 0000 cc07 8f3f
000001a0: 0000 00c0 9077 b7bf 0000 00c0 7833 bbbf
000001b0: 0000 0040 8a79 bf3f 0000 0040 59bf b73f
000001c0: 0000 0080 c9eb bf3f 0000 0080 d227 aebf
000001d0: 0000 00c0 3378 bdbf 0000 0040 c9cb b5bf
000001e0: 0000 0000 20a6 433f 0000 0080 6872 afbf
000001f0: 0000 0000 0088 633f 0000 0000 9aae 803f
00000200: 0000 0080 d352 b33f 0000 00c0 7e41 bd3f
00000210: 0000 0000 60bd 873f 0000 0000 7252 b2bf
00000220: 0000 00c0 305b b13f 0000 0080 ff68 a8bf
00000230: 0000 0080 d51d bdbf 0000 0000 0747 b5bf
00000240: 0000 0000 1d79 94bf 0000 0040 a94e b73f
00000250: 0000 0000 9674 aebf 0000 0000 0b93 963f
00000260: 0000 0000 5283 9a3f 0000 0000 00f0 1c3f
00000270: 0000 0000 a763 adbf 0000 00c0 8871 b83f
00000280: 0000 0080 3aa4 be3f 0000 0000 803c 6f3f
00000290: 0000 0080 2ec7 b13f 0000 0000 c1c3 94bf
000002a0: 0000 0000 eaec b13f 0000 0040 967c bfbf
000002b0: 0000 0080 f059 a53f 0000 0040 76ba bf3f
000002c0: 0000 0000 4ead bcbf 0000 00c0 d6af b53f
000002d0: 0000 0040 60e0 ba3f 0000 0000 56a7 89bf
000002e0: 0000 0000 442b ab3f 0000 0000 413f ac3f
000002f0: 0000 0000 8741 b7bf 0000 0000 0d44 983f
00000300: 0000 0000 0b9c ae3f 0000 0000 b171 a53f
00000310: 0000 0080 6427 aebf 0000 0000 b6b7 8d3f
00000320: 0000 0040 ce2a bf3f 0000 00c0 f1fe b0bf
00000330: 0000 0000 45d0 9c3f 0000 0080 40fa bf3f
00000340: 0000 0000 338b b7bf 0000 0000 7e02 b53f
00000350: 0000 0000 569b 9c3f 0000 00c0 a46b b3bf
00000360: 0000 0000 b5c2 ae3f 0000 0000 c694 96bf
00000370: 0000 0080 a549 aabf 0000 0040 71c7 b43f
00000380: 0000 0080 75cf a93f 0000 0040 806b b9bf
00000390: 0000 00c0 0856 b2bf 0000 0000 2223 9b3f
000003a0: 0000 0000 a656 bf3f 0000 0000 e8b2 733f
000003b0: 0000 0000 f3cc a13f 0000 0080 2bab b53f
000003c0: 0000 0080 a093 b13f 0000 0000 a0f0 793f
000003d0: 0000 0000 bf7b b63f 0000 0000 401e ab3f
000003e0: 0000 0000 408e a53f 0000 0080 5c9c ad3f
000003f0: 0000 0000 26c0 a0bf 0000 0000 1307 b83f
00000400: 249a d454 a078 b2bf 517e 9a1f 92de b83f
00000410: 69fe 2028 b7ff 97bf 0000 0040 5570 b13f
00000420: 0000 0000 3aaa af3f a7a3 ad05 a5f7 a53f
00000430: 0000 00c0 46c2 b43f 0000 0000 4b56 b6bf
00000440: c1b0 0737 76c9 b03f 0000 0000 a839 74bf
00000450: 0000 0080 9f61 a9bf 0000 0000 5ebf 99bf
00000460: 2bea 6b16 d2a6 bf3f da87 42eb 16a7 ac3f
00000470: 434d 5564 7bf1 b4bf 0000 0040 860e bb3f
00000480: 0000 0040 9b5d b2bf 59ed 2e8f a649 903f
00000490: 0000 00c0 5352 b53f 0000 0080 c8f2 b9bf
000004a0: 3f83 bc54 5b70 b5bf 0000 0000 07a4 b7bf
000004b0: 170f 691d 22b6 98bf 74ab 68a7 9c1e b13f
000004c0: c5c8 ffdf ac9b b7bf 0000 0080 23b0 b0bf
000004d0: 0000 0000 5dc1 bcbf 0000 0040 2d54 b53f
000004e0: 0000 0000 5aaf afbf 0000 0000 ad8a 9abf
000004f0: f0d9 2614 5677 b3bf 8783 1282 82f2 943f
00000500: 0000 00c0 9be5 b2bf 062b b7ce cdd4 babf
00000510: f3d2 8fb1 beb2 bbbf 17f8 ef70 21b9 8dbf
00000520: 8cca dd9e 02b0 b63f 0000 0000 bcb6 b73f
00000530: c743 aa3a 74a0 b0bf 0000 0040 5697 b03f
00000540: 86e1 5a1b cf83 b03f 0000 0000 88d7 693f
00000550: 637f eabc 5e15 ac3f 7a45 b5ad 27c3 b73f
00000560: 4929 6672 0cc8 be3f 4fc5 247b 9c9c 903f
00000570: 0000 0000 ff00 993f b005 f4fc 758c bc3f
00000580: 8e38 3d03 52e5 b83f 085d e34b 3494 babf
00000590: 59e6 d33b bf2c a83f 0000 00c0 b583 b2bf
000005a0: 0000 0080 d43a b2bf 0000 0000 9019 bc3f
000005b0: 0000 0080 8b1b a23f 0000 0000 c87c be3f
000005c0: 0000 00c0 5598 b8bf e1d2 f2d4 bc20 b73f
000005d0: 0000 0000 2fac 923f 1193 a8ae 3a34 bcbf
000005e0: 0000 0080 b88a b0bf 299d f23f 2dee b03f
000005f0: 0000 0000 1435 bf3f cafb 83af e5c4 adbf
00000600: 0000 0000 46c3 853f 0000 0080 6aaa acbf
00000610: 0000 0000 f6c3 ab3f 0000 0040 2805 b33f
00000620: 0000 0040 2dbb b8bf 0000 00c0 b1b1 b9bf
00000630: 0000 0000 4fa5 903f 0000 0040 2f42 b7bf
00000640: 0000 0000 6c6b 7dbf 0000 0000 06b5 b1bf
00000650: 0000 00c0 d182 bebf 0000 0000 b1ee bbbf
00000660: 0000 0040 97f6 bb3f 0000 0080 c8d3 a6bf
00000670: 0000 0080 3501 b13f 0000 0000 ccc1 7fbf
00000680: 0000 0040 f183 b1bf 0000 0000 b269 8cbf
00000690: 0000 0000 f9e0 b83f 0000 0000 b377 903f
000006a0: 0000 0080 4597 bc3f 0000 0040 75a7 bc3f
000006b0: 0000 00c0 3e03 bf3f 0000 0000 b03a a33f
000006c0: 0000 0000 25f7 adbf 0000 00c0 7ef1 b5bf
000006d0: 0000 0000 81ff aabf 0000 0000 1066 9bbf
000006e0: 0000 0000 f9bc a03f 0000 0000 2ce0 ab3f
000006f0: 0000 0080 4319 bebf 0000 0000 6063 6c3f
00000700: 0000 0000 1077 71bf 0000 0000 b827 99bf
00000710: 0000 0000 ec37 b63f 0000 0000 b664 83bf
00000720: 0000 0080 ba12 bb3f 0000 0080 782b b5bf
00000730: 0000 0040 0321 b9bf 0000 0000 2296 ab3f
00000740: 0000 00c0 0650 b9bf 0000 0000 6881 9f3f
00000750: 0000 00c0 6cdf b63f 0000 0000 54f3 b8bf
00000760: 0000 0080 2421 a83f 0000 0040 9e8b b4bf
00000770: 0000 0000 98de 91bf 0000 0000 8f5e acbf
00000780: 0000 0000 3f61 b43f 0000 0000 74de 80bf
00000790: 0000 0000 1363 babf 0000 0000 fdd2 afbf
000007a0: 0000 0000 1e07 8dbf 0000 0000 c098 5c3f
000007b0: 0000 0000 7369 9e3f 0000 00c0 95ac b73f
000007c0: 0000 0080 8e8e be3f 0000 0000 0660 a3bf
000007d0: 0000 0000 6a37 983f 0000 0000 cae2 a7bf
000007e0: 0000 0000 5673 a93f 0000 0000 a0d0 70bf
000007f0: 0000 0000 da67 a53f 0000 0000 7b3b b93f

layer1.bias f8 [128]
0.014674961566925049 -0.01818503439426422 0.11163895346655799 -0.049882397055625916 -0.03447072344354471 0.10708886750733576 0.03358859859457128 0.1234062206654331
-0.07870052754878998 -0.045996129512786865 -0.06745253540618959 0.0057007504959771015 -0.02574346959590912 0.11625736783069414 -0.0402940141406146 0.12181721289970748
-0.04567668439304544 -0.04598543047904968 -0.07874372601509094 0.020075423881673545 0.00740992083431881 0.04791720579532782 0.1228449640938965 0.026515032541397164
0.09974936102397039 0.004952640055112128 0.02025146782398224 -0.04181745648384094 0.04875508919223717 -0.02775348722934723 -0.12227815851052486 0.11499703498806596
-0.007515799641955611 0.06124724537772231 0.08962959051132202 0.016083359718322754 -0.0908256322145462 -0.05332706868648529 0.058197662778810055 0.048496819754071295
0.015320643782615662 0.10037225860590872 0.054031643671284095 0.1038746767236505 0.10071057081222534 -0.03592768311500549 -0.06915378204589595 -0.03765277564525604
0.08336128294467926 -0.009829290791487573 -0.05203999554838048 -0.07905691862106323 0.02750280499458313 -0.07604226484723034 0.01443565878217013 -0.09117484092712402
-0.044354503245063286 -0.023393727855928966 -0.12435807287693024 0.08942358101930566 -0.046284428705960654 -0.10604767501354218 0.11025438285589237 0.11464519798755646
0.02320383992552469 -0.09160204231739044 -0.06366756558418274 -0.008079112446781165 -0.0486440509557724 0.021341681935766965 -0.01903235912322998 -0.0016848829416406328
-0.013489916920661926 0.06377482414245605 0.0839567396323542 -0.0505770780342712 0.09005519562265635 -0.033010635475960365 -0.11421137507408478 -0.10265303408649191
0.07206811794059684 0.08282268047332764 -0.027630513064566042 0.031252722260946796 0.0868677813964312 0.010730681796120047 0.09374755914317257 0.10999314356680888
-0.1148311048746109 0.10035335579076626 0.026682989211575147 -0.002230783559718219 -0.03870921294027385 -0.09576448798179626 -0.10468259453773499 0.040426164865493774
-0.10409161448478699 0.10774986445903778 0.0734727680683136 0.04267951846122742 0.02821102738380432 -0.12170664966106415 0.10098159095657921 -0.02976092577109062
-0.006331638044553562 -0.0741138756275177 -0.070095956325531 0.07648332206671302 -0.06721217041247854 -0.02615441381931305 0.014518914125661385 0.09276411700736727
-0.019425690174102783 -0.05436021089553833 -0.0808284729719162 -0.02791690855236091 -0.05834156274795532 0.08103524154170955 0.008047983050346375 0.08007416129112244
-0.00657278299331665 0.07543826103210449 0.07031250962626186 -0.0746721476316452 0.044302091002464294 0.06917663489977416 -0.0019201536591917086 -0.09823554064798587
00000000: 0000 0000 e80d 8e3f 0000 0000 199f 92bf
00000010: 6b39 19d6 5e94 bc3f 0000 0080 2f8a a9bf
00000020: 6c0e b88b 25a6 a1bf dcad b50f 2d6a bb3f
00000030: 0cdd f658 8632 a13f db88 e1d1 8c97 bf3f
00000040: 0000 00c0 b725 b4bf 0000 0000 ce8c a7bf
00000050: ea13 9ac1 9144 b1bf a506 168f ab59 773f
00000060: 0000 0000 7f5c 9abf cd7a c0f8 0ac3 bd3f
00000070: adc0 eac1 6aa1 a4bf 307e 7eb1 692f bf3f
00000080: e6d0 5033 ef62 a7bf 0000 0000 678b a7bf
00000090: 0000 0080 8c28 b4bf 6fba 19e4 a68e 943f
000000a0: 11bb 637a dd59 7e3f 38ff 9c9f 9a88 a83f
000000b0: e4f6 427f c472 bf3f 3680 78b6 c126 9b3f
000000c0: e214 6593 2c89 b93f 2c8f 0c31 3849 743f
000000d0: 0000 0000 cdbc 943f 0000 0000 1969 a5bf
000000e0: d43d 3053 6df6 a83f 0000 0000 696b 9cbf
000000f0: e35b d113 9f4d bfbf 5c24 6918 7270 bd3f
00000100: 99d6 a51a e3c8 7ebf 711c bc87 cc5b af3f
00000110: 0000 0000 f7f1 b63f 0000 0000 2878 903f
00000120: 0000 0040 5940 b7bf 0000 0080 af4d abbf
00000130: 5860 ad84 15cc ad3f 3384 9b3d 93d4 a83f
00000140: 0000 0000 6e60 8f3f 1956 2310 ffb1 b93f
00000150: 4fda 081d 09aa ab3f 7220 69e3 8797 ba3f
00000160: 0000 0000 2bc8 b93f 0000 0000 1d65 a2bf
00000170: 5826 48f0 0fb4 b1bf 0000 0080 3947 a3bf
00000180: 0000 0040 2a57 b53f d741 f013 6121 84bf
00000190: 13b6 ed7d fca4 aabf 0000 0000 133d b4bf
000001a0: 0000 0000 b229 9c3f b2f3 a180 8177 b3bf
000001b0: 83d2 ec52 7190 8d3f 0000 0000 3c57 b7bf
000001c0: cf59 bc29 a2b5 a6bf 1f7c 4a80 86f4 97bf
000001d0: 0000 0040 eed5 bfbf 8518 f8bb 76e4 b63f
000001e0: 9658 36b7 97b2 a7bf 0000 00c0 f025 bbbf
000001f0: 0e52 9b98 a139 bc3f 0000 0040 6359 bd3f
00000200: 68ab 7c56 bfc2 973f 0000 0040 3b73 b7bf
00000210: 0000 0080 844c b0bf ffc3 ea1d c88b 80bf
00000220: 0000 0080 dfe7 a8bf f0b0 d207 98da 953f
00000230: 0000 0000 387d 93bf a39e 7148 e99a 5bbf
00000240: 0000 0000 9aa0 8bbf 0000 0000 8c53 b03f
00000250: 82ef ff5a 307e b53f 093b 2b20 3de5 a9bf
00000260: c4c0 0878 db0d b73f cc2f 941f c5e6 a0bf
00000270: 033e c6e8 f43c bdbf 7d95 3c20 7847 babf
00000280: 4e9e a361 0e73 b23f 0000 0000 de33 b53f
00000290: d0a0 ef57 2c4b 9cbf 3321 0b58 5b00 a03f
000002a0: d47a 2c88 f73c b63f ce62 06bb f7f9 853f
000002b0: 5889 990c d7ff b73f 5f57 67ba 8228 bc3f
000002c0: 0000 0040 9265 bdbf 1c4a 2aed c1b0 b93f
000002d0: 33cb 1718 c952 9b3f 66c6 decd 4a46 62bf
000002e0: d0c6 43a7 b1d1 a3bf 0000 0080 0584 b8bf
000002f0: 0000 0080 7acc babf 0000 0000 bdb2 a43f
00000300: 0000 0080 bfa5 babf 0000 00c0 7e95 bb3f
00000310: 0000 0080 1ccf b23f 0000 0000 17da a53f
00000320: 0000 0000 5ae3 9c3f 0000 00c0 2a28 bfbf
00000330: 2014 a8f6 edd9 b93f 2dc5 8aeb a579 9ebf
00000340: 47b0 4d25 34ef 79bf 0000 0080 20f9 b2bf
00000350: 0000 0000 cff1 b1bf a649 f736 6994 b33f
00000360: 0a95 d019 d134 b1bf 0000 0000 39c8 9abf
00000370: 6cc4 beaa 17bc 8d3f 45f9 c9a0 63bf b73f
00000380: 0000 0000 54e4 93bf 0000 0000 1ad5 abbf
00000390: 0000 00c0 2cb1 b4bf 3485 f304 4096 9cbf
000003a0: 0000 0000 f2de adbf 14bf 3ec0 b9be b43f
000003b0: 0000 0000 767b 803f 0000 0080 bd7f b43f
000003c0: 0000 0000 10ec 7abf 0000 0000 ec4f b33f
000003d0: d52f 5829 0000 b23f 0000 00c0 b61d b3bf
000003e0: 0000 0080 c3ae a63f 7cb7 8a58 8fb5 b13f
000003f0: 7e77 d94a b575 5fbf 8652 63e2 f625 b9bf

layer2.weight f8 [256, 128]
-0.007352285087108612 0.013772070407867432 0.04690229147672653 -0.04379285126924515 0.02387281507253647 0.0038045644760131836 -0.08068427443504333 0.040037281811237335
-0.04675820842385292 0.021035216748714447 -0.07385431975126266 -0.010643161833286285 0.0025272518396377563 0.002082519233226776 0.0731235221028328 0.013050496578216553
0.0332489088177681 0.07782942801713943 -0.05202930420637131 0.07982950657606125 -0.016971468925476074 -0.03248663246631622 0.00674206018447876 -0.0068799033761024475
0.010387204587459564 0.0806431844830513 0.04054946452379227 -0.07472965121269226 -0.03769254684448242 0.026571840047836304 0.0317876935005188 -0.03940257057547569
-0.03576388582587242 -0.023822464048862457 -0.033626049757003784 0.03700948506593704 -0.07993640750646591 -0.025321096181869507 -0.04817906394600868 -0.04235108196735382
0.052154846489429474 -0.016682177782058716 -0.04737384617328644 0.04814495891332626 0.0328652486205101 -0.02728501707315445 0.06382598727941513 0.04671093076467514
-0.03162984922528267 0.045132897794246674 -0.030150599777698517 0.07009110599756241 -0.025368206202983856 -0.023159123957157135 0.023784689605236053 -0.009326063096523285
-0.05939009040594101 -0.04881935939192772 0.010537810623645782 0.015423469245433807 -0.04119616374373436 0.06715234369039536 0.01127602905035019 0.07852473109960556
-0.06445637345314026 -0.03730493411421776 0.0455775186419487 0.0621885284781456 -0.05211940407752991 0.0825653001666069 0.038644514977931976 0.01949327439069748
-0.050765447318553925 -0.07015760987997055 -0.06454094499349594 0.04757901281118393 -0.0679454356431961 0.07723625749349594 -0.00015905499458312988 -0.06701543927192688
-0.05203857645392418 0.07313356548547745 -0.011749915778636932 -0.04013883322477341 0.022001273930072784 0.053648121654987335 -0.04078768566250801 -0.08815392851829529
-0.062086015939712524 -0.008184731006622314 -0.07203757762908936 -0.005193546414375305 -0.03842305764555931 -0.03475994989275932 0.029942356050014496 0.06633692234754562
-0.028419651091098785 -0.027939345687627792 -0.002005159854888916 -0.03801293671131134 0.00033595412969589233 -0.010057240724563599 -0.046316541731357574 0.08238246291875839
0.0075925663113594055 0.042500026524066925 0.0738571360707283 -0.0030175447463989258 0.029835373163223267 -0.005602903664112091 0.06472892314195633 -0.07433882355690002
-0.0015147030353546143 -0.06324970722198486 0.01518363505601883 0.025098219513893127 -4.193931818008423e-05 0.02238278090953827 0.02678898721933365 0.017128102481365204
-0.08124914765357971 -0.02605612948536873 0.024812161922454834 -0.07653184980154037 0.06401298195123672 0.00477522611618042 -0.0007291287183761597 0.07268048077821732
0.03151892125606537 0.010158076882362366 -0.0849618677921195 -0.0670362114906311 0.03723029365062288 0.016866908791844777 0.08287898635724505 -0.005601140700614853
-0.08155073970556259 -0.06551457941532135 -0.01273006811259551 0.08089666329986754 -0.040427837520837784 -0.03617939617809414 -0.037589563044152 0.003925663371654658
0.045361478060186686 -0.07610874623060226 0.08740877360105515 -0.07799893990796222 0.0017348008424207745 0.0514166960685397 -0.05985694639446351 0.07230507707615845
-0.030334202702775606 0.07985538582423793 -0.08007128536701202 -0.005246579647064209 0.06669714749858364 0.022103987634181976 0.034011406869161626 0.015438021089213591
-0.0643735851104939 -0.022676422441426095 -0.038593363016843796 0.08707810193300247 0.041144780814647675 -0.07364159822463989 0.06511047948428303 -0.007469690700423205
0.031054452061653137 -0.07605093254128002 -0.05084040477829654 -0.002786714364239274 0.06180749088525772 0.07306481152772903 -0.0748062444021748 0.030580289661884308
-0.04357006400823593 0.0545793262565196 -0.07548827439983188 0.012731269001960754 -0.03571384772658348 -0.007249047575988185 -0.06357624563608386 0.05043346434831619
0.04447369351323022 -0.06355804917867784 0.0666874572634697 0.02263052068182875 -0.048859115452504424 0.02715630829334259 0.0468866325452008 -0.053625382483005524
-0.04662733321441339 0.0790148600935936 -0.03608875349164009 0.07085505257389191 -0.024677075445652008 -0.01866044688424448 -0.0835302472114563 0.036096852835057744
-0.07729382812976837 0.041555412113666534 -0.045678995003163976 -0.0491150162020379 -0.08808886432505973 0.0691420979401345 0.061923597159295136 -0.03632465551788889
0.017174592954318314 0.07491325587034225 0.0541255016712897 0.08205897471196044 -0.02297805979161803 -0.0026381391326292785 -0.03141091845945982 0.04572596133119416
0.07446181029081345 0.06233564978769164 -0.004732720058746161 0.05375698454863762 0.07778122701733414 0.05437489598989487 -0.06428413093090057 0.01765436679124832
-0.03858235105872154 -0.022571511566638947 -0.0022499337792396545 0.07170776277780533 -0.05533609166741371 0.022398069500923157 0.009769662806541532 -0.026103378502153933
-0.014876829258709605 -0.06294024735689163 -0.05848613753914833 0.024034612189513995 -0.07852713597022792 -0.07831151783466339 0.07090337372239948 -0.06930502197148188
0.030875518918037415 -0.07099084556102753 0.003569774329662323 0.033111976305672634 -0.0674344152212143 -0.015190184523590076 -0.06140421703457832 -0.02514355629682541
-0.07735654711723328 0.03979327529668808 -0.012516645845262022 0.017323672771453857 0.006420418620109558 -0.08389594934534553 -0.009986676047787635 -0.008653135561420089
00000000: 0000 0000 6e1d 7ebf 0000 0000 8834 8c3f
00000010: 0000 00c0 9303 a83f 0000 0040 046c a6bf
00000020: 0000 0080 1d72 983f 0000 0000 c02a 6f3f
00000030: 0000 0080 b9a7 b4bf 0000 0040 c47f a43f
00000040: 0000 0020 b1f0 a7bf 0000 0080 418a 953f
00000050: 0000 00e0 1de8 b2bf 0000 0000 15cc 85bf
00000060: 0000 0000 08b4 643f 0000 0000 5c0f 613f
00000070: 0000 0020 39b8 b23f 0000 0000 38ba 8a3f
00000080: 0000 0040 0006 a13f 0000 0020 a1ec b33f
00000090: 0000 00c0 95a3 aabf 0000 00e0 b46f b43f
000000a0: 0000 0000 f860 91bf 0000 0080 16a2 a0bf
000000b0: 0000 0000 909d 7b3f 0000 0000 1a2e 7cbf
000000c0: 0000 0000 e345 853f 0000 0020 08a5 b43f
000000d0: 0000 0040 e6c2 a43f 0000 0080 7b21 b3bf
000000e0: 0000 0000 704c a3bf 0000 0000 a635 9b3f
000000f0: 0000 0000 7a46 a03f 0000 00e0 922c a4bf
00000100: 0000 00e0 a44f a2bf 0000 0080 ea64 98bf
00000110: 0000 0000 6f37 a1bf 0000 0040 e8f2 a23f
00000120: 0000 0060 b676 b4bf 0000 0000 c6ed 99bf
00000130: 0000 0020 edaa a8bf 0000 0080 0aaf a5bf
00000140: 0000 0040 0ab4 aa3f 0000 0000 2215 91bf
00000150: 0000 0080 6241 a8bf 0000 00c0 74a6 a83f
00000160: 0000 00c0 b6d3 a03f 0000 0080 9af0 9bbf
00000170: 0000 0060 e656 b03f 0000 00c0 7eea a73f
00000180: 0000 00a0 c931 a0bf 0000 00c0 a81b a73f
00000190: 0000 0080 ccdf 9ebf 0000 00a0 7df1 b13f
000001a0: 0000 0080 1ffa 99bf 0000 0080 06b7 97bf
000001b0: 0000 0080 035b 983f 0000 0000 8b19 83bf
000001c0: 0000 00c0 6068 aebf 0000 00e0 d9fe a8bf
000001d0: 0000 0000 d994 853f 0000 0000 5796 8f3f
000001e0: 0000 00e0 a917 a5bf 0000 0060 e530 b13f
000001f0: 0000 0000 e317 873f 0000 0060 321a b43f
00000200: 0000 0080 3680 b0bf 0000 00e0 a119 a3bf
00000210: 0000 00c0 ef55 a73f 0000 00c0 2cd7 af3f
00000220: 0000 0000 65af aabf 0000 00e0 ff22 b53f
00000230: 0000 00c0 36c9 a33f 0000 0080 0bf6 933f
00000240: 0000 00c0 edfd a9bf 0000 0060 d9f5 b1bf
00000250: 0000 0060 c185 b0bf 0000 00c0 465c a83f
00000260: 0000 0040 df64 b1bf 0000 0060 c1c5 b33f
00000270: 0000 0000 00d9 24bf 0000 0080 ec27 b1bf
00000280: 0000 00e0 cca4 aabf 0000 00a0 e1b8 b23f
00000290: 0000 0000 5710 88bf 0000 00c0 138d a4bf
000002a0: 0000 0080 8087 963f 0000 0040 c477 ab3f
000002b0: 0000 00a0 1fe2 a4bf 0000 0080 4191 b6bf
000002c0: 0000 0000 bdc9 afbf 0000 0000 28c3 80bf
000002d0: 0000 0000 0e71 b2bf 0000 0000 d445 75bf
000002e0: 0000 00e0 2fac a3bf 0000 0060 0ecc a1bf
000002f0: 0000 0080 35a9 9e3f 0000 00e0 74fb b03f
00000300: 0000 0080 0a1a 9dbf 0000 00c0 219c 9cbf
00000310: 0000 0000 206d 60bf 0000 0080 6e76 a3bf
00000320: 0000 0000 6004 363f 0000 0000 e498 84bf
00000330: 0000 0040 cdb6 a7bf 0000 0060 0417 b53f
00000340: 0000 0000 6219 7f3f 0000 0040 90c2 a53f
00000350: 0000 0020 4de8 b23f 0000 0000 40b8 68bf
00000360: 0000 0000 2a8d 9e3f 0000 0000 12f3 76bf
00000370: 0000 0020 1392 b03f 0000 0080 de07 b3bf
00000380: 0000 0000 20d1 58bf 0000 0000 2231 b0bf
00000390: 0000 0000 9918 8f3f 0000 0000 59b3 993f
000003a0: 0000 0000 00fd 05bf 0000 0000 83eb 963f
000003b0: 0000 0080 926e 9b3f 0000 0080 078a 913f
000003c0: 0000 0080 becc b4bf 0000 0040 75ae 9abf
000003d0: 0000 0000 5c68 993f 0000 0060 9797 b3bf
000003e0: 0000 00a0 2763 b03f 0000 0000 308f 733f
000003f0: 0000 0000 60e4 47bf 0000 0020 309b b23f
00000400: 0000 0080 3f23 a03f 0000 0000 c2cd 843f
00000410: ac00 939b 0fc0 b5bf 0000 0000 4929 b1bf
00000420: ebbf 4c5b d90f a33f 1215 9516 8f45 913f
00000430: 5414 eea7 8e37 b53f c52a 12c2 38f1 76bf
00000440: 0000 0060 82e0 b4bf 0000 0040 90c5 b0bf
00000450: 166f c1d1 3812 8abf ff7b 3acb a4b5 b43f
00000460: 0000 0020 f5b2 a4bf 4a75 bf16 1b86 a2bf
00000470: d720 e46f f03e a3bf ece5 bd3c 5b14 703f
00000480: f68f 88a1 9e39 a73f 0000 00e0 dc7b b3bf
00000490: 0000 00e0 6b60 b63f 8601 0710 bdf7 b3bf
000004a0: e480 8738 486c 5c3f 2e5e 2a08 4a53 aa3f
000004b0: 34c1 67d6 91a5 aebf e379 60e5 9582 b23f
000004c0: 5410 3ce2 ed0f 9fbf d249 860e 6771 b43f
000004d0: 0000 0040 8d7f b4bf 0000 0000 707d 75bf
000004e0: 052f 3e73 1013 b13f 0000 0080 6da2 963f
000004f0: d453 6370 f169 a13f 1888 8b1d f89d 8f3f
00000500: b49d c68a c97a b0bf a1d5 1af3 7c38 97bf
00000510: 0000 0060 82c2 a3bf 0000 0020 c04a b63f
00000520: 0000 00c0 ed10 a53f 0000 0000 2dda b2bf
00000530: 360a 0394 14ab b03f ce16 50d4 8998 7ebf
00000540: 0000 0000 bdcc 9f3f 7758 18ec 1278 b3bf
00000550: af26 ade7 c007 aabf 02b0 d8e1 29d4 66bf
00000560: 0000 0040 3ba5 af3f 0000 0020 60b4 b23f
00000570: cb71 3e85 8026 b3bf 0000 0080 7050 9f3f
00000580: 0000 00c0 d04e a6bf 4d72 9e4a d2f1 ab3f
00000590: 4a5c c715 3353 b3bf 0000 0000 da12 8a3f
000005a0: 0000 00e0 1549 a2bf 639b 4164 2db1 7dbf
000005b0: a637 cf67 8846 b0bf 0000 0040 6ad2 a93f
000005c0: a8e2 5786 41c5 a63f 13b7 9e1e 5745 b0bf
000005d0: 0000 00e0 6d12 b13f 112f e188 742c 973f
000005e0: dfc1 f5dd 0f04 a9bf 0000 0000 ddce 9b3f
000005f0: f66a cd52 8601 a83f 0000 0040 c974 abbf
00000600: 03de 82ae 89df a7bf 0000 0060 513a b43f
00000610: 0000 00a0 397a a2bf 88ac 8f85 8e23 b23f
00000620: 0000 0080 f244 99bf 98e4 6264 b91b 93bf
00000630: 0000 0000 3d62 b5bf b687 d464 497b a23f
00000640: 0000 0040 87c9 b3bf 0000 0040 c046 a53f
00000650: 8133 4ebb 3c63 a7bf 3818 a978 9a25 a9bf
00000660: 53fc 6ae7 fd8c b6bf 4101 6ee9 4bb3 b13f
00000670: 49b9 4c21 73b4 af3f c1c0 f92e 2599 a2bf
00000680: fa5e 3e6c 3796 913f 0000 00e0 832d b33f
00000690: ae95 1d77 56b6 ab3f 602d bb24 d101 b53f
000006a0: fc76 527d 8f87 97bf 7c89 8029 949c 65bf
000006b0: 8999 0a87 1715 a0bf 77c4 fda8 6469 a73f
000006c0: 0000 00e0 ed0f b33f 3a14 6d52 75ea af3f
000006d0: 159a f9dd 9d62 73bf bdcd 2215 0986 ab3f
000006e0: 603e 4872 78e9 b33f 0000 00c0 06d7 ab3f
000006f0: 0000 00c0 ec74 b0bf 0000 0080 fc13 923f
00000700: 0000 00e0 10c1 a3bf 0000 0080 fc1c 97bf
00000710: 0000 0000 746e 62bf 0000 00a0 705b b23f
00000720: 0000 0020 0355 acbf 0000 0000 85ef 963f
00000730: ebf1 f9f1 1d02 843f de6c ed13 d8ba 9abf
00000740: 891d 1339 be77 8ebf 0000 0020 da1c b0bf
00000750: 0000 0020 e5f1 adbf 67d4 4d85 879c 983f
00000760: 6c36 d7b8 5a1a b4bf 0000 0040 390c b4bf
00000770: 5553 5037 b926 b23f 5dea d052 f9bd b1bf
00000780: 0000 0000 d59d 9f3f 0000 00c0 742c b2bf
00000790: 0000 0000 5c3e 6d3f ff75 ad8e 0df4 a03f
000007a0: 0000 00c0 6143 b1bf ac00 fe0d 081c 8fbf
000007b0: 0000 00a0 5f70 afbf 0000 0080 3bbf 99bf
000007c0: 0000 0080 a3cd b3bf 0000 00c0 c85f a43f
000007d0: 41f5 7cc4 53a2 89bf 0000 0000 4cbd 913f
000007e0: 0000 0000 4c4c 7a3f 8283 b476 347a b5bf
000007f0: 20ff 2af8 e473 84bf f306 f431 bcb8 81bf
