python/snapshot1600.pt (torch_old, 586867 bytes, 6 tensors)

layer0.weight f8 [256, 19]
0	0xbf9a8056d8975e57	-0.025880200357134644
1	0x3fa18837666aee9f	0.034242373706971245
2	0x3fc718298831105f	0.18042487287505346
3	0xbf7c4591bf7acc2b	-0.006902283981321348
4	0x3fad4f773fb71a53	0.05724690106176369
5	0xbfc541aff78275e4	-0.16606711945944064
6	0x3f7bdd29ce2dcfaa	0.00680271463612662
7	0x3fc3e5f9be0c1003	0.15545579700130938
8	0x3fb601c5ad3075aa	0.08596454122785838
9	0xbfbca73b29d9f5ab	-0.11192674419176878
10	0x3fc43ab48f29fb33	0.15804154386929667
11	0xbfb3e160aafea2f0	-0.07765773939776088
12	0xbfb27e6b101a144d	-0.07224148886787525
13	0xbfba2db9fac12211	-0.10226023075041037
14	0x3f92cc6b8bb78926	0.018357925799031304
15	0x3fa276f47444467c	0.036063803856575455
16	0x3fc81e5e7865142c	0.1884267890801835
17	0xbfb40290ec27a5da	-0.07816415563106408
18	0x3fcd025dee2442f0	0.22663473251352384
19	0x3fca6f1912668f92	0.206515439972574
20	0xbfcbf455b23f2f9f	-0.21839400485475566
21	0xbfc3e29429c2d962	-0.15535213507764484
22	0x3fb038491f79c19d	0.06335885065505527
23	0xbfb59d802215fc23	-0.08443451721358079
24	0x3fc1e83702f96621	0.1398991360209019
25	0x3fc9c88c047d02ab	0.2014327070155749
26	0x3fc3fc511fc43897	0.15613760043237754
27	0xbf8e6c5e08fe1049	-0.014855131768634193
28	0x3fc7ca2d28312e55	0.18585743391519097
29	0x3f92177fe9d97015	0.017667769096405623
30	0xbfc7c20eb490cc2f	-0.1856096631687207
31	0xbfa3c8d521af7e88	-0.03864160572242975
32	0xbfc2ac8f1e9e22a0	-0.14589108462339073
33	0x3f85e2bfca14a718	0.010686395983231331
34	0x3fcb9e1922b9e351	0.21576227374660076
35	0x3fc2ea670ec44c60	0.14777839871439635
36	0xbfaaf17986c5b4ec	-0.052623555852599896
37	0x3fb2bbb1c746807f	0.07317648997423197
38	0x3f923daa00000000	0.01781335473060608
39	0xbfc45acc60000000	-0.15902094542980194
40	0x3fabe23c80000000	0.054460421204566956
41	0x3fa7a6ed80000000	0.04619543254375458
42	0xbfa4c59f80000000	-0.04057024419307709
43	0xbfc2f64280000000	-0.14814025163650513
44	0xbfc1e7b2c0000000	-0.1398833692073822
45	0xbfc8a27220000000	-0.19245745241641998
46	0x3f9adbdf00000000	0.026229366660118103
47	0x3fb0f66d40000000	0.06626017391681671
48	0x3fbd1b36c0000000	0.11369650065898895
49	0xbfb795ebc0000000	-0.0921313613653183
50	0xbf9507f700000000	-0.020538195967674255
51	0xbfb3f21e40000000	-0.07791317999362946
52	0x3fc108c8a0000000	0.13308055698871613
53	0xbfb381ac40000000	-0.07619740068912506
54	0xbf84f0b600000000	-0.01022474467754364
55	0xbfc36efc60000000	-0.15182451903820038
56	0xbf80568c00000000	-0.007977575063705444
57	0xbfc0d6c2a81b74fe	-0.1315539666019631
58	0x3fca0669b6134842	0.20332070722958134
59	0x3fb118a9c1a2a632	0.06678257920670985
60	0x3f9c6021a8abe3a1	0.027710462493789504
61	0xbfc361a618702d88	-0.15141750520011166
62	0x3fc4c02ffa8717ad	0.1621150944976625
63	0xbfa8bd17200324ac	-0.04831764474654085
64	0xbfc805ab177c2e5c	-0.18767298361523188
65	0x3f763791e101a967	0.005424089278771005
66	0x3fb15a5e8b9253ff	0.067785176348778
67	0x3fc4c59d164cff2a	0.16228068913368904
68	0xbfccbd62cc2a414c	-0.2245295998477651
69	0x3f8206c6bfeb0295	0.008801987392304237
70	0x3fb55a39e5999df7	0.08340799193830849
71	0x3fc68475722bde05	0.17591732096455828
72	0xbfb5535141e2a4e6	-0.08330257280853778
73	0xbf856233a06f1193	-0.010441211064865985
74	0xbfc538b0185ecab5	-0.16579247655825716
75	0x3fbd12f1c2e8c553	0.11357031830336455
76	0xbfb3d295a9bb0e85	-0.0774320163137024
77	0xbfb0914b22e9bcaa	-0.06471700289124507
78	0xbfb4d29331848d2e	-0.0813381191151634
79	0x3faa515c4fd0768c	0.05140198206229937
80	0xbfca01bc633c2fba	-0.20317797513450647
81	0x3fc51ca73a584994	0.16493692730780352
82	0x3fba61cf538f9022	0.10305496015604423
83	0xbfc46c6f15f4fe19	-0.15955914089316606
84	0x3f9e0d72cfa4442f	0.029348176883164875
85	0xbfb1ce866b1a0316	-0.0695575725058116
86	0xbfcb6196b33d1092	-0.21391566993600414
87	0xbf817e845f82346e	-0.008542093434039635
88	0x3fb517643d3c1c4d	0.08238817687025453
89	0x3fc5906aa1722af6	0.1684697426138297
90	0x3fb9aa9024d9b32e	0.10025883578937275
91	0x3fc6ff17d63949f6	0.17965982399125807
92	0x3fcc4bcb5e8a6c1b	0.2210630618691035
93	0xbfb154e7b7435a60	-0.06770179962345813
94	0x3f9d902d45faf7b1	0.02887030353189574
95	0xbfc47f39faad8ef5	-0.16013264408240216
96	0x3fb644ae4956a6b9	0.08698548593988677
97	0xbf7ef54a0a93a6d1	-0.007558144782913793
98	0xbfbfd215b6172ac3	-0.12429938979691273
99	0x3f9f05649d8c4a2a	0.03029401027294846
100	0xbf84f9c70704c3ae	-0.01024203767937756
101	0x3fc853f15b36323e	0.1900617308969163
102	0x3f596af024423d7e	0.0015513749249612403
103	0xbfc32be697a6efb2	-0.14977724461448144
104	0x3fa27dea23725ff1	0.03611690218639286
105	0xbfc0317539320d2d	-0.1265093354487389
106	0xbf6d2f3f0f2cfe52	-0.003562567865998103
107	0x3fcd27eb9811829f	0.22778077054228604
108	0xbfc8b637c049d52c	-0.19306084527094336
109	0x3fb274efa53ed79b	0.07209680351556218
110	0x3fc573319e4afc79	0.16757793645044552
111	0x3fc8f7ca794e9acb	0.19506197856136107
112	0x3fb3d8875a614353	0.07752271610776278
113	0x3fcafda0cf47664a	0.21086511727371465
114	0x3fa48310a15cdb86	0.040062446305845476
115	0x3fc1cf747b383061	0.1391435243280084
116	0x3faa938b9f6a5c39	0.05190693207730885
117	0x3fc2aa4f2c300018	0.1458224263915333
118	0x3fc6f209c7ce6c06	0.1792614198319315
119	0x3fc0ab1ee4292948	0.13022218838370692
120	0x3f737d59ba70414d	0.0047582154284245394
121	0x3fcae806b409302a	0.21020587721648215
122	0xbfc52b99def9a08c	-0.16539309871155117
123	0x3fc7497185f0ca08	0.18192881622378843
124	0xbfc0e18b33370532	-0.13188304901817954
125	0x3fc808281a6212ca	0.18774892128216997
126	0x3fc7aa1b047d55cd	0.18487870902269635
127	0xbfc431d76107f8a2	-0.15777103650902286
128	0x3fac27f3278bc727	0.05499229295482016
129	0xbfa78c4be2fa715a	-0.045992251832305
130	0x3fc16aed05f4ab05	0.13607561865622855
131	0x3fa6a525d98f8863	0.044228728110980574
132	0xbf9bb0dc57d48e39	-0.027041857586608684
133	0xbf9959e902ed16b5	-0.024757042697521842
134	0xbfc9ef91248a11da	-0.2026235035338136
135	0x3fb32b86fd385f60	0.07488292390951079
136	0xbfa7036da7b1d598	-0.044948031158962454
137	0x3fc26f0732e85bd2	0.14401330934262419
138	0x3f9a56062c234c68	0.025718780940973934
139	0xbfccb46e3676f544	-0.22425630244644357
140	0xbfcadfad0bdb1c8c	-0.20995104864980296
141	0x3fba01351f60c51b	0.1015809251409973
142	0xbfcd122ed9ef5ced	-0.22711740151746743
143	0x3fbec1231241205e	0.12013453670181337
144	0xbfb2f9c260412df3	-0.07412352418867112
145	0x3fa4f9d471383bfb	0.040968550511131206
146	0x3f918d99b4200826	0.017141725176777943
147	0xbfa874bbf9c09a40	-0.04776561187491213
148	0x3fc59fe4473e6d63	0.16894200781539856
149	0xbfadb39291b02a3a	-0.05801065472049456
150	0xbf96f0db0397974a	-0.022403165907142232
151	0x3f8199d68734c5c8	0.008594203950084714
152	0x3fb875e31a9c3700	0.09554881477034982
153	0x3fc49c39b6f4d665	0.16101762231271546
154	0x3fbcc9987ae7a25d	0.11245110512357699
155	0xbfc030eff26480ef	-0.12649344764304923
156	0xbfc69f94945e5007	-0.17674500698615267
157	0xbfb9ba259b86671d	-0.10049662634847008
158	0x3f91cdeb12aaf462	0.017387078298942156
159	0x3f8eb2b7d7118e30	0.01498931527220923
160	0xbfb1467fd495a42f	-0.06748198452045594
161	0x3fbff7bea206e49b	0.12487403350577823
162	0xbfc770c0a12798e3	-0.18312843197708792
163	0x3fc05ff921272fae	0.127928868473075
164	0x3fcc05c09793fdd1	0.21892554665826805
165	0x3fb3ca9a0ce33837	0.07731020750654315
166	0xbf841bf4f1ae05c2	-0.009818948388558794
167	0x3f96d6ab7a092a45	0.022303275416826435
168	0xbfc13473fecaf163	-0.13441324177791633
169	0x3fc5d6cb0c6dc7a1	0.17061746699215255
170	0x3fc96aae6f30d83d	0.19856815747488268
171	0x3fc193305351df1b	0.13730434482908369
172	0x3faa6e4df52eecbf	0.051622806720354124
173	0xbfa7fe201220f0ab	-0.04686069699570913
174	0x3fccc1eab4791e10	0.22466787159122292
175	0xbfc32c82d58d239a	-0.14979587008772627
176	0xbf9aafa6065764e0	-0.026060670983359624
177	0x3fb25aa6363b956b	0.0716956980137035
178	0xbfc66260fd72becf	-0.17487728476907313
179	0xbfc5ea0ebf694d9c	-0.17120537134415492
180	0xbfac997c979588d4	-0.05585851049797133
181	0xbfafa23c07f18c5c	-0.061784625978156454
182	0x3fc2e76e120d83b1	0.14768768197521134
183	0x3fa769391395c7a6	0.045724662438160465
184	0xbfcb5b26fe9b1052	-0.21371924812240423
185	0x3fbb535674c68eea	0.10674038268058053
186	0xbfc24aaa5abc5b58	-0.14290360861260853
187	0xbfc1cf0aaa1c0595	-0.13913090997816072
188	0x3fc8fd297447c71d	0.19522588899376894
189	0x3fc8e55283e83e4c	0.194498361976445
190	0xbfc591b61d8e783b	-0.16850925868215136
191	0xbfa1a6f9ca6ce400	-0.03447704883587477
192	0xbfc962262a6fe3a3	-0.19830777237055228
193	0x3fa3b18ba6db0093	0.03846393977937725
194	0xbfb0be341714d77c	-0.06540227473746357
195	0xbfb707f969117868	-0.08996542754309333
196	0xbfc2150d1c3d9411	-0.14126743201191563
197	0x3fc10c11c961e0d8	0.1331808312713807
198	0xbfcb0b5246bc5c8f	-0.21128300146003595
199	0x3fae8e4c8b47db98	0.05967940521434584
200	0xbfc201daca088cc4	-0.14068159928237922
201	0x3fbd363ff80fd2c3	0.11410903745838667
202	0x3fac312dbdec56ee	0.055062703546509315
203	0x3f9787d9c56e8ca7	0.02297916667488367
204	0x3faa2fea2f414702	0.05114681078761231
205	0x3fbf0a64d7854649	0.12125234853490342
206	0xbfa9b01487192708	-0.05017151021145422
207	0x3fbe94d86bd17cfb	0.11945870048792877
208	0xbfb72fb6783b9938	-0.09057178912516839
209	0x3fa99c1e9a4e7d60	0.050019222580199196
210	0x3fc477527f433256	0.1598914262198316
211	0xbf8b08714973f207	-0.013199696592431044
212	0xbfbb6ca59d4d84fb	-0.10712657061005253
213	0x3fcc31a404bb6f9c	0.22026491385520053
214	0x3fc06c57f6301b1d	0.12830638428587174
215	0x3fa908fe1a6440ed	0.04889673301852491
216	0xbfcc88eaedc7683a	-0.22292839632319944
217	0x3fb9d97db185ca0e	0.10097489913986399
218	0xbfbd89c4e49b9140	-0.11538343983881294
219	0xbfac918171a51fae	-0.055797619936640216
220	0xbfbb2e7bdc90a2ab	-0.10617803702246913
221	0x3fb09ddda4f8c170	0.06490884091977533
222	0xbfcb77653f6a712b	-0.2145811614653977
223	0xbfbe01d725ae191b	-0.1172155825607643
224	0xbfc1e3496f14aedd	-0.13974874423853736
225	0xbfc849b987c44d7d	-0.1897499001430382
226	0x3fc51739505c660f	0.16477123664735457
227	0x3fbbe360c0ca88d0	0.1089382620507735
228	0x3fc7f38fecc68dde	0.1871204286700125
229	0xbfb2010bdd382f26	-0.07032846594682649
230	0xbfca46be545793e3	-0.20528391950861566
231	0xbfb23a3f6f571e29	-0.07120129078168048
232	0x3fa02adca46d7189	0.03157701022311971
233	0xbfc85d9bacd1f13d	-0.19035669268112967
234	0x3fc15de0064c5f7b	0.13567734057937372
235	0xbfcbf030ab85af1f	-0.21826752066714847
236	0xbfc14255c495dca1	-0.1348368844880712
237	0xbfbe2ad31c1c7cb5	-0.11784095226583953
238	0x3fb5495e7cfbadd8	0.08315077353807199
239	0x3fc23714f8f716bc	0.1423059669161172
240	0xbfc910109339a4ea	-0.19580275715569623
241	0xbfaafde3ee6fc31c	-0.05271827970125839
242	0x3fb407ef4e9bdbab	0.07824607533608112
243	0xbfb184a3e7438fa2	-0.0684301795586735
244	0x3fa4b4dcb60f10cb	0.040442368720989906
245	0x3fc937fac2006f66	0.19702085945834397
246	0x3f93190e209803b6	0.018650265445106583
247	0x3fc7265fa55a7e76	0.18085856984997734
248	0xbfa83d40441fbcdb	-0.04734230834571359
249	0x3fb12930663c1480	0.06703474517787988
250	0x3fb52bfcd899dab9	0.08270244873151968
251	0x3fae59e4230f9d90	0.059279565124423006
252	0x3fbdb9fccb36091a	0.11611919366081161
253	0xbfb2405641568105	-0.07129420371211743
254	0x3fc09a0dd4088850	0.12970135548772754
255	0xbfcc4f743f975043	-0.22117474656136168

layer0.bias f8 [256]
0	0x3fb94b0e8ce75111	0.09880152645138575
1	0x3fc4c40981488fcd	0.16223257839840102
2	0x3fa33b2280000000	0.037560537457466125
3	0x3f638714d35a78a3	0.0023837477445588103
4	0xbfb654eef856e8d1	-0.08723348200774984
5	0x3fa9594647363b84	0.049509235565998316
6	0xbfc55732a80bd6f8	-0.16672356801398514
7	0xbf69c09cc9fb9cb0	-0.0031436025891370054
8	0x3fc11e72cd87e181	0.13374171291048856
9	0xbfcb17898d637095	-0.21165580180866486
10	0x3f979c1859f0fc2e	0.023056393136581636
11	0xbfb5c635a508e059	-0.0850556877056773
12	0x3fb392f8876446d8	0.07646134667836735
13	0xbfb52df08e8afd91	-0.08273223381092111
14	0x3fc4ecd69d8c12a7	0.16347773258907702
15	0xbfa70eba220e0ec0	-0.04503423371991522
16	0xbf9dd6215a5ced04	-0.02913715471298152
17	0xbf8e3d8e1354d43a	-0.014765844311663046
18	0xbfb2c016f9e9aba1	-0.07324355698953734
19	0x3fa43d46538f4a95	0.039529988956606456
20	0x3fcc7b0b648f857d	0.22250502023875277
21	0x3fcc5d6ad4473b35	0.22160086980007923
22	0x3fca905437a5b7e3	0.2075295707431329
23	0x3fc1a47ea447a944	0.13783247968178547
24	0x3fc9e62e13b52cf4	0.2023370357731903
25	0x3fcc110317df30b2	0.2192691675721839
26	0xbfa5317981e48e63	-0.041393086534552
27	0x3fcc2a6a37862406	0.22004440032131373
28	0xbfb0bf03e8916eed	-0.06541466167385197
29	0xbf8f83e416c757a0	-0.0153882808162214
30	0xbfc1681e0b3c46cf	-0.13598990963560317
31	0xbfc614618ed9dcdd	-0.17249698138377925
32	0xbfb94d58eabe2e38	-0.09883647662189154
33	0xbfacc8af80000000	-0.05621860921382904
34	0xbf9c972286733519	-0.02792028375261166
35	0xbfb2656e66979a6c	-0.07186021809284576
36	0x3fb887496b8d9be6	0.09581431270417759
37	0x3fc45bab26a3cb38	0.15904750239095633
38	0xbfc5d9261bfb2e2c	-0.1706893574358771
39	0x3fb87121c265efdd	0.09547625537919609
40	0x3fb14370917ed7c1	0.06743529846320852
41	0xbfc1aee97f4488bd	-0.13815039362186168
42	0xbf9869f45b6bf30e	-0.023841684417663926
43	0x3fa039c7bea27cf8	0.03169082834323861
44	0x3fa6778379ba16b6	0.04388056622432883
45	0xbf45a5e3a44519ec	-0.0006606446773183539
46	0xbfb3f103c89d36c4	-0.07789634368711079
47	0x3fae2c85871f8840	0.05893342279866021
48	0x3fa7a9373b7ef579	0.046212888729750774
49	0xbfc38e28feea3849	-0.15277588316934246
50	0x3f9b5a59ffb9d3b1	0.026711851342458185
51	0xbfc2348486742005	-0.14222771229856349
52	0x3fb48f902f2c43d6	0.08031560088808418
53	0x3fb74cf7fee86f23	0.09101819966639062
54	0x3fca085ec8ac290c	0.20338043974363307
55	0x3fca39efaefce9ff	0.2048930744584396
56	0xbfbc3da40c500e3f	-0.11031556416133358
57	0x3f9397a5df3c1c8f	0.01913317847268253
58	0x3fc83d55272a0b61	0.18937172329250543
59	0x3fb2b4da423ff4ee	0.07307209126880185
60	0xbfc8f4f234134368	-0.19497516195999798
61	0x3fba1f90d6dc6ead	0.10204415555602493
62	0x3fa1fd0cf835b0cb	0.03513374833969037
63	0x3fcbaf0e37f9d1a3	0.21627977116771743
64	0x3fc31f8cb48e101b	0.14940031829985476
65	0xbf9a13052b4bdda3	-0.025463181274032142
66	0xbfb37902f28b81eb	-0.07606523915774914
67	0xbfc137f30cdeba04	-0.13451994064730866
68	0xbfc9486460000000	-0.19752173125743866
69	0x3fca9f2a3236f8b1	0.20798232509509298
70	0x3facd8b5f2c75a3a	0.05634087170226505
71	0xbfc2241998e4096f	-0.14172668424005105
72	0xbfaaeb6ee086c8e9	-0.05257746210863152
73	0xbfc7c45c7b119393	-0.1856799698754484
74	0x3fc054d98db670c8	0.12758941096843146
75	0x3fa724692a4ebe6f	0.045199667372227796
76	0xbfaf6dcb642a6b1f	-0.06138454053617281
77	0x3fa7c02d7751b337	0.04638807374508363
78	0x3fbbaa3b37ac2812	0.1080662737769276
79	0x3fbde4dfad4d295a	0.11677358609191427
80	0x3fc740d071e7ce50	0.18166547357360452
81	0xbfc98eaa3f72d05f	-0.1996662912184801
82	0xbfc541a8e43e4ec6	-0.1660662760228801
83	0xbf9aa5f4c7eb16e3	-0.026023697568937087
84	0x3fc2b3ae3149e36d	0.1461084118525621
85	0xbfa954ffbd304da7	-0.0494766157572955
86	0xbfb5d505565c2b19	-0.08528169020079836
87	0xbfbfa0ae80922ea4	-0.12354555739346523
88	0xbfcb610cb651afb9	-0.21389922048854063
89	0xbfba456300000000	-0.10262125730514526
90	0x3fcdaad8d6fd4632	0.23177633760001154
91	0x3fcc05e182e79267	0.21892947093796808
92	0xbfc0a08582553eda	-0.1298987280265383
93	0xbfc05bd664927faf	-0.1278026572299473
94	0xbfcc95929a7bf242	-0.2233145956341947
95	0xbfb59653f7ed8ce9	-0.0843250732701112
96	0xbf617b6a102238fa	-0.0021340438407327885
97	0x3f9b55b300000000	0.026694104075431824
98	0x3fc5f9a65f3ceb83	0.1716812100438255
99	0x3fc745bb986e7d22	0.18181557600926462
100	0xbfb518725c164d70	-0.08240427730770761
101	0x3fb22a97531d23e1	0.07096238879343232
102	0x3fbfaf1b76a4d12b	0.12376567503526263
103	0xbfc407f9dd0eb270	-0.15649340909785137
104	0xbf72dccafe41c159	-0.004605095808173886
105	0xbfcc769ce5b2a005	-0.22236977782927184
106	0xbf9d248adbf6ecb6	-0.028459710765429157
107	0x3fc46d77875d6c2f	0.15959066495529003
108	0x3fb37d71fbd8da32	0.07613289259538972
109	0x3fcbdc6700a05b90	0.21766364603601263
110	0x3fc494cb91180ca9	0.16079086861291117
111	0x3fc493915cac6faa	0.1607534124858579
112	0x3fb8cad66fd597c2	0.0968450568230699
113	0xbfba239e2dcbc308	-0.10210598581376129
114	0xbfae62e1c4c0aa5f	-0.05934815909161694
115	0xbfb707480edb8375	-0.08995485651713671
116	0xbfc61c33ce86beed	-0.17273566803259346
117	0xbfc11707f4cd0392	-0.13351535275617415
118	0xbf9fb261a2f1e4fe	-0.030953908510558563
119	0xbfaf14d54cf065d9	-0.06070581974217832
120	0xbfb2ee83d81972ff	-0.07395195031990552
121	0xbfa599f466a5d9c3	-0.04219020607972681
122	0xbfc565ae3ec23869	-0.1671655470312914
123	0x3f99097085342232	0.02445007145891704
124	0xbfc800f51371b9ac	-0.18752921533036948
125	0xbfa3cf65fcfb9795	-0.038691699153601856
126	0x3fc6d443142bd31d	0.17835272297784224
127	0x3fbe102d46c43cfc	0.11743433931063757
128	0x3fc9d6b79c7b037b	0.20186514988565904
129	0xbf9cc1e50069dd7d	-0.028083398962249973
130	0xbfcd7cb9a0eb89a0	-0.23036880834031326
131	0xbfc076e345afc6b0	-0.12862816717784176
132	0x3fab72e0c68b4099	0.053610824810335696
133	0xbfbf751f5d994d6c	-0.12288089785697814
134	0x3fb3fe8437b170c3	0.07810236320205192
135	0xbfa355e8e21ae375	-0.037764813996040404
136	0xbfc0cdcc6ad2eda3	-0.1312804719544661
137	0x3fb42218dc5c8154	0.07864528064647419
138	0xbf90abdcfd588bc2	-0.016280606234555746
139	0xbfbaa7dd3b5c5f0c	-0.10412390422095202
140	0xbfba7f89ccb25ced	-0.10350857970694323
141	0xbfbcea408345a0f3	-0.11294940190203188
142	0x3fbccdb796e3883c	0.11251399453934224
143	0x3fa5cf609203cfa3	0.042597787689288034
144	0x3fc0c3842309f149	0.1309666796768261
145	0x3f7477d8c947349c	0.004997107335339337
146	0x3fccfddda2f904c5	0.22649736840870652
147	0xbf9c2ab0a318a030	-0.02750659938297434
148	0xbfc61f0bc09d5c6c	-0.17282244591726525
149	0x3fc8bbe35fc38d7d	0.1932338922116336
150	0x3f9cfba290c519d3	0.028303661428504
151	0xbfa0f7f7cc80e173	-0.0331418454301823
152	0x3fabce048844388e	0.0543061653462341
153	0x3fc034ffcae27454	0.12661740690683365
154	0x3fae15ed24b6608a	0.058761034709449225
155	0xbf96a7d05d3fa44e	-0.022124534312670634
156	0x3fcbf1a77a2a5865	0.21831220116718267
157	0x3fc05b141c0d70b9	0.12777949685812987
158	0x3fcc0b9e3b70ef0a	0.21910455610656526
159	0xbfcbaa2d07a45aa9	-0.21613085625786724
160	0x3fc21c75850c7483	0.1414935016299844
161	0xbfcd99ec2808d1fe	-0.23125984148795448
162	0xbfcb3cf1bcade22b	-0.21279737198689594
163	0xbfb70cc24bf04f9f	-0.0900384364506963
164	0x3fa27f3c80000000	0.036126986145973206
165	0xbfc47b5c2426017a	-0.1600146461969521
166	0x3f9de07e0f5f05d9	0.02917668312853103
167	0xbfb7733f486c0ab6	-0.09160228269687817
168	0x3fa4c35190adbd72	0.04055266276452131
169	0xbfcbf3b99f9687cd	-0.2183753995168999
170	0x3fa01d05fe17d0f3	0.03147143103334029
171	0xbfca51ffda57e601	-0.20562742387100744
172	0xbfcbb0420a32d8c8	-0.21631646631221302
173	0x3fa695a1077a7242	0.04411032882965006
174	0x3fac3ac2508b560e	0.055135795909944205
175	0xbfc36a4432a7384f	-0.15168049310017515
176	0x3fc743e0a4638cee	0.1817589571647668
177	0x3fb0a8ba40000000	0.06507457792758942
178	0x3fbed2e2f6b96812	0.12040537379780883
179	0xbfb9fc37ec0413c6	-0.10150479805095278
180	0xbf9a4e13d4069b9c	-0.025688466850307998
181	0x3fc0db778a140f8b	0.13169759981257942
182	0xbf8402091bc730eb	-0.009769507560939824
183	0x3fb6e2aeeb0f6710	0.08939641226552575
184	0xbfc634d1d6e50965	-0.17348692887214692
185	0x3f9dc97f8c626707	0.0290889672693089
186	0x3f93ada970e368a7	0.019217154994159682
187	0x3f878444d03c73b4	0.011482751469481169
188	0x3fcb0b1406a0775d	0.21127558063102017
189	0xbf96dc4a255e0b9e	-0.022324713259432742
190	0x3fc9fcd2901ed22b	0.20302803074959405
191	0xbfb79370c6b3c69d	-0.09209351397637495
192	0xbfc39a3f89522399	-0.15314478116149813
193	0xbfb4538cae4bff07	-0.07939986472410619
194	0x3fcc0797b626c606	0.2189817084704801
195	0xbfc77ae9d2317d73	-0.18343851817460752
196	0xbfc194a3102a6987	-0.13734854020442475
197	0xbfbd8e8a258f9ccc	-0.11545623223320262
198	0x3fc6042c62ed6903	0.17200236158789303
199	0x3fc2a8948af10c67	0.14576966079957573
200	0xbfc9b8c5a585a162	-0.2009512956822262
201	0xbfa7d04034bd7f82	-0.046510702550903296
202	0x3faf5f28ed2ec94f	0.061272887185071505
203	0x3fb1f35f31ef51b9	0.07011980980980227
204	0xbfc2672d39df362a	-0.14377370191361766
205	0xbfc22c27a0000000	-0.14197249710559845
206	0x3f9e61e846106db0	0.029670361782434262
207	0x3fc2490179438eec	0.14285295888031813
208	0x3fc84d8c90537e56	0.18986661002326127
209	0x3fc3730a7964a790	0.15194827010537582
210	0xbfc4184194b8d127	-0.1569902397328715
211	0x3fc463776005983c	0.15928547085349176
212	0xbfc3471fb964be24	-0.1506080298654392
213	0x3fc75f2a1255a296	0.18259168524970865
214	0xbfc880c14228d6cc	-0.19142928820081406
215	0xbfbef7b0c8843fc5	-0.12096695800232656
216	0x3fc39c8065cfe619	0.15321354838651827
217	0xbf7360a0e8f5ade3	-0.004730824045832335
218	0xbfbd3b4235b03496	-0.11418546496152468
219	0xbfc4e3cc6674914a	-0.16320185663892978
220	0xbfcceb9f40000000	-0.22594061493873596
221	0xbfc5a27b92d11739	-0.16902107876574649
222	0xbf9589a86b9879ad	-0.021032935683359778
223	0xbfc45be1a48e5646	-0.15905399832688455
224	0xbfb2439c21180e33	-0.07134414489706202
225	0x3fcb1f1b52bb2df6	0.21188680209739602
226	0x3fb04f6ce9a4bba2	0.06371193603693695
227	0x3f6232c482d689cf	0.002221473513331441
228	0x3f6d57da541ce84f	0.003581930563908243
229	0x3fb7e7757b7807bd	0.09337553276421225
230	0xbfc5618e178ab3b1	-0.16703964375974814
231	0xbfc0846f7fc51513	-0.12904161204111428
232	0x3fc90787055554e1	0.195542218784488
233	0x3fbb7f843168ebbd	0.10741449552817435
234	0xbfc360b21305db68	-0.15138841561175842
235	0xbfb82f7840000000	-0.09447433054447174
236	0x3fa301c37f248c50	0.03712283064876287
237	0x3fbedbafe4c0fac8	0.12053965887842388
238	0x3fccdb0baaa46fc8	0.22543474037308742
239	0xbfcc63fe11048207	-0.22180152731836264
240	0xbfca7b05631eb582	-0.20687930431214957
241	0x3fbfe94bf617f973	0.12465357549806359
242	0xbfbff794eba8f00d	-0.12487154725471346
243	0xbf8d2fc9da0ebcb9	-0.014251305548752634
244	0xbfcd6c7a5a8cc910	-0.2298729841364282
245	0xbfc626ca01076acf	-0.1730587487243924
246	0x3f7bed619202bd0b	0.006818181165882518
247	0x3fa3d5eccbe13104	0.0387414931179553
248	0xbfc772db5fddf901	-0.18319265538224985
249	0x3fcc79bb27f40c3d	0.22246493769498157
250	0xbfb69fdc697dbafc	-0.08837678504435681
251	0x3fc8b42e65f4d424	0.19299869516695012
252	0xbfc9e00986b85d94	-0.20214957311757742
253	0x3fc2ec61831c5991	0.14783877279178317
254	0x3fc1d261672ec85a	0.13923280275554611
255	0x3fbd4caec4da8302	0.11445133501048235

layer1.weight f8 [256, 256]
0	0xbfaeaf216ecb6702	-0.059929890417789636
1	0xbfaf0ca02bfbe15e	-0.06064320122635779
2	0xbf5ed25800000000	-0.0018812045454978943
3	0x3f81632089f17650	0.00848985119790338
4	0x3fa157615669b09e	0.03386978320927024
5	0x3f9451fb7a9b4285	0.019843987806611913
6	0xbf99b30819d0e0b2	-0.025097014022521243
7	0x3f9bca4e80000000	0.027138926088809967
8	0x3f8fed94b3e36c61	0.015589868297345601
9	0x3fa11d8fa86a9870	0.03342865877975576
10	0xbfabe5911146e78d	-0.05448582969570657
11	0xbfaa3619d5124510	-0.051194007167518873
12	0x3f89a1f0d2bf64ca	0.012515908652789415
13	0x3fadd79040000000	0.058285243809223175
14	0xbfa7538edd2cc645	-0.04555937242402001
15	0xbfac4e1818e5932d	-0.05528331092754111
16	0x3fa7e66800000000	0.04667973518371582
17	0xbf9cb77dfcf20511	-0.028043716968118085
18	0x3fa682b23c6c6661	0.043965883136661395
19	0xbfab9242a0eaf9ec	-0.05385025228814641
20	0x3fab20148d81e05a	0.05297912814506907
21	0x3f75ae078d633b64	0.00529292059054751
22	0x3f92b301e8d84adf	0.018260984265064614
23	0xbfa3798df1eff323	-0.03803676203094699
24	0x3faefcb181d656a9	0.06052164754798401
25	0xbfa6b1a8654b2594	-0.04432417141431269
26	0xbf6c013c11fb0c89	-0.003418557476693677
27	0x3f9507df00000000	0.020537838339805603
28	0xbfaf9b54423aa756	-0.06173194225750815
29	0xbf9ce532704b31d8	-0.028218067268243135
30	0xbf9f6577bf6f72fd	-0.030660506305014035
31	0xbf91ba15813df03c	-0.017311416638662744
32	0x3f9fc02f6c1d23dd	0.03100656602262918
33	0xbfa690c500000000	-0.044073253870010376
34	0x3f59d96000000000	0.0015777051448822021
35	0xbfa021c200000000	-0.03150755167007446
36	0xbfac56591483413d	-0.05534628272437423
37	0xbf9ff4c017eaf56b	-0.031207086047961335
38	0xbfa4e1e0e03c90e1	-0.04078581559432038
39	0x3f42b30f61838503	0.0005706620313753744
40	0x3f8dab711b4eeac2	0.014487155576593639
41	0xbfacc9b0f8796a45	-0.0562262824357345
42	0xbf721a0b98521558	-0.00441936997697686
43	0x3faa2eda00000000	0.05113869905471802
44	0xbf7d5ace00000000	-0.007166676223278046
45	0xbfac8c88bcf35005	-0.05575969034694598
46	0x3f794961e3f14486	0.006173498520255843
47	0xbfa73c97a58c3d17	-0.04538415809485679
48	0x3f912f4a00000000	0.01678195595741272
49	0x3fabaa6884311fdd	0.05403448690100252
50	0x3f98270280000000	0.02358631044626236
51	0xbf9f4ab1a021a347	-0.030558371924061658
52	0xbfa60af41d962c94	-0.04305231915631072
53	0xbfad0460aa667e00	-0.05667402343828698
54	0x3f8dcc7f8232a0fc	0.014550205384083352
55	0x3f9d025680000000	0.028329230844974518
56	0xbfaa60dfb4c37570	-0.05152033883653473
57	0xbfa17eada375cf1d	-0.034169603541981376
58	0x3fadd4c1758ead0b	0.05826382217431999
59	0x3faa819280000000	0.05176980793476105
60	0x3f986b1b7c5fa1f5	0.023846082178268408
61	0x3f931d6adcd21077	0.01866690609723817
62	0xbfa1af135068d29d	-0.03453884464798771
63	0xbf879ce2c469ede3	-0.011529704684327185
64	0x3fa3264e40000000	0.03740162402391434
65	0xbfacf45079b6fac2	-0.05655147062087941
66	0xbfa48b10f2969184	-0.040123490917980426
67	0x3f8866b700000000	0.011914663016796112
68	0x3faf620580000000	0.06129471957683563
69	0xbfafba353a29c7ee	-0.0619675286769875
70	0x3f8d2be9ede0ae92	0.014243915149641215
71	0xbf71cbc4aea0df2e	-0.00434471920930672
72	0x3fa2770fe676b4cc	0.03606462181355993
73	0xbf79142e00000000	-0.006122760474681854
74	0x3fa2d4ce7059c88a	0.03677983399838165
75	0x3f8ebfa300000000	0.015013955533504486
76	0x3f91a5a95285e71e	0.017233510648544052
77	0x3f8c8bcb956631c6	0.013938513275911012
78	0x3fa351cb7f0ce87b	0.03773342061909176
79	0xbf97f5a0f98b7298	-0.02339793704128343
80	0xbf99bb3e05ea7a9d	-0.02512833510501854
81	0x3fa8d582b3fb6e3c	0.04850395628974666
82	0x3fab404744043c21	0.05322478013305721
83	0xbf5b663800000000	-0.0016723200678825378
84	0xbfa3bdbdcd833b33	-0.03855698713015556
85	0x3f8f4f5500000000	0.015288032591342926
86	0x3f57d6f075fb49ec	0.0014550541163101905
87	0xbf9369994b2d3b82	-0.01895751496641252
88	0xbf9543796fc2b2ac	-0.020765206762620878
89	0xbfaea63580000000	-0.05986182391643524
90	0x3faff71349501ac4	0.06243191022808994
91	0x3fa2c6ecfad9dc39	0.03667393266817282
92	0xbfad57a480000000	-0.057309284806251526
93	0xbf92f39200000000	-0.018507272005081177
94	0xbf9da67a80000000	-0.028955377638339996
95	0xbfa8b3bb40000000	-0.048246242105960846
96	0xbfacd8a8c0000000	-0.056340478360652924
97	0x3fa084f880000000	0.03226448595523834
98	0xbf9a4d2190c7bcbe	-0.02568485685509069
99	0xbf715b8faf7f530a	-0.004237710258128366
100	0x3faa3273248900ea	0.05116615124689068
101	0x3fa93798174fdb2e	0.049252274366088464
102	0xbf9d5c56ec6c0b58	-0.02867255990987458
103	0xbf9e769580000000	-0.02974923700094223
104	0x3fa062e880000000	0.03200460970401764
105	0xbf7ffc7000000000	-0.007809102535247803
106	0xbfa2c5ae44c25c2d	-0.036664434331378316
107	0x3fa1116770ad6f24	0.033335907463621944
108	0xbf735d41a0b644bd	-0.004727608068962383
109	0x3faa0f02b12e7c63	0.05089577114926482
110	0xbfaf404ba40569aa	-0.06103741051875329
111	0xbf973c44671fe84b	-0.022690838617542657
112	0xbf930313b5bd09a5	-0.018566425292428374
113	0x3faf3d14bc9205c1	0.06101288606533784
114	0xbf9d82eb66835cee	-0.028819730884461707
115	0xbf845bac7bdb1638	-0.00994047883012704
116	0xbfae215cb0a14330	-0.05884828239562123
117	0x3f8738e5aa8324dd	0.01133899141895472
118	0xbf9665379d72804d	-0.021870488152331103
119	0xbfae679370f98fe3	-0.05938397173011347
120	0x3fa96a6680000000	0.04963989555835724
121	0x3fae88964c52be65	0.059635826889800105
122	0x3fa2984840000000	0.03631807118654251
123	0xbf94eb202114bf10	-0.02042818262015006
124	0x3f8c374100000000	0.013777263462543488
125	0x3f9456c499f1e4f2	0.019862243553210264
126	0x3fa318bb7025d9e9	0.03729806655876528
127	0x3f784061ac5212fa	0.005920774017003744
128	0xbfadbfea910a1c81	-0.05810482998372724
129	0xbf877dd50a61e4e5	-0.011470474604936285
130	0xbf90d772d4b35b98	-0.016446871025290827
131	0xbf8dfa7126cc78ba	-0.014637836453001863
132	0xbfa4719a80000000	-0.03992922604084015
133	0xbf928ed3c058cd4a	-0.018122967352792764
134	0xbfa31ba12acb7651	-0.03732017180821557
135	0xbf8372ed00000000	-0.009496547281742096
136	0xbf97fc7580000000	-0.023423992097377777
137	0x3fa02d5761f781de	0.03159592696079348
138	0xbfab1d3300000000	-0.05295714735984802
139	0x3faff5dc00000000	0.06242263317108154
140	0x3fa4f54cbfaf3292	0.0409339889516548
141	0xbfad55e0572c87f1	-0.05729580940375446
142	0x3fac43b0360c9d4c	0.05520392093449775
143	0xbf6912fe331d12aa	-0.003060814365115701
144	0x3fafac4c00000000	0.061861395835876465
145	0xbf9356f55517670e	-0.018886407202308546
146	0x3f840d5be2e6ee27	0.0097911051387803
147	0x3f2dc45342dc208f	0.0002271033894702995
148	0xbf7aa89a07327407	-0.006508447334593554
149	0x3fa565b3524ef04f	0.041791538045317204
150	0xbfad4e3e7f0a1616	-0.057237580306758115
151	0x3f87b5d6487361c8	0.011577295385380007
152	0x3fa9f6ede67fe4df	0.050712046038776874
153	0x3f9ccfeac70013eb	0.028136890789045948
154	0xbf83bb42a4a97b7f	-0.009634514474951448
155	0x3f3c30ae3737c603	0.00043014767945157034
156	0x3f66ce3400000000	0.0027838721871376038
157	0xbf8dce9fc720bc44	-0.014554260506058132
158	0xbfaa35d142117190	-0.05119184428687895
159	0x3fa2d8f4c0000000	0.03681149333715439
160	0x3f6d5db0ab6930d4	0.003584713990937608
161	0xbfa3882d1f4b713a	-0.038148317403939605
162	0xbf755f46a6ba62f3	-0.005217815381592261
163	0xbf924ce0195eb3f6	-0.017871381329019408
164	0xbf91ad9480000000	-0.01726371794939041
165	0xbf665ddc4837cd27	-0.00273030303810064
166	0x3fa805b35230ff5f	0.04691849115670154
167	0x3fa948adac46a03e	0.04938261726357539
168	0xbfabf65d00000000	-0.054613977670669556
169	0xbf9a9ebc5c243d29	-0.02599615394961777
170	0x3f9b806eee69d43d	0.026857121755217362
171	0xbf9c77476b1eba10	-0.027798763192260323
172	0xbf9d6c74653bb16e	-0.028734034231932375
173	0xbf89395f41e841ed	-0.012316459845380623
174	0x3fa7ef23cc2a3844	0.04674636714217731
175	0xbf93aa509370f762	-0.019204386710263484
176	0x3fa6e7cfc0000000	0.044737331569194794
177	0x3f9db0de00000000	0.028995007276535034
178	0xbf97fc97ea1e917e	-0.023424504913820858
179	0x3fad7176540528e5	0.05750627303730641
180	0x3f840cb39b3639af	0.009789851354779026
181	0x3fad01c45dee7ff8	0.056654106584801356
182	0x3fa1e0e480000000	0.03491891920566559
183	0xbf9791f04c61309f	-0.02301764932808281
184	0xbfa71d2664765195	-0.04514427162499427
185	0xbfa0c57ccfe1a277	-0.03275671041121069
186	0x3facf26c65f1977e	0.05653704399519109
187	0xbfa2f85d00000000	-0.037051111459732056
188	0x3fa7a0a8efdca91f	0.046147612838767886
189	0x3f931a8dfaa3e414	0.018655985281814294
190	0x3facb3a0dcbdc1fb	0.05605795569033841
191	0x3f81303c0c2c1306	0.00839278137346745
192	0xbf9c073bc9e01816	-0.02737134380006275
193	0x3f9973fed9d1d1b9	0.0248565502592599
194	0x3f976453c279c07f	0.022843655342910992
195	0xbfaaf7c6a503fa6e	-0.05267163051938871
196	0xbf969e2467c204e1	-0.02208763964927563
197	0xbf9529d580000000	-0.02066739648580551
198	0x3f81f01836246823	0.008758725311555143
199	0x3fabaa1b80000000	0.05403219163417816
200	0x3f9d9a6080000000	0.028909213840961456
201	0x3f7dae5809847cf0	0.007246345420099262
202	0xbfa1673a912638b8	-0.03399069806902005
203	0xbf89ccef85d54b3f	-0.012597914954914578
204	0xbf87922c00000000	-0.01150926947593689
205	0xbf78659c00000000	-0.005956277251243591
206	0xbf9f4abd60c759c0	-0.03055854705038441
207	0xbfa049e5a72128a0	-0.031813789989045604
208	0xbfa12208a3549937	-0.03346278184681
209	0x3f806c4200000000	0.008018985390663147
210	0xbfaceee180000000	-0.056510016322135925
211	0xbfac60335a156e45	-0.05542145228056631
212	0xbfa4fa0d00000000	-0.04097023606300354
213	0xbf9d2df51734d4bf	-0.028495626012234206
214	0x3faf496dca1754d0	0.061107092780426364
215	0xbf8444533d554c06	-0.009895944890251595
216	0xbf6c3928f4bdc3e4	-0.0034452247545506565
217	0x3f8143e900000000	0.00843030959367752
218	0xbfa216c65693a1fb	-0.035330007618373536
219	0xbf9fd4434274cd00	-0.03108315556637553
220	0xbf72269a00000000	-0.004431344568729401
221	0xbfaf159300000000	-0.06071147322654724
222	0x3fa37795aff8e387	0.03802173398111735
223	0xbf73892bfaac6ea1	-0.00476948909161093
224	0xbfa2094061c7292e	-0.03522683328226815
225	0xbf87167800000000	-0.011273324489593506
226	0xbf924f8780000000	-0.01788150519132614
227	0xbfad4faeaf629309	-0.057248553189571956
228	0xbf839631d7ea75b3	-0.009563817407349661
229	0xbfadae9090ef3956	-0.05797244805545414
230	0x3f70160800000000	0.003927260637283325
231	0xbfa2a242316e7073	-0.036394184621912816
232	0xbf79390b580c32f3	-0.0061579173204904135
233	0x3fae969f782299b8	0.05974291173452023
234	0x3faffb5cf36acb14	0.06246462317849058
235	0x3f9d599b80000000	0.02866213768720627
236	0xbf7e18ee00000000	-0.007347993552684784
237	0x3f87c33735c7d44e	0.011602813080552245
238	0x3f9e8a0a306f2c33	0.029823455053513647
239	0xbfab83405a047d58	-0.05373574351164717
240	0x3fa23fa259600157	0.035641740236317325
241	0xbf7d517000000000	-0.007157742977142334
242	0xbfa2c04a80000000	-0.03662331402301788
243	0xbf92cabf80000000	-0.018351547420024872
244	0xbf91d7dbc3a03f55	-0.017424997153340744
245	0xbfa515015b381cb6	-0.041175882706789776
246	0xbfac2534fdced6f0	-0.05497136686555659
247	0x3f9f686485850a11	0.030671663903612926
248	0x3fa06f86495660c1	0.032100864841767336
249	0xbfa2817a0e3bb02d	-0.0361440794348201
250	0x3fa491c85a490cce	0.040174733182107056
251	0xbf8723a76fb058b3	-0.011298473449681578
252	0x3f502539be0fd7c1	0.0009854377642546238
253	0x3f98d1fd5b69d948	0.024238547043262032
254	0x3fa305d55b0d5c28	0.03715388046719453
255	0x3f86f3473b8fa8d5	0.01120620394245401

layer1.bias f8 [256]
0	0xbfaeb090f12104d8	-0.059940843043031655
1	0xbfa9474327e1b1d6	-0.04937181341015033
2	0x3fa2856ab86607fd	0.03617413998564698
3	0x3fa323500607ef30	0.03737878869648481
4	0x3f71d82409a97f9b	0.004356518528396604
5	0x3f8c9a4fe83d7800	0.013966202044397136
6	0x3fa32510ea914135	0.03739216674205396
7	0x3fa3d0f25eae2842	0.038703512246755625
8	0xbfad200cd9919696	-0.05688514858119935
9	0xbf8beb119dde6726	-0.013631951933166752
10	0xbfa390ff468dc0da	-0.03821561561824334
11	0xbf8c13e3cd773710	-0.01370981188565737
12	0xbf98dc1957f23330	-0.02427711104660374
13	0xbf9a406380000000	-0.025636248290538788
14	0xbfa4df095949895b	-0.04076413359577443
15	0xbfafcf55cc517338	-0.06212871665113656
16	0xbfa8e00f990990d7	-0.04858444922573007
17	0x3fafc5f9ab53cb86	0.06205730644605638
18	0xbfa17c1fd844e702	-0.034150118970911705
19	0xbfa8590ec3d85b8a	-0.04755445614517047
20	0x3fac9444000ad87e	0.055818676953479404
21	0xbfa6775a93ee1b08	-0.04387934737956384
22	0x3fab70a6ba951c19	0.053593836094073484
23	0x3fa693e565a1ee92	0.044097107559506146
24	0x3f6170fc7153d2e3	0.0021290712853619816
25	0x3f7573b2d8506c26	0.005237291920845022
26	0xbf7eb80327666bd4	-0.007499706573436311
27	0x3fa1abd8766c734c	0.03451420255280499
28	0x3fa09546211d5e96	0.0323888698027847
29	0x3fa8b6fd532b0488	0.048271099474285484
30	0xbfa45d1add394471	-0.03977283430561663
31	0x3f92ad06b1633909	0.01823816735923692
32	0xbfa63bde8c111c1f	-0.04342551669883953
33	0x3f7aad324c0e8bb2	0.006512829278025588
34	0xbf9380917d74c06a	-0.019045136720876966
35	0xbfa88fce3afafbb1	-0.04797214956260321
36	0xbf9353add9398e30	-0.018873897918082416
37	0xbf782105115a036b	-0.005890865131392124
38	0xbfaa6825d6aac90c	-0.051575834707721396
39	0xbfa5b2db48bb2c3d	-0.042380192402184914
40	0x3f915e6f5ade5d06	0.016961803361110327
41	0x3face288853f2b1a	0.056415811791870676
42	0xbfa454918c68afb0	-0.03970770682312208
43	0x3fa3590fad94e10e	0.03778885835567013
44	0xbfa305a2c8d364f4	-0.03715237332807844
45	0xbfa9731d7474be38	-0.049706383195708914
46	0x3f857620d5b57488	0.010479218026995932
47	0xbf933baee04e14b0	-0.01878236049698917
48	0x3fa02b231623327c	0.031579109623270235
49	0x3f7a189a9101e4da	0.00637112023843508
50	0x3fa549220feaec86	0.04157358593280329
51	0xbf96cf3500000000	-0.02227480709552765
52	0x3f744b41215cd523	0.004954580703089992
53	0xbf7224e4840122cd	-0.004429714812496055
54	0xbfb05e1c54cc516f	-0.06393601484552901
55	0xbfa2a673970f31dd	-0.036426174344885466
56	0xbf7a408187b2d8bb	-0.00640917394337331
57	0xbf8f8f68c3446609	-0.015410250147897224
58	0x3fa2e2d938129bec	0.03688696679574108
59	0x3fa096ab1b4c4647	0.03239950855471512
60	0xbfb0c5224f2070e1	-0.06550802642636057
61	0x3fa67f1378e004ff	0.04393826342130502
62	0x3f90e026f832ae98	0.016480072878649027
63	0xbfa4a1afd02ca878	-0.04029607216064418
64	0xbfa2e693602c3a45	-0.03691540287956178
65	0xbfac6fa440000000	-0.05553925782442093
66	0x3fad29496505a181	0.05695561750582368
67	0xbf9bed406ccb62a3	-0.027272230758941373
68	0xbfac5a8367610bc1	-0.05537806164695481
69	0x3f9985e27ddb5d91	0.024924792224593487
70	0x3fa53e27da96c045	0.04148983519860442
71	0x3f6739cc929d9824	0.0028351779518969323
72	0xbf74f3fe1bb0d5c3	-0.005115501985576146
73	0xbfa31911407304a7	-0.03730062400564665
74	0xbfa6a812c0000000	-0.04425104707479477
75	0x3fad76773189f516	0.05754444579813815
76	0xbf8175c356fe1970	-0.008525396435072635
77	0xbfb1d7f6a3a8d010	-0.06970159049598146
78	0x3f86abb3820bb881	0.011069681554968238
79	0x3fac8130bd9f4dc8	0.05567314448094468
80	0xbf8d3add00000000	-0.014272429049015045
81	0xbfaf784e7b88e1c1	-0.061464741306227484
82	0x3f90316168bd53c8	0.0158133716752962
83	0x3fa55e0fcfb41ed1	0.0417332593006542
84	0xbfa83c02460f2ad1	-0.04733283143248957
85	0xbf985b207040959b	-0.023785120822272892
86	0x3fa260b18ed9412d	0.03589396351583427
87	0xbfa9c43b1c66efe0	-0.05032524797158522
88	0xbfa2da3dd32a4ffc	-0.036821300532352524
89	0x3f6e3376723bc7b8	0.0036866486933541907
90	0x3fa65ff139eae2a8	0.04370073158265103
91	0xbfadb345a0380bd2	-0.05800836163327684
92	0xbfad39596540a863	-0.057078164682324205
93	0xbfa149f60a6a26d3	-0.033767403384514026
94	0xbf7116578cb1559c	-0.00417169760756533
95	0xbfaf10615708ea23	-0.060671846269958495
96	0xbf42aafed52f33e7	-0.0005697006512207476
97	0x3f61efff338c44bc	0.0021896347428841095
98	0xbf9e1f20549c3fd9	-0.029415612377363096
99	0x3faed94d0f59aae9	0.06025162517911104
100	0xbf99549be8834e3a	-0.02473682028433031
101	0x3fa29c35c88d9c26	0.036348038417422665
102	0x3f93cef2d03efc1d	0.01934413333924222
103	0x3f89ca98134af800	0.012593448723574596
104	0xbf907867af6aa748	-0.01608430870206881
105	0xbf90dbc63372a52a	-0.016463372125746258
106	0xbfa292c08055cc22	-0.03627587858763827
107	0xbf7254c5b83ed336	-0.004475376455890514
108	0xbf926c050fa03341	-0.017990187720033694
109	0x3fa94477a8b06a00	0.04935048994248703
110	0xbfa830835bcfec2f	-0.04724512573007932
111	0xbf54d74ae62f6482	-0.0012720328747859726
112	0xbfa6746240000000	-0.04385668784379959
113	0xbfa4ba6bb705b778	-0.04048477753791152
114	0xbfa197200a12f06c	-0.0343561184213009
115	0xbf9d83be9dcd54c2	-0.028822878247713353
116	0x3f6cb092e13ef8f2	0.0035021656749157854
117	0xbfa4fce53b768578	-0.040991939076103046
118	0x3f8b580c401b41de	0.013351531702398608
119	0xbfae4584b0d4d42e	-0.05912413271509141
120	0xbfa470e3e5e51bee	-0.03992378407797746
121	0x3f89e7c010caded4	0.012649059784379281
122	0xbfab06e0f8fce731	-0.05278685607340917
123	0xbfacdd1751b07960	-0.056374291154713374
124	0xbf9edbe1318015bc	-0.03013564934373901
125	0xbfae495654ec6ba7	-0.05915326868690523
126	0x3f97cd06cb129186	0.02324305166679743
127	0xbf7edf9f936d94c5	-0.007537482589076554
128	0xbf93ada8a61d7dba	-0.019217143191210907
129	0xbfa40eaeb4bac569	-0.039174518167224566
130	0xbf9be8627d36569d	-0.027253664867734718
131	0xbf9b046e1f902291	-0.026384087254003822
132	0xbf968ab6bb83e1d9	-0.022013526148812666
133	0xbf9ce25a5c27c5a9	-0.02820721805068663
134	0x3fabdb1f40000000	0.054406143724918365
135	0xbfa5143c89937e2e	-0.04117001704593935
136	0x3fa30d051b9a6d6c	0.03720870935395734
137	0xbf9d880500b1be9e	-0.028839185874345412
138	0x3f7e40e35a034c18	0.007386100857007548
139	0xbfa6001a7862a8c2	-0.042969538875085714
140	0x3fa4ce3b02cbaeee	0.04063591393591347
141	0x3fb0061d360230c3	0.06259329384392047
142	0x3fa5534f1b5d23e5	0.04165122231513133
143	0xbf84f70ab1764e62	-0.010236819782938503
144	0xbfa7e9b0d5455356	-0.046704793962510635
145	0x3fa83a21a1a95f1a	0.047318507179339345
146	0x3faffbf296c14fcf	0.062469082739567854
147	0xbfa059ec505cc35c	-0.031936058816774276
148	0x3fac99aaab3e8f4d	0.05585988369355608
149	0xbf9dd4e993b874a7	-0.029132508889337185
150	0x3f918a43f0d14760	0.01712900311787935
151	0xbf9602f92f5dbdde	-0.02149571754074297
152	0x3fb00b30cb62da3e	0.06267075505716321
153	0x3f828f37a6474234	0.00906222797576204
154	0xbf512ffc366ee27c	-0.0010490382207831985
155	0xbfa6d511c9c55748	-0.0445943411638568
156	0x3f9fea0bb2bb3692	0.03116625097646037
157	0xbface5c6209af0fe	-0.05644053600323849
158	0xbf595f7800000000	-0.0015486404299736023
159	0x3f9e3beaee57d5b2	0.029525442883785842
160	0x3f86a3467fae7ece	0.011053610583814513
161	0xbfb07b9a8a86105a	-0.06438604242254212
162	0xbfa6d23f8b868e43	-0.04457281664079151
163	0xbf9c99e5d696ba94	-0.027930823538265218
164	0xbf83d19d3259727b	-0.00967715082077202
165	0x3fafb651d23713b0	0.06193786326506456
166	0x3f83f9cfbdd12b03	0.009753821354157482
167	0xbfa83fca85e1e5a3	-0.04736168751055494
168	0xbf2e6cac4dae2939	-0.00023212054551564347
169	0xbf74ec0600000000	-0.005107901990413666
170	0xbfa362254002ac0c	-0.03785816580178655
171	0x3f97b95d53bbc1b7	0.02316804717605844
172	0xbfaeb203219f1009	-0.059951875547568596
173	0x3f93a5903b6a1aa0	0.01918626177441729
174	0x3fac66cb3f59628d	0.05547175548844505
175	0xbfacf4c141bc37d9	-0.05655483176643345
176	0xbf8dcfeeb115adef	-0.014556755809016912
177	0xbfa9758a9b7bc185	-0.04972489498129832
178	0xbf9acbada81268de	-0.02616759622888131
179	0xbf92f68719ae0bda	-0.018518553678869988
180	0x3f86a91a7975aca1	0.01106472666898234
181	0xbf9728cf164c2dac	-0.02261661122888163
182	0xbfa7157e24728243	-0.045085851620801275
183	0x3fa6cd06dc7b39e2	0.04453298036024812
184	0xbf988cfb3206707c	-0.02397530072049435
185	0x3fa84cde06f736aa	0.0474614509108567
186	0x3f80a3c408cf97da	0.00812485839737669
187	0xbf993acdd03e3805	-0.024638381800791382
188	0x3fa6c3b0f280750b	0.04446175537325744
189	0xbf86a319007c9c63	-0.011053271605829978
190	0xbfa5a48159feec3e	-0.04227070067960213
191	0x3fab173af33f21d8	0.05291160792654964
192	0xbfa228acc218a457	-0.03546657437647898
193	0xbf8ea28d8238b390	-0.014958482300323955
194	0xbf8b4173eb7f9954	-0.013308435081807936
195	0x3face7ee2fea0d37	0.0564569886674015
196	0xbfab99837ac02b2d	-0.05390559075757149
197	0xbfa853e7f69b2b0a	-0.04751515279129677
198	0xbfa0cf62d4009840	-0.03283222997588142
199	0xbf955690fce6e623	-0.020838036952886562
200	0x3f9ccbe7417ce910	0.02812157952505695
201	0xbfac6843fd4e449c	-0.055482983275518566
202	0xbfa972d8abd045dc	-0.04970433327992982
203	0xbfa27a4174d5afbb	-0.03608898688511838
204	0xbfa71562d2366061	-0.04508503738469539
205	0x3f9ebf63cb563d87	0.030026969228456515
206	0xbf799e2cee346d16	-0.006254363546101224
207	0x3f7218834365c257	0.004417908427385506
208	0xbfa93b2db9b9b6e9	-0.04927962200313891
209	0x3f8abfcc6a6b4a96	0.013061139104512603
210	0x3fa8a284b2a94814	0.0481149166195253
211	0x3fa9a86c9c610471	0.05011310013697646
212	0x3f8f79c0340a87cd	0.015368939960641282
213	0x3f9924a68bbab605	0.024553873327638715
214	0x3fa1321c567c58ed	0.03358543925985367
215	0xbf9ee4bd68b193bb	-0.030169448390001224
216	0x3f9377687b9a9fd6	0.019010193390073336
217	0x3faf35f5d2b7bc43	0.060958559009912004
218	0xbfaeb7708c8a3e06	-0.05999328342033654
219	0x3f99a26b155731c1	0.02503363912346557
220	0xbf8513f4a1be5851	-0.01029196852304551
221	0x3fa354ddcee7895f	0.037756854540719635
222	0xbf742e37caa5b40a	-0.00492688935842712
223	0x3fa37576645d0976	0.03800554251803849
224	0xbfa25b9d7c4b5342	-0.03585521833671247
225	0xbf9d453b8fe42c9c	-0.02858441415541489
226	0x3f9386167703ccf0	0.019066191686715805
227	0x3f9d8ee6a1192f04	0.028865436155952842
228	0x3fa04f397ef2eefb	0.03185443567914877
229	0x3fa2a3a31d192643	0.03640470247462393
230	0xbf9fdfbd5090a958	-0.031126935999205102
231	0x3f956837c02140b5	0.02090537176292236
232	0x3fa20af760e99873	0.03523991640104009
233	0x3fabc5ee938594c3	0.05424447584918248
234	0x3fabd3ae63583c38	0.05434937441543081
235	0x3fb20714a81ce80f	0.07042054275817143
236	0x3fa2d75196545a14	0.036799001312989216
237	0x3f9058b4dbc01c55	0.015963388359548542
238	0xbfa54c4fa4bd6f18	-0.041597832546101
239	0xbfaad682d1f606b0	-0.05241783917427989
240	0x3faa56c01e6aff90	0.05144310351670278
241	0x3fa474787d4ba45f	0.039951100630624785
242	0x3f8147160f7e24f3	0.008436367366601227
243	0xbfa647881fa778ca	-0.043514493812595825
244	0x3fa335ccee05e38c	0.037519840293447876
245	0xbf92de6980bb7328	-0.018426559908095858
246	0x3f75845204d1edf8	0.005253143678710874
247	0xbfb00aa2078ca08b	-0.06266224560079274
248	0xbfad48b687a8531a	-0.05719538122153818
249	0xbfadfee832412541	-0.05858541120012229
250	0x3fada364ebb37afa	0.057887223980051375
251	0x3f916b5c5de35fb0	0.017011111479262986
252	0xbfa4d0c76a4ef526	-0.04065535710058503
253	0xbfae0e7c3d0609f0	-0.05870426411549434
254	0xbf8eba97443a4ab7	-0.015004331369060748
255	0x3f9880cf61670f5e	0.023928871459943372
