python/snapshot0.pt (torch_old, 488764 bytes, 12 tensors)

layer0.weight f8 [64, 10]
-0.017240017652511597 -0.2676953673362732 0.0021229684352874756 -0.13974976539611816 -0.19824422895908356 -0.29905712604522705 -0.06758753955364227 0.05842110514640808
0.22659143805503845 -0.15743988752365112 0.05646318197250366 -0.027257204055786133 -0.1620754450559616 -0.10931111872196198 0.3068491518497467 0.2764589488506317
0.25976577401161194 -0.2281457483768463 0.1312161087989807 -0.18983611464500427 -0.057892411947250366 -0.19920367002487183 0.1899913251399994 -0.21816475689411163
-0.029481112957000732 -0.06852340698242188 0.10851418972015381 -0.2747798562049866 -0.2447216659784317 -0.14062274992465973 0.11765846610069275 0.23105564713478088
0.15515246987342834 0.22822007536888123 -0.02538260817527771 -0.2853038012981415 -0.1173868328332901 0.03316965699195862 -0.08594147861003876 -0.12551233172416687
-0.11550377309322357 -0.2940133213996887 -0.05202224850654602 -0.10748457908630371 0.24598124623298645 -0.12099871039390564 0.08417761325836182 -0.004596590995788574
-0.0027810335159301758 0.2835337817668915 -0.26548126339912415 -0.1862351894378662 0.2898308336734772 0.1395728886127472 -0.019981026649475098 -0.24685654044151306
-0.2021789848804474 -0.14108605682849884 -0.0707559585571289 -0.31478315591812134 0.09796199202537537 0.2743290364742279 0.04820570349693298 0.07228130102157593
-0.19090482592582703 0.3052538335323334 -0.184051051735878 0.26721033453941345 0.1159525215625763 -0.2612658143043518 0.1623559594154358 0.14720666408538818
0.15507426857948303 -0.30131497979164124 0.16911673545837402 0.19824013113975525 -0.1913326531648636 -0.009734034538269043 -0.26167601346969604 -0.15036419034004211
0.07450476288795471 0.26820001006126404 0.233932763338089 0.2543551027774811 0.20052185654640198 0.27125898003578186 -0.28366413712501526 0.08939629793167114
0.20106592774391174 -0.22071769833564758 -0.0343688428401947 -0.28993678092956543 0.1741725206375122 0.0043138861656188965 0.023138701915740967 0.0338573157787323
-0.25818362832069397 -0.29399949312210083 -0.24335846304893494 -0.004548221826553345 -0.07849687337875366 -0.003935486078262329 0.0015118122100830078 0.10365068912506104
-0.20130762457847595 -0.14897017180919647 -0.23314446210861206 -0.282503217458725 0.07225492596626282 -0.1427149474620819 0.03173956274986267 0.006173133850097656
0.10136076807975769 -0.17204324901103973 0.01979932188987732 -0.11610032618045807 -0.0009757578372955322 -0.08100186288356781 -0.26180386543273926 -0.094899982213974
-0.13385672867298126 0.18246415257453918 0.14184683561325073 -0.20493440330028534 0.2465757429599762 -0.13130183517932892 0.2810710370540619 0.2514820992946625
-0.12794463336467743 -0.1502690315246582 -0.07561047375202179 0.13468116521835327 -0.0443379282951355 0.049711912870407104 -0.22809436917304993 -0.17909030616283417
-0.22654618322849274 -0.24773548543453217 0.24441245198249817 -0.2736089825630188 0.06097608804702759 0.11006781458854675 -0.14523878693580627 0.14623430371284485
0.1520141363143921 -0.07839109003543854 -0.1657605916261673 0.10914301872253418 0.23455145955085754 -0.025271743535995483 -0.14350934326648712 -0.23095940053462982
-0.18665966391563416 0.28210577368736267 0.18205717206001282 -0.20537647604942322 0.10279518365859985 0.2552872598171234 0.2634073793888092 -0.19304293394088745
-0.10757368803024292 -0.06415155529975891 -0.01035386323928833 -0.28321126103401184 0.020225077867507935 -0.14581039547920227 0.1514880657196045 0.1590944230556488
0.3032664954662323 0.03043287992477417 -0.0760767012834549 0.27762654423713684 -0.24405673146247864 0.26608338952064514 0.20425459742546082 -0.0517103374004364
-0.10971727967262268 0.10445728898048401 -0.010124623775482178 0.03412461280822754 0.013373523950576782 -0.13943329453468323 -0.17863115668296814 -0.24908946454524994
0.2119811475276947 -0.2572267949581146 -0.16299058496952057 0.06463742256164551 -0.05466017127037048 -0.12021234631538391 0.09070616960525513 -0.19871917366981506
-0.1258314698934555 0.27654626965522766 -0.024424970149993896 0.21011319756507874 0.12602323293685913 -0.08429878950119019 -0.1058887392282486 0.2936961352825165
0.22477468848228455 0.10475632548332214 -0.26834219694137573 -0.24996858835220337 -0.09119173884391785 0.28547796607017517 -0.30426910519599915 0.3011693060398102
0.00020834803581237793 -0.2322254180908203 -0.3060534596443176 -0.2704063653945923 0.0445077121257782 0.06854474544525146 0.024631112813949585 -0.1858564019203186
-0.09201949834823608 -0.23483796417713165 0.25050023198127747 0.20373478531837463 -5.760788917541504e-05 0.29965725541114807 -0.20740731060504913 -0.12687624990940094
0.005200028419494629 0.14589539170265198 -0.017729908227920532 0.1562230885028839 -0.08922728896141052 -0.01978161931037903 -0.028124511241912842 -0.2045988142490387
-0.14016325771808624 -0.18113893270492554 0.30118027329444885 0.26585933566093445 -0.18639208376407623 0.098263680934906 0.013599157333374023 -0.12894760072231293
0.07083922624588013 0.11399504542350769 0.11693298816680908 0.12454047799110413 -0.28712961077690125 -0.07155925035476685 -0.1483633667230606 -0.18245822191238403
-0.1915065050125122 -0.15819571912288666 0.30354902148246765 0.06776663661003113 -0.056056588888168335 -0.13381941616535187 0.006532222032546997 -0.06830118596553802
00000000: 0000 0000 5ea7 91bf 0000 00c0 eb21 d1bf
00000010: 0000 0000 3064 613f 0000 0000 52e3 c1bf
00000020: 0000 0020 1160 c9bf 0000 0080 c023 d3bf
00000030: 0000 00c0 6a4d b1bf 0000 0000 5fe9 ad3f
00000040: 0000 00c0 f200 cd3f 0000 0080 fd26 c4bf
00000050: 0000 0000 bee8 ac3f 0000 0000 50e9 9bbf
00000060: 0000 0060 e3be c4bf 0000 0040 d0fb bbbf
00000070: 0000 00a0 6aa3 d33f 0000 00e0 80b1 d13f
00000080: 0000 00a0 00a0 d03f 0000 0040 e133 cdbf
00000090: 0000 0080 b0cb c03f 0000 00c0 8c4c c8bf
000000a0: 0000 0000 13a4 adbf 0000 0080 817f c9bf
000000b0: 0000 00c0 a251 c83f 0000 00a0 d2ec cbbf
000000c0: 0000 0000 4c30 9ebf 0000 0000 c08a b1bf
000000d0: 0000 0000 96c7 bb3f 0000 0040 fe95 d1bf
000000e0: 0000 0020 0a53 cfbf 0000 0020 edff c1bf
000000f0: 0000 0080 dd1e be3f 0000 0040 3b93 cd3f
00000100: 0000 0040 09dc c33f 0000 00c0 5036 cd3f
00000110: 0000 0000 e6fd 99bf 0000 00e0 6a42 d2bf
00000120: 0000 0040 100d bebf 0000 0000 9dfb a03f
00000130: 0000 00c0 4200 b6bf 0000 00c0 c910 c0bf
00000140: 0000 00c0 a791 bdbf 0000 0040 1dd1 d2bf
00000150: 0000 0000 a9a2 aabf 0000 0000 1c84 bbbf
00000160: 0000 0040 507c cf3f 0000 0080 c5f9 bebf
00000170: 0000 0000 aa8c b53f 0000 0000 e0d3 72bf
00000180: 0000 0000 40c8 66bf 0000 00e0 6a25 d23f
00000190: 0000 0020 a5fd d0bf 0000 0000 8ed6 c7bf
000001a0: 0000 00a0 968c d23f 0000 0040 86dd c13f
000001b0: 0000 0000 e875 94bf 0000 00c0 fe98 cfbf
000001c0: 0000 0040 00e1 c9bf 0000 00a0 1b0f c2bf
000001d0: 0000 0000 101d b2bf 0000 0040 6825 d4bf
000001e0: 0000 0080 0914 b93f 0000 0060 9b8e d13f
000001f0: 0000 0000 6bae a83f 0000 0000 0781 b23f
00000200: 0000 00c0 916f c8bf 0000 0060 4789 d33f
00000210: 0000 0020 fc8e c7bf 0000 0060 f919 d13f
00000220: 0000 0080 10af bd3f 0000 0040 94b8 d0bf
00000230: 0000 0080 14c8 c43f 0000 0000 abd7 c23f
00000240: 0000 0040 79d9 c33f 0000 00a0 be48 d3bf
00000250: 0000 0000 9ea5 c53f 0000 00c0 ee5f c93f
00000260: 0000 00a0 967d c8bf 0000 0000 70ef 83bf
00000270: 0000 00c0 4cbf d0bf 0000 0040 223f c3bf
00000280: 0000 0080 be12 b33f 0000 0060 302a d13f
00000290: 0000 0040 82f1 cd3f 0000 00a0 5a47 d03f
000002a0: 0000 0040 b3aa c93f 0000 00a0 4e5c d13f
000002b0: 0000 00a0 8d27 d2bf 0000 0000 ade2 b63f
000002c0: 0000 0040 87bc c93f 0000 0040 7a40 ccbf
000002d0: 0000 0000 cb98 a1bf 0000 0000 538e d2bf
000002e0: 0000 0000 494b c63f 0000 0000 70ab 713f
000002f0: 0000 0000 acb1 973f 0000 0000 bf55 a13f
00000300: 0000 00a0 1486 d0bf 0000 0040 e3d0 d2bf
00000310: 0000 00c0 5e26 cfbf 0000 0000 28a1 72bf
00000320: 0000 0000 5f18 b4bf 0000 0000 a81e 70bf
00000330: 0000 0000 00c5 583f 0000 0000 da88 ba3f
00000340: 0000 00c0 72c4 c9bf 0000 0060 7411 c3bf
00000350: 0000 0080 add7 cdbf 0000 0060 8814 d2bf
00000360: 0000 0080 4c7f b23f 0000 00c0 7b44 c2bf
00000370: 0000 0000 2b40 a03f 0000 0000 0049 793f
00000380: 0000 0080 c7f2 b93f 0000 0060 8305 c6bf
00000390: 0000 0000 4646 943f 0000 0040 c0b8 bdbf
000003a0: 0000 0000 40f9 4fbf 0000 00c0 89bc b4bf
000003b0: 0000 0000 65c1 d0bf 0000 0080 5d4b b8bf
000003c0: 0000 00a0 3722 c1bf 0000 0040 fc5a c73f
000003d0: 0000 0080 0928 c23f 0000 0060 4a3b cabf
000003e0: 0000 0040 cb8f cf3f 0000 00a0 7fce c0bf
000003f0: 0000 0060 11fd d13f 0000 0060 4818 d03f
00000400: 0000 0060 7d60 c0bf 0000 0000 043c c3bf
00000410: 0000 0040 355b b3bf 0000 0080 3b3d c13f
00000420: 0000 0000 76b3 a6bf 0000 0000 d773 a93f
00000430: 0000 0040 3232 cdbf 0000 0060 6eec c6bf
00000440: 0000 0020 77ff ccbf 0000 00e0 cbb5 cfbf
00000450: 0000 0040 e848 cf3f 0000 0040 cf82 d1bf
00000460: 0000 0000 4238 af3f 0000 0080 672d bc3f
00000470: 0000 0040 2f97 c2bf 0000 0040 ceb7 c23f
00000480: 0000 0000 3375 c33f 0000 0040 7011 b4bf
00000490: 0000 00a0 a437 c5bf 0000 0000 ccf0 bb3f
000004a0: 0000 0040 c805 ce3f 0000 0000 d6e0 99bf
000004b0: 0000 00a0 835e c2bf 0000 00e0 1390 cdbf
000004c0: 0000 00c0 76e4 c7bf 0000 0060 050e d23f
000004d0: 0000 0040 a64d c73f 0000 00c0 c649 cabf
000004e0: 0000 0000 c950 ba3f 0000 0060 a056 d03f
000004f0: 0000 00a0 aadb d03f 0000 0080 a1b5 c8bf
00000500: 0000 0000 f389 bbbf 0000 0080 3c6c b0bf
00000510: 0000 0000 6834 85bf 0000 0020 2220 d2bf
00000520: 0000 0000 e2b5 943f 0000 0040 eaa9 c2bf
00000530: 0000 0000 f663 c33f 0000 00c0 345d c43f
00000540: 0000 00e0 b768 d33f 0000 0000 cc29 9f3f
00000550: 0000 0040 c379 b3bf 0000 0020 a2c4 d13f
00000560: 0000 0040 403d cfbf 0000 00a0 8207 d13f
00000570: 0000 00c0 0325 ca3f 0000 0000 c779 aabf
00000580: 0000 0080 6e16 bcbf 0000 0080 b6bd ba3f
00000590: 0000 0000 38bc 84bf 0000 0000 c878 a13f
000005a0: 0000 0000 9463 8b3f 0000 0040 f3d8 c1bf
000005b0: 0000 00c0 62dd c6bf 0000 00e0 29e2 cfbf
000005c0: 0000 00c0 3222 cb3f 0000 0060 6776 d0bf
000005d0: 0000 0020 e0dc c4bf 0000 0000 148c b03f
000005e0: 0000 0000 6bfc abbf 0000 0080 3cc6 bebf
000005f0: 0000 0000 8538 b73f 0000 0040 a16f c9bf
00000600: 0000 00e0 3e1b c0bf 0000 0020 efb2 d13f
00000610: 0000 0000 dc02 99bf 0000 0040 fde4 ca3f
00000620: 0000 0080 8721 c03f 0000 0000 9b94 b5bf
00000630: 0000 0040 861b bbbf 0000 00e0 eacb d23f
00000640: 0000 00c0 6ac5 cc3f 0000 0080 4fd1 ba3f
00000650: 0000 00c0 842c d1bf 0000 0080 f8fe cfbf
00000660: 0000 0080 5758 b7bf 0000 0060 4545 d23f
00000670: 0000 0020 2579 d3bf 0000 00a0 5b46 d33f
00000680: 0000 0000 004f 2b3f 0000 0000 90b9 cdbf
00000690: 0000 0040 6196 d3bf 0000 0080 564e d1bf
000006a0: 0000 0000 b7c9 a63f 0000 0000 268c b13f
000006b0: 0000 0000 e638 993f 0000 0080 24ca c7bf
000006c0: 0000 0000 978e b7bf 0000 00a0 2b0f cebf
000006d0: 0000 0020 3208 d03f 0000 0040 fb13 ca3f
000006e0: 0000 0000 0034 0ebf 0000 00a0 952d d33f
000006f0: 0000 00a0 528c cabf 0000 0020 7b3d c0bf
00000700: 0000 0000 a04c 753f 0000 0040 b3ac c23f
00000710: 0000 0000 ca27 92bf 0000 0040 1eff c33f
00000720: 0000 0080 99d7 b6bf 0000 0000 a241 94bf
00000730: 0000 0000 accc 9cbf 0000 0040 4b30 cabf
00000740: 0000 00a0 def0 c1bf 0000 0080 8f2f c7bf
00000750: 0000 00a0 8946 d33f 0000 00e0 d603 d13f
00000760: 0000 0020 b2db c7bf 0000 0000 cf27 b93f
00000770: 0000 0000 e0d9 8b3f 0000 00e0 5a81 c0bf
00000780: 0000 0000 8522 b23f 0000 0080 c72e bd3f
00000790: 0000 0000 52ef bd3f 0000 0080 e2e1 bf3f
000007a0: 0000 00e0 5460 d2bf 0000 0000 b551 b2bf
000007b0: 0000 0020 92fd c2bf 0000 0080 ca5a c7bf
000007c0: 0000 0000 4983 c8bf 0000 00e0 c13f c4bf
000007d0: 0000 00e0 586d d33f 0000 0080 2759 b13f
000007e0: 0000 0000 73b3 acbf 0000 00a0 fe20 c1bf
000007f0: 0000 0000 88c1 7a3f 0000 00c0 2f7c b1bf

layer0.bias f8 [64]
-0.2095927596092224 0.08803191781044006 0.14851486682891846 0.011809706687927246 0.045812129974365234 0.0693146288394928 -0.09211795032024384 0.29731330275535583
0.22386083006858826 0.24437138438224792 -0.14599281549453735 -0.2666682004928589 -0.0724111795425415 0.07233306765556335 0.0419234037399292 -0.10660324990749359
-0.2776355743408203 0.2528904378414154 -0.24867093563079834 0.042072802782058716 -0.03755512833595276 0.26032784581184387 -0.22699013352394104 0.012935757637023926
0.09378361701965332 -0.27784332633018494 0.023338794708251953 -0.14861665666103363 0.014632493257522583 -0.25941523909568787 -0.1448313146829605 0.2524961531162262
-0.08454540371894836 0.15054181218147278 0.2280203402042389 -0.04340258240699768 -0.2201785147190094 -0.24030214548110962 0.22646495699882507 -0.15423721075057983
-0.10994383692741394 -0.1889098882675171 -0.05570986866950989 0.1492815613746643 0.09219610691070557 0.27224621176719666 0.040016502141952515 0.1834004819393158
0.2726692259311676 0.2913196384906769 -0.21675781905651093 -0.13399846851825714 0.0137576162815094 0.24659934639930725 0.222477525472641 -0.2359733283519745
0.2083549201488495 -0.1615045964717865 -5.885958671569824e-05 0.06556296348571777 0.01196548342704773 0.19762888550758362 -0.05609974265098572 0.29327133297920227
00000000: 0000 0080 efd3 cabf 0000 0080 4289 b63f
00000010: 0000 0000 8902 c33f 0000 0000 b02f 883f
00000020: 0000 0000 b074 a73f 0000 0080 9abe b13f
00000030: 0000 00c0 0a95 b7bf 0000 0060 2e07 d33f
00000040: 0000 00c0 78a7 cc3f 0000 00c0 8f47 cf3f
00000050: 0000 0080 e4af c2bf 0000 0080 1711 d1bf
00000060: 0000 0000 8a89 b2bf 0000 0080 6b84 b23f
00000070: 0000 0000 fc76 a53f 0000 00c0 594a bbbf
00000080: 0000 0000 c8c4 d1bf 0000 0060 5b2f d03f
00000090: 0000 0000 73d4 cfbf 0000 0000 918a a53f
000000a0: 0000 0000 6d3a a3bf 0000 0020 36a9 d03f
000000b0: 0000 0040 030e cdbf 0000 0000 107e 8a3f
000000c0: 0000 0000 3402 b83f 0000 0060 2fc8 d1bf
000000d0: 0000 0000 20e6 973f 0000 00e0 de05 c3bf
000000e0: 0000 0000 a4f7 8d3f 0000 0060 429a d0bf
000000f0: 0000 0020 d589 c2bf 0000 00a0 e528 d03f
00000100: 0000 0080 c4a4 b5bf 0000 0040 f444 c33f
00000110: 0000 0040 c52f cd3f 0000 0000 dd38 a6bf
00000120: 0000 0040 cf2e ccbf 0000 0080 38c2 cebf
00000130: 0000 00c0 cdfc cc3f 0000 0080 0bbe c3bf
00000140: 0000 0080 4725 bcbf 0000 0000 332e c8bf
00000150: 0000 0000 0186 acbf 0000 0080 a81b c33f
00000160: 0000 0000 2a9a b73f 0000 0060 7b6c d13f
00000170: 0000 0000 0b7d a43f 0000 00c0 aa79 c73f
00000180: 0000 00a0 6973 d13f 0000 0020 fba4 d23f
00000190: 0000 0060 b8be cbbf 0000 00a0 dc26 c1bf
000001a0: 0000 0000 f42c 8c3f 0000 0040 9190 cf3f
000001b0: 0000 00c0 247a cc3f 0000 00c0 5f34 cebf
000001c0: 0000 00c0 5fab ca3f 0000 00c0 2eac c4bf
000001d0: 0000 0000 00dc 0ebf 0000 0000 bcc8 b03f
000001e0: 0000 0000 5c81 883f 0000 0040 e74b c93f
000001f0: 0000 0000 1bb9 acbf 0000 0020 f5c4 d23f

layer1.weight f8 [128, 64]
-0.07202376425266266 -0.08301527798175812 -0.018397092819213867 -0.12051306664943695 -0.014420300722122192 -0.015046939253807068 0.05252401530742645 -0.10269929468631744
0.09812937676906586 0.07785448431968689 -0.029551804065704346 -0.017988353967666626 -0.12482193112373352 -0.0761580616235733 0.03230392932891846 -0.04980750381946564
-0.01841476559638977 0.09321478009223938 0.010723546147346497 -0.10910153388977051 -0.12123580276966095 -0.07217782735824585 -0.042089179158210754 0.03051583468914032
-0.03630070388317108 0.03576695919036865 0.005245685577392578 0.026814013719558716 -0.026681244373321533 -0.11297626793384552 -0.0783122181892395 -0.017727166414260864
0.11212623119354248 -0.05937716364860535 -0.10181955993175507 0.024482280015945435 0.11125370860099792 0.015464097261428833 0.06009359657764435 0.10233475267887115
-0.0029232800006866455 0.07282675802707672 -0.03500223159790039 -0.03918202221393585 0.027936547994613647 -0.0017214566469192505 8.957087993621826e-05 0.11851514875888824
0.11950357258319855 -0.03581485152244568 -0.014017343521118164 -0.074053093791008 0.06730395555496216 -0.09186698496341705 0.09777313470840454 -0.04699692130088806
-0.08442756533622742 -0.048260897397994995 0.11166663467884064 0.055310219526290894 -0.10676807165145874 0.06712569296360016 -0.00525018572807312 0.11455190181732178
-0.018488183617591858 0.10768581926822662 0.10434132814407349 -0.02712969481945038 0.07210502028465271 -0.031771183013916016 0.015665844082832336 0.06475816667079926
-0.028403356671333313 0.020238742232322693 0.0035963207483291626 0.057770535349845886 -0.0388127863407135 0.08705359697341919 -0.07830671966075897 0.030556395649909973
-0.0515470951795578 0.036929190158843994 -0.05082806944847107 0.05502036213874817 0.021919935941696167 -0.08184048533439636 -0.019189730286598206 0.0005143731832504272
0.020809978246688843 0.02142927050590515 -0.08997255563735962 -0.11938908696174622 0.0297076553106308 -0.0901794582605362 -0.12495282292366028 -0.07277524471282959
-0.03564457595348358 0.05587354302406311 -0.051428377628326416 0.06781655550003052 -0.01510213315486908 0.026150822639465332 0.010530292987823486 0.03224235773086548
0.05472154915332794 0.08453309535980225 -0.045051753520965576 -0.09835192561149597 -0.09697633981704712 -0.10255789756774902 -0.10247263312339783 0.10306945443153381
0.09012030065059662 0.028060555458068848 0.09469573199748993 -0.05836142599582672 -0.06162858009338379 0.030509278178215027 0.011774525046348572 0.09084567427635193
0.028941333293914795 -0.0016856342554092407 -0.09397128224372864 0.06378374993801117 0.024310290813446045 -0.03932124376296997 -0.06847362220287323 -0.04778550565242767
0.07457508146762848 -0.020703256130218506 -0.11407147347927094 0.11031660437583923 0.0010862797498703003 -0.03323964774608612 -0.038897573947906494 -0.1011698842048645
-0.09280481934547424 -0.0972638726234436 -0.08453822135925293 -0.12310928106307983 -0.02403177320957184 0.012034371495246887 0.060523197054862976 -0.04868429899215698
0.02296130359172821 0.03461846709251404 0.03705701231956482 0.10940700769424438 0.12019787728786469 -0.023845523595809937 0.05332323908805847 -0.004876241087913513
-0.11601611971855164 0.004818260669708252 -0.03156827390193939 -0.07479993999004364 0.08875879645347595 0.06911501288414001 -0.004758119583129883 -0.11370678246021271
-0.0887766182422638 0.01105305552482605 -0.10151511430740356 0.05996695160865784 -0.07899914681911469 0.00666472315788269 -0.031718283891677856 -0.029426544904708862
0.09002067148685455 0.09404508769512177 0.10787241160869598 -0.10404884815216064 0.09847527742385864 -0.10920242965221405 0.1103721559047699 0.12099617719650269
-0.05669999122619629 0.10607482492923737 -0.011104404926300049 -0.021875500679016113 -0.046983227133750916 -0.10510100424289703 0.08592945337295532 -0.03673325479030609
0.11023424565792084 -0.10073377192020416 -0.023922577500343323 0.10842536389827728 0.09620840847492218 0.045517370104789734 -0.12183751165866852 -0.006640374660491943
0.006903097033500671 -0.10781839489936829 -0.03592543303966522 0.08575274050235748 -0.05325554311275482 -0.028521671891212463 -0.039278045296669006 0.09713119268417358
0.08502300083637238 -0.06692734360694885 0.05826564133167267 -0.08341419696807861 -0.021554261445999146 0.05051945149898529 0.013967320322990417 -0.03922216594219208
0.0342266708612442 -0.06525801122188568 -0.03249116241931915 -0.0020730197429656982 0.1135176420211792 -0.08841551840305328 -0.0004884898662567139 -0.10481129586696625
-0.07150959968566895 0.045651257038116455 -0.08394995331764221 0.08450864255428314 0.07668952643871307 0.060721516609191895 0.06520068645477295 -0.029527664184570312
-0.04170630872249603 0.11306044459342957 -0.04531243443489075 0.06502911448478699 -0.1196487545967102 -0.0786033570766449 -0.10746440291404724 -0.09830617904663086
0.03662361204624176 -0.039238691329956055 0.014658138155937195 -0.0930061936378479 0.01001046597957611 -0.1059093028306961 -0.0862949788570404 0.025958925485610962
0.11201219260692596 -0.00847172737121582 0.04744461178779602 -0.09689980745315552 -0.12391887605190277 -0.10386370122432709 -0.04764971137046814 0.062060222029685974
0.1188504695892334 0.11029291152954102 -0.09004299342632294 0.0449141263961792 -0.0944785624742508 0.015405058860778809 0.04579818248748779 0.08477981388568878
00000000: 0000 0040 2670 b2bf 0000 0040 7d40 b5bf
00000010: 0000 0000 b0d6 92bf 0000 00c0 f1d9 bebf
00000020: 0000 0000 6488 8dbf 0000 0000 eed0 8ebf
00000030: 0000 0080 6de4 aa3f 0000 0040 804a babf
00000040: 0000 00c0 011f b93f 0000 0080 45ee b33f
00000050: 0000 0000 d442 9ebf 0000 0000 8a6b 92bf
00000060: 0000 0080 54f4 bfbf 0000 0040 187f b3bf
00000070: 0000 0000 248a a03f 0000 0080 5e80 a9bf
00000080: 0000 0000 52db 92bf 0000 0080 ecdc b73f
00000090: 0000 0000 3af6 853f 0000 0000 14ee bbbf
000000a0: 0000 0040 4f09 bfbf 0000 0000 3f7a b2bf
000000b0: 0000 0080 b68c a5bf 0000 0000 8b3f 9f3f
000000c0: 0000 0080 0196 a2bf 0000 0000 0c50 a23f
000000d0: 0000 0000 807c 753f 0000 0000 2275 9b3f
000000e0: 0000 0000 5452 9bbf 0000 0040 03ec bcbf
000000f0: 0000 0000 450c b4bf 0000 0000 1227 92bf
00000100: 0000 0000 4eb4 bc3f 0000 0000 af66 aebf
00000110: 0000 00c0 d810 babf 0000 0000 e211 993f
00000120: 0000 0080 1f7b bc3f 0000 0000 a4ab 8f3f
00000130: 0000 0080 96c4 ae3f 0000 0040 9c32 ba3f
00000140: 0000 0000 90f2 67bf 0000 0040 c6a4 b23f
00000150: 0000 0000 d0eb a1bf 0000 0080 aa0f a4bf
00000160: 0000 0000 669b 9c3f 0000 0000 5034 5cbf
00000170: 0000 0000 007b 173f 0000 0040 0257 be3f
00000180: 0000 0040 c997 be3f 0000 0000 5356 a2bf
00000190: 0000 0000 20b5 8cbf 0000 00c0 24f5 b2bf
000001a0: 0000 0000 d53a b13f 0000 0040 9884 b7bf
000001b0: 0000 0000 a907 b93f 0000 0000 fb0f a8bf
000001c0: 0000 0080 0b9d b5bf 0000 0000 a7b5 a8bf
000001d0: 0000 0040 2f96 bc3f 0000 0000 9f51 ac3f
000001e0: 0000 0000 2755 bbbf 0000 0040 262f b13f
000001f0: 0000 0000 3881 75bf 0000 0000 4653 bd3f
00000200: 0000 0000 91ee 92bf 0000 0040 4c91 bb3f
00000210: 0000 0000 1db6 ba3f 0000 0000 e3c7 9bbf
00000220: 0000 0080 7975 b23f 0000 0000 5044 a0bf
00000230: 0000 0000 b50a 903f 0000 00c0 fd93 b03f
00000240: 0000 0000 c515 9dbf 0000 0000 77b9 943f
00000250: 0000 0000 0876 6d3f 0000 0080 1994 ad3f
00000260: 0000 0000 45df a3bf 0000 0000 2549 b63f
00000270: 0000 00c0 e80b b4bf 0000 0000 2d4a 9f3f
00000280: 0000 0080 6164 aabf 0000 0000 62e8 a23f
00000290: 0000 0000 2306 aabf 0000 0000 a12b ac3f
000002a0: 0000 0000 2e72 963f 0000 0080 7ff3 b4bf
000002b0: 0000 0000 79a6 93bf 0000 0000 e0da 403f
000002c0: 0000 0000 364f 953f 0000 0000 8ef1 953f
000002d0: 0000 0000 7108 b7bf 0000 0080 4890 bebf
000002e0: 0000 0000 af6b 9e3f 0000 0040 0016 b7bf
000002f0: 0000 0080 e8fc bfbf 0000 0000 66a1 b2bf
00000300: 0000 0080 0140 a2bf 0000 0000 759b ac3f
00000310: 0000 0000 d254 aabf 0000 0000 6d5c b13f
00000320: 0000 0000 deed 8ebf 0000 0000 48c7 9a3f
00000330: 0000 0000 e890 853f 0000 0000 1282 a03f
00000340: 0000 0080 7604 ac3f 0000 0000 f6a3 b53f
00000350: 0000 0000 0611 a7bf 0000 0080 972d b9bf
00000360: 0000 0000 71d3 b8bf 0000 0000 3c41 babf
00000370: 0000 0080 a53b babf 0000 0080 c262 ba3f
00000380: 0000 00c0 1f12 b73f 0000 0000 e8bb 9c3f
00000390: 0000 00c0 fa3d b83f 0000 0080 8ce1 adbf
000003a0: 0000 0000 c88d afbf 0000 0000 d33d 9f3f
000003b0: 0000 0000 3e1d 883f 0000 0080 a941 b73f
000003c0: 0000 0000 cca2 9d3f 0000 0000 109e 5bbf
000003d0: 0000 0080 800e b8bf 0000 00c0 2154 b03f
000003e0: 0000 0000 cce4 983f 0000 0000 ea21 a4bf
000003f0: 0000 00c0 7c87 b1bf 0000 0080 5777 a8bf
00000400: 0000 0040 5a17 b33f 0000 0000 3c33 95bf
00000410: 0000 00c0 c933 bdbf 0000 0080 b53d bc3f
00000420: 0000 0000 30cc 513f 0000 0080 c904 a1bf
00000430: 0000 0000 62ea a3bf 0000 0000 45e6 b9bf
00000440: 0000 0080 0ec2 b7bf 0000 0000 49e6 b8bf
00000450: 0000 0000 4ca4 b5bf 0000 0000 1784 bfbf
00000460: 0000 0000 c99b 98bf 0000 0000 7aa5 883f
00000470: 0000 0080 e5fc ae3f 0000 0000 26ed a8bf
00000480: 0000 0000 2b83 973f 0000 0000 83b9 a13f
00000490: 0000 0000 23f9 a23f 0000 0000 1902 bc3f
000004a0: 0000 00c0 49c5 be3f 0000 0000 f66a 98bf
000004b0: 0000 0000 2f4d ab3f 0000 0000 1cf9 73bf
000004c0: 0000 0080 3bb3 bdbf 0000 0000 50bc 733f
000004d0: 0000 0080 b729 a0bf 0000 00c0 1626 b3bf
000004e0: 0000 0080 e5b8 b63f 0000 0080 85b1 b13f
000004f0: 0000 0000 407d 73bf 0000 0040 e31b bdbf
00000500: 0000 0080 10ba b6bf 0000 0000 fca2 863f
00000510: 0000 0000 e5fc b9bf 0000 0000 fdb3 ae3f
00000520: 0000 00c0 4939 b4bf 0000 0000 784c 7b3f
00000530: 0000 0000 613d a0bf 0000 0000 fe21 9ebf
00000540: 0000 0040 980b b73f 0000 00c0 5613 b83f
00000550: 0000 00c0 869d bb3f 0000 0000 f2a2 babf
00000560: 0000 0000 ad35 b93f 0000 00c0 b0f4 bbbf
00000570: 0000 0080 5941 bc3f 0000 0000 9bf9 be3f
00000580: 0000 0000 c807 adbf 0000 0040 b827 bb3f
00000590: 0000 0000 e8bd 86bf 0000 0000 8866 96bf
000005a0: 0000 0080 2f0e a8bf 0000 0040 e6e7 babf
000005b0: 0000 0000 79ff b53f 0000 0080 b3ce a2bf
000005c0: 0000 00c0 4f38 bc3f 0000 0040 b0c9 b9bf
000005d0: 0000 0000 297f 98bf 0000 00c0 c3c1 bb3f
000005e0: 0000 0040 1da1 b83f 0000 0080 0d4e a73f
000005f0: 0000 0040 be30 bfbf 0000 0000 f032 7bbf
00000600: 0000 0000 6c46 7c3f 0000 0080 fc99 bbbf
00000610: 0000 0080 d164 a2bf 0000 0040 e4f3 b53f
00000620: 0000 0080 4f44 abbf 0000 0000 c934 9dbf
00000630: 0000 0080 401c a4bf 0000 0000 97dd b83f
00000640: 0000 0040 11c4 b53f 0000 0080 2622 b1bf
00000650: 0000 0080 fed4 ad3f 0000 0000 a25a b5bf
00000660: 0000 0000 5212 96bf 0000 0080 afdd a93f
00000670: 0000 0000 e69a 8c3f 0000 0080 ed14 a4bf
00000680: 0000 0080 2886 a13f 0000 00c0 bfb4 b0bf
00000690: 0000 0080 aea2 a0bf 0000 0000 70fb 60bf
000006a0: 0000 0000 7e0f bd3f 0000 0040 66a2 b6bf
000006b0: 0000 0000 c001 40bf 0000 00c0 e9d4 babf
000006c0: 0000 0000 744e b2bf 0000 0000 9a5f a73f
000006d0: 0000 0080 be7d b5bf 0000 00c0 5ba2 b53f
000006e0: 0000 00c0 eca1 b33f 0000 0000 e416 af3f
000006f0: 0000 0000 feb0 b03f 0000 0000 803c 9ebf
00000700: 0000 0080 875a a5bf 0000 0080 87f1 bc3f
00000710: 0000 0000 3133 a7bf 0000 0080 bfa5 b03f
00000720: 0000 0000 4da1 bebf 0000 0080 591f b4bf
00000730: 0000 0080 c982 bbbf 0000 0000 982a b9bf
00000740: 0000 0080 54c0 a23f 0000 0000 1817 a4bf
00000750: 0000 0000 1605 8e3f 0000 0000 41cf b7bf
00000760: 0000 0000 5e80 843f 0000 0040 df1c bbbf
00000770: 0000 0080 6d17 b6bf 0000 0000 fa94 9a3f
00000780: 0000 00c0 d4ac bc3f 0000 0000 a059 81bf
00000790: 0000 0000 a94a a83f 0000 0000 6dce b8bf
000007a0: 0000 00c0 25b9 bfbf 0000 00c0 cf96 babf
000007b0: 0000 0000 8b65 a8bf 0000 0080 5bc6 af3f
000007c0: 0000 0000 fc6c be3f 0000 0000 283c bc3f
000007d0: 0000 00c0 0e0d b7bf 0000 0000 fcfe a63f
000007e0: 0000 0040 bf2f b8bf 0000 0000 b08c 8f3f
000007f0: 0000 0000 dc72 a73f 0000 0040 21b4 b53f

layer1.bias f8 [128]
-0.03574554622173309 0.039855942130088806 -0.07620550692081451 -0.10271784663200378 -0.0043600499629974365 -0.12229785323143005 0.1113925576210022 -0.11401370167732239
-0.06747163832187653 0.08406732976436615 0.12414821982383728 -0.03080792725086212 0.09027022123336792 -0.03894902765750885 -0.01790034770965576 -0.12326329946517944
0.027153268456459045 -0.08690139651298523 -0.11819253861904144 0.02122315764427185 -0.036337777972221375 -0.07061818242073059 -0.04459036886692047 -0.06517860293388367
-0.006146490573883057 0.07081472873687744 -0.008234873414039612 0.08949561417102814 0.11314433813095093 -0.05320717394351959 -0.08652377128601074 -0.0968128889799118
-0.09100912511348724 -0.07733209431171417 0.02033795416355133 0.10431914031505585 0.035241469740867615 0.1105448305606842 0.04438972473144531 0.10676756501197815
-0.050922125577926636 -0.031904593110084534 -0.05446462333202362 -0.05488672852516174 0.10502216219902039 -0.05404941737651825 0.07555830478668213 -0.11931903660297394
0.04844306409358978 -0.0012395977973937988 0.11480152606964111 -0.07770143449306488 0.1048804521560669 0.0018728077411651611 -0.034885913133621216 0.032374635338783264
-0.052666619420051575 -0.11066712439060211 0.004179760813713074 -0.11459037661552429 0.07532012462615967 -0.09153832495212555 0.0837714821100235 -0.07125283777713776
-0.027038291096687317 0.01877504587173462 -0.03892795741558075 -0.02965696156024933 0.04252369701862335 0.06839527189731598 -0.10086098313331604 0.11669105291366577
0.11733444035053253 -0.059550508856773376 0.08619861304759979 -0.06380872428417206 -0.11423060297966003 0.016444459557533264 0.07401691377162933 0.01726248860359192
-0.061456650495529175 -0.11292897164821625 -0.12370850145816803 0.09943938255310059 -0.06340238451957703 -0.05170212686061859 -0.11124253273010254 0.021509915590286255
-0.09796254336833954 -0.003874480724334717 -0.05217304825782776 0.06950971484184265 0.11171762645244598 -0.07852226495742798 -0.026466339826583862 0.0031770318746566772
-0.03832659125328064 0.10576887428760529 0.0545831024646759 -0.039999812841415405 0.07878382503986359 -0.11756289005279541 -0.11807121336460114 -0.04081717133522034
0.008906185626983643 -0.028440505266189575 0.05863514542579651 0.11101999878883362 0.1010207086801529 0.08365170657634735 0.06761276721954346 -0.05226299166679382
0.08784918487071991 -0.00176277756690979 0.033216044306755066 -0.06483881175518036 0.054143503308296204 -0.11357085406780243 0.025502905249595642 -0.11397084593772888
-0.09117330610752106 -0.06923890113830566 -0.10552196204662323 -0.021806001663208008 0.005909740924835205 0.05246177315711975 0.02409258484840393 -0.05351145565509796
00000000: 0000 0080 3d4d a2bf 0000 0080 ff67 a43f
00000010: 0000 0040 3482 b3bf 0000 0080 b74b babf
00000020: 0000 0000 d8db 71bf 0000 0080 e94e bfbf
00000030: 0000 0000 3984 bc3f 0000 0080 0030 bdbf
00000040: 0000 0040 d245 b1bf 0000 00c0 6f85 b53f
00000050: 0000 0080 2dc8 bf3f 0000 0000 1d8c 9fbf
00000060: 0000 0000 f31b b73f 0000 0080 20f1 a3bf
00000070: 0000 0000 7854 92bf 0000 0000 2f8e bfbf
00000080: 0000 0000 11ce 9b3f 0000 0080 2b3f b6bf
00000090: 0000 00c0 dd41 bebf 0000 0000 86bb 953f
000000a0: 0000 0080 dd9a a2bf 0000 0080 0814 b2bf
000000b0: 0000 0080 8cd4 a6bf 0000 0080 8baf b0bf
000000c0: 0000 0000 102d 79bf 0000 0000 ea20 b23f
000000d0: 0000 0000 72dd 80bf 0000 0040 2fe9 b63f
000000e0: 0000 0000 07f7 bc3f 0000 0080 f83d abbf
000000f0: 0000 0000 6c26 b6bf 0000 00c0 bac8 b8bf
00000100: 0000 00c0 5f4c b7bf 0000 0040 09cc b3bf
00000110: 0000 0000 79d3 943f 0000 00c0 a8b4 ba3f
00000120: 0000 0080 2b0b a23f 0000 0080 aa4c bc3f
00000130: 0000 0000 40ba a63f 0000 0080 1e55 bb3f
00000140: 0000 0000 7712 aabf 0000 0080 cc55 a0bf
00000150: 0000 0080 c9e2 abbf 0000 0000 1d1a acbf
00000160: 0000 0080 bbe2 ba3f 0000 0080 5dac abbf
00000170: 0000 0000 ca57 b33f 0000 0040 b18b bebf
00000180: 0000 0080 87cd a83f 0000 0000 404f 54bf
00000190: 0000 0000 a263 bd3f 0000 00c0 3de4 b3bf
000001a0: 0000 0000 72d9 ba3f 0000 0000 20af 5e3f
000001b0: 0000 0000 91dc a1bf 0000 0080 6893 a03f
000001c0: 0000 0080 1ef7 aabf 0000 0040 ae54 bcbf
000001d0: 0000 0000 cc1e 713f 0000 0080 cb55 bdbf
000001e0: 0000 0000 2e48 b33f 0000 0040 0e6f b7bf
000001f0: 0000 0040 0c72 b53f 0000 0040 a03d b2bf
00000200: 0000 0000 edaf 9bbf 0000 0000 c439 933f
00000210: 0000 0080 5dee a3bf 0000 0000 655e 9ebf
00000220: 0000 0080 aac5 a53f 0000 0040 5a82 b13f
00000230: 0000 0080 06d2 b9bf 0000 0000 77df bd3f
00000240: 0000 0040 a109 be3f 0000 0080 677d aebf
00000250: 0000 00c0 1c11 b63f 0000 00c0 c455 b0bf
00000260: 0000 0080 373e bdbf 0000 0000 d1d6 903f
00000270: 0000 00c0 c5f2 b23f 0000 0000 42ad 913f
00000280: 0000 0000 3f77 afbf 0000 00c0 e9e8 bcbf
00000290: 0000 0040 5cab bfbf 0000 0000 dc74 b93f
000002a0: 0000 0080 233b b0bf 0000 0080 b378 aabf
000002b0: 0000 0000 647a bcbf 0000 0000 b206 963f
000002c0: 0000 00c0 1214 b9bf 0000 0000 60bd 6fbf
000002d0: 0000 0000 6db6 aabf 0000 0080 63cb b13f
000002e0: 0000 00c0 8699 bc3f 0000 0000 091a b4bf
000002f0: 0000 0000 fe19 9bbf 0000 0000 b806 6a3f
00000300: 0000 0000 8b9f a3bf 0000 0040 ab13 bb3f
00000310: 0000 0000 51f2 ab3f 0000 0000 db7a a4bf
00000320: 0000 0040 2d2b b43f 0000 0000 9a18 bebf
00000330: 0000 0040 ea39 bebf 0000 0000 fde5 a4bf
00000340: 0000 0000 683d 823f 0000 0000 821f 9dbf
00000350: 0000 0000 6d05 ae3f 0000 0080 ce6b bc3f
00000360: 0000 0040 7edc b93f 0000 00c0 326a b53f
00000370: 0000 0000 124f b13f 0000 0000 37c2 aabf
00000380: 0000 00c0 487d b63f 0000 0000 a0e1 5cbf
00000390: 0000 0080 b101 a13f 0000 00c0 4699 b0bf
000003a0: 0000 0080 b2b8 ab3f 0000 00c0 fa12 bdbf
000003b0: 0000 0000 6f1d 9a3f 0000 0080 312d bdbf
000003c0: 0000 0040 2257 b7bf 0000 0000 a4b9 b1bf
000003d0: 0000 00c0 7c03 bbbf 0000 0000 5054 96bf
000003e0: 0000 0000 d034 783f 0000 0000 45dc aa3f
000003f0: 0000 0000 baab 983f 0000 0080 da65 abbf

layer2.weight f8 [256, 128]
0.03465148061513901 -0.047925498336553574 -0.08041054010391235 -0.06874651461839676 -0.012938626110553741 0.017454765737056732 0.02668091654777527 -0.07596473395824432
0.02063499391078949 0.07112640887498856 -0.015992477536201477 0.07807063311338425 -0.02243872731924057 0.029254794120788574 0.07939178496599197 0.06449713557958603
0.03613908588886261 -0.0754459872841835 -0.08120608329772949 0.002084016799926758 0.03462176024913788 -0.011016257107257843 -0.0612608939409256 0.0785476490855217
0.0829998180270195 0.05096828192472458 -0.08158476650714874 0.07699499279260635 -0.06346648931503296 -0.07881090044975281 0.049640901386737823 -0.04018474370241165
-0.02765067294239998 -0.01808193325996399 0.058211974799633026 0.06269554048776627 0.06577599793672562 0.05422154814004898 -0.023263543844223022 -0.023232564330101013
0.08815484493970871 0.0826001688838005 0.07360722869634628 -0.08091587573289871 0.03317679464817047 0.02729259431362152 0.07519576698541641 -0.01885763555765152
-0.014559373259544373 0.05677815526723862 0.01767607033252716 -0.0430697463452816 0.05631973594427109 0.0028900504112243652 -0.08192860335111618 -0.04818902164697647
0.0014140978455543518 0.025953389704227448 0.03694953769445419 0.017573446035385132 0.003210790455341339 -0.05174960568547249 0.03130723536014557 -0.08207641541957855
0.03374361991882324 0.034583866596221924 0.04588868468999863 -0.08165787160396576 -0.06851767748594284 0.0726635679602623 0.002891726791858673 -0.03509988263249397
-0.013222754001617432 -0.01390673965215683 -0.005383625626564026 -0.03405749797821045 0.07637900859117508 0.07346352189779282 0.04960191994905472 -0.003921292722225189
-0.018265947699546814 0.07028426975011826 0.0672125443816185 -0.018361791968345642 0.061923034489154816 0.0687883272767067 -0.08206154406070709 -0.056911762803792953
-0.011325709521770477 0.01491498202085495 -0.04258090630173683 0.05255485326051712 -0.04901095852255821 0.08650890737771988 -0.03274582326412201 0.009469851851463318
0.07345316559076309 0.04501969367265701 0.06443002074956894 0.08727654069662094 0.0040091052651405334 -0.08651251345872879 0.07820764929056168 -0.03503672778606415
0.008294448256492615 -0.033680569380521774 0.07240038365125656 -0.02752857282757759 0.0039634257555007935 0.06863107532262802 -0.027449503540992737 -0.026599980890750885
0.045881159603595734 0.07368425279855728 0.06630537658929825 -0.007862024009227753 0.049285389482975006 0.05131479352712631 0.06695591658353806 -0.04356836527585983
0.06833646446466446 0.01800490915775299 -0.07804644107818604 0.009225882589817047 -0.03279528394341469 -0.0786018818616867 -0.033805787563323975 -0.08455976843833923
-0.07050163298845291 0.05051403492689133 0.007990933954715729 -0.055544834583997726 -0.017119430005550385 0.05938773602247238 0.050163425505161285 -0.03352263197302818
0.06935989111661911 0.023016825318336487 0.02710568904876709 0.0038537606596946716 -0.03181055560708046 0.08255275338888168 -0.023291297256946564 0.013941660523414612
0.07711689919233322 0.021333985030651093 0.046856142580509186 0.06371874362230301 0.07837743312120438 0.07854706794023514 -0.002155683934688568 0.035975486040115356
-0.007209658622741699 -0.08340639621019363 0.06632772833108902 0.08304315060377121 0.05210482329130173 0.055902548134326935 0.08675258606672287 -0.0849623754620552
-0.04541938379406929 -0.007199838757514954 0.04862374812364578 0.07230766862630844 -0.07859310507774353 -0.031219370663166046 -0.051368482410907745 0.06863833218812943
-0.07368957251310349 0.013960376381874084 -0.0015408769249916077 -0.057176537811756134 -0.027318429201841354 -0.03845229744911194 0.023376166820526123 0.04946749657392502
0.06836412101984024 -0.08795392513275146 -0.08463728427886963 -0.0639079362154007 -0.02623036503791809 -0.04439934343099594 0.0012865141034126282 0.002919532358646393
0.06251706928014755 0.016838453710079193 0.07324210554361343 -0.03039153292775154 -0.004631124436855316 0.08247087150812149 0.01734621822834015 0.06462345272302628
-0.0774872824549675 0.05166565626859665 0.026688195765018463 0.05532305687665939 0.02432572841644287 0.019172780215740204 0.032526083290576935 0.020429417490959167
-0.024356886744499207 -0.027408156543970108 -0.022422417998313904 -0.0027846544981002808 -0.07798616588115692 0.05731616169214249 0.07927697151899338 -0.07810027152299881
0.03543364256620407 -0.07007123529911041 -0.05107574164867401 -0.04373597353696823 -0.0025632530450820923 0.08065282553434372 -0.05449084937572479 -0.020629361271858215
-0.04136649891734123 -0.07803666591644287 0.006333932280540466 -0.02478674054145813 0.02857133001089096 -0.07637038081884384 -0.06429760158061981 -0.03866751119494438
-0.044530704617500305 -0.021475955843925476 -0.018004827201366425 -0.027633685618638992 0.08137353509664536 0.07005875557661057 0.07246198505163193 -0.05799756944179535
0.013783536851406097 0.027162156999111176 -0.05155691131949425 -0.083639957010746 -0.058391023427248 0.00026530027389526367 0.03548797219991684 -0.05692020431160927
-0.053946226835250854 0.0026366934180259705 0.011592298746109009 0.05209978669881821 0.061295799911022186 -0.002241171896457672 0.08774658292531967 0.07311036437749863
0.06311143189668655 -0.014481373131275177 -0.0841064304113388 -0.010014615952968597 0.03718344122171402 -0.07279950380325317 -0.030386969447135925 1.0818243026733398e-05
00000000: 0000 00c0 d6bd a13f 0000 00e0 b089 a8bf
00000010: 0000 0000 c995 b4bf 0000 0020 5f99 b1bf
00000020: 0000 0000 917f 8abf 0000 0080 a9df 913f
00000030: 0000 0000 3e52 9b3f 0000 00c0 6c72 b3bf
00000040: 0000 0000 5721 953f 0000 0020 5735 b23f
00000050: 0000 0000 5560 90bf 0000 00e0 6ffc b33f
00000060: 0000 0080 2dfa 96bf 0000 0000 f8f4 9d3f
00000070: 0000 0020 0553 b43f 0000 0060 e282 b03f
00000080: 0000 0080 d280 a23f 0000 00a0 6d50 b3bf
00000090: 0000 0000 ecc9 b4bf 0000 0000 8012 613f
000000a0: 0000 0080 f1b9 a13f 0000 0000 b18f 86bf
000000b0: 0000 0080 965d afbf 0000 00e0 b21b b43f
000000c0: 0000 00e0 793f b53f 0000 00c0 8318 aa3f
000000d0: 0000 0040 bde2 b4bf 0000 00a0 f1b5 b33f
000000e0: 0000 0000 573f b0bf 0000 0080 f32c b4bf
000000f0: 0000 0040 886a a93f 0000 0040 1893 a4bf
00000100: 0000 0040 7550 9cbf 0000 0000 1284 92bf
00000110: 0000 00c0 f5cd ad3f 0000 00a0 d00c b03f
00000120: 0000 0020 b2d6 b03f 0000 0040 edc2 ab3f
00000130: 0000 0000 66d2 97bf 0000 0000 47ca 97bf
00000140: 0000 00e0 5091 b63f 0000 00e0 4825 b53f
00000150: 0000 0060 ecd7 b23f 0000 0020 e7b6 b4bf
00000160: 0000 0080 8cfc a03f 0000 0000 97f2 9b3f
00000170: 0000 00a0 0740 b33f 0000 0080 6a4f 93bf
00000180: 0000 0000 4ed1 8dbf 0000 00c0 0612 ad3f
00000190: 0000 0000 ad19 923f 0000 00e0 3c0d a6bf
000001a0: 0000 00c0 f0d5 ac3f 0000 0000 e0ac 673f
000001b0: 0000 00e0 45f9 b4bf 0000 0040 3bac a8bf
000001c0: 0000 0000 282b 573f 0000 0080 8693 9a3f
000001d0: 0000 00c0 0ceb a23f 0000 0000 c6fe 913f
000001e0: 0000 0000 844d 6a3f 0000 00a0 ec7e aabf
000001f0: 0000 0080 8007 a03f 0000 00c0 f502 b5bf
00000200: 0000 0000 d846 a13f 0000 0000 fab4 a13f
00000210: 0000 00c0 b87e a73f 0000 00c0 87e7 b4bf
00000220: 0000 00e0 5f8a b1bf 0000 0060 149a b23f
00000230: 0000 0000 64b0 673f 0000 00a0 9cf8 a1bf
00000240: 0000 0000 8814 8bbf 0000 0000 237b 8cbf
00000250: 0000 0000 240d 76bf 0000 0000 fc6f a1bf
00000260: 0000 0020 938d b33f 0000 0060 81ce b23f
00000270: 0000 0040 6c65 a93f 0000 0000 c60f 70bf
00000280: 0000 0000 4fb4 92bf 0000 0060 26fe b13f
00000290: 0000 0060 d734 b13f 0000 0000 6fcd 92bf
000002a0: 0000 0040 60b4 af3f 0000 00a0 1c9c b13f
000002b0: 0000 0040 fc01 b5bf 0000 00e0 8923 adbf
000002c0: 0000 0000 ef31 87bf 0000 0000 bf8b 8e3f
000002d0: 0000 0020 2acd a5bf 0000 0040 78e8 aa3f
000002e0: 0000 00e0 f617 a9bf 0000 00a0 7225 b63f
000002f0: 0000 0080 0fc4 a0bf 0000 0000 ee64 833f
00000300: 0000 00a0 d3cd b23f 0000 0040 d20c a73f
00000310: 0000 0060 7c7e b03f 0000 0060 c157 b63f
00000320: 0000 0000 da6b 703f 0000 0020 af25 b6bf
00000330: 0000 00a0 6a05 b43f 0000 0080 55f0 a1bf
00000340: 0000 0000 aefc 803f 0000 0060 943e a1bf
00000350: 0000 00e0 d488 b23f 0000 0040 7330 9cbf
00000360: 0000 0000 f43b 703f 0000 0060 ce91 b13f
00000370: 0000 0000 b91b 9cbf 0000 0080 063d 9bbf
00000380: 0000 0040 bc7d a73f 0000 00a0 f8dc b23f
00000390: 0000 00a0 63f9 b03f 0000 0000 f719 80bf
000003a0: 0000 0040 ef3b a93f 0000 00c0 ee45 aa3f
000003b0: 0000 00e0 0524 b13f 0000 00c0 974e a6bf
000003c0: 0000 00a0 7f7e b13f 0000 0000 e16f 923f
000003d0: 0000 0000 dafa b3bf 0000 0000 05e5 823f
000003e0: 0000 0020 8bca a0bf 0000 00c0 401f b4bf
000003f0: 0000 0000 fe4e a1bf 0000 0080 b5a5 b5bf
00000400: 0000 0020 650c b2bf 0000 00c0 f9dc a93f
00000410: 0000 0000 8d5d 803f 0000 0060 5f70 acbf
00000420: 0000 0080 c187 91bf 0000 00c0 1168 ae3f
00000430: 0000 0040 05af a93f 0000 00e0 e029 a1bf
00000440: 0000 00e0 91c1 b13f 0000 0000 b991 973f
00000450: 0000 0000 98c1 9b3f 0000 0000 ec91 6f3f
00000460: 0000 0020 7949 a0bf 0000 0060 2d22 b53f
00000470: 0000 0080 acd9 97bf 0000 0000 728d 8c3f
00000480: 0000 00e0 eebd b33f 0000 0080 93d8 953f
00000490: 0000 0040 87fd a73f 0000 0020 df4f b03f
000004a0: 0000 0020 8b10 b43f 0000 0020 a91b b43f
000004b0: 0000 0000 cca8 61bf 0000 0000 616b a23f
000004c0: 0000 0000 e087 7dbf 0000 0020 1f5a b5bf
000004d0: 0000 00a0 dafa b03f 0000 00e0 5042 b53f
000004e0: 0000 00c0 7bad aa3f 0000 0040 429f ac3f
000004f0: 0000 00e0 6a35 b63f 0000 0020 18c0 b5bf
00000500: 0000 00a0 3541 a7bf 0000 0000 947d 7dbf
00000510: 0000 0040 36e5 a83f 0000 0060 c182 b23f
00000520: 0000 0080 ad1e b4bf 0000 0080 f8f7 9fbf
00000530: 0000 0040 f84c aabf 0000 0020 4892 b13f
00000540: 0000 00e0 51dd b2bf 0000 0000 4297 8c3f
00000550: 0000 0000 e83e 59bf 0000 0040 3e46 adbf
00000560: 0000 00c0 5cf9 9bbf 0000 0000 05b0 a3bf
00000570: 0000 0000 ecef 973f 0000 00c0 cd53 a93f
00000580: 0000 00a0 4f80 b13f 0000 0000 2684 b6bf
00000590: 0000 0000 caaa b5bf 0000 0040 455c b0bf
000005a0: 0000 0000 22dc 9abf 0000 00c0 82bb a6bf
000005b0: 0000 0000 0814 553f 0000 0000 b4ea 673f
000005c0: 0000 0060 1e01 b03f 0000 0080 193e 913f
000005d0: 0000 00a0 febf b23f 0000 0040 f51e 9fbf
000005e0: 0000 0000 16f8 72bf 0000 00a0 cf1c b53f
000005f0: 0000 0000 35c3 913f 0000 00a0 298b b03f
00000600: 0000 00e0 34d6 b3bf 0000 00c0 eb73 aa3f
00000610: 0000 0080 2654 9b3f 0000 00c0 4d53 ac3f
00000620: 0000 0000 d8e8 983f 0000 0080 07a2 933f
00000630: 0000 0040 42a7 a03f 0000 0000 73eb 943f
00000640: 0000 0000 03f1 98bf 0000 0040 e210 9cbf
00000650: 0000 0000 e7f5 96bf 0000 0000 d8cf 66bf
00000660: 0000 00c0 e6f6 b3bf 0000 0040 8b58 ad3f
00000670: 0000 00e0 7e4b b43f 0000 0020 61fe b3bf
00000680: 0000 00c0 5b24 a23f 0000 0040 30f0 b1bf
00000690: 0000 0080 9926 aabf 0000 00c0 8f64 a6bf
000006a0: 0000 0000 88ff 64bf 0000 00e0 a9a5 b43f
000006b0: 0000 0080 39e6 abbf 0000 0000 dd1f 95bf
000006c0: 0000 0060 fd2d a5bf 0000 0000 36fa b3bf
000006d0: 0000 0000 9cf1 793f 0000 0000 b261 99bf
000006e0: 0000 0080 cd41 9d3f 0000 0060 028d b3bf
000006f0: 0000 00c0 ce75 b0bf 0000 0060 3acc a3bf
00000700: 0000 0080 bacc a6bf 0000 0000 cbfd 95bf
00000710: 0000 0080 db6f 92bf 0000 0040 014c 9cbf
00000720: 0000 0060 e5d4 b43f 0000 00e0 5eef b13f
00000730: 0000 0060 de8c b23f 0000 0080 dbb1 adbf
00000740: 0000 0000 8b3a 8c3f 0000 0080 65d0 9b3f
00000750: 0000 00e0 aa65 aabf 0000 00a0 6d69 b5bf
00000760: 0000 00a0 6de5 adbf 0000 0000 0063 313f
00000770: 0000 00c0 7a2b a23f 0000 0020 a524 adbf
00000780: 0000 0000 d79e abbf 0000 0000 8c99 653f
00000790: 0000 0000 b4bd 873f 0000 00c0 d2ac aa3f
000007a0: 0000 00c0 2962 af3f 0000 0000 145c 62bf
000007b0: 0000 0060 8f76 b63f 0000 0060 5cb7 b23f
000007c0: 0000 0020 1228 b03f 0000 0000 69a8 8dbf
000007d0: 0000 00c0 ff87 b5bf 0000 0000 8b82 84bf
000007e0: 0000 0040 b509 a33f 0000 0000 fda2 b2bf
000007f0: 0000 0000 c31d 9fbf 0000 0000 00b0 e63e
