python/snapshot1800.pt (torch_old, 586867 bytes, 6 tensors)

layer0.weight f8 [256, 19]
000000 e6 15 96 74 3a cf 9a bf 40 f7 59 a9 08 3a a1 3f
       -0.026181138387547785 0.03364588801649271
000010 fa 4d 70 ef 0c f4 c6 3f 53 4b d5 a8 d4 8e 80 bf
       0.17932283107130315 -0.008084927942638187
000020 40 04 23 49 bc ca ac 3f 4d e1 c0 cb d8 5c c5 bf
       0.05623424904616359 -0.16689596127413112
000030 c4 fb e3 9c f7 99 77 3f b7 bb ca 8e 7b de c3 3f
       0.005762068975172011 0.1552271315790372
000040 ca 2a bc 8e 33 e3 b5 3f ae 28 21 72 aa aa bc bf
       0.08549806818715946 -0.11197915350308804
000050 93 16 11 b0 9d 4b c4 3f 91 f9 1e e2 b0 04 b4 bf
       0.15855761620530426 -0.07819657822162741
000060 95 97 23 62 8d 92 b2 bf 0f bf c8 b4 28 15 ba bf
       -0.07254871030781225 -0.10188536084819709
000070 be ec d9 25 fa 0b 93 3f 05 28 93 50 a0 60 a2 3f
       0.018600376663454148 0.03589344962672673
000080 b2 8f 56 07 b4 39 c8 3f 48 c6 5d 1c 33 18 b5 bf
       0.18926096304232726 -0.08240050737892901
000090 cb 63 0c ce 42 23 cd 3f d8 fd 37 95 ab ac ca 3f
       0.22763857899624748 0.20839447771139308
0000a0 d8 37 e6 dd c3 ea cb bf fb 49 ae 7d c9 15 c4 bf
       -0.21810196242262125 -0.15691488873251544
0000b0 12 26 9d d4 09 71 af 3f 8d 04 b2 70 5a 18 b6 bf
       0.06140928955444393 -0.0863091015944681
0000c0 0c 7f c9 2a 66 f9 c1 3f a4 a6 f8 ec 9c 0e ca 3f
       0.14042355622495284 0.20357095309127715
0000d0 37 82 25 02 c8 50 c4 3f b4 1f ef 13 32 3b 8e bf
       0.15871524910746057 -0.014761344178523796
0000e0 19 3f 05 be f1 16 c8 3f 1a d1 42 4c 2d 94 92 3f
       0.1882002046427196 0.018143375186540835
0000f0 56 00 5a 9d 7b d8 c7 bf 7b c8 b1 a0 7e 88 a4 bf
       -0.1862940328901483 -0.04010387145616875
000100 5a 2a f8 05 8f 9f c2 bf bc de 5a 79 58 a4 88 3f
       -0.1454943446299975 0.012032214358767994
000110 3d 4e 02 e9 9a f2 cb 3f 30 3c b2 88 b8 ba c2 3f
       0.21834122064011466 0.1463232676946702
000120 57 b9 6b d7 b9 b4 a7 bf f0 3d 92 b2 43 fc b2 3f
       -0.04630070452354811 0.0741617499318108
000130 00 00 00 00 aa 3d 92 3f 00 00 00 60 cc 5a c4 bf
       0.01781335473060608 -0.15902094542980194
000140 00 00 00 80 3c e2 ab 3f 00 00 00 80 ed a6 a7 3f
       0.054460421204566956 0.04619543254375458
000150 00 00 00 80 9f c5 a4 bf 00 00 00 80 42 f6 c2 bf
       -0.04057024419307709 -0.14814025163650513
000160 00 00 00 c0 b2 e7 c1 bf 00 00 00 20 72 a2 c8 bf
       -0.1398833692073822 -0.19245745241641998
000170 00 00 00 00 df db 9a 3f 00 00 00 40 6d f6 b0 3f
       0.026229366660118103 0.06626017391681671
000180 00 00 00 c0 36 1b bd 3f 00 00 00 c0 eb 95 b7 bf
       0.11369650065898895 -0.0921313613653183
000190 00 00 00 00 f7 07 95 bf 00 00 00 40 1e f2 b3 bf
       -0.020538195967674255 -0.07791317999362946
0001a0 00 00 00 a0 c8 08 c1 3f 00 00 00 40 ac 81 b3 bf
       0.13308055698871613 -0.07619740068912506
0001b0 00 00 00 00 b6 f0 84 bf 00 00 00 60 fc 6e c3 bf
       -0.01022474467754364 -0.15182451903820038
0001c0 00 00 00 00 8c 56 80 bf 27 1c b3 38 66 aa c0 bf
       -0.007977575063705444 -0.1302001740316154
0001d0 a4 f8 5e ed 19 33 ca 3f ef 03 19 c7 bb 7d b1 3f
       0.20468448725109056 0.06832479105743493
0001e0 4a e3 09 34 95 16 9e 3f 4b 5a e1 5a 40 40 c3 bf
       0.029383021641908237 -0.1503982967139613
0001f0 04 5a b6 2c 26 c9 c4 3f 7c 73 a5 ff 58 b2 a8 bf
       0.16238858397692024 -0.04823568459207814
000200 74 6e 5d 93 66 de c7 bf 0d 16 51 17 6e 82 7c 3f
       -0.18647463031344425 0.006960325282368907
000210 ac db df 44 c6 b8 b1 3f f5 be 9d 86 13 f2 c4 3f
       0.06922568494324705 0.16363758156830213
000220 54 c1 f5 47 7d b8 cc bf ba 1e c5 a2 53 cf 83 3f
       -0.22438016904517133 0.009672788052412219
000230 49 cf 8c 86 25 c2 b5 3f b5 15 a8 f8 5a b9 c6 3f
       0.08499369177735362 0.17753159657892828
000240 db fe c0 a9 54 f5 b4 bf df 4c 72 c8 d2 33 87 bf
       -0.08186844963438082 -0.01132931398595932
000250 e5 43 f0 72 2c a2 c4 bf 5e fa 95 5c b7 c4 bd 3f
       -0.16119914638741686 0.1162829018630673
000260 10 94 63 78 97 9c b3 bf f7 cb 6f 36 90 6c b0 bf
       -0.07660814942535432 -0.06415654496213095
000270 03 c7 c8 9e c7 1e b5 bf 35 1e 78 9a fc f5 a9 3f
       -0.08250091196603297 0.05070485482798085
000280 af 83 31 39 71 fe c9 bf 7e 3c d3 7d 50 2a c5 3f
       -0.20307746212622876 0.16535383361631156
000290 f8 10 a2 8c 5f a9 ba 3f 77 95 59 63 a4 4e c4 bf
       0.1041469305365047 -0.15864996768065584
0002a0 b3 9e 42 a0 30 2b 9e 3f 9f d5 ea c5 f8 69 b1 bf
       0.02946163156653254 -0.06802325088468429
0002b0 20 3f bb c7 a6 3f cb bf d5 80 c0 50 39 0b 81 bf
       -0.21287998917113615 -0.008322189118246484
0002c0 f3 4e a5 2d 15 f5 b4 3f f5 c0 8f 83 7e 94 c5 3f
       0.08186466564557886 0.16859418319609856
0002d0 e2 c0 db a8 c6 e8 b9 3f 51 93 33 12 1c 21 c7 3f
       0.10120813009757826 0.1806979264139508
0002e0 01 88 7e e4 53 bd cc 3f 08 2d b3 ae ae 13 af bf
       0.22452782303759025 -0.060697039437934974
0002f0 40 79 f8 b5 e5 7b a0 3f 31 5d 3f 71 33 c1 c4 bf
       0.03219526144333651 -0.16214602498687605
000300 72 72 4b e8 87 eb b5 3f c3 da 57 23 34 ca 81 bf
       0.0856251661420602 -0.008686454132641136
000310 76 2f ee 50 46 e9 bf bf e5 e0 1c 64 0a cf 9e 3f
       -0.12465323901977662 0.030086672172928614
000320 5f a7 5b 03 3c e9 87 bf 1c 3d 58 20 c8 08 c8 3f
       -0.01167532811401245 0.18776799754457663
000330 3a 3a 83 8e 45 b6 27 bf 74 f9 7d 57 eb 4f c3 bf
       -0.0001809081943577472 -0.15087644359659758
000340 6f 16 49 0f af 7d a1 3f 76 ed 94 e1 88 69 c0 bf
       0.03416201650229033 -0.12822066321119124
000350 88 eb 8d 47 cc 82 75 bf 54 a6 86 f6 ab 03 cd 3f
       -0.0052516917866069004 0.22667455232049127
000360 36 33 1a a9 d9 d0 c8 bf 27 88 7a ea 23 35 b2 3f
       -0.19387360341024767 0.07112335657669232
000370 06 c1 0c 4b 06 31 c5 3f d8 17 e5 f5 84 e9 c8 3f
       0.16555861153165824 0.1946264458330791
000380 f4 ff cd 14 73 2d b2 3f 74 db 8e 8e 0b b2 ca 3f
       0.07100600488593029 0.20855850659219366
000390 8f 92 b7 9b 94 4c a3 3f 6d ab 5c 4b 03 9f c1 3f
       0.03769363785594237 0.13766518764290528
0003a0 c5 3e 3b 7f 9d 18 aa 3f 17 10 55 6f 94 a8 c2 3f
       0.050969049245052335 0.14576964794298483
0003b0 06 f7 3c 73 82 f4 c6 3f b7 8f 58 27 fe a7 c0 3f
       0.1793368399320842 0.13012673302830333
0003c0 6c c1 c4 19 7a 37 68 3f ab 2e 5a 02 5f 98 ca 3f
       0.0029561409739004476 0.20777499785287054
0003d0 49 e7 53 04 32 5c c5 bf 22 79 ae 24 13 ff c6 3f
       -0.1668760796672422 0.17965926447954766
0003e0 db 53 2a ea 1c 06 c1 bf e5 4b ef 17 cb f3 c7 3f
       -0.13299905237059204 0.18712748211564115
0003f0 61 0c 72 f5 05 a5 c7 3f 6d a3 4a a0 f0 4c c4 bf
       0.1847236107315409 -0.15859802080856458
000400 03 39 ab 7a ec 85 ab 3f 1c 48 50 06 77 d5 a8 bf
       0.05375613210127208 -0.0485036082465202
000410 5d f8 21 17 6e 7d c1 3f 54 6d 3a df a4 f0 a3 3f
       0.13664032105947657 0.0389453432555579
000420 93 ce 4a 9e 3c ec 9c bf 6d 53 1c 50 e4 93 99 bf
       -0.028244921838178682 -0.024978225125852505
000430 60 4a 5c 77 a8 f6 c9 bf 87 49 cd e3 3d 21 b3 3f
       -0.2028399069609632 0.07472597896165754
000440 9e 69 86 e5 ae 1b a7 bf cd 36 73 e3 f6 68 c2 3f
       -0.045133080976671666 0.14382825952491488
000450 90 b3 3c 86 3e 35 9a 3f fc 86 30 58 59 b5 cc bf
       0.02559373564070061 -0.22428433233385892
000460 72 65 33 2f 51 e1 ca bf c7 02 65 72 c3 f6 b9 3f
       -0.2100011330101484 0.10142156164966841
000470 15 a1 cb 33 50 1b cd bf 5f d6 56 73 02 b5 be 3f
       -0.22739603547166412 0.11994948688410421
000480 34 7a bb 8a e5 00 b3 bf ad 0e 92 0b 90 ec a4 3f
       -0.07423243176479205 0.04086732999078655
000490 91 5b be 33 19 7f 91 3f 60 3e 60 1f a9 7f a8 bf
       0.017086404593637253 -0.04784897335059379
0004a0 45 a9 71 e9 bb 99 c5 3f 59 6b 17 e8 c8 6c ad bf
       0.16875409029609947 -0.05747058709285708
0004b0 b6 aa c2 2d 1e a8 97 bf 4f 89 dd db f8 75 80 3f
       -0.02310225633906767 0.008037513932951738
0004c0 90 d5 65 14 59 6f b8 3f e3 ec 68 10 d2 7d c4 3f
       0.09544903514855307 0.16008973885786934
0004d0 aa 22 29 a5 b3 a2 bc 3f f2 90 3c d4 62 61 c0 bf
       0.11185763151400843 -0.12797198641886315
0004e0 db ce dc 26 b7 a3 c6 bf 97 a8 10 18 37 dc b9 bf
       -0.17687119863113918 -0.10101646745229896
0004f0 f5 7e 3d de 47 a0 91 3f 95 2e 36 4e b5 3e 8e 3f
       0.01721298498102804 0.01476804394658097
000500 b1 03 33 e2 4d 65 b1 bf db 36 b0 22 6c da bf 3f
       -0.06795202991908302 0.12442661139376858
000510 d0 44 1a e3 1f 4b c7 bf 30 7d 34 36 04 63 c0 3f
       -0.18198011960024596 0.12802174231271968
000520 cb 8d df 49 e3 00 cc 3f 7b 55 19 83 62 92 b3 3f
       0.21877709490864414 0.07645240498216836
000530 7b a4 db f7 d0 57 85 bf f0 18 e6 f0 d1 ac 96 3f
       -0.010421402515435432 0.022143631294533728
000540 96 b6 d8 4e e2 34 c1 bf 46 e1 e7 1d 5c b0 c4 3f
       -0.13442639207771795 0.16163207493060322
000550 cd a9 4c 46 94 c5 c8 3f a5 06 9e c6 f9 92 c1 3f
       0.19352963860121833 0.13729784200773057
000560 e2 b1 59 34 0a e7 aa 3f 57 9a 52 22 01 52 a7 bf
       0.05254394425432786 -0.045547519149569275
000570 7e 4f d7 a9 98 f5 cc 3f ec e6 4a ff 7d 03 c3 bf
       0.22624500554104182 -0.14854407277544313
000580 af ee 9b 09 74 9f 99 bf 17 c8 3f c7 e3 6d b2 3f
       -0.025022328459256723 0.07198928465348363
000590 21 f9 ee 37 0b 78 c6 bf 58 86 91 bf 7e db c5 bf
       -0.1755384467232455 -0.1707609591858723
0005a0 3e 67 54 0d 91 ae ac bf 63 34 dd 1c b2 a5 af bf
       -0.05601933753696507 -0.06181103327126249
0005b0 48 a8 0d 5d 4c 04 c3 3f a8 9a 3a b2 ed 42 a8 3f
       0.14856867354984815 0.04738562393804574
0005c0 b3 34 30 41 4f 47 cb bf d2 d2 db 88 6a 5f bb 3f
       -0.21311369593641913 0.10692468491817955
0005d0 20 fb 92 4f 34 52 c2 bf e4 c8 0e 9a 48 0d c2 bf
       -0.14313367734390514 -0.14103038332320417
0005e0 17 4a 45 92 64 b9 c9 3f 34 6f 4e b1 0d 89 c8 3f
       0.20097024099466473 0.19168254048860833
0005f0 08 44 aa 7a fd 7f c5 bf 51 c0 35 9c 88 7a a1 bf
       -0.16796844949252 -0.034137982433890664
000600 e7 fb 31 ec ce 56 c9 bf 27 44 db b6 77 01 a4 3f
       -0.19796167881938162 0.03907369715819469
000610 d7 44 9b f2 1c 87 b0 bf 51 bb 0f 88 78 df b6 bf
       -0.06456166193972322 -0.08934739419758599
000620 1d a1 36 40 92 0f c2 bf d4 96 9c 3f 88 0f c1 3f
       -0.141100198129842 0.13328650575674905
000630 8f 8b c2 d6 33 ff ca bf fb e9 f7 64 5c ed ae 3f
       -0.21091316210103314 0.06040467007183633
000640 b6 21 47 e5 dc f4 c1 bf 74 da cf 08 83 46 bd 3f
       -0.14028512187202374 0.11435717549452723
000650 8b 31 c7 7e 6b 72 ac 3f c5 72 87 84 14 28 98 3f
       0.05556045458397126 0.0235903936280575
000660 4c fe 48 1d 3a 7c aa 3f 38 b0 dc 46 9e 2a bf 3f
       0.05172902686581135 0.12174405317335946
000670 fd 6d de 17 8f 47 aa bf 2a 86 f4 f4 13 9b bf 3f
       -0.05132720152252188 0.12346005182600864
000680 4a f2 94 cd 0b ee b6 bf fb 4a d2 0b ee 4b a8 3f
       -0.08956979531371548 0.0474542989187707
000690 7b 00 6e 18 3f 5c c4 3f 1f 0c 52 de 7c 21 8a bf
       0.15906513874870484 -0.012759185347254896
0006a0 59 4a 7b 60 fd de ba bf 3e f7 eb 82 e6 45 cc 3f
       -0.10496505361087695 0.2208831919924083
0006b0 0c aa f7 34 e0 59 c0 3f d4 f7 d0 41 eb c1 a7 3f
       0.12774279199886995 0.04640135935231596
0006c0 1a c9 40 4d 1f ec cc bf cb ac f6 ef 02 7f b9 3f
       -0.22595587989923943 0.09959429129110046
0006d0 8e 45 d9 b4 da 22 be bf 58 3d 91 e1 4d 16 ae bf
       -0.11771933474780935 -0.0587639177180061
0006e0 4a d2 a5 33 e6 8d bb bf 68 23 ee 8d 6a a6 b0 3f
       -0.10763396035128739 0.06503931012242747
0006f0 69 50 51 4d 91 80 cb bf 57 88 17 6c 2e 46 be bf
       -0.21486107135081348 -0.11825838221514694
000700 80 5b a6 e8 a1 3e c2 bf 8d 73 37 5e 5c 80 c8 bf
       -0.14253639087538872 -0.19141726112766513
000710 bb 5a 6c 5d 77 62 c4 3f 8b 18 c0 ae b7 07 bb 3f
       0.1592549520653018 0.10558650986067357
000720 7c b8 e0 02 6a 10 c8 3f 23 f1 57 dc 12 be b1 bf
       0.18800091877477942 -0.06930654410820529
000730 cc c5 d5 4b 22 47 ca bf e3 69 ea 94 7b 32 b2 bf
       -0.20529583647616645 -0.07108280549656558
000740 df 96 f8 ab d1 46 9f 3f a8 47 ec 31 07 60 c8 bf
       0.030543590661315952 -0.19043054521222058
000750 ae b0 5a 5b f5 72 c1 3f 03 91 61 de 86 c6 cb bf
       0.13632075272233152 -0.21699605806782793
000760 15 16 50 72 f5 22 c1 bf 8f 5a e4 4e 16 dc bd bf
       -0.13387935716325275 -0.11663951326441178
000770 46 ab 30 95 a0 12 b5 3f 02 3f c9 c8 36 2c c2 3f
       0.0823154796823192 0.14197430423745777
000780 03 51 30 35 2f 06 c9 bf 59 df ef 9a fb d4 aa bf
       -0.19550123307329423 -0.052406180060585235
000790 87 bf 97 7b b0 34 b4 3f 70 40 cc 58 bc 3a b1 bf
       0.07892897622491378 -0.06730248611370526
0007a0 83 ab 6e 0c 2f e3 a2 3f 8a 28 ac 27 b1 be c9 3f
       0.03688952471505671 0.20113195836194492
0007b0 71 d7 ea 40 87 f9 93 3f ee b6 94 cd 72 29 c7 3f
       0.019506562554588883 0.1809524062932079
0007c0 b7 da 36 a3 f3 30 a8 bf 8d 85 b0 b6 56 2f b1 3f
       -0.04724847190248254 0.06712858162111086
0007d0 c6 4b 0e 29 23 32 b5 3f 05 50 ca c9 f5 65 ae 3f
       0.08279628517475066 0.05937164390812203
0007e0 b5 c0 a8 e7 8e c0 bd 3f 31 46 bc 16 49 37 b2 bf
       0.11621945529691653 -0.07115608983101464
0007f0 2a e9 e1 2d 1e 9d c0 3f d9 8b 63 de 2a 4d cc bf
       0.1297948574099988 -0.22110496386366554

layer0.bias f8 [256]
000000 ff 74 d1 2d 1a 33 b9 3f 5a 7d 83 7b 71 f1 c4 3f
       0.09843600863083067 0.16361826449336087
000010 00 00 00 80 22 3b a3 3f 29 6d 0b fd 0b 54 6f 3f
       0.037560537457466125 0.0038242563390277384
000020 fb 29 c9 e4 fc 24 b6 bf 7f 2e d2 37 88 4f a8 3f
       -0.08650189004507773 0.047481781782235714
000030 ec 92 f2 d4 7e 97 c5 bf 6d dd 44 a7 b0 44 6b bf
       -0.16868577382879069 -0.003328652406846258
000040 01 e8 0e 75 3e 18 c1 3f 24 6a 28 93 4a 0d cb bf
       0.1335523673604371 -0.21134311852877474
000050 8a e5 61 8e 87 2d 98 3f 93 38 cd 39 39 5d b6 bf
       0.023611181321461262 -0.08735997830555879
000060 94 64 a8 8a f7 ba b3 3f 84 8c 16 3e ca 27 b5 bf
       0.07707163939666578 -0.08263839736769013
000070 fb 97 5f 95 c4 ec c4 3f 36 9c ff a2 72 2c a7 bf
       0.16347558301566764 -0.045260984799647394
000080 14 d4 b6 d6 0d 02 9d bf 84 27 b2 fa a4 3d 8f bf
       -0.028328148107636578 -0.015254296208030878
000090 88 83 5f 35 b3 3c b3 bf 42 23 8f d2 5c 45 a4 3f
       -0.0751449590020582 0.039591694548625
0000a0 52 99 8c 26 20 97 cc 3f 35 76 45 a0 c6 58 cc 3f
       0.22336198694501747 0.2214592249464872
0000b0 13 8b cf 2f e7 68 ca 3f 1c 8a 4d 0d 13 ab c1 3f
       0.20632638773448572 0.1380332770305167
0000c0 ea dc 13 ff 3a d4 c9 3f 32 4d 04 e3 17 f4 cb 3f
       0.2017892594810527 0.21838663658909635
0000d0 6c a6 df 75 76 18 a5 bf 06 24 86 37 6a 2a cc 3f
       -0.041202260865088686 0.22004440032131373
0000e0 eb ab 3f 46 7b fa b0 bf 6d 23 9f 4a 55 94 90 bf
       -0.06632204499298637 -0.016190846137564763
0000f0 2a 76 3a 55 d9 a2 c1 bf 5b 23 24 5d ff f6 c5 bf
       -0.13778225575963293 -0.17160026595982
000100 76 99 fe 39 a2 07 b9 bf 00 00 00 80 af c8 ac bf
       -0.09777273097879466 -0.05621860921382904
000110 a0 37 b0 6e 9d 83 9c bf ad e2 54 88 4b 39 b2 bf
       -0.02784582126701418 -0.07118675306709106
000120 0e 91 6d 5e 2b 91 b8 3f f5 a1 2f ce df 61 c4 3f
       0.0959651093995186 0.15923688476256329
000130 8d 9e 0c 56 d6 fe c5 bf e8 a7 cf 48 74 55 b8 3f
       -0.17183951570153902 0.09505392816177471
000140 d3 70 21 24 06 6c b1 3f 17 08 73 f8 5b a8 c1 bf
       0.06805456525893598 -0.13795041686358964
000150 90 b1 03 0c 9a ff 98 bf 09 d8 36 7a 84 35 a0 3f
       -0.024412543280889987 0.0316583060443208
000160 d1 85 b6 47 12 90 a6 3f e8 3d eb fb e7 4a 62 bf
       0.04406792760279255 -0.0022329836786878395
000170 a0 8c 58 11 bb ff b3 bf 8e cd 5c 7b f9 22 ae 3f
       -0.07812089131816657 0.058860584553623516
000180 79 f5 7e 3b 37 a9 a7 3f 55 74 66 f2 ef 9d c3 bf
       0.046212888729750774 -0.15325736366222267
000190 26 b8 b4 e4 f0 3c 9c 3f 2d 96 10 db ad 42 c2 bf
       0.02757622142706153 -0.1426598853733351
0001a0 e9 cd ab 0a 1d 93 b4 3f 5c 65 34 db 2e e4 b7 3f
       0.08036977301144756 0.09332554675747445
0001b0 1e 49 02 2c c3 ee c9 3f ff e9 fc ae ef 39 ca 3f
       0.20259894989846655 0.2048930744584396
0001c0 f8 22 70 99 7a c6 bc bf 1a 03 5c ef 13 0f 93 3f
       -0.11240354772611372 0.01861220501359915
0001d0 8c db 2f 37 3f 29 c8 3f d4 4a 30 b4 b4 b7 b2 3f
       0.18875875658678998 0.07311562918793452
0001e0 5b 82 63 df 0e 18 c9 bf 14 e0 39 e6 ad 08 ba 3f
       -0.19604669482852696 0.10169493551973147
0001f0 95 45 f7 2c 20 25 a3 3f 3b 5e e0 a6 6c a0 cb 3f
       0.037392621506693015 0.21583326481116835
000200 8c b9 81 0b ed 1f c3 3f 16 98 b6 4c b9 41 9a bf
       0.14941180288174072 -0.025641341502385805
000210 80 0c 00 06 fd 2b b3 bf 8a 2b 85 18 a2 08 c1 bf
       -0.07488995930184394 -0.13307596394801308
000220 00 00 00 60 64 48 c9 bf e0 c7 0d 93 5c 90 ca 3f
       -0.19752173125743866 0.20753056698191497
000230 34 c7 80 c3 fb f6 ac 3f 3c cf fb 36 be 35 c2 bf
       0.056571834197156085 -0.142265107009388
000240 16 e9 02 c6 cd 3e ab bf 19 d6 94 e4 d6 c1 c7 bf
       -0.05321352998858424 -0.18560300980759406
000250 a3 2d 2e 44 b1 22 c0 3f 6f be 4e 2a 69 24 a7 3f
       0.1260587294494658 0.045199667372227796
000260 74 df 68 39 70 ae ae bf 56 ad f3 5e 72 43 a7 3f
       -0.05992460919190892 0.04543645295219771
000270 04 72 27 e6 54 6e bb 3f 55 8d fe f6 97 ff bd 3f
       0.10715227717395953 0.11718129902015069
000280 a6 e6 a7 fd d6 40 c7 3f ca 17 b3 37 75 92 c9 bf
       0.18166625390567964 -0.19978203983026638
000290 b5 11 b8 2d 59 61 c5 bf 23 95 24 de 0a ba 9a bf
       -0.16703333599447281 -0.026100320633436824
0002a0 7a b3 8d 85 a5 a2 c2 3f 4d 71 32 63 0b 84 a9 bf
       0.14558857937972985 -0.049835544451726756
0002b0 d1 51 4f 32 b9 f4 b5 bf 0c 16 18 35 c2 a8 bf bf
       -0.08576543310420638 -0.12366880222551674
0002c0 0a 47 e4 cb 87 69 cb bf 00 00 00 00 63 45 ba bf
       -0.21415803390169003 -0.10262125730514526
0002d0 9c 56 1a 1e 68 17 ce 3f a2 40 ce 1b bc 13 cc 3f
       0.23508931608073602 0.21935225827883637
0002e0 da 3e 55 82 85 a0 c0 bf e0 5f 9a 32 51 5b c0 bf
       -0.1298987280265383 -0.12778677912569858
0002f0 f3 a7 c3 23 99 94 cc bf 34 0a 40 a6 b6 87 b5 bf
       -0.2232848572378426 -0.08410207327691738
000300 e4 cd d8 a9 b5 a6 61 bf 00 00 00 00 b3 55 9b 3f
       -0.002154688655332514 0.026694104075431824
000310 1c 90 7d e1 f0 fa c5 3f 7b 82 67 2d 7c 5e c7 3f
       0.17172060976292947 0.18257095543869525
000320 14 15 2f 67 bf 13 b5 bf 48 f1 05 4f 0a 2c b2 3f
       -0.08233257550371703 0.07098450116422328
000330 79 99 4f 45 04 81 bf 3f 73 c0 1a 94 03 fd c3 bf
       0.12306238834535134 -0.15615887386002533
000340 b3 d3 68 33 c9 fa 72 bf bf 66 00 79 d4 76 cc bf
       -0.004633699360557952 -0.22237640293388058
000350 86 2e 4c 6b 61 cf 9b bf d2 7d a7 8c 7a 7b c4 3f
       -0.027158281492161616 0.16001827113994566
000360 64 57 c7 17 30 85 b3 3f 7a db 17 1a 47 c1 cb 3f
       0.07625103550466644 0.2168358685882728
000370 eb 92 1b 68 8f 79 c4 3f 85 72 98 1d e4 ac c4 3f
       0.15995972236046127 0.161526216936995
000380 a4 dc e2 a2 db 8a b8 3f f6 96 a4 ed 85 13 ba bf
       0.09586880423272476 -0.10186039974049862
000390 6c 79 82 6e b0 e6 ae bf f0 46 4c e1 68 1a b7 bf
       -0.06035376881594598 -0.09024672985495008
0003a0 32 d2 4a fe 18 17 c6 bf 17 57 6e 4e 7c b9 c0 bf
       -0.17257988373388994 -0.13066057042731735
0003b0 c6 0f 62 6e c0 82 a0 bf 7a a2 9b e4 37 20 af bf
       -0.0322475561852396 -0.060792681366199156
0003c0 0b e1 cb fb c3 0a b3 bf c2 28 34 b4 b2 36 a6 bf
       -0.0743830194222747 -0.0433860630965497
0003d0 45 e8 56 12 1f 67 c5 bf 64 c9 68 24 f0 36 99 3f
       -0.1672095145748377 0.0246236345503318
0003e0 27 15 8d 76 bd 07 c8 bf 23 4d 44 63 73 fd a3 bf
       -0.1877362088072598 -0.03904305063965754
0003f0 50 46 31 f6 e9 e8 c6 3f 9b c2 11 f1 a7 94 bd 3f
       0.1789829685317721 0.1155495608852654
000400 70 26 23 9e c1 c1 c9 3f d6 53 35 02 99 53 9a bf
       0.20122547360942944 -0.02570952487925012
000410 63 42 07 40 7b a3 cd bf 9c 5c 5b 90 61 95 c0 bf
       -0.23155155779251677 -0.12955874966312286
000420 87 4b 04 d4 dd 88 ab 3f 4f cc a1 df e2 6b bf bf
       0.05377858365149906 -0.12273996314779477
000430 8b 49 0d a9 01 56 b4 3f 8d 54 e9 39 24 45 a2 bf
       0.07943735482448326 -0.035683757848041876
000440 a3 ed d2 6a cc cd c0 bf 11 e5 9f c9 ed f8 b3 3f
       -0.1312804719544661 0.07801710293269461
000450 ea f9 b8 c1 fe a8 90 bf 0c 5f 5c 3b dd a7 ba bf
       -0.016269665311705518 -0.10412390422095202
000460 85 f4 3d e2 a4 fb ba bf 94 3f b6 ed b7 09 bd bf
       -0.10540228389250401 -0.11342954209817285
000470 ca ec f3 1d 38 b5 bc 3f 13 d3 8f a6 f8 bb a5 3f
       0.11214018565435704 0.042449732143643136
000480 49 f1 09 23 84 c3 c0 3f 13 69 3c 4f f9 e4 64 3f
       0.1309666796768261 0.0025505894972300907
000490 c5 04 f9 a2 dd fd cc 3f ac 59 0d 2b b0 d6 9b bf
       0.22649736840870652 -0.02718615782517879
0004a0 5c fe 04 26 84 38 c6 bf fc cb ee ee 0a 94 c8 3f
       -0.1735997377054329 0.19201790491715076
0004b0 65 e8 db 38 5f a3 9c 3f 79 3b 26 bb a1 54 a1 bf
       0.027966964574240544 -0.033848814101580645
0004c0 bd 61 73 36 db c0 ab 3f b4 d7 03 32 4d 5f c0 3f
       0.05420575179749985 0.1279083723272244
0004d0 31 9f 1e 11 04 4d ae 3f bf a3 09 50 f2 09 97 bf
       0.05918133458118147 -0.022498880515204208
0004e0 49 bd 67 52 26 f2 cb 3f 10 69 28 f3 6b aa c0 3f
       0.21832732223217935 0.13020085690443084
0004f0 4b bf af ee 68 f9 cb 3f a9 5a a4 07 2d aa cb bf
       0.21854888586630702 -0.21613085625786724
000500 e8 d7 ee b8 88 3c c2 3f bb 3d 15 e9 25 ad cd bf
       0.14247235326700936 -0.23184656029705572
000510 c9 b3 6a 23 21 34 cb bf db 98 ea 60 18 24 b7 bf
       -0.21252836446129056 -0.09039451948283121
000520 00 00 00 80 3c 7f a2 3f 96 f7 b3 31 06 71 c4 bf
       0.036126986145973206 -0.1596992247286237
000530 36 04 4e 63 fa a4 9c 3f 04 2a b9 58 d4 3c b7 bf
       0.02797309142215828 -0.09077193418594481
000540 32 b8 c7 8e c3 dd a4 3f ec 75 e5 2f b5 f6 cb bf
       0.04075442426606947 -0.21846642340362565
000550 dc 8a 28 a9 c5 34 a0 3f e4 f0 30 af ce 4c ca bf
       0.03165261926576132 -0.20546897463089586
000560 8d ea d0 f2 46 c8 cb bf c8 ef 34 fc 4f 99 a6 3f
       -0.21704947334531646 0.04413843110748378
000570 0a ff 81 8f b5 9b ab 3f 25 e6 8d 4a 6d 8d c3 bf
       0.05392234207920239 -0.15275350704523408
000580 47 9d 39 b3 85 26 c7 3f 00 00 00 40 ba a8 b0 3f
       0.1808631062624306 0.06507457792758942
000590 5f fd dd 90 9a d7 be 3f ce 14 e9 dc 78 2f ba bf
       0.12047735249324408 -0.10228686707803833
0005a0 f7 6c 9e 8a cf f2 9b bf 93 33 6d 80 8a c4 c0 3f
       -0.027293436847327403 0.13099795599773909
0005b0 e5 2b b2 3b d3 6d 84 bf e9 65 6a 1f 72 05 b7 3f
       -0.00997509981086426 0.08992684618933534
0005c0 f2 a2 9f 58 87 fb c5 bf 3e 71 ee fb fa b7 9c 3f
       -0.17173854663203475 0.02804557955424624
0005d0 5c cd 98 d6 69 98 92 3f b4 73 3c d0 44 84 87 3f
       0.018159536097482984 0.011482751469481169
0005e0 8a 16 dd 35 b5 0e cb 3f e8 11 48 fe d1 da 96 bf
       0.21138634805736373 -0.022319108147728445
0005f0 26 68 27 5a de 57 ca 3f 26 cf 77 34 c7 73 b7 bf
       0.20580653574035174 -0.09161038428265708
000600 9d a7 c2 1e 72 8e c3 bf 53 87 b8 cb 7b 6c b4 bf
       -0.15278460027667232 -0.07978032802250583
000610 db 4f 44 93 68 06 cc 3f 0f de 47 1b 03 69 c7 bf
       0.2189455718113312 -0.18289221603457448
000620 5a d5 f9 29 d4 8c c1 bf b9 96 24 94 8a 9f bd bf
       -0.13711025285344186 -0.11571565739412905
000630 fa 88 4b b1 29 d1 c5 3f 67 21 f5 82 8f c9 c2 3f
       0.17044564396844192 0.14677614111338785
000640 0f 0f 43 1b e4 5f c9 bf 83 75 f7 29 4d dc a7 bf
       -0.19823886233472662 -0.046602641461258386
000650 9e 8c f9 27 77 30 af 3f 3a f8 8d ac ac a4 b1 3f
       0.060916637067543564 0.0689189835811427
000660 2a 36 df 39 2d 67 c2 bf 00 00 00 a0 27 2c c2 bf
       -0.14377370191361766 -0.14197249710559845
000670 54 6c 50 e4 de bc a0 3f 71 06 6e 84 ca 3a c2 3f
       0.03269096886671066 0.14241916147516379
000680 3e db a8 41 b1 26 c8 3f cf 48 20 d0 a4 6d c3 3f
       0.1886807985881322 0.15178356325538409
000690 24 13 88 aa c0 18 c4 bf 6c 55 cf a6 ce ca c4 3f
       -0.15700538946853115 0.16243918557180892
0006a0 59 2c aa 0b 84 40 c3 bf 3b 8a 50 e2 50 5f c7 3f
       -0.15040636605803817 0.18259631205099133
0006b0 22 fd 2e e5 9e 8d c8 bf c5 3f 84 c8 b0 f7 be bf
       -0.19182192030528095 -0.12096695800232656
0006c0 0a 8f 89 29 a2 37 c3 3f 9f cf 9f 68 66 56 73 bf
       0.1501352980441129 -0.004721069368304769
0006d0 8c 19 0b 16 95 2d bd bf 6e b5 e9 3c 31 fb c4 bf
       -0.1139767817322534 -0.1639157817293539
0006e0 00 00 00 40 9f eb cc bf 7a e5 09 57 7a a2 c5 bf
       -0.22594061493873596 -0.16902093172010862
0006f0 06 19 a1 00 f4 ba 96 bf 1b bf d3 e9 e0 5b c4 bf
       -0.022197544611366936 -0.15905391137447897
000700 b2 29 74 0c 83 4e b2 bf 2d e9 ab b1 0e 1d cb 3f
       -0.07151049665495782 0.21182426143043057
000710 0e 41 81 e2 b4 34 b0 3f 93 5f eb 4c 65 88 67 3f
       0.06330423860459097 0.0028726557278381886
000720 eb af be 4f 79 4c 71 3f 6f 88 5a 45 a9 1b b8 3f
       0.004223321793613603 0.09417207663730819
000730 f9 64 40 a3 77 78 c5 bf 1d 0a 36 54 a0 73 c0 bf
       -0.16773887130037915 -0.12852863418454855
000740 af ae fc 0e 51 d2 c8 3f 58 d2 76 d7 9f 91 bb 3f
       0.19391835433758817 0.10769080171923784
000750 58 bf ef 4b e9 6c c3 bf 00 00 00 40 78 2f b8 bf
       -0.15176120956265993 -0.09447433054447174
000760 8f 81 3a bf 6f 23 a3 3f f6 22 50 1d 2f 7e be 3f
       0.03737973412831074 0.11911291566515189
000770 e5 da 7d 3d e9 dc cc 3f f9 86 54 fb 56 32 cc bf
       0.22549167158623287 -0.22028624793988863
000780 76 45 00 5f e6 46 ca bf 68 8c ed f8 2b 21 c0 3f
       -0.20528869284366252 0.12601232199367307
000790 46 21 c1 a1 24 d0 bf bf 8f e9 b2 37 8d 9a 8d bf
       -0.12426976155359623 -0.014454940092367944
0007a0 24 82 03 9f 70 72 cd bf 9e 2e b3 fe 8d 27 c6 bf
       -0.23005492939320604 -0.17308211266059897
0007b0 0b bd 02 92 61 ed 7b 3f cb ea 98 c8 75 f9 a3 3f
       0.006818181165882518 0.03901260446260365
0007c0 6e 34 61 7f fe 51 c7 bf 85 76 fd 1c bb 90 cc 3f
       -0.1821897623034689 0.2231668368867085
0007d0 06 4a d4 05 90 97 b6 bf 2d 7a 9b 51 a5 7a c8 3f
       -0.08825016157451424 0.19124285206540162
0007e0 73 ce 05 05 3d e3 c9 bf c4 5c c9 44 43 e6 c2 3f
       -0.2022472643399059 0.14765206202239345
0007f0 24 d9 31 50 4d d9 c1 3f 7f 73 04 fa 06 e9 bc 3f
       0.13944403091199675 0.11293071369114037

layer1.weight f8 [256, 256]
000000 02 67 cb 6e 21 af ae bf 5e e1 fb 2b a0 0c af bf
       -0.059929890417789636 -0.06064320122635779
000010 00 00 00 00 58 d2 5e bf 50 76 f1 89 20 63 81 3f
       -0.0018812045454978943 0.00848985119790338
000020 9e b0 69 56 61 57 a1 3f 02 24 bc 66 fb 51 94 3f
       0.03386978320927024 0.019843986649934926
000030 8b fe 29 8d 08 b3 99 bf 00 00 00 80 4e ca 9b 3f
       -0.025097020736665015 0.027138926088809967
000040 9b 7b e6 ea 91 ed 8f 3f ee 7d d8 5b 8f 1d a1 3f
       0.015589847546662308 0.0334286498657511
000050 f9 52 ba 3b 91 e5 ab bf 59 52 79 2d 1a 36 aa bf
       -0.05448583463763685 -0.05119401745892977
000060 b1 a9 c6 90 f0 a1 89 3f 00 00 00 40 90 d7 ad 3f
       0.012515906732763012 0.058285243809223175
000070 45 c6 2c dd 8e 53 a7 bf 4f ab 69 32 18 4e ac bf
       -0.04555937242402001 -0.05528331389799367
000080 00 00 00 00 68 e6 a7 3f 7e b8 9f 33 7e b7 9c bf
       0.04667973518371582 -0.028043720150826783
000090 52 3d ae 9d b1 82 a6 3f 19 fd a8 a3 42 92 ab bf
       0.043965864656565615 -0.05385025260738469
0000a0 5a e0 81 8d 14 20 ab 3f 84 0b 67 c4 05 ae 75 3f
       0.05297912814506907 0.005292913940538994
0000b0 df 4a d8 e8 01 b3 92 3f a3 c3 4a 0c 8e 79 a3 bf
       0.018260984265064614 -0.03803676509904299
0000c0 d3 f9 2b 3b b1 fc ae 3f b6 84 05 89 a8 b1 a6 bf
       0.06052163932143952 -0.04432417557360095
0000d0 69 a2 de a7 3d 01 6c bf 00 00 00 00 df 07 95 3f
       -0.0034185604299248784 0.020537838339805603
0000e0 7b b9 a7 79 54 9b af bf 20 62 8c 5b 33 e5 9c bf
       -0.061731948709950545 -0.02821808096186562
0000f0 6e 69 a0 e3 77 65 9f bf a9 25 95 94 15 ba 91 bf
       -0.03066050841162265 -0.017311417764437263
000100 37 2e 7a ad 2e c0 9f 3f 00 00 00 00 c5 90 a6 bf
       0.03100655492612089 -0.044073253870010376
000110 00 00 00 00 60 d9 59 3f 00 00 00 00 c2 21 a0 bf
       0.0015777051448822021 -0.03150755167007446
000120 3d 41 83 14 59 56 ac bf 28 71 2c ec c0 f4 9f bf
       -0.05534628272437423 -0.03120709840287464
000130 04 4a 4e f4 e0 e1 a4 bf e5 fc fc fe 08 b3 42 3f
       -0.04078581793068639 0.0005706590581907837
000140 c2 ea 4e 1b 71 ab 8d 3f 45 6a 79 f8 b0 c9 ac bf
       0.014487155576593639 -0.0562262824357345
000150 58 15 52 98 0b 1a 72 bf 00 00 00 00 da 2e aa 3f
       -0.00441936997697686 0.05113869905471802
000160 00 00 00 00 ce 5a 7d bf 11 3f d3 c1 88 8c ac bf
       -0.007166676223278046 -0.05575969091444056
000170 ac e2 81 d9 60 49 79 3f 17 3d 8c a5 97 3c a7 bf
       0.0061734946431150454 -0.04538415809485679
000180 00 00 00 00 4a 2f 91 3f dd 1f 31 84 68 aa ab 3f
       0.01678195595741272 0.05403448690100252
000190 00 00 00 80 02 27 98 3f 2b e3 0b 13 b3 4a 9f bf
       0.02358631044626236 -0.030558393514158382
0001a0 94 2c 96 1d f4 0a a6 bf 00 7e 66 aa 60 04 ad bf
       -0.04305231915631072 -0.05667402343828698
0001b0 fc a0 32 82 7f cc 8d 3f 00 00 00 80 56 02 9d 3f
       0.014550205384083352 0.028329230844974518
0001c0 0e 4b e4 03 e0 60 aa bf 74 25 43 e6 ad 7e a1 bf
       -0.05152034804827653 -0.034169611318769194
0001d0 a4 ac a5 0a c1 d4 ad 3f 00 00 00 80 92 81 aa 3f
       0.05826380972833903 0.05176980793476105
0001e0 3b 32 f1 6f 1b 6b 98 3f 77 10 d2 dc 6a 1d 93 3f
       0.02384608145466614 0.01866690609723817
0001f0 9d d2 68 50 13 af a1 bf 2c 13 72 99 e5 9c 87 bf
       -0.03453884464798771 -0.011529725785530319
000200 00 00 00 40 4e 26 a3 3f 27 89 16 d3 50 f4 ac bf
       0.03740162402391434 -0.056551481025296994
000210 84 91 96 f2 10 8b a4 bf 00 00 00 00 b7 66 88 3f
       -0.040123490917980426 0.011914663016796112
000220 00 00 00 80 05 62 af 3f 4c aa f8 7e 35 ba af bf
       0.06129471957683563 -0.06196753668730945
000230 92 ae e0 ed e9 2b 8d 3f 2e df a0 ae c4 cb 71 bf
       0.014243915149641215 -0.00434471920930672
000240 af 2e 1a 3e 0f 77 a2 3f 00 00 00 00 2e 14 79 bf
       0.03606460221371088 -0.006122760474681854
000250 e3 66 7f 65 ce d4 a2 3f 00 00 00 00 a3 bf 8e 3f
       0.03677983273492005 0.015013955533504486
000260 1e e7 85 52 a9 a5 91 3f 63 78 65 dc c9 8b 8c 3f
       0.017233510648544052 0.013938500441039453
000270 7c 22 c9 7d cb 51 a3 3f 98 72 8b f9 a0 f5 97 bf
       0.037733420471856655 -0.02339793704128343
000280 f4 69 a9 38 3e bb 99 bf 3c 6e fb b3 82 d5 a8 3f
       -0.02512833805881516 0.04850395628974666
000290 03 12 77 1d 47 40 ab 3f 00 00 00 00 38 66 5b bf
       0.05322477564508079 -0.0016723200678825378
0002a0 5f e0 40 96 be bd a3 bf 00 00 00 00 55 4f 8f 3f
       -0.03855701049946058 0.015288032591342926
0002b0 ec 49 fb 75 f0 d6 57 3f 67 3c 7e 56 99 69 93 bf
       0.0014550541163101905 -0.018957515625114853
0002c0 e6 85 53 7e 79 43 95 bf 00 00 00 80 35 a6 ae bf
       -0.020765207610457546 -0.05986182391643524
0002d0 2b a7 64 f8 12 f7 af 3f 39 dc d9 fa ec c6 a2 3f
       0.06243190080779323 0.03667393266817282
0002e0 00 00 00 80 a4 57 ad bf 00 00 00 00 92 f3 92 bf
       -0.057309284806251526 -0.018507272005081177
0002f0 00 00 00 80 7a a6 9d bf 00 00 00 40 bb b3 a8 bf
       -0.028955377638339996 -0.048246242105960846
000300 00 00 00 c0 a8 d8 ac bf 00 00 00 80 f8 84 a0 3f
       -0.056340478360652924 0.03226448595523834
000310 4c cf bf 92 21 4d 9a bf 0a 53 7f af 8f 5b 71 bf
       -0.025684856969703504 -0.004237710258128366
000320 a9 e1 f8 16 73 32 aa 3f c1 83 bc ad 97 37 a9 3f
       0.05116614966795236 0.04925226207547651
000330 e7 98 c8 a3 57 5c 9d bf 00 00 00 80 95 76 9e bf
       -0.028672570582920633 -0.02974923700094223
000340 00 00 00 80 e8 62 a0 3f 00 00 00 00 70 fc 7f bf
       0.03200460970401764 -0.007809102535247803
000350 2d 5c c2 44 ae c5 a2 bf 9a 45 16 f8 66 11 a1 3f
       -0.036664434331378316 0.03333589342504269
000360 bd 44 b6 a0 41 5d 73 bf df 65 a5 35 02 0f aa 3f
       -0.004727608068962383 0.050895756767839855
000370 86 82 c8 b8 4b 40 af bf 4b e8 1f 67 44 3c 97 bf
       -0.06103741293577962 -0.022690838617542657
000380 09 bb b5 eb 13 03 93 bf 69 5e 07 b9 14 3d af 3f
       -0.01856642843398063 0.06101288565303948
000390 74 94 d1 24 ec 82 9d bf ea d0 3d 7e ad 5b 84 bf
       -0.028819741961701742 -0.009940486350139516
0003a0 30 43 a1 b0 5c 21 ae bf ee af c1 28 e4 38 87 3f
       -0.05884828239562123 0.011338980191986505
0003b0 70 ba cd b4 37 65 96 bf fb 4a a1 c3 93 67 ae bf
       -0.021870489511849944 -0.05938398135244501
0003c0 00 00 00 80 66 6a a9 3f f1 b6 50 2f 96 88 ae 3f
       0.04963989555835724 0.05963582351283304
0003d0 00 00 00 40 48 98 a2 3f 12 83 d9 3b 20 eb 94 bf
       0.03631807118654251 -0.020428184178288573
0003e0 00 00 00 00 41 37 8c 3f 42 56 f6 ce c3 56 94 3f
       0.013777263462543488 0.019862231738065235
0003f0 e9 d9 25 70 bb 18 a3 3f 84 03 4e 38 5d 40 78 3f
       0.03729806655876528 0.005920757427589577
000400 09 5d 66 d7 ea bf ad bf ee d4 20 23 d5 7d 87 bf
       -0.05810483817475116 -0.011470475325135312
000410 df 6c f7 ef 72 d7 90 bf 41 b2 81 56 71 fa 8d bf
       -0.016446872612374427 -0.01463783784148476
000420 00 00 00 80 9a 71 a4 bf 4a cd 58 c0 d3 8e 92 bf
       -0.03992922604084015 -0.018122967352792764
000430 a3 80 ec 61 a1 1b a3 bf 00 00 00 00 ed 72 83 bf
       -0.037320178226083266 -0.009496547281742096
000440 00 00 00 80 75 fc 97 bf 95 39 62 2f 57 2d a0 3f
       -0.023423992097377777 0.03159592107214163
000450 00 00 00 00 33 1d ab bf 00 00 00 00 dc f5 af 3f
       -0.05295714735984802 0.06242263317108154
000460 78 c3 c9 b3 4c f5 a4 3f f9 04 43 71 e0 55 ad bf
       0.04093398756675176 -0.057295812440779366
000470 4c 9d 0c 36 b0 43 ac 3f c2 a6 7c 1b 04 13 69 bf
       0.05520392093449775 -0.0030608253690801177
000480 00 00 00 00 4c ac af 3f 69 02 48 7a f5 56 93 bf
       0.061861395835876465 -0.01888640936704392
000490 27 ee e6 e2 5b 0d 84 3f 8f 20 dc 42 53 c4 2d 3f
       0.0097911051387803 0.0002271033894702995
0004a0 2b 61 8e 15 9b a8 7a bf 82 45 d2 4b b3 65 a5 3f
       -0.0065084512688360725 0.0417915372901332
0004b0 02 ac fc c1 3e 4e ad bf 9d 7c f7 8e d5 b5 87 3f
       -0.05723758810048453 0.01157728998708612
0004c0 6d ef 10 71 ed f6 a9 3f 75 5c ae 35 ea cf 9c 3f
       0.050712032367726013 0.0281368823303549
0004d0 f1 35 3c 16 43 bb 83 bf 61 dc 38 1f 8c 30 3c 3f
       -0.009634517780365367 0.0004301397413856764
0004e0 00 00 00 00 34 ce 66 3f 79 54 a4 76 a1 ce 8d bf
       0.0027838721871376038 -0.014554273064769628
0004f0 42 30 d7 44 d1 35 aa bf 00 00 00 c0 f4 d8 a2 3f
       -0.051191844609633566 0.03681149333715439
000500 d4 30 69 ab b0 5d 6d 3f 3a 71 4b 1f 2d 88 a3 bf
       0.003584713990937608 -0.038148317403939605
000510 f3 62 ba a6 46 5f 75 bf d5 53 33 f3 e0 4c 92 bf
       -0.005217815381592261 -0.01787139400842704
000520 00 00 00 80 94 ad 91 bf 27 cd 37 48 dc 5d 66 bf
       -0.01726371794939041 -0.00273030303810064
000530 58 b3 1a ba b2 05 a8 3f 3e a0 46 ac ad 48 a9 3f
       0.04691847345143313 0.04938261726357539
000540 00 00 00 00 5d f6 ab bf bd 63 bd c2 bc 9e 9a bf
       -0.054613977670669556 -0.02599615992162162
000550 61 23 87 6a 6e 80 9b 3f 49 ce 58 e2 47 77 9c bf
       0.02685711407847025 -0.027798770132177606
000560 6e b1 3b 65 74 6c 9d bf ed 41 e8 41 5f 39 89 bf
       -0.028734034231932375 -0.012316459845380623
000570 66 7f 63 4a 23 ef a7 3f 77 fa 41 32 51 aa 93 bf
       0.04674635203423243 -0.019204395954597744
000580 00 00 00 c0 cf e7 a6 3f 00 00 00 00 de b0 9d 3f
       0.044737331569194794 0.028995007276535034
000590 7e 91 1e ea 97 fc 97 bf 41 9d f0 1a 76 71 ad 3f
       -0.023424504913820858 0.05750626639229007
0005a0 94 ea 89 36 b3 0c 84 3f 00 9c c8 bd c3 01 ad 3f
       0.009789848424806714 0.05665408794111926
0005b0 c0 80 07 73 e4 e0 a1 3f 9f 30 61 4c f0 91 97 bf
       0.03491891769567834 -0.02301764932808281
0005c0 09 9a d8 82 26 1d a7 bf d5 27 d5 18 7d c5 a0 bf
       -0.04514427516214787 -0.03275671890385438
0005d0 9a 8b a7 d0 6b f2 ac 3f 00 00 00 00 5d f8 a2 bf
       0.05653702661563571 -0.037051111459732056
0005e0 af 5d 90 4b a8 a0 a7 3f 14 e4 a3 fa 8d 1a 93 3f
       0.046147593711960304 0.018655985281814294
0005f0 3c 5b 9f b8 a0 b3 ac 3f 06 13 2c 0c 3c 30 81 3f
       0.05605795148556189 0.00839278137346745
000600 8e d6 5f ee 3b 07 9c bf b9 d1 d1 d9 fe 73 99 3f
       -0.02737134592458417 0.0248565502592599
000610 9c 4e cb 46 53 64 97 3f 6e fa 03 a5 c6 f7 aa bf
       0.02284364814370453 -0.05267163051938871
000620 54 e5 e0 ca 24 9e 96 bf 00 00 00 80 d5 29 95 bf
       -0.02208764541885462 -0.02066739648580551
000630 0c 18 27 93 17 f0 81 3f 00 00 00 80 1b aa ab 3f
       0.008758720567936272 0.05403219163417816
000640 00 00 00 80 60 9a 9d 3f 70 4f 45 99 57 ae 7d 3f
       0.028909213840961456 0.007246343786693518
000650 b8 38 26 91 3a 67 a1 bf 2b 77 e8 67 f1 cc 89 bf
       -0.03399069806902005 -0.012597928985140413
000660 00 00 00 00 2c 92 87 bf 00 00 00 00 9c 65 78 bf
       -0.01150926947593689 -0.005956277251243591
000670 a2 d0 84 69 bd 4a 9f bf bf 83 2e b9 e5 49 a0 bf
       -0.03055854755912491 -0.031813792090594976
000680 d9 66 3d d6 08 22 a1 bf 00 00 00 00 42 6c 80 3f
       -0.033462787773442755 0.008018985390663147
000690 00 00 00 80 e1 ee ac bf f3 0c 81 6a 33 60 ac bf
       -0.056510016322135925 -0.0554214541921513
0006a0 00 00 00 00 0d fa a4 bf b4 e9 1c ab f5 2d 9d bf
       -0.04097023606300354 -0.028495634621529667
0006b0 d0 54 17 ca 6d 49 af 3f 06 4c 55 3d 53 44 84 bf
       0.061107092780426364 -0.009895944890251595
0006c0 08 3d 3d 87 2e 39 6c bf 00 00 00 00 e9 43 81 3f
       -0.0034452351336892208 0.00843030959367752
0006d0 0f f0 37 6b c6 16 a2 bf ec 98 b6 2e 44 d4 9f bf
       -0.03533001002139723 -0.031083169318343915
0006e0 00 00 00 00 9a 26 72 bf 00 00 00 00 93 15 af bf
       -0.004431344568729401 -0.06071147322654724
0006f0 87 e3 f8 af 95 77 a3 3f 8b 78 e3 33 2c 89 73 bf
       0.03802173398111735 -0.004769489924198687
000700 37 14 4f 74 40 09 a2 bf 00 00 00 00 78 16 87 bf
       -0.035226835439552344 -0.011273324489593506
000710 00 00 00 80 87 4f 92 bf 59 c9 fb 1a af 4f ad bf
       -0.01788150519132614 -0.057248565715684215
000720 44 bd 03 64 32 96 83 bf 6c f0 17 c5 90 ae ad bf
       -0.009563821484759878 -0.05797245412756599
000730 00 00 00 00 08 16 70 3f 73 70 6e 31 42 a2 a2 bf
       0.003927260637283325 -0.036394184621912816
000740 f3 32 0c 58 0b 39 79 bf b8 99 22 78 9f 96 ae 3f
       -0.0061579173204904135 0.05974291173452023
000750 25 5f 90 d2 5c fb af 3f 00 00 00 80 9b 59 9d 3f
       0.06246461935387363 0.02866213768720627
000760 00 00 00 00 ee 18 7e bf 64 d3 3a a9 36 c3 87 3f
       -0.007347993552684784 0.011602808989985731
000770 fe 18 36 23 0a 8a 9e 3f 63 2d a9 c4 40 83 ab bf
       0.029823454283836696 -0.053735755926562566
000780 57 01 60 59 a2 3f a2 3f 00 00 00 00 70 51 7d bf
       0.035641740236317325 -0.007157742977142334
000790 00 00 00 80 4a c0 a2 bf 00 00 00 80 bf ca 92 bf
       -0.03662331402301788 -0.018351547420024872
0007a0 55 3f a0 c3 db d7 91 bf b6 1c 38 5b 01 15 a5 bf
       -0.017424997153340744 -0.041175882706789776
0007b0 f0 d6 ce fd 34 25 ac bf 11 0a 85 85 64 68 9f 3f
       -0.05497136686555659 0.030671663903612926
0007c0 7e bb 9e 02 86 6f a0 3f 2d b0 3b 0e 7a 81 a2 bf
       0.03210085660918248 -0.0361440794348201
0007d0 ce 0c 49 5a c8 91 a4 3f b3 58 b0 6f a7 23 87 bf
       0.040174733182107056 -0.011298473449681578
0007e0 c1 d7 0f be 39 25 50 3f 1c 3f 45 28 fd d1 98 3f
       0.0009854377642546238 0.02423854406634894
0007f0 3f 06 d6 d9 d4 05 a3 3f c5 4e 19 2a 46 f3 86 3f
       0.037153865424454306 0.011206195983653253
