python/snapshot0.pt (torch_old, 3364 bytes, 6 tensors)

layer0.weight f8 [16, 10]
-0.2775856874596368 0.02601202265209726 0.13431546229161984 0.21438017187278335 0.2835548796046485 -0.27548545819633113 0.10577448981888188 0.12698834913856838
-0.07007191880454501 -0.12142628598014463 -0.18528032302856445 -0.14448349177837372 0.31112608313560486 0.0006498992443084717 -0.10581639409065247 -0.26075148582458496
-0.2289121001958847 0.050955772399902344 -0.20261883735656738 -0.07270205020904541 -0.0011426353198520007 0.2841623641573429 -0.08898864030402602 -0.040130651794169664
0.19624842765507794 -0.006620540593289494 -0.0014068031054965317 0.01518349411664091 -0.10481369978785478 -0.15380851790939684 -0.11286455392837524 -0.026472508907318115
-0.22549793124198914 0.17601507902145386 0.18143951892852783 -0.29802030324935913 -0.2402464747428894 -0.15100643038749695 0.07872074842453003 -0.0722171813249588
-0.12293304354902063 0.039913964120975455 -0.17729453594442166 -0.24990559007397897 0.17501779048685276 -0.21935087294336117 0.2951229974532534 0.22033997028116428
-0.28251154019732916 0.30916335958972224 -0.11086183786392212 -0.281655490398407 0.2839725911617279 0.2478601038455963 -0.08134463429450989 0.04501202702522278
-0.30177485942840576 -0.25331515073776245 -0.08513419330120087 0.2905227243900299 -0.03835846156341702 -0.30199623174127815 -0.24651075785343798 0.25899383069036674
-0.08515149027568976 0.23497183948295447 0.2877835813118727 0.2614048305107863 -0.19134581013581153 0.13050981282626375 -0.029252067614236966 0.1678017522392825
0.15608265460129367 -0.0991212437322597 0.31570629734929473 -0.08244067471090896 0.3237464870923367 -0.13573139946524218 0.12616281198573814 0.17908172684679768
-0.239050030708313 -0.008771061897277832 -0.05751970410346985 -0.25519782304763794 0.06953993439674377 -0.19293154776096344 -0.12089444696903229 0.19417956471443176
0.13635516166687012 -0.05755177140235901 0.2020007555815031 0.278699407450293 -0.22432542324412108 -0.2686280938944463 0.21303494623625774 -0.2839774007466986
0.10047756484473241 -0.22228459664856892 -0.24545640910466837 0.05456717114129349 -0.27812814536957914 0.07896944325847391 0.3197839873704416 0.13210381637734647
0.12864968356222964 0.10585758265585755 0.0879000442895398 -0.2968125623789328 -0.18895729070975104 0.19228629656779536 -0.12307530641555786 -0.26694855093955994
0.23647156357765198 0.16271665692329407 -0.05500459671020508 0.08778166770935059 -0.2849522829055786 0.05525413155555725 0.28305235505104065 -0.12503251433372498
0.10878848452286642 -0.23868510494299114 -2.6034797550908615e-05 -0.2734272099642716 0.16540222782807298 0.09956722874360006 0.05121692437844198 0.17898117918686815
0.08207358004060092 -0.1783255906145617 0.0731535874236319 -0.008264998261916635 -0.2634796600432147 0.1603000357057398 0.21010026558525302 -0.03731274381988309
0.31050154789573914 0.09230926855690216 0.051011821785517074 -0.27365543906086537 -0.07402914762496948 -0.2546443045139313 -0.012446463108062744 0.2112884223461151
-0.20988507568836212 0.0007162094116210938 0.18641415238380432 0.19739821553230286 0.265573650598526 -0.06176963448524475 -0.045040786266326904 0.12114965915679932
0.09809410572052002 -0.18295975029468536 0.299734503030777 -0.25858375430107117 -0.24272441864013672 0.040839165449142456 -0.22819656133651733 -0.18522916734218597
00000000: 2d84 5ec2 f6c3 d1bf 88d0 5f4a e5a2 9a3f
00000010: 58df f1c2 3f31 c13f 105f 8d39 cf70 cb3f
00000020: d37b a15d c325 d23f 2d84 5ec2 8da1 d1bf
00000030: 4cef 8576 0914 bb3f 98f7 427b 2741 c03f
00000040: 492c a2b7 3bf0 b1bf aad2 2807 cb15 bfbf
00000050: 0000 0000 44b7 c7bf 0000 0060 6f7e c2bf
00000060: 0000 0060 7de9 d33f 0000 0000 c04b 453f
00000070: 0000 0080 c816 bbbf 0000 0000 27b0 d0bf
00000080: 0000 00e0 fd4c cdbf 0000 0000 e016 aa3f
00000090: 0000 0000 6aef c9bf 0000 0000 9a9c b2bf
000000a0: 5a07 1f55 8fb8 52bf 43d4 3357 b72f d23f
000000b0: ab40 d2a3 f5c7 b6bf b4d6 0b3a 018c a4bf
000000c0: f6c1 5521 ab1e c93f cfc1 47d5 231e 7bbf
000000d0: 5907 1f55 8f0c 57bf 0f1f 5c15 8618 8f3f
000000e0: 1df8 c214 12d5 babf ff2f 225d ffaf c3bf
000000f0: 0000 0000 b1e4 bcbf 0000 0000 9c1b 9bbf
00000100: 0000 00c0 1ddd ccbf 0000 0080 a987 c63f
00000110: 0000 0000 6939 c73f 0000 00c0 c312 d3bf
00000120: 0000 0080 65c0 cebf 0000 00c0 2d54 c3bf
00000130: 0000 0000 0b27 b43f 0000 0040 d37c b2bf
00000140: a40a a439 8a78 bfbf 0d4b 1b65 9a6f a43f
00000150: 5305 d25c 96b1 c6bf fd47 3a08 e8fc cfbf
00000160: adfa 2da3 fb66 c63f 5305 d27c b013 ccbf
00000170: 5ffd 9691 4be3 d23f adfa 2da3 1934 cc3f
00000180: b2f7 7848 ab14 d2bf 4fcc a31d 55c9 d33f
00000190: 0000 0000 7161 bcbf 0000 00c0 a406 d2bf
000001a0: 0000 0060 9b2c d23f 0000 0040 e1b9 cf3f
000001b0: 0000 0080 00d3 b4bf 0000 0000 d10b a73f
000001c0: 0000 0080 4750 d3bf 0000 00c0 5036 d0bf
000001d0: 0000 00c0 5acb b5bf 0000 00a0 ec97 d23f
000001e0: cc26 e163 b8a3 a3bf 8904 b600 e853 d3bf
000001f0: 4fdd 8b1d aa8d cfbf a493 2bdc 5a93 d03f
00000200: 6d93 f0f1 7ccc b5bf 4eb6 07a7 8e13 ce3f
00000210: 23db 83d3 0b6b d23f 23db 8353 dbba d03f
00000220: 9445 61fe 047e c8bf 55ac f2a8 8bb4 c03f
00000230: 8a5f f906 41f4 9dbf a823 0a1f 877a c53f
00000240: 4022 7e34 84fa c33f 0e3d 2b84 0260 b9bf
00000250: 0b6a 902f 8834 d43f de57 be01 d51a b5bf
00000260: 0b6a 902f 43b8 d43f e52b df80 a55f c1bf
00000270: 429e b95f 1a26 c03f 3821 0f68 26ec c63f
00000280: 0000 0000 3199 cebf 0000 0000 90f6 81bf
00000290: 0000 0000 3973 adbf 0000 0040 2955 d0bf
000002a0: 0000 0080 5ecd b13f 0000 0020 fbb1 c8bf
000002b0: 0000 0040 f0f2 bebf 0000 0040 e0da c83f
000002c0: 0000 0000 1674 c13f 0000 0000 6d77 adbf
000002d0: 40b3 7e27 29db c93f 3678 1a0a 36d6 d13f
000002e0: 8457 3f0a b2b6 ccbf cc0f 84e3 3331 d1bf
000002f0: 40b3 7ea7 ba44 cb3f 67a6 408c af2c d2bf
00000300: 7c66 fdce e5b8 b93f c04c 8158 d273 ccbf
00000310: e45c d998 1d6b cfbf ee63 f96e 3af0 ab3f
00000320: 0f68 1dfe d9cc d1bf 6ab0 2d68 5737 b43f
00000330: f197 e241 5777 d43f 303d 8221 c7e8 c03f
00000340: ed2f c5c3 9777 c03f d95f 8a87 7b19 bb3f
00000350: d95f 8a07 9e80 b63f 0f68 1d1e fafe d2bf
00000360: ea35 f8a3 c02f c8bf 3f23 9d5d d69c c83f
00000370: 0000 0000 dd81 bfbf 0000 0060 af15 d1bf
00000380: 0000 0040 b344 ce3f 0000 0040 e6d3 c43f
00000390: 0000 0000 9029 acbf 0000 0000 dc78 b63f
000003a0: 0000 0080 a83c d2bf 0000 0000 454a ac3f
000003b0: 0000 00a0 871d d23f 0000 00c0 1001 c0bf
000003c0: 6305 35e7 8fd9 bb3f 75e0 e2c7 3b8d cebf
000003d0: 37f0 24aa a94c fbbe 4084 28d7 d47f d1bf
000003e0: bb82 9a73 e62b c53f 6305 35e7 3c7d b93f
000003f0: c60a 6ace 1a39 aa3f bb82 9af3 dae8 c63f
00000400: 4ed8 232e c602 b53f de5d dd79 5fd3 c6bf
00000410: bacf 9189 31ba b23f c734 e449 3ded 80bf
00000420: dbfe c2ca d9dc d0bf 38af 7329 b684 c43f
00000430: dee7 c8c4 90e4 ca3f 8860 dcec a71a a3bf
00000440: f473 64e2 41df d33f bacf 9189 94a1 b73f
00000450: 1b6d 8eb4 381e aa3f 5be4 481a 9283 d1bf
00000460: 0000 0000 93f3 b2bf 0000 00a0 174c d0bf
00000470: 0000 0000 887d 89bf 0000 00c0 7f0b cb3f
00000480: 0000 00a0 83dd cabf 0000 0000 0078 473f
00000490: 0000 0040 6bdc c73f 0000 0040 5844 c93f
000004a0: 0000 00a0 28ff d03f 0000 0000 45a0 afbf
000004b0: 0000 0000 960f a7bf 0000 0000 aa03 bf3f
000004c0: 0000 0000 b21c b93f 0000 00a0 396b c7bf
000004d0: 0000 00a0 d92e d33f 0000 00e0 a28c d0bf
000004e0: 0000 0000 9811 cfbf 0000 0000 dfe8 a43f
000004f0: 0000 0080 8b35 cdbf 0000 00e0 96b5 c7bf

layer0.bias f8 [16]
0.05479833263046625 -0.17261207103729248 -0.2740804695827002 -0.13621115684509277 -0.08129145056958947 -0.012114942073822021 -0.21347957522136835 0.2516395892613738
0.08171206712722778 0.21523650339568157 0.07232049283118104 0.017801523208618164 -0.03647742252631269 0.030568691335985474 -0.1445438414812088 -0.25019872188568115
00000000: 89de 0bed 860e ac3f 0000 0000 2718 c6bf
00000010: 0d1f 55cf 888a d1bf 0000 0000 5e6f c1bf
00000020: a40a a439 84cf b4bf 0000 0000 b8cf 88bf
00000030: b249 f878 4c53 cbbf 0f6a 90ef dc1a d03f
00000040: 0000 0000 15eb b43f 40b3 7ea7 de8c cb3f
00000050: d95f 8a87 9883 b23f 0000 0000 903a 923f
00000060: 3ff5 9531 2bad a2bf f93e 4726 664d 9f3f
00000070: 0000 00a0 6980 c2bf 0000 0080 4103 d0bf

layer1.weight f8 [4, 16]
-0.18475324228868456 0.07335564494132996 -0.09700424768230162 -0.12571033835411072 -0.15455913543701172 -0.06921696662902832 0.22063298889234853 -0.20532871691834528
0.2327408492565155 0.2111840132590515 -0.19680663133322082 -0.12927252054214478 0.2025362144032969 -0.050818891368119186 -0.052345842123031616 0.2139095962047577
-0.2160005110988267 -0.1159769594669342 -0.23634823948081962 0.20255520939826965 -0.1427737452128423 0.22241312265396118 0.06520644965485442 0.0013980104658875754
0.06473979353904724 0.03392088235751987 0.13644551783254918 -0.17077696323394775 0.04235250158332091 0.15138250428967376 0.10851314663887024 0.12897485494613647
0.115627420867852 -0.19940805435180664 0.01301204487968749 0.2453061044216156 0.042695552110672 0.19617265462875366 0.10028546614871332 -0.14591508294807973
-0.035623401403427124 -0.04352457484367362 -0.09291896391474332 0.22294041514396667 0.17493903360923485 0.02481747254619178 0.1243794858455658 -0.11269664764404297
0.21917375922203064 -0.13721683621406555 0.047609567642211914 0.20353376865386963 -0.1447816789150238 -0.14692482352256775 0.1986575424671173 -0.15417221188545227
-0.07769995927810669 0.11798349022865295 0.12663030624389648 -0.22348377108573914 -0.019379854202270508 -0.1256711184978485 -0.22981113195419312 -0.071767657995224
00000000: d6dc ba86 fea5 c7bf 0000 0080 6fc7 b23f
00000010: 8e5a 5e37 45d5 b8bf 0000 00c0 4617 c0bf
00000020: 0000 0000 98c8 c3bf 0000 0000 34b8 b1bf
00000030: 1d0e dba7 b33d cc3f 0f06 0c1e 3648 cabf
00000040: 0000 00c0 73ca cd3f 325d 31e7 1308 cb3f
00000050: 7f26 9bae f530 c9bf 0000 0080 008c c0bf
00000060: 3614 8fe8 b4ec c93f 69dd e308 ef04 aabf
00000070: 0000 0000 13cd aabf 0000 00c0 6361 cb3f
00000080: 055c 8b9d e7a5 cbbf 0000 0080 aab0 bdbf
00000090: 20c6 84bb a840 cebf 0000 0040 54ed c93f
000000a0: f652 35fb 6846 c2bf 0000 0080 0878 cc3f
000000b0: b680 c1b0 5eb1 b03f 5abd bf4e aee7 563f
000000c0: 0000 0080 c992 b03f 9d07 c1f0 135e a13f
000000d0: 1767 63f6 0b77 c13f 0000 0000 05dc c5bf
000000e0: 8d86 6822 3aaf a53f 5a2c 8e7c 8060 c33f
000000f0: 0000 0080 84c7 bb3f 0000 0080 3f82 c03f
00000100: dcf3 2537 c299 bd3f 0000 0000 3486 c9bf
00000110: 60e0 b219 0fa6 8a3f 0000 00c0 3066 cf3f
00000120: 0000 0000 31dc a53f 0000 0080 2f1c c93f
00000130: 5d72 5fed 4eac b93f 17a8 a06e 58ad c2bf
00000140: 0000 0000 3b3d a2bf 7940 0d63 da48 a6bf
00000150: a928 3187 89c9 b7bf 0000 00c0 4f89 cc3f
00000160: 06a0 12fa 6664 c63f b432 d263 c069 993f
00000170: 0000 0080 55d7 bf3f 0000 0000 b0d9 bcbf
00000180: 0000 00c0 e20d cc3f 0000 0040 5290 c1bf
00000190: 0000 0000 4860 a83f 0000 0000 650d ca3f
000001a0: 0000 00c0 3488 c2bf 0000 00c0 6ece c2bf
000001b0: 0000 0040 9c6d c93f 0000 0040 eabb c3bf
000001c0: 0000 0000 25e4 b3bf 0000 0080 2a34 be3f
000001d0: 0000 0000 6c35 c03f 0000 00c0 1d9b ccbf
000001e0: 0000 0000 50d8 93bf 0000 00c0 fd15 c0bf
000001f0: 0000 0080 736a cdbf 0000 0080 5d5f b2bf

layer1.bias f8 [4]
0.12160036594127376 0.07321467318968203 -0.07514747068923903 0.0037220120429992676
00000000: 473f e69a 3321 bf3f 0ae0 ef62 32be b23f
00000010: 43c6 fc58 dd3c b3bf 0000 0000 a07d 6e3f

layer2.weight f8 [9, 4]
-0.3377031087875366 0.49656128883361816 0.11341273784637451 -0.16575652360916138 -0.499955440729585 0.13328994987154807 -0.1886269450187683 -0.2750660181045532
-0.055363429694588996 -0.426751154072987 0.11863005359965297 -0.08237051963806152 -0.2580719057259251 -0.16299769298369582 0.4345057010650635 0.09328579902648926
-0.0017346739768981934 -0.08093947172164917 -0.2615804076194763 -0.2896742820739746 -0.2731250524520874 0.3561480641365051 0.44181931018829346 -0.27838724851608276
0.39289103882645604 0.21791321685894732 0.27531724802155294 -0.4603981375694275 0.003909766674041748 -0.18761402368545532 0.37974876165390015 -0.13131052255630493
0.07647973299026489 -0.19697809219360352 0.24202722311019897 0.08330869674682617
00000000: 0000 0080 ed9c d5bf 0000 0000 a9c7 df3f
00000010: 0000 0000 9e08 bd3f 0000 0080 8237 c5bf
00000020: 6c03 d91a 45ff dfbf 40b9 ca23 a50f c13f
00000030: 0000 0080 ed24 c8bf 0000 0080 ae9a d1bf
00000040: f584 dd6f 9858 acbf e684 9112 e44f dbbf
00000050: 3182 8808 8a5e be3f 0000 0000 3c16 b5bf
00000060: d8fd c606 4084 d0bf 381e 58c0 1bdd c4bf
00000070: 0000 0000 f1ce db3f 0000 0000 94e1 b73f
00000080: 0000 0000 c06b 5cbf 0000 0000 73b8 b4bf
00000090: 0000 00c0 bbbd d0bf 0000 0000 068a d2bf
000000a0: 0000 0080 e17a d1bf 0000 0040 21cb d63f
000000b0: 0000 0080 c446 dc3f 0000 00c0 18d1 d1bf
000000c0: 8aab a974 2025 d93f 2a3e e38d 94e4 cb3f
000000d0: 21bf 113c cc9e d13f 0000 00c0 2977 ddbf
000000e0: 0000 0000 b003 703f 0000 0080 bc03 c8bf
000000f0: 0000 00c0 cd4d d83f 0000 0080 c8ce c0bf
00000100: 0000 0000 2d94 b33f 0000 0000 9436 c9bf
00000110: 0000 0080 bffa ce3f 0000 0000 b853 b53f

layer2.bias f8 [9]
-0.49036431312561035 0.04042886706379397 0.10286394507999662 0.07341905996002314 -0.36905425786972046 -0.27167588472366333 0.015534966713379561 -0.13127648830413818
-0.053040385246276855
00000000: 0000 0000 2162 dfbf 3be7 b4ab 17b3 a43f
00000010: 3f5e 0ea0 4a55 ba3f c56d 6e6d 97cb b23f
00000020: 0000 00c0 959e d7bf 0000 0040 2363 d1bf
00000030: a0ca d3ef cbd0 8f3f 0000 0000 abcd c0bf
00000040: 0000 0000 1c28 abbf
