python/snapshot200.pt (torch_old, 586867 bytes, 6 tensors)

layer0.weight f8 [256, 19]
0	0xbfa0011e2c0e6ac9	-0.03125852859303319
1	0x3f9d9c296bd83010	0.028916022498421567
2	0x3fc69fa639486736	0.1767471103383344
3	0xbf8439087e8d93a1	-0.00987440715989313
4	0x3fac75de7d5fd048	0.05558676987121253
5	0xbfc5800d2a567f10	-0.16797031943587415
6	0x3f61f14a3abfc39a	0.0021902513308238005
7	0x3fc3827931554237	0.1524192324527733
8	0x3fb5053853940fd2	0.08211090126502477
9	0xbfbe02c839f5b3e8	-0.11722995200189212
10	0x3fc375175023ca2c	0.1520108357722888
11	0xbfb4adca2463476a	-0.08077681911825399
12	0xbfb2d413f8304345	-0.0735485535553951
13	0xbfbaf9bd6a2d98f9	-0.105373228475944
14	0x3f8bcaec215b4ac8	0.013570637481654116
15	0x3f9fd30030eb6fdb	0.03107834147054676
16	0x3fc751fa7d262446	0.18218928442755294
17	0xbfb470c5f803293e	-0.07984578423489538
18	0x3fcc7846128b369d	0.2224204626603993
19	0x3fca31007c48dc44	0.20462041920265694
20	0xbfcc3865e32c9bd9	-0.22047113029949975
21	0xbfc3975ec080d064	-0.15305694961137128
22	0x3fb1bd530dd9c148	0.06929511154317425
23	0xbfb4067862989a3a	-0.07822372824794224
24	0x3fc2232f2c139b3d	0.14169873859574436
25	0x3fc9f27c6c9b659e	0.20271258643223872
26	0x3fc3f631f8076475	0.15595078097138396
27	0xbf8d273e6e2f2362	-0.014235007989457042
28	0x3fc77433d99f6785	0.1832337200747213
29	0x3f914242b81c3347	0.01685432671279166
30	0xbfc6f48ec4a31d97	-0.17933830834793404
31	0xbf9c563a6257e209	-0.027672683956526032
32	0xbfc1eb83152f7fa7	-0.1399997571415927
33	0x3f88381c02449a9e	0.011825770205701244
34	0x3fcb77670082a25a	0.21458137059132093
35	0x3fc25f573fe50d24	0.14353457088336896
36	0xbfabada2a2fe7db2	-0.0540591072051443
37	0x3fb53a15887df4d0	0.0829175432426894
38	0x3f923daa00000000	0.01781335473060608
39	0xbfc45acc60000000	-0.15902094542980194
40	0x3fabe23c80000000	0.054460421204566956
41	0x3fa7a6ed80000000	0.04619543254375458
42	0xbfa4c59f80000000	-0.04057024419307709
43	0xbfc2f64280000000	-0.14814025163650513
44	0xbfc1e7b2c0000000	-0.1398833692073822
45	0xbfc8a27220000000	-0.19245745241641998
46	0x3f9adbdf00000000	0.026229366660118103
47	0x3fb0f66d40000000	0.06626017391681671
48	0x3fbd1b36c0000000	0.11369650065898895
49	0xbfb795ebc0000000	-0.0921313613653183
50	0xbf9507f700000000	-0.020538195967674255
51	0xbfb3f21e40000000	-0.07791317999362946
52	0x3fc108c8a0000000	0.13308055698871613
53	0xbfb381ac40000000	-0.07619740068912506
54	0xbf84f0b600000000	-0.01022474467754364
55	0xbfc36efc60000000	-0.15182451903820038
56	0xbf80568c00000000	-0.007977575063705444
57	0xbfc13bded2883064	-0.134639599608252
58	0x3fc9a4b04ee7d929	0.20033840039077092
59	0x3fb057983babbbf4	0.06383658844764267
60	0x3f99e254e8ee9eef	0.02527744933800496
61	0xbfc3930b2161f2d7	-0.15292491083155
62	0x3fc49af4b2951a99	0.16097887725682794
63	0xbfaa38abd9ae83c9	-0.05121361763236327
64	0xbfc864dc88e14d6f	-0.19057804759595906
65	0x3f6457ca1f8a4835	0.002483267566568715
66	0x3fb09902c9006298	0.0648347607351617
67	0x3fc479729041042e	0.15995628398562317
68	0xbfccd67fdd5cf741	-0.22529600437877131
69	0x3f800079d8c87ef0	0.007813407829473346
70	0x3fb485d990a8265d	0.08016738683377285
71	0x3fc60db7ae77631b	0.1722936250578407
72	0xbfb61c483842b194	-0.08636905072734741
73	0xbf83a7aade4f2a72	-0.009597144040431636
74	0xbfc5cb68957ead3a	-0.1702700357394436
75	0x3fbbdec83640ca92	0.10886813473261217
76	0xbfb3d0f8a4e50cf8	-0.07740739846945022
77	0xbfb07542e1d6b41b	-0.06428926480903423
78	0xbfb413d16c642f98	-0.07842739959977363
79	0x3fac0adc42a0cc4a	0.0547703582127715
80	0xbfca12e7ec643d3e	-0.20370196383053413
81	0x3fc566fcb963585b	0.1672054200377627
82	0x3fbae60fd79a932d	0.10507296575322007
83	0xbfc434354efa8163	-0.1578432689320933
84	0x3f9fd57bcb7edacf	0.031087812705403558
85	0xbfb1b1269500b60a	-0.0691093553329766
86	0xbfcb37951c8b90f8	-0.2126337422734037
87	0xbf7a0a8e295ec10a	-0.006357722586401113
88	0x3fb5dda941b5c7b6	0.08541353086709944
89	0x3fc5d2ee6d8623ed	0.17049961421824325
90	0x3fb9db178bceecfe	0.10099932826317468
91	0x3fc72359382dc060	0.18076625102139854
92	0x3fcb07047109b333	0.21115165252140286
93	0xbfb43aff30a5b7a9	-0.07902522027663274
94	0x3f9d54b66b1787c1	0.028643465315219666
95	0xbfc41b5100334693	-0.15708363065509853
96	0x3fb6de25571bbfc1	0.08932717682523529
97	0xbf7a32a38f4a9169	-0.00639594927330154
98	0xbfc02f9ffffee661	-0.1264533996562021
99	0x3f98bb59a9c08b95	0.02415218447289254
100	0xbf8aa8b4ad4bb851	-0.013017093218390981
101	0x3fc83b4bfda987b0	0.18930959592677032
102	0x3f721dc227f49276	0.004422911092920692
103	0xbfc2cb0f18808aeb	-0.14682186790840687
104	0x3fa46f741d8dd63d	0.039912823302909996
105	0xbfc0023c14fcc399	-0.12506819748662393
106	0xbf759b3c8b3339b8	-0.005274998187088924
107	0x3fcd2b215bd8c35d	0.22787873253539717
108	0xbfc8a2eafcd25e3c	-0.19247186035930663
109	0x3fb2ea68ea5d3236	0.07388931009081365
110	0x3fc5d8e4cae27970	0.17068157106855208
111	0x3fc92cb90d5bd077	0.1966773333766729
112	0x3fb6dbde17c70e57	0.08929241257197283
113	0x3fcbb5f1a757f14c	0.21648998900480831
114	0x3fa5e9e2358ca0df	0.04280001548460332
115	0x3fc214ff2e1b1019	0.14126577140098176
116	0x3fab782a4e2a9fa4	0.05365116314106835
117	0x3fc2def824acbc88	0.1474294833255707
118	0x3fc70f28b44b4aef	0.1801501159994454
119	0x3fc09f70450fc744	0.12986567852163422
120	0x3f711b1549d88dab	0.004176219137238683
121	0x3fcb1a27bf24fcb0	0.21173569520212743
122	0xbfc4f56b2e8f36d8	-0.16373958371553132
123	0x3fc79951ff96ee1c	0.18436646442374716
124	0xbfc08bbd622aff2e	-0.12926451962811697
125	0x3fc83e0521f17b47	0.18939270169627262
126	0x3fc7b9ab74a802f2	0.18535369106395866
127	0xbfc3f7e770a1dcd7	-0.15600293159125186
128	0x3fadb119d37465af	0.05799179750665517
129	0xbfa5bcbaf781b4aa	-0.042455523217406935
130	0x3fc15c3faa058588	0.13562770654520429
131	0x3fae6eb8896abad0	0.05943848302319099
132	0xbf92d9974606e5ea	-0.018408168458085607
133	0xbf9963a436929b17	-0.02479416449628066
134	0xbfc9f256442cb843	-0.2027080376514637
135	0x3fb3366e037add46	0.0750492819305367
136	0xbfa6e560b532bf7c	-0.04471876346485623
137	0x3fc277255a7b287e	0.14426104467412765
138	0x3f9ac9736ab0de17	0.026159098994154997
139	0xbfccb0dfba3b33c6	-0.2241477641422575
140	0xbfcadc2f5a6a5d0b	-0.20984451212709873
141	0x3fba11692e34109e	0.10182816865932628
142	0xbfcd09b414e04437	-0.2268586255964082
143	0x3fbed37d06b10c28	0.12041455663079204
144	0xbfb2e4cc9c747a79	-0.07380369968130109
145	0x3fa5249a39e13307	0.041294879498854846
146	0x3f91cff63ec7e017	0.01739487417395943
147	0xbfa853c106fb8a24	-0.04751399240719348
148	0x3fc5a008546ade4e	0.168946305484257
149	0xbfadcce5190ab64b	-0.05820384913145612
150	0xbf963f3af89ec2c8	-0.021725579666681566
151	0x3f8171995ccfbee6	0.008517454285509495
152	0x3fb8c300de6932e1	0.09672551565126809
153	0x3fc4ee023b00a281	0.1635134494874997
154	0x3fbdf87d851ced07	0.11707291126088047
155	0xbfbecbd23099cc41	-0.12029756247083957
156	0xbfc5b454de202145	-0.1695657810780721
157	0xbfb853e692f0a0aa	-0.09503022277260934
158	0x3f979040e79ca35d	0.023011221062151466
159	0x3f937921faf1325f	0.019016772214217045
160	0xbfb0566c6d8f4069	-0.06381871866983747
161	0x3fc0023ae6f894c7	0.12506805684930652
162	0xbfc76dd14aa7c316	-0.18303886552123377
163	0x3fc0cfdbbb5fca15	0.13134333275918722
164	0x3fcccd52639a4b93	0.22501592505849696
165	0x3fb558d27d601c3b	0.08338656960414507
166	0xbf75efbb643317db	-0.00535557937400274
167	0x3f98eda285b9d46f	0.02434400502393824
168	0xbfc0c29f1520b773	-0.13093937427168675
169	0x3fc9c62a721b90f1	0.20136004039444047
170	0x3fcb26579f892176	0.2121076134665249
171	0x3fc2ac90ae215f64	0.14589127066096375
172	0x3faee93926954b04	0.06037310214983019
173	0xbfa56568c13a78e6	-0.04178931578393179
174	0x3fccebefb6b64f7c	0.22595020696155277
175	0xbfc376a91ca0a546	-0.15205873391941277
176	0xbf99902e659e368d	-0.02496407027461216
177	0x3fb3f9bf888c18bf	0.07802960475609931
178	0xbfc55cb061c91ce7	-0.16689114355742804
179	0xbfc4e9b9ab2cef14	-0.1633827291315063
180	0xbfa8358a5cdb1087	-0.04728348144047439
181	0xbfada62b733b3d46	-0.05790839940675112
182	0x3fc28af706a3a84b	0.14486587356742783
183	0x3fa5f34c74fbfdd3	0.042871846466365014
184	0xbfcb18961c86796f	-0.21168781655155608
185	0x3fbced4c232bed98	0.11299587114984033
186	0xbfc14877c8b1807c	-0.13502404498558807
187	0xbfc14de8326c79b3	-0.13519003355118073
188	0x3fca8225ee508169	0.20709680687378842
189	0x3fca1aa8549d09ce	0.20393852359309367
190	0xbfc514d02a66a73b	-0.1646976668392258
191	0xbf9fbb9a84012da4	-0.03098908835117488
192	0xbfc908e2e881ed0c	-0.19558369019419108
193	0x3fa43f175a84cc89	0.03954384784665261
194	0xbfb17103d6f7460f	-0.06813072202864866
195	0xbfb7360b220ed6ae	-0.09066838819020503
196	0xbfc1dd5be2e57e08	-0.13956783846786913
197	0x3fc174d14eb3e7d3	0.13637749045284284
198	0xbfcab4735daf7036	-0.2086319167564185
199	0x3fb03aa059e57ccb	0.06339456743943399
200	0xbfc1b1ed2a471a08	-0.1382423836168558
201	0x3fbde2df9924d835	0.11674306382050832
202	0x3fad692946c591f3	0.05744294155991616
203	0x3f99ceed5d6a48e8	0.02520342714940052
204	0x3fab8e44aebe2564	0.05381979592409428
205	0x3fc000bac50b8ca3	0.1250222646841382
206	0xbfad1ba0e4e0a708	-0.05685141366877927
207	0x3fbf6298b15ad975	0.12259821252778187
208	0xbfb73d33a8cd8559	-0.09077761527216434
209	0x3fae9c6bbc39b45d	0.059787146307691975
210	0x3fc5951810d79b58	0.16861248800634132
211	0xbf7fc0568f2fc027	-0.0077517873023538525
212	0xbfbb5dcbb4c80a50	-0.10689995921715334
213	0x3fcb46f9c1e86eb3	0.2131035038772687
214	0x3fc02082b117483d	0.1259921421720395
215	0x3fab2971c05527c1	0.05305057022867699
216	0xbfcb69b34be51423	-0.2141632195072428
217	0x3fbc5801bf7a7bef	0.11071787762419637
218	0xbfbab9a44b7eb2a4	-0.10439516871583493
219	0xbfa9f28ccfe81352	-0.0506786350052041
220	0xbfbbc45996304102	-0.10846481243811826
221	0x3fafa82fda551399	0.06183003940763072
222	0xbfcb5072466fa569	-0.21339252890838203
223	0xbfbc52aa5b42f044	-0.11063637474120563
224	0xbfc0bef4a6381a85	-0.13082750431222592
225	0xbfc91adacef0c86b	-0.19613204102057877
226	0x3fc72d3710488dd1	0.1810673551091058
227	0x3fbe4a3f4779ba3b	0.11832042212493203
228	0x3fc8571bb1b2faff	0.19015833069530427
229	0xbfb131240ab94f47	-0.06715607892811902
230	0xbfc9ee554419f0b2	-0.20258584809551433
231	0xbfb24ebd5a2ab346	-0.07151397181833116
232	0x3f9de5ce979a8b97	0.029196956637530382
233	0xbfc848a0e83377cf	-0.18971644723836653
234	0x3fc1c215cc35ed36	0.1387355086443251
235	0xbfcbaa4d27cadd36	-0.21613468592634327
236	0xbfc0f4629a5624c2	-0.1324580434414085
237	0xbfbd820346319725	-0.1152650877353066
238	0x3fb61e4fa9f58fa1	0.08640001201052751
239	0x3fc28f4067a411bd	0.14499669132795914
240	0xbfc8ccceb4b9b0d3	-0.19375022720794863
241	0xbfaaa524663bfff6	-0.052041184882909805
242	0x3fb45d15176cb6e6	0.0795453245343328
243	0xbfb0abdc037e60b5	-0.06512236676496992
244	0x3fa31dd55158b19a	0.03733698480604915
245	0x3fca3def521b6f37	0.20501510151995614
246	0x3f988a8a2941cd29	0.023965986984376606
247	0x3fc72e0b9b89a370	0.18109269232379743
248	0xbfa81c569c6d4825	-0.04709120425708616
249	0x3fb137f871c95c09	0.06726029184333994
250	0x3fb53a7c18ee3453	0.08292365654615823
251	0x3fae7efb75ca0c0c	0.05956254780632983
252	0x3fbdb8ca6078264d	0.11610092978676186
253	0xbfb24d93c7550951	-0.07149623505123272
254	0x3fc09c11cb8b93a6	0.12976286352855232
255	0xbfcc46eff76591a3	-0.22091483669204334

layer0.bias f8 [256]
0	0x3fb7e8b23d00e4ef	0.09339441289275262
1	0x3fc4c45539b808f8	0.16224160497956297
2	0x3fa33b2280000000	0.037560537457466125
3	0xbf4614891a4e1e72	-0.0006738347479861696
4	0xbfb5efaf41c7153b	-0.0856885467138299
5	0x3faa305702b3feb4	0.05115005405423059
6	0xbfc50c4108d33c50	-0.1644364636508464
7	0xbf67b912e5486879	-0.00289586725763252
8	0x3fc1954fdaa81f60	0.1373691384944733
9	0xbfca2ce2bea44a4f	-0.20449480351142532
10	0x3f9b0692f63e6895	0.026392265586402692
11	0xbfb3cbf1073410ca	-0.07733065057624625
12	0x3fb44a2e66d477fc	0.07925691614624947
13	0xbfb51f714e36a3f7	-0.08251102599628256
14	0x3fc501e97acbc5a1	0.16412085052392647
15	0xbfa615a98e77e30f	-0.04313402046313374
16	0xbfa198ae2e94cb33	-0.034367983995613825
17	0xbf8908e79116c4f3	-0.012224015345824379
18	0xbfb2f38eb45593f9	-0.07402889158909422
19	0x3fa566210ae803b1	0.041794807988487455
20	0x3fcc6e005690d3af	0.22210697390405928
21	0x3fcb83fc4bc205d3	0.21496537875286367
22	0x3fcaf8cc540a3d9e	0.2107177172042442
23	0x3fc1a8502ec63db0	0.1379490116491815
24	0x3fca6ac6f26c491e	0.20638357960758297
25	0x3fcc4b1ad1c1d4c0	0.221042015476689
26	0xbfa6461825172e82	-0.043503527190833516
27	0x3fcc2b82e0000000	0.22007785737514496
28	0xbfaecbbb2dc2e055	-0.06014809545143921
29	0xbf8d643e881062fc	-0.014351357009262149
30	0xbfc12d806134c94c	-0.13420109506985012
31	0xbfc64446dfcafe29	-0.1739586441744774
32	0xbfb84b07a007e9df	-0.09489486367230125
33	0xbfacc8af80000000	-0.05621860921382904
34	0xbf9d98bbca2e99d6	-0.028902944770061577
35	0xbfb28a55116b70a9	-0.07242328334126803
36	0x3fb7e6cddb2fc930	0.09336554146992593
37	0x3fc4bba0fadb6d86	0.16197597741016184
38	0xbfc5c445f70ceeef	-0.17005228579534257
39	0x3fb84b380ad40b88	0.0948977495609552
40	0x3fb014c70e0b709d	0.06281704037559384
41	0xbfc1bde662fdaa33	-0.1386077864984415
42	0xbf98803ce06ce8c1	-0.02392668838295076
43	0x3fa03b4b5eb14770	0.03170238047518026
44	0x3fa5671aa9801801	0.04180224722954052
45	0xbf7ba3de9729c767	-0.006748075002734533
46	0xbfb30e7af10f4bad	-0.074439700939634
47	0x3fae9041d93a8d5a	0.059694345252206474
48	0x3fa7a67180000000	0.0461917370557785
49	0xbfc2f463cde77e6d	-0.1480831866638143
50	0x3f996c7fdd344b8c	0.02482795512794271
51	0xbfc150f4d566a52d	-0.13528309268921515
52	0x3fb46f98c0000000	0.07982783019542694
53	0x3fb76bd0cc82015c	0.09148888581149123
54	0x3fca344db6c234ea	0.20472117828140962
55	0x3fca39efaefce9ff	0.2048930744584396
56	0xbfbc2d81871a3269	-0.11006936596295137
57	0x3f9a135eedbcd34e	0.02546451879534866
58	0x3fc89c551643baf0	0.1922708853448607
59	0x3fb24282ce0321e7	0.07132737664790732
60	0xbfc8f11c2fee339e	-0.19485809650759917
61	0x3fbb77a6db7fd40e	0.10729449137564037
62	0x3fa5f001162c4480	0.04284671207109003
63	0x3fcb9566985732f3	0.21549684942728894
64	0x3fc315eccd8281bf	0.1491065982309134
65	0xbf9a88f925a0f7fd	-0.025913136407545768
66	0xbfb37262b5f6b76a	-0.0759641355750468
67	0xbfc07379d4fe6249	-0.12852404499132522
68	0xbfc9486460000000	-0.19752173125743866
69	0x3fcb8d1f46abd071	0.21524420691241944
70	0x3fab04c55c229ba3	0.05277077436158286
71	0xbfc1ba2fa001e54a	-0.13849444687711304
72	0xbfa67697bf6f5567	-0.04387354099132317
73	0xbfc74431b3a7d276	-0.18176862022632506
74	0x3fc031dff7bc0086	0.12652206036000652
75	0x3fa7236880000000	0.045192018151283264
76	0xbfb21332f9e101dd	-0.07060545540389947
77	0x3faa31c384141cca	0.05116091716086542
78	0x3fba90a602c8f409	0.10376966064445993
79	0x3fbda773139d8c48	0.11583632687465795
80	0x3fc70e52b60344e4	0.18012460601179392
81	0xbfc990fb1f5495bb	-0.19973696737103616
82	0xbfc5b73cd9d17547	-0.16965447078374948
83	0xbf9be374bc0a172b	-0.027234863259329927
84	0x3fc272c6f066f10f	0.14412771929153975
85	0xbfa7f0c0a1eb3c27	-0.04675867058323773
86	0xbfb414aa9e9c7d89	-0.07844034550043068
87	0xbfbf5e0a956e7346	-0.12252870701054261
88	0xbfcbcc84e71375cf	-0.21717892916687595
89	0xbfba456300000000	-0.10262125730514526
90	0x3fccfacfa79d5b13	0.22640414890585045
91	0x3fcb47160ea83bf2	0.2131068774765193
92	0xbfc0a360c1043f89	-0.12998589920652773
93	0xbfc05bd664927faf	-0.1278026572299473
94	0xbfccb360f5ec4738	-0.2242242050929748
95	0xbfb5add2bd7682fc	-0.08468358159599271
96	0xbf76ff6b30a4c33d	-0.0056146800146031324
97	0x3f9b55b300000000	0.026694104075431824
98	0x3fc5ec9427869932	0.17128230981797682
99	0x3fc7186041852b5b	0.1804313964770142
100	0xbfb558d67b3a6217	-0.08338680752275028
101	0x3fb3d17b691b7fdd	0.07741519275759808
102	0x3fc0f99f05af9add	0.13261783387789353
103	0xbfc4398dfa436d38	-0.15800642700092182
104	0xbf7027b370ab2207	-0.003944111764845554
105	0xbfccb06770309baa	-0.22413342454930546
106	0xbf9ce1fa9f082508	-0.028205791431934052
107	0x3fc50e8faf12a6af	0.1645068745468072
108	0x3fb319c9d04cb35b	0.07461224875869503
109	0x3fcc58f59d0e1010	0.22146482628534203
110	0x3fc476c79d1c6381	0.15987487002783143
111	0x3fc41a7bf9054a59	0.1570582357331485
112	0x3fba317476f255b9	0.10231712249727466
113	0xbfb93a87673b22ac	-0.09854933042800934
114	0xbfad610a9a31c2e9	-0.05738099224334354
115	0xbfb61a557f73063f	-0.08633932458453673
116	0xbfc6e753927345c9	-0.1789345231141353
117	0xbfc108abbca75c3f	-0.13307711326226188
118	0xbf9d385ba5e558db	-0.028535301208955182
119	0xbfaf74eadf93d803	-0.06143888453691206
120	0xbfb4c64167e2a96d	-0.08115013872398942
121	0xbfa81440b7560747	-0.047029516582382906
122	0xbfc558494539c49e	-0.16675678138884548
123	0x3f989fe40fa0432d	0.024047435239540938
124	0xbfc7f9292699f1e5	-0.18729128250914964
125	0xbf9da4d32059516e	-0.028949068879528132
126	0x3fc60aff6817d184	0.17221062262218478
127	0x3fc01954179f4506	0.12577296403336663
128	0x3fca1efecd64799b	0.2040709021466228
129	0xbf9abc048c7fc928	-0.026107855868709923
130	0xbfcd23f6025f04de	-0.22765994182376564
131	0xbfc0ecb0f29cc9a8	-0.13222324224768767
132	0x3fabe16377339841	0.0544539530763335
133	0xbfc00850693b514d	-0.12525372637049728
134	0x3fb541cb096d771e	0.08303517322698581
135	0xbfa8322543ad99ad	-0.04725758029126168
136	0xbfc0cde9c0000000	-0.1312839686870575
137	0x3fb5b5077cd1417d	0.0847935371141428
138	0xbf90d594a12a92ff	-0.016439745270548475
139	0xbfba87f60bfd8710	-0.10363710205777132
140	0xbfba650f6328597a	-0.10310455485191553
141	0xbfbcb6dd2a4bd520	-0.11216528208372667
142	0x3fbddc5ddfcf08d5	0.11664377893524443
143	0x3fa7c10d80b0c2e3	0.046394750556265206
144	0x3fc0bf44e0000000	0.1308370679616928
145	0xbf61822fea63cd80	-0.002137273392799066
146	0x3fcceaaeba5667bb	0.2259119424678014
147	0xbf9cdb8f2b37d687	-0.028181302082848105
148	0xbfc5cdc4119963c9	-0.17034197673163323
149	0x3fc8c1666678be57	0.19340209964274166
150	0x3f9d8dc055654f8a	0.028861050808088907
151	0xbfa129e19e8530bc	-0.0335226541525073
152	0x3fade64fce78332a	0.05839776416187299
153	0x3fc05e14cd0648e1	0.12787113200153669
154	0x3fadbb8164b17928	0.05807117799916944
155	0xbf96944579c463b1	-0.02204998546321563
156	0x3fcbe91f713ad176	0.21805184391781623
157	0x3fbfc23fd686eee1	0.12405776011922455
158	0x3fcc4ea7a0c3301d	0.22115035390595575
159	0xbfcba9a82a06c357	-0.2161150174338455
160	0x3fc19fca9f01b365	0.1376889492416026
161	0xbfcc57a3604eb8a7	-0.22142450525774857
162	0xbfcb5996a4a72dda	-0.21367152251910576
163	0xbfb6a3b7bf9dbd49	-0.08843563488129748
164	0x3fa27f3c80000000	0.036126986145973206
165	0xbfc420e83dff1198	-0.15725424792448162
166	0x3f9e1575358717c4	0.029378730194160388
167	0xbfb7fdc5ac0242a8	-0.09371600579675976
168	0x3fa3be11ee13e021	0.03855949431630302
169	0xbfcbfbeb74a7f27f	-0.21862548061462303
170	0x3f9f00e4c43884e9	0.03027684638630471
171	0xbfca3bb59814e381	-0.20494718480929566
172	0xbfcbbee9cb1667bc	-0.2167637101782115
173	0x3fa747a8112458a6	0.04546857079746873
174	0x3fa9e1df5621ea45	0.05055139471456419
175	0xbfc28d31cd4b6780	-0.1449339153685365
176	0x3fc746a359cd5d6d	0.181843203400358
177	0x3fb0a8ba40000000	0.06507457792758942
178	0x3fbdb64ac225b397	0.11606280555652258
179	0xbfb966428a6e8f17	-0.09921661262211177
180	0xbf99ca81d14d9e9f	-0.025186565780500044
181	0x3fc1cc975d83cbab	0.13905613008645665
182	0xbf839f654c054b06	-0.009581366903750343
183	0x3fb6c3ed2b1304f1	0.0889271001970149
184	0xbfc6b1bfb49bc42a	-0.1772994644047981
185	0x3fa2477cf9d5f08b	0.035701661584398435
186	0x3f98bf9421ceca50	0.02416831451746254
187	0x3f87979600000000	0.011519595980644226
188	0x3fcb0fc61f51f1b5	0.21141888169576153
189	0xbf9704dce725941f	-0.0224794879990392
190	0x3fc8a8f13a5e6105	0.19265570974381077
191	0xbfb7da06ce307812	-0.09317057165068857
192	0xbfc3880690b86fdf	-0.15258867327145162
193	0xbfb4dfdea08cfd4f	-0.08154097957320981
194	0x3fcbe1c1c759196d	0.2178270552996752
195	0xbfc800bebd5d981e	-0.18752273794524482
196	0xbfc04c935c6ed272	-0.12733690274548654
197	0xbfbd98be0737522b	-0.11561191250013596
198	0x3fc582957bec0a4e	0.16804760504608612
199	0x3fc213fbfcdfd601	0.14123487326985187
200	0xbfca0ff5fef102f1	-0.20361208866417926
201	0xbfa78684ad438e5a	-0.04594816794431429
202	0x3faf88ede7f8d3e6	0.061591562811748976
203	0x3fb19140d4d2211b	0.06862263866253608
204	0xbfc265cbba1fdf10	-0.14373156154737687
205	0xbfc22c27a0000000	-0.14197249710559845
206	0x3f9e6d75fe4b8f43	0.029714435239738945
207	0x3fc250febdd8a869	0.14309677381362754
208	0x3fc8e84f424f7b3a	0.19458952653709521
209	0x3fc37ab1ba75a175	0.1521818314024689
210	0xbfc3f44ff8583499	-0.15589332224081856
211	0x3fc2de1903b6d1cb	0.14740288430551937
212	0xbfc36a446cf91916	-0.1516805202574651
213	0x3fc7a62c31e5bac9	0.18475868641276907
214	0xbfc8904809ab6dcb	-0.19190311882162656
215	0xbfbecf169a1756de	-0.12034741651526867
216	0x3fc2843edd9cf211	0.14466081448507898
217	0xbf737cf1e96162e1	-0.00475782868132832
218	0xbfbbfe974db3df94	-0.1093535008147895
219	0xbfc472615f167180	-0.15974061148598295
220	0xbfcceb9f40000000	-0.22594061493873596
221	0xbfc597399f1231e9	-0.16867752329962052
222	0xbf97370d5053e023	-0.022670944240388857
223	0xbfc45465b636d50c	-0.15882560155083814
224	0xbfb0ee0af66b32f1	-0.066132245217158
225	0x3fcb1d856dd91314	0.21183841575307183
226	0x3fb0149990eecabc	0.06281432903669332
227	0x3f70b05bafac8215	0.004074438237495777
228	0x3f26ca893d540944	0.00017388272559777141
229	0x3fb86f8297be29cd	0.09545150952013799
230	0xbfc5a99b159eea30	-0.16923845821095673
231	0xbfc0b181a7144df5	-0.13041706712884574
232	0x3fc8e99baf58064a	0.1946291547938464
233	0x3fbad1a75f5ae8b8	0.10476156309133244
234	0xbfc36613db9ef2b6	-0.15155266021419828
235	0xbfb82f7840000000	-0.09447433054447174
236	0x3fa26726afccfd29	0.035943230590868964
237	0x3fbfc5cdfb04d0c3	0.12411200884236266
238	0x3fcd21b26714b821	0.22759084733246573
239	0xbfcc0f9c0006b800	-0.21922636033326626
240	0xbfca2841bb1ca15f	-0.20435353885955984
241	0x3fbede74448ecc32	0.12058188127302641
242	0xbfc08e43b1c8451f	-0.12934156590248677
243	0xbf8d699f4cced884	-0.014361614734166979
244	0xbfcd0aca7f5390d8	-0.22689181534872804
245	0xbfc5fcb1ed76fddc	-0.1717741403099201
246	0x3f7bccff0a42cd83	0.0067872965338894335
247	0x3fa4330ef4ce0097	0.039452044852624706
248	0xbfc6bee31d6498af	-0.17770041403963918
249	0x3fcbf5a9f3580cb0	0.21843456632641312
250	0xbfb6b8849920a546	-0.08875302065338983
251	0x3fc8f6a1a93ef46b	0.19502659572563927
252	0xbfc9d4ac07ca77eb	-0.20180273418821967
253	0x3fc3c49c87581a91	0.15443760498620354
254	0x3fc2321bf88d424c	0.1421542132980157
255	0x3fbd1172e9c39413	0.1135474987709844

layer1.weight f8 [256, 256]
0	0xbfaeaf216ecb6702	-0.059929890417789636
1	0xbfaf182933bfbdf6	-0.06073120838834349
2	0xbf5ed25800000000	-0.0018812045454978943
3	0x3f81632089f17650	0.00848985119790338
4	0x3fa157615669b09e	0.03386978320927024
5	0x3f942cba229e52b8	0.019701870310728536
6	0xbf99ced606d9ce31	-0.02520307938398342
7	0x3f9bca4e80000000	0.027138926088809967
8	0x3f8f589a09b69052	0.015305713101788996
9	0x3fa11917a32e259a	0.0333945643133788
10	0xbfabea7c80000000	-0.05452336370944977
11	0xbfaa427d3564ab26	-0.051288521545151775
12	0x3f89a1f08181abc0	0.012515906288362078
13	0x3fadd79040000000	0.058285243809223175
14	0xbfa753f880000000	-0.04556252062320709
15	0xbfac59bf819087a3	-0.05537222344015837
16	0x3fa7e66800000000	0.04667973518371582
17	0xbf9cccfb04282a47	-0.028125688675610296
18	0x3fa6636a8913b497	0.04372723506262693
19	0xbfab9c5b2c118155	-0.053927277688446885
20	0x3fab0fc201ed2a13	0.052854597792777146
21	0x3f757cb76c1f03fa	0.005245892041728867
22	0x3f92a3d6cd822995	0.018203121464958356
23	0xbfa37b49d3c01a2d	-0.038049990747868946
24	0x3faeed7dd67d3e1f	0.06040566676403735
25	0xbfa6b7c120a87008	-0.044370684849326436
26	0xbf6c013a007f59f2	-0.0034185536241964016
27	0x3f9507df00000000	0.020537838339805603
28	0xbfafa9bb9d2db713	-0.06184183400806211
29	0xbf9d0d6e5e053e89	-0.028371548164896985
30	0xbf9f75c1f2c94c73	-0.030722647136212488
31	0xbf91bc59a818a42b	-0.017320061573773565
32	0x3f9fb7c043e95c13	0.03097439207553172
33	0xbfa690c500000000	-0.044073253870010376
34	0x3f59d96000000000	0.0015777051448822021
35	0xbfa021c200000000	-0.03150755167007446
36	0xbfac56591483413d	-0.05534628272437423
37	0xbfa00e75a8f359ad	-0.03136031806359383
38	0xbfa4f3798baee5ac	-0.04092006521336641
39	0x3f408b94ddfaad30	0.0005049206628959021
40	0x3f8dab711b4eeac2	0.014487155576593639
41	0xbfacd68bf6db877a	-0.056324361690498884
42	0xbf721a0b98521558	-0.00441936997697686
43	0x3faa2eda00000000	0.05113869905471802
44	0xbf7d5ace00000000	-0.007166676223278046
45	0xbfac8ff23373a916	-0.05578572156976429
46	0x3f78c6c0e7e1e636	0.006048921144719046
47	0xbfa73c97a58c3d17	-0.04538415809485679
48	0x3f912f4a00000000	0.01678195595741272
49	0x3fabaa6884311fdd	0.05403448690100252
50	0x3f98270280000000	0.02358631044626236
51	0xbf9fa19d8498d710	-0.030889950960236112
52	0xbfa60af3c0000000	-0.0430523082613945
53	0xbfad0cb8eb266721	-0.05673768873675856
54	0x3f8dc80a52e7c898	0.014541702895233308
55	0x3f9d025680000000	0.028329230844974518
56	0xbfaa650dd5a91e44	-0.051552231151216904
57	0xbfa18ef52de12344	-0.034293805933492766
58	0x3fadb3947f203ce7	0.0580107121642131
59	0x3faa819280000000	0.05176980793476105
60	0x3f9863be2209ee72	0.023817988231242322
61	0x3f9318bec7f51a04	0.01864908309405601
62	0xbfa1af135068d29d	-0.03453884464798771
63	0xbf88572a05fbca81	-0.011885002429584237
64	0x3fa3264e40000000	0.03740162402391434
65	0xbfacf9dd6cb13c14	-0.05659381820498069
66	0xbfa48b10f2969184	-0.040123490917980426
67	0x3f8866b700000000	0.011914663016796112
68	0x3faf620580000000	0.06129471957683563
69	0xbfafca235ef07585	-0.06208906682898444
70	0x3f8d1ff3c9135143	0.0142211004007683
71	0xbf71cbc4aea0df2e	-0.00434471920930672
72	0x3fa25a575e504c11	0.03584549928941539
73	0xbf79142e00000000	-0.006122760474681854
74	0x3fa2be4ab0d39ce3	0.03660806091812121
75	0x3f8ebfa300000000	0.015013955533504486
76	0x3f919c2903bc3b1f	0.01719726643846819
77	0x3f8c1403667d34c6	0.013710047307223038
78	0x3fa349e882ccfdcc	0.037673250166786326
79	0xbf97f5a100000000	-0.023397937417030334
80	0xbf99bb3d1c938459	-0.025128321522860684
81	0x3fa8d582c0000000	0.04850395768880844
82	0x3fab3eaecf7335ea	0.05321260721539629
83	0xbf5b663800000000	-0.0016723200678825378
84	0xbfa3e65b66b3d6eb	-0.03886685970966915
85	0x3f8f4f5500000000	0.015288032591342926
86	0x3f57d6f075fb49ec	0.0014550541163101905
87	0xbf9374b8b61ce547	-0.018999944796836556
88	0xbf955207252e7360	-0.020820724148154723
89	0xbfaea63580000000	-0.05986182391643524
90	0x3faff03cdfe6dadb	0.062379743892440685
91	0x3fa2c6ecfad9dc39	0.03667393266817282
92	0xbfad57a480000000	-0.057309284806251526
93	0xbf92f39200000000	-0.018507272005081177
94	0xbf9da67a80000000	-0.028955377638339996
95	0xbfa8b3bb40000000	-0.048246242105960846
96	0xbfacd8a8c0000000	-0.056340478360652924
97	0x3fa084f880000000	0.03226448595523834
98	0xbf9a4d210e2e6acb	-0.025684849253233815
99	0xbf715b8faf7f530a	-0.004237710258128366
100	0x3faa32739f30bb00	0.05116616552583331
101	0x3fa91fb291c28492	0.0490699580125319
102	0xbf9d71a746176535	-0.028753865864790746
103	0xbf9e769580000000	-0.02974923700094223
104	0x3fa062e880000000	0.03200460970401764
105	0xbf7ffc7000000000	-0.007809102535247803
106	0xbfa2c5ae44c25c2d	-0.036664434331378316
107	0x3fa0ff0c6993dfb4	0.03319586552419143
108	0xbf735d41a0b644bd	-0.004727608068962383
109	0x3fa9f0477a986faf	0.050661309924378777
110	0xbfaf43ff52986109	-0.06106565364115297
111	0xbf974e46b3bd48bc	-0.02275953743021185
112	0xbf930313b5bd09a5	-0.018566425292428374
113	0x3faf3008acee71ba	0.060913344487946344
114	0xbf9d8b664e72d1f6	-0.02885207990466828
115	0xbf84891dc4218ac8	-0.01002715353769669
116	0xbfae215cb0a14330	-0.05884828239562123
117	0x3f872b63d0737dfb	0.0113132284154167
118	0xbf9665379d72804d	-0.021870488152331103
119	0xbfae723e752c3535	-0.05946536236124659
120	0x3fa96a6680000000	0.04963989555835724
121	0x3fae83f9df11d958	0.05960064743060184
122	0x3fa2984840000000	0.03631807118654251
123	0xbf94eb1f80000000	-0.02042817324399948
124	0x3f8c374100000000	0.013777263462543488
125	0x3f94370f0b21de4c	0.019741282515012323
126	0x3fa3143900000000	0.0372636616230011
127	0x3f7704e75a6d18b4	0.005619910930198358
128	0xbfadd2c4067a98eb	-0.05824863986099323
129	0xbf877dd50a61e4e5	-0.011470474604936285
130	0xbf90ff488d16fb14	-0.016598828898845744
131	0xbf8e285a5c853a49	-0.014725404690264858
132	0xbfa4719a80000000	-0.03992922604084015
133	0xbf928ed3c058cd4a	-0.018122967352792764
134	0xbfa3250e9f13c2d1	-0.03739209834919211
135	0xbf8372ed00000000	-0.009496547281742096
136	0xbf97fc7580000000	-0.023423992097377777
137	0x3fa0230300000000	0.03151711821556091
138	0xbfab1d3300000000	-0.05295714735984802
139	0x3faff5dc00000000	0.06242263317108154
140	0x3fa4f38cd3f8d345	0.040920639873013566
141	0xbfad55e06fc8a627	-0.05729581226871643
142	0x3fac43b0360c9d4c	0.05520392093449775
143	0xbf6ad7ba65cd8ef3	-0.003276695306725469
144	0x3fafac4c00000000	0.061861395835876465
145	0xbf935c8873128e85	-0.018907672904460177
146	0x3f840d5be2e6ee27	0.0097911051387803
147	0x3f2dc44000000000	0.0002271011471748352
148	0xbf7ac2752e70c012	-0.006533105602144944
149	0x3fa565b3505a5d98	0.04179153781768291
150	0xbfad582d97550432	-0.05731337044063202
151	0x3f877dc7aa3c303a	0.011470374949134155
152	0x3fa9dd8507cb0819	0.05051818580751916
153	0x3f9c8ecb1b8ede99	0.027888463551532714
154	0xbf83bb4300000000	-0.009634517133235931
155	0x3f39342f42080aee	0.00038458017118629575
156	0x3f66ce3400000000	0.0027838721871376038
157	0xbf8e0456c4797ff3	-0.014656713362626283
158	0xbfaa35d140000000	-0.051191844046115875
159	0x3fa2d8f4c0000000	0.03681149333715439
160	0x3f6d5db14f63bf2a	0.0035847151840399287
161	0xbfa3926ff55a463a	-0.03822660322215339
162	0xbf755f43a8da7822	-0.005217804236648889
163	0xbf9279590e8e9acd	-0.018041030419818683
164	0xbf91ad9480000000	-0.01726371794939041
165	0xbf66b7d0bdbe1fd8	-0.002773196885701861
166	0x3fa7e4fdf248d102	0.04666894514631005
167	0x3fa948adac46a03e	0.04938261726357539
168	0xbfabf65d00000000	-0.054613977670669556
169	0xbf9ac8fa0f770d61	-0.026157290643607726
170	0x3f9b80703e5e189b	0.026857141310323667
171	0xbf9c9892c15fee74	-0.027925770809800146
172	0xbf9d6c74653bb16e	-0.028734034231932375
173	0xbf89395bf76305ec	-0.012316435324808382
174	0x3fa7d128b16a1e5a	0.046517631203695856
175	0xbf93dee2463e1099	-0.019404922044046733
176	0x3fa6e7cfc0000000	0.044737331569194794
177	0x3f9db0de00000000	0.028995007276535034
178	0xbf97fc97ea1e917e	-0.023424504913820858
179	0x3fad5d54cb988b65	0.05735268578816636
180	0x3f83d74c94262ecb	0.009687994261887841
181	0x3face41275a77782	0.05642755209167573
182	0x3fa1e0e480000000	0.03491891920566559
183	0xbf9791f04c61309f	-0.02301764932808281
184	0xbfa7290d1efb6d69	-0.04523507121276788
185	0xbfa0e4d92072d7ad	-0.032995972834597743
186	0x3facc95a4696249c	0.056223698727145804
187	0xbfa2f85d00000000	-0.037051111459732056
188	0x3fa7888a60f5ebcd	0.045963596664442365
189	0x3f931a8dfaa3e414	0.018655985281814294
190	0x3facb378a69cfcaf	0.05605675729611314
191	0x3f81303c0c2c1306	0.00839278137346745
192	0xbf9c07d57e45a78f	-0.027373634178196545
193	0x3f995dfb2ffe48b1	0.02477257233074032
194	0x3f9748e0bc7225fc	0.02273894453222701
195	0xbfaaf7c6552f2651	-0.05267162122579506
196	0xbf969e24aab6da3f	-0.022087643546649934
197	0xbf9529d580000000	-0.02066739648580551
198	0x3f81ca11ac15a6fb	0.008686197342018689
199	0x3fabaa1b80000000	0.05403219163417816
200	0x3f9d9a6080000000	0.028909213840961456
201	0x3f7dae5809847cf0	0.007246345420099262
202	0xbfa1673a912638b8	-0.03399069806902005
203	0xbf8a22b1df1244e3	-0.012761487598512427
204	0xbf87922c00000000	-0.01150926947593689
205	0xbf78659c00000000	-0.005956277251243591
206	0xbf9f4abd60c759c0	-0.03055854705038441
207	0xbfa05620902092d5	-0.03190709838262299
208	0xbfa12c5f8eff1a26	-0.033541666226984554
209	0x3f806c4200000000	0.008018985390663147
210	0xbfaceee180000000	-0.056510016322135925
211	0xbfac7014a9522707	-0.05554260794549575
212	0xbfa4fa0d00000000	-0.04097023606300354
213	0xbf9d350778894045	-0.028522602779333068
214	0x3faf496dca1754d0	0.061107092780426364
215	0xbf84445253ab601d	-0.009895938089741258
216	0xbf6d706ac9bcb976	-0.0035936437324359206
217	0x3f8143e900000000	0.00843030959367752
218	0xbfa21d71d15f9c53	-0.03538089447811701
219	0xbfa0005fb8d937cc	-0.03125285273982534
220	0xbf72269a00000000	-0.004431344568729401
221	0xbfaf159300000000	-0.06071147322654724
222	0x3fa37795aff8e387	0.03802173398111735
223	0xbf73a47bdf28fbd6	-0.004795535921004087
224	0xbfa20f83ddff9660	-0.035274620866215356
225	0xbf87167800000000	-0.011273324489593506
226	0xbf924f8780000000	-0.01788150519132614
227	0xbfad5f7223aa6187	-0.057368819097237504
228	0xbf83b17c41a2ff51	-0.009615870240281462
229	0xbfadb6a747a85a4d	-0.058034160134572056
230	0x3f70160800000000	0.003927260637283325
231	0xbfa2a2423c00959d	-0.036394185852525164
232	0xbf79390b580c32f3	-0.0061579173204904135
233	0x3fae969fa0662291	0.05974291642184427
234	0x3faff186d7b90703	0.06238957770666611
235	0x3f9d599b80000000	0.02866213768720627
236	0xbf7e18ee00000000	-0.007347993552684784
237	0x3f8748d26630cbc7	0.011369365447626024
238	0x3f9e882611a46573	0.02981624109915999
239	0xbfab8fdf18f224ca	-0.05383202723994314
240	0x3fa23fa259600157	0.035641740236317325
241	0xbf7d517000000000	-0.007157742977142334
242	0xbfa2c04a80000000	-0.03662331402301788
243	0xbf92cabf80000000	-0.018351547420024872
244	0xbf91d989961cb778	-0.017431402003402735
245	0xbfa515015b381cb6	-0.041175882706789776
246	0xbfac253500000000	-0.0549713671207428
247	0x3f9f686485850a11	0.030671663903612926
248	0x3fa06f864050d66c	0.032100863791509976
249	0xbfa28e3ea13c5dc8	-0.03624149053774378
250	0x3fa491c85a490cce	0.040174733182107056
251	0xbf8723a76fb058b3	-0.011298473449681578
252	0x3f502539be0fd7c1	0.0009854377642546238
253	0x3f98b8c7033dd98e	0.02414236981663858
254	0x3fa2e1395582ccfe	0.036874572456691
255	0x3f86f15d180ba997	0.011202552124321126

layer1.bias f8 [256]
0	0xbfaed332ee6ea26f	-0.06020507011937048
1	0xbfa86d259092ce99	-0.04770772352040104
2	0x3fa60619fb6c3079	0.04301530069469179
3	0x3fa515fd0d8da182	0.04118338385052579
4	0x3f70131a1d4f1d9c	0.003924467096062225
5	0x3f822e457af5a0ed	0.008877318205762619
6	0x3fa67cf72623d896	0.04392216053558788
7	0x3fa77c2f6e569123	0.04586933347607871
8	0xbfab5b5e46552ea3	-0.05343145950845709
9	0xbf8aed005bf76a85	-0.013147356802553087
10	0xbfa24c999ea8d385	-0.035740662210094455
11	0xbf8ac7cb73d1dbbb	-0.013076390716589495
12	0xbf995f7200000000	-0.024778157472610474
13	0xbf9a406380000000	-0.025636248290538788
14	0xbfa3f88ea4d42372	-0.039005715962111234
15	0xbfaebff68878fe1f	-0.06005831161428098
16	0xbfab8c6215f7cbad	-0.05380541341937515
17	0x3fa84db05e548160	0.04746771956911533
18	0xbfa25b481d0914f6	-0.03585267404972996
19	0xbfa8590ec3d85b8a	-0.04755445614517047
20	0x3fae6cb6e03359f3	0.05942317473243355
21	0xbfa63580d23fd4a7	-0.04337694708366629
22	0x3fad330811ec8564	0.05702996462629065
23	0x3fa7d712122ac2be	0.04656273338094284
24	0x3f708343f1390897	0.004031434440152768
25	0xbeda98b09a1d2ab3	-6.341086562342934e-06
26	0xbf877f4411d95fcd	-0.011473209185325484
27	0x3fa2599b643ff7e7	0.03583989714387297
28	0x3fa0bb4dddb443e8	0.032679017365928875
29	0x3fa93fd0a83b4e02	0.04931499532326812
30	0xbfa29d80dcf527a3	-0.03635790536152619
31	0x3f9410d5c7df86bf	0.01959547073773282
32	0xbfa6fc2e383e4d25	-0.04489273487629423
33	0xbf4496a7747cc667	-0.0006283109332569482
34	0xbf939513edcb927b	-0.0191233743561434
35	0xbfaa74881e3414b6	-0.051670316397613034
36	0xbf968c066005c25d	-0.02201852761339961
37	0xbf69b5de6f5278b0	-0.0031384796553331692
38	0xbfaa557787a492be	-0.051433310802428064
39	0xbfa773057e1dabaa	-0.04579941906452885
40	0x3f89b9aa10d20f1e	0.012561157835314026
41	0x3fa7e5af756c6621	0.04667423542396088
42	0xbfa7f8bd400b7632	-0.04681960493847405
43	0x3fa38c4e28fe4ddc	0.038179819587778246
44	0xbfa5b31a3d0377a7	-0.04238206858438725
45	0xbfa8c4f93407977d	-0.0483777881634486
46	0x3f85d3141624fd7d	0.010656506467624944
47	0xbf91426e0e39d09e	-0.016854972475315415
48	0x3f9ef0f8418a9e8e	0.030216101646742426
49	0xbf665a7f66b5f95f	-0.0027286995224919254
50	0x3fa758e9213fd9e0	0.04560020953060806
51	0xbf96cf3500000000	-0.02227480709552765
52	0x3f8166ae4a1896e3	0.008496629368049685
53	0xbf6e4e9815c60a76	-0.0036995859538262966
54	0xbfad57bc5a3b67c6	-0.057309995665221034
55	0xbfa37fa7220e4350	-0.03808328905791447
56	0xbf74f37dd1147e97	-0.005115024062689286
57	0xbf99116497a35f79	-0.024480411296138514
58	0x3fa44b8a91a92dac	0.03963883426748835
59	0x3fa0df914cdf916d	0.03295568526644641
60	0xbfabbda23e0ca882	-0.05418116576613931
61	0x3fa9aaa99c2b1a7e	0.05013017684318742
62	0x3f966573cfe38458	0.021871385158082596
63	0xbfa785b7c62913ef	-0.04594206136656697
64	0xbfa2d3733cf4d15d	-0.0367694866094179
65	0xbfac6fa440000000	-0.05553925782442093
66	0x3fade8f1aa8738c1	0.05841784674304185
67	0xbf9b057a7fba864a	-0.026388086362777487
68	0xbfaac6f5358c87ce	-0.05229917792009041
69	0x3f9baa6da1610d03	0.02701731965522659
70	0x3fa5f231e2170003	0.04286342511068144
71	0x3f6227fd29bc9bd6	0.002216333827067522
72	0xbf8064d1d03f8093	-0.008004798095442111
73	0xbfa32724865d1e95	-0.03740800991232366
74	0xbfa6a812c0000000	-0.04425104707479477
75	0x3faab05e9bc2e2fb	0.05212684298880351
76	0xbf84d9c9ba557e35	-0.010181022643052188
77	0xbfaf8c295dc20035	-0.06161622304443918
78	0x3f8b92a1649e618b	0.013463269122255614
79	0x3facde898478e2bb	0.05638532392589953
80	0xbf8d3add00000000	-0.014272429049015045
81	0xbfad2644319fcb7f	-0.05693257432712694
82	0x3f9294bae7226860	0.018145485265087635
83	0x3fa2ceb6a93fe98c	0.036733348999365395
84	0xbfaf14995ca4363c	-0.06070403343083483
85	0xbf9773878ddfbd07	-0.022901647600460453
86	0x3fa421f6078b3904	0.03932160226905704
87	0xbfabfb6b7fff4bac	-0.0546525567766801
88	0xbfa366e451cf181d	-0.0378943776955085
89	0x3f75d59b3d1c80c7	0.005330664063677832
90	0x3fa736e860905271	0.045340787684982405
91	0xbfadc777b9975955	-0.05816244259374296
92	0xbfac731e1654a16f	-0.055565777040388
93	0xbf9eb4bd86a5f504	-0.029986344664838974
94	0xbf7192cca58cd384	-0.004290389443487256
95	0xbfaf18eb8138683e	-0.06073699905773865
96	0xbeeeac9fdb2f8675	-1.4626652818652855e-05
97	0x3f8f1f9171bf4558	0.015196930202281564
98	0xbf9f38a660bff75f	-0.030489539771216708
99	0x3fa8379afed8399e	0.047299235924685976
100	0xbf99fc4780000000	-0.02537643164396286
101	0x3fa4b13d6b36b3c9	0.040414733255012054
102	0x3f94346ea43c64dc	0.019731262945332215
103	0x3f80ccbd60b22cd1	0.008203010095050452
104	0xbf43f120164ff6ab	-0.0006085783649038742
105	0xbf91bcc534e8b3f4	-0.01732166419440158
106	0xbfa28e59909c55eb	-0.036242293265029556
107	0xbf6b60f778323253	-0.0033421357525809463
108	0xbf87237bd8d2707d	-0.011298148683913429
109	0x3fa9ad5604f6e508	0.05015057383156757
110	0xbfa8658a016a9f8d	-0.04764968173304771
111	0x3f3f613b24061b85	0.0004788178812521959
112	0xbfa6746240000000	-0.04385668784379959
113	0xbfa4782378d2d2cd	-0.03997908449074359
114	0xbfa33bf80dfd4583	-0.03756690188186964
115	0xbfa0b5ed9cad6ea8	-0.032638001800220195
116	0x3f300741a1187d38	0.0002445731380209151
117	0xbfa4cbd4b0c280c7	-0.040617605759736324
118	0x3f8c45c4b2eabdb1	0.01380494757662984
119	0xbfae97a77d4a6736	-0.05975078014780737
120	0xbfa3c7c1fe3286b0	-0.03863340595240794
121	0x3f71f39def0b4198	0.004382721833011159
122	0xbfa9fc157792c02c	-0.05075137219080292
123	0xbfac891acd1f0776	-0.055733525790414726
124	0xbf9e6bd33816bf83	-0.029708195017235105
125	0xbfad9688590724fe	-0.05778909765974481
126	0x3f95523ff16fbcea	0.02082157050238901
127	0xbf6cd33ea1ba51bb	-0.0035186980511047994
128	0xbf932a897ee9abb7	-0.018716953631535662
129	0xbfa32334b31794bb	-0.037377974378423905
130	0xbf9aff925b3a0ce9	-0.02636555368236496
131	0xbf9af58180000000	-0.02632715553045273
132	0xbf9dd5dd48f06713	-0.02913614041981478
133	0xbf9b4cc19add1537	-0.026659989430546118
134	0x3fabdb1f40000000	0.054406143724918365
135	0xbfa526e2340d87fd	-0.04131228337679713
136	0x3fa227d778d1b901	0.03546021795124155
137	0xbf9a8cdb6ab39d7a	-0.025927952182340765
138	0x3f756568d205b776	0.005223664717375223
139	0xbfa5eedcfd35fa60	-0.04283800688698558
140	0x3fa21571fda7d060	0.03531986447697544
141	0x3faff99bbc33c452	0.062451235507872696
142	0x3fa83f50d582d43a	0.04735806089721746
143	0xbf7976581a04ed60	-0.00621637739851208
144	0xbfa7eaf7c0000000	-0.04671453684568405
145	0x3fa89f0ea09e64bc	0.04808850966146269
146	0x3fafd1c83a4f2b49	0.062147385709599386
147	0xbf9f726fa1561e4b	-0.030709976408188216
148	0x3facab169e55e65d	0.05599280054861986
149	0xbfa03c3b5b27f151	-0.03170953262085397
150	0x3f8d4960ce453610	0.014300113959190092
151	0xbf95c2d097215b9c	-0.021250972008001065
152	0x3faddcf4432e0bfb	0.05832637138430382
153	0x3f8352da64841126	0.009435373489858078
154	0xbf71f89cacccf9f9	-0.004387485515336292
155	0xbfa7299a837a6602	-0.045239285039496493
156	0x3fa1975e2ac7a5f3	0.03435796997275622
157	0xbfacdcd295c9dbe9	-0.056372242722254225
158	0xbf595f7800000000	-0.0015486404299736023
159	0x3fa312e37ef83102	0.037253484009939455
160	0x3f85e2d53d3c2f11	0.01068655579685854
161	0xbfac3584f0581e9a	-0.05509581979646079
162	0xbfa61ffc63e42cdd	-0.0432127830445894
163	0xbfa04dc563c99049	-0.031843346053194006
164	0xbf8341317a995c34	-0.00940169005768441
165	0x3faf72b7dc7eb48f	0.06142210547054915
166	0x3f832c7e662b91d2	0.00936220883654296
167	0xbfac3dea78af2f3f	-0.0551598808593483
168	0xbf4c90dd7878d19f	-0.0008717614554770054
169	0xbf74ec0600000000	-0.005107901990413666
170	0xbfa3342befb22c70	-0.03750741291977355
171	0x3f9a8334337f7ec6	0.025891128199758716
172	0xbfb0070101d7b73f	-0.0626068715571053
173	0x3f8ca1b258f2d68b	0.013980286921973636
174	0x3facea076d6364c2	0.05647299967103826
175	0xbfac8bdfc0000000	-0.055754654109478
176	0xbf90868842c054e4	-0.016138199876952877
177	0xbfa96997273da6e0	-0.04963371614469536
178	0xbf9ab6dbd1c2f806	-0.026088175466377116
179	0xbf9465d7d5ceb2bf	-0.019919750618714312
180	0x3f764a6147409989	0.005442028039431065
181	0xbf9e6d3308d58287	-0.029713437475381823
182	0xbfa54bd63a96e00d	-0.04159421410753348
183	0x3fa823f4296bc842	0.04714930539729824
184	0xbf9628877c4c269a	-0.021638981782450807
185	0x3fab92763cd42dd6	0.05385179035701142
186	0x3f8500f5520aefd9	0.010255734030003726
187	0xbf9bc2ee994e8f64	-0.02711079416953001
188	0x3fa5bf0311d3e692	0.04247293083785765
189	0xbf845a84501ac7af	-0.00993827218494289
190	0xbfa3fa10e00e2d31	-0.03901722655344953
191	0x3faaf83ef1e6d6d5	0.052675215748804106
192	0xbfa1ec762db4f29f	-0.035007184104391735
193	0xbf8caf211f4664b3	-0.014005907790123428
194	0xbf8ab3d8261f38c6	-0.013038338340177435
195	0x3fad4627d27fb0b0	0.05717586941304498
196	0xbfaa947cbffdb103	-0.05191411822929306
197	0xbfa79ffbbf77e711	-0.04614245140323992
198	0xbfa159aeb9626083	-0.03388734829894793
199	0xbf92549c2d3824ae	-0.017900886783568985
200	0x3f9e5224fcf800c1	0.02961023134230412
201	0xbfa9b6dab7ed78ee	-0.05022319312296185
202	0xbfa99660119a2568	-0.04997539725179473
203	0xbf9996fa7d726703	-0.024989999682111918
204	0xbfa332d6bc4f49d8	-0.037497244345690184
205	0x3f9f2cebd600fea9	0.030444798409233673
206	0xbf8004964d841834	-0.007821249237633145
207	0x3f89f90827d1c013	0.012682021823110323
208	0xbfa1b56abb2b3b24	-0.03458722624565372
209	0x3f8bb7b663d2bd7e	0.01353399746071093
210	0x3faa51b7f3247135	0.0514047130875234
211	0x3fa851baf7591752	0.04749855298409379
212	0x3f900574183d64f2	0.015645803431969925
213	0x3f9cb9d1233b05d3	0.02805258538751849
214	0x3fa3fb99dc20f104	0.039028938409019914
215	0xbf9eba91aaa612ab	-0.030008579292842324
216	0x3f9625590fda021e	0.021626845924858633
217	0x3fa84ca7bd9381c1	0.04745983304178792
218	0xbfaeaa19e94b4707	-0.0598915192873744
219	0x3f9a86a7ab201e73	0.02590429288832614
220	0xbf7c74eff33aabfc	-0.006947457604534964
221	0x3fa44ab2062d53be	0.03963238072780183
222	0xbf640dc9486ac80f	-0.0024479800516354964
223	0x3fa3d9c1ed5ac079	0.03877073309320251
224	0xbfa0ae2fbcfdfae1	-0.032578937359166955
225	0xbfa18760c79b9304	-0.034235977522064004
226	0x3f9289483c045e27	0.018101814902449356
227	0x3f9f63eba18d9fa4	0.030654603705812314
228	0x3fa315ca39983a88	0.03727561905917748
229	0x3fa41b545cc3d401	0.03927100784668625
230	0xbf9ebc835a9dad12	-0.03001599541259476
231	0x3f8fbe1cd30ebda1	0.015499329749075143
232	0x3fa00b56f26d5ce3	0.031336514561809435
233	0x3fab277d1f718d58	0.053035650337529716
234	0x3fac1dedef234881	0.054915843431119
235	0x3fafab58e6fce124	0.06185415095973415
236	0x3fa325ff49e376f7	0.03739927079162258
237	0x3f8b7150a70800e7	0.013399725053205148
238	0xbfa1974759fffba2	-0.03435729001647948
239	0xbfa86d2f920691cd	-0.04770802171268294
240	0x3faa481280000000	0.05133111774921417
241	0x3fa5ed122919b55f	0.04282433273042829
242	0x3f6f964ea4e2c9be	0.0038558517472548617
243	0xbfa589a434afeb79	-0.04206574576524864
244	0x3fa190f282897c14	0.034308985171030454
245	0xbfa0114e8aeaddf9	-0.031382040460297085
246	0x3f8a205ad4657a44	0.012757024390052447
247	0xbface875128c039b	-0.05646100856211619
248	0xbfacd080872e16f5	-0.05627824449679323
249	0xbfaced87d5080c75	-0.056499714617552245
250	0x3faf2afd30a28001	0.060874855219708486
251	0x3f925db258cc0198	0.017935549421055436
252	0xbfa47129775d7ba6	-0.03992585737318359
253	0xbfae64ebb2f31dfa	-0.05936371383137025
254	0xbf8e7a1b79b2ff9a	-0.014881338740792494
255	0x3f9c70b48244cc77	0.027773685885403823
