python/snapshot0.pt (torch_old, 586867 bytes, 6 tensors)

layer0.weight f8 [256, 19]
00000000: f016 e439 9e2b a0bf 20d2 378c c343 9d3f
00000010: 3ffa 86f1 3695 c63f c15b 90e7 8250 84bf
00000020: 10e9 1bc6 0a60 ac3f aeed bd46 2698 c5bf
00000030: 2ce8 ea1b 6629 5e3f 9b07 4055 e47b c33f
00000040: 7bcf ad16 2efd b43f a3a5 50c1 e113 bebf
00000050: 7ba9 645f dc72 c33f 5e7f 49ae 2aa7 b4bf
00000060: 730b f29c 5dd8 b2bf 730b f23c 6b09 bbbf
00000070: 3fa4 6f18 677b 8b3f 20d2 378c 535d 9f3f
00000080: 2446 d037 9029 c73f 6089 dd9b 744f b5bf
00000090: b03d 1c86 6b51 cc3f c29b 3dd8 f026 ca3f
000000a0: 3e64 c207 ec42 ccbf 3e64 c287 0a9a c3bf
000000b0: 8337 7b30 6fdf b13f 7dc8 84cf b40d b4bf
000000c0: 1895 02f6 b719 c23f 6384 1974 aff5 c93f
000000d0: 5fbe b15f 7904 c43f fab8 6abd 9a86 8dbf
000000e0: 0ed8 baa0 3678 c73f 92a1 dc59 1881 913f
000000f0: 0916 7fa0 0ded c6bf 3151 6217 c3ce 9cbf
00000100: 3e64 c207 0b07 c2bf 10bc d983 f5a9 873f
00000110: c29b 3d18 3175 cb3f 1d1e f332 2ffe c13f
00000120: c721 62fb eca5 abbf 3d81 add7 8f8d b43f
00000130: 0000 0000 aa3d 923f 0000 0060 cc5a c4bf
00000140: 0000 0080 3ce2 ab3f 0000 0080 eda6 a73f
00000150: 0000 0080 9fc5 a4bf 0000 0080 42f6 c2bf
00000160: 0000 00c0 b2e7 c1bf 0000 0020 72a2 c8bf
00000170: 0000 0000 dfdb 9a3f 0000 0040 6df6 b03f
00000180: 0000 00c0 361b bd3f 0000 00c0 eb95 b7bf
00000190: 0000 0000 f707 95bf 0000 0040 1ef2 b3bf
000001a0: 0000 00a0 c808 c13f 0000 0040 ac81 b3bf
000001b0: 0000 0000 b6f0 84bf 0000 0060 fc6e c3bf
000001c0: 0000 0000 8c56 80bf 0000 00c0 3636 c1bf
000001d0: 0000 0060 86a7 c93f 0000 0040 8964 b03f
000001e0: 0000 0000 d71b 9a3f 0000 0080 bc94 c3bf
000001f0: 0000 00a0 ae9b c43f 0000 0080 3121 aabf
00000200: 0000 00c0 315d c8bf 0000 0000 b03d 663f
00000210: 0000 0040 dba7 b03f 0000 0060 247d c43f
00000220: 0000 00a0 e1d4 ccbf 0000 0000 4cf2 7f3f
00000230: 0000 0040 d687 b43f 0000 00e0 a912 c63f
00000240: 0000 0040 d60c b6bf 0000 0000 f44f 83bf
00000250: 0000 0000 06bb c5bf 0000 0040 ee15 bc3f
00000260: 0000 0040 2bf8 b3bf 0000 0000 eaa8 b0bf
00000270: 0000 0040 5937 b4bf 0000 0080 4df5 ab3f
00000280: 0000 0060 3516 cabf 0000 0020 955e c53f
00000290: 0000 0040 03c9 ba3f 0000 00e0 9340 c4bf
000002a0: 0000 0000 d975 9f3f 0000 00c0 f3c3 b1bf
000002b0: 0000 0040 1b44 cbbf 0000 0000 a062 7bbf
000002c0: 0000 0040 47b0 b53f 0000 00e0 3ec0 c53f
000002d0: 0000 0040 04b8 b93f 0000 0060 730f c73f
000002e0: 0000 00e0 94c8 ca3f 0000 00c0 fa6e b5bf
000002f0: 0000 0000 696e 9b3f 66de d1b1 4f30 c4bf
00000300: 4043 5cdc 6faf b63f 9ccc 3b3a eec0 7cbf
00000310: 66de d131 e036 c0bf d40c 7171 ab2b 983f
00000320: a13d a868 a8b9 8cbf f677 b46f 2224 c83f
00000330: 4b2a 098e b784 6e3f b64d 3535 68e7 c2bf
00000340: 41a7 24c5 092f a43f d4da c084 3e0b c0bf
00000350: 5f8b d0aa b457 75bf 0130 d1f6 7024 cd3f
00000360: 66de d1f1 aeaf c8bf 4043 5cdc a4e6 b23f
00000370: 9a21 2eae 56c3 c53f ff13 6eb2 ffef c83f
00000380: 33ab 142a 8a18 b73f 8fd4 b7cc 20ab cb3f
00000390: 7fce 8e22 ffa7 a53f a7b3 a3c8 8f06 c23f
000003a0: 7fce 8e22 f489 ab3f a7b3 a348 cce7 c23f
000003b0: a7b3 a308 f900 c73f e09c fa8f 3e87 c03f
000003c0: 7328 0293 98b7 713f 5994 eb79 7d04 cb3f
000003d0: afce 551a 2d0c c5bf 25d9 813d 6c8a c73f
000003e0: e1fc 4a70 de96 c0bf 7f29 a4fc 5f2e c83f
000003f0: 6768 b6d4 eebe c73f 594c 5c17 4eed c3bf
00000400: 7fce 8e22 6594 ad3f 8131 71dd ba18 a6bf
00000410: 4279 d80b 85ba c13f 21a7 aeec eeac af3f
00000420: 79bf 8b97 e0e6 92bf 0000 0000 a0cf 99bf
00000430: 0000 0060 3600 cabf 0000 00c0 ba1a b33f
00000440: 0000 0080 db1c a7bf 0000 0060 a769 c23f
00000450: 0000 0000 83bf 9a3f 0000 0020 f4b1 ccbf
00000460: 0000 0020 98dd cabf 0000 0040 4efd b93f
00000470: 0000 00c0 c513 cdbf 0000 0040 49b8 be3f
00000480: 0000 0000 75f9 b2bf 0000 0080 2b04 a53f
00000490: 0000 0000 1470 913f 0000 0080 fe89 a8bf
000004a0: 0000 0020 7c92 c53f 0000 0000 5372 adbf
000004b0: 0000 0000 c520 98bf 0000 0000 b490 7f3f
000004c0: 3e98 9906 dfd1 b83f 23cc 4cc3 4d01 c53f
000004d0: 3e98 9986 1047 be3f c267 6659 e983 bebf
000004e0: dd33 b37c 8dac c5bf ef7c 5c6e 1a51 b8bf
000004f0: 1ca2 1527 250f 983f 48e0 1afe 3a8c 933f
00000500: f45d 0bc9 9d3f b0bf 53b8 da51 d70f c03f
00000510: f80e bfa2 b96a c7bf ee6c 0e41 20cb c03f
00000520: 7cda 0cb6 38d7 cc3f 3e98 9906 7f91 b53f
00000530: 287c 6696 8364 73bf f660 661a ea4a 993f
00000540: 77b9 c310 9e45 c0bf b99c 9098 8aef ca3f
00000550: d20e 0779 2b7d cb3f 79e3 ee55 fab3 c23f
00000560: f58d bb57 4610 af3f 0b72 44a8 7126 a5bf
00000570: 79e3 ee15 0afc cc3f 871c 118a 326b c3bf
00000580: e959 1286 916b 99bf 3677 5d99 1025 b43f
00000590: ddb6 c5f9 d942 c5bf fc4a cb7c 83d3 c4bf
000005a0: 681d de87 dfe6 a7bf 502a fa09 2b6b adbf
000005b0: b20f b78c 9b86 c23f a58d b6ba d4ff a53f
000005c0: 871c 11ea d310 cbbf f1c6 ddab 130b bd3f
000005d0: 871c 11ca b338 c1bf f1f2 143e 0549 c1bf
000005e0: 27a7 56c5 788d ca3f d973 cc56 233e ca3f
000005f0: b248 6d6c 0614 c5bf 6445 6a63 dea9 9fbf
00000600: b248 6d2c 3214 c9bf 45dd 4ace e61f a43f
00000610: 6191 da58 456f b1bf 8415 f517 5d38 b7bf
00000620: 6cdd 05db d9e0 c1bf bff0 963b 566e c13f
00000630: d0a8 897d d3b7 cabf f3e4 ecdb c63c b03f
00000640: 9ab8 fe7d 34aa c1bf 2e0b ca53 abf3 bd3f
00000650: 08e5 7408 3a61 ad3f 9cba 959c 7376 993f
00000660: 45dd 4ace b07f ab3f 4eb7 92b3 7600 c03f
00000670: 6706 6528 2f94 adbf 7113 cf2b c5e0 be3f
00000680: 3d68 cb35 8e6f b7bf 1539 711d 679c ae3f
00000690: 3b4e 5c07 df96 c53f b31b 3b8a 5516 81bf
000006a0: 7263 47d1 4a99 bbbf 3b4e 5cc7 7243 cb3f
000006b0: 2b97 7a8b 5121 c03f 2b2d f8db 8b08 ab3f
000006c0: e37b 24e6 1b70 cbbf 8f31 ae6a 3142 bc3f
000006d0: 126d 65a8 efcb babf 6533 4671 c9f0 a9bf
000006e0: 4184 0fd5 6ecf bbbf e33c 4dd2 1b8d af3f
000006f0: c5b1 a3d8 1262 cbbf 7263 4771 496c bcbf
00000700: c5b1 a318 d3c0 c0bf 54a1 3ba9 0043 c9bf
00000710: 240a 3ecb 0d7c c63f 29b5 f362 b803 be3f
00000720: eb59 801b 8c72 c83f 244c ff88 0a0c b1bf
00000730: 15a6 7fe4 22de c9bf 244c ffc8 332e b2bf
00000740: 6fcf 02dc 6439 9e3f 2f35 d289 1936 c8bf
00000750: cad6 96ea 03e4 c13f 031c 9c21 d184 cbbf
00000760: 55b7 eee1 15d2 c0bf 2ba4 c8ba eb44 bdbf
00000770: 5d52 8547 3474 b63f a6a1 c477 1fb6 c23f
00000780: 6ebb 13b5 d1b4 c8bf 4d98 fe91 7182 aabf
00000790: dcb3 0037 1e93 b43f 244c ffc8 9670 b0bf
000007a0: 3c9b 8415 b1ac a13f b9da 4601 11bf ca3f
000007b0: cadc 7ae6 8f52 9a3f b778 151a ad32 c73f
000007c0: 191d aa17 1606 a8bf 75f1 2ab4 1843 b13f
000007d0: 75f1 2a34 7f45 b53f e7e2 5568 1a93 ae3f
000007e0: 75f1 2ab4 86c3 bd3f 8b0e d54b a448 b2bf
000007f0: b778 151a 40a0 c03f 4987 eaa5 4942 ccbf
-0.03158277947117749 0.028578811104994384 0.17642866891215367 -0.009919188205499087 0.05542024296114978 -0.16870573476977085 0.0018409249457094308 0.15221838152507136
0.08198822072682603 -0.11749087304692422 0.15194277437087664 -0.08067576174789567 -0.07361397821118291 -0.10561247098853048 0.01341896575282153 0.030629449303846923
0.1809559128310393 -0.0832436447649676 0.22123474167208945 0.20431337889314533 -0.2207922971618092 -0.1531384623420155 0.06981558736444353 -0.07833414141058088
0.14140986931048682 0.2028102223294211 0.15638653919767173 -0.014416893868965708 0.1833561215223089 0.01709402130578181 -0.17910929047336335 -0.028132484724282484
-0.14083993796228528 0.011554639898546909 0.21451390918374896 0.14056959140565164 -0.054000287710610766 0.0802850629384055 0.01781335473060608 -0.15902094542980194
0.054460421204566956 0.04619543254375458 -0.04057024419307709 -0.14814025163650513 -0.1398833692073822 -0.19245745241641998 0.026229366660118103 0.06626017391681671
0.11369650065898895 -0.0921313613653183 -0.020538195967674255 -0.07791317999362946 0.13308055698871613 -0.07619740068912506 -0.01022474467754364 -0.15182451903820038
-0.007977575063705444 -0.1344669759273529 0.2004249542951584 0.06403405964374542 0.025496825575828552 -0.15297657251358032 0.1610010415315628 -0.05103449523448944
-0.19034406542778015 0.0027149617671966553 0.0650612860918045 0.1600690335035324 -0.2252466231584549 0.007799431681632996 0.08019770681858063 0.17244456708431244
-0.08613337576389313 -0.009429842233657837 -0.1697700023651123 0.10970963537693024 -0.07800550758838654 -0.06507742404937744 -0.0789695531129837 0.054605886340141296
-0.20380274951457977 0.16694892942905426 0.10462971031665802 -0.15822075307369232 0.03072299063205719 -0.0693962424993515 -0.21301594376564026 -0.006685853004455566
0.08472104370594025 0.1699293702840805 0.1004641205072403 0.18015901744365692 0.20924626290798187 -0.08372466266155243 0.026788368821144104 -0.1577243440876714
0.0886144555081616 -0.007019930435251311 -0.12667467529876147 0.023604086684156325 -0.01402598924053572 0.18860273794501808 0.003725393777391594 -0.14768698308999512
0.039421372714356646 -0.1253431461534179 -0.0052105958284610334 0.22767459918611624 -0.1928614311943761 0.0738318479527722 0.17002376084225262 0.1948241826286505
0.09021819617616415 0.21615991588592862 0.04229733750198949 0.140825245827185 0.053786877840505724 0.14769891306732782 0.17971718713616022 0.12912733106825325
0.004325481408281917 0.2110745282472262 -0.16443408761880593 0.18391182902605255 -0.12960415347149648 0.18891525112151084 0.1855143107066539 -0.15567947521830908
0.057772789448248034 -0.04315742447997462 0.13850462988279771 0.06186625136554214 -0.018458852052332973 -0.02520608901977539 -0.20313148200511932 0.0746266096830368
-0.0451420396566391 0.14384929835796356 0.02612118422985077 -0.22418071329593658 -0.2098875194787979 0.10152138769626617 -0.22716590762138367 0.1199994832277298
-0.07411891222000122 0.041047438979148865 0.017029106616973877 -0.04792781174182892 0.1685328632593155 -0.05751284956932068 -0.023562505841255188 0.007706359028816223
0.09695238028652484 0.1641022876370651 0.11827185903675372 -0.11920031006448453 -0.1693283900152939 -0.09498753733031483 0.023495274076966152 0.019089624175393533
-0.06347070844946484 0.12548343178554208 -0.18294449278447877 0.13119891335086414 0.22531803979082443 0.0842513457406264 -0.004734529508282605 0.024699838506053028
-0.12712455576497536 0.21043522309739673 0.21475737962292968 0.14611748882250788 0.06067104168849006 -0.04130892924351678 0.2264416319938183 -0.1517089056162357
-0.024824403579794128 0.07869056457772391 -0.1661026448813833 -0.16270488351309342 -0.04668329747715455 -0.05745825287620632 0.14473289843419718 0.04296746043408043
-0.21145104340596196 0.11345026918368341 -0.13454291693253514 -0.13504090815867856 0.20744237552326547 0.20502130258765197 -0.1646736173084427 -0.03092143518239733
-0.19592883271486056 0.039305889780218574 -0.06810410899430998 -0.09070379099747156 -0.13967440790632268 0.13617971334122633 -0.20873492841503216 0.06342738026878063
-0.13800674583530254 0.11699934764514516 0.057382405788709845 0.024865919525320565 0.05370857732980964 0.12501415031641233 -0.05777118080233095 0.1206172210650729
-0.09154595197051747 0.059787008613613114 0.16866672381785172 -0.008343380242321041 -0.10780780419680783 0.21299586042788285 0.12601680098048837 0.05279957828687495
-0.21435879456927784 0.11038502554419537 -0.10467431889758341 -0.0506651831411549 -0.10863392545390217 0.061623448773952004 -0.21393046930405837 -0.11102732673260876
-0.1308845396337245 -0.19735725653959924 0.17566082405035488 0.11724426666088007 0.19099570601311142 -0.06658998341235695 -0.20209156186255997 -0.07101749093207893
0.029515815666584396 -0.1891509936289508 0.13977097467948446 -0.21499075070479998 -0.13141130000934234 -0.11433289823675412 0.08771063562500943 0.14618295047808977
-0.19301816312460168 -0.05177645594749034 0.08036984293785515 -0.0642179718700367 0.03452065837546178 0.20895588457434203 0.02570557445752967 0.18123401425959226
-0.04692143477319117 0.06743006132723457 0.08309168838144905 0.059716058002725884 0.11626474283815987 -0.07142092563031548 0.12989045404078123 -0.2207729396951044

layer0.bias f8 [256]
00000000: 8df4 0de3 e4d0 b73f c29b 3d18 03bc c43f
00000010: 0000 0080 223b a33f 0000 0000 0094 40bf
00000020: 0000 0000 7e14 b6bf 6a86 b8b8 2ad2 a93f
00000030: 594c 5c57 691e c5bf 0000 0000 201c 6bbf
00000040: 23cc 4c83 21a5 c13f 871c 11aa e61d cabf
00000050: 9cba 959c 0306 9b3f 7263 47f1 d9d5 b3bf
00000060: dcb3 00b7 928c b43f 8b0e d50b 5114 b5bf
00000070: 44e5 db56 a401 c53f 9092 2036 6bcc a6bf
00000080: 11f0 fc84 c550 a1bf 82a9 4ed4 6543 88bf
00000090: 92b5 796f 33c3 b2bf 8603 c1ed 7684 a53f
000000a0: b937 1aaf ec9d cc3f 0000 0020 a168 cb3f
000000b0: 2e3f 0a89 4e13 cb3f 0000 00e0 54a4 c13f
000000c0: 2b4e 4467 99ad ca3f 7187 c47d 0f37 cc3f
000000d0: 0000 0000 9aa8 a6bf 0000 00e0 822b cc3f
000000e0: 3a9e e9d0 dc2e aebf e12f 58f0 7e8e 8cbf
000000f0: 658c 5626 ce26 c1bf 4911 07c5 c437 c6bf
00000100: dd0e f036 883e b8bf 0000 0080 afc8 acbf
00000110: 0000 0000 0999 9dbf a6ee 0b46 b092 b2bf
00000120: 03da 4d38 e1e4 b73f b77a 5dc6 8ad9 c43f
00000130: eef8 a3fe e485 c5bf 7a02 0431 e534 b83f
00000140: c593 a58e f10f b03f 9b2e c390 a1ab c1bf
00000150: 04b5 5df3 3eec 98bf 0000 0080 b53b a03f
00000160: 0000 0080 254d a53f b742 421e 7ebc 7ebf
00000170: 81b5 8a48 560a b3bf 3bf9 d6bb 27bc ae3f
00000180: 0000 0080 71a6 a73f 0000 0040 8af9 c2bf
00000190: 55cd 8824 93ac 993f d9e0 ae5b 6c40 c1bf
000001a0: 0000 00c0 986f b43f 58f3 640c 5b74 b73f
000001b0: abc0 4b54 fb49 ca3f 0000 0020 ec37 ca3f
000001c0: a75e efa4 4f1d bcbf 882f c8fb dca6 9b3f
000001d0: a618 926d 6883 c83f 02f9 777d de85 b23f
000001e0: 68b1 1a4c da03 c9bf ea7a 2430 5087 bb3f
000001f0: 75f6 9569 eacb a53f a5df f205 0996 cb3f
00000200: 0000 00a0 1812 c33f 05f4 ddaa fcb4 9abf
00000210: fb31 9198 28a2 b3bf ec9c bc56 d556 c0bf
00000220: 0000 0060 6448 c9bf cea7 d86c 1a99 cb3f
00000230: 0000 0080 a28b ab3f b366 a9db 6cdd c1bf
00000240: 32ba 775d b74e a5bf 5a48 2fed bc3b c7bf
00000250: 0220 40a8 3747 c03f 0000 0080 6823 a73f
00000260: 0c11 c508 9b1a b2bf cfa4 9e39 7a17 aa3f
00000270: 0000 00c0 5393 ba3f 0000 00c0 90a0 bd3f
00000280: 152e b387 b711 c73f 0000 0000 1e95 c9bf
00000290: 0000 00a0 dcb3 c5bf 0000 0000 2a1f 9cbf
000002a0: 884b 6013 a36e c23f af07 d2f3 b950 a7bf
000002b0: 84a5 b83f 81d9 b3bf 0000 0040 4984 bfbf
000002c0: 0868 13d8 21e7 cbbf 0000 0000 6345 babf
000002d0: 0000 0020 a305 cd3f bc1b af51 cd22 cb3f
000002e0: 0000 00a0 77a7 c0bf 66e5 f05f ea5b c0bf
000002f0: 0000 0020 fea5 ccbf a5fa 817c 2984 b5bf
00000300: 0000 0000 50fd 75bf 0000 0000 b355 9b3f
00000310: 0000 0020 efe9 c53f 0000 0020 db32 c73f
00000320: 0000 0040 3e55 b5bf 2215 50f6 d7f1 b33f
00000330: 6e25 8146 371b c13f 0000 0040 4d39 c4bf
00000340: 0000 0000 385e 70bf 0000 0000 7a8f ccbf
00000350: e756 9bfa f1eb 9bbf 2ece a4d6 afff c43f
00000360: 92f7 c082 c504 b33f 71a2 3e40 354b cc3f
00000370: 0000 0060 b66e c43f 58c6 77a9 ea37 c43f
00000380: 1fff 199d d839 ba3f 6a6d a7f4 e159 b9bf
00000390: 0270 7202 d7bd adbf e9cd 1439 11c9 b5bf
000003a0: 9aaa 7073 26e5 c6bf acd4 0f48 66d7 c0bf
000003b0: 79b1 7e7d 13b7 9cbf 9c0b 637f eedd afbf
000003c0: 663f 8cc7 1985 b4bf 0edf 222d 7897 a7bf
000003d0: 728d de7f e251 c5bf 0000 0000 51a7 983f
000003e0: 7818 bc60 c6e7 c7bf 8144 4033 c5f4 9cbf
000003f0: 0000 00e0 a3fe c53f 53dc 2d32 3a23 c03f
00000400: 489e 4b58 a406 ca3f 69c4 c899 3bbb 9abf
00000410: f067 885a f639 cdbf 46d4 f324 c0e9 c0bf
00000420: 0000 0080 32e6 ab3f 0000 0000 3b10 c0bf
00000430: e5ad 8fc7 a139 b53f 0000 0080 428c a8bf
00000440: 0000 00c0 e9cd c0bf 475f cb03 2eee b53f
00000450: 0000 0000 31fd 90bf 0000 0000 0388 babf
00000460: 2ba6 3023 3868 babf ee7c 9c78 c186 bcbf
00000470: b88b b7f8 d80c be3f 7ea4 3c51 2c3b a83f
00000480: 0000 00e0 44bf c03f 0000 0000 00fa 64bf
00000490: 0000 0060 98e6 cc3f 0000 0000 d4d0 9cbf
000004a0: e0c2 4c97 caaa c5bf c9f0 79e0 7cb1 c83f
000004b0: e24b c7f0 06c7 9d3f 9dfb b09d 32eb a0bf
000004c0: 5a08 2a7d 3652 ae3f 6a3b be01 faa4 c03f
000004d0: 9f0b c727 7dbb ad3f 249f 0af4 479b 96bf
000004e0: 0000 00e0 1de9 cb3f 148e b089 33a9 bf3f
000004f0: 0000 0020 445d cc3f 0000 0020 2ba9 cbbf
00000500: 4807 908d 89be c13f 05c7 ac0d 763c ccbf
00000510: 0000 0080 9c5c cbbf b232 8193 d77c b6bf
00000520: 0000 0080 3c7f a23f befa c9a4 d92a c4bf
00000530: f35e e40a 4025 9f3f fbb4 ce5b bfd2 b7bf
00000540: 780e 056f 0667 a33f 67eb 7c74 5808 ccbf
00000550: 0000 0000 53bb 9e3f 3be8 2425 d128 cabf
00000560: 5a4f 5326 91de cbbf 0000 0080 9410 a73f
00000570: 89fd 2dec ba50 aa3f c126 8ce7 e67f c2bf
00000580: 0312 3361 3b2a c73f 0000 0040 baa8 b03f
00000590: 0c3a 1b1f 01b0 bd3f 5f5c 00f8 e972 b9bf
000005a0: 5924 6e08 0b31 9bbf 5acb 8816 86f3 c13f
000005b0: 0000 0000 6edc 83bf 9828 6b82 ead1 b63f
000005c0: a8f3 8815 91ad c6bf 5b96 139e 7bff a13f
000005d0: 66e0 a10a 9fad 993f 0000 0000 9697 873f
000005e0: dd0f 9f85 7e09 cb3f 0000 0000 87ec 96bf
000005f0: 9d50 1ac9 80b1 c83f 468e 7c97 3a4f b8bf
00000600: 503c e4fd ccba c3bf 0000 0000 b3b5 b4bf
00000610: 0000 0020 b1e5 cb3f 0000 0080 57f0 c7bf
00000620: 0c8c c32e 2b37 c0bf 0000 00c0 df68 bdbf
00000630: 0000 00a0 ac7e c53f 0000 00e0 2016 c23f
00000640: 036f 7e87 122c cabf 0000 0000 a088 a7bf
00000650: 24eb d893 ac83 af3f 0000 00c0 8095 b13f
00000660: 0000 0040 3969 c2bf 0000 00a0 272c c2bf
00000670: 857f 2416 d5ac 9d3f e1d7 c2b6 8633 c23f
00000680: 32d8 3de6 99df c83f c56f 606c 90b0 c33f
00000690: 0000 00e0 80ef c3bf 8883 c7a3 2adc c23f
000006a0: 0000 0060 e657 c3bf 67ae 07f4 b4e1 c73f
000006b0: 81ae 3464 af8d c8bf 0000 0000 abd0 bebf
000006c0: db3f ae9b 7a84 c23f 0000 0000 c0be 73bf
000006d0: c13e a8a2 4efc bbbf a12c 1327 9c92 c4bf
000006e0: 0000 0040 9feb ccbf 0000 00a0 b394 c5bf
000006f0: 0b8a d3fd 3c99 97bf 0000 0000 e253 c4bf
00000700: bc3a 4388 a2ad b0bf 0000 00a0 251d cb3f
00000710: 0000 00c0 fe16 b03f 95a6 438d a0ac 713f
00000720: 441f 9a05 5dfa 203f 2a24 b418 777d b83f
00000730: 211b c86f 969b c5bf 0000 0060 d0ae c0bf
00000740: 3ff6 1e9c dff3 c83f 0000 00c0 46a9 ba3f
00000750: 0000 00c0 4263 c3bf 0000 0040 782f b8bf
00000760: d688 d187 5a9a a23f 423e f6ad 22d7 bf3f
00000770: 7f1a 7f18 cbfa cc3f b878 3ee0 d61f ccbf
00000780: 4a44 578d 2b29 cabf 0000 0040 0ff4 be3f
00000790: 0000 00e0 6778 c0bf d5ad 5c0d 89c7 8dbf
000007a0: d1a3 e26e a214 cdbf 4c5b 9070 60ff c5bf
000007b0: 0000 0000 0cae 7b3f d14c 6de2 e64c a43f
000007c0: 030a ebe5 8ec4 c6bf 7fd5 9034 3bfa cb3f
000007d0: 979f 2053 81b2 b6bf c05f 6ed8 07f0 c83f
000007e0: ad9c 0592 21d7 c9bf 75d9 239d 32e1 c33f
000007f0: c1be c001 bd61 c23f 90f7 cc5a fde0 bc3f
0.09303122084925715 0.16198767360330463 0.037560537457466125 -0.0005059242248535156 -0.0862501859664917 0.05043157105343428 -0.16499058499957434 -0.003309309482574463
0.1378518954385025 -0.20403750709576604 0.026390129501516854 -0.0774818624553413 0.08026997535553398 -0.08234125651238793 0.16411260834846975 -0.044528341634110125
-0.03381936310185563 -0.011847301045993634 -0.07329102965896642 0.04202624943037052 0.22356947469637392 0.21413053572177887 0.21152669612319513 0.13782750070095062
0.20842282812428556 0.22043031350136347 -0.044255077838897705 0.22007785737514496 -0.05895128297998693 -0.013943664273959601 -0.13399674293495703 -0.1735769235657563
-0.09470416394475074 -0.05621860921382904 -0.02890409529209137 -0.07255078992960282 0.09333617806064613 0.16288885770605585 -0.16814863618487358 0.09455711790725188
0.06274327976787138 -0.13805026596525213 -0.024338706592449647 0.03170554339885712 0.04160420596599579 -0.007503979348385917 -0.07437648078003713 0.06002926032987196
0.0461917370557785 -0.1482403576374054 0.02507238302696398 -0.13477854229655042 0.07982783019542694 0.09161919643970629 0.20538274398814357 0.20483161509037018
-0.10982225205168082 0.027003720157196237 0.1915102515233162 0.07235518038939762 -0.19543007579830918 0.10753346610406891 0.04257137812508641 0.21551621237244692
0.1489897519350052 -0.02608103554620202 -0.07669309353622815 -0.12764994368738003 -0.19752173125743866 0.21560983958016638 0.05379970371723175 -0.13956986165685734
-0.04161618247950506 -0.18151055890354223 0.1271733829055393 0.045192018151283264 -0.07071846927744135 0.05096036866536623 0.10381053388118744 0.11573128402233124
0.18022817731831312 -0.19986319541931152 -0.16955144703388214 -0.027462631464004517 0.1440013737306709 -0.04553776837657552 -0.07753761106200413 -0.1231122761964798
-0.21799109507156822 -0.10262125730514526 0.22673453390598297 0.2119995735976924 -0.1301106959581375 -0.1278050392591396 -0.2238156944513321 -0.08404788293590089
-0.005368530750274658 0.026694104075431824 0.17120160162448883 0.18123950064182281 -0.08333195745944977 0.0779089905118622 0.133643063951506 -0.1579987108707428
-0.003996104001998901 -0.2231285572052002 -0.027267247124504925 0.16405294399884113 0.07429155771475696 0.22104516636797514 0.15962867438793182 0.1579564406852565
0.10244516215788878 -0.09902775023458835 -0.05808898835059041 -0.0850992931707918 -0.17886810909961498 -0.13157347220081783 -0.028042130026436383 -0.062240078973921004
-0.08015595552228447 -0.04607749510745239 -0.16656142467136764 0.024075761437416077 -0.1867607090318335 -0.028277474644771153 0.17183350026607513 0.12607505273965333
0.20332769690797847 -0.026104861508603614 -0.22833136959599143 -0.1321335010940478 0.05449064075946808 -0.1254953145980835 0.08291064378834496 -0.04794509708881378
-0.1312839686870575 0.08566558449399252 -0.016590848565101624 -0.10363787412643433 -0.10315276011592604 -0.1114312095128189 0.11738353798095502 0.047326455036746914
0.1308370679616928 -0.0025606155395507812 0.2257872074842453 -0.028140366077423096 -0.1692746390122215 0.19291649780996625 0.029079540677979916 -0.03304441618865115
0.05922098424800089 0.13003468594657913 0.05807105169835513 -0.022076725263700983 0.21805165708065033 0.12367555724682006 0.22159625589847565 -0.21610011160373688
0.13862723743664618 -0.22059512775154402 -0.2137637734413147 -0.08784243918598625 0.036126986145973206 -0.15755768343293214 0.03041553560714667 -0.09305950156586455
0.03789539437505324 -0.21900468528641712 0.030011460185050964 -0.20437063516311746 -0.21772970553740373 0.04504837095737457 0.05139717228939406 -0.14452825838116293
0.1809763168913748 0.06507457792758942 0.11596686372215731 -0.09940969757768546 -0.026554272069493432 0.14024425602255058 -0.009697780013084412 0.08914056476638377
-0.17717183639061074 0.03515230469365057 0.025076375030466024 0.011519595980644226 0.21122724079589164 -0.02238665521144867 0.19291696376297277 -0.09495893667604446
-0.15413820645378218 -0.0808975100517273 0.21794714033603668 -0.1870221495628357 -0.12668361457244293 -0.1148815006017685 0.1679282933473587 0.14130030572414398
-0.20446998229896715 -0.04596424102783203 0.061551468894739864 0.06868748366832733 -0.14383617043495178 -0.14197249710559845 0.028979615665889042 0.14219745563394695
0.19432376615776686 0.1538258103545315 -0.15574656426906586 0.14734395024336444 -0.15111999213695526 0.18657552638557037 -0.1918238868032525 -0.12037152051925659
0.1446679363402826 -0.004820585250854492 -0.10931865187762481 -0.16072418125108803 -0.22594061493873596 -0.16860051453113556 -0.02304549502594892 -0.15880990028381348
-0.06514945818637846 0.21182699501514435 0.06285087764263153 0.004315020709535174 0.0001295317222693664 0.09566444733731375 -0.16881065805520115 -0.13033489882946014
0.194942427855425 0.10414545238018036 -0.15146669745445251 -0.09447433054447174 0.036333874778181105 0.1243764567100181 0.22640360542409962 -0.21972166013160233
-0.2043814125195545 0.12091155350208282 -0.1286744922399521 -0.014540739746357648 -0.22719221510240442 -0.17185597893031923 0.006757780909538269 0.03964921487809082
-0.17787348009558465 0.2185739523571719 -0.08866127280691526 0.1948251539986341 -0.20187778120018632 0.1553099887166344 0.14360773645011274 0.11280806986630254

layer1.weight f8 [256, 256]
00000000: 0000 00c0 079b aebf 0000 0040 cff3 aebf
00000010: 0000 0000 58d2 5ebf 0000 0000 1d63 813f
00000020: 0000 0040 c46a a13f 0000 0080 7984 943f
00000030: 0000 0080 749f 99bf 0000 0080 4eca 9b3f
00000040: 0000 0080 fe15 903f 0000 0080 e629 a13f
00000050: 0000 0080 7cea abbf 0000 0040 903f aabf
00000060: 0000 0000 2cd8 893f 0000 0040 90d7 ad3f
00000070: 0000 0080 f853 a7bf 0000 0040 2852 acbf
00000080: 0000 0000 68e6 a73f 0000 0000 99aa 9cbf
00000090: 0000 0040 877e a63f 0000 0040 cb7d abbf
000000a0: 0000 00c0 c329 ab3f 0000 0000 4882 753f
000000b0: 0000 0000 f4df 923f 0000 00c0 497b a3bf
000000c0: 0000 00c0 470b af3f 0000 00c0 bdb7 a6bf
000000d0: 0000 0000 c800 6cbf 0000 0000 df07 953f
000000e0: 0000 0080 26a4 afbf 0000 0000 030b 9dbf
000000f0: 0000 0080 0d38 9fbf 0000 0080 d19e 91bf
00000100: 0000 0080 3cb8 9f3f 0000 0000 c590 a6bf
00000110: 0000 0000 60d9 593f 0000 0000 c221 a0bf
00000120: 0000 0040 8450 acbf 0000 0080 83d2 9fbf
00000130: 0000 00c0 e8ec a4bf 0000 0000 9016 433f
00000140: 0000 0000 adb8 8d3f 0000 0080 5ccf acbf
00000150: 0000 0000 52c0 71bf 0000 0000 da2e aa3f
00000160: 0000 0000 ce5a 7dbf 0000 0080 7287 acbf
00000170: 0000 0000 40d3 783f 0000 00c0 ee33 a7bf
00000180: 0000 0000 4a2f 913f 0000 00c0 faad ab3f
00000190: 0000 0080 0227 983f 0000 0000 125d 9fbf
000001a0: 0000 00c0 f30a a6bf 0000 0040 80f1 acbf
000001b0: 0000 0000 4719 8e3f 0000 0080 5602 9d3f
000001c0: 0000 0080 8864 aabf 0000 0040 3079 a1bf
000001d0: 0000 00c0 34dd ad3f 0000 0080 9281 aa3f
000001e0: 0000 0000 8e6d 983f 0000 0000 9d6c 933f
000001f0: 0000 00c0 02af a1bf 0000 0000 c7b7 87bf
00000200: 0000 0040 4e26 a33f 0000 00c0 caf9 acbf
00000210: 0000 0040 4089 a4bf 0000 0000 b766 883f
00000220: 0000 0080 0562 af3f 0000 0040 3fac afbf
00000230: 0000 0000 c476 8d3f 0000 0000 d2cb 71bf
00000240: 0000 0080 6079 a23f 0000 0000 2e14 79bf
00000250: 0000 0040 ceeb a23f 0000 0000 a3bf 8e3f
00000260: 0000 0080 0ecb 913f 0000 0000 0ab5 8c3f
00000270: 0000 0040 4864 a33f 0000 0000 a1f5 97bf
00000280: 0000 0000 04ba 99bf 0000 00c0 82d5 a83f
00000290: 0000 0080 e23e ab3f 0000 0000 3866 5bbf
000002a0: 0000 0080 31c9 a3bf 0000 0000 554f 8f3f
000002b0: 0000 0000 3018 5a3f 0000 0000 5374 93bf
000002c0: 0000 0080 7c4f 95bf 0000 0080 35a6 aebf
000002d0: 0000 0040 39f0 af3f 0000 0040 b4c7 a23f
000002e0: 0000 0080 a457 adbf 0000 0000 92f3 92bf
000002f0: 0000 0080 7aa6 9dbf 0000 0040 bbb3 a8bf
00000300: 0000 00c0 a8d8 acbf 0000 0080 f884 a03f
00000310: 0000 0080 214d 9abf 0000 0000 a05b 71bf
00000320: 0000 00c0 7132 aa3f 0000 0040 0e49 a93f
00000330: 0000 0080 7166 9dbf 0000 0080 9576 9ebf
00000340: 0000 0080 e862 a03f 0000 0000 70fc 7fbf
00000350: 0000 0040 d4bb a2bf 0000 0040 5905 a13f
00000360: 0000 0000 882e 73bf 0000 00c0 b00a aa3f
00000370: 0000 0000 c938 afbf 0000 0000 7a27 97bf
00000380: 0000 0080 a8ff 92bf 0000 0040 ad3e af3f
00000390: 0000 0000 6b8b 9dbf 0000 0000 8284 84bf
000003a0: 0000 00c0 b520 aebf 0000 0000 5c2b 873f
000003b0: 0000 0080 e247 96bf 0000 0000 c071 aebf
000003c0: 0000 0080 666a a93f 0000 0040 cd8a ae3f
000003d0: 0000 0040 4898 a23f 0000 0080 1feb 94bf
000003e0: 0000 0000 4137 8c3f 0000 0000 cc43 943f
000003f0: 0000 0000 3914 a33f 0000 0000 2221 783f
00000400: 0000 00c0 ead0 adbf 0000 0000 d253 87bf
00000410: 0000 0000 38d8 90bf 0000 0000 57da 8dbf
00000420: 0000 0080 9a71 a4bf 0000 0000 4e87 92bf
00000430: 0000 00c0 6d1e a3bf 0000 0000 ed72 83bf
00000440: 0000 0080 75fc 97bf 0000 0000 0323 a03f
00000450: 0000 0000 331d abbf 0000 0000 dcf5 af3f
00000460: 0000 0080 edff a43f 0000 0080 e155 adbf
00000470: 0000 00c0 2663 ac3f 0000 0000 442b 68bf
00000480: 0000 0000 4cac af3f 0000 0000 965a 93bf
00000490: 0000 0000 5b0d 843f 0000 0000 40c4 2d3f
000004a0: 0000 0000 74c2 7abf 0000 0000 b265 a53f
000004b0: 0000 0040 0458 adbf 0000 0000 44b8 873f
000004c0: 0000 0000 28e7 a93f 0000 0080 2cd4 9c3f
000004d0: 0000 0000 43bb 83bf 0000 0000 c07e 393f
000004e0: 0000 0000 34ce 663f 0000 0000 7de7 8dbf
000004f0: 0000 0040 d135 aabf 0000 00c0 f4d8 a23f
00000500: 0000 0000 ccb0 6e3f 0000 00c0 8e7c a3bf
00000510: 0000 0000 ae57 75bf 0000 0080 bd57 92bf
00000520: 0000 0080 94ad 91bf 0000 0000 8421 66bf
00000530: 0000 0040 e308 a83f 0000 0040 4b4e a93f
00000540: 0000 0000 5df6 abbf 0000 0080 f2be 9abf
00000550: 0000 0000 6a80 9b3f 0000 0080 7d84 9cbf
00000560: 0000 0080 ca63 9dbf 0000 0000 6439 89bf
00000570: 0000 0040 44e0 a73f 0000 0080 3fac 93bf
00000580: 0000 00c0 cfe7 a63f 0000 0000 deb0 9d3f
00000590: 0000 0080 dfeb 97bf 0000 0000 5060 ad3f
000005a0: 0000 0000 abeb 833f 0000 0080 d0f5 ac3f
000005b0: 0000 0080 e4e0 a13f 0000 0080 775b 97bf
000005c0: 0000 00c0 b71c a7bf 0000 0000 e7c9 a0bf
000005d0: 0000 0040 8ded ac3f 0000 0000 5df8 a2bf
000005e0: 0000 00c0 1c8d a73f 0000 0000 a01a 933f
000005f0: 0000 00c0 76b3 ac3f 0000 0000 158c 813f
00000600: 0000 0000 fb03 9cbf 0000 0000 d179 993f
00000610: 0000 0080 204b 973f 0000 0080 c7f7 aabf
00000620: 0000 0080 259e 96bf 0000 0080 d529 95bf
00000630: 0000 0000 f1ee 813f 0000 0080 1baa ab3f
00000640: 0000 0080 609a 9d3f 0000 0000 5aae 7d3f
00000650: 0000 00c0 f266 a1bf 0000 0000 d216 8abf
00000660: 0000 0000 2c92 87bf 0000 0000 9c65 78bf
00000670: 0000 0000 bf4a 9fbf 0000 0000 7f3e a0bf
00000680: 0000 0080 bd1c a1bf 0000 0000 426c 803f
00000690: 0000 0080 e1ee acbf 0000 00c0 fa64 acbf
000006a0: 0000 0000 0dfa a4bf 0000 0000 0b35 9dbf
000006b0: 0000 0080 b749 af3f 0000 0000 dd41 84bf
000006c0: 0000 0000 408c 6cbf 0000 0000 e943 813f
000006d0: 0000 0040 8d08 a2bf 0000 0000 eaf1 9fbf
000006e0: 0000 0000 9a26 72bf 0000 0000 9315 afbf
000006f0: 0000 0040 2983 a33f 0000 0000 3ea3 73bf
00000700: 0000 00c0 e607 a2bf 0000 0000 7816 87bf
00000710: 0000 0080 874f 92bf 0000 0040 1659 adbf
00000720: 0000 0000 4167 83bf 0000 0040 efb1 adbf
00000730: 0000 0000 0816 703f 0000 00c0 909c a2bf
00000740: 0000 0000 3a2a 79bf 0000 0040 2797 ae3f
00000750: 0000 0080 dcf2 af3f 0000 0080 9b59 9d3f
00000760: 0000 0000 ee18 7ebf 0000 0000 f704 883f
00000770: 0000 0080 6aa4 9e3f 0000 0000 e38f abbf
00000780: 0000 0040 b840 a23f 0000 0000 7051 7dbf
00000790: 0000 0080 4ac0 a2bf 0000 0080 bfca 92bf
000007a0: 0000 0080 10c8 91bf 0000 0040 4f11 a5bf
000007b0: 0000 0000 3525 acbf 0000 0000 9a81 9f3f
000007c0: 0000 00c0 846f a03f 0000 0040 cb74 a2bf
000007d0: 0000 00c0 6192 a43f 0000 0000 ae23 87bf
000007e0: 0000 0000 d022 513f 0000 0000 86d9 983f
000007f0: 0000 0040 cafa a23f 0000 0000 b1f1 863f
-0.059776537120342255 -0.0604538694024086 -0.0018812045454978943 0.008489824831485748 0.034017689526081085 0.020036600530147552 -0.025022335350513458 0.027138926088809967
0.01570890098810196 0.033522799611091614 -0.05452336370944977 -0.051266200840473175 0.012619346380233765 0.058285243809223175 -0.04556252062320709 -0.055314309895038605
0.04667973518371582 -0.02799452841281891 0.043934084475040436 -0.05369410663843155 0.05305301398038864 0.005251199007034302 0.018432438373565674 -0.03804998844861984
0.06063293665647507 -0.044370584189891815 -0.003418341279029846 0.020537838339805603 -0.061799243092536926 -0.028362318873405457 -0.030487261712551117 -0.01720740646123886
0.030976243317127228 -0.044073253870010376 0.0015777051448822021 -0.03150755167007446 -0.05530179291963577 -0.03107648342847824 -0.040869973599910736 0.0005825236439704895
0.014512397348880768 -0.05626954138278961 -0.004333801567554474 0.05113869905471802 -0.007166676223278046 -0.05572088062763214 0.00606083869934082 -0.04531808942556381
0.01678195595741272 0.054061733186244965 0.02358631044626236 -0.030628472566604614 -0.0430523082613945 -0.05653000622987747 0.014696650207042694 0.028329230844974518
-0.05154825747013092 -0.034127719700336456 0.0583282932639122 0.05176980793476105 0.02385541796684265 0.018969014286994934 -0.034538350999355316 -0.011580996215343475
0.03740162402391434 -0.056593261659145355 -0.04010964184999466 0.011914663016796112 0.06129471957683563 -0.06186101585626602 0.014386683702468872 -0.004344768822193146
0.03608228266239166 -0.006122760474681854 0.03695530444383621 0.015013955533504486 0.017376162111759186 0.014017179608345032 0.03787446767091751 -0.023397937417030334
-0.025123655796051025 0.04850395768880844 0.05321414768695831 -0.0016723200678825378 -0.03864435851573944 0.015288032591342926 0.001592680811882019 -0.01899842917919159
-0.02081102877855301 -0.05986182391643524 0.062379635870456696 0.03667987138032913 -0.057309284806251526 -0.018507272005081177 -0.028955377638339996 -0.048246242105960846
-0.056340478360652924 0.03226448595523834 -0.02568485587835312 -0.004237771034240723 0.0511661097407341 0.049385495483875275 -0.02871110290288925 -0.02974923700094223
0.03200460970401764 -0.007809102535247803 -0.03658927232027054 0.03324393182992935 -0.004683047533035278 0.050862811505794525 -0.06098011136054993 -0.022611528635025024
-0.01855338364839554 0.06102506071329117 -0.028852149844169617 -0.01001836359500885 -0.058843307197093964 0.011313170194625854 -0.02175859361886978 -0.05946159362792969
0.04963989555835724 0.059652723371982574 0.03631807118654251 -0.02042817324399948 0.013777263462543488 0.01978987455368042 0.0372636616230011 0.005890972912311554
-0.05823453515768051 -0.011390343308448792 -0.016449809074401855 -0.014576606452465057 -0.03992922604084015 -0.018094271421432495 -0.03734152764081955 -0.009496547281742096
-0.023423992097377777 0.03151711821556091 -0.05295714735984802 0.06242263317108154 0.04101507365703583 -0.057295843958854675 0.05544396489858627 -0.002950318157672882
0.061861395835876465 -0.018900245428085327 0.009791098535060883 0.0002271011471748352 -0.006533101201057434 0.04179149866104126 -0.05731213837862015 0.01158192753791809
0.05059170722961426 0.028153128921985626 -0.009634517133235931 0.00038902461528778076 0.0027838721871376038 -0.014601685106754303 -0.051191844046115875 0.03681149333715439
0.003746412694454193 -0.038059674203395844 -0.005210570991039276 -0.01791282743215561 -0.01726371794939041 -0.0027015283703804016 0.046942807734012604 0.049425460398197174
-0.054613977670669556 -0.026119031012058258 0.026857048273086548 -0.027849160134792328 -0.02870098501443863 -0.012316495180130005 0.04663289338350296 -0.01921176165342331
0.044737331569194794 0.028995007276535034 -0.0233607217669487 0.057375431060791016 0.009726844727993011 0.056562915444374084 0.03491891920566559 -0.02280985563993454
-0.04514097422361374 -0.03279039263725281 0.05649987608194351 -0.037051111459732056 0.045998476445674896 0.018656253814697266 0.05605670064687729 0.008567966520786285
-0.02735893428325653 0.02487875521183014 0.022747524082660675 -0.052671656012535095 -0.02208765596151352 -0.02066739648580551 0.008756525814533234 0.05403219163417816
0.028909213840961456 0.007246352732181549 -0.03398855775594711 -0.012738838791847229 -0.01150926947593689 -0.005956277251243591 -0.030558571219444275 -0.03172680735588074
-0.03342239558696747 0.008018985390663147 -0.056510016322135925 -0.055457912385463715 -0.04097023606300354 -0.028522655367851257 0.06110928952693939 -0.009891249239444733
-0.0034848451614379883 0.00843030959367752 -0.03522149473428726 -0.031196266412734985 -0.004431344568729401 -0.06071147322654724 0.03811005502939224 -0.004794351756572723
-0.03521653264760971 -0.011273324489593506 -0.01788150519132614 -0.057320304214954376 -0.009474284946918488 -0.057998158037662506 0.003927260637283325 -0.03635074943304062
-0.006143786013126373 0.05974695831537247 0.06239975988864899 0.02866213768720627 -0.007347993552684784 0.01172821968793869 0.029924072325229645 -0.05383214354515076
0.03565002232789993 -0.007157742977142334 -0.03662331402301788 -0.018351547420024872 -0.0173647478222847 -0.041147686541080475 -0.0549713671207428 0.030767828226089478
0.03210081905126572 -0.0360473170876503 0.0401793047785759 -0.011298522353172302 0.0010458976030349731 0.0242672860622406 0.03706962615251541 0.011203177273273468

layer1.bias f8 [256]
00000000: 0000 0000 7fae aebf 2b9b fd92 9ce3 a7bf
00000010: f13a 70ab 7114 a73f 5199 fe33 d590 a33f
00000020: faf0 66c2 b292 753f 65aa 8b15 6b93 823f
00000030: c3df 7405 5015 a83f 6978 f0f1 4405 a73f
00000040: 4e5d defa 773e acbf 0000 0000 71d5 8abf
00000050: e6ff 56aa 886a a2bf 0000 0000 bcc7 8abf
00000060: 0000 0000 725f 99bf 0000 0080 6340 9abf
00000070: 5ae3 a90b 8744 a3bf 9f4a 49e4 2749 aebf
00000080: 0000 00c0 6206 abbf 0000 0000 b623 a83f
00000090: 90cf b44f 8f27 a1bf 9214 b28d 603f a8bf
000000a0: 7d85 d275 a04e ae3f 42f9 6489 6c3d a5bf
000000b0: f7ee 63d8 186a ad3f a0df e7b8 2f93 a73f
000000c0: 35c5 22f8 5970 763f 0000 0000 60cc 483f
000000d0: 0000 0000 074f 88bf 70b1 d021 290c a33f
000000e0: 23de 653a 9768 a13f 69ec 3028 941c a93f
000000f0: 1213 ebd8 86cb a1bf 5fe9 45f7 cd9a 913f
00000100: 7ab2 15be c86e a6bf 0000 0000 5874 5dbf
00000110: 0000 0000 ac53 93bf 2680 8ad5 a910 abbf
00000120: 0000 0000 8643 97bf 4c1d 491a 27af 73bf
00000130: e92f 7304 5de7 a9bf 0000 00c0 0983 a7bf
00000140: b5c3 344c 6e40 853f 0000 0080 88b9 a73f
00000150: 2a01 0fbf 31f4 a8bf 0000 0080 c554 a43f
00000160: 0000 0040 0493 a6bf 642b 05ff 5400 a9bf
00000170: 6952 95f5 3e73 853f 2776 9de7 df6c 8ebf
00000180: a978 9a35 a23f 9c3f b15a 5914 a28c 3e3f
00000190: c519 61ce edeb a63f 0000 0000 35cf 96bf
000001a0: 0000 0000 f617 853f 0ea7 fbf1 3215 6bbf
000001b0: c9f6 bc01 3567 acbf 0000 0080 f36e a3bf
000001c0: f726 6cd7 dfbf 72bf 0000 0080 83d3 98bf
000001d0: 1795 4b60 e3fd a43f 75f8 984a db28 a13f
000001e0: 05de 67a1 7d4f acbf 5e7d a4f8 3c38 a93f
000001f0: 3188 525b 8e21 953f e0cc 93e0 5cef a6bf
00000200: 0000 00c0 ae14 a2bf 0000 0040 a46f acbf
00000210: 0000 0040 cbe6 ad3f 0000 0000 f9ca 9abf
00000220: f4c0 a33b 0269 abbf 0000 0000 5009 9c3f
00000230: 0000 0040 9aa0 a63f 0000 0000 e4c2 613f
00000240: 08c4 90f7 1150 7cbf 3ac0 4835 0811 a3bf
00000250: 0000 00c0 12a8 a6bf 0000 0000 a9b1 aa3f
00000260: 0000 0000 5e44 84bf 3f16 271e d18c adbf
00000270: b645 f61e a0b7 8b3f 5cc9 eef8 4f43 ad3f
00000280: 0000 0000 dd3a 8dbf 4641 3719 b0e7 abbf
00000290: 6dad e43e 8e51 933f 0000 0080 dc58 a23f
000002a0: 0000 0000 1dea aebf f150 ef0d badc 95bf
000002b0: 9e0b 2a81 159e a43f 4721 a41e cd70 acbf
000002c0: 0000 0080 72b4 a3bf 0bf1 9715 3592 7a3f
000002d0: 0000 0000 f977 a63f 05d0 1a8e 24c8 adbf
000002e0: c1e6 fcf4 4338 acbf 7681 a5d6 b556 9dbf
000002f0: 0000 0000 dc92 71bf 4a20 4531 fc6d afbf
00000300: eaf5 26f9 133f 503f 1ec4 22b3 0370 903f
00000310: 0099 a7f3 5a60 a0bf 247e 4790 eea9 a83f
00000320: 0000 0080 47fc 99bf 0000 0080 f525 a53f
00000330: 099a 6a4a 4862 943f 0000 0000 df9e 813f
00000340: 329e 8835 4ebd 513f 11d5 44b8 b00e 93bf
00000350: 60af 3b58 dd3d a2bf 0000 0000 4421 62bf
00000360: 73f6 3be1 fc87 88bf 1487 6b64 b88e a93f
00000370: 7f01 8255 6281 a8bf 6627 f7a8 7d9d 213f
00000380: 0000 0040 6274 a6bf 0000 0040 a18b a4bf
00000390: 0000 0080 1e07 a3bf 0000 0080 f1f7 a0bf
000003a0: 6275 2acd 9942 4f3f c8fa 56a6 009f a4bf
000003b0: a7a2 f6c3 21ae 8b3f 0000 00c0 2610 adbf
000003c0: 0000 0040 e092 a2bf 0000 0000 ccc3 6f3f
000003d0: d8c8 4d40 ddf4 a9bf 0000 0000 4bb9 acbf
000003e0: 0000 0000 58ef a0bf 1b8b 842d 68e3 acbf
000003f0: 7f7c ef93 4b5c 973f cbb0 0ff3 2997 6bbf
00000400: 54ac 5a3c 198d 93bf 1f56 5013 6191 a3bf
00000410: 92ce 5674 e6fd 99bf 0000 0080 81f5 9abf
00000420: 0000 0080 c5b3 9abf 0000 0080 aefe 9abf
00000430: 0000 0040 1fdb ab3f 0000 0040 2242 a5bf
00000440: 507c 13e8 2cc6 a13f c377 26da ed03 9abf
00000450: fe6a 27d5 1c68 733f 0000 00c0 8adc a5bf
00000460: 482f 183f c2d4 a23f 7eec ec76 504c af3f
00000470: f28c 76c0 ebd6 a83f 993d 758b 96cb 7bbf
00000480: 0000 00c0 f7ea a7bf 0000 0040 585c a83f
00000490: 38c7 2674 2d6f af3f 67ff 3a6c 9bd7 9dbf
000004a0: 0000 0080 d2e6 ac3f b298 e0d6 0645 a0bf
000004b0: 0000 0000 3a82 903f 0000 0080 78ab 95bf
000004c0: 240c bd01 586f ae3f 5612 fd52 6473 893f
000004d0: fcc6 591c 5ad0 6fbf 0000 0000 473e a8bf
000004e0: 7b07 c903 7dc9 a03f 7664 b244 166e acbf
000004f0: 0000 0000 785f 59bf f802 a66b 6cb7 a33f
00000500: 0000 0000 8ae2 853f dcaf ab94 5400 acbf
00000510: 007d f8ed 8d4a a6bf 21a2 62df d5c6 a0bf
00000520: cbe8 9e4d e28b 88bf 0000 0000 de4e af3f
00000530: 0000 0000 10d5 843f b21e 3ff0 88c1 acbf
00000540: 83a8 88ac c1cf 69bf 0000 0000 06ec 74bf
00000550: cea6 378d 01f8 a2bf cec5 82ef a7ea 9a3f
00000560: d202 258f 3eeb afbf 8ab4 f9ea 2bf6 893f
00000570: 3c33 9a91 857f ad3f 0000 00c0 df8b acbf
00000580: 0000 0080 166f 91bf 0000 00c0 076b a9bf
00000590: 8a06 0741 6eeb 9abf 0f1b 800e 8581 93bf
000005a0: 0000 0000 d4bf 733f e865 45d9 953e 9abf
000005b0: 19d0 bc50 cbde a4bf 096f 844c 2c08 a83f
000005c0: 0000 0000 c444 96bf 667e 9886 6222 aa3f
000005d0: 9e79 d5f1 78c0 863f c66c 6c4f 5383 9abf
000005e0: 07e1 1fd2 6328 a53f a13d f68f 0ef1 83bf
000005f0: e9f7 440a b86d a3bf 0000 00c0 96e9 aa3f
00000600: a292 ca30 59ed a1bf 0000 0000 5661 8bbf
00000610: 45c5 d049 5f64 87bf 0000 00c0 30d1 ad3f
00000620: acf0 e78b f255 aabf 0000 0040 4053 a7bf
00000630: ad7c d7ff b495 9fbf fee5 5311 15c2 91bf
00000640: 0000 0080 c341 9f3f c8cc e179 dd61 a9bf
00000650: 0000 0000 00a9 a9bf 4998 3a5f 1468 97bf
00000660: 823e 8e51 69a0 a3bf c384 bc22 6fec 9e3f
00000670: c3ff 365a 0481 7ebf 3b57 ae56 65db 883f
00000680: 4a96 51d9 c826 a1bf 0000 0000 b261 8e3f
00000690: c0bd f1ec 1074 ab3f f0e2 9566 10ae a73f
000006a0: 26b4 2c49 7f28 933f 3c14 5e13 3f09 9d3f
000006b0: 144e 7e62 4ef4 a43f 0000 0000 6884 9fbf
000006c0: 9b90 331d d0ac 973f 19b6 dfda d321 a83f
000006d0: 0000 0000 2f98 aebf 574a 644a 1f30 9a3f
000006e0: 5422 fc58 80ce 7dbf 0000 0040 c147 a43f
000006f0: 0000 0000 2433 63bf 0000 0040 9bbf a33f
00000700: 0000 0080 83d6 a0bf 5a78 d8d4 c62e 9ebf
00000710: 9b39 9889 9d0d 923f efe7 93cd d13f a03f
00000720: c0ec ae11 f221 a33f bd95 9858 e8bf a33f
00000730: f631 c5e0 da21 9ebf 0000 0000 1e23 903f
00000740: 0000 0040 710a a03f afa8 4b5b e004 ab3f
00000750: 0000 0080 772c ac3f 0000 00c0 a7b6 af3f
00000760: 0000 0000 8b5f a33f 0000 0000 ca1f 8a3f
00000770: b460 2fe9 8fc1 a0bf 40ae 2667 c500 a7bf
00000780: 0000 0080 1248 aa3f 9d7a 6a9b 916a a63f
00000790: 0000 0000 1034 703f a282 4c5f fa3a a5bf
000007a0: 0000 0040 7dc4 a13f 562c 75b9 5c15 a0bf
000007b0: 8dac 341c e6ac 8b3f 09b7 8629 408f acbf
000007c0: 0000 0080 328f acbf 0000 00c0 d588 acbf
000007d0: 0000 0040 7c54 ae3f 1ed4 36ca e3f1 933f
000007e0: ac5f 4323 19a4 a4bf d1fc 4f01 cfcb adbf
000007f0: fe1a 88d8 f4be 8abf c9bd 2964 02f9 9c3f
-0.05992504954338074 -0.04665841383284993 0.045077850511111246 0.038214361760128164 0.005266855505791529 0.009070240588205889 0.04703760210617205 0.04496207669602443
-0.05516409814225175 -0.013102419674396515 -0.035969038766324776 -0.01307627558708191 -0.024778157472610474 -0.025636248290538788 -0.03763219849947204 -0.05915188466737686
-0.052783094346523285 0.04714745283126831 -0.03350494239785384 -0.047358529373959915 0.05919362486134625 -0.04148425271204072 0.057450081267203794 0.046044818231109064
0.005478240435125505 0.0007567852735519409 -0.011869482696056366 0.03720215356620116 0.034001088980343284 0.049046163469449074 -0.03475591085365272 0.017192095010139293
-0.04381396599169292 -0.0017977580428123474 -0.018873870372772217 -0.05286150676442984 -0.02271851897239685 -0.0048057105491986045 -0.050593287270743144 -0.04592161625623703
0.010376798344255403 0.04633738100528717 -0.048738054821571744 0.03970925509929657 -0.0440903976559639 -0.048830658083338446 0.010473720426184845 -0.014856099372703003
0.02758649303597652 0.00046614605921517076 0.0447687448909622 -0.02227480709552765 0.01029960811138153 -0.003306006910737908 -0.0554749073621515 -0.037955865263938904
-0.004577516918979666 -0.024244360625743866 0.04099951315383004 0.033514836174149666 -0.05529396624836739 0.04925718817889434 0.020635818790317898 -0.0447949432508723
-0.03531404584646225 -0.05553925782442093 0.0584014430642128 -0.026164904236793518 -0.053535527973396585 0.027379274368286133 0.0441940501332283 0.002168126404285431
-0.006912298377799615 -0.03723931932870568 -0.04425104707479477 0.05213668942451477 -0.00989602506160736 -0.05771497242998835 0.013533831543813029 0.05715417779664975
-0.014272429049015045 -0.05450201328096908 0.01886579760427536 0.03583420813083649 -0.06037989258766174 -0.021349818325533346 0.04026858522140418 -0.05554810523068681
-0.03848607838153839 0.006487090454808229 0.043884068727493286 -0.058167593333024604 -0.055116771369694735 -0.028651086069090913 -0.004290446639060974 -0.06138599492493364
0.0009916014720227025 0.016052301224309777 -0.03198513244915269 0.048171477424827 -0.02537643164396286 0.04130522906780243 0.019906167547242535 0.008603803813457489
0.00108273160561535 -0.018610726591949126 -0.035628239651343874 -0.002213127911090851 -0.011978126166918934 0.04991699434118693 -0.04786212247654741 0.000134393300397935
-0.04385668784379959 -0.040127791464328766 -0.037163689732551575 -0.03314165771007538 0.0009539843543568234 -0.04027559309496592 0.013515723984555207 -0.05676385015249252
-0.03627682477235794 0.0038775429129600525 -0.050696291064825594 -0.05610117316246033 -0.03307604789733887 -0.056422477299085304 0.022813015846506076 -0.003367978985343444
-0.019092935856559315 -0.03821853028072674 -0.025382614947103983 -0.02632715553045273 -0.02607639878988266 -0.026362158358097076 0.054406143724918365 -0.04152018576860428
0.034715083436588245 -0.025405613365016465 0.004737961413833201 -0.04269822686910629 0.03677947063633141 0.06112910701491446 0.048514716381100956 -0.006785953584155812
-0.04671453684568405 0.047579534351825714 0.06139509241928781 -0.029142788391936316 0.05644853413105011 -0.031776632051604095 0.016121774911880493 -0.021161921322345734
0.059443235599723004 0.01242712381611814 -0.003883529660748118 -0.047350138425827026 0.03278723403174318 -0.055527397046895396 -0.0015486404299736023 0.03850878538196939
0.010685995221138 -0.05469002070262238 -0.043537555026199826 -0.032766994017326086 -0.011985557550236689 0.06114858388900757 0.010172009468078613 -0.056164054228756824
-0.003150823850110619 -0.005107901990413666 -0.037048386085940174 0.026285766595440845 -0.06234164712305347 0.012676566227322068 0.05761353876469008 -0.055754654109478
-0.017025329172611237 -0.049644701182842255 -0.02628872177024858 -0.019048766145739523 0.004821613430976868 -0.025629369150328346 -0.040762284856470106 0.046937355366223406
-0.021746695041656494 0.051043585710655745 0.011109299545464076 -0.025891591761234144 0.04132377567288086 -0.009737123268478256 -0.037946463826742 0.052563391625881195
-0.03501394959065364 -0.013369247317314148 -0.011421913566752049 0.05823662132024765 -0.05143697698437796 -0.04555702954530716 -0.030844524493542625 -0.017341927702522845
0.030524305999279022 -0.04957477677171479 -0.05011749267578125 -0.022857969581899593 -0.038333216863176936 0.030198799605504655 -0.007447258950776306 0.012137214381975894
-0.03349902775589138 0.014834776520729065 0.05361988918673033 0.04624987842811901 0.01870917209742031 0.028355584675882492 0.04092640831290964 -0.03077852725982666
0.02312016657096248 0.04713308378982734 -0.05975481867790222 0.02557419673491731 -0.007277013166238595 0.03960994631052017 -0.0023437216877937317 0.03857121616601944
-0.03288660943508148 -0.029475313893378853 0.017630063555822067 0.03173690447324861 0.037368359240156135 0.0385735138081986 -0.029426021546258917 0.01575896143913269
0.031329669058322906 0.052771578926539824 0.05502675473690033 0.061940424144268036 0.03783831000328064 0.012755945324897766 -0.03272676202294758 -0.044927758065878454
0.05133111774921417 0.04378180524985462 0.0039559006690979 -0.04146559155765785 0.03470221906900406 -0.03141298068893465 0.013513372169276639 -0.05578041560089104
-0.05578000843524933 -0.05573146790266037 0.05923832207918167 0.01947742387502071 -0.040314469866358976 -0.05819556132336746 -0.0130595329838008 0.028293645251719988
