python/snapshot0.pt (torch_old, 586855 bytes, 6 tensors)

layer0.weight f8 [256, 19]
000000 63 32 7b 0d c5 18 93 3f 69 33 a1 7c c0 51 b5 bf
       0.018649176547841494 -0.08327868502347048
000010 51 66 af 01 88 98 c7 3f 97 cc 5e 83 5b f7 b2 3f
       0.18434238512309034 0.07408687550814573
000020 fa 92 d9 6b 00 46 61 3f ff 08 06 9b 4b 57 cc 3f
       0.002108574698285512 0.2214140421820687
000030 73 31 13 62 40 a1 b3 bf 41 66 f0 60 8b e2 c1 3f
       -0.07667925257118728 0.13972608788826515
000040 2b a7 17 6b f9 4a ba bf 00 2d 46 82 49 ef b6 3f
       -0.10270651688156522 0.08958873205681428
000050 da 9b db 2b c9 52 bd bf 24 25 16 a4 36 92 c3 3f
       -0.11454446144817557 0.15289958011661853
000060 76 c9 ec 35 b4 3d 75 3f 51 66 af 41 4e 90 cb 3f
       0.005185798595265792 0.21534136016161878
000070 d5 66 42 79 db 7f ab bf 51 66 af c1 33 d2 c5 3f
       -0.05370984893052159 0.1704773612716957
000080 f7 43 88 18 2c aa a1 3f e0 fa 71 dc f3 1c b5 3f
       0.03450143622843165 0.08247303134883621
000090 fa 6b a1 d4 e3 d4 c3 bf 7f 84 c1 2c 6d 7d a7 3f
       -0.15493438608504545 0.04587880297982227
0000a0 1b 61 30 8b bd 3a c8 3f 1b 61 30 4b 2b 41 c6 3f
       0.1892926149018955 0.1738638035901737
0000b0 f0 08 83 59 7f f4 91 3f c7 3d 9f a9 01 7e bc bf
       0.01753424629055983 -0.11129770651972769
0000c0 3f 56 c9 9d b2 2a aa 3f 9a ee cc 50 a5 37 c3 bf
       0.05110700775246046 -0.15013567395532307
0000d0 e1 f0 ec bb e6 68 c8 3f 90 3a 45 fe fa ab 95 3f
       0.19070133377125045 0.021163865823207006
0000e0 4a ce 7d e5 18 00 c6 bf 73 d9 5d af 4e a3 94 3f
       -0.17187796788822346 0.02015421815254954
0000f0 39 c2 60 16 27 97 bf 3f 1b 61 30 0b a8 c3 c4 3f
       0.12340015693985941 0.16222096010529516
000100 f0 08 83 59 3a 19 9a 3f 1b 61 30 0b 9b ea ca 3f
       0.02548686190926558 0.210284595931406
000110 e5 9e cf 74 bb 76 cc bf 1d dd ca 8a 0a 95 a4 bf
       -0.22237342075026514 -0.04019959396594628
000120 45 0d 65 05 65 de 69 bf 84 d0 81 23 b8 33 c8 bf
       -0.00315780382803302 -0.18907834752792863
000130 fa c6 7c 7c 80 79 be 3f 82 63 3e be 55 5b c0 3f
       0.11904147185557781 0.1277873209881158
000140 82 63 3e be 64 67 c5 3f fa 8d f9 f8 a8 b2 aa 3f
       0.16721782006495906 0.05214431800120774
000150 06 39 83 63 9d 97 bc bf 92 0f 46 87 d0 b8 cc bf
       -0.11168845824724735 -0.22439009289894024
000160 bb 5c db 5c ec 76 53 bf b0 6a 48 0e 26 df bf bf
       -0.0011880214910229686 -0.12449872826293062
000170 91 a2 b9 e3 59 d6 bc bf 44 5c 5c d2 a0 de ba 3f
       -0.11264573869415019 0.10495953689347554
000180 b9 8b 20 3d 94 f5 bd 3f b4 27 61 f9 18 ea ad 3f
       0.11702848904000875 0.05842664760764596
000190 82 63 3e fe 51 57 cc 3f 82 63 3e fe b7 cf ca 3f
       0.22141480364077998 0.20946407236331416
0001a0 7e 9c c1 01 7d 05 c6 bf 82 63 3e fe 30 9e c2 3f
       -0.17204248986965703 0.1454526177810998
0001b0 6b 23 02 0d 9d d7 c3 bf 90 a5 97 29 61 d9 b6 bf
       -0.15501750121282085 -0.089254448561084
0001c0 6d f0 4e bc 0d 01 ca 3f 00 00 00 00 e9 24 c2 bf
       0.20315715498680068 -0.14175140857696533
0001d0 00 00 00 20 ae 31 c2 3f 00 00 00 00 e0 d7 40 3f
       0.14214111864566803 0.0005140155553817749
0001e0 00 00 00 40 60 dd b5 bf 00 00 00 00 82 2d 85 3f
       -0.08540917932987213 0.010340705513954163
0001f0 00 00 00 40 17 ae b9 3f 00 00 00 e0 f1 a3 c7 3f
       0.10031266510486603 0.1846906989812851
000200 00 00 00 00 c7 04 c1 bf 00 00 00 60 17 34 c9 3f
       -0.1329582929611206 0.19690220057964325
000210 00 00 00 20 4c de cb 3f 00 00 00 80 de 18 a1 bf
       0.21772147715091705 -0.03339286148548126
000220 00 00 00 a0 8a 94 c0 bf 00 00 00 00 78 0b ca bf
       -0.12953312695026398 -0.2034749984741211
000230 00 00 00 60 a6 91 c9 3f 00 00 00 40 49 2c ca bf
       0.199757382273674 -0.2044765055179596
000240 00 00 00 80 10 50 a6 bf 00 00 00 c0 b6 43 b0 3f
       -0.0435795933008194 0.0635332316160202
000250 00 00 00 60 11 7a bd bf 00 00 00 80 1e 9f cc bf
       -0.11514385789632797 -0.2236059308052063
000260 04 39 7a 56 87 02 b3 3f e9 1b 17 a6 54 95 9d bf
       0.07425733433976595 -0.028889963757844504
000270 17 e4 e8 59 d9 da 90 3f fc c6 85 e9 b2 53 b3 bf
       0.016459842789320413 -0.07549589349016722
000280 83 1c 3d 2b 11 48 c0 3f d8 99 f5 65 63 de c0 3f
       0.12719931231751866 0.13178675154195107
000290 2e c5 e6 51 69 ed bf bf 38 dc 60 ad ab 99 b8 3f
       -0.12471636056468036 0.09609482748861431
0002a0 6f 80 f8 16 ea 27 c5 bf 7c 24 99 ab 79 b5 b8 bf
       -0.16528059121720015 -0.0965190929356527
0002b0 13 fc 4f 4b e0 8e c9 3f 6f f9 79 94 9a 1d ca bf
       0.19967273404469718 -0.2040284371359564
0002c0 83 1c 3d 6b 4f 4a c0 3f 04 39 7a d6 50 56 bc 3f
       0.1272677682520432 0.11069207416787569
0002d0 04 39 7a 56 e8 c0 b9 3f fc c6 85 29 54 05 b5 bf
       0.10059978591218416 -0.08211256040319975
0002e0 05 6f 96 6f f4 5e a2 3f 76 24 02 13 7a 9b b9 3f
       0.03588069784311013 0.10002863849708085
0002f0 0b dd 6e 62 ac 11 98 bf 7b fb f4 bd 8d 90 bb 3f
       -0.023504918582799166 0.10767446410771513
000300 bc 7d fa 1e 78 e0 c9 3f bc 7d fa 5e 00 a0 c2 3f
       0.20216275704022546 0.14550785672780175
000310 44 82 05 61 d0 9d c0 bf 7b fb f4 3d b3 78 b7 3f
       -0.12981610047701697 0.0916854883443942
000320 b3 80 98 fb c4 09 92 3f 93 57 d3 2b 09 48 a6 bf
       0.017615392547782615 -0.04351833972911758
000330 e7 3e 72 57 96 6b b3 3f fd eb f5 70 26 97 c9 bf
       0.07586040148657568 -0.1999252368512713
000340 99 ca 61 7c 80 a9 c2 3f bd a3 de 5f 22 17 c2 3f
       0.14579778741206864 0.1413310020555211
000350 4f 44 ae 2a e3 fd c7 bf 44 82 05 41 68 3f c5 bf
       -0.1874355276491166 -0.1659975354659925
000360 44 82 05 a1 22 c8 c2 bf eb ed d3 f7 ce 77 9e 3f
       -0.14673264372233252 0.029753908039294712
000370 fa f6 e9 7b e1 c8 a8 3f 12 a5 e3 9c 8d fc a2 bf
       0.04840759885426667 -0.03708307781364274
000380 b6 c0 69 6b 23 03 b5 bf 38 ba d9 2a 05 1b c6 3f
       -0.0820791375388151 0.17269959060964069
000390 ea d3 68 d4 f2 4d a5 3f 00 35 1a 75 b9 df c8 3f
       0.04161032526864246 0.19432752817048282
0003a0 00 35 1a 35 4e ab c6 3f 00 35 1a f5 20 ba c0 3f
       0.1771028289116785 0.13068019836320133
0003b0 fa 69 34 ea e1 dd b6 3f 54 84 a6 c1 85 5c c1 3f
       0.0893231579579278 0.1356360621985312
0003c0 c9 cc 9e af 7a ba cb bf 3a 26 8a 4c 34 54 cc bf
       -0.21662839484415589 -0.22131971108710663
0003d0 e3 8e 90 62 f8 af b8 3f bf cc 24 b6 5b 50 c6 3f
       0.09643509298671975 0.17432733911264184
0003e0 58 aa e3 d7 8f 6e c1 3f c0 2a b6 c8 ee f4 c2 3f
       0.1361865810534535 0.14809975433703038
0003f0 fa 69 34 ea 86 f7 b0 3f e8 a7 d1 a8 5f 9d 9e 3f
       0.06627696245087825 0.029897207907573803
000400 00 cb e5 6a 81 fa c2 bf 00 cb e5 8a 0c 41 cd bf
       -0.14826982230768948 -0.22854763776884823
000410 c0 02 0d e0 79 97 cc 3f 82 f9 35 29 e2 92 a6 3f
       0.2233726829527054 0.04408938172399514
000420 46 c8 e8 82 84 b0 a1 bf 00 00 00 80 bc cd c3 bf
       -0.034549847583904156 -0.15471607446670532
000430 00 00 00 80 47 22 b0 bf 00 00 00 00 9b 30 b9 bf
       -0.06302306056022644 -0.09839791059494019
000440 00 00 00 40 26 bd b3 3f 00 00 00 40 61 e0 c8 bf
       0.07710494101047516 -0.1943475306034088
000450 00 00 00 c0 1e f6 b8 3f 00 00 00 40 e6 d4 b6 3f
       0.09750549495220184 0.08918608725070953
000460 00 00 00 00 0d 9e b5 bf 00 00 00 a0 e2 50 cd 3f
       -0.08444291353225708 0.22903092205524445
000470 00 00 00 a0 5b c1 c9 bf 00 00 00 00 54 46 7d bf
       -0.2012133151292801 -0.007147148251533508
000480 00 00 00 80 f0 69 a8 3f 00 00 00 00 3f 75 9c bf
       0.04768325388431549 -0.027791008353233337
000490 00 00 00 00 7c 5a a1 bf 00 00 00 80 02 2b b2 bf
       -0.033893465995788574 -0.07096877694129944
0004a0 00 00 00 40 fb 38 be 3f 00 00 00 80 0b 24 af 3f
       0.11805696785449982 0.06082187592983246
0004b0 00 00 00 a0 4e 7a c4 bf 00 00 00 60 42 48 c8 bf
       -0.15998251736164093 -0.18970517814159393
0004c0 b6 e3 14 30 45 e0 ca 3f 6e c7 29 60 65 9e b4 3f
       0.20996918533071857 0.0805419311307369
0004d0 b6 e3 14 30 f1 7f c8 3f b6 e3 14 30 7e 80 c7 3f
       0.1914044842503963 0.18360879276022296
0004e0 b6 e3 14 30 af 64 c7 3f 76 43 55 34 14 40 c1 bf
       0.18276014182791095 -0.1347680335552714
0004f0 41 d1 1f 93 2e 64 b4 bf ca 08 49 4e db 97 c4 3f
       -0.07965365497495204 0.1608842975857157
000500 23 93 be 82 d0 7a ca bf 88 87 c3 8a e5 50 c5 3f
       -0.20687300094609737 0.16653126979423072
000510 a4 f6 ed 0d 82 63 b7 3f db 58 2a cf ec d0 c2 bf
       0.09136212196423316 -0.14700088611124937
000520 b6 e3 14 b0 44 d7 c3 3f b6 e3 14 70 b8 b1 c6 3f
       0.1550069675229488 0.1772985980294643
000530 6e c7 29 e0 ba a1 be 3f 92 38 d6 9f 4b 68 b5 bf
       0.1196553036950527 -0.08362267162576334
000540 a2 5a 41 05 06 b2 ae 3f 7f ef 29 b1 ac ee c2 3f
       0.05995196165229301 0.14790877008988088
000550 3e 7c 40 c6 66 27 a4 3f c0 0f f4 90 71 36 69 3f
       0.039363109303160546 0.003077718552619374
000560 3b d0 43 c6 dc 1c c9 3f 3b d0 43 c6 fb 37 c7 3f
       0.19619331055548792 0.181395980652839
000570 13 fc c2 9b 41 be 85 bf f9 40 0f 19 6a 51 a1 3f
       -0.010616791311234086 0.033824267920524016
000580 88 ed 70 9a 9a 35 c0 bf 3b d0 43 86 3c 6c c8 3f
       -0.12663586178846864 0.1908031135168374
000590 42 ab 3a 89 e0 6d c6 3f b5 0c 83 28 a7 23 c4 bf
       0.17522818279879898 -0.15733804205055937
0005a0 80 a0 87 0c ab 2f b8 3f dd 07 7a c8 70 37 74 3f
       0.09447735839751381 0.00493568473723546
0005b0 80 a0 87 0c 30 86 ba 3f c5 2f bc d9 48 96 c6 bf
       0.10361004167464394 -0.17646132117840643
0005c0 80 5f 78 33 4d fc b4 bf c5 2f bc 19 c7 c1 c2 bf
       -0.08197481638523918 -0.14653862721058722
0005d0 c5 2f bc 39 ca 8f ca bf 64 cc b0 2c 51 a7 cb 3f
       -0.20751312083336707 0.21604361231001967
0005e0 fe 04 a5 2e b6 7e 87 3f f4 e1 a8 1b c8 91 ca bf
       0.011472152040939761 -0.20757390356608563
0005f0 d3 e2 5d 8f b4 22 c8 3f d3 e2 5d 0f ad 46 cd 3f
       0.18855912208871092 0.2287193608315393
000600 2d 1d a2 70 9c aa c6 bf d0 d2 21 0a e5 ea 82 bf
       -0.1770816373793677 -0.00923708855791841
000610 d3 e2 5d 0f 3e f8 c0 3f d1 64 68 ba 9b 92 aa bf
       0.13257575750664916 -0.05189978266225526
000620 81 4e 8f a9 77 6e b3 bf e5 f2 55 b4 d9 65 c0 3f
       -0.0759043492283187 0.1281082277818292
000630 a6 cd 7b a4 8c d7 bd bf fc 08 f8 da 58 ee ba 3f
       -0.11657027259553007 0.10519938798828216
000640 2e d1 b3 30 36 15 ca bf 2d c5 de 53 31 03 93 bf
       -0.20377232912108795 -0.018566866630583313
000650 4d 8b 77 3d 8f 6b a5 3f d3 e2 5d 0f 5d 64 ca 3f
       0.041836239102642205 0.20618785143212523
000660 a0 c5 bb 9e c1 e4 bf 3f 2d 1d a2 90 dc 3b c7 bf
       0.12458429456071096 -0.18151433050318513
000670 26 c5 2d 36 bf 81 c6 3f fa d9 3e 34 a2 0d bf 3f
       0.17583456178139406 0.12130178237462266
000680 ee ec 92 ec 39 09 a6 3f 00 00 00 80 01 8f ba bf
       0.043039140823987285 -0.10374459624290466
000690 00 00 00 80 f0 08 c5 bf 00 00 00 20 75 30 c9 3f
       -0.16433531045913696 0.19679130613803864
0006a0 00 00 00 80 f5 ab b5 bf 00 00 00 00 d6 ca 98 bf
       -0.08465513586997986 -0.024211257696151733
0006b0 00 00 00 40 d2 fd b4 bf 00 00 00 60 60 8d c1 3f
       -0.08199800550937653 0.13712696731090546
0006c0 00 00 00 20 14 2f c0 3f 00 00 00 00 86 b8 c8 bf
       0.1264367252588272 -0.1931312084197998
0006d0 00 00 00 a0 84 eb ca 3f 00 00 00 00 dd 31 9a 3f
       0.21031244099140167 0.025580838322639465
0006e0 00 00 00 00 4e 7f 8b 3f 00 00 00 c0 b9 6f b4 3f
       0.013426408171653748 0.07982979714870453
0006f0 00 00 00 80 2c 83 b4 bf 00 00 00 00 e9 13 93 bf
       -0.08012655377388 -0.01863063871860504
000700 00 00 00 00 3c 6a 86 3f 00 00 00 60 f5 f7 c8 3f
       0.01094481348991394 0.19506709277629852
000710 00 00 00 c0 11 c5 c8 bf 00 00 00 c0 b5 86 bf 3f
       -0.19351407885551453 0.12314926087856293
000720 c2 1b 64 7e 63 c0 b7 bf e0 0d 32 9f 20 0a c8 bf
       -0.09277936778754195 -0.18780906460970836
000730 5c bc 41 e6 d7 5d 7d bf 32 de 20 f3 99 bc 80 bf
       -0.0071695741245170995 -0.008172228557767534
000740 8b 37 c8 7c d8 62 af bf 93 5b 90 aa 6a 95 c3 3f
       -0.06130100749224628 0.15299733475032137
000750 8b 37 c8 7c 88 61 af bf 5b f6 64 5c 0a 12 cd 3f
       -0.06129099391192402 0.22711305152363334
000760 52 0d 3b 13 9f e0 c5 bf 20 f2 cd 80 dc a5 c8 3f
       -0.17091740073201805 0.19256168641358418
000770 e7 90 6f 06 a2 93 9c 3f 20 f2 cd 00 d2 21 c5 3f
       0.02790692486077342 0.1650946144035439
000780 e0 0d 32 bf 83 d4 c6 bf c2 1b 64 de 95 db bb bf
       -0.17836043201178509 -0.10881935767621001
000790 75 c8 37 03 c7 ee a6 3f 8b 37 c8 fc 3b ac ae bf
       0.044790476935205804 -0.05990779362410511
0007a0 c8 00 65 ef 2f 65 b1 bf 38 b3 66 f7 b5 06 95 3f
       -0.06795024485200252 0.020533412194413375
0007b0 31 47 38 64 e7 ed c0 bf a0 8d 24 dd 3b 77 c3 3f
       -0.1322602500300092 0.15207622812259292
0007c0 60 72 db a2 d2 78 c4 bf be e4 b6 c5 41 13 b2 bf
       -0.15993721916210557 -0.07060633732807539
0007d0 f2 92 db 16 5e 1a 99 bf a0 8d 24 dd 14 36 c5 3f
       -0.02451464666855236 0.16571293638217544
0007e0 a0 8d 24 1d 07 54 cd 3f be e4 b6 45 01 43 bb bf
       0.2291268245981941 -0.10649116470348738
0007f0 42 1b 49 ba 48 e0 b4 3f 42 1b 49 ba fd 9e bb 3f
       0.0815473036574135 0.10789476201999285

layer0.bias f8 [256]
000000 69 33 a1 7c 9b 3f bb bf 39 c2 60 16 b7 77 b7 3f
       -0.10643932144848879 0.09167045875870707
000010 82 63 3e be 4a 1b c9 3f 00 00 00 e0 b2 18 cd bf
       0.19614538468593073 -0.2273162454366684
000020 83 1c 3d 6b c2 0f c5 3f bc 7d fa 5e a5 5b c9 3f
       0.16454344021096654 0.19810931336995263
000030 00 cb e5 8a 69 3e cc bf 00 00 00 40 34 e2 b1 bf
       -0.22065467149840146 -0.06985785067081451
000040 b6 e3 14 b0 61 a5 ca 3f c5 2f bc 19 37 07 c2 bf
       0.20817204568609576 -0.1408451915416419
000050 d3 e2 5d 4f a2 da cb 3f 00 00 00 a0 bf 3b c6 bf
       0.21760968089417662 -0.17369838058948517
000060 20 f2 cd 80 c1 d8 c9 3f a0 8d 24 5d 57 4d c2 3f
       0.2019273642471413 0.14298526809680556
000070 76 5e 94 04 16 16 b3 3f 00 00 00 c0 90 c9 c8 bf
       0.07455575572782344 -0.19365128874778748
000080 94 df a8 7a af 66 c4 bf 21 25 c8 d2 09 77 ca bf
       -0.15938371171227728 -0.206757762833413
000090 6e a7 fe 5e 87 55 cd bf 12 d7 70 94 0e 40 c3 3f
       -0.22917263163008833 0.1503923630531792
0000a0 b3 3a 2d 6b 1d 90 86 bf 00 00 00 c0 15 07 b0 3f
       -0.011017064889214145 0.06260810792446136
0000b0 d6 a8 74 d2 9a 62 c4 3f fd 93 de d5 a8 10 be 3f
       0.15925917888791358 0.11744170400068295
0000c0 45 24 e8 63 26 42 c1 3f e5 bb 63 f2 d1 89 b2 bf
       0.13483123663198363 -0.07241546790804383
0000d0 ae 70 c8 0b e6 0c b0 3f 49 9a c6 8b 13 23 c4 3f
       0.06269681728048468 0.15732044529905156
0000e0 de b1 be 48 31 40 a5 3f b8 c2 ef a0 1d 38 c2 3f
       0.04150537503241812 0.14233751638632497
0000f0 5c 79 1f 9a c3 31 b2 bf 00 00 00 00 3e a7 86 bf
       -0.07107183945433831 -0.011061176657676697
000100 00 00 00 c0 57 ce b1 3f 02 57 2d a8 e6 ad c2 bf
       0.06955479085445404 -0.1459320374657907
000110 bf 5e 2c 2f 7f 46 c3 bf 00 00 00 c0 1e 66 be bf
       -0.1505888920153122 -0.11874572932720184
000120 00 00 00 80 dd 81 aa 3f 00 00 00 00 91 bb cc bf
       0.051772043108940125 -0.22447407245635986
000130 00 00 00 a0 99 b6 cb 3f b2 1d 97 b1 d2 37 c6 bf
       0.21651001274585724 -0.17357858344460692
000140 ca 05 1d b5 0c 37 9b 3f c7 c6 07 6b 28 01 70 bf
       0.026577185205729305 -0.0039073542434253155
000150 00 00 00 00 60 71 71 bf 00 00 00 00 43 48 98 3f
       -0.004258513450622559 0.023713156580924988
000160 3a 48 64 85 a6 0b c3 3f 58 b0 97 e0 37 1f b1 bf
       0.14879304421680378 -0.06688260300842452
000170 3e 8a e1 60 06 7b a2 3f 04 cd 95 89 e5 9e c0 bf
       0.03609485561971269 -0.12984914033913963
000180 f4 24 14 8a 38 29 b9 3f fd e6 23 d4 d4 b3 a4 3f
       0.09828523036061992 0.040434504409814644
000190 00 00 00 80 a7 d2 a7 bf 00 00 00 a0 03 e3 c6 3f
       -0.04652903974056244 0.17880292236804962
0001a0 00 00 00 60 b4 f0 c1 3f 81 a0 b2 e6 a4 9e c2 3f
       0.14015822112560272 0.14546643509425297
0001b0 7d 69 77 b1 af 4f b2 bf 00 00 00 00 8a fc b5 bf
       -0.07152841646840176 -0.085884690284729
0001c0 b7 80 b3 77 8c bd bf bf 00 00 00 a0 2e 2e cc bf
       -0.12398603365318449 -0.2201593667268753
0001d0 00 00 00 00 87 1c 93 bf 9d e0 e1 45 86 50 b8 3f
       -0.01866351068019867 0.09497870641814861
0001e0 1d 85 dc c3 ac b1 bd 3f 1f 6b d2 43 c0 a4 ae 3f
       0.11599235326550113 0.05985070064453723
0001f0 dc 22 24 14 c4 96 a5 3f ee 8f 96 f4 53 cc c3 bf
       0.04216587777961475 -0.1546730942037579
000200 71 af 3e 3c 12 13 ca bf 00 00 00 e0 04 ac c4 3f
       -0.20370700780528808 0.16149960458278656
000210 00 00 00 c0 bd fc c1 bf 1f 67 25 99 2d 96 c1 bf
       -0.14052554965019226 -0.13739557245099207
000220 07 c1 61 da 4c ca 9d bf 15 1d 2d f5 db 79 7e 3f
       -0.02909202654740375 0.007440432748644162
000230 12 3d 90 00 68 ba 92 bf 5b a2 1b 28 1b 6d ab bf
       -0.01828920844496646 -0.05356678833579017
000240 c8 61 19 8c 78 23 c7 3f 00 00 00 00 7a b0 87 bf
       0.18076998558787083 -0.011567071080207825
000250 0e d4 2e 07 38 24 a2 3f d6 86 38 cd 91 e2 9f bf
       0.03543257796938103 -0.03113773169582753
000260 00 00 00 20 ca b9 ca 3f 38 9d b3 b9 f4 b0 c9 bf
       0.20879484713077545 -0.20071276729070475
000270 7a 7d fc f3 18 55 c0 bf d2 d2 fb a8 e0 61 ac 3f
       -0.12759696877854393 0.05543424666203624
000280 1f 39 7b 3d 7d 51 af 3f 9a e2 e2 9e de 02 b3 bf
       0.061168588404699735 -0.07426253680285769
000290 16 05 3a c1 d1 9b c5 bf 76 12 d5 e1 ad ef 65 bf
       -0.1688177293290571 -0.0026777645240677007
0002a0 71 1e 60 9a cc 37 a5 3f cc ed aa a6 2b 78 c9 3f
       0.04144133934465522 0.19897981298514222
0002b0 ce 5b 6e ab 2a 8a ca bf cb 21 6a b4 1e ae c9 bf
       -0.2073415124002324 -0.20062621888452123
0002c0 58 1a c8 ab 52 10 c2 3f 00 00 00 00 d2 cf 8b bf
       0.14112313640380836 -0.013579979538917542
0002d0 00 00 00 c0 bf 5b b3 bf 22 69 d7 e0 3a 0e b9 3f
       -0.07561872899532318 0.09787338246625102
0002e0 00 00 00 60 1e 16 c3 bf d3 2f 21 92 37 dc 98 bf
       -0.1491125077009201 -0.024277561468167463
0002f0 00 00 00 00 2e 60 83 bf db 3b 8c b8 8b d5 c7 bf
       -0.009460791945457458 -0.18620440016863324
000300 00 00 00 e0 f9 be bb bf db 79 03 1f 8d 38 c3 bf
       -0.10838281363248825 -0.15016330732664937
000310 e6 2c 56 08 76 a0 c5 bf 6d ce 00 cb e7 6e 86 3f
       -0.1689593830782094 0.010953722841896519
000320 1a a2 42 84 d3 1e ab bf 00 00 00 60 13 13 bb bf
       -0.05296956052308506 -0.10575982183218002
000330 00 00 00 40 a1 b4 be 3f 00 00 00 80 ef 2a a9 3f
       0.11994369328022003 0.04915569722652435
000340 2f 99 a8 f7 87 4a c8 3f cd fa 47 f8 e8 1a ba 3f
       0.18977450936035598 0.10197311460067766
000350 00 00 00 00 20 22 82 3f 00 00 00 c0 7b f9 c4 bf
       0.008854150772094727 -0.1638636291027069
000360 00 00 00 00 b8 23 82 3f 00 00 00 00 5f 7a c4 bf
       0.008857190608978271 -0.15998446941375732
000370 df fa 7f 72 46 11 c5 3f 00 00 00 a0 3a 58 c4 bf
       0.1645896967965745 -0.15894253551959991
000380 44 05 87 ae 35 1e c7 3f bc 18 9d 42 5e 03 c0 bf
       0.18060942670676117 -0.12510278942699482
000390 cb 23 1c 65 8f 3a c9 3f 2b fd 65 b8 3b 7b bd bf
       0.1970996135426318 -0.11516164066232608
0003a0 1b 60 d0 6c e7 da b8 bf f7 97 2c 32 a4 83 b2 3f
       -0.09709021002379396 0.0723211882110205
0003b0 59 81 82 fc 7b 23 a1 bf 00 00 00 c0 2c a3 c2 bf
       -0.03347384889025546 -0.1456046998500824
0003c0 8d 30 bb 2c d3 19 97 bf 91 8c f9 6f 0e 55 1e bf
       -0.022559451680351606 -0.00011570835703760193
0003d0 00 00 00 c0 15 23 ba 3f 00 00 00 00 9c 86 7e bf
       0.10209785401821136 -0.0074525922536849976
0003e0 d6 6f 1e a6 c5 01 ae bf cd 32 4a a9 c8 8b ba bf
       -0.05860726979082613 -0.10369543202450444
0003f0 00 00 00 e0 6f 68 c7 3f f6 cc 11 4e 4c 8c c7 3f
       0.1828746646642685 0.18396905719746542
000400 00 00 00 40 47 95 b9 3f 00 00 00 20 23 fc c8 3f
       0.09993405640125275 0.19519461691379547
000410 4f 65 80 c4 8b 0d b2 3f 00 00 00 80 62 a5 b7 bf
       0.07051919505501768 -0.09236732125282288
000420 00 00 00 20 80 8d c0 3f 9b 3c 63 17 58 e9 37 3f
       0.1293182522058487 0.0003648605410377454
000430 e9 5b af 4f e6 70 ae bf 00 00 00 c0 3c 8e b1 3f
       -0.059455105998203646 0.0685766190290451
000440 fb e0 96 f5 ef 06 c9 bf 24 33 f4 c2 6f 0e a1 bf
       -0.19552421085041502 -0.033313267276844166
000450 f9 2d 50 1b d3 e9 be bf 2d 58 6c 1a c2 f1 c6 bf
       -0.12075538079096039 -0.1792528752345687
000460 5b 69 e1 6d 0c 21 c0 bf 92 9e c1 1f 2a 6d c3 3f
       -0.12600856175670114 0.1517689375934777
000470 ad f0 e8 5c fc 98 c9 3f 00 00 00 00 69 dd 90 bf
       0.19998125588052088 -0.01646961271762848
000480 47 00 19 3f 5b 65 c0 3f 00 00 00 a0 8b d2 c4 3f
       0.12809315281811193 0.16267533600330353
000490 02 64 4b 03 f2 a9 bc bf 2c 7e 57 87 68 a3 b9 bf
       -0.11196816044265748 -0.10014966301195533
0004a0 bd a2 ac cf be 69 c8 3f 1a 56 36 a3 b1 0d ab bf
       0.19072709217404862 -0.052838851140375634
0004b0 0a eb 44 c3 41 e8 bb bf 94 59 12 fc a8 d3 bf bf
       -0.10901270882906658 -0.12432342676252112
0004c0 d7 dd 6c e3 48 20 c0 3f 00 00 00 40 8f 8e c5 bf
       0.125985251471987 -0.16841307282447815
0004d0 00 00 00 20 54 fe cb 3f 00 00 00 a0 94 90 c7 3f
       0.21869899332523346 0.18409974873065948
0004e0 65 1f 43 e1 86 cb c8 bf 72 7c e2 fc 53 73 cc bf
       -0.1937111473000598 -0.22226953361402796
0004f0 c5 d6 4e 53 85 3a c0 3f 5a a8 db cb 4f fc cc bf
       0.1267859131600543 -0.22644994215017072
000500 63 3e 4a 8f ac 17 a1 3f dc da e9 c7 b2 44 b7 3f
       0.03338374375482258 0.09089200382900792
000510 00 00 00 20 76 1d c6 bf ad 7a ef ed 56 54 80 bf
       -0.17277409136295319 -0.007973364959921037
000520 00 00 00 00 55 4c c4 bf ef 1c ff 3e e8 f4 c8 bf
       -0.15857946872711182 -0.19497397495272348
000530 00 00 00 40 a7 c6 bf bf 00 00 00 40 c4 8e cb bf
       -0.12412495911121368 -0.21529439091682434
000540 00 00 00 40 d8 72 bf 3f 3e ce 3a d5 ec a5 ca bf
       0.12284614145755768 -0.20818863307578
000550 38 8c 03 7f fc b8 c6 bf aa b3 5c 90 3d d6 c9 3f
       -0.17752033426140357 0.20185060070926159
000560 41 73 f5 d4 d4 80 b0 3f 92 fe eb 05 5f 64 99 bf
       0.0644658107680245 -0.024796948181573138
000570 fb b0 81 a7 d7 4f be 3f 00 00 00 80 4e 2d b3 bf
       0.11840579833523528 -0.07491007447242737
000580 fd 13 aa b6 cf 19 c0 bf 00 00 00 80 8e 61 b7 bf
       -0.12578770083578653 -0.091332346200943
000590 00 00 00 40 b8 2e bc 3f 3a ea 56 01 e4 b6 c7 bf
       0.11008788645267487 -0.18526887956052623
0005a0 f6 ac 5f d9 7f d8 c4 bf 00 00 00 00 2d 58 91 3f
       -0.16285703767730525 0.016937926411628723
0005b0 f1 db 8a d2 05 1a 9d 3f 50 87 17 4d 8b 25 92 3f
       0.028419581389893925 0.017721344547573736
0005c0 00 00 00 60 c1 5b c4 3f 33 4a 3d 24 b5 05 c6 bf
       0.15905015170574188 -0.1720491816473256
0005d0 9f 70 41 6b 8a ed bc bf 4d 18 08 23 da 16 cb bf
       -0.11299958342118764 -0.2116348906567417
0005e0 26 f7 aa 72 b8 fe b5 3f 00 00 00 c0 28 b7 b5 bf
       0.0859179763746992 -0.0848260372877121
0005f0 69 eb 28 84 75 8c ca bf 5f e2 d3 b9 f3 77 c5 3f
       -0.20741146996609963 0.16772314618698922
000600 42 1d 11 ad f3 bc c6 bf 00 00 00 20 79 40 c6 3f
       -0.17764135313539425 0.17384256422519684
000610 71 d9 86 81 26 cf c8 3f d6 14 44 17 09 8d a0 bf
       0.1938217289404736 -0.03232601555831997
000620 00 00 00 00 ff 1d b7 bf 5e 63 2e 48 a2 d9 c6 bf
       -0.09030145406723022 -0.17851665997002447
000630 00 00 00 c0 b7 b6 b8 bf 00 00 00 00 76 85 85 3f
       -0.09653805196285248 0.0105084627866745
000640 89 e5 41 e4 be 69 ac 3f 5d 9f e3 54 7a b8 c1 bf
       0.0554942754396946 -0.13844231743791627
000650 00 00 00 00 54 a0 8c 3f c3 ef 58 45 ff 55 c4 bf
       0.013977676630020142 -0.15887442480186395
000660 49 32 de af 8a bf 79 3f f2 95 04 c9 14 b8 76 3f
       0.006286184068710351 0.005546647255220348
000670 21 90 3d 65 5d 95 cb bf 9e 86 31 be 9c d5 a3 bf
       -0.2154957527483257 -0.038739107338881626
000680 0a ca 92 a6 26 8d 99 bf 10 f4 70 8b d3 ac c4 bf
       -0.024952510754426206 -0.16152424152997513
000690 4b a0 e4 7f 38 fb c7 3f 00 00 00 c0 31 2f c1 bf
       0.18735414738444187 -0.13425275683403015
0006a0 9c 41 ed c2 85 c5 ca 3f 52 50 b4 2d dd 4a a8 bf
       0.20915290849599166 -0.047446166829246864
0006b0 8d 7f 7c 9d 68 d1 8d bf 78 2f 2a 4a d7 07 c6 3f
       -0.014559571558095086 0.17211428757979852
0006c0 48 b1 e1 68 16 3a b4 3f 88 b8 73 b5 74 11 c9 3f
       0.07901134548746314 0.19584521160090085
0006d0 79 c1 70 a4 8f 8d c2 bf d5 8b 49 85 47 6e c4 bf
       -0.1449451020175834 -0.1596154595200391
0006e0 00 00 00 60 d2 96 c8 bf 37 8f aa 3f a7 3c a9 bf
       -0.19210271537303925 -0.04929087307144047
0006f0 00 00 00 80 d9 17 b7 bf a2 38 a8 b7 e5 83 c0 3f
       -0.09020766615867615 0.12902518718369033
000700 c5 5a 7e 30 43 33 a2 3f 1d ff 77 f8 f1 20 a2 bf
       0.03554735152208858 -0.035407601910263355
000710 00 00 00 00 fa b4 89 3f 00 00 00 00 b9 8f 9f bf
       0.012552216649055481 -0.030821695923805237
000720 00 00 00 60 f9 8f be bf 32 e6 7f 66 1f bf a9 bf
       -0.11938437074422836 -0.05028627515998742
000730 60 3f 77 bd d8 5e c6 bf 9c 9a 42 67 60 08 a7 bf
       -0.17476948977718632 -0.044985783200265334
000740 1f ff 18 25 78 70 c9 3f 00 00 00 80 5b 53 c0 bf
       0.19874479113968221 -0.1275438666343689
000750 00 00 00 80 ba 9a a8 3f 00 00 00 e0 fb 89 c9 3f
       0.048055484890937805 0.1995234340429306
000760 a4 c2 d1 84 78 12 c9 bf 00 00 00 20 cf fe c4 bf
       -0.1958761833698378 -0.1640261560678482
000770 00 00 00 00 3a c4 95 bf 93 ed b2 e5 b1 bb 8e bf
       -0.021256357431411743 -0.015006437132220529
000780 ee 6d a3 79 6b 07 c3 3f 00 00 00 40 6e 8f c1 bf
       0.14866393508314907 -0.13718965649604797
000790 00 00 00 a0 4c b4 c3 3f 00 00 00 a0 2f c8 c5 3f
       0.15393979847431183 0.17017169296741486
0007a0 55 f4 40 f3 1a 21 b3 bf df cb 4b d9 63 08 c1 3f
       -0.07472389639674877 0.13306854353103767
0007b0 34 77 9b 52 1d a7 b5 3f e2 45 41 71 e2 1c b5 3f
       0.08458121554164394 0.0824719931126974
0007c0 cd 4f 1c 7f 4e c5 bf bf 00 00 00 00 78 fa b0 bf
       -0.12410441020284609 -0.06632184982299805
0007d0 20 1b 6b 95 62 fc c1 3f 7e d2 b9 d6 d0 20 b7 3f
       0.1405146817762324 0.09034447901087536
0007e0 52 bf 5d 4f b5 b1 ca bf bd 68 90 f4 08 8e b9 3f
       -0.20854822516730082 0.0998235318260496
0007f0 00 00 00 00 8a 66 a7 bf 02 5f 15 24 66 fc ab bf
       -0.045704185962677 -0.05466002645942859

layer1.weight f8 [256, 256]
000000 f7 2f 5a 62 53 a5 9c bf 0a 33 bd 7a 7b 05 af 3f
       -0.027974417570064216 0.06058870194701711
000010 f5 99 73 95 7b 1d a4 3f 00 00 00 c0 e8 4b a6 bf
       0.03928743552551232 -0.043547891080379486
000020 b0 b2 1a d7 a5 21 a2 bf 32 d5 44 5e 40 d2 a3 3f
       -0.035412962444160256 0.038713466174537095
000030 6e bf ce 9a 73 80 a3 3f 00 00 00 00 32 78 9f bf
       0.03808938278905215 -0.030731946229934692
000040 33 21 1e 00 54 8e a2 3f 35 5a 2d 7a 77 2d a2 bf
       0.03624212743221946 -0.03550313345356352
000050 5e 7b d1 59 e2 2f ab 3f 00 00 00 40 67 b5 ab 3f
       0.05309970232405335 0.05411837249994278
000060 24 e5 51 66 43 b0 82 bf 9c 9e 01 c6 0b 72 93 3f
       -0.009125258026176093 0.01898973842653949
000070 0a 20 20 ef fa bf ad bf 00 00 00 00 16 8b 81 3f
       -0.05810531777393642 0.00856606662273407
000080 c7 2d cc f8 4b d2 a4 3f 20 8e 7e ec d2 de a3 3f
       0.04066693698959117 0.0388093866052055
000090 cf b3 34 cc 67 8a a9 bf bb 1d 1e 24 e1 0b 91 3f
       -0.04988407485721035 0.0166468790335139
0000a0 0b 5b 78 9f e9 5b a3 3f 00 00 00 c0 5c be a7 bf
       0.03781061240822766 -0.04637422412633896
0000b0 1a 01 f5 ef aa 6e 93 bf 0e 09 26 87 7e 27 a1 bf
       -0.01897685136396019 -0.03350444221270453
0000c0 5f 1d ba 90 0c 8e a3 3f 95 e9 ea f7 82 95 a3 bf
       0.038193123499747676 -0.03825005794847695
0000d0 b8 19 c0 0e 28 38 8a 3f d8 df 11 97 ae 79 6c bf
       0.012802422475954298 -0.0034759912455761648
0000e0 83 c2 b9 b9 7a 25 a3 bf 2b bb 77 22 4e 45 ab bf
       -0.03739532010229587 -0.053263131816370844
0000f0 08 89 e6 3e e7 e4 aa 3f 00 00 00 00 cf bd 9b bf
       0.05252764361218182 -0.02709124982357025
000100 00 00 00 00 ec df 91 bf 08 6b 45 d3 04 46 9f 3f
       -0.017455756664276123 0.030540538210838825
000110 43 c2 07 4d 51 ae 4e 3f 00 00 00 40 e3 65 af 3f
       0.0009363076188134218 0.061324216425418854
000120 00 00 00 00 a0 47 62 3f 00 00 00 00 ba 1a a8 3f
       0.002231419086456299 0.04707890748977661
000130 00 00 00 00 ad 59 8d 3f 75 3c 11 ba 1e 11 af bf
       0.01433119922876358 -0.06067749043779084
000140 c9 67 1a 4f d3 74 93 3f 9a 08 86 5e a0 68 98 bf
       0.01900034113223351 -0.023836618203411854
000150 00 00 00 c0 45 15 a5 bf 00 00 00 40 32 11 a4 bf
       -0.04117792099714279 -0.03919369727373123
000160 a4 c6 fb c2 9d 38 a6 3f a0 44 bb 5b 54 11 a1 bf
       0.043400697757431744 -0.03333533878106576
000170 1d 28 e3 41 20 66 a0 3f d3 b4 b1 b8 1b ea 77 3f
       0.03202915958679873 0.005838497435530959
000180 bf ce 50 2f 74 9c 83 bf 9b fa 51 a3 a7 ea a8 3f
       -0.009575755781134785 0.0486652743211284
000190 00 00 00 00 b2 d6 96 3f 00 00 00 00 01 cd 96 3f
       0.022303372621536255 0.02226640284061432
0001a0 00 00 00 00 9a b3 76 bf 6e 03 04 f6 33 db ae bf
       -0.005542375147342682 -0.060266135960779774
0001b0 4a fb 6d 4d 6c 2c ad 3f 00 00 00 00 80 10 3c 3f
       0.05697954602418649 0.00042822957038879395
0001c0 fc 8d 50 77 2f 15 98 3f 00 00 00 00 02 5c 90 bf
       0.023518315942181886 -0.015975981950759888
0001d0 00 00 00 00 f0 a2 4c 3f 83 ec 89 8b 8a 87 9b bf
       0.0008739158511161804 -0.02688423611332925
0001e0 ee 91 a4 a6 df c8 8f 3f 22 bb ba f0 a7 fe 96 3f
       0.015519854805980917 0.022455810611684453
0001f0 51 f3 b8 43 44 97 43 bf bf eb 6f a8 94 10 87 3f
       -0.000597866375251147 0.011262093916220793
000200 8d d2 3b 30 2c ed 9a bf 00 00 00 00 4d 37 ae 3f
       -0.02629536671061543 0.0590156614780426
000210 00 00 00 00 a5 02 87 bf d2 8e 90 c5 b5 e9 74 bf
       -0.011235512793064117 -0.005105695768211143
000220 9d 82 47 7a ad c0 a7 3f 42 e6 d3 54 88 cd 60 bf
       0.04639188878696141 -0.00205113055437492
000230 20 3c 70 a9 91 94 aa 3f 4a 9d f2 75 7a f6 ae 3f
       0.05191474145259911 0.06047423066893971
000240 ef 20 65 71 f8 ed a3 bf 00 00 00 00 0a dd 76 bf
       -0.03892494568077775 -0.005581893026828766
000250 1e 5a da dc 09 28 a3 bf c9 5f 68 44 e7 96 9a 3f
       -0.037414844712817294 0.025966275739932407
000260 00 00 00 00 58 1e 7c 3f aa 04 43 51 52 04 a6 bf
       0.006864875555038452 -0.04300172082867822
000270 7f e1 32 4d 25 12 87 3f 63 7b 5a 0c 82 6e af bf
       0.011265078943652139 -0.0613899841384782
000280 9b 92 11 7c 97 42 a3 bf bb a9 bf 59 22 61 a3 bf
       -0.03761742963323408 -0.03785044999661432
000290 b2 8e 45 d5 d5 2f 6f bf ad 6b 3d 94 58 8d a4 3f
       -0.003806989329108245 0.04014088449067486
0002a0 ae 59 93 ae 04 17 8a bf a6 6e 32 8f f8 19 a1 3f
       -0.012739216401695366 0.03340126750955834
0002b0 be 70 9f 63 72 da 81 bf 2d 62 59 d7 aa 4f ae 3f
       -0.008717435517546664 0.05920156363271576
0002c0 13 cc 2b f0 98 ef a7 bf 00 00 00 00 73 d3 80 3f
       -0.04674985820556556 0.008215807378292084
0002d0 00 00 00 00 a7 b1 80 bf 04 7e 29 01 cf b8 a4 3f
       -0.008151344954967499 0.040472477809768065
0002e0 00 00 00 00 4c 2d 83 bf 21 4e d2 f7 e4 b1 8f bf
       -0.009363740682601929 -0.015476025402938966
0002f0 00 00 00 40 34 ed a7 3f d3 31 5c 54 b3 3f 76 3f
       0.04673159867525101 0.005431843286498555
000300 00 00 00 00 3f 33 91 3f b0 fb 42 9e 93 86 9e bf
       0.016797050833702087 -0.029810244116329876
000310 6e c6 68 39 fb ea a5 bf 2d ea 97 4c c3 fd a1 bf
       -0.04280839038655136 -0.03513918218591914
000320 ec 10 05 57 40 bd 86 bf 00 00 00 c0 48 48 a0 3f
       -0.011103155761368964 0.031801484525203705
000330 00 00 00 80 c8 56 9b 3f 00 00 00 00 5d ca 9e 3f
       0.026698239147663116 0.030068829655647278
000340 99 e6 61 4e 2e 79 a7 3f 7e ab 0e 7e f9 ff a2 3f
       0.0458464117700263 0.03710918105874493
000350 00 00 00 00 4c f1 90 3f 00 00 00 40 c9 f2 a8 bf
       0.016545474529266357 -0.048727311193943024
000360 00 00 00 00 ea 59 a9 3f 00 00 00 80 b2 c9 9c 3f
       0.04951411485671997 0.028113164007663727
000370 be dc 35 82 36 64 a0 bf 00 00 00 00 a5 37 a2 3f
       -0.0320145639370195 0.03558078408241272
000380 0e c3 f3 b4 4d 58 a8 bf 2d a8 a4 75 cd dd a2 bf
       -0.047548702563181874 -0.03684846936296569
000390 bf a7 d4 03 9b 1e 90 bf 6a 59 5f 8d 48 95 a2 3f
       -0.015741750820928987 0.03629519201028837
0003a0 18 bc c2 c1 d2 32 aa bf 3c db 02 51 a3 fe ac 3f
       -0.051169000770976136 0.056630233420426696
0003b0 05 97 be 0d 93 e4 a6 bf 00 00 00 40 b6 8f a9 3f
       -0.044712634494585436 0.04992455989122391
0003c0 96 6d bf 84 40 cc a8 3f b1 7c b7 8c ba 6a 9f bf
       0.0484333192868817 -0.030680575216930964
0003d0 00 00 00 80 4b 37 a2 3f 00 00 00 00 f9 fa 8e 3f
       0.03557811677455902 0.015127129852771759
0003e0 14 88 f8 18 c8 42 a4 3f 34 fd e2 fb 39 73 7e bf
       0.03957200341052683 -0.0074341073033672884
0003f0 00 00 00 00 e7 e8 80 3f ae 0b c9 d4 d2 54 ab 3f
       0.00825672596693039 0.05338152739979961
000400 00 00 00 80 85 69 ae bf 00 00 00 80 30 0c 92 3f
       -0.05939881503582001 0.0176246240735054
000410 a5 4e 0f bc de a3 a5 3f 00 00 00 00 0a 37 9b bf
       0.04226585431720523 -0.026577144861221313
000420 00 00 00 00 f0 7b 68 bf d7 9c 19 36 c4 1d a7 bf
       -0.0029887855052948 -0.045148974994668904
000430 52 7e b0 a1 89 b3 ab bf 00 00 00 00 4f cf 95 bf
       -0.0541041383623876 -0.02129863202571869
000440 dd aa da e0 d2 e4 ab bf f2 c0 ed 3d 8b 60 a5 3f
       -0.05448016161729694 0.04175219660726438
000450 7c d1 6f 66 ce 83 85 bf 19 42 82 7f 8b c2 aa bf
       -0.01050530672180438 -0.05226550990585483
000460 0a a4 b2 ab 3e ba a2 3f 6e c8 5b cc 54 8f 71 3f
       0.03657718511505699 0.004287081950439127
000470 cb 0d 76 e7 01 80 a7 bf 00 00 00 00 98 52 92 bf
       -0.04589849424794642 -0.017893195152282715
000480 c7 1f cd 52 60 02 a0 3f 00 00 00 80 df 96 94 3f
       0.03126812945134776 0.020106784999370575
000490 c7 28 9b 0e e7 5f 90 3f 19 f2 6e 3d d8 8b 51 bf
       0.015990839258656544 -0.0010709392279145745
0004a0 57 49 44 20 3c f0 ae bf 86 cc f7 55 53 6b 96 bf
       -0.06042659658318666 -0.021893789407795093
0004b0 a6 11 61 67 b4 a8 98 3f 2d a2 9f 35 65 e4 a8 3f
       0.024081057367099888 0.048617518230291125
0004c0 67 c0 37 9f 53 89 92 3f 00 00 00 80 c5 33 99 3f
       0.01810198458946424 0.02461155503988266
0004d0 00 00 00 c0 d5 3a ac 3f 00 00 00 00 5f 13 8b bf
       0.05513637512922287 -0.013220541179180145
0004e0 5a 39 eb 67 e2 c7 ac bf ac 28 ce 78 58 1f a3 bf
       -0.05621249693432402 -0.03734852289842769
0004f0 bd 8d 8d 04 49 81 9a bf 12 de 92 90 e1 67 a5 bf
       -0.025883808997048997 -0.041808174989849914
000500 11 b6 4f cd c0 ca 92 bf 04 5f 46 f0 f6 20 a5 3f
       -0.018351566821300184 0.04126712496798571
000510 00 00 00 80 99 d5 96 bf 7c 78 4b b5 91 c0 af 3f
       -0.02229919284582138 0.06201606119223954
000520 00 00 00 40 7e 3b a0 3f d2 ae 6d 3f 6e c3 7d 3f
       0.0317038968205452 0.0072664553216374595
000530 00 00 00 00 14 ee 6b bf 00 00 00 00 b2 21 9d bf
       -0.0034094229340553284 -0.02844884991645813
000540 00 00 00 80 e7 4a ab bf 59 38 44 da 85 c3 af bf
       -0.05330584943294525 -0.062038596052034385
000550 ca 7e 07 ba ef 1f a3 3f dc d9 5f 9b 0e bf 7d 3f
       0.03735303064217772 0.007262284334493132
000560 7b c6 78 2f 42 6b 90 3f cd 5b a7 82 b7 a7 aa 3f
       0.01603415884728186 0.052060827921813414
000570 f4 c8 5b 5b 80 48 58 3f 00 00 00 c0 c2 0f a0 3f
       0.0014821294293452776 0.031370244920253754
000580 fe 83 b8 e2 1f 5f ab 3f 00 00 00 80 03 96 96 bf
       0.05346011774623348 -0.02205663174390793
000590 00 00 00 80 19 75 a8 3f 11 b5 e5 80 79 f5 a3 bf
       0.047768399119377136 -0.03898219774678514
0005a0 2f 62 a6 47 36 37 88 3f 00 00 00 00 67 68 87 bf
       0.011824058591444501 -0.011429600417613983
0005b0 b5 fe 76 74 0d b1 af bf 76 32 d2 02 39 75 91 3f
       -0.06189767882051226 0.017048731610474786
0005c0 00 00 00 c0 99 0f a9 bf 05 28 ca d3 90 6d 99 bf
       -0.04894714802503586 -0.02483202259694652
0005d0 50 cf 44 e4 5d 62 aa bf 18 f2 1b 40 c8 66 95 3f
       -0.05153172885402901 0.02089989558497693
0005e0 fa a1 fc 8f 6c 59 a2 bf 00 00 00 80 70 28 a2 bf
       -0.0358385015263742 -0.035464778542518616
0005f0 b8 ea 94 77 1c 1f a9 3f 04 bb c0 c5 20 a6 8b 3f
       0.049065484616638455 0.013500457796991501
000600 d6 d5 6e 99 a5 0b ae bf 00 00 00 c0 2c f4 a9 bf
       -0.05868260858498402 -0.05069103091955185
000610 27 c9 e8 0c 79 88 a3 bf 9b e0 8e a7 bc 9d 98 3f
       -0.03815058024010148 0.024039218642173493
000620 00 00 00 00 50 a5 84 3f 82 53 e2 38 16 7b 84 3f
       0.010080933570861816 0.010000394450153886
000630 00 00 00 00 fc ea 66 3f 00 00 00 00 dc 60 72 bf
       0.0027975961565971375 -0.004486903548240662
000640 28 e8 fe 67 a0 f0 5c 3f 4d 3e 95 48 f7 2b 94 bf
       0.001766354223930575 -0.019698966794122353
000650 00 00 00 00 2a 63 a3 bf a4 18 f8 93 f9 91 7b 3f
       -0.03786593675613403 0.006731009401397401
000660 c3 71 8c a0 25 c7 af 3f 99 d0 bc b3 c7 66 a9 3f
       0.0620662458879653 0.049612274828548304
000670 2c a8 03 5a b1 92 a0 bf 5f b3 8b b6 a3 d6 a4 3f
       -0.03236917709166706 0.040700069459353776
000680 0d 28 6d a3 18 75 a7 3f ff 02 b1 91 c8 2c a8 3f
       0.04581524844122962 0.04721667078456981
000690 a7 21 25 11 db 8a 63 bf 00 00 00 00 bc 7c 63 3f
       -0.0023855475093663317 0.002378813922405243
0006a0 93 04 ee 0a 0b e5 8d 3f b0 68 db 49 90 f5 9f bf
       0.014597021361398432 -0.031210188396337102
0006b0 6d 7d a0 5a 46 c3 87 3f b2 a0 3a 25 30 a7 9d 3f
       0.011602925911630558 0.028958084366110533
0006c0 95 e1 3a 75 80 37 91 bf 07 7e 3b 8a a9 6c ae 3f
       -0.016813285021926545 0.059422777294226896
0006d0 15 ef b3 04 50 d0 9f 3f 16 45 a6 48 14 fa 74 3f
       0.031068086897888387 0.005121306642096776
0006e0 00 00 00 00 b3 b9 a6 3f 5b 4b 30 6d 8e f3 7c bf
       0.04438552260398865 -0.007068210939013077
0006f0 00 00 00 00 4e 96 86 3f 7a f0 fa c5 1f 67 a8 bf
       0.011028870940208435 -0.04766177455664518
000700 9a 5d 47 40 46 10 91 3f e4 80 0b 0e 5f 4d 94 3f
       0.016663644479050534 0.01982639811728938
000710 00 00 00 00 8a 33 74 3f 00 00 00 00 75 62 a3 3f
       0.0049319639801979065 0.03786054253578186
000720 00 00 00 00 d1 bd 8c bf 5f 03 17 75 42 79 9a 3f
       -0.01403392106294632 0.025853193661308334
000730 47 b1 99 eb da 74 ab 3f b7 a7 0e 1e 61 bd 9f bf
       0.0536259090993974 -0.030995862445400948
000740 be 1e cd 4b d9 eb 9a 3f 00 00 00 c0 a6 0d a7 3f
       0.026290316821614416 0.0450260266661644
000750 00 00 00 00 48 12 a3 3f 00 00 00 80 37 70 9e bf
       0.037248849868774414 -0.02972494810819626
000760 b7 3f 4d b2 a5 9c a7 3f 00 00 00 00 3e 03 79 bf
       0.04611699868712498 -0.006106607615947723
000770 00 00 00 80 11 f7 95 3f bd 87 a1 8c 21 bd 93 3f
       0.021450303494930267 0.01927616520732277
000780 9d ff 4c 6e f7 6b 98 bf 00 00 00 00 50 02 8d bf
       -0.023849359614586885 -0.014164566993713379
000790 00 00 00 40 0f db af bf 00 00 00 80 8a 6f a9 3f
       -0.06221816688776016 0.049679115414619446
0007a0 41 48 3c bc 46 d8 93 3f 73 80 e3 6a 9a ed 6e bf
       0.019379716147405416 -0.003775407406564618
0007b0 02 5d 14 e2 7b 59 a5 3f 48 18 ea 84 2d 7a a8 bf
       0.04169833311805783 -0.04780714271059644
0007c0 50 14 89 b9 89 68 a4 3f 00 00 00 80 40 71 95 bf
       0.03986006154858812 -0.020939834415912628
0007d0 7d 80 ee aa 6b 50 ab 3f 83 c4 ad 17 6b b9 97 bf
       0.053347935310058305 -0.02316825229667475
0007e0 9c d7 8b c4 03 52 ab 3f d3 32 21 e2 81 ea 81 3f
       0.05336009763952562 0.008748068536215048
0007f0 00 00 00 80 52 b1 9f 3f 1e 0b f6 7c 85 a1 69 3f
       0.030949868261814117 0.0031287772359872698
