python/snapshot600.pt (torch_old, 586867 bytes, 6 tensors)

layer0.weight f8 [256, 19]
-0.029479203089351688 0.030882182959481315 0.17854218395325086 -0.008069544466966578 0.056343493946046146 -0.16756297555309552 0.0032574109736108175 0.15395765219610327
0.08417846963846498 -0.11536660783917889 0.1539515758595151 -0.07996314421209923 -0.07262518873654766 -0.10368018169823774 0.015289367067799887 0.03310933776278717
0.18516738470800304 -0.07864314717655832 0.22544577130381854 0.20574057012672084 -0.21909720494049964 -0.15178573716034402 0.06987229248089498 -0.07859693677055536
0.14172358912743588 0.20318570294497554 0.15785942458008845 -0.012543603568885573 0.18435975861988158 0.016761845944494515 -0.1799985186820771 -0.028652420530484866
-0.1398794632080867 0.01192704063286068 0.21497927936656278 0.13988237853835167 -0.04901150425860327 0.0822230646267337 0.01781335473060608 -0.15902094542980194
0.054460421204566956 0.04619543254375458 -0.04057024419307709 -0.14814025163650513 -0.1398833692073822 -0.19245745241641998 0.026229366660118103 0.06626017391681671
0.11369650065898895 -0.0921313613653183 -0.020538195967674255 -0.07791317999362946 0.13308055698871613 -0.07619740068912506 -0.01022474467754364 -0.15182451903820038
-0.007977575063705444 -0.1344443487165682 0.20060614129737234 0.06412947261250912 0.025633745028206457 -0.15275518750914371 0.16090028655645788 -0.05115018446553268
-0.19035591505691205 0.0027171136684284937 0.06501723777714774 0.16043022928297854 -0.22505870924349017 0.00786573295630792 0.0804290430119295 0.172608824224934
-0.08612019095443653 -0.010117989781759488 -0.1699672104041186 0.1084451647738982 -0.07894578622365601 -0.0658149268418396 -0.0800739558693301 0.05317729118404391
-0.2042528399858482 0.1657096403506187 0.10322166629340011 -0.15919072386604952 0.02963366236543269 -0.07054800372042895 -0.2136648631905449 -0.007061466017035203
0.08442315842074254 0.1691728573389276 0.09947973514450378 0.17921644873048123 0.21086268915498016 -0.08049795417910702 0.0228476919599446 -0.15780610609477352
0.08871419438349568 -0.006888721964048599 -0.12587909439567505 0.025829391888398244 -0.01257814773476883 0.18919345413166938 0.0033496919072138554 -0.147485701148264
0.03915567831671863 -0.12447402640808285 -0.0046252947582024004 0.22857432594585592 -0.1920510456261985 0.073694771088056 0.17035539497261445 0.19800944955306793
0.08706929893471665 0.21698259852924126 0.04236442323379025 0.14104385750785586 0.05294224064883523 0.14612114757337613 0.17892355824397593 0.12913614637075688
0.003329483646629122 0.21134827507652917 -0.1638119642570007 0.18396275117992414 -0.12974211722757184 0.18906749927718342 0.18442255696272275 -0.15685960542996144
0.05709891006952655 -0.04333093266560049 0.13347635949065018 0.057238157480300825 -0.023740580149702876 -0.024746286681887688 -0.20267386796744832 0.07509376996201307
-0.044674275433379894 0.14430553270560417 0.026174625380349127 -0.22414249127478078 -0.20983736392819902 0.10186059212665739 -0.22682628913764807 0.12045904466226841
-0.07378339177107227 0.04131589164697973 0.017439454731724386 -0.04746950437571714 0.16899313670848634 -0.05826835015676428 -0.021549223937546557 0.008553963055863706
0.09617438936909017 0.16281343643141963 0.1158117165370528 -0.12103998260870588 -0.16976332603437738 -0.09560363717623464 0.02196123235056285 0.01785938593523214
-0.06464349631408965 0.12419400530735275 -0.18333959801846914 0.13137392123856403 0.2244825328275039 0.08202368879723672 -0.0072046997580509295 0.023414209960253583
-0.13324285549744025 0.1931053315151746 0.21011713457433856 0.1437254720506126 0.05785921221061236 -0.043247734283065296 0.22622316172961468 -0.14944266334857886
-0.022656158041730726 0.07749898192348416 -0.17077123888935591 -0.16698056909623682 -0.04993669691310395 -0.05794464064251122 0.1460020612824798 0.0451599196142632
-0.21156497101397764 0.11268672075006225 -0.13642414635153732 -0.1325059782244345 0.21027823859162037 0.20503288081759885 -0.16554798356500824 -0.0317144237017776
-0.19599022146225367 0.03935433485008928 -0.06740377602834642 -0.09013231283845442 -0.13952424547110515 0.13558521392468306 -0.209449729710149 0.06256277990615577
-0.1387909655250208 0.11623410457962367 0.057130819711116936 0.02504516202516121 0.05343128356368979 0.12419483983899272 -0.054902619181255566 0.12399599148211345
-0.09068661808241472 0.05673641235802152 0.16557982319985293 -0.010221646896561945 -0.10798992008868977 0.21448722009233095 0.1260157736332815 0.05124363751921191
-0.21857594707854838 0.1066708109066526 -0.10786516987491788 -0.05135560447956221 -0.10867147443771379 0.06280754155420804 -0.21332697942992135 -0.11141386114404848
-0.1327744130257596 -0.19092405145231695 0.17803056116560065 0.1170297662770525 0.18896323279621743 -0.06845681580809151 -0.2037596410731028 -0.07241880853386011
0.029526133067946044 -0.18974888245557567 0.13794714096700994 -0.217328403586186 -0.13386242334199444 -0.1166471727167347 0.08578306837243016 0.14461167952884882
-0.19402795800750886 -0.05264836034008289 0.07881453009073419 -0.06652081768186231 0.03653448027934759 0.20195999551600444 0.0225134415788543 0.18101661150525725
-0.047218709287620696 0.06713278681280546 0.08279615151562375 0.05941700236667496 0.11607252392747416 -0.07149346909969466 0.12961924964049237 -0.22108056236880913
00000000: dc3f b9d4 cb2f 9ebf e238 5c37 949f 9f3f
00000010: 798f 8464 78da c63f 2a48 a2ec c386 80bf
00000020: a768 aeef 0dd9 ac3f e4af 021e b472 c5bf
00000030: 7cc4 3d33 49af 6a3f b95a 9364 e2b4 c33f
00000040: 98e1 1f5e b88c b53f 4340 b87f aa88 bdbf
00000050: e7fc bd6b afb4 c33f 75bb 46f1 7678 b4bf
00000060: c042 7d7a 9097 b2bf 0d24 a3cd c88a babf
00000070: 270d 431c 0850 8f3f 864b c405 b5f3 a03f
00000080: 1ea9 cd9a 90b3 c73f 7286 2d11 f521 b4bf
00000090: 1abd 6233 68db cc3f ebcb 13fe b455 ca3f
000000a0: 7ba6 ee90 600b ccbf cb2c 8d0c b76d c3bf
000000b0: 0f1c 1a8b 26e3 b13f f9cc fec8 ed1e b4bf
000000c0: cce1 2fa2 ff23 c23f a1eb 9436 fd01 ca3f
000000d0: faea f7d4 bc34 c43f 259e d1f8 75b0 89bf
000000e0: aa44 fcbe 1999 c73f cad8 9b70 042a 913f
000000f0: 1eb3 8803 310a c7bf 99c8 8464 0f57 9dbf
00000100: a22d eefb 91e7 c1bf 104c a64b 346d 883f
00000110: 6f38 19e7 7084 cb3f daf0 8d70 aae7 c13f
00000120: 2541 d62f 0918 a9bf a278 8c1d 920c b53f
00000130: 0000 0000 aa3d 923f 0000 0060 cc5a c4bf
00000140: 0000 0080 3ce2 ab3f 0000 0080 eda6 a73f
00000150: 0000 0080 9fc5 a4bf 0000 0080 42f6 c2bf
00000160: 0000 00c0 b2e7 c1bf 0000 0020 72a2 c8bf
00000170: 0000 0000 dfdb 9a3f 0000 0040 6df6 b03f
00000180: 0000 00c0 361b bd3f 0000 00c0 eb95 b7bf
00000190: 0000 0000 f707 95bf 0000 0040 1ef2 b3bf
000001a0: 0000 00a0 c808 c13f 0000 0040 ac81 b3bf
000001b0: 0000 0000 b6f0 84bf 0000 0060 fc6e c3bf
000001c0: 0000 0000 8c56 80bf ad51 6ff0 7835 c1bf
000001d0: 39de 1f48 76ad c93f a898 9403 ca6a b03f
000001e0: 3ad5 4782 bb3f 9a3f 0fb4 5263 7b8d c3bf
000001f0: 6ea8 566e 6198 c43f 247b ed62 5b30 aabf
00000200: f781 e226 955d c8bf b1a3 0d4b 3342 663f
00000210: d8d9 ed3d f8a4 b03f cbb3 074e fa88 c43f
00000220: d9bc f049 b9ce ccbf 1788 73ce e81b 803f
00000230: 3583 626d ff96 b43f 8207 86c3 0b18 c63f
00000240: 45b1 ac0b f90b b6bf 421b b699 bdb8 84bf
00000250: 3afd 094d 7cc1 c5bf 40fc 1cf4 0fc3 bb3f
00000260: 01d4 fc81 ca35 b4bf 54d4 5f3e 3fd9 b0bf
00000270: c959 b80d ba7f b4bf 10f9 0ccd 0d3a ab3f
00000280: fc5a ed01 f524 cabf ca0a f836 f935 c53f
00000290: e701 f830 bc6c ba3f 6166 6a94 5c60 c4bf
000002a0: 7086 e16a 4958 9e3f 03ff c618 6f0f b2bf
000002b0: 1096 dac7 5e59 cbbf 2901 aed9 7bec 7cbf
000002c0: 872e 7190 c19c b53f e31e d2c8 74a7 c53f
000002d0: 6e75 0f01 8177 b93f 57f1 1989 90f0 c63f
000002e0: 2b02 ef70 8cfd ca3f 9a1b 9890 839b b4bf
000002f0: 9836 07a7 6265 973f d8a0 6490 fd32 c4bf
00000300: 0e6f 9133 f9b5 b63f 39cc bf38 5937 7cbf
00000310: 8dfa d660 ce1c c0bf 36b5 be25 0573 9a3f
00000320: fa19 5269 92c2 89bf 1a70 0eb9 7d37 c83f
00000330: 925c 2e26 d070 6b3f 319b 87bb cfe0 c2bf
00000340: a160 a58b 360c a43f b3c8 9fa0 87dd bfbf
00000350: 0a8f 881b f9f1 72bf d843 526b ec41 cd3f
00000360: ae45 10f0 2095 c8bf b09b b517 a9dd b23f
00000370: a161 0da1 34ce c53f ce8f 10a7 5f58 c93f
00000380: 8406 696f 2c4a b63f e7f9 3df6 15c6 cb3f
00000390: f826 9b28 cab0 a53f 6822 a6a1 b90d c23f
000003a0: afd1 53d0 3e1b ab3f 3073 0a07 19b4 c23f
000003b0: 6a27 9297 f7e6 c63f 546a b282 8887 c03f
000003c0: 26ae feeb 6e46 6b3f af85 c2d4 750d cb3f
000003d0: 0bb3 965a caf7 c4bf adfe ff67 178c c73f
000003e0: fefe 33c3 639b c0bf 96e5 1023 5d33 c83f
000003f0: 0259 6689 289b c73f 8b4c b1bd f913 c4bf
00000400: a78f c57e 113c ad3f cd69 68d5 782f a6bf
00000410: f496 66db c015 c13f 1221 ecdc 514e ad3f
00000420: 51fc 525d 734f 98bf 370e fc2f 1757 99bf
00000430: 0b46 56a1 37f1 c9bf fdc4 1e66 5839 b33f
00000440: 13f0 eaef 8bdf a6bf 5f1c cd8b 9a78 c23f
00000450: aa7f f95f 85cd 9a3f aba6 d57e b3b0 ccbf
00000460: a275 c663 f3db cabf 8568 ef27 8913 ba3f
00000470: 0210 dcd2 a408 cdbf dff3 5469 67d6 be3f
00000480: c60b a5e6 77e3 b2bf 3693 db46 5b27 a53f
00000490: a56a eefe a5db 913f bbba b341 ec4d a8bf
000004a0: f3a8 b42d 91a1 c53f 265f a164 59d5 adbf
000004b0: 8386 43f0 ff10 96bf 63e8 9b7c bd84 813f
000004c0: 3892 0d81 e29e b83f db41 6918 12d7 c43f
000004d0: 0830 052f d6a5 bd3f b213 d0ee 79fc bebf
000004e0: f05c b0fe cdba c5bf a7f2 0cdf 7a79 b8bf
000004f0: efef e65a 017d 963f 56e8 121a bb49 923f
00000500: c36f 91e6 798c b0bf 3482 27a7 2dcb bf3f
00000510: d18a c604 ac77 c7bf 2f2a a253 dcd0 c03f
00000520: 5e39 82f8 d7bb cc3f 4da4 e124 81ff b43f
00000530: 78ca 69dd ac82 7dbf 26f3 2908 e5f9 973f
00000540: a6c1 6415 1a0e c1bf a33c c5ed acb7 c83f
00000550: dcba a946 1ee5 ca3f 1c9f 07a5 9865 c23f
00000560: 090e 6f00 b99f ad3f e364 be28 9124 a6bf
00000570: 21fb 9c6c e1f4 cc3f d2c9 daeb ef20 c3bf
00000580: 6474 5e07 2d33 97bf 41ac d528 f9d6 b33f
00000590: aa47 10fb d4db c5bf acfb aa89 9e5f c5bf
000005a0: 0b5e 3980 4d91 a9bf 5b7c 1381 ebaa adbf
000005b0: e3ac 2d0f 32b0 c23f aa9f aa73 331f a73f
000005c0: fcfa bd9b 8f14 cbbf f8a3 5074 09d9 bc3f
000005d0: 0c77 7baf 5876 c1bf b2cc 7fb5 f4f5 c0bf
000005e0: 0edf e7b6 65ea ca3f 2cae db76 843e ca3f
000005f0: 614c aa23 ad30 c5bf 74a3 3879 df3c a0bf
00000600: 1512 c223 3516 c9bf 7a20 465a 4026 a43f
00000610: 152d abb5 5f41 b1bf 8539 f447 e912 b7bf
00000620: 9613 a633 eedb c1bf bd57 d035 db5a c13f
00000630: b16c a1ad 3fcf cabf 18cf a445 1d04 b03f
00000640: 5882 f400 e7c3 c1bf 876d d9ad 84c1 bd3f
00000650: a77e 8134 4040 ad3f 6ecb 485f 70a5 993f
00000660: 158c fa5e 585b ab3f 21c0 70a7 3bcb bf3f
00000670: da4b b233 321c acbf 9532 4088 33be bf3f
00000680: d74b d9fa 3c37 b7bf 91e0 2317 8e0c ad3f
00000690: 92aa c23a b831 c53f 9552 0e39 16ef 84bf
000006a0: 8e1d 1437 3aa5 bbbf 1a6f da35 5174 cb3f
000006b0: 9b7d 44ed 4821 c03f f1d2 8b26 9b3c aa3f
000006c0: fe81 32f0 4bfa cbbf d528 483c c74e bb3f
000006d0: 7781 fd40 0d9d bbbf de7c 6923 484b aabf
000006e0: 23d4 b7cc e4d1 bbbf 44e0 eab0 2714 b03f
000006f0: dac3 0068 4c4e cbbf 4f4d ef69 9e85 bcbf
00000700: 5a7a d880 c0fe c0bf 80f6 8006 3370 c8bf
00000710: 3b88 f296 b4c9 c63f de86 d1aa a9f5 bd3f
00000720: c9ca 807c f22f c83f 3a84 15c9 6286 b1bf
00000730: 9eab 53c1 cb14 cabf bba9 44fe 098a b2bf
00000740: 5fdf 9d3f 193c 9e3f 15b4 4cfe b049 c8bf
00000750: 5ad7 837d 40a8 c13f e080 f2c8 6ad1 cbbf
00000760: ee65 3565 6722 c1bf c53e fdcf 96dc bdbf
00000770: 64ca 3511 e1f5 b53f c917 19b1 a282 c23f
00000780: d971 137b e8d5 c8bf 1d86 b2d3 b9f4 aabf
00000790: b476 3065 302d b43f fd5f 7220 8207 b1bf
000007a0: 91ca f3bb a5b4 a23f c5b7 eb3b d3d9 c93f
000007b0: ead2 347d c30d 973f 1352 3965 8d2b c73f
000007c0: 8ba0 4cf8 0c2d a8bf daaf d943 9d2f b13f
000007d0: 2488 feea 2032 b53f a781 fbc3 e76b ae3f
000007e0: da90 3bce edb6 bd3f 8f28 a95f 654d b2bf
000007f0: 26a9 1113 5d97 c03f a4e1 932c 5e4c ccbf

layer0.bias f8 [256]
0.09537332929920905 0.16318401805889038 0.037560537457466125 -0.00040509783895944905 -0.08741793144888123 0.05097024817828443 -0.16508965782754728 -0.0028513792261561344
0.1364081625502861 -0.20596457077584546 0.025825003075978643 -0.0797712561788054 0.07809530551611553 -0.08263853102681704 0.16352725998329676 -0.04496202224000396
-0.03311213194084573 -0.011493330095228958 -0.07441318337959128 0.04084252915022092 0.2225269442079209 0.21663411193732893 0.21194137159215037 0.13781707911099209
0.20581130058402344 0.2212696770655559 -0.04318233271901796 0.2200184671406503 -0.06135214444527075 -0.013992648337528389 -0.13391807789886467 -0.1739431195563328
-0.094351766711847 -0.05621860921382904 -0.02855589027823123 -0.07165865616484111 0.09533011266011218 0.16057670457687803 -0.16899312389040283 0.09613270349154228
0.06461160021601949 -0.13933621968825768 -0.02365652221093221 0.03170238047518026 0.04251805884484458 -0.005209471309944201 -0.07510455085497798 0.060613143741940385
0.04617753151880847 -0.1490252868880271 0.024476014636959753 -0.13745280722523937 0.07992701664284166 0.09025376905168316 0.20433253015701736 0.2048930744584396
-0.11113293155672499 0.024668126565095445 0.19193292238804482 0.07171040027133953 -0.19522115300803056 0.1061606280127345 0.043395974817800005 0.21472224272841914
0.14916635431401032 -0.025685971326778384 -0.07513788805764489 -0.13060164694096052 -0.19752173125743866 0.21463934658800832 0.05361224075547146 -0.1414805486077349
-0.04664738267537606 -0.18271519481216425 0.12704890955131462 0.045192018151283264 -0.06707525097883414 0.05162461816765947 0.10471571047057497 0.11584618114195064
0.18021738920267083 -0.1997138075813886 -0.1692961065582857 -0.02695331335462081 0.14470198954158422 -0.04732598081342584 -0.07942993207228098 -0.12236330087841686
-0.21698475932898117 -0.10262125730514526 0.22820436881606246 0.21541467340560416 -0.12999284402523317 -0.1278026572299473 -0.22411485439883544 -0.08487015707478393
-0.0033946146901148474 0.026694104075431824 0.17155965808364562 0.1797894645015331 -0.08316965114112816 0.07603928221021851 0.12851491417201544 -0.15747804925611003
-0.004202939186803544 -0.22307062239304387 -0.028650893479882655 0.16331689479106792 0.07585416318782144 0.21975827336692752 0.15830780383982726 0.1590713655282909
0.10241516872300943 -0.09830612587302383 -0.05911492951391038 -0.08631469902256445 -0.1757640302052019 -0.13232893590631747 -0.030461996442174455 -0.061810419901253855
-0.07927390168073985 -0.045330646454495485 -0.16704321574144182 0.02387265057468349 -0.18722331623243244 -0.031389139635666245 0.1732081058779633 0.12376158821825463
0.20425075698578013 -0.027393657617704414 -0.22876556925962768 -0.13128074941475024 0.054326786482536985 -0.12395816941387869 0.08007054162248393 -0.041621208292097985
-0.1312839686870575 0.0843031253671865 -0.01623992598151466 -0.10386633978608277 -0.10479496802216391 -0.11186209353462415 0.1153788838492537 0.044598256907378536
0.1308370679616928 -0.0013658575053553065 0.22624414981329055 -0.028273954609607 -0.17021333667032465 0.19391263075530507 0.02864373344675021 -0.03270763413420202
0.057122477269093655 0.12784311896430775 0.0588579480628213 -0.021584816280670945 0.21798886884494081 0.12646337917331218 0.22077579512577317 -0.21612547720985473
0.13875823517162988 -0.22339455037602124 -0.2133182410809849 -0.08820549879650627 0.036126986145973206 -0.15714377917545805 0.029022322707393914 -0.09292024887372566
0.03890561175628295 -0.21858935988041153 0.030756245070501998 -0.20549527323111805 -0.21584330293595072 0.045833596951905496 0.050530074053879 -0.14737405149626498
0.18165055028743488 0.06507457792758942 0.11639959096985372 -0.09897160817427572 -0.024801054567665945 0.137488508601582 -0.009156592314667634 0.08771146140157815
-0.17485445960805482 0.03473057582482615 0.023386044820234438 0.011505161845684418 0.20921089461021455 -0.022305613106904373 0.1946144291429405 -0.09051093660845429
-0.14906869322004754 -0.08148215254616485 0.21808631211642032 -0.1864985707946486 -0.1302572045000074 -0.11500526615022545 0.1687634778296928 0.1447244283514782
-0.2032379451430909 -0.04636312980391894 0.06171794487875055 0.06786113707536719 -0.14373156154737687 -0.14197249710559845 0.028709691198178462 0.14204986287328383
0.19254314087035587 0.15147002270491897 -0.15704105891678044 0.15193346371247085 -0.1514617278625065 0.18440601216749225 -0.1914080612002564 -0.12090924366118258
0.14658959099976082 -0.0047708229710397235 -0.1086089047322552 -0.16069772270834132 -0.22594061493873596 -0.16886629020854027 -0.02218147005214218 -0.15883935260855447
-0.06607428159717291 0.2116707336385123 0.06271191468618265 0.0028328656307232926 0.0024457476176386575 0.09563019060088593 -0.1684119064144733 -0.12942138999627772
0.19475535033210786 0.10596937359643432 -0.15155266021419828 -0.09447433054447174 0.036112657133582936 0.1233842781620198 0.2259792467198616 -0.21889874174461282
-0.20314020509734193 0.12119845165940506 -0.1271526341834416 -0.014288929669715433 -0.2282699501315624 -0.1692938800186843 0.006814071256536147 0.03904001148487517
-0.179680944450588 0.21998001469065945 -0.0885230476123143 0.19465115779979442 -0.20191199461617615 0.15353985571399223 0.14240597027600882 0.11339786685541099
00000000: 9830 40f2 626a b83f b87a 65c2 36e3 c43f
00000010: 0000 0080 223b a33f e3a5 52f8 698c 3abf
00000020: 912b a884 0561 b6bf ef4d fdb9 c518 aa3f
00000030: 8579 a36c a821 c5bf 7b71 cb90 c65b 67bf
00000040: 94cc 879a d275 c13f aef7 ce0b 0c5d cabf
00000050: d58e 859e de71 9a3f 06e5 7298 e36b b4bf
00000060: 2fb0 29cf 0dfe b33f 2650 267c cc27 b5bf
00000070: ecfd d014 76ee c43f 396a 2a1e 4305 a7bf
00000080: 71d3 92c7 12f4 a0bf 9f93 0ca7 d089 87bf
00000090: 3bb0 010d be0c b3bf 72e5 f8dd 4fe9 a43f
000000a0: fe08 ed4d c37b cc3f a702 fca4 aaba cb3f
000000b0: 822e d415 e520 cb3f 9154 ce73 fda3 c13f
000000c0: e9ea 9352 0658 ca3f dce8 4b95 9052 cc3f
000000d0: c21a 96a5 fe1b a6bf 634c 71ac 9029 cc3f
000000e0: c622 dd5b 8c69 afbf 9ff1 f377 2da8 8cbf
000000f0: 609b 7542 3a24 c1bf d0e8 eda4 c443 c6bf
00000100: 62e2 58f8 6f27 b8bf 0000 0080 afc8 acbf
00000110: bca4 695b c13d 9dbf 8f0b b4c0 3858 b2bf
00000120: 4afd 32e4 8d67 b83f 511d 5407 c78d c43f
00000130: 12d8 2d12 91a1 c5bf 437e 9221 279c b83f
00000140: 4dba dec5 628a b03f 97cb 5aed c4d5 c1bf
00000150: 0aa5 ee54 6a39 98bf 7047 b15e 4b3b a03f
00000160: dcbd 7450 edc4 a53f fe95 7dce 8656 75bf
00000170: 35f1 b345 0d3a b3bf a1a4 289c af08 af3f
00000180: 65d8 5dd7 94a4 a73f 2105 bbb6 4213 c3bf
00000190: b0cf 9b89 3d10 993f 454d e3b7 0d98 c1bf
000001a0: 1240 8cd2 1876 b43f 71ef 6afa de1a b73f
000001b0: f043 447f 9127 ca3f ffe9 fcae ef39 ca3f
000001c0: 1874 8b32 3573 bcbf 0517 67f3 9942 993f
000001d0: 8857 570c 4291 c83f 1dcf f2df 9c5b b23f
000001e0: 6815 d4b9 01fd c8bf 0f01 70c9 572d bb3f
000001f0: f1b0 3d49 ff37 a63f cd04 1fb9 047c cb3f
00000200: c29a b812 e217 c33f 180e 425b 6c4d 9abf
00000210: 79e9 e593 3c3c b3bf 1724 3505 8eb7 c0bf
00000220: 0000 0060 6448 c9bf 08e1 0357 4d79 cb3f
00000230: d388 6b49 1073 ab3f 822a a5dc 081c c2bf
00000240: 12c9 116e 2ae2 a7bf 74aa 1925 3663 c7bf
00000250: 43f7 c17f 2343 c03f 0000 0080 6823 a73f
00000260: bf38 53f9 d72b b1bf eaac 65bd 8a6e aa3f
00000270: e338 d917 a6ce ba3f fe04 5f67 18a8 bd3f
00000280: 80e2 6508 5d11 c73f e593 0fd8 3890 c9bf
00000290: 1a05 81ac 7eab c5bf a0fb 813d a699 9bbf
000002a0: 81a5 5f44 9885 c23f fb87 b067 1c3b a8bf
000002b0: 47ee 9220 8555 b4bf 61df 8087 3353 bfbf
000002c0: 2332 8616 28c6 cbbf 0000 0000 6345 babf
000002d0: 9145 6ffe cc35 cd3f 0084 ad40 b592 cb3f
000002e0: 39b5 e602 9ba3 c0bf af7f 9264 d65b c0bf
000002f0: 226c 18a9 cbaf ccbf 86e6 0af5 0cba b5bf
00000300: 4737 73e2 05cf 6bbf 0000 0000 b355 9b3f
00000310: 211f 64b8 aaf5 c53f 2c87 1957 5703 c73f
00000320: 6fbe ab33 9b4a b5bf 41e0 4d76 4f77 b33f
00000330: 0062 b53c 2d73 c03f 8e49 b29f 3d28 c4bf
00000340: 4c9d abe5 1937 71bf c830 f001 948d ccbf
00000350: d335 fde9 a856 9dbf 4086 0169 91e7 c43f
00000360: 573a 28ae 2d6b b33f f374 9102 0a21 cc3f
00000370: 3dc9 181c 6e43 c43f f747 5654 735c c43f
00000380: fc96 4768 e137 ba3f 3300 9f1b 972a b9bf
00000390: fe67 efe1 4f44 aebf 9c4b 7759 b818 b6bf
000003a0: 1fb2 c58c 6f7f c6bf 4d1c 0492 27f0 c0bf
000003b0: 90c4 f5f9 6d31 9fbf 984a 0e88 9da5 afbf
000003c0: 1525 255f 4b4b b4bf 32a4 0e18 9435 a7bf
000003d0: b667 500e ac61 c5bf a8ca f275 1272 983f
000003e0: da2b 2202 eff6 c7bf 5f99 5ec0 3c12 a0bf
000003f0: 47f0 12e7 ae2b c63f 05ff e5e5 d6ae bf3f
00000400: 29f5 b788 e324 ca3f 23ec 573e 150d 9cbf
00000410: d5e0 35af 3048 cdbf 2555 aabe cecd c0bf
00000420: c281 7a76 b8d0 ab3f 0e63 b4fb b8bb bfbf
00000430: 473e a4c5 807f b43f 497f de00 604f a5bf
00000440: 0000 00c0 e9cd c0bf 5514 67be e394 b53f
00000450: 7796 ebfb 32a1 90bf bb54 8904 fc96 babf
00000460: 87c8 70d0 d7d3 babf 8eaf 6481 fea2 bcbf
00000470: 2b12 c874 7889 bd3f 7468 c02d 95d5 a63f
00000480: 0000 00e0 44bf c03f 6a7d 4154 d260 56bf
00000490: 1001 2e7c 91f5 cc3f 1ae5 81f9 d8f3 9cbf
000004a0: 57c9 2bf5 8cc9 c5bf c40b b00b 21d2 c83f
000004b0: 0479 8e69 c854 9d3f 5732 df15 0ebf a0bf
000004c0: 3a7a 7947 283f ad3f 1334 7ccf 295d c03f
000004d0: 4037 1404 a122 ae3f 9206 1080 541a 96bf
000004e0: fb5f 4a2b 0fe7 cb3f 7473 d8b6 f32f c03f
000004f0: c823 e899 6142 cc3f a36f 39e8 ffa9 cbbf
00000500: 2071 0e71 d4c2 c13f 061d fc4f 3198 ccbf
00000510: 2aa2 8a1a 034e cbbf 668a a8b4 a294 b6bf
00000520: 0000 0080 3c7f a23f 430a 2a90 491d c4bf
00000530: 6163 871b 07b8 9d3f 4a80 0c16 9fc9 b7bf
00000540: 238b 3fb4 6feb a33f 0550 f873 bcfa cbbf
00000550: 1dfb e6aa 907e 9f3f 6c4f 014b ab4d cabf
00000560: e6d3 95db c0a0 cbbf 63d6 ee4f 8077 a73f
00000570: a13e 0def 13df a93f 1a4d ba25 27dd c2bf
00000580: ca78 6442 5340 c73f 0000 0040 baa8 b03f
00000590: 76b9 7b14 5dcc bd3f 6e4e 570c 3456 b9bf
000005a0: ec05 1999 7265 99bf 8f82 0234 3999 c13f
000005b0: 5a40 4604 b1c0 82bf d042 3422 4274 b63f
000005c0: c9c5 c984 a161 c6bf 3a81 adbe 34c8 a13f
000005d0: 6227 bee6 82f2 973f cc32 e6ae 0490 873f
000005e0: d3ac 282f 6cc7 ca3f 3fdb 3e5b 48d7 96bf
000005f0: 65d3 3f28 20e9 c83f 55e4 a988 b92b b7bf
00000600: 6768 1ed5 ae14 c3bf dfb9 64ac 03dc b4bf
00000610: 2265 1f95 40ea cb3f 2c29 2867 2fdf c7bf
00000620: 5fad b2a0 44ac c0bf 81a5 fb30 fc70 bdbf
00000630: 0cd5 04a9 0a9a c53f aad7 597f 5486 c23f
00000640: 8c10 d973 b303 cabf 69fe 7e7c e8bc a7bf
00000650: b93f a995 7e99 af3f 9d77 68f4 585f b13f
00000660: 10df 1fba cb65 c2bf 0000 00a0 272c c2bf
00000670: a205 19c3 1266 9d3f b994 b89d b02e c23f
00000680: fdbb 8dee 40a5 c83f cdc6 eba4 5e63 c33f
00000690: c4a0 16e2 eb19 c4bf 8412 e844 8e72 c33f
000006a0: 5eef e10f 1963 c3bf eafa b8bf 9d9a c73f
000006b0: ffde 8531 0f80 c8bf 6612 4f7f e8f3 bebf
000006c0: 2295 a39d 72c3 c23f 1a81 2b0a 928a 73bf
000006d0: 6321 e10d cbcd bbbf ea78 c933 be91 c4bf
000006e0: 0000 0040 9feb ccbf e0d7 eb1c 699d c5bf
000006f0: 56fb cd41 bdb6 96bf 46c2 6210 d954 c4bf
00000700: 9209 917e 3eea b0bf dcb5 3fcf 0618 cb3f
00000710: e88d a556 e30d b03f 3608 9d27 f334 673f
00000720: 795f 06c1 1a09 643f f61b 245d 387b b83f
00000730: 8651 2777 858e c5bf 80eb b74e e190 c0bf
00000740: dbde 324a beed c83f 286b f911 cf20 bb3f
00000750: b6f2 9edb 1366 c3bf 0000 0040 782f b8bf
00000760: 5386 b8b2 5b7d a23f a0e3 8baf 1c96 bf3f
00000770: 5146 1e51 e3ec cc3f 66de 76bc df04 ccbf
00000780: 1aaa b28c 7f00 cabf 9bf6 339a dc06 bf3f
00000790: 6585 b59a 8946 c0bf d39a 02ad 8343 8dbf
000007a0: 11c0 3c21 f337 cdbf e1ed 0bff 6bab c5bf
000007b0: 33e4 3053 12e9 7b3f f641 2069 0dfd a33f
000007c0: f798 1002 c9ff c6bf 915b 6f1c 4e28 cc3f
000007d0: 76e8 6f4a 72a9 b6bf ae77 7042 54ea c83f
000007e0: 24f7 c592 40d8 c9bf b94a 76a9 31a7 c33f
000007f0: fa98 8bdc 5b3a c23f e184 9481 a407 bd3f

layer1.weight f8 [256, 256]
-0.059929890417789636 -0.06073120838834349 -0.0018812045454978943 0.00848985119790338 0.03386978320927024 0.019701870310728536 -0.02520307938398342 0.027138926088809967
0.015305713101788996 0.0333945643133788 -0.05452336370944977 -0.051288521545151775 0.012515906288362078 0.058285243809223175 -0.04556252062320709 -0.05537222344015837
0.04667973518371582 -0.028125688675610296 0.04372723506262693 -0.053927277688446885 0.052854597792777146 0.005245892041728867 0.018203121464958356 -0.038049990747868946
0.06040566676403735 -0.044370684849326436 -0.0034185536241964016 0.020537838339805603 -0.06184183400806211 -0.028371548164896985 -0.030722647136212488 -0.017320061573773565
0.03097439207553172 -0.044073253870010376 0.0015777051448822021 -0.03150755167007446 -0.05534628272437423 -0.03136031806359383 -0.04092006521336641 0.0005049206628959021
0.014487155576593639 -0.056324361690498884 -0.00441936997697686 0.05113869905471802 -0.007166676223278046 -0.05578572156976429 0.006048921144719046 -0.04538415809485679
0.01678195595741272 0.05403448690100252 0.02358631044626236 -0.030889950960236112 -0.0430523082613945 -0.05673768873675856 0.014541702895233308 0.028329230844974518
-0.051552231151216904 -0.034293805933492766 0.0580107121642131 0.05176980793476105 0.023817988231242322 0.01864908309405601 -0.03453884464798771 -0.011885002429584237
0.03740162402391434 -0.05659381820498069 -0.040123490917980426 0.011914663016796112 0.06129471957683563 -0.06208906682898444 0.0142211004007683 -0.00434471920930672
0.03584549928941539 -0.006122760474681854 0.03660806091812121 0.015013955533504486 0.01719726643846819 0.013710047307223038 0.037673250166786326 -0.023397937417030334
-0.025128321522860684 0.04850395768880844 0.05321260721539629 -0.0016723200678825378 -0.03886685970966915 0.015288032591342926 0.0014550541163101905 -0.018999944796836556
-0.020820724148154723 -0.05986182391643524 0.062379743892440685 0.03667393266817282 -0.057309284806251526 -0.018507272005081177 -0.028955377638339996 -0.048246242105960846
-0.056340478360652924 0.03226448595523834 -0.025684849253233815 -0.004237710258128366 0.05116616552583331 0.0490699580125319 -0.028753865864790746 -0.02974923700094223
0.03200460970401764 -0.007809102535247803 -0.036664434331378316 0.03319586552419143 -0.004727608068962383 0.050661309924378777 -0.06106565364115297 -0.02275953743021185
-0.018566425292428374 0.060913344487946344 -0.02885207990466828 -0.01002715353769669 -0.05884828239562123 0.0113132284154167 -0.021870488152331103 -0.05946536236124659
0.04963989555835724 0.05960064743060184 0.03631807118654251 -0.02042817324399948 0.013777263462543488 0.019741282515012323 0.0372636616230011 0.005619910930198358
-0.05824863986099323 -0.011470474604936285 -0.016598828898845744 -0.014725404690264858 -0.03992922604084015 -0.018122967352792764 -0.03739209834919211 -0.009496547281742096
-0.023423992097377777 0.03151711821556091 -0.05295714735984802 0.06242263317108154 0.040920639873013566 -0.05729581226871643 0.05520392093449775 -0.003276695306725469
0.061861395835876465 -0.018907672904460177 0.0097911051387803 0.0002271011471748352 -0.006533105602144944 0.04179153781768291 -0.05731337044063202 0.011470374949134155
0.05051818580751916 0.027888463551532714 -0.009634517133235931 0.00038458017118629575 0.0027838721871376038 -0.014656713362626283 -0.051191844046115875 0.03681149333715439
0.0035847151840399287 -0.03822660322215339 -0.005217804236648889 -0.018041030419818683 -0.01726371794939041 -0.002773196885701861 0.04666894514631005 0.04938261726357539
-0.054613977670669556 -0.026157290643607726 0.026857141310323667 -0.027925770809800146 -0.028734034231932375 -0.012316435324808382 0.046517631203695856 -0.019404922044046733
0.044737331569194794 0.028995007276535034 -0.023424504913820858 0.05735268578816636 0.009687994261887841 0.05642755209167573 0.03491891920566559 -0.02301764932808281
-0.04523507121276788 -0.032995972834597743 0.056223698727145804 -0.037051111459732056 0.045963596664442365 0.018655985281814294 0.05605675729611314 0.00839278137346745
-0.027373634178196545 0.02477257233074032 0.02273894453222701 -0.05267162122579506 -0.022087643546649934 -0.02066739648580551 0.008686197342018689 0.05403219163417816
0.028909213840961456 0.007246345420099262 -0.03399069806902005 -0.012761487598512427 -0.01150926947593689 -0.005956277251243591 -0.03055854705038441 -0.03190709838262299
-0.033541666226984554 0.008018985390663147 -0.056510016322135925 -0.05554260794549575 -0.04097023606300354 -0.028522602779333068 0.061107092780426364 -0.009895938089741258
-0.0035936437324359206 0.00843030959367752 -0.03538089447811701 -0.03125285273982534 -0.004431344568729401 -0.06071147322654724 0.03802173398111735 -0.004795535921004087
-0.035274620866215356 -0.011273324489593506 -0.01788150519132614 -0.057368819097237504 -0.009615870240281462 -0.058034160134572056 0.003927260637283325 -0.036394185852525164
-0.0061579173204904135 0.05974291642184427 0.06238957770666611 0.02866213768720627 -0.007347993552684784 0.011369365447626024 0.02981624109915999 -0.05383202723994314
0.035641740236317325 -0.007157742977142334 -0.03662331402301788 -0.018351547420024872 -0.017431402003402735 -0.041175882706789776 -0.0549713671207428 0.030671663903612926
0.032100863791509976 -0.03624149053774378 0.040174733182107056 -0.011298473449681578 0.0009854377642546238 0.02414236981663858 0.036874572456691 0.011202552124321126
00000000: 0267 cb6e 21af aebf f6bd bf33 2918 afbf
00000010: 0000 0000 58d2 5ebf 5076 f189 2063 813f
00000020: 9eb0 6956 6157 a13f b852 9e22 ba2c 943f
00000030: 31ce d906 d6ce 99bf 0000 0080 4eca 9b3f
00000040: 5290 b609 9a58 8f3f 9a25 2ea3 1719 a13f
00000050: 0000 0080 7cea abbf 26ab 6435 7d42 aabf
00000060: c0ab 8181 f0a1 893f 0000 0040 90d7 ad3f
00000070: 0000 0080 f853 a7bf a387 9081 bf59 acbf
00000080: 0000 0000 68e6 a73f 472a 2804 fbcc 9cbf
00000090: 97b4 1389 6a63 a63f 5581 112c 5b9c abbf
000000a0: 132a ed01 c20f ab3f fa03 1f6c b77c 753f
000000b0: 9529 82cd d6a3 923f 2d1a c0d3 497b a3bf
000000c0: 1f3e 7dd6 7ded ae3f 0870 a820 c1b7 a6bf
000000d0: f259 7f00 3a01 6cbf 0000 0000 df07 953f
000000e0: 13b7 2d9d bba9 afbf 893e 055e 6e0d 9dbf
000000f0: 734c c9f2 c175 9fbf 2ba4 18a8 59bc 91bf
00000100: 135c e943 c0b7 9f3f 0000 0000 c590 a6bf
00000110: 0000 0000 60d9 593f 0000 0000 c221 a0bf
00000120: 3d41 8314 5956 acbf ad59 f3a8 750e a0bf
00000130: ace5 ae8b 79f3 a4bf 30ad fadd 948b 403f
00000140: c2ea 4e1b 71ab 8d3f 7a87 dbf6 8bd6 acbf
00000150: 5815 5298 0b1a 72bf 0000 0000 da2e aa3f
00000160: 0000 0000 ce5a 7dbf 16a9 7333 f28f acbf
00000170: 36e6 e1e7 c0c6 783f 173d 8ca5 973c a7bf
00000180: 0000 0000 4a2f 913f dd1f 3184 68aa ab3f
00000190: 0000 0080 0227 983f 10d7 9884 9da1 9fbf
000001a0: 0000 00c0 f30a a6bf 2167 26eb b80c adbf
000001b0: 98c8 e752 0ac8 8d3f 0000 0080 5602 9d3f
000001c0: 441e a9d5 0d65 aabf 4423 e12d f58e a1bf
000001d0: e73c 207f 94b3 ad3f 0000 0080 9281 aa3f
000001e0: 72ee 0922 be63 983f 041a f5c7 be18 933f
000001f0: 9dd2 6850 13af a1bf 81ca fb05 2a57 88bf
00000200: 0000 0040 4e26 a33f 143c b16c ddf9 acbf
00000210: 8491 96f2 108b a4bf 0000 0000 b766 883f
00000220: 0000 0080 0562 af3f 8575 f05e 23ca afbf
00000230: 4351 13c9 f31f 8d3f 2edf a0ae c4cb 71bf
00000240: 114c 505e 575a a23f 0000 0000 2e14 79bf
00000250: e39c d3b0 4abe a23f 0000 0000 a3bf 8e3f
00000260: 1f3b bc03 299c 913f c634 7d66 0314 8c3f
00000270: ccfd cc82 e849 a33f 0000 0000 a1f5 97bf
00000280: 5984 931c 3dbb 99bf 0000 00c0 82d5 a83f
00000290: ea35 73cf ae3e ab3f 0000 0000 3866 5bbf
000002a0: ebd6 b366 5be6 a3bf 0000 0000 554f 8f3f
000002b0: ec49 fb75 f0d6 573f 47e5 1cb6 b874 93bf
000002c0: 6073 2e25 0752 95bf 0000 0080 35a6 aebf
000002d0: dbda e6df 3cf0 af3f 39dc d9fa ecc6 a23f
000002e0: 0000 0080 a457 adbf 0000 0000 92f3 92bf
000002f0: 0000 0080 7aa6 9dbf 0000 0040 bbb3 a8bf
00000300: 0000 00c0 a8d8 acbf 0000 0080 f884 a03f
00000310: cb6a 2e0e 214d 9abf 0a53 7faf 8f5b 71bf
00000320: 00bb 309f 7332 aa3f 9284 c291 b21f a93f
00000330: 3565 1746 a771 9dbf 0000 0080 9576 9ebf
00000340: 0000 0080 e862 a03f 0000 0000 70fc 7fbf
00000350: 2d5c c244 aec5 a2bf b4df 9369 0cff a03f
00000360: bd44 b6a0 415d 73bf af6f 987a 47f0 a93f
00000370: 0961 9852 ff43 afbf bc48 bdb3 464e 97bf
00000380: a509 bdb5 1303 93bf ba71 eeac 0830 af3f
00000390: f6d1 724e 668b 9dbf c88a 21c4 1d89 84bf
000003a0: 3043 a1b0 5c21 aebf fb7d 73d0 632b 873f
000003b0: 4d80 729d 3765 96bf 3535 2c75 3e72 aebf
000003c0: 0000 0080 666a a93f 58d9 11df f983 ae3f
000003d0: 0000 0040 4898 a23f 0000 0080 1feb 94bf
000003e0: 0000 0000 4137 8c3f 4cde 210b 0f37 943f
000003f0: 0000 0000 3914 a33f b418 6d5a e704 773f
00000400: eb98 7a06 c4d2 adbf e5e4 610a d57d 87bf
00000410: 14fb 168d 48ff 90bf 493a 855c 5a28 8ebf
00000420: 0000 0080 9a71 a4bf 4acd 58c0 d38e 92bf
00000430: d1c2 139f 0e25 a3bf 0000 0000 ed72 83bf
00000440: 0000 0080 75fc 97bf 0000 0000 0323 a03f
00000450: 0000 0000 331d abbf 0000 0000 dcf5 af3f
00000460: 45d3 f8d3 8cf3 a43f 27a6 c86f e055 adbf
00000470: 4c9d 0c36 b043 ac3f f38e cd65 bad7 6abf
00000480: 0000 0000 4cac af3f 858e 1273 885c 93bf
00000490: 27ee e6e2 5b0d 843f 0000 0000 40c4 2d3f
000004a0: 12c0 702e 75c2 7abf 985d 5a50 b365 a53f
000004b0: 3204 5597 2d58 adbf 3a30 3caa c77d 873f
000004c0: 1908 cb07 85dd a93f 99de 8e1b cb8e 9c3f
000004d0: 0000 0000 43bb 83bf ee0a 0842 2f34 393f
000004e0: 0000 0000 34ce 663f f37f 79c4 5604 8ebf
000004f0: 0000 0040 d135 aabf 0000 00c0 f4d8 a23f
00000500: 2abf 634f b15d 6d3f 3a46 5af5 6f92 a3bf
00000510: 2278 daa8 435f 75bf cd9a 8e0e 5979 92bf
00000520: 0000 0080 94ad 91bf d81f bebd d0b7 66bf
00000530: 02d1 48f2 fde4 a73f 3ea0 46ac ad48 a93f
00000540: 0000 0000 5df6 abbf 610d 770f fac8 9abf
00000550: 9b18 5e3e 7080 9b3f 74ee 5fc1 9298 9cbf
00000560: 6eb1 3b65 746c 9dbf ec05 63f7 5b39 89bf
00000570: 5a1e 6ab1 28d1 a73f 9910 3e46 e2de 93bf
00000580: 0000 00c0 cfe7 a63f 0000 0000 deb0 9d3f
00000590: 7e91 1eea 97fc 97bf 658b 98cb 545d ad3f
000005a0: cb2e 2694 4cd7 833f 8277 a775 12e4 ac3f
000005b0: 0000 0080 e4e0 a13f 9f30 614c f091 97bf
000005c0: 696d fb1e 0d29 a7bf add7 7220 d9e4 a0bf
000005d0: 9c24 9646 5ac9 ac3f 0000 0000 5df8 a2bf
000005e0: cdeb f560 8a88 a73f 14e4 a3fa 8d1a 933f
000005f0: affc 9ca6 78b3 ac3f 0613 2c0c 3c30 813f
00000600: 8fa7 457e d507 9cbf b148 fe2f fb5d 993f
00000610: fc25 72bc e048 973f 5126 2f55 c6f7 aabf
00000620: 3fda b6aa 249e 96bf 0000 0080 d529 95bf
00000630: fba6 15ac 11ca 813f 0000 0080 1baa ab3f
00000640: 0000 0080 609a 9d3f f07c 8409 58ae 7d3f
00000650: b838 2691 3a67 a1bf e344 12df b122 8abf
00000660: 0000 0000 2c92 87bf 0000 0000 9c65 78bf
00000670: c059 c760 bd4a 9fbf d592 2090 2056 a0bf
00000680: 261a ff8e 5f2c a1bf 0000 0000 426c 803f
00000690: 0000 0080 e1ee acbf 0727 52a9 1470 acbf
000006a0: 0000 0000 0dfa a4bf 4540 8978 0735 9dbf
000006b0: d054 17ca 6d49 af3f 1d60 ab53 5244 84bf
000006c0: 76b9 bcc9 6a70 6dbf 0000 0000 e943 813f
000006d0: 539c 5fd1 711d a2bf cc37 d9b8 5f00 a0bf
000006e0: 0000 0000 9a26 72bf 0000 0000 9315 afbf
000006f0: 87e3 f8af 9577 a33f d6fb 28df 7ba4 73bf
00000700: 6096 ffdd 830f a2bf 0000 0000 7816 87bf
00000710: 0000 0080 874f 92bf 8761 aa23 725f adbf
00000720: 51ff a241 7cb1 83bf 4d5a a847 a7b6 adbf
00000730: 0000 0000 0816 703f 9d95 003c 42a2 a2bf
00000740: f332 0c58 0b39 79bf 9122 66a0 9f96 ae3f
00000750: 0307 b9d7 86f1 af3f 0000 0080 9b59 9d3f
00000760: 0000 0000 ee18 7ebf c7cb 3066 d248 873f
00000770: 7365 a411 2688 9e3f ca24 f218 df8f abbf
00000780: 5701 6059 a23f a23f 0000 0000 7051 7dbf
00000790: 0000 0080 4ac0 a2bf 0000 0080 bfca 92bf
000007a0: 78b7 1c96 89d9 91bf b61c 385b 0115 a5bf
000007b0: 0000 0000 3525 acbf 110a 8585 6468 9f3f
000007c0: 6cd6 5040 866f a03f c85d 3ca1 3e8e a2bf
000007d0: ce0c 495a c891 a43f b358 b06f a723 87bf
000007e0: c1d7 0fbe 3925 503f 8ed9 3d03 c7b8 983f
000007f0: fecc 8255 39e1 a23f 97a9 0b18 5df1 863f

layer1.bias f8 [256]
-0.06020507011937048 -0.049574940146623725 0.03962355033919277 0.0395351759873497 0.003955059992124389 0.01262503743407988 0.03812559942525805 0.043588666830797484
-0.054310353564001566 -0.013671012700251584 -0.036604884719077135 -0.013064201469832504 -0.024777272653827197 -0.025636248290538788 -0.03935310586551284 -0.06142819345530044
-0.052860319059568096 0.05071205754218199 -0.03417387017503658 -0.04755445614517047 0.058137857837917126 -0.042587811725209854 0.057289196036905035 0.046421220409702896
0.0022317317625982626 0.003607175672414791 -0.00994982541106015 0.0350009321913204 0.03008961913066009 0.04918381142492851 -0.03689196500406902 0.01987424890743724
-0.044669966363044274 0.0008958117003877549 -0.019110343326223973 -0.04894194482187239 -0.021512375026100424 -0.005517473867712312 -0.051806461738630884 -0.04393719754917403
0.017290673885022815 0.04813823230517389 -0.044792250101680725 0.039543711391033895 -0.04250132172032739 -0.04898851042690072 0.010577971463022322 -0.017249881030061663
0.03143269813900033 0.0027702080706454354 0.04780534632244839 -0.02227480709552765 0.00610130152587533 -0.003450129276731471 -0.060044643120661746 -0.037930484475640916
-0.006745515710786752 -0.018201322622455107 0.0395673652227026 0.032656578501403695 -0.05370708525064135 0.04932255005420841 0.019097616195947523 -0.046347587543218785
-0.03652291540644313 -0.05553925782442093 0.05813411373210077 -0.026315553624011574 -0.05015551022537224 0.02508220203345601 0.04245720605021695 0.002219058619380143
-0.0053990593664816015 -0.037411601082325746 -0.04425104707479477 0.052617765313165074 -0.009303270976786016 -0.06390235108873078 0.013664524773943521 0.05413860184788578
-0.014272429049015045 -0.05818197765563284 0.018151421305457664 0.03890401725628698 -0.05435678952384464 -0.023135227525192564 0.03796177051336435 -0.05203344949226571
-0.035760589988295566 0.004413849689125724 0.04626134762636616 -0.05816244259374296 -0.05508774545281329 -0.03224195974448374 -0.004290389443487256 -0.05834037744549782
0.000617901917454684 0.013742967214945225 -0.03230447228372658 0.05014365929968508 -0.025530345513316045 0.0375459462334002 0.019606991449642543 0.009206630488236084
-0.005498138492048578 -0.016020285952029367 -0.036280914395819285 -0.004078061362089075 -0.013855081520491953 0.04908249624433734 -0.04655098098210852 -0.0009627324679886649
-0.04385668784379959 -0.0403035375618547 -0.03697604678679119 -0.03163990645953897 0.002414977641439377 -0.040923974804337834 0.013452268174126038 -0.059782011422795205
-0.04045212111984859 0.006665759073534853 -0.05106448572517634 -0.055676204122970516 -0.031337161018118107 -0.05892368124159953 0.019746997017922863 -0.005134231527793727
-0.017454255456959167 -0.03742525568221549 -0.0271446310590595 -0.026265423628388646 -0.02781230926562309 -0.026312118504592287 0.054406143724918365 -0.04139902869508369
0.03875669434886922 -0.026459410082530856 0.007172098758825757 -0.042969538875085714 0.03435621589234736 0.059270938111510386 0.04529688511272672 -0.007766556079877498
-0.04671453684568405 0.048196699455334197 0.06378538931054915 -0.029509707481942076 0.05599280054861986 -0.03279040513349972 0.015555500226369454 -0.021881642693508327
0.061498374274697384 0.009162030167515028 -0.003239209768931872 -0.043340391912512294 0.031659520651314776 -0.05660468092422635 -0.0015486404299736023 0.03420400021954351
0.010954060283416767 -0.05731012873508912 -0.04339308708108932 -0.030592588210329855 -0.012753289287843573 0.0620813584656086 0.010130467918960837 -0.0493059590352865
-0.0005701069703849497 -0.005107901990413666 -0.03907294389554636 0.022808585269343564 -0.05950737125302432 0.015930868678574114 0.056429020410727344 -0.05601301411380342
-0.015562739154673521 -0.04963524523649437 -0.02616759622888131 -0.01838216489270615 0.006387493503008361 -0.026037571334801436 -0.03676543558705112 0.04860813169749755
-0.023568551121285617 0.0508503895792061 0.008580036549617498 -0.028769532393845262 0.04363540346133889 -0.010204945629016835 -0.040038734905740295 0.0525874716550676
-0.03493693418571588 -0.014526902502715362 -0.013731137474791604 0.05697731024868773 -0.0522718565345372 -0.046416708813988475 -0.03336421192063244 -0.017870163119560037
0.02860367678141165 -0.050756692639860324 -0.04979131203828523 -0.026982337983038396 -0.0366856959206457 0.029352584943173617 -0.007533396478480309 0.010598437946924435
-0.038848075147910825 0.013072096830532037 0.05131701718229514 0.04931046982429437 0.015571120319033231 0.02740598872305157 0.036172505460708715 -0.028114164260686872
0.02034980145967927 0.047660713383847184 -0.05994073023883224 0.02530403321154092 -0.009260596541791696 0.041298411100252265 -0.0033164980965489557 0.03870757534386772
-0.033473764885788106 -0.033812431644048284 0.021369542598708647 0.02906797900102125 0.03633383027349679 0.03944686962293879 -0.03049143625594711 0.018195236678975366
0.030067005580780504 0.05536227414148724 0.054776641591495895 0.06591470310962363 0.03729995638027317 0.013618005411384469 -0.03612970655717891 -0.0490652225244997
0.05140351884070693 0.04149668530107083 0.006485369336377859 -0.0413877671071262 0.035796935609139664 -0.028290446315071795 0.006137978772162372 -0.0585784112193016
-0.05638506987481419 -0.05844714382415605 0.059776568307488134 0.018618112461757284 -0.04066833298975366 -0.05894018637864819 -0.019780918908147285 0.0244651250164413
00000000: 6fa2 6eee 32d3 aebf 2806 43f5 e261 a9bf
00000010: 956b b7b9 8949 a43f e385 d05f f43d a43f
00000020: 5b47 1e55 2e33 703f 5b06 1fd7 27db 893f
00000030: 9e00 58d5 3285 a33f 886e 07f5 4051 a63f
00000040: ab7d c810 91ce abbf 2d33 9b43 8cff 8bbf
00000050: f80c 7c1d e0bd a2bf 6083 7d70 67c1 8abf
00000060: 56d6 ed9e 365f 99bf 0000 0080 6340 9abf
00000070: 6a76 601d 1726 a4bf bac0 e223 8473 afbf
00000080: 8de3 3bfb 8110 abbf 3f26 5049 eef6 a93f
00000090: ce1e 8fcd 3c7f a1bf 8a5b d8c3 0e59 a8bf
000000a0: 4e8e 25cc 3ec4 ad3f 7ece 22d5 11ce a5bf
000000b0: 1a08 c96e 0255 ad3f b40a 00af 85c4 a73f
000000c0: dfb8 e1dd 4748 623f 5806 68b1 cb8c 6d3f
000000d0: fe69 eef5 9260 84bf 52b6 2e66 a4eb a13f
000000e0: 3b0c 7628 d0cf 9e3f 191a 20db 9e2e a93f
000000f0: 54f5 5aee 80e3 a2bf b62a 5c44 ea59 943f
00000100: 590f 4959 fbde a6bf 63e3 6ffa 9c5a 4d3f
00000110: 22e6 676e a991 93bf 7c3d d328 eb0e a9bf
00000120: 0f1a c90c 5707 96bf 9eff 179d 7d99 76bf
00000130: 3d1d c765 6086 aabf 816a 1ab5 ef7e a6bf
00000140: 61a9 727b a5b4 913f f03d e00a 93a5 a83f
00000150: ec18 9a82 02ef a6bf 56b8 5fc6 123f a43f
00000160: 80b2 a6b5 bbc2 a5bf 389b 53a4 0515 a9bf
00000170: 8901 ef4b e7a9 853f c638 89eb f3a9 91bf
00000180: 6568 1055 f217 a03f 0c13 2122 8cb1 663f
00000190: 03c8 0e3e f179 a83f 0000 0000 35cf 96bf
000001a0: 2d47 44a8 adfd 783f c917 230d 7243 6cbf
000001b0: d5a7 01e5 2bbe aebf da49 b0dc 9f6b a3bf
000001c0: 0bb1 f595 2fa1 7bbf c02a a115 5ea3 92bf
000001d0: 78a4 3d77 2c42 a43f a158 53f1 5cb8 a03f
000001e0: fb12 6ebd 7e7f abbf f454 e026 ce40 a93f
000001f0: 81fd f853 538e 933f 3245 7ef9 deba a7bf
00000200: ae53 73ae 21b3 a2bf 0000 0040 a46f acbf
00000210: 62cb 852a c1c3 ad3f b5da c3e8 76f2 9abf
00000220: 71ab 43a8 fbad a9bf ff0b c815 26af 993f
00000230: ae30 ee6e f3bc a53f 6633 5706 b42d 623f
00000240: bafd 87f6 521d 76bf fc77 4706 9d27 a3bf
00000250: 0000 00c0 12a8 a6bf ced3 6a3a b7f0 aa3f
00000260: 209e bae4 970d 83bf a948 108c e75b b0bf
00000270: 7adf 2778 25fc 8b3f 4192 c608 0eb8 ab3f
00000280: 0000 0000 dd3a 8dbf 53be 7e36 07ca adbf
00000290: 010c 8843 4996 923f acf8 9833 3aeb a33f
000002a0: 6614 a432 a7d4 abbf 38c5 6cd6 c2b0 97bf
000002b0: ffd0 b4a5 b96f a33f 2c15 bcd7 20a4 aabf
000002c0: a085 f848 364f a2bf fd2f 07c1 4114 723f
000002d0: f48d 3f3e 91af a73f 5559 97b9 77c7 adbf
000002e0: 55aa 4202 7634 acbf f0b0 52a5 0482 a0bf
000002f0: 84d3 8ca5 cc92 71bf c254 543a cade adbf
00000300: 7083 8843 563f 443f 21d0 e7d5 4525 8c3f
00000310: f13f f237 368a a0bf db7b 9601 6eac a93f
00000320: 8a1e 247c a024 9abf baf3 56e6 3839 a33f
00000330: aa58 32ec da13 943f f09e d306 edda 823f
00000340: 5b15 3250 3785 76bf 1036 f230 9f67 90bf
00000350: 1319 9979 6993 a2bf 606a e642 28b4 70bf
00000360: b485 1c90 0d60 8cbf 6dd7 5948 5721 a93f
00000370: 5f6a d4b9 87d5 a7bf d5d9 7e3b fc8b 4fbf
00000380: 0000 0040 6274 a6bf 3488 7b4f aaa2 a4bf
00000390: 5b88 5e3f 86ee a2bf 2204 fc16 1b33 a0bf
000003a0: ea9c b23f 93c8 633f ee5c d0ba fcf3 a4bf
000003b0: 014d ebde dc8c 8b3f e766 e66f bf9b aebf
000003c0: 09f4 86f2 23b6 a4bf 11e1 9413 8e4d 7b3f
000003d0: 4677 5ad0 1f25 aabf b645 bf67 9781 acbf
000003e0: bed1 71a3 6c0b a0bf b102 c9a7 3e2b aebf
000003f0: ed74 8b89 8e38 943f ae0d 08c8 a107 75bf
00000400: b065 7441 87df 91bf e72b 6632 6729 a3bf
00000410: 7d80 a45a cdcb 9bbf d580 ffbd 52e5 9abf
00000420: 496b e37a d47a 9cbf 8ae0 dc61 90f1 9abf
00000430: 0000 0040 1fdb ab3f ecc0 a9e4 4032 a5bf
00000440: f47b 75dd ead7 a33f 4758 e7f3 2c18 9bbf
00000450: 1330 ce99 7d60 7d3f c2a8 6278 1a00 a6bf
00000460: 7c09 584f 2397 a13f 3d98 95a9 c258 ae3f
00000470: 07f4 5640 2731 a73f 5c98 d905 d3cf 7fbf
00000480: 0000 00c0 f7ea a7bf 5c21 dfdf 3cad a83f
00000490: f32a 0d41 3d54 b03f aba7 32f2 ca37 9ebf
000004a0: 5de6 559e 16ab ac3f 9e89 576b e7c9 a0bf
000004b0: 921f f6e5 8fdb 8f3f 9c68 012f 2468 96bf
000004c0: 4eb3 8804 b77c af3f f6bc 79df 8ac3 823f
000004d0: e6e0 b780 1d89 6abf 345a b83b b630 a6bf
000004e0: b8de 9b3b ad35 a03f 7479 bdea 49fb acbf
000004f0: 0000 0000 785f 59bf 90ae abcc 2f83 a13f
00000500: dace 6715 156f 863f d123 4bd1 c057 adbf
00000510: 2b82 c563 9e37 a6bf 2415 74d7 a953 9fbf
00000520: 3a00 4383 651e 8abf 2322 9ab8 20c9 af3f
00000530: 65ac 3d63 48bf 843f a7e3 1b73 a13e a9bf
00000540: dbd7 8165 67ae 42bf 0000 0000 06ec 74bf
00000550: 5c2f 6170 5e01 a4bf f70d 333f 225b 973f
00000560: c32a ce0a c077 aebf aca8 e27f 2e50 903f
00000570: 3935 6bba 43e4 ac3f edd0 89df bcad acbf
00000580: f3dd a47d 5bdf 8fbf e713 0a76 ca69 a9bf
00000590: de68 12a8 adcb 9abf 9ce7 2c34 c6d2 92bf
000005a0: eb6b 2ebb c529 7a3f 1da5 66d5 97a9 9abf
000005b0: ad6c f04e ebd2 a2bf 3fbb eb3f 2ae3 a83f
000005c0: 19bf 1eb1 5a22 98bf a58d 76f0 0f09 aa3f
000005d0: 4d61 0803 6992 813f 3cd8 02a3 c275 9dbf
000005e0: e2e0 a02d 6157 a63f 3268 df9d 54e6 84bf
000005f0: c29a fc01 f57f a4bf df2c e0bd beec aa3f
00000600: 3314 80fb 40e3 a1bf 376e 4ad9 47c0 8dbf
00000610: 43fe 2013 121f 8cbf 67aa 4348 212c ad3f
00000620: 3853 a274 60c3 aabf 6a25 b04c eec3 a7bf
00000630: d1a2 1c2e 1d15 a1bf 24d7 b058 8e4c 92bf
00000640: e73b 4941 484a 9d3f 38f5 e1fd c7fc a9bf
00000650: afa2 a831 3f7e a9bf 20bb d30c 42a1 9bbf
00000660: ea9b 6bb0 77c8 a2bf 6235 89a1 9a0e 9e3f
00000670: 20c6 0bb8 56db 7ebf 1b3f f742 a2b4 853f
00000680: 07b0 8b18 e5e3 a3bf 90ab 0423 8bc5 8a3f
00000690: b76d 0d5d 3946 aa3f 87d1 7dce 383f a93f
000006a0: 9c35 4264 c0e3 8f3f c4c5 1ec5 5010 9c3f
000006b0: 20ae efdf 3385 a23f 9451 37a0 f5c9 9cbf
000006c0: c966 ff0e 94d6 943f 4647 932a fc66 a83f
000006d0: 0af6 2528 8db0 aebf 96e0 66ec 4ce9 993f
000006e0: cbbc 4e3a 38f7 82bf 35cd 1aba 1025 a53f
000006f0: ace1 945b 332b 6bbf 4232 6bb4 7ad1 a33f
00000700: 5dba ea2a 7923 a1bf 4706 38f0 dc4f a1bf
00000710: 8d23 5eba e5e1 953f 2d49 ae0c ffc3 9d3f
00000720: e0b2 8609 599a a23f f691 eb4d 6132 a43f
00000730: a904 1ca6 2539 9fbf dcad eaa9 c5a1 923f
00000740: 6de5 a196 e2c9 9e3f 2660 bda9 7158 ac3f
00000750: 84bc 7018 af0b ac3f 1e6f 2e36 c9df b03f
00000760: c04b 97d9 fa18 a33f 3f78 07bf c1e3 8b3f
00000770: 8a81 27c8 977f a2bf 6a35 3aac 131f a9bf
00000780: 80eb a3e0 8f51 aa3f ab60 85b4 0d3f a53f
00000790: 5e4f 3c13 6790 7a3f cef0 5b04 c730 a5bf
000007a0: e1fe 79d7 f953 a23f 9793 d9b6 2bf8 9cbf
000007b0: 798e 7021 2324 793f 4c88 e050 fdfd adbf
000007c0: 12a4 30fe 80de acbf 5fe9 89b6 c8ec adbf
000007d0: 5242 e5cb 089b ae3f 06c6 8b60 a010 933f
000007e0: 3b00 59d0 7ad2 a4bf 7237 d579 682d aebf
000007f0: 8768 2eff 7241 94bf 6948 5abf 620d 993f
