python/snapshot0.pt (torch_old, 586867 bytes, 6 tensors)

layer0.weight f8 [256, 19]
5.5646562882926835e-05 -0.08691243264644463 0.007183751130410708 -0.12563342783420425 -0.05304660830467081 0.13066344191994875 -0.19178702092247268 -0.06121928936965704
-0.15335998116897043 -0.048163152086039114 0.14784805787186606 -0.07207864714522014 -0.014548311997346058 0.11389766133179557 0.18864416148693222 0.015866136217423932
-0.1706880421894566 0.014241905832726123 0.11786422471298497 -0.22390197217464447 -0.16982805728912354 -0.08838824927806854 -0.17991748452186584 0.03924866020679474
0.15789459645748138 -0.13049817085266113 0.13947896659374237 -0.14375373721122742 0.21039552986621857 0.12097127735614777 -0.05681535601615906 -0.009122282266616821
-0.18018260598182678 -0.16631771624088287 -0.0008088350296020508 -0.013552352786064148 -0.11511459201574326 -0.21852047741413116 -0.2144175500430225 -0.15484251387492404
-0.203850898221886 -0.04521110959426141 0.13014091245754972 0.17347221950038416 0.009298885906258774 0.12372889604118789 -0.20735233954864232 -0.22830151288665385
-0.2196665336987469 0.15699464408415584 0.14833630610984516 -0.10059531338587974 -0.18686914749518618 0.1994189738474728 -0.17219124885678103 0.1937900867462615
-0.06985555533788795 -0.2225775268998097 -0.07879196080827208 -0.09210295948647948 -0.012490391465658833 -0.17974211249017225 0.13557585789536433 0.07597203233294939
0.21847821432642198 -0.08213149361393773 0.16471226235962466 0.17951450321405893 -0.16086194850196403 0.20458529298060782 -0.10784064176439435 -0.11989326003455611
-0.05564048859738796 -0.0327496557551633 0.22044883430135084 0.04111417818240868 0.1501111157525714 0.01570466834198795 0.09755513745438425 0.009639985143059117
-0.11883486133921774 0.011624805114922946 0.0027582764579193336 -0.1979634067409149 -0.13551881901311102 0.17359965124116933 -0.09474686101194309 0.20790855365879754
0.08151877345420759 0.1039310793924911 -0.15180187744010132 0.11506930667054026 -0.04301713220773888 0.17088031905803455 -0.0301087362287473 0.11806218326091766
0.2015291005373001 -0.1438356190919876 0.13108302652835846 0.14638076722621918 -0.06607069075107574 0.023173585534095764 0.04132319986820221 -0.07557576894760132
0.10702337324619293 -0.1932065188884735 -0.12595859169960022 0.19899411499500275 -0.10267247259616852 0.14770324528217316 -0.05370679497718811 -0.10237815976142883
-0.15433357656002045 -0.12427423149347305 -0.12135571460091057 0.18632073481715727 0.0865177341286045 -0.1445649586137433 0.1358778007809024 -0.07107057115559348
-0.009767710485246238 0.041063148685532826 -0.040894057598173265 -0.1284170069939155 -0.08845691071283168 -0.049093370535553536 -0.2085399685768349 0.2184786923710208
0.12701745112575102 -0.20794686893783998 0.04619491175733201 0.10501737583535521 -0.01663269730681247 -0.16433596047032037 0.10787754324805561 0.22478966978919349
0.1164440420044643 -0.1661070826874987 -0.023157223188604196 -0.21773734924582291 0.21691893108843094 -0.14276662768782233 -0.010394004976899102 -0.013131926028901522
-0.16691784981773627 -0.18326323390227708 0.13439427880179725 0.17744510439765296 0.15094404486548743 -0.14044972677355255 0.17897020169214872 -0.15504587293293598
-0.2162615018299276 -0.09621835819989975 -0.19147936574727836 0.104708049971754 0.11331826873510543 -0.19891347706471282 -0.21411374932622934 0.037472070358458884
0.1408751418301625 -0.10670749135460762 0.18040167741197627 -0.03616460536638152 0.14607570661977376 -0.1960090321133762 0.0946529848167247 0.22458130546301064
-0.15049918106032184 -0.13835237760913144 0.20565326924979652 -0.05633666691618756 0.10829048278493081 -0.06958268163042869 0.01742966892880608 -0.11015173373061027
-0.12897705667766765 0.18900629340151556 -0.009486061263841019 -0.19809374843445074 -0.20350261778128034 0.03401891955458764 -0.20450316107130287 0.1459175597418029
0.020906424611663935 0.009563971783344017 -0.070001419161137 -0.12780857143589053 -0.058306022962242125 0.17147206660671183 0.19979927403906633 -0.03169136779328521
0.13826555473784258 -0.15610758500119398 0.14749363524893572 0.049162829440334864 -0.10724968954321328 -0.17299165899031993 0.2188260638769741 -0.015389501138407643
-0.01970612972419692 0.08713069918051353 -0.048835768082200054 -0.21286718087216566 -0.11330370144864259 -0.2090819283010597 -0.052372712108838884 0.21618653064640136
-0.13319097979007394 0.15847255289554596 -0.02953989803791046 -0.22288595139980316 0.06954111158847809 0.09511320292949677 -0.15843313932418823 -0.164693683385849
0.11767925322055817 -0.17168958485126495 0.16687960922718048 0.06656332314014435 -0.11273849755525589 0.09504236280918121 0.15862874686717987 0.048515304923057556
-0.06062529981136322 0.1463048905134201 -0.15328246355056763 -0.13620299100875854 -0.1607521027326584 -0.07909540832042694 -0.048170119524002075 0.053802892565727234
-0.0245179682970047 0.04571406543254852 -0.12301453202962875 -0.21625760197639465 -0.2032703012228012 0.035994455218315125 -0.04295334219932556 -0.20427587628364563
-0.025674626231193542 0.12909047305583954 -0.021660849452018738 0.0023936480283737183 -0.10137160122394562 -0.0023228973150253296 -0.02330121397972107 0.21239645928065684
-0.10160951167423804 -0.20509317368347738 -0.07762816399414618 0.15754856318156626 -0.01572158827951324 -0.19328008942983615 -0.1931520675757116 0.051497250139634215
00000000: c4ff 7b57 c12c 0d3f 7610 d5a7 e43f b6bf
00000010: 0bf8 ae82 b56c 7d3f 4388 ea93 c114 c0bf
00000020: 0421 aacf ec28 abbf dd1b ea64 94b9 c03f
00000030: 8c63 5423 7a8c c8bf 403e 747b 2258 afbf
00000040: 4c65 d1c3 4ca1 c3bf 49e3 2936 d7a8 a8bf
00000050: 9c1b ab66 afec c23f 6e88 3a08 bf73 b2bf
00000060: b6c2 ec61 81cb 8dbf 58cd 82aa 6528 bd3f
00000070: bd77 15ec 7d25 c83f fdbd ab60 363f 903f
00000080: 62d0 8213 1bd9 c5bf 882f 463e dc2a 8d3f
00000090: f8ba 828e 592c be3f 0000 00e0 d1a8 ccbf
000000a0: 0000 0000 edbc c5bf 0000 00c0 9ca0 b6bf
000000b0: 0000 0040 8907 c7bf 0000 0080 6618 a43f
000000c0: 0000 00e0 e335 c43f 0000 0000 2ab4 c0bf
000000d0: 0000 0060 72da c13f 0000 00c0 8566 c2bf
000000e0: 0000 00a0 3dee ca3f 0000 0040 f9f7 be3f
000000f0: 0000 0000 e716 adbf 0000 0000 b4ae 82bf
00000100: 0000 0040 3910 c7bf 0000 0020 e649 c5bf
00000110: 0000 0000 0081 4abf 0000 0000 56c1 8bbf
00000120: 0000 0060 2678 bdbf 0000 00a0 7af8 cbbf
00000130: d6c5 8fc6 0872 cbbf d6c5 8f26 e1d1 c3bf
00000140: d6c5 8f46 c917 cabf 4b17 3f1a e925 a7bf
00000150: 2a3a 7019 75a8 c03f 3864 c272 5634 c63f
00000160: e359 da56 4b0b 833f 8a2c 116a b2ac bf3f
00000170: 1125 8e7e 858a cabf 36dd bce5 fb38 cdbf
00000180: a882 2171 081e ccbf bf8a fe86 6618 c43f
00000190: b48e c61f affc c23f a48b 1f4d 9dc0 b9bf
000001a0: d6c5 8f06 54eb c7bf 2a3a 7099 8f86 c93f
000001b0: 9ba6 3fe3 5c0a c6bf fb9d 6e12 1dce c83f
000001c0: f4c1 9ebd 0de2 b1bf acfb 6d9f 6b7d ccbf
000001d0: 4ef7 dbbe b52b b4bf 4ef7 db3e 0f94 b7bf
000001e0: 5fba dff6 8f94 89bf acfb 6d1f ca01 c7bf
000001f0: 71d4 e4b9 8c5a c13f 22da 4732 e772 b33f
00000200: abd1 b518 18f7 cb3f 8422 0bcf 9106 b5bf
00000210: 68d9 0a9a 4a15 c53f 1c25 3bcc 54fa c63f
00000220: 894e fed3 1f97 c4bf a911 4cd3 d92f ca3f
00000230: 19c7 8ebd 719b bbbf 4ef7 db1e 53b1 bebf
00000240: 98ee b7fd e87c acbf 2fed d818 90c4 a0bf
00000250: ffff e1da aa37 cc3f 7d06 64e5 ea0c a53f
00000260: d030 764e d736 c33f 8a86 b173 e214 903f
00000270: a761 ec9c 5ff9 b83f 140d 63e7 20be 833f
00000280: 599e 1323 f66b bebf cfe6 53ee bece 873f
00000290: a54c c365 8698 663f 92e4 e06a dd56 c9bf
000002a0: 84b1 d33f ae58 c1bf 12c3 566c 8338 c63f
000002b0: 71e8 718d 5441 b8bf 1bf8 425b bf9c ca3f
000002c0: 53f0 fe11 6ade b43f c65a 072b 3a9b ba3f
000002d0: 30cf 8971 3e6e c3bf a761 ec9c 2e75 bd3f
000002e0: 06f9 ff6f 5706 a6bf df30 f102 68df c53f
000002f0: b997 b415 d3d4 9ebf 0000 00c0 5239 be3f
00000300: 0000 00a0 b4cb c93f 0000 00a0 3469 c2bf
00000310: 0000 0020 54c7 c03f 0000 00e0 9abc c23f
00000320: 0000 0040 02ea b0bf 0000 0000 d1ba 973f
00000330: 0000 0080 5028 a53f 0000 0000 ef58 b3bf
00000340: 0000 0040 e265 bb3f 0000 00c0 fdba c8bf
00000350: 0000 0040 691f c0bf 0000 00a0 a378 c93f
00000360: 0000 0040 be48 babf 0000 00a0 f0e7 c23f
00000370: 0000 0000 757f abbf 0000 0080 7435 babf
00000380: 0000 00e0 33c1 c3bf 0000 00a0 6fd0 bfbf
00000390: 52c4 6409 2b11 bfbf d49d 4d9b 5bd9 c73f
000003a0: ae3b 9bb6 0626 b63f 2c62 b2c4 1a81 c2bf
000003b0: d49d 4d9b 7164 c13f b241 d252 ae31 b2bf
000003c0: ec38 bae8 1701 84bf 1dad 59a1 3a06 a53f
000003d0: 1744 f8df 10f0 a4bf 4200 a5ee f76f c0bf
000003e0: e0e6 9db2 1ca5 b6bf 131d cd29 c422 a9bf
000003f0: c522 790c 70b1 cabf d49d 4d1b 1cf7 cb3f
00000400: d49d 4d9b 1b42 c03f 2c62 b2c4 009e cabf
00000410: ac8b 7a06 dca6 a73f d17e b932 6be2 ba3f
00000420: b979 e86b 2908 91bf 5b6d e3f3 f508 c5bf
00000430: 3d25 39d8 dc9d bb3f a592 1c6c e8c5 cc3f
00000440: 3d25 39d8 46cf bd3f 5b6d e333 ff42 c5bf
00000450: 517f 0bf1 86b6 97bf fd73 1045 d1de cbbf
00000460: 3f3c 74e1 ffc3 cb3f 5890 7046 2d46 c2bf
00000470: f018 9abb 7349 85bf e8f8 9e46 e9e4 8abf
00000480: 0cfc 0a69 905d c5bf 79b1 156e 2b75 c7bf
00000490: a592 1cec d433 c13f a592 1c6c 85b6 c63f
000004a0: a592 1c6c 2252 c33f dabd 9cb3 41fa c1bf
000004b0: 7cf7 9cdd 7ee8 c63f be38 d00c 8bd8 c3bf
000004c0: 2e27 dff6 74ae cbbf 574e be2d c4a1 b8bf
000004d0: 2e27 df56 6582 c8bf a9b1 4192 25ce ba3f
000004e0: a9b1 4112 6d02 bd3f d300 5d2f ff75 c9bf
000004f0: d273 7d4f 1468 cbbf 8eee 6709 8a2f a33f
00000500: ad6d 7d57 3208 c23f b532 9ba1 2e51 bbbf
00000510: a661 50f4 6617 c73f 9b88 a4ca 2a84 a2bf
00000520: b804 56d7 9bb2 c23f 65e3 52ef d216 c9bf
00000530: a9b1 4192 2d3b b83f d2d8 2089 14bf cc3f
00000540: 724b 5da2 8e43 c3bf 14d9 93dc 87b5 c1bf
00000550: 5f26 dfa8 d852 ca3f c1fb f0db 28d8 acbf
00000560: 1882 07d2 ecb8 bb3f e87d f8ad 2bd0 b1bf
00000570: 8b08 1e48 15d9 913f e87d f86d e732 bcbf
00000580: bbb5 2ef8 5182 c0bf 81e7 72b4 5b31 c83f
00000590: 0e1c 2b97 6d6d 83bf c9b4 88cd 225b c9bf
000005a0: b5af 02b0 5f0c cabf 794a dd85 ed6a a13f
000005b0: 416c 5dda 282d cabf dd67 8035 6dad c23f
000005c0: c4fc ee67 7e68 953f 0711 3c90 4696 833f
000005d0: e87d f8ed 9ceb b1bf c099 3b01 085c c0bf
000005e0: 27b8 907b 49da adbf 226e 20f3 cbf2 c53f
000005f0: 1694 e1c9 0593 c93f 94af 79d8 d939 a0bf
00000600: 1694 e189 afb2 c13f ea6b 1e56 55fb c3bf
00000610: 1694 e149 12e1 c23f 6b08 40d1 de2b a93f
00000620: 0b21 1835 b774 bbbf 060f ec36 9724 c6bf
00000630: e797 ee11 7e02 cc3f 3ecf bae0 8784 8fbf
00000640: fadd c8fa d72d 94bf 383a 758f 324e b63f
00000650: 8480 9375 0001 a9bf ea6b 1e56 3b3f cbbf
00000660: cbd7 3cac 7801 bdbf ea6b 1e56 32c3 cabf
00000670: a2aa 6b9b 98d0 aabf ac22 7b0f 00ac cb3f
00000680: 4208 29eb 660c c1bf 0000 0020 d448 c43f
00000690: 0000 0000 b53f 9ebf 0000 00e0 8687 ccbf
000006a0: 0000 0040 72cd b13f 0000 00c0 5659 b83f
000006b0: 0000 0080 8947 c4bf 0000 00c0 ae14 c5bf
000006c0: 0000 0040 3a20 be3f 0000 00a0 ecf9 c5bf
000006d0: 0000 00a0 4f5c c53f 0000 0040 4b0a b13f
000006e0: 0000 0020 6edc bcbf 0000 0040 b254 b83f
000006f0: 0000 0060 f24d c43f 0000 0080 ffd6 a83f
00000700: 0000 0080 470a afbf 0000 0060 1eba c23f
00000710: 0000 0080 c29e c3bf 0000 0080 196f c1bf
00000720: 0000 0060 8693 c4bf 0000 00c0 983f b4bf
00000730: 0000 0000 c1a9 a8bf 0000 0080 0d8c ab3f
00000740: 0000 0000 3d1b 99bf 0000 0080 d567 a73f
00000750: 0000 0060 e17d bfbf 0000 0040 54ae cbbf
00000760: 0000 00e0 c204 cabf 0000 0080 dd6d a23f
00000770: 0000 0000 fbfd a5bf 0000 0040 b625 cabf
00000780: 0000 0000 734a 9abf 0000 0060 0986 c03f
00000790: 0000 0000 432e 96bf 0000 0000 d89b 633f
000007a0: 0000 0040 7df3 b9bf 0000 0000 7807 63bf
000007b0: 0000 0000 46dc 97bf 57c4 32a3 ce2f cb3f
000007c0: 4877 9ab9 1403 babf a93b cd3c 7e40 cabf
000007d0: 4877 9a79 70df b3bf 57c4 3223 8d2a c43f
000007e0: 0cba 01ee 5119 90bf 52d8 88e7 66bd c8bf
000007f0: 3d3c b2fa 34b9 c8bf bc08 5efa d85d aa3f

layer0.bias f8 [256]
0.046237399840661525 -0.1745239496231079 0.12382100216969277 0.14115706112719073 -0.22321408313620728 -0.13422998785972595 -0.04281245390736048 -0.15489972563851037
-0.05441335908681693 0.081022311474506 -0.059772352743350826 -0.08888055384159088 0.14605258405208588 0.03934230059306532 -0.10520689054991558 -0.06664818239716994
-0.19264070849985057 0.08955368407281818 0.09629079994819495 -0.11927014657760766 0.21653754592316884 0.20574646457049434 -0.20170373249459905 -0.012477202961117328
0.12145748260638661 0.06499396795132252 0.11036811434826503 -0.07491682469844818 -0.12539982679196526 0.18109224480971003 -0.019257843494415283 0.19481971351726712
-0.19318163394927979 0.05752791464328766 -0.014654389195479059 0.00140434990555209 0.2290390735685607 0.009713136577712375 0.1599605616574877 -0.09703762829303741
0.04579337064359772 -0.057535722851753235 0.17878158390522003 -0.12492618621535176 -0.15070563362339476 0.1081431411907349 0.03467532973851048 0.22488763985449203
-0.17955366312150023 -0.18599710375141473 -0.0870400621815161 0.11282439529895782 -0.024221460916602572 -0.20397338271141052 -0.1369935596625922 0.11733390390872955
0.19803237000621912 -0.1325405240058899 -0.009447813034057617 -0.04517948627471924 0.028339563338448313 0.16024349537599156 -0.09453162550926208 -0.06383738003678611
0.008168548345565796 0.09859256446361542 0.16560446368078283 0.19139252603054047 0.09944246709346771 0.020418956875801086 0.06672871011472768 -0.2149549892197558
-0.1366862222422019 -0.12492881715297699 -0.06210860525283625 0.030917235283251195 0.21991604449606786 0.1528066122437617 0.0027417754091480775 -0.10153352860221938
0.06541771569870462 0.21309864598554015 0.06744934040035327 -0.06219278382246478 0.1483248377636883 0.12709631025791168 -0.1778195215815428 -0.024839781082848872
0.1510690599679947 -0.07444427013555271 0.11593769353871922 0.14275071392790992 0.11501628640807736 -0.18941336870193481 -0.21935140207519635 0.22529496195765097
0.2247561365365982 -0.2033984257704853 -0.05659835449534579 -0.08607313034237363 -0.11621681600809097 -0.18998702525026012 0.21474236833161764 -0.1091877702399405
-0.19162137806415558 -0.14471587538719177 0.20855654776096344 0.15666694487829605 0.2046663748451367 0.1211851606525758 0.06432083551158504 -0.09793158799417433
-0.05926613754626038 -0.11802592128515244 0.034549333922447516 0.07536664047669962 -0.1612465652347302 -0.02469040255708029 -0.06511767208576202 0.051995330199924875
-0.14590448533519307 0.21558347998437724 -0.10678664594888687 -0.084331518302624 -0.02564363710938444 -0.04483709698791118 -0.12723411989441122 -0.17806487540371568
0.0016065355224071888 0.09170746869603859 0.09076943132388433 -0.1385847348116105 -0.08325445311552745 -0.14165173755137644 -0.18406463900410375 0.08843938535401911
-0.054657429456710815 0.03564886748790741 0.22678854835588283 0.021944271666606636 -0.2195756413170786 0.006268300465378079 0.06868528208677781 -0.1796846265382999
0.14243999551303685 0.09921316476461564 -0.12936535471862304 -0.13110477856592404 -0.03417539254026278 -0.11897298904406046 -0.15518581875329163 0.17927178250133766
-0.12102128452698972 0.02326442134609715 0.1137363463640213 -0.21942087505775648 -0.20966209325964322 0.21249912994948952 -0.18052378296852112 0.050889403242134396
-0.03791791322251774 -0.053578391671180725 0.2096408725880307 0.20819431550936984 -0.10557431519727102 0.08560671460690754 -0.07621170241242001 -0.03797629475593567
-0.13453279992244696 -0.20323657989501953 -0.18829506635665894 0.18228004316503485 -0.13002821623157795 -0.14254939537406539 -0.04507199560209798 -0.1780751160341502
-0.1972818821668625 -0.22440486991661823 -0.1514884429420554 -0.05727420747280121 0.033642329794298806 -0.10313851079293228 -0.13256965577602386 0.21067083972957287
0.07778208964036878 -0.05819735091172984 -0.1677120757520529 0.08593616573442801 0.06521126521816092 0.10963121475286658 -0.17899871967715222 -0.09753309943457018
0.1563685435638326 0.07936471312072091 -0.17493990478198637 0.015312328934669495 -0.09775053379017051 -0.21193766593933105 0.09322889149188995 -0.18413885720967874
0.13029963968518976 0.05811965636557969 0.22502114351076172 0.17382289469242096 -0.09143763780593872 0.12307421254793824 -0.0808569192679645 -0.20901490234706968
0.11432693896683988 0.20885967613281914 -0.1512240840879848 -0.14978459477424622 -0.1363969345248754 -0.17877820134162903 -0.03556521232408077 -0.17128759083782177
0.227207190700338 -0.1359628587961197 0.10930889841073743 0.07825915515422821 0.007803365588188171 -0.0619897539154649 -0.05672052433743389 -0.1779397431993082
0.09375032921152802 -0.10757729411125183 -0.015331562014133914 0.2250249032519483 0.20117303031443617 0.12980227001020828 0.18531852503457216 0.14908862886471688
0.09095367405587573 -0.19746285886747225 0.0511675386995095 0.17788597751287594 0.027475041461878204 -0.06294095934017532 0.0008117922117391445 -0.16549911586635624
-0.1736883511863748 -0.18789049414442477 0.08366245525354699 -0.005028381943702698 0.0027586793026288504 -0.1582878679037094 -0.15024949979367916 0.043130980243370545
0.11761122168032177 -0.21679102327438904 0.07559521496295929 0.041910527413680544 -0.10091907129383144 0.14971562409031747 0.13768566192208265 -0.1501019448041916
00000000: fcde 55b0 6dac a73f 0000 0000 cd56 c6bf
00000010: 5c74 e0b2 bbb2 bf3f 5404 9240 6f11 c23f
00000020: 30cf 8971 4792 ccbf 0000 00c0 722e c1bf
00000030: a688 c992 83eb a5bf 5b6d e313 c1d3 c3bf
00000040: b79c 7c5b 11dc abbf 1882 07d2 e0bd b43f
00000050: 94af 7958 7b9a aebf 0000 0040 e0c0 b6bf
00000060: 0000 00e0 d9b1 c23f 6111 cb8c ac24 a43f
00000070: 06ca 39ba d6ee babf f6d2 bbf3 da0f b1bf
00000080: db4b 7163 73a8 c8bf f13d 5480 fdec b63f
00000090: 9ce4 ae8c 83a6 b83f a5a0 f002 7d88 bebf
000000a0: 474d 0c97 80b7 cb3f da87 4c70 e655 ca3f
000000b0: d4d0 458b 6dd1 c9bf 06f5 4ed5 a58d 89bf
000000c0: 941f a66b d617 bf3f a1c7 c9d6 71a3 b03f
000000d0: eba0 a5b1 1541 bc3f 0000 00c0 bf2d b3bf
000000e0: 5c6e 7ffd 190d c0bf c62a 82da 072e c73f
000000f0: 0000 0000 54b8 93bf b81c 1635 daef c83f
00000100: 0000 0000 2dba c8bf 0000 0080 4c74 ad3f
00000110: db12 b3d2 1e03 8ebf bcb8 a73a 4502 573f
00000120: 6dd6 3d01 2751 cd3f 18f8 8a1f 7be4 833f
00000130: 67fe 7b72 9679 c43f 0000 0040 75d7 b8bf
00000140: 3662 938a 3a72 a73f 0000 0080 5275 adbf
00000150: 0000 00a0 50e2 c63f 367d 359c 29fb bfbf
00000160: d922 de7b 524a c3bf 4a6f b3d6 44af bb3f
00000170: 1ceb 68fe f6c0 a13f c58e 3941 1ec9 cc3f
00000180: a0ee 7d4b 9dfb c6bf 77ab e1ca c0ce c7bf
00000190: 4bec 82ec 4148 b6bf 0000 0040 0fe2 bc3f
000001a0: 181b feb9 82cd 98bf 0000 00c0 cc1b cabf
000001b0: 00b9 4145 0189 c1bf 0000 0040 9809 be3f
000001c0: 45f0 5cec 1f59 c93f 0000 0080 16f7 c0bf
000001d0: 0000 0000 6059 83bf 0000 0000 c421 a7bf
000001e0: 99df e2e6 0b05 9d3f abaf 04de db82 c43f
000001f0: 0000 0080 3933 b8bf ab33 8583 a557 b0bf
00000200: 0000 0000 acba 803f 0000 00c0 5c3d b93f
00000210: 8350 caed 8632 c53f 0000 00e0 8c7f c83f
00000220: 0000 00c0 0f75 b93f 0000 0000 b5e8 943f
00000230: 17a3 a5fb 2115 b13f 0acb 6724 a583 cbbf
00000240: aa09 2c23 ef7e c1bf 0000 00c0 55fb bfbf
00000250: d2e2 b8f8 b2cc afbf 027c b289 c4a8 9f3f
00000260: 25f7 7c7d 3526 cc3f 8989 19c5 2a8f c33f
00000270: be79 e376 eb75 663f 6d44 cbf0 19fe b9bf
00000280: 3345 8125 37bf b03f 1f36 aa01 d146 cb3f
00000290: 8c02 2827 5c44 b13f 461e 2189 bbd7 afbf
000002a0: ff94 b0eb 4efc c23f 0000 0020 b144 c03f
000002b0: 603c e442 cac2 c6bf b802 907d 996f 99bf
000002c0: 0000 0020 3b56 c33f 7c56 9b99 c70e b3bf
000002d0: 2a5a 1fba 17ae bd3f fb87 e6c7 a745 c23f
000002e0: b74b a114 b571 bd3f 0000 0080 b23e c8bf
000002f0: d152 1fed b413 ccbf f8e4 c71e 77d6 cc3f
00000300: 0000 0020 cfc4 cc3f b9fd 5ea9 f508 cabf
00000310: d13d 21a3 75fa acbf e084 e27f e308 b6bf
00000320: 0000 00a0 62c0 bdbf e49d 0eae 7e51 c8bf
00000330: 9862 868c ad7c cb3f b6bf 4dce baf3 bbbf
00000340: 0000 00a0 0c87 c8bf 0000 00c0 0c86 c2bf
00000350: 0000 0020 fbb1 ca3f 01ea 4e96 a90d c43f
00000360: 9f7e 46fd 8132 ca3f e168 c39d fd05 bf3f
00000370: 5641 f98c 5477 b03f c729 ae67 0b12 b9bf
00000380: 5af8 0a95 2158 aebf 0000 0060 f236 bebf
00000390: 2f4b 9746 73b0 a13f 698b 0e68 3a4b b33f
000003a0: 7a43 233a baa3 c4bf 95eb 07de 7048 99bf
000003b0: 0000 0040 8dab b0bf 72bd 81c5 219f aa3f
000003c0: dc5b 6d88 ffac c2bf 619e 0b4e 3d98 cb3f
000003d0: 0000 00a0 5e56 bbbf 5abd 2119 c096 b5bf
000003e0: fff1 f05a 5342 9abf 73db 6b52 e3f4 a6bf
000003f0: 1be0 f027 3549 c0bf 5e6f 3670 d4ca c6bf
00000400: ec99 d461 4c52 5a3f ad32 d902 247a b73f
00000410: d539 035b aa3c b73f 40cf de03 25bd c1bf
00000420: 7ea7 60f1 2950 b5bf d234 1ae6 a421 c2bf
00000430: b4b3 6f1a 6e8f c7bf 431b c6ab f6a3 b63f
00000440: 0000 0000 0ffc abbf 0000 0080 9140 a23f
00000450: cddd 253b 6807 cd3f a509 9224 8f78 963f
00000460: 0740 3afb 0d1b ccbf 063b 0118 caac 793f
00000470: 9f7c 47d0 5b95 b13f 71b9 49e5 e7ff c6bf
00000480: ff78 2f49 793b c23f aa26 ffb1 0866 b93f
00000490: 163f e03f 0b8f c0bf 971d 2598 0ac8 c0bf
000004a0: fca7 93e2 6f7f a1bf 0d36 0d89 0375 bebf
000004b0: 6c97 2c00 21dd c3bf e72c 78b5 60f2 c63f
000004c0: 1bd0 293b 40fb bebf 560e 5ee3 a0d2 973f
000004d0: 0000 0040 d31d bd3f e264 37b5 fb15 ccbf
000004e0: bb6a e11c 35d6 cabf 9ddf c7e6 2b33 cb3f
000004f0: 0000 0040 671b c7bf ec9d 4605 2d0e aa3f
00000500: b651 720a fa69 a3bf 0000 0080 a06e abbf
00000510: c6d2 d519 83d5 ca3f 6cb5 2980 1ca6 ca3f
00000520: 51e3 1117 eb06 bbbf 13ff 8d57 52ea b53f
00000530: 5e0f 6f31 9c82 b3bf 0000 0000 a171 a3bf
00000540: 0dff f3eb 5e38 c1bf 0000 0000 a803 cabf
00000550: 0000 0080 0d1a c8bf c7bb 0dd4 f354 c73f
00000560: c6cb 22bc c3a4 c0bf 931c 99ff 0e3f c2bf
00000570: a326 2736 ad13 a7bf e58d cc57 2acb c6bf
00000580: 0000 0060 8840 c9bf f470 ad7c 4cb9 ccbf
00000590: 4b3c 142a f963 c3bf 0000 0080 0b53 adbf
000005a0: ee9c 7444 9139 a13f 5b54 d012 4967 babf
000005b0: 0000 00e0 0af8 c0bf efff 6d17 43f7 ca3f
000005c0: f64c 38eb 86e9 b33f 106a c20d 0bcc adbf
000005d0: 6fea 3fdc 9677 c5bf 337d 5f9d e9ff b53f
000005e0: 425a 717b afb1 b03f 0cfc fb91 ca10 bc3f
000005f0: d505 8517 6ee9 c6bf bd57 59e0 edf7 b8bf
00000600: 7d6a 5d6a e203 c43f d056 4fef 3e51 b43f
00000610: ffe8 e648 6e64 c6bf 0000 0000 125c 8f3f
00000620: 709a cbd1 2d06 b9bf 0000 0000 c620 cbbf
00000630: 0000 0040 d9dd b73f 91b6 d1b0 dc91 c7bf
00000640: d471 9099 a8ad c03f bf99 b00e dcc1 ad3f
00000650: 6bc4 242a 7ecd cc3f 0000 0020 d43f c63f
00000660: 0000 0000 7568 b7bf 3ed5 dfa5 ca81 bf3f
00000670: b345 e9ff 09b3 b4bf bd88 fa14 00c1 cabf
00000680: d813 eabf 8744 bd3f 36c8 38f3 e9bb ca3f
00000690: e741 c38f 4f5b c3bf 0000 0040 242c c3bf
000006a0: 168d 876a 7475 c1bf 0000 0040 34e2 c6bf
000006b0: 574c 9d7f 9a35 a2bf 21f6 6d74 c0ec c5bf
000006c0: 9cab bc0e 2015 cd3f 0000 0020 3b67 c1bf
000006d0: c8fd d5ff aafb bb3f 0000 00c0 ca08 b43f
000006e0: 0000 0000 6cf6 7f3f 8f0d 82fb 1ebd afbf
000006f0: cd1e 15fa 780a adbf b18e d9c0 bac6 c6bf
00000700: 2fe7 f385 0500 b83f 0000 0080 2f8a bbbf
00000710: 9312 946b 2766 8fbf e257 20b4 9dcd cc3f
00000720: 02d4 04b1 09c0 c93f d4f8 515c 5c9d c03f
00000730: a9e7 2e76 84b8 c73f e9f7 9610 5615 c33f
00000740: 3862 856f bd48 b73f a756 8184 7646 c9bf
00000750: 0d94 a9b2 a132 aa3f 84da eabb f7c4 c63f
00000760: e7d9 23d2 6a22 9c3f 32e6 f111 e61c b0bf
00000770: 7595 1280 ce99 4a3f 64da 1435 132f c5bf
00000780: 8b54 057e 6b3b c6bf ce2f cab3 cb0c c8bf
00000790: 7090 3715 e76a b53f 0000 0000 a498 74bf
000007a0: fb73 51ac 5e99 663f 0000 00e0 c642 c4bf
000007b0: c756 ed27 603b c3bf faec 2d8b 4315 a63f
000007c0: 5f74 c2de c41b be3f f8d2 83e9 cebf cbbf
000007d0: 0000 0040 355a b33f 1522 33f1 4b75 a53f
000007e0: 3dec bf0e d5d5 b9bf b885 95ae e129 c33f
000007f0: bcae 8a0b af9f c13f 0000 0060 8a36 c3bf

layer1.weight f8 [256, 256]
-0.023691478524061473 0.00567791610956192 -0.03562501904508728 0.02081737802644094 0.01626337950002367 -0.03630375117063522 0.02093042969761688 -0.000360069059250919
0.00720016371677396 0.003963506335677573 -0.05152646818511651 0.030903711915016174 0.028844155371189117 -0.05475612218426261 0.02730591339873556 -0.024004054518755775
0.05637933267111187 0.04673990146506164 -0.009222585025658429 -0.01508174211056982 -0.060441311608681624 0.011905463318701008 0.00827798497267582 0.03093030185635696
0.014839868549543042 -0.030028651268296416 -0.014234357535274996 0.024981126189231873 -0.025998140116121587 -0.0025925009282271017 0.04284410923719406 0.050743644638560806
-0.011680535972118378 -0.02244570106267929 4.558178358681242e-05 0.04888566768725385 -0.0328647479773814 -0.016551871765895565 -0.0457155199295826 -0.011807940900325775
-0.02722907755936311 0.06066114455461502 0.019237972795963287 -0.045672648864871546 0.015111371898560873 -0.0013274117582271021 0.007044854299985825 -0.01730901070629329
0.049845041550451184 0.06156433520733731 0.013085142538862133 -0.05749543756246567 -0.022962709909031438 -0.04102426767349243 -0.0010085729937022569 -0.022965289652347565
-0.04471301040000646 0.057495780289173126 -0.06152200698852539 0.06236916035413742 0.052186859640843096 0.003453283579930074 -0.00016863644123077393 -0.005991921030188306
-0.057023003697395325 0.036278389394283295 -0.05827161414082212 -0.016211822628974915 -0.03162463754415512 0.03525986522436142 -0.034053034085818785 0.051289145176923435
0.006193986092951276 0.012686118483543396 0.000444223588695687 0.04157904309420064 -0.029323985275828718 0.05025950552844231 0.05491146578382958 0.03327328069001918
-0.04575825878084538 0.02901844190866065 0.00891301676752347 0.002308247049934137 0.0031187206298309033 -0.03545910120010376 0.05247790199754287 0.004027046725177118
0.026050835847854614 0.00040374107624834856 0.018229514023318596 0.008878276655058956 -0.006290976097353453 -0.034931473433971405 0.03642612113130196 -0.0034494253107872222
0.02697587013244629 0.025380581678112045 -0.05472195201889781 -0.02614123989016567 0.03104117512702942 -0.012794825077180924 0.02042929211435252 -0.05864806647292844
-0.05372435599565506 -0.025425761938095093 0.042147740721702576 0.004621320956493724 0.01291328497572927 0.001042151426565715 0.03552164888247669 -0.06161832377921786
0.05225721282159484 -0.027187421917915344 -0.04454604902096806 0.01807574355141172 -0.00387086503534204 0.044476358782341824 0.013538002967834473 0.002182947458750259
0.00045308644880065815 -0.04941581400014894 0.044286541640758514 0.05352991857033002 -0.05663415922460227 -0.023400387807698823 0.008520511115424295 0.02507541302887028
-0.03876048376712548 -0.0047283969045487095 -0.05183727314721934 -0.055108200738223666 0.014754227493809512 -0.040346803581986224 -0.059238008860122794 -0.03692141831977552
0.036846086382865906 -0.023940593004226685 0.022096497131920086 0.06118608468561443 -0.009494630189555296 -0.04106852599577841 -0.0577580171941749 0.05090341168586544
0.04776881870787062 -0.05444117147082557 0.030000506712477528 0.043086908653931145 0.046533086197236354 0.05643623425124427 -0.030042835195756113 -0.061658735857101285
0.049519640429399485 0.027096978216505595 -0.000840015709400177 0.045841035302625635 0.05140980695287228 -0.03446664234555807 0.012817002832889557 -0.002417010678763289
-0.002200315026993894 0.05261998623609543 -0.059261256945433514 -0.0009010424793109424 -0.020527735662571146 0.060665719871203456 0.04230419187576839 0.05847453325986862
0.02561631433038467 0.03771009296178818 -0.02765173465013504 -0.0606644336460218 0.04928515852796494 0.015263442111595063 0.011914885216633277 -0.042706260290458396
-0.036742597818374634 0.005295410988633301 -0.04628793066828442 0.05975337326526642 -0.05123160119938086 0.020338564263421444 -0.018739163875579834 0.012966676397230531
0.05807351918505366 0.032018274340380286 -0.028943184521779932 -0.04702485903132852 0.05085665616290317 0.008921727530365624 0.03700595340939883 0.04835373056878601
0.0522320086546552 0.05791629858832239 0.02869158659509239 -0.025992676615715027 -0.009932199275345123 -0.03301936388015747 0.044654734432697296 -0.010267382727043493
-0.031884225663887926 0.008419598053778747 -0.02650586368904169 -0.042751990258693695 -0.0003189295530319214 -0.011462529710802789 -0.01901128717663102 -0.05436181322557125
0.013359239432303235 0.03789267835470882 -0.05923760993881095 0.04854325205087662 -0.05055831619568815 0.01167343556880951 -0.03413197260754024 -0.05499610888381468
-0.04988119770828799 -0.03168110549449921 -0.005567820647777741 -0.05321839451789856 -0.018602639436721802 -0.012794261821369625 0.02908668473735394 -0.041470601159446584
-0.04749971160864425 -0.04350433498620987 0.02228635669048698 0.0353521620804547 0.01867082451241389 0.04610691816802614 0.01562818238125139 0.04724839877841063
-0.020004328268829967 -0.05395484325865246 -0.034495424961476645 0.05337924344924509 0.048541240297327835 -0.010391814028701702 -0.0010262697392986384 -0.0498446106031843
-0.036373824497137636 -0.022593957225800522 0.035119731536781364 -0.05234292149543762 0.0008235362089620351 0.02462327480316162 0.025733280509409845 0.005320861129091849
-0.045394853537033694 0.009085717939563729 0.044383078813552856 0.021025549771577928 -0.027579583640191828 -0.04311515780970582 -0.06104529744155263 0.04009056091308594
00000000: d7a4 d135 9442 98bf 0000 0000 ba41 773f
00000010: 3da1 6f47 713d a2bf 8b85 3f97 2651 953f
00000020: e4d6 4cec 58a7 903f 0000 00c0 6796 a2bf
00000030: f082 2b5c c96e 953f 57e1 72d5 f498 37bf
00000040: c6bd 073b eb7d 7d3f 1e76 6da1 093c 703f
00000050: 0e88 775f ad61 aabf 0000 0000 39a5 9f3f
00000060: 0000 0080 5289 9d3f 4e0a 1394 fe08 acbf
00000070: 20d1 23d4 14f6 9b3f 6590 84d4 8494 98bf
00000080: 1547 fc7b c0dd ac3f 2ae1 6bd8 4aee a73f
00000090: 02ea 8e68 4ae3 82bf 1486 0d29 2de3 8ebf
000000a0: 538e 5fe1 29f2 aebf 7cc7 c73c e461 883f
000000b0: b218 e055 0cf4 803f 8bbe b66b 31ac 9f3f
000000c0: 981e c770 5d64 8e3f 94b0 8fac d4bf 9ebf
000000d0: 71a5 bf20 e726 8dbf 0000 0000 a794 993f
000000e0: c8e6 38a6 419f 9abf 7b62 7356 de3c 65bf
000000f0: 0000 00c0 a9ef a53f 6aa9 672c 12fb a93f
00000100: 0000 0000 f7eb 87bf 0000 0080 01fc 96bf
00000110: bb39 8c28 e2e5 073f 4b75 ebcf 8a07 a93f
00000120: 041e 82f3 a5d3 a0bf e03c b04f f9f2 90bf
00000130: 96cd 084e 0668 a7bf 0000 0000 c32e 88bf
00000140: 8289 7876 f0e1 9bbf 0000 0040 fa0e af3f
00000150: 0000 0080 1eb3 933f 6083 64ca 6762 a7bf
00000160: deeb d000 b6f2 8e3f 2b1b c185 91bf 55bf
00000170: 9927 2dad 10db 7c3f 9979 a30b 74b9 91bf
00000180: db65 a70e 4a85 a93f 9488 a14c 5c85 af3f
00000190: aaae 241a 62cc 8a3f 0000 00c0 0a70 adbf
000001a0: b2e8 5860 8983 97bf 0000 0000 2201 a5bf
000001b0: b855 8201 4386 50bf 0000 0080 3684 97bf
000001c0: 475a bfaa 9fe4 a6bf 0000 0040 1670 ad3f
000001d0: 0000 0000 d07f afbf 0000 00c0 d9ee af3f
000001e0: 2b71 e06e 3cb8 aa3f 7883 4481 0f4a 6c3f
000001f0: 0000 0000 801a 26bf 7e85 d60d fc8a 78bf
00000200: 0000 0080 1e32 adbf 0000 00c0 1493 a23f
00000210: 7a38 0aea c6d5 adbf 0000 0000 d599 90bf
00000220: 0000 00c0 1a31 a0bf 0000 00c0 940d a23f
00000230: 09d2 7437 666f a1bf f56f 5922 9242 aa3f
00000240: 67b9 377b dd5e 793f 0000 0000 2efb 893f
00000250: 4a71 1ac9 d51c 3d3f fabe 932c d949 a53f
00000260: 0806 fe56 1b07 9ebf c596 1d29 9dbb a93f
00000270: d416 6f0b 5b1d ac3f 8adc c908 3209 a13f
00000280: 3fa5 f861 a06d a7bf 1f0f eaab 02b7 9d3f
00000290: d7a2 33dc fc40 823f dad4 e5b2 bee8 623f
000002a0: 4516 8963 6e8c 693f 0000 0000 b227 a2bf
000002b0: ef2c af31 62de aa3f 3fdf be1f aa7e 703f
000002c0: 0000 0000 12ad 9a3f 9c23 f2b7 a675 3a3f
000002d0: b760 35fa c1aa 923f d8cb 061f c62e 823f
000002e0: b59d 9109 91c4 79bf 0000 00c0 89e2 a1bf
000002f0: 8249 f5cd 71a6 a23f 625f cb1c f841 6cbf
00000300: 0000 0000 909f 9b3f f635 0b01 5efd 993f
00000310: cbc1 9604 8404 acbf 37e0 9ee9 c4c4 9abf
00000320: 0000 0000 42c9 9f3f 58c3 1d5a 2c34 8abf
00000330: 41da 0b96 6aeb 943f 1321 f38e 1e07 aebf
00000340: 0000 0040 c281 abbf 0000 0000 3609 9abf
00000350: 0000 0080 6394 a53f 9998 f565 ceed 723f
00000360: afcb 3cc5 4772 8a3f f163 da92 1913 513f
00000370: 741e 80c0 e42f a23f 04a2 eeda 6f8c afbf
00000380: 6704 1918 75c1 aa3f 0000 0000 05d7 9bbf
00000390: 7311 6c5f bdce a6bf 9ee5 9d9d 7282 923f
000003a0: c91f 7dd7 cab5 6fbf e4a4 d4f4 9ac5 a63f
000003b0: 0000 0000 d0b9 8b3f 130a 37fe f8e1 613f
000003c0: 3f14 d87a 87b1 3d3f 105c 1292 074d a9bf
000003d0: 0000 00c0 b9ac a63f e9f5 3b03 4668 ab3f
000003e0: 0489 690b 27ff acbf 6121 6471 45f6 97bf
000003f0: 8307 b0a4 3373 813f 5e1d 927b 5ead 993f
00000400: cf5a 5004 6ad8 a3bf 60a9 1461 155e 73bf
00000410: f422 c341 6a8a aabf 53fb d25f 2437 acbf
00000420: 065e 82e4 7637 8e3f f8f9 c313 56a8 a4bf
00000430: 6501 78bd 7154 aebf 6826 6938 5de7 a2bf
00000440: 0000 0080 7ddd a23f 0000 0000 e283 98bf
00000450: 22a9 26d2 76a0 963f 18d7 6351 c853 af3f
00000460: f2ca 36b1 eb71 83bf 66f5 1710 ef06 a5bf
00000470: 1990 dc75 7592 adbf d227 e410 0310 aa3f
00000480: ddda 3c94 2775 a83f ead6 0b96 b6df abbf
00000490: f729 c6ec 73b8 9e3f ddd6 1bbf 7c0f a63f
000004a0: 1a54 cc46 2fd3 a73f 3744 d6c8 35e5 ac3f
000004b0: 1d5e 948a 8cc3 9ebf 26b4 09dc bb91 afbf
000004c0: 8fd2 4e68 a35a a93f 4390 0a6d 4fbf 9b3f
000004d0: 0000 0000 9086 4bbf d20d e1e6 7978 a73f
000004e0: 18ce 1cdf 6252 aa3f efac 5a9b 9ca5 a1bf
000004f0: 0000 0000 cd3f 8a3f b749 38ba d6cc 63bf
00000500: cf66 9e22 6506 62bf 0000 00c0 01f1 aa3f
00000510: 3340 00d1 7d57 aebf fcad 8ffd 7d86 4dbf
00000520: dda2 5305 3905 95bf 5994 abc5 930f af3f
00000530: 1026 2e21 e5a8 a53f 0000 00c0 5ff0 ad3f
00000540: 7917 2cc1 293b 9a3f 0000 00c0 bc4e a33f
00000550: 0000 0080 bc50 9cbf 3f7e 149d 680f afbf
00000560: d78f 1c80 e73b a93f 55ad 8c85 7042 8f3f
00000570: ee6f bad2 d466 883f fb5f 904e 98dd a5bf
00000580: 0000 0000 edcf a2bf 90ae 3d10 a4b0 753f
00000590: a2ef d638 0db3 a7bf 0000 0080 fe97 ae3f
000005a0: b09a 5847 073b aabf ed9a 6ff1 a1d3 943f
000005b0: 0000 0000 5c30 93bf 9de8 82d8 458e 8a3f
000005c0: a0ad 53f3 cfbb ad3f df23 5502 b364 a03f
000005d0: e740 da3b 48a3 9dbf 27f2 466f a413 a8bf
000005e0: 05d6 0136 e209 aa3f dce3 bbff 8d45 823f
000005f0: 5024 4dbf 71f2 a23f c174 ddf6 d1c1 a83f
00000600: b6c7 f361 27be aa3f e336 af80 34a7 ad3f
00000610: 9a95 62c8 5361 9d3f 0000 0000 d39d 9abf
00000620: e70a 8538 5557 84bf 0000 0000 eae7 a0bf
00000630: 0000 0040 fcdc a63f acaf 39c8 1007 85bf
00000640: 4f28 f814 2153 a0bf a9a3 4a52 4b3e 813f
00000650: 5463 c966 5a24 9bbf 0000 00c0 96e3 a5bf
00000660: 0000 0000 c0e6 34bf 570b e6b1 aa79 87bf
00000670: 3dc7 b6e2 b177 93bf 6601 e9c3 4fd5 abbf
00000680: 0b7d b0c3 165c 8b3f 1628 954c ab66 a33f
00000690: 79c3 c25a 6454 aebf 0000 0040 a9da a83f
000006a0: 9cde 3395 c7e2 a9bf 0000 0000 3ee8 873f
000006b0: 46d8 31f4 be79 a1bf e160 2032 7328 acbf
000006c0: fb4f af41 078a a9bf 0000 0080 8138 a0bf
000006d0: 97a5 7979 48ce 76bf 0000 0000 713f abbf
000006e0: 0000 0000 920c 93bf 6740 cbc0 e033 8abf
000006f0: 93b3 c85e e6c8 9d3f 4358 7377 a23b a5bf
00000700: 096c dbd7 e151 a8bf 0000 0040 3346 a6bf
00000710: c8d0 8714 3cd2 963f a5f6 f4b7 ad19 a23f
00000720: c841 aed2 711e 933f 8f52 4d73 539b a73f
00000730: 7ac2 e490 d500 903f d751 152f f130 a83f
00000740: eeb4 c5be 037c 94bf 9870 831e f89f abbf
00000750: a46f 2464 62a9 a1bf 66a9 cc31 8654 ab3f
00000760: 6b29 2bbf 65da a83f 3df2 31ab 4d48 85bf
00000770: dbfb e5bd 7cd0 50bf 0956 d898 3b85 a9bf
00000780: 9c92 4a05 979f a2bf 0af7 7ccd de22 97bf
00000790: 0d20 caa4 36fb a13f 0000 0000 b1cc aabf
000007a0: 42fc d28a 52fc 4a3f 0000 0000 d836 993f
000007b0: a8ab d338 d359 9a3f 357c 93c8 53cb 753f
000007c0: 6650 b286 fe3d a7bf 52f2 496b 889b 823f
000007d0: 0000 0000 61b9 a63f 8bee 98c2 b887 953f
000007e0: 5672 1687 d23d 9cbf 6856 82a1 3013 a6bf
000007f0: 3110 2c48 5441 afbf 0000 0000 c086 a43f

layer1.bias f8 [256]
-0.013773841020202845 -0.043587036430835724 0.048270763155085654 -0.060323616171663735 0.03824541730502308 0.02984979836275226 -0.03366637354055821 0.03483787590490075
-0.043608538806438446 -0.001725008098259744 -0.04693077341196572 0.05417182510932762 -0.03779058256284553 -0.03908197581768036 -0.02743954211473465 -0.0325049691850454
-0.000934498218597921 0.05933308003663796 -0.030732293359306568 -0.005843078386808584 -0.02826202195688592 -0.043903167443925833 -0.013306195596002832 -0.023827969174557047
-0.03412772259639193 0.0062524624990006996 -0.008553759226836207 -0.0325743705034256 0.047835088503911605 -0.0590637526937112 -0.0310744449788099 0.04733902259437071
0.004330157112221605 0.030643764377488423 -0.023150639157363824 0.019328519701957703 0.06103786081075668 0.036345213651657104 -0.05020039491751796 -0.04644759094439721
-0.03607149949983691 -0.008102710162683635 0.05079658938826548 -0.059245556592941284 0.028906002640724182 -0.01635889835088726 0.03506481897023116 -0.01912888000891336
-0.023409925112631975 0.029692083597183228 0.05353728873168401 0.03803657740354538 -0.05173320323228836 -0.0295749232172966 -0.0304153321908672 0.0518075130948864
0.017715251970430966 -0.03476473559201936 0.05913360307220747 0.003283526833057288 0.0537479078857117 -0.03557877956974275 0.008246801793575287 -0.057719451298141745
-0.01872057467699051 -0.022033847868442535 0.038610519853050015 -0.031684696674346924 -0.050818782509494606 0.012631571776149481 -0.051869202708747945 -0.013741746770833204
-0.009774248006434363 -0.03655446405812155 0.055933304131031036 0.056118466220266616 0.0572651642811364 0.048852395670060646 0.05833208504847012 0.019324929591291062
-0.009102366864681244 -0.04732494056224823 0.059140726923942566 -0.023844549339184947 0.028041903317393313 0.05630106583307613 0.053112820746056985 -0.04576563160813519
-0.031129312710243644 0.002173796169311068 0.0007537305355072021 -0.046409844980366 -0.05736267368957731 0.009821765124797821 0.012879573390409424 0.01303042471408844
-0.023306958377361298 -0.051272997028200866 -0.0462686329934106 0.029842734268258685 -0.034197744032355336 0.05199787651940176 0.02838211909243195 0.022046558558940887
-0.05747317230764523 -0.053434603100428704 -0.011073566973209381 0.04444220598395887 0.005558803370532793 -0.029370072168289674 0.0445356476393549 -0.002154111862182617
-0.031094224175887756 0.05622743044960207 -0.0222010537981987 0.05041337606934765 -0.053556887385249226 0.028760168761264013 0.052235476672649384 0.04808071255683899
-0.03141052947234829 0.04629296809434891 -0.022355496883392334 -0.021132364869117737 -0.03187987539373973 -0.02794741839170456 -0.03792550412727098 0.031112752854824066
-0.02048679273093278 -0.05491816290133928 -0.018715493381023407 0.027899780926730438 -0.027158820907219074 0.03957695911527807 -0.007818885147571564 -0.010519844899078808
0.018831057194305115 -0.061544694289831586 -0.046734198927879333 -0.0056966041029924116 -0.057725746610074825 0.0069165496492017385 0.05986496837003555 -0.05514930169561385
0.007345745633668556 -0.05267140037347413 0.05878447449306413 -0.011010404513733037 -0.04160113791693186 -0.015371414167016746 0.03588406895194427 -0.03825247689234248
-0.04008974008733195 -0.057645167049259614 0.002719043547583599 0.04855234519732162 0.04549334621257188 0.014974391948203707 0.06225457106777585 0.027191211562445666
-0.03809765533274875 -0.062041543424129486 -0.018211236580681838 -0.03362583089991636 -0.05358956754207611 0.03069859528755275 -0.022778159546394866 -0.018232808802773094
0.01057841617956966 0.0016352564425274536 -0.01210109721299796 -0.025406209561658396 -0.005669713146130176 -0.03047058388932566 -0.05377288237368998 -0.01705782115459442
0.044429014195300605 -0.019841373434977536 -0.026324855672508696 -0.0344297661187805 0.031800277531147 0.030317698393327767 -0.008185259997844696 0.041156630994628705
0.04773190568573503 0.034072856721721334 0.029682571591556687 -0.055588528513908386 -0.01970341267202414 -0.005992261529862617 0.004166867936745675 -0.0347696989774704
-0.04035587541649519 0.02130365253940955 0.019275236818877384 0.058675547242920116 0.045410364866256714 0.006114979564976961 -0.01371145248413086 0.009094618609630192
-0.041292354464530945 0.048541441559791565 -0.03661452334948533 -0.008041497541415206 -0.00514447110341289 0.0325022762989749 -0.05260390043258667 -0.0486063277144565
0.052252324564414455 -0.00838684344898854 0.05819578468799591 -0.020328260048902484 0.05049711237269812 -0.011235747071583684 -0.039837852120399475 0.0066507132790276985
-0.055117801203605175 -0.01682329922914505 -0.04681242257356644 0.044410064816474915 -0.01913183185044532 -0.028497226536273956 -0.036081112921237946 0.00753880622515079
0.06147597761348785 0.054614555323930086 0.04496836809588276 0.0031987084238760837 -0.025042787194252014 -0.03166933709230135 -0.04565681344529994 0.06118087149121696
0.0324509469472358 0.05123405117868036 -0.007974781080868113 -0.020065372159594547 -0.017816900955591648 0.0411418292153338 0.04263545572757721 -0.039014057128770416
-0.01628196579423629 -0.0048275898502854 0.0257927386149365 -0.013672077703380213 0.0495448112487793 0.050638946666135824 -0.017139505163530525 0.012799288896007255
-0.019104506671926133 0.03791869371403256 -0.05925645755397987 0.032789893448352814 0.030670615344849324 -0.030118114206029587 0.045812646825833775 0.012987097693046793
00000000: fece c6a5 7535 8cbf 0000 0040 0a51 a6bf
00000010: a746 350a f2b6 a83f 347b 44ad bce2 aebf
00000020: 6209 1841 e794 a33f e175 0a0f f290 9e3f
00000030: bcc9 a90a b83c a1bf 53e9 5823 45d6 a13f
00000040: 0000 00c0 db53 a6bf afd6 8257 3543 5cbf
00000050: 40f4 f571 4f07 a8bf 721b 6bd2 68bc ab3f
00000060: 238e 6888 4959 a3bf 0000 0080 8d02 a4bf
00000070: 0000 0080 1c19 9cbf 7dea 36c7 7da4 a0bf
00000080: eaff bda4 239f 4ebf 5118 a8cc e760 ae3f
00000090: 751f a34b 4978 9fbf bdd7 4469 e9ee 77bf
000000a0: 0d3a 1830 b8f0 9cbf 1c96 b9d8 797a a6bf
000000b0: a522 5a57 4740 8bbf b2da 56f1 5b66 98bf
000000c0: 4b7e e058 3079 a1bf 8d27 3e9f 2e9c 793f
000000d0: 3ed2 1821 a284 81bf 0000 0080 96ad a0bf
000000e0: 607d 7339 d77d a83f 9ca4 65ac 9a3d aebf
000000f0: 508c b3b3 fad1 9fbf 6d1f bc03 d23c a83f
00000100: ecc0 efb2 7fbc 713f 8981 4f37 1461 9f3f
00000110: 22df 3f18 cdb4 97bf 0000 0000 dbca 933f
00000120: 0000 00c0 5a40 af3f 0000 0000 d79b a23f
00000130: 3484 d5bc ddb3 a9bf 9018 2b88 fac7 a7bf
00000140: 11c6 56ad f677 a2bf 93f4 4259 2798 80bf
00000150: 9085 57b4 0202 aa3f 0000 0000 6f55 aebf
00000160: 0000 0000 8999 9d3f ec9f a915 63c0 90bf
00000170: 5e42 6f15 04f4 a13f 4987 3068 8596 93bf
00000180: 25d1 0a7b c5f8 97bf 0000 0000 9a67 9e3f
00000190: d82c 7050 3d69 ab3f 0000 00c0 8779 a33f
000001a0: 0000 0040 c67c aabf 0000 0080 e348 9ebf
000001b0: d81c 3a64 3225 9fbf 4ff8 dbac 8386 aa3f
000001c0: d6e1 696f f223 923f 87f7 d7f4 aecc a1bf
000001d0: 8c5d 9476 c246 ae3f a7f3 a10b 0ee6 6a3f
000001e0: 5ff2 3185 d884 ab3f cf05 5ebd 6137 a2bf
000001f0: 0000 0000 b3e3 803f 9550 5667 678d adbf
00000200: 0000 0080 7c2b 93bf 0000 0080 0a90 96bf
00000210: 26cf 1910 c2c4 a33f 0000 0000 fa38 a0bf
00000220: c637 cd61 eb04 aabf 3db5 67dd 94de 893f
00000230: 3f7a 9ba2 998e aabf 11e0 c307 a224 8cbf
00000240: 4eba 3e5c 8504 84bf 8d0c 4e47 44b7 a2bf
00000250: 0000 0040 4aa3 ac3f 9046 3c42 8fbb ac3f
00000260: 8439 930f dc51 ad3f 25e4 7763 2e03 a93f
00000270: 446c 2efb b3dd ad3f e04e 5e12 eac9 933f
00000280: 0000 0000 43a4 82bf 0000 0080 f93a a8bf
00000290: 0000 0080 b147 ae3f af0c 669e b46a 98bf
000002a0: 00c7 a946 04b7 9c3f 6e4c f748 7ed3 ac3f
000002b0: 468b 3488 9a31 ab3f a150 13c6 976e a7bf
000002c0: 3b5a 26d0 5ce0 9fbf 7a51 92ee c7ce 613f
000002d0: 0000 0000 c0b2 483f 5a63 cefc 07c3 a7bf
000002e0: 7705 04ef a35e adbf 0000 0000 6f1d 843f
000002f0: 6b65 fc13 9b60 8a3f 0000 0000 b2af 8a3f
00000300: 0000 0080 c7dd 97bf bfdc ce4a 7440 aabf
00000310: 471c 13b3 85b0 a7bf a351 d2fe 178f 9e3f
00000320: 6390 6ee0 5d82 a1bf 5b7c 3936 779f aa3f
00000330: 6435 2cc5 3310 9d3f 0000 0080 5f93 963f
00000340: ecdb eaa6 1f6d adbf a208 95c1 c75b abbf
00000350: 0000 0000 bdad 86bf 00c2 86fa 20c1 a63f
00000360: 58bd e6ea d3c4 763f 7d9e c62d 3013 9ebf
00000370: ce02 3c5c 60cd a63f 0000 0000 80a5 61bf
00000380: b13f b80f 2ad7 9fbf 8c9b d67d d7c9 ac3f
00000390: 0000 0080 dfbb 96bf 5862 ff32 c8cf a93f
000003a0: 8124 97ef ce6b abbf 4c3d 0741 4e73 9d3f
000003b0: 0000 00c0 9bbe aa3f 0000 0000 099e a83f
000003c0: 38e5 aa79 0a15 a0bf 0000 0040 b6b3 a73f
000003d0: 0000 0000 5ce4 96bf 0000 0000 b9a3 95bf
000003e0: 03ef 6e1c 8f52 a0bf 0000 0080 3f9e 9cbf
000003f0: f966 d2bf f86a a3bf 0000 0080 05dc 9f3f
00000400: 5dfd 1d63 7dfa 94bf f93c 3cc3 3b1e acbf
00000410: 0000 0080 272a 93bf 6b5f 959a c291 9c3f
00000420: 77b1 609e 85cf 9bbf f586 2662 6e43 a43f
00000430: 0000 0000 5903 80bf 5e7f 67ae 6d8b 85bf
00000440: 41d0 31db 7248 933f 942d 6f42 c982 afbf
00000450: 0000 0080 8bed a7bf dd39 2185 5255 77bf
00000460: 15a8 a7a3 3a8e adbf 7c32 b628 8754 7c3f
00000470: d497 a602 9fa6 ae3f b31b 5c7e 873c acbf
00000480: 2874 2e94 9216 7e3f 89c2 13ec bef7 aabf
00000490: c1a6 eba6 ff18 ae3f 44ef 6a7a 9f8c 86bf
000004a0: 5ec2 a88d be4c a5bf 17f7 1f49 0c7b 8fbf
000004b0: 2d28 318d 655f a23f 03ba 7c22 d495 a3bf
000004c0: 0714 2975 a486 a4bf 7380 7fd6 aa83 adbf
000004d0: 4ceb 9f63 3f46 663f ab7f 885d dadb a83f
000004e0: f652 5664 e74a a73f fc66 8fdd e4aa 8e3f
000004f0: 2c74 86c5 d4df af3f a8e7 9851 03d8 9b3f
00000500: 1cb8 6a2f 8981 a3bf 0000 00c0 e8c3 afbf
00000510: ab8e 2266 f7a5 92bf d42c 08a8 6737 a1bf
00000520: 0000 0080 1770 abbf 0f37 2cdb 736f 9f3f
00000530: 6864 4269 2853 97bf 9aa9 1616 9fab 92bf
00000540: f91f 47fc 22aa 853f 5f17 3d3c c3ca 5a3f
00000550: e14f 34c6 75c8 88bf 5f07 bbdc 1504 9abf
00000560: 7731 a508 2039 77bf 1fc0 2d45 ae33 9fbf
00000570: 77ce 6986 1e88 abbf 0000 0000 9b77 91bf
00000580: 49b7 ec55 66bf a63f ec36 0b08 4c51 94bf
00000590: 10cb bd28 e7f4 9abf 266a fa3e c7a0 a1bf
000005a0: 0000 0040 2048 a03f 817a 5b4c 9a0b 9f3f
000005b0: 0000 0000 6fc3 80bf 5b5c 4560 7b12 a53f
000005c0: febe cafb 5070 a83f 1028 9a5a ff71 a13f
000005d0: 31d7 fca8 1b65 9e3f 0000 0080 1976 acbf
000005e0: c209 2fa4 212d 94bf d723 cc74 578b 78bf
000005f0: e4bd 3d18 4711 713f 0000 0080 55cd a1bf
00000600: 3d08 3b7a 86a9 a4bf d8b8 c4eb 9fd0 953f
00000610: 90f7 093f e3bc 933f df6b f7a8 b80a ae3f
00000620: 0000 0000 0740 a73f 70e0 f453 050c 793f
00000630: 0000 0000 c014 8cbf a8cf fb0b 33a0 823f
00000640: 0000 0080 4524 a5bf 0000 0080 6cda a83f
00000650: 4f78 b088 23bf a2bf 2425 9c87 0f78 80bf
00000660: 935c 4f72 5e12 75bf 88d2 7f6b 23a4 a03f
00000670: 0000 0000 e6ee aabf 5012 d3b7 ede2 a8bf
00000680: 65cc 4912 d1c0 aa3f bdff a312 1f2d 81bf
00000690: 0000 0080 d6cb ad3f f1e3 6070 eed0 94bf
000006a0: 2ac9 5dec c1da a93f b6a6 bf71 c402 87bf
000006b0: 0000 0080 a065 a4bf 27b9 7440 c73d 7b3f
000006c0: ab9e 3183 6638 acbf 0000 0080 203a 91bf
000006d0: 0000 0040 ccf7 a7bf 0000 0080 eabc a63f
000006e0: 22e1 7080 4b97 93bf 0000 0080 602e 9dbf
000006f0: 0000 0040 3979 a2bf 79a7 01e3 02e1 7e3f
00000700: 9bda ad82 c779 af3f 1cf4 0062 70f6 ab3f
00000710: 9d11 a70c 1806 a73f 6556 3d82 2d34 6a3f
00000720: 0000 0000 d1a4 99bf e0e2 319e f636 a0bf
00000730: 229d 2c71 5460 a7bf dd1f 6464 1953 af3f
00000740: dca7 b917 699d a03f 390f 827c 593b aa3f
00000750: 750f 7bff 1455 80bf 1582 d454 048c 94bf
00000760: e56c aefb 973e 92bf bc77 f4b5 8a10 a53f
00000770: 0000 0080 50d4 a53f b699 e786 a6f9 a3bf
00000780: 6e41 673a 38ac 90bf ea5a 6848 18c6 73bf
00000790: 283d 4d63 6969 9a3f ccc9 d534 1b00 8cbf
000007a0: 0000 0000 f05d a93f 777d ab17 59ed a93f
000007b0: b183 96b8 048d 91bf cd64 c379 8336 8a3f
000007c0: ecd3 72bd 2190 93bf a04f d13a 146a a33f
000007d0: ebd4 8ac6 dc56 aebf 0000 0040 d6c9 a03f
000007e0: cfd3 6a27 1e68 9f3f 39dc 206e 48d7 9ebf
000007f0: 2466 b857 c174 a73f e28a e4be fa98 8a3f
