python/snapshots/snapshot2200.pt (torch_old, 584819 bytes, 6 tensors)

layer0.weight f8 [256, 18]
0	0xbfc64275970fc04f	-0.1739031779866331
1	0x3f73bed62da6f94d	0.004820667871568607
2	0xbfc74c2cf919b183	-0.1820121971426368
3	0xbfcab8932e09cf8a	-0.20875777957882874
4	0x3fb686567dc30911	0.08798733301503982
5	0x3fc58186401dc6b5	0.16801527147940978
6	0x3fb65cb3803b8d77	0.08735200768164995
7	0x3fab03e6dd261c24	0.05276414346285943
8	0xbfcb474b20df8316	-0.21311320405131856
9	0x3fc233f601102642	0.14221072246464145
10	0x3f8d97b5aad03380	0.014449519419963641
11	0x3faf381a46a66333	0.06097490417886888
12	0xbfc8c52375fa2ac4	-0.1935161901531811
13	0x3fc038b9801dc6b5	0.12673109775237426
14	0x3f9a5a1f720b988b	0.0257344163282132
15	0xbfb9feaefa0f8732	-0.10154241185184956
16	0x3fa56daba243e984	0.04185234409119956
17	0xbfc0fea2f2b1ebbb	-0.13277088976232485
18	0x3fa29a593177aadf	0.03633383492327424
19	0x3faa229fd6778114	0.05104541295054524
20	0xbfa5a82b2f8a76c7	-0.04229865031559892
21	0xbfced3a6fafc3ca6	-0.24083411460057852
22	0xbf6094f75499eb62	-0.0020241575883210164
23	0x3fc9c69579d05152	0.20137279937683644
24	0xbfa6f8973cef23a5	-0.044865347088097786
25	0xbfc9cebbf7b53132	-0.2016215285788206
26	0x3fc621ba28a53cb7	0.1729042719329976
27	0x3fa38208e546cc5d	0.03810146139894564
28	0xbfc731d6add80e20	-0.18120845306849365
29	0x3f9c57be42f05361	0.027678463779085564
30	0xbfc3ad0717cdfa2f	-0.15371788656553195
31	0x3fa2cfba7d7ad6f3	0.03674109250770909
32	0xbfc92411cc84100e	-0.19641325460554565
33	0xbfc3992bf4c611fa	-0.15311192943421742
34	0xbf9d50a3a1fbb856	-0.02862792659919252
35	0x3fc33dc06604b624	0.1503220079552402
36	0xbfb445ae00000000	-0.07918822765350342
37	0xbf976c4c00000000	-0.022874057292938232
38	0xbfcc62f400000000	-0.2217698097229004
39	0x3f434aa000000000	0.000588729977607727
40	0xbfc1455580000000	-0.1349284052848816
41	0xbfc845cc60000000	-0.18963007628917694
42	0xbfc32db9a0000000	-0.14983291923999786
43	0xbfc48a5c60000000	-0.16047243773937225
44	0xbfc1afe3e0000000	-0.13818024098873138
45	0xbfc32d3960000000	-0.14981763064861298
46	0x3fcd48d920000000	0.2287856489419937
47	0xbfb49f5540000000	-0.0805562287569046
48	0x3fb0016740000000	0.06252141296863556
49	0x3fadb9d180000000	0.05805830657482147
50	0x3f985e8900000000	0.023798123002052307
51	0xbfaf783d80000000	-0.06146423518657684
52	0x3fbfc17340000000	0.12404556572437286
53	0xbfcb922280000000	-0.2153971791267395
54	0x3fb626553a0f7571	0.0865224138974179
55	0x3fc4a70aead8eaed	0.1613477369990827
56	0xbfc81c61f587d9be	-0.18836616982271254
57	0x3fa2c0f18d764e62	0.036628292578055235
58	0x3f5fc41308634e3a	0.0019388376108978715
59	0x3fc9250f75c5cafe	0.19644349337212214
60	0x3fc00d107a9d7036	0.1253986929613135
61	0x3fc6c559f4d9654a	0.17789768653418953
62	0xbf94c9c2df341a33	-0.020300907967817316
63	0x3fcddd7fe0da05fc	0.23332212905010852
64	0xbfc1ff14fb488bcd	-0.1405969836206097
65	0x3fb53f2a71dde94d	0.08299508361770798
66	0xbfca5c35e6b577d5	-0.2059390427120308
67	0xbfc03fad70567b93	-0.1269432829403426
68	0x3fad41be948a9c2e	0.05714221537828511
69	0x3faf9ea378b772bc	0.06175719116774789
70	0x3f855f99aef4a45d	0.010436249400827597
71	0xbf77769436223f98	-0.005728320075050329
72	0x3fbe81f2ce7133e4	0.11917035617916799
73	0xbf88ca819fa2c4f1	-0.012105000194738898
74	0xbfc6e2ae846f9ffb	-0.17879277674296631
75	0x3fca4a35293d7981	0.20538963807753066
76	0x3fc4b826658853dc	0.16186981160777136
77	0x3fae3fbe4ce58858	0.05908007324866621
78	0x3fbbcea09c86fe6e	0.10862163373439568
79	0xbfc1036d37740c03	-0.13291707236939496
80	0x3fc62a8835235f35	0.17317297548901825
81	0x3fbc1a70ba58754c	0.10977844762279182
82	0xbfb705de0e735d81	-0.08993327954100573
83	0x3fc48b924a2f8fa9	0.16050938246109794
84	0x3fab1dc2503fafa1	0.05296141843413627
85	0x3fc4cff2b5fb9df7	0.16259607206232804
86	0x3fc366bfdb485217	0.15157316405442664
87	0xbfcb350f4a2870eb	-0.21255675431246543
88	0xbfbdf5ad99db5b94	-0.11703000074645181
89	0x3fa7fa7b87384e37	0.04683290506013942
90	0x3fc01c5803433335	0.12586498412420047
91	0x3fcb96cc0b643e3a	0.2155394607184336
92	0xbf9ec20b8b5fae5c	-0.03003709829492461
93	0xbfcbbd16442bcf4d	-0.21670797661465216
94	0xbfbc7a26ecf90ddf	-0.11123889241667183
95	0x3fb096c399c7eccd	0.06480047707002541
96	0xbfce028f4c217146	-0.2344531175357451
97	0xbfbdcde71cb3239f	-0.11642307711293974
98	0x3fb9dbfd4d293016	0.10101302274523535
99	0xbfc91f69e8c4a72c	-0.19627117028840624
100	0x3fc8c3704ef3562e	0.19346431593901187
101	0xbfbceb025fc7817a	-0.11296095693933764
102	0x3f9ada5ff5985078	0.02622365890972886
103	0xbfc1ec548772cf49	-0.1400247250909337
104	0xbfbab3202881e0c2	-0.10429574002216938
105	0xbfb6d420494965eb	-0.089174287693275
106	0x3fbf92eaa61a64e9	0.12333551936389466
107	0x3fab03675544dbd0	0.05276034274941532
108	0x3fbb719efab4601d	0.10720246906964843
109	0x3fce27b61c4aa9db	0.2355868948119014
110	0xbf959818a5d90f0a	-0.021088013765861148
111	0xbfc4904ae5f80de0	-0.1606534598250695
112	0x3fbc0117c4a297dd	0.10939167547857616
113	0x3fb5a20824186ae1	0.08450365906939396
114	0xbfa24c8f7639a3c4	-0.03574035947969592
115	0xbfc8a22b214b31a6	-0.19244898915930014
116	0x3fcd94188ee2f12e	0.2310820291221573
117	0xbfc4638d2206d86f	-0.15928806458913722
118	0x3fbdad4ebc379dd0	0.11592571349284886
119	0x3fb220f6e812cfcd	0.07081549802643324
120	0xbf9962d85ed6856e	-0.024791127003145723
121	0xbf74ff95c26d78d5	-0.005126557348232382
122	0x3fc8cc85a7ad1d4b	0.19374151885333854
123	0x3fc675acdcf0fd43	0.17546616352226793
124	0x3f8a21f9c12b64eb	0.012760115821424075
125	0xbfc43d504277c66f	-0.15812113996030372
126	0xbfc9634c6a42d6ca	-0.19834284962205678
127	0xbfc33b964c61f24b	-0.15025595407122902
128	0xbfb0b257ea2774ee	-0.06522130457547679
129	0xbfb0eb778c1190df	-0.06609294099468198
130	0xbfa60d0a2df2dc1d	-0.04306823550125947
131	0x3fc0606d44ee3bcf	0.12794271341087302
132	0x3f945c3b486ff779	0.0198830855333578
133	0x3fa33d32df0c1921	0.03757628414864401
134	0x3fc43ea281a6c1f6	0.1581614621222937
135	0xbf5b37eea796eafd	-0.0016612845050604779
136	0x3fcbd6a797106dc4	0.21748824001484313
137	0x3fb54324c5f15e2f	0.08305578072155904
138	0xbf98d429f7024a1e	-0.02424684114573427
139	0x3fc206eaafd90bff	0.1408360823280361
140	0xbfafffe7aae2aeaf	-0.06249927483562822
141	0x3fc90301084e1db0	0.19540417581104697
142	0xbfcd0227b870f0f3	-0.2266282702056582
143	0x3fc2baadaefda9e9	0.14632197422481788
144	0x3f952c77df6bb641	0.02067744542266881
145	0x3fb653722703ad18	0.08721078350543043
146	0xbfcb6a5eb7a832e3	-0.21418365447643514
147	0xbfb119cb72efbece	-0.06679984623019239
148	0x3fc8486e94b1f46b	0.18971044788841893
149	0x3f91a764f5ce0a7c	0.017240121367203973
150	0xbfc7232e32319f45	-0.18076112223502086
151	0xbfaf10ee63c96871	-0.060676049881934875
152	0xbfc2df267c9103dd	-0.14743500788065847
153	0x3fae8bf41e0cb696	0.05966151110474731
154	0x3fc7b18de262caea	0.18510602525710534
155	0xbfa66ea5c118d124	-0.04381292326107403
156	0xbfc183bd59cbd7f5	-0.13683287510474398
157	0x3fc92ca69a420eea	0.19667513401156295
158	0xbfc8c605427b8097	-0.1935431074734921
159	0x3fb7737e24247228	0.09160602934247974
160	0x3fc3525404030fcb	0.1509499568547866
161	0xbfcd67afddb12a8b	-0.2297267754059543
162	0x3fc3012f179a750d	0.14847363140589956
163	0x3fc9b4086e974719	0.2008066692347306
164	0xbfcce917ca3f65eb	-0.2258634316956852
165	0x3fca2a35d0af2ab4	0.20441315354977052
166	0x3fab6eb7f1284bd0	0.05357909029785157
167	0xbfb8d73772c78097	-0.09703394462803981
168	0x3fcbdc63549e1a0b	0.21766320831029903
169	0xbfc1a6012a300ece	-0.1378785568232303
170	0x3f8c9806487abf1e	0.013961838805101542
171	0x3fbd0298721714d9	0.11332085404781668
172	0xbfcaf518efd29039	-0.21060477933963442
173	0x3f7727323815cf20	0.005652614754001722
174	0xbfca6a96d81a4c83	-0.20637784530535805
175	0x3fc0fe0063ffccda	0.1327515114095153
176	0xbfb1d8ee27aedb5b	-0.06971634358238303
177	0x3f92dce7d781813f	0.018420813110766373
178	0x3fb1ee1c95accb7e	0.07003954557585065
179	0x3fabf886deb06202	0.05463048427936103
180	0xbfbd979b60000000	-0.11559458822011948
181	0xbfc1425d40000000	-0.1348377764225006
182	0xbfcac7e3a0000000	-0.209225133061409
183	0xbf84598600000000	-0.0099363774061203
184	0xbfb61f3240000000	-0.08641351759433746
185	0xbf9e7dd700000000	-0.029776915907859802
186	0x3fc5241c20000000	0.16516448557376862
187	0x3fa3bf3b80000000	0.03856836259365082
188	0x3fa1ccf380000000	0.034766778349876404
189	0x3f8db7e600000000	0.01451091468334198
190	0x3fb71b0dc0000000	0.09025655686855316
191	0x3f818be600000000	0.00856761634349823
192	0xbfb4d59ec0000000	-0.0813845843076706
193	0x3fc2670ca0000000	0.14376981556415558
194	0xbfcc358180000000	-0.22038286924362183
195	0x3f93956100000000	0.019124522805213928
196	0x3f71225c00000000	0.004183158278465271
197	0xbfcc76fec0000000	-0.22238144278526306
198	0xbfc3198e79ceba95	-0.14921742389329454
199	0x3fa727d7f9fa8bd5	0.04522585798738247
200	0xbf9c7ba64145875e	-0.027815435155737027
201	0xbfbcb10e00e5f0ae	-0.11207664033821871
202	0x3fcb815b563227a4	0.21488515576157596
203	0x3fc7f356fe83f277	0.18711364200125377
204	0x3fcd63164629fa07	0.22958639551139035
205	0xbfa94c515e09239e	-0.04941038391968465
206	0xbfc2c13fcc95d0f3	-0.1465224980307834
207	0xbfad149866a03b2a	-0.05679775479085543
208	0xbfc11546c84a9cd7	-0.13346180705887065
209	0x3fc7fac2dd0a5aea	0.18734012406340322
210	0xbfbcf1bc32b468e5	-0.11306358564289416
211	0xbfb5cf45743c3804	-0.08519395911955036
212	0x3f9254e65b528483	0.017901992153046564
213	0x3f77a333f991bd80	0.005770876910090705
214	0x3fb6a074ef41a08d	0.08838587609500533
215	0xbfbea790fc378311	-0.11974435956609521
216	0xbfb8a45438782856	-0.09625746134420984
217	0x3f9c06eb915a903a	0.027370148417176866
218	0x3fbbe0ee4c2933e0	0.10890092238805904
219	0x3f9398afd9e56940	0.019137141870808394
220	0xbfc22a7b8f13a98d	-0.14192146764919436
221	0xbfc43bb08f65a3b6	-0.1580715847187812
222	0x3fc837f75aba5032	0.18920795373981175
223	0x3fbf6b7fe8079e5f	0.12273406424321241
224	0xbfb3d6e5409c6e73	-0.07749779536646333
225	0xbfa9ac2e7c0b03a1	-0.05014176620671341
226	0x3f964743b27623ec	0.021756227271485004
227	0x3fb77c4f8df3af60	0.09174058166143828
228	0xbfcd8f2a5c2d0a50	-0.23093156338480236
229	0xbfaac411e0419d52	-0.052277144074475715
230	0x3fc907594d4d5723	0.19553676867024547
231	0xbfc0d6e8ea46eb65	-0.13155852736766885
232	0x3faec87308cb4dbd	0.06012305719709896
233	0x3fa904ca871caf88	0.04886467837636049
234	0xbfc4621f40000000	-0.15924444794654846
235	0xbfc2810880000000	-0.14456278085708618
236	0xbf6e05a800000000	-0.0036648064851760864
237	0xbf889eba00000000	-0.012021496891975403
238	0xbfc0e78c80000000	-0.13206630945205688
239	0x3fa0f66380000000	0.033129796385765076
240	0x3fb1574dc0000000	0.06773839890956879
241	0x3fc25b0be0000000	0.14340351521968842
242	0xbfc58bda80000000	-0.16833049058914185
243	0xbfb4bc2180000000	-0.08099564909934998
244	0x3fc03fbd60000000	0.12694518268108368
245	0xbfb8c99300000000	-0.09682577848434448
246	0xbfc0732e00000000	-0.12851500511169434
247	0xbf8b5a7000000000	-0.01335608959197998
248	0xbfbe49b780000000	-0.11831232905387878
249	0xbfcc079ac0000000	-0.21898207068443298
250	0x3fb073c6c0000000	0.06426660716533661
251	0xbfc7292420000000	-0.18094302713871002
252	0xbfb3d7b282e8923d	-0.07751002975471351
253	0x3fb1bad5c55ac3a1	0.0692571265051485
254	0xbfbfaf1a2d1c1bcf	-0.12376559830964527
255	0x3fc2f88f40b43711	0.1482104364335375

layer0.bias f8 [256]
0	0x3fbd1c1e803b8d77	0.11371031408957842
1	0xbf982533e95d2e4e	-0.023579417341620883
2	0x3fa8c6b180000000	0.048390910029411316
3	0x3fc528dbe207d08d	0.16530941521307732
4	0xbf55c8a022c97cd0	-0.0013295711352368407
5	0x3f5552d3ace6da03	0.0013014857428125255
6	0x3fa8cb93deb26992	0.048428173956568746
7	0xbfc5507fc76aba8f	-0.16651913869050758
8	0xbf5eb3c209449c31	-0.0018739123234554728
9	0xbfba9efe8562c866	-0.103988559307966
10	0x3fa8be6d80000000	0.04832784831523895
11	0x3fb32496b6080f90	0.0747770494854747
12	0xbfb162a39d57165d	-0.06791136351883993
13	0x3fba1ac540000000	0.10197098553180695
14	0xbf83e0451093009e	-0.009705104416184714
15	0xbfc44ef5d44c5d9e	-0.15865967622879124
16	0xbfc619c41a3b7222	-0.17266131668920176
17	0x3fc5603f22641600	0.16699971369978073
18	0x3fabe9ad7e3fad76	0.05451719442484208
19	0xbf9085a228ef3061	-0.016134771107133242
20	0xbfb49f2d23633756	-0.08055383790926149
21	0xbfc70af664a1ee52	-0.18002204812715888
22	0x3f88c7eb2e368e38	0.012100064609348413
23	0x3fc5a03ea5af3f31	0.1689527806288367
24	0xbfb4dc9877cac228	-0.08149102139101017
25	0xbfa2380cfa80a466	-0.0355838828839488
26	0xbfc584010cb44914	-0.16809094543766234
27	0xbfbcd2da01b59a12	-0.11259233991368259
28	0x3fc24e9ccd70a738	0.1430240634083988
29	0x3fad0124b208ad97	0.05664934800401083
30	0xbfc6ef9525fe4373	-0.17918648104798826
31	0x3fc307ae6e0afd49	0.14867191670598803
32	0xbfcce1319b3f5523	-0.2256223686260138
33	0xbfca1807988c0f0c	-0.20385832737530796
34	0xbfb19c28020cff7f	-0.06878900575702394
35	0x3fc746631ec66eff	0.18183554651920272
36	0x3fcc7798734646ee	0.222399765287768
37	0x3fcb82fc74012485	0.2149348799160046
38	0x3fc6863b18244972	0.17597140005870987
39	0xbfc5c6240d87aabe	-0.17010927830354733
40	0x3fcda5a1dd09989f	0.2316171960148425
41	0xbfb2ca9d45c0476f	-0.07340414956004591
42	0xbfc5819b882763f1	-0.16801780841959116
43	0x3f8eaa0a8172aea9	0.014972765040816087
44	0x3fb7835b464fec5f	0.09184809176069696
45	0xbfbc03f19788094f	-0.10943517636772991
46	0x3fcbb18e62b7e79b	0.21635608501656808
47	0x3fcd13b97b21042e	0.22716444503933658
48	0xbfcaef70f7c5fa65	-0.21043216799076273
49	0x3fb1144940000000	0.0667157918214798
50	0x3fc5e1d4dc98f485	0.17095433017121678
51	0x3fca1fe12e64c35a	0.20409788861573014
52	0xbfa0a05a6fe89879	-0.03247339836188785
53	0xbfca4187c13e06e1	-0.20512482581766903
54	0x3fa8aa4f5bbaf271	0.048174362132589084
55	0x3fa2f2109701b54d	0.0370030578932111
56	0xbfb62840c6d940c3	-0.0865517125578235
57	0xbfc66d9f99e281f5	-0.17522044195085554
58	0xbfa77ade2f98cf65	-0.0458592827893927
59	0x3fc21ca6faf8d929	0.14149939779753964
60	0x3fc8701e8bf86ed6	0.19092161020750237
61	0xbf93e0b35114034d	-0.019411851714724638
62	0xbfafb0f5a63fab7e	-0.06189696936038212
63	0xbfcc4d0ba0000000	-0.22110123932361603
64	0x3fc46cc8190e8ced	0.15956975196340953
65	0x3fcde78768ab6853	0.2336282025415267
66	0x3fcb7811660192c8	0.2146016834332356
67	0x3fc9f6d4f7d2391f	0.20284521198886638
68	0xbf9a99e1d609e767	-0.025977638901600566
69	0x3fca98ed57388e35	0.20779196509202938
70	0x3fc05ffc8c38bece	0.12792927595864118
71	0x3fc14a586b8efc0c	0.1350813412845756
72	0x3f5cb97ce347e1ea	0.001753208122975742
73	0x3fca69d9162ef06d	0.20635522444888768
74	0xbf810fd42e81b97b	-0.008330972356102908
75	0x3fbba7714f5f7c89	0.1080237215787624
76	0xbfc3a4a1268c42a6	-0.15346159345837868
77	0xbfb10ac4342cb38b	-0.06657053254885008
78	0xbfb68d4c2213e098	-0.08809352714513563
79	0xbfcd03d6e81f9ff2	-0.22667967161328267
80	0xbfc54797f8a685ca	-0.1662473644364993
81	0xbfc2bb9528c58a9e	-0.1463495682792954
82	0xbfc8611e215ef6ee	-0.19046379689637355
83	0xbfb189e66d22e359	-0.06851043858013152
84	0x3fc5e6e1f90bf9dd	0.17110848103034373
85	0x3fce26e561d83542	0.23556201245848213
86	0xbfcd8a673cf2c357	-0.23078623271933438
87	0xbfc4227a4efd66a8	-0.15730217797208934
88	0xbfb164803386b161	-0.06793977029764654
89	0x3fc2a7b658763008	0.14574317283074856
90	0xbfbba8f9b9d5ad61	-0.10804711138705649
91	0xbfc2e53fc687d6d1	-0.14762112802389152
92	0x3fc75f43a235679a	0.18259473247854602
93	0xbfb727b0db19bcf5	-0.0904493842042376
94	0xbfa51430cf50cee3	-0.04116966753681852
95	0xbfc484ab51c35550	-0.16029874317488657
96	0xbfc5b75cd65f7a5d	-0.1696582838767026
97	0x3fc5b8e3fcd30cbb	0.16970491261426965
98	0x3fcc3665d3c50a9d	0.22041008796994258
99	0xbfa458dcdfc2e91d	-0.03974046927892714
100	0xbfb459134808c8fd	-0.07948418148660959
101	0x3fc46d8cf427517e	0.15959321900903584
102	0x3fcb3082e3c89180	0.21241794702758554
103	0x3fbf345502e6c023	0.12189227410158358
104	0xbfcca31650e2568c	-0.22372702550335466
105	0x3fc4d9a5411dc438	0.16289201430802946
106	0xbfcbfdae20000000	-0.21867920458316803
107	0x3fba43198e3cf7cd	0.10258636210070833
108	0xbfc6401d85b0b738	-0.17383164432379217
109	0xbfb21522fdba7511	-0.07063502020396963
110	0xbfb7781e9c46c605	-0.09167662921279181
111	0xbf9156a9590745ea	-0.016932149943221043
112	0x3fc5fcb37dc535c6	0.1717743267167135
113	0x3fc1a5f4c7d7a3c0	0.1378770805161178
114	0x3fcd4f5ca27a515b	0.228984431586137
115	0x3fb60e7c93f576a1	0.08615854847217942
116	0xbfb01cc10ee22e29	-0.06293875325553046
117	0xbfb1d9a5bc713e52	-0.06972728586810575
118	0x3fc52dc03389a092	0.16545870319828687
119	0xbfc74718328f7681	-0.1818571326138461
120	0xbfbae82a1d7eb2e4	-0.10510504932490111
121	0x3fc4971fedb85641	0.1608619604818831
122	0x3fcceeb460000000	0.22603468596935272
123	0xbfa4e29c00b58048	-0.040791392408892124
124	0xbfc92973aabd4d9d	-0.19657750927818265
125	0x3fce371c47bc5dac	0.2360568380615694
126	0x3fb9d8b17dc6e66a	0.10096272774435425
127	0xbfc1b1dfb381c2b2	-0.13824077858909828
128	0x3fb1924ac0000000	0.06863848865032196
129	0x3fc6870ffb6fce0d	0.17599677827057328
130	0xbfb05ecec764256e	-0.06394665115307926
131	0x3f8b56fca924cd1b	0.013349508201463458
132	0x3fcaf3024f0f16e4	0.2105410467176433
133	0xbfa6333380000000	-0.043359383940696716
134	0xbfc896e940000000	-0.19210544228553772
135	0xbfc2a6e1edf48957	-0.1457178508654333
136	0x3fbcff9ceea6770d	0.11327534510061472
137	0xbfbc03e7a0247165	-0.10943458232617827
138	0x3fb480726d51a17f	0.08008494538228737
139	0x3fc2d0b1d5683ae6	0.14699385566969808
140	0xbfc0688a15d66f2e	-0.12819028917589875
141	0xbfbedae6ec2e8c90	-0.12052768007429138
142	0x3fa2ad7fe8d3e79d	0.03647994725356727
143	0xbfb15b0599fe6af3	-0.06779513368239147
144	0xbfcd3f51673517ac	-0.22849481143401584
145	0xbfb0dfe12c7774a0	-0.06591613135920449
146	0xbf701cbc5e593c74	-0.003933654608388005
147	0xbfcba9c71869736b	-0.21611870471943048
148	0x3fce8d1288a9935c	0.23868018792122825
149	0xbfbf662d055fc590	-0.12265282994464699
150	0x3f9e8ac36276058d	0.029826214680274844
151	0xbfac89500037c397	-0.05573511126193081
152	0xbfcf6db1318b567b	-0.24553503913073257
153	0x3fbb9eefc3d34791	0.10789392977610947
154	0x3fcca239180436ea	0.22370065376929144
155	0x3fa5e4f899433a92	0.0427625357711935
156	0x3fc64898fe47c7bf	0.17409050384554622
157	0xbfc5e88d80000000	-0.17115944623947144
158	0x3fc438814d470ad8	0.15797439835849647
159	0xbfcd4964f580a10a	-0.22880231845307036
160	0x3fca00190e509047	0.2031279868980411
161	0xbfc09713d95729ce	-0.12961052048042493
162	0x3fc142a66e5c5fb2	0.13484650028908401
163	0x3fb24ddfe1107a13	0.07150077099547784
164	0x3fc1940c3badba84	0.137330559864001
165	0x3fc2893247cc7f60	0.14481190210153283
166	0xbfb8a71907e025c7	-0.09629970972323242
167	0x3fb2a2e07f90cabb	0.07279780496973391
168	0x3fce0edb2fcb4455	0.2348283751839825
169	0x3fb24522e83e2346	0.07136743707645818
170	0xbfa1664a03c1d16a	-0.03398352905142839
171	0xbfc43b2e6f265338	-0.15805607249481013
172	0x3fc1433bf3968e5b	0.13486432451201122
173	0x3fbd87bc662ca758	0.11535241598599322
174	0xbfa46b3a1f95d18c	-0.0398805774265468
175	0x3fc57849f377e31e	0.16773342502690353
176	0x3fa6b199644c40fc	0.044323724263564984
177	0xbfb8140762ef4615	-0.09405561604878472
178	0x3f9005b284a722c5	0.015646733614434156
179	0xbfb1c92d4509c67c	-0.06947596488478242
180	0x3fb0a76dbc428026	0.06505475851236095
181	0x3fc8e10cac5d1f05	0.19436796585272745
182	0x3fc8d9dd6c07f5f8	0.1941487100120154
183	0xbfc3ff61e0000000	-0.15623115003108978
184	0xbfcd13fbd2d12591	-0.2271723536853583
185	0x3fa25edb074e14be	0.0358799406449548
186	0xbfc1b78f00000000	-0.13841426372528076
187	0xbf9d34cd0d429782	-0.02852173226769806
188	0xbfc8ed8afc0dacb4	-0.1947492342691014
189	0x3fc6e9f695e94025	0.1790149909961666
190	0xbfbbb2c7884764aa	-0.1081967075073346
191	0xbfb70c9bed9106cd	-0.09003614950145362
192	0x3fb3c48159ebb27c	0.07721718259171867
193	0xbf7f1f72060599d7	-0.007598348049532486
194	0xbfc4aedb55ccf371	-0.16158620538217464
195	0xbfa8b890affb9c96	-0.048283120615274885
196	0x3f840fbbe55e24c5	0.009795635163543879
197	0xbfbb8de84e89ce6c	-0.10763408582152473
198	0xbfc8497b2d4554e6	-0.18974246702661118
199	0x3f8d0c33db42b85b	0.014183430794528265
200	0xbfc4d788a49e806c	-0.16282756841701784
201	0xbfc3489a296f390e	-0.15065314315001682
202	0x3f934d9c137cdd85	0.018850744904936007
203	0x3fba3c6fdae90a22	0.10248469442834865
204	0x3fb4958e335f69e0	0.08040703539101157
205	0xbfbbf19c72f8d211	-0.10915544325764183
206	0x3fc234a8d8f465c6	0.14223204225053915
207	0x3f99a95100000000	0.025059953331947327
208	0x3fc87ba470b1e2c2	0.19127326491049784
209	0x3fc8a0ed18517f3b	0.1924110764257366
210	0xbfc5c149d4ca0f64	-0.16996119394400033
211	0x3fc0f3a9480c42f0	0.13243595140422526
212	0x3fc1f75f791860de	0.14036172306874212
213	0xbfa80bc037c06766	-0.04696465187608005
214	0xbf61750a4dff3b27	-0.0021310044539640974
215	0xbfbc9e91b267f7ec	-0.11179457288378075
216	0x3fb880aef26ab46f	0.09571355265025415
217	0x3fc1e369874a868d	0.13975257020961288
218	0x3fce8cef8f83fb49	0.23867601878733982
219	0xbfb19e7350304b78	-0.06882401187639953
220	0xbfb31584edad0139	-0.07454710772163232
221	0x3fb805d4e4d8e082	0.0938389834126401
222	0xbfc83c1d36a96ca4	-0.18933453721078763
223	0xbfc5d0300a69399b	-0.1704158831439145
224	0xbf5f56cf324084c3	-0.0019127868081414846
225	0x3f867ed73c1f8792	0.010984117052377038
226	0x3fb4be1f9c96b19e	0.08102605412449868
227	0xbfc38115103818a7	-0.15237677852582474
228	0xbf99999595af833d	-0.02499994016750694
229	0x3fb634d82507c933	0.08674384025633657
230	0xbf959fd24e6e8430	-0.021117483174411145
231	0x3fc97c3db9398048	0.19910403770609464
232	0x3fca243029e89a20	0.20422937437361188
233	0xbfb2871e354df365	-0.07237423707370068
234	0xbfb2956b2d367b48	-0.07259244779423313
235	0xbfa75c4b98313380	-0.0456260321885571
236	0x3fc5334256cb96d2	0.16562680471468255
237	0xbfc0e3c66fce0532	-0.13195114573685768
238	0xbfcd16da20000000	-0.22725988924503326
239	0x3fa286879515748c	0.036182629536349514
240	0xbfcd787ca2c0d781	-0.23023946711481005
241	0x3fcb6d4e014ffc15	0.21427321495136256
242	0x3fcde7fe4b0ba2ce	0.23364237465218313
243	0xbfb2f3117a3d4cdb	-0.07402142748223943
244	0xbfb3a308eb1b8326	-0.07670646419456925
245	0xbfa3df85115cb672	-0.03881469571056763
246	0xbfbe417445af9c70	-0.11818625165288821
247	0xbfcbe0e220000000	-0.21780039370059967
248	0x3f912b7c69694f00	0.01676744836215871
249	0xbfc82bef3884a464	-0.1888407731978844
250	0x3f9dfc0c4b35b24e	0.029281799402655566
251	0x3fc75299c274f7f2	0.18220827097860554
252	0x3fb2a18e7ab2ac36	0.072777657466461
253	0x3fb8296e5f66e8b8	0.09438218907499418
254	0xbfa67894fa64f7d7	-0.04388871723720882
255	0x3f9ec447b4eda51a	0.03004562417792043

layer1.weight f8 [256, 256]
0	0xbf999bcb0b925d8e	-0.025008366185458146
1	0x3fa0ea96f7bd2245	0.03303977750926327
2	0x3fa58a0080000000	0.042068496346473694
3	0xbfa053430d67b28b	-0.03188523806224904
4	0xbfa62b1ea9182d71	-0.043297727719699426
5	0x3fac85e66efc6888	0.05570907692727284
6	0xbf9a4718cac423dc	-0.025661837936272622
7	0xbf8c204a00e35f80	-0.013733461525063495
8	0xbfad99d1235e5ff5	-0.05781415516611325
9	0xbf776c6d9b3c5d6e	-0.0057186395167926184
10	0xbf3a220000000000	-0.0003987550735473633
11	0x3fa2dbd445c7108a	0.03683341361787125
12	0x3fac123d2ef6e913	0.054826652510614825
13	0xbfa2c8fb40000000	-0.03668961673974991
14	0x3f90922bad41d37c	0.016182596635605048
15	0xbfa878b31305283e	-0.04779586417369373
16	0x3fa9c1443600b193	0.05030263098919643
17	0xbfa67823fb050875	-0.04388534964756811
18	0xbf907c156766419a	-0.016098341403962026
19	0x3f51a07b7bb88fe7	0.0010758596316771064
20	0xbf91fd542f64fc69	-0.017567935364465024
21	0xbfa59a991405c184	-0.042195113844061743
22	0xbfababc70f4dbced	-0.054044933908579874
23	0xbfa8ed5c92852aff	-0.04868592537476068
24	0x3f8c1760d4672f6e	0.013716465456034856
25	0x3f96c6dbd89e3bc9	0.0222429610217281
26	0xbfa28c761dad5dfa	-0.03622788536329931
27	0xbf93350c971cb2b1	-0.018757054064894422
28	0xbf911121202d95d7	-0.01666690596484507
29	0x3fa939ff079a2e6d	0.049270600965510926
30	0x3f95be59034d961b	0.02123393137607908
31	0xbfae1a7cf53244fc	-0.05879583829040233
32	0x3f904023c15bc92a	0.015869673420590015
33	0x3f9ea8bb24a1ca5b	0.029940532790030932
34	0xbfa69ab7ec1c65d8	-0.044149158069739236
35	0xbfa7020c9dca3936	-0.04493750978609727
36	0x3f97e1e5e816e84f	0.0233226702600649
37	0x3fa7530174252a98	0.04555515806949478
38	0xbfa9d3a5298fc763	-0.05044284946769897
39	0x3f847a5deab39afb	0.009999021267913735
40	0x3f9a1538f8370e0b	0.025471582555622912
41	0xbfa915d98b49f151	-0.048994825604469334
42	0x3fa746cfbb2a5f66	0.045462123486855785
43	0x3fa62490f80d6843	0.04324772861464556
44	0x3fabe3e6993a0740	0.054473119930675384
45	0xbf98ce7f7222ccbc	-0.02422522672777626
46	0xbf91ffbc225c3835	-0.01757711372106759
47	0xbf78003798fe1ad4	-0.0058595821173017155
48	0xbfaa55600da75aca	-0.051432611147608734
49	0x3fa2e32200000000	0.03688913583755493
50	0xbfa4cf4a557e15b2	-0.0406439999924645
51	0xbfa01fa6f6782986	-0.03149148710879772
52	0xbf9a49422845af71	-0.025670083721180462
53	0x3fa87059d4eb3d4e	0.04773216938121526
54	0xbface5d3dad6f703	-0.056440945113974926
55	0xbfac5f3a947bb38a	-0.055414038300887716
56	0x3fa4966f735beb89	0.04021023066703495
57	0x3f717b089f4f323b	0.004267724686496661
58	0x3fafb495800d99bc	0.06192462146900676
59	0xbf95c5ed04a56ea7	-0.021262839706976646
60	0x3fa25ccb506855ed	0.03586421352899181
61	0x3fa3d2c00e2643ee	0.03871727154467651
62	0xbfa7ca5ae833065b	-0.04646572193588546
63	0xbf9bcd9680000000	-0.0271514430642128
64	0x3fabfa502021fcfe	0.05464411155934988
65	0x3f9fd5555113cac0	0.031087239335600314
66	0x3f97f30946a32b3d	0.023388047157634196
67	0x3f7fa9c381782b10	0.007730258650108693
68	0xbfa574e448c96579	-0.041907438168617035
69	0xbfaa262f54d02c5b	-0.051072577574892995
70	0x3f7a3e3eaa96d468	0.0064070175080149575
71	0x3f4be59001d0866f	0.0008513405952081508
72	0x3fa22f2827c9a699	0.035516028267761963
73	0x3f87a5089a1ed33b	0.011545245364553139
74	0xbf931022227b3bbd	-0.018616231302811082
75	0xbfa58b59b36e6db9	-0.04207878413509598
76	0x3fada393a434d754	0.05788861636612688
77	0x3faf6388850fb1db	0.061306253664813425
78	0xbfad79efb31f5ff4	-0.05757092534594213
79	0x3f5c95da5b72bf89	0.0017447121042941402
80	0x3f9cd0f52598d418	0.028140860004175122
81	0xbf94a9b9241cdc64	-0.02017869265474949
82	0xbf92a19102ccce39	-0.018194452091121447
83	0x3fae2ec7d22d64a5	0.058950657278452646
84	0x3f89b384e6b91179	0.012549436846833061
85	0xbf9aef6063a263dd	-0.026303773957440647
86	0xbf77e7e29072334f	-0.005836377159664632
87	0x3f8d014cf4f998d4	0.014162636972468702
88	0x3fa16ad94c64382f	0.034018316817409626
89	0xbfadd238f4b96ffe	-0.058244495271281935
90	0x3fae390c1ec75c6b	0.05902898669926845
91	0xbf9271fa8981a721	-0.018012919085243276
92	0xbf93c659d930694a	-0.019311336404009873
93	0x3fa12de9a1935b19	0.03355341050489908
94	0xbfaa4b456e1c8796	-0.05135552376874768
95	0x3fa7d0f85fd421b5	0.046516191194374036
96	0x3f5c1ced9604938d	0.0017158813644268828
97	0xbf8ae7eaa3e07061	-0.01313765823947949
98	0xbf66c9d09574ca25	-0.0027817796614269135
99	0xbf90ff3b22aa421d	-0.01659862898901753
100	0x3fa734e290c388aa	0.04532535569320946
101	0x3f9e8b85226151f5	0.029829101775549167
102	0xbf916d910f8ffee3	-0.017019526076181967
103	0xbf9c239912b925ca	-0.027479545371795124
104	0x3f8eecd19392222a	0.015100133243565034
105	0x3fa9a8dabcd4dd98	0.05011638217041109
106	0x3f743eea00000000	0.004942812025547028
107	0xbf93a9b540787721	-0.01920207220074766
108	0x3fa752195646fbf9	0.04554824045361978
109	0x3f9775dfb6edb151	0.02291059068686369
110	0x3f8df8da20470f07	0.014634803876908643
111	0x3fa0a032526a33c2	0.032472202835470934
112	0x3f918b60cc452ba4	0.017133247821486855
113	0x3fa2c777d5be7295	0.03667807087115197
114	0xbf923ba1ca11051a	-0.017805602987441473
115	0x3fa7c6f7f51a48dd	0.04643988482452397
116	0x3f9bd83b6314ac94	0.02719204704514462
117	0x3faa55f763a94ac5	0.05143712131088799
118	0x3fa788c11057700c	0.04596522640687803
119	0x3fa060f4d2cb310c	0.03198971818128102
120	0xbf9c5602c89cb054	-0.027671855444325225
121	0xbf9cf29bc7cb8426	-0.028269228047865046
122	0x3faa1539c0000000	0.05094318836927414
123	0xbfa66837ca0546ce	-0.04376386967727584
124	0x3fa154e3ada8aea7	0.03385077948436548
125	0xbf70f9a7f18223b8	-0.004144340542674145
126	0xbfa2319eff3be5d2	-0.03553482881211391
127	0x3f8122949117fa54	0.008366738012225351
128	0x3fa099b600000000	0.03242272138595581
129	0xbfae26f83033c72b	-0.058891063579621004
130	0x3fa3444d3abe4786	0.037630475445566566
131	0x3fa5028547582050	0.04103485580350308
132	0x3f2247757635182a	0.0001394587407991821
133	0x3f8aac9700000000	0.013024501502513885
134	0x3fabbc2900000000	0.054169923067092896
135	0x3fa276db58aa8342	0.036063055585378936
136	0x3f966f6aa6b9073e	0.021909395624113197
137	0x3facdf8e3891aee0	0.05639309349575483
138	0x3fa3d30a945ff767	0.03871949254242573
139	0xbfa13dbea7ba2be3	-0.03367420003367962
140	0xbfa78d286da11328	-0.04599882448432019
141	0x3f67752e4f4a6d10	0.0028634933936025966
142	0x3f740ebc3bf5088d	0.004896865167497333
143	0xbf7e11581e6dc62c	-0.007340759481722563
144	0x3f851b5248bd88a6	0.010306017727718175
145	0xbfadacbc980b328e	-0.05795850139620483
146	0x3f955cc5e1eeb25e	0.02086171332818975
147	0x3fa428ec8e5a680e	0.039374725701421295
148	0x3facf566caad82d4	0.05655976509183849
149	0xbf85a99d44cbdbd7	-0.010577419912335557
150	0x3f9647099df3eff7	0.021755361810377818
151	0xbfa8569d513a0cb3	-0.04753581635034134
152	0xbfac4a94a5b21ca3	-0.05525650522854988
153	0xbfa90b2803f13188	-0.04891324089166732
154	0x3f79e9480f2abf85	0.006325990182332823
155	0x3fa8970ba7122f07	0.04802738584939275
156	0x3f83477fe51d7f27	0.009413718394796057
157	0xbfa9951300000000	-0.049965471029281616
158	0x3f9df8cc96bb7a08	0.029269406032534945
159	0xbfa39f55e872fddf	-0.03832500898851853
160	0x3f918b9aa35cb1c7	0.017134109707670733
161	0xbf1f89003e2b760b	-0.00012029708845370122
162	0x3f96ea30b23da442	0.02237773979087288
163	0xbfa70ae47ea6142e	-0.04500497861867135
164	0x3f7640ceb1290cae	0.005432898894073874
165	0xbfa186cf1304d32b	-0.03423163516200697
166	0x3f9632af7e5ffb10	0.021677724922478936
167	0xbfa84c5e840929b1	-0.04745765077366871
168	0x3fa3f53724ecbb28	0.03898022008649199
169	0xbf9e0cc99591f2ce	-0.029345655206713776
170	0x3fac338c57830667	0.0550807816339443
171	0x3f81fb0f4c66bfe0	0.008779639739117273
172	0x3f9867b167f9a371	0.02383305737604097
173	0x3faade2aebb6f493	0.05247625472427688
174	0x3f91284869744911	0.016755229412475595
175	0xbf95c97e0d6cf051	-0.021276444978170442
176	0x3fab6f64ae11a8d6	0.053584238289504135
177	0x3fac79916bd7d64c	0.05561499062961825
178	0x3faaa72d1ab42fef	0.052056703099964234
179	0xbf531edaa79c3caa	-0.0011670241642070347
180	0x3f9527c489faf707	0.020659514352465738
181	0xbf9523e22a5ac59b	-0.020644697032087583
182	0x3f52d2a1b7696d41	0.0011488513242941675
183	0xbf9ebdf400000000	-0.030021488666534424
184	0xbf9f40b359635442	-0.03052025063592035
185	0x3fac3c627dd90695	0.05514819895007609
186	0xbf98c56480000000	-0.024190492928028107
187	0xbf9f4d281988bcdb	-0.03056776672218296
188	0xbfa9b912a61eb764	-0.05024011876899584
189	0x3f918efdd94df81b	0.017147032154291347
190	0x3f802ba7834b4b1b	0.00789576405933228
191	0x3fa2171db2281fef	0.0353326110817419
192	0x3fa433ce267a7932	0.03945774287898231
193	0x3fac8dce58f960ac	0.05576939426527025
194	0xbfaa9b0abdb0283c	-0.05196412625817046
195	0xbfa59fe9349e8127	-0.04223564879726132
196	0xbf5c37de1193f375	-0.0017223042144103005
197	0xbfa2fac575398ffe	-0.03706948333709191
198	0x3facb84d0ddea7fc	0.05609360498722535
199	0xbf89fe9705fd84fc	-0.01269262301474549
200	0xbfa4872ad5ddffa4	-0.040093744856675856
201	0xbf76403e5068cc25	-0.005432361044358768
202	0xbfaa8fc1984d678e	-0.05187802299651799
203	0xbfaf301c4b5f1ce2	-0.0609139291769283
204	0x3f9ac90f0e7c6026	0.026157603510995518
205	0xbfab5aac787f50e3	-0.0534261605349984
206	0xbfa61733f7fa8804	-0.043145774861173464
207	0x3fa28fe1c0000000	0.03625398129224777
208	0x3f80e1f0b3ee332a	0.008243446818391915
209	0xbf9a9d86bf4ada79	-0.02599154036098603
210	0xbf826c44104b4f60	-0.00899556326604739
211	0x3fa476015b72301e	0.039962809002730845
212	0xbf85ebdf89865c44	-0.010703798660683835
213	0xbf7c83bafd4d2e43	-0.006961565425466501
214	0xbf91ed539bceb974	-0.01750689161752335
215	0xbf5308201e2869f7	-0.0011616052294188808
216	0x3fa9fbd9de359de3	0.0507495959998854
217	0xbfac7b2e41a59e61	-0.05562729407648415
218	0x3f8ad0cf2f77010d	0.013093584667217795
219	0x3f9cd2b4a013f965	0.028147527952563495
220	0xbfa070e7cd54f81a	-0.032111400427752027
221	0xbfb00f363d9051db	-0.06273211482068268
222	0x3f90a4202c7c005a	0.01625108977805243
223	0xbfae1e851ede966c	-0.05882659913849583
224	0x3fa659d1683d6acf	0.04365400693378307
225	0x3fa5a5c66319c7cd	0.042280387494329476
226	0xbfa1358649f18ba8	-0.033611485029516885
227	0xbf8f8a99d322430d	-0.01540107894496281
228	0x3fad5e2f7b65659c	0.05735920316028428
229	0x3f98b503667ea64b	0.0241280108745399
230	0x3fac6a26af4d0d09	0.05549736871628325
231	0xbfa03ea7b2d2e7ee	-0.031728020266612464
232	0x3f3044e338c66c7b	0.00024824664503748207
233	0x3f88987d63346f90	0.01200960120200259
234	0x3faeaf8136acb497	0.05993274490752148
235	0x3f80643e7c5a244b	0.008003700418401169
236	0xbf9627ea8fb674f3	-0.021636643430260127
237	0xbf9d5571acd8735a	-0.028646255659725874
238	0xbfa9656000000000	-0.04960155487060547
239	0x3f8144e7ebca8e0f	0.008432208903577125
240	0xbfa894e1ba0f92f9	-0.04801087757349438
241	0x3f8fe326b65f0c00	0.015569975319413842
242	0xbfa057e7673f1687	-0.031920653680157555
243	0x3fad82536a6c96e8	0.05763493227122557
244	0x3f5df87c79de776b	0.0018292632662233143
245	0x3f720f4ec921cd97	0.004409129864245818
246	0xbf7126c4408fa9d6	-0.004187361345410831
247	0x3fad7a25c0000000	0.057572536170482635
248	0x3f68e38bc83b6a3f	0.003038189899468052
249	0xbfac5d466c18af52	-0.055399132438053514
250	0x3fa082e7e3b226d1	0.03224873213282609
251	0x3f7e1574187d817e	0.007344678400699299
252	0xbf9f09829febce6d	-0.030309716234980067
253	0x3fa6528de0f6d496	0.04359858866829673
254	0xbfa2bbfbc317cc97	-0.03659044987207343
255	0xbfa12f6e945bbf65	-0.03356500206962102

layer1.bias f8 [256]
0	0x3fa60ce61e94d720	0.04306716082866857
1	0x3faa1688bca4a432	0.050953171756482965
2	0x3fa4dc374a8f4887	0.040742614604497844
3	0xbf7a4c73b3682de9	-0.006420566517145934
4	0xbf9051ca3fdc1f41	-0.015937004230209387
5	0x3f8ed5527d275a18	0.015055317348850614
6	0xbfaf4146e6146cee	-0.061044898591910854
7	0xbf9740bfb98a2cd3	-0.022707935046622673
8	0x3fad4498eb776529	0.05716398119302319
9	0xbf9c1541e7a8404d	-0.027424840702281284
10	0x3f886367e3d130e0	0.011908351554801688
11	0x3fa147074ab0ac5e	0.033745029323051
12	0x3f95202958c7e521	0.020630498927833977
13	0xbf7fff26faa37f1f	-0.007811691533987446
14	0x3f8d92c7fee6a7d1	0.014440119234524847
15	0xbfb200532f516d77	-0.07031745820261458
16	0xbf9b73d467bf897e	-0.026809042770659534
17	0x3f905d7c275fd85d	0.015981616881582606
18	0xbf841ae759a4556a	-0.009816939757494498
19	0xbf88d3c61b9aaea9	-0.012122676579870388
20	0xbfa8a4efc0000000	-0.04813336580991745
21	0x3f9144bb030500b8	0.01686374860696624
22	0x3fa13d41b9639acb	0.03367047679949094
23	0xbfa3cbbb00000000	-0.03866371512413025
24	0xbfa73f0471dc178d	-0.04540265931977592
25	0x3fb2453a9222946e	0.0713688475394336
26	0xbf809beff8474efa	-0.008109926952705394
27	0xbf6fd88c00000000	-0.0038874372839927673
28	0x3fa00fdc897f7434	0.031371013435752465
29	0xbfa87a6800000000	-0.04780888557434082
30	0xbfa26d9f48dd7c0b	-0.035992601055788574
31	0xbfa9e1377330bf62	-0.05054639130719242
32	0x3f38fc19cf322f6d	0.0003812373171931869
33	0x3f98e55cd11383ba	0.024312448750496186
34	0xbfa8658bb46847ee	-0.047649732372647566
35	0xbfabd078facb517c	-0.05432489453747544
36	0xbf9a9edf73f8d844	-0.025996676877376737
37	0x3f80f2a2cdc8b311	0.00827529135229946
38	0xbfa8c15059406b0a	-0.04834986772057988
39	0xbf92b41e71246f74	-0.01826522412839844
40	0xbfa0c702c8617380	-0.03276833244374355
41	0xbfaec6795313341d	-0.060107985869400894
42	0x3f8ed3af96d1ba50	0.015052196302545756
43	0x3fad3707f6db1cb9	0.057060479053285325
44	0xbf52eda190f36a9b	-0.0011552884860096871
45	0xbfa96bb69b156b55	-0.04964991229163355
46	0xbfa4b2273f886136	-0.040421701913319216
47	0x3fa8edf964cf178e	0.04869059901788751
48	0x3fabe126415cc31b	0.054452128866961234
49	0xbfaeba9940000000	-0.060017384588718414
50	0x3f9127d000000000	0.016753435134887695
51	0x3f4b0149a749179e	0.0008241281162291063
52	0xbfa447928f9451d6	-0.03960855486562635
53	0x3f958e4eaa9939e7	0.021050671732433825
54	0xbfa19086c0000000	-0.03430577367544174
55	0x3fa95c2de6ca0942	0.04953139726878188
56	0x3f9c3d5280000000	0.027577675879001617
57	0xbf736ef6f794727b	-0.004744496073979416
58	0x3fab8c32db32e032	0.05380400586858548
59	0xbfa2c975f6bc1f70	-0.036693273896218126
60	0xbf860c2df4de91ae	-0.010765418086358416
61	0xbf930e3d00000000	-0.018609002232551575
62	0x3f956a6a77064e8d	0.020913756861388456
63	0xbfa4bf241dc289da	-0.0405207907035849
64	0x3f66a194efc1fd6c	0.0027625950734201845
65	0xbf9161d4f7ad6563	-0.01697476159765666
66	0xbfab6c48fcc41179	-0.05356052480240953
67	0x3f9766757c2edf00	0.022851787285360636
68	0xbfa215742f555d2a	-0.035319929864892366
69	0xbfaf28b32d2db1bf	-0.06085739065642625
70	0xbf8053e03cd66799	-0.007972480637181966
71	0x3fa5fb146bff914c	0.04293121164644961
72	0x3f9b7e3575f4f6b2	0.026848635983006637
73	0xbfa7455fb11c55ca	-0.04545115506168036
74	0x3f7f67094272bbce	0.007666622324150786
75	0x3f9b8cccccd730e3	0.02690429687736263
76	0x3fae4fe12e8ec195	0.05920318311052878
77	0x3fa86289e441b1e4	0.047626790154797566
78	0xbfabecf18b1743a4	-0.05454211066137951
79	0xbf99c3f093eb4a05	-0.02516151335550811
80	0xbf7d4f091d09f2a4	-0.007155452346179789
81	0x3fa931e04dc99138	0.04920865010788805
82	0x3f78adf55fe39bb2	0.0060252747482313785
83	0x3fa7163d2b3f3025	0.04509154465594659
84	0xbfaa2fd4c0000000	-0.05114617198705673
85	0x3fa043cd6a6fd356	0.031767291300559705
86	0x3f9261691485bd05	0.01794971645125278
87	0xbf7b650200000000	-0.006688125431537628
88	0x3fa683b02f413b1f	0.04397345139351771
89	0x3fa56eb9d0d2328d	0.041860396138052904
90	0xbfa1a9d294cf6d7b	-0.034498768487277474
91	0xbf95a9334b299f3f	-0.02115326067214984
92	0xbf88c0c2e8509ea7	-0.012086413111389872
93	0xbf8751a671d42598	-0.011386204098488048
94	0xbf983c4abea7e4b8	-0.023667495619495965
95	0x3f7a238c56e171b1	0.006381557655995727
96	0xbf92258c80000000	-0.01772136241197586
97	0x3faea8773a4f726a	0.05987904154583108
98	0x3fa2ed0bea969de9	0.03696477163913043
99	0x3f93a00180000000	0.01916506141424179
100	0xbf81c2bf749982c4	-0.008672233339156128
101	0xbf83d10200000000	-0.009675994515419006
102	0xbfab447e785f9be6	-0.0532569429340624
103	0x3fa4d6f02eeeacd8	0.04070234845070225
104	0xbfae5a3834114c07	-0.0592820704993287
105	0x3fab46f883f34a50	0.05327583895418242
106	0x3f94688bae0df136	0.01993005990833404
107	0xbfa61239b4f80b6e	-0.043107798901494174
108	0xbfa51b1de8a8f2d3	-0.041222510004876554
109	0xbf99c63200000000	-0.025170117616653442
110	0xbf90da6c39e04694	-0.016458216698146247
111	0x3f71596ee30b8569	0.0042356807250326445
112	0x3fa3676416c8e95f	0.03789818552145862
113	0xbfa2bd4eb27a8283	-0.03660055092519079
114	0xbf970f17950968d6	-0.022518509360772786
115	0x3f94ced980c02bcf	0.020320318682973067
116	0x3fa4f6b0d4d27ad0	0.040944601039191064
117	0x3fa3318000000000	0.037487030029296875
118	0x3fb03d9ebd95eeda	0.06344024780804194
119	0xbfb0a223fbf95cec	-0.064974068657978
120	0xbf970efa5e5550bb	-0.022518074042935803
121	0x3f7ef58800000000	0.007558375597000122
122	0x3fa2141dc31e7ea6	0.03530972487282939
123	0xbf2c0579a5474080	-0.00021378621990076133
124	0x3fa144f5595f19fb	0.03372923580132078
125	0x3f9f525347ad39d7	0.030587483644291282
126	0xbf9102844317e11c	-0.01661116275315165
127	0xbfa2f9b0fed62a2a	-0.03706124411390406
128	0xbf961722203b910d	-0.021572621552778993
129	0x3f885b1600000000	0.01189248263835907
130	0xbf03593b5bbfeb12	-3.690445325329172e-05
131	0x3fa084bc513dde35	0.03226269237250926
132	0xbfab8afc4c127132	-0.053794750486505186
133	0x3f9a7afec60ddc22	0.025859814489617723
134	0x3faf249d07c9ba40	0.060826213074382185
135	0x3f77bfd831280901	0.005798191547457644
136	0x3fa6b042ebffaa23	0.044313517864641015
137	0x3f9bd58671b1408b	0.02718172139094625
138	0xbf91a3652ae9c795	-0.017224865669454543
139	0x3f8e5c2afa8019f4	0.014824233789124876
140	0xbfb17122f36e99e5	-0.06813257640042243
141	0xbf93276c2705e3b4	-0.018705072290206196
142	0xbf984da9a4df80e9	-0.0237337595825701
143	0xbfa31432e4812dfb	-0.03726347960818185
144	0xbfaad37eeb75d692	-0.05239483474990182
145	0xbfaca29e4b0e3975	-0.05592817941861742
146	0xbf98534bdd3e0229	-0.023755250338128562
147	0xbf73eb97c319820e	-0.0048633506972639694
148	0xbfae83a4c0000000	-0.05959811061620712
149	0x3fa5425f1844d93d	0.04152199908496577
150	0xbf80135258ea7a96	-0.007849353159426625
151	0x3f5fbb797631959e	0.0019367872380596572
152	0x3fa2f2b99e488678	0.037008095332805746
153	0xbf90908272bb1d64	-0.016176260235423526
154	0xbf96a982bafcec25	-0.02213100687297866
155	0x3f98617d0b2a6fb4	0.023809388929848033
156	0xbfab42ceb2f7c811	-0.053244075152079635
157	0x3fad15d8b0513f87	0.056807300112836016
158	0xbf80bc3c36c13843	-0.008171530171377955
159	0xbf8d1b0495fd12cc	-0.01421168883065018
160	0xbf95cc403dfad24c	-0.021286968024201422
161	0x3f90ba1026d5e9fb	0.016334774370514876
162	0xbfa3d69e0f79fd7f	-0.03874677599832931
163	0x3f82c4e500000000	0.009164609014987946
164	0xbf8764376ec61ac8	-0.011421616619157318
165	0x3fa1e742c0000000	0.03496750444173813
166	0x3fabfdb5e0def528	0.05467003221517991
167	0x3fa80be4196c603c	0.04696572122901485
168	0xbf8ab3ac58c5f002	-0.01303801198877608
169	0x3f956bf825c72c76	0.020919682794368254
170	0x3fa79e914e4fb36d	0.04613164978932258
171	0x3fb4098abd4f2d08	0.07827059861954322
172	0x3fa5e5bbcb5cc2e5	0.04276835305643604
173	0x3fad08ce60c1be33	0.05670781069863686
174	0x3fa45a1f43b41d60	0.039750077261539785
175	0xbfb0eada1a143963	-0.06608355652517654
176	0xbfa5971aa1857d99	-0.04216845723817215
177	0xbfa5989b66e63d1d	-0.04217992430778337
178	0x3fa2ddd6e72f03aa	0.03684875080171619
179	0xbf53a002f2ab6377	-0.0011978176868778481
180	0xbf9a7a3fa6732f6a	-0.02585696652822326
181	0xbf94ea56e19f79cf	-0.02042518379300323
182	0x3f979afe7b09ade3	0.023052192935592585
183	0xbfa111fc00000000	-0.03334033489227295
184	0xbfad399b80000000	-0.05708013474941254
185	0xbfafb0c524a74311	-0.0618955237620239
186	0xbfa3c9493f57b2af	-0.03864506624436125
187	0x3f8ed3b191f6479c	0.015052211062343272
188	0xbfa9014a1e8ffc4a	-0.04883796332432462
189	0xbfa0ae68c87c3ce8	-0.03258063742952705
190	0xbfad489f97a9ae5f	-0.05719469763138529
191	0xbfac1cf5c0000000	-0.054908446967601776
192	0xbf68a872c49c5008	-0.0030100099146555016
193	0x3fa7b5b2e7d73c69	0.04630812721335859
194	0xbf93a03c984a4b01	-0.01916594199662836
195	0xbfaf71978c5189d5	-0.06141351306793622
196	0xbf9bb72f8ca2a60a	-0.02706598564024002
197	0xbf99c7be97c1cef3	-0.02517602730990993
198	0x3fa03b2be22344fd	0.03170144210310786
199	0x3f6021ce731baf39	0.00196924516864341
200	0x3f7a38508b82d257	0.006401362065095193
201	0xbf96828395450fef	-0.021982246385292056
202	0xbf91baca3c83d73b	-0.017314109748404177
203	0xbfa6ab1c73e490f9	-0.044274224421572535
204	0xbfa384b17622a05d	-0.03812174384194187
205	0xbf97a1fda0afb5c9	-0.023078883106725265
206	0xbf8b4bf90db2fc6c	-0.013328500490727722
207	0x3f996818d248f715	0.0248111608836928
208	0x3f80a4c1f2ba9f1f	0.008126750202179843
209	0x3f8260a56414bbde	0.008973400227288705
210	0xbfa3aa7bddda1c02	-0.038410063582936985
211	0x3fa763c68866cfa9	0.04568310179766339
212	0x3f950b2200000000	0.020550280809402466
213	0xbfaef4138e09a34f	-0.060455905045108886
214	0xbf418e5320939481	-0.000535765256384338
215	0x3f9e3a9126002648	0.029520290321704473
216	0x3f9d988ef69fb262	0.02890227680465996
217	0xbfaf2c664747c101	-0.0608856164943763
218	0x3fa8ce17cd5c2c13	0.04844736463390844
219	0xbf4e35c9937292d5	-0.0009219393022204767
220	0xbfa1346889ab1945	-0.033602968983859095
221	0xbfad9ea7827384d1	-0.05785106151029996
222	0xbfa35dcc77e90177	-0.03782500232455537
223	0xbfb11b48c129ad90	-0.06682257381333145
224	0xbfaf844a2037e757	-0.061556164200694034
225	0x3fa011f2db35e1f5	0.03138693738850754
226	0x3f3dc454dfba5809	0.00045420715444188846
227	0xbf687000b792d247	-0.0029830945973919084
228	0x3fb1446179def3a2	0.06744965768207448
229	0xbfae1fb3d80995e1	-0.05883562099624463
230	0xbfab189dfd325561	-0.05292218890933032
231	0xbfa4a609c0000000	-0.04032927006483078
232	0x3faa2f84df12b32e	0.05114379141864443
233	0xbfa8e1f1f92e3dc5	-0.04859882513766992
234	0xbf984a18f602d2f9	-0.023720159545251616
235	0xbf91b1d1d833511c	-0.017279890843227994
236	0xbfa4ade050aefae7	-0.04038907036691857
237	0x3f587ade5774c08a	0.0014941378884252587
238	0x3fa13eee40000000	0.03368324786424637
239	0x3fa6d3cb3bffe874	0.044584609102415934
240	0x3f95df5f19dfefdf	0.02135990710665669
241	0xbf756ed1bbb6ca42	-0.005232638617075626
242	0x3fa0606bf04c0d04	0.03198563869775664
243	0xbfae9700470dfef3	-0.059745796846071196
244	0x3f74c3288d4f4bdb	0.005068930059638678
245	0x3fadc4355d378c6d	0.05813757670309703
246	0x3f97cc6ef0b0a3c7	0.023240788879920673
247	0xbfa4f53a743898b3	-0.04093344372476917
248	0x3fab55b4db3e1a6f	0.053388263476382807
249	0x3fab66b6c0000000	0.05351801961660385
250	0x3f86bbdef304c207	0.011100522796000168
251	0x3fa84ab4f3934e27	0.047444967969252176
252	0xbfad1f95c9bb6b85	-0.05688160026121295
253	0x3fa8bd807dc2abc9	0.04832078490411324
254	0xbf9bf9a7d7ba09f6	-0.027319548170007445
255	0xbf97e34626685612	-0.023327919096194867
