python/snapshots/snapshot2000.pt (torch_old, 584819 bytes, 6 tensors)

layer0.weight f8 [256, 18]
0	0xbfc6429cf9209dc6	-0.17390787281440917
1	0x3f73bb65f627ee23	0.00481738880852903
2	0xbfc74c2771d261ff	-0.18201153810220203
3	0xbfcab88433044da4	-0.20875599375777398
4	0x3fb687610245d1ad	0.08800321870314205
5	0x3fc581ec8122e8d1	0.16802746110426495
6	0x3fb65d800245d1ad	0.08736419730650509
7	0x3fab039574d32636	0.052761717329826416
8	0xbfcb4751e0c53faf	-0.21311400866625038
9	0x3fc2345c4215485e	0.1422229120894966
10	0x3f8d9e19bb22553f	0.014461709044818803
11	0x3faf3a48311e505e	0.060991531368160365
12	0xbfc8c49849981049	-0.1934995993943878
13	0x3fc0391fc122e8d1	0.12674328737722942
14	0x3f9a5e15c2cd45c3	0.025749530806313602
15	0xbfb9fdb85a55d98b	-0.10152771192028902
16	0x3fa570f34a92f1e8	0.04187736783339685
17	0xbfc0fcc0dd93e9a7	-0.1327134210512899
18	0x3fa319a047923f9d	0.037304886566857244
19	0x3faaa2c5b3bf00a3	0.05202310389677336
20	0xbfa4fd1b5fb8155a	-0.04099355262227773
21	0xbfceccab4a508005	-0.24062100533137723
22	0xbf655fdd7c04b33d	-0.0026091886394596074
23	0x3fc9ca580de517de	0.20148754766904536
24	0xbfa71de60d867a99	-0.045149983550108526
25	0xbfc9d33b6399c7ee	-0.2017587887126519
26	0x3fc61d91a619bb22	0.17277737245918795
27	0x3fa38dbffb890225	0.038190841155032275
28	0xbfc72a248b72c7dd	-0.18097359475137767
29	0x3f9d76524ba8836b	0.028771673076451714
30	0xbfc38117ca2241cf	-0.15237710351767794
31	0x3fa310aa1a0014fe	0.037236514734141565
32	0xbfc92522a43095ca	-0.19644577996329665
33	0xbfc39011150f30ea	-0.1528340676144418
34	0xbf9d51e74d774282	-0.028632749655857832
35	0x3fc3e19d9064a140	0.15532273817485454
36	0xbfb445ae00000000	-0.07918822765350342
37	0xbf976c4c00000000	-0.022874057292938232
38	0xbfcc62f400000000	-0.2217698097229004
39	0x3f434aa000000000	0.000588729977607727
40	0xbfc1455580000000	-0.1349284052848816
41	0xbfc845cc60000000	-0.18963007628917694
42	0xbfc32db9a0000000	-0.14983291923999786
43	0xbfc48a5c60000000	-0.16047243773937225
44	0xbfc1afe3e0000000	-0.13818024098873138
45	0xbfc32d3960000000	-0.14981763064861298
46	0x3fcd48d920000000	0.2287856489419937
47	0xbfb49f5540000000	-0.0805562287569046
48	0x3fb0016740000000	0.06252141296863556
49	0x3fadb9d180000000	0.05805830657482147
50	0x3f985e8900000000	0.023798123002052307
51	0xbfaf783d80000000	-0.06146423518657684
52	0x3fbfc17340000000	0.12404556572437286
53	0xbfcb922280000000	-0.2153971791267395
54	0x3fb679b4419811da	0.08779455758492052
55	0x3fc4c1ed5309f6cf	0.16216818384775997
56	0xbfc8089b5b704e87	-0.1877626606443423
57	0x3fa2e8e3084061f7	0.03693303561903243
58	0x3f6260a5c67147be	0.002243350772496349
59	0x3fc9245cdb5efb7a	0.19642220221973244
60	0x3fc0000d58f0e7d7	0.12500159113716222
61	0x3fc6b6c33116af43	0.17745246788887856
62	0xbf9493d32048bad6	-0.020095156522240774
63	0x3fcdf40bf9454dff	0.23401021644041006
64	0xbfc1d00762e8acc3	-0.1391610367730661
65	0x3fb58b9d6a7189f8	0.08416160439222853
66	0xbfca35b6bf0788cf	-0.20476421668633413
67	0xbfc0227ea1734097	-0.12605269320784337
68	0x3fadea79cd3ac40a	0.05842953329318597
69	0x3fb01e7e5854a739	0.06296529442320499
70	0x3f8186e5229b1d03	0.00855807315691815
71	0xbf41e75317087122	-0.0005463748657948168
72	0x3fbe2dfab834aca0	0.11788908955775179
73	0xbf894dc6eaa6e553	-0.012355379138954936
74	0xbfc72ec667791850	-0.18111496021646412
75	0x3fc9ee6a68a9041c	0.20258836851465467
76	0x3fc42806aa01e1bb	0.15747149754657905
77	0x3fad2bdcda9cc1ef	0.05697527092559428
78	0x3fbbcf382876ab51	0.10863066661719968
79	0xbfc0f2e212161ac6	-0.13241220362779965
80	0x3fc6335eaa2c9ff5	0.1734426814011837
81	0x3fbb8cf823af8509	0.10761977072936103
82	0xbfb831a183e42a82	-0.09450730772020147
83	0x3fc44e9e8b6b4b70	0.15864927108358584
84	0x3fa89c2163fbb4f4	0.04806618066309368
85	0x3fc4a2bd6778be3f	0.1612164263947182
86	0x3fc370b913b2f544	0.15187753164165418
87	0xbfcb10e32455a43d	-0.21145285867831545
88	0xbfbdc1902c68de89	-0.11623478969783653
89	0x3fa8e883faf2dcb8	0.04864895284975418
90	0x3fc01d89c4d55c31	0.12590143309600557
91	0x3fcb9342ea38d782	0.21543156086562126
92	0xbf9ec90022f1bf96	-0.030063631184418314
93	0xbfcbbe4eb8ed0ad6	-0.2167452242811893
94	0xbfbc354d3f29ef50	-0.11018832008443025
95	0x3fb0d04a55452b6e	0.06567825872222752
96	0xbfcde68bbae27ec8	-0.23359820008498944
97	0xbfbd97108d6fa1ef	-0.11558631375340388
98	0x3fb9e7244d780db3	0.10118319407779701
99	0xbfc91c0e676c560f	-0.19616870927772864
100	0x3fc8dc2995b3e123	0.1942188244791022
101	0xbfbce69501ef98d1	-0.11289340302718932
102	0x3f9b4964de4aab67	0.02664716345558862
103	0xbfc1d997fdc5ddcd	-0.13945293322806976
104	0xbfba9f2c00d61bc3	-0.10399127026003811
105	0xbfb6c4d0370ae4ed	-0.08894063323795694
106	0x3fbf96dfe9de769c	0.12339591464702909
107	0x3fab6a5c0027ab32	0.05354583265201142
108	0x3fbad9a8de4e19f3	0.10488372256632043
109	0x3fcdd4f65a71161d	0.23306159416294828
110	0xbf9958a6936c18e5	-0.0247522380332378
111	0xbfc4fbdc06111380	-0.16393614097810527
112	0x3fbb789769dad08d	0.10730882963508943
113	0x3fb5c566618cf891	0.08504333383186437
114	0xbfa2abe6c66f70c3	-0.0364677540999039
115	0xbfc8ce42a3e3dc35	-0.19379456522412544
116	0x3fcd60efbbe41eec	0.22952076601381266
117	0xbfc4a4152f6721c2	-0.16125740828125684
118	0x3fbd8f3abea78364	0.11546675829550918
119	0x3fb1fd5cfc6036b3	0.07027226602095986
120	0xbf9bcb78deb25b2a	-0.027143372146919344
121	0xbf7cbf068f20e664	-0.007018113728969409
122	0x3fc89a00dc0fdf10	0.192199809505603
123	0x3fc65aa7200cc7d7	0.174641504907014
124	0x3f8d3822814ca9d6	0.014267224856287546
125	0xbfc4b2f711706498	-0.1617115817214525
126	0xbfc943cd41d7690c	-0.1973816462985457
127	0xbfc31e2cbb8ca87f	-0.14935835988700671
128	0xbfb058bb02c461d8	-0.06385392015034286
129	0xbfb092e83011f8c0	-0.06474162267292893
130	0xbfa605295c1a7154	-0.043008129590108496
131	0x3fc05432f3477b24	0.12756955031269357
132	0x3f93335669845fd6	0.018750524702312386
133	0x3fa2b014db651d4e	0.03649964502488477
134	0x3fc43e10c8544eb1	0.15814409047799452
135	0xbf5ed45c8335fb39	-0.0018816855852887406
136	0x3fcba3733c3efc1d	0.2159256023569193
137	0x3fb53284a8064729	0.08280209638749327
138	0xbf97b8f974218af2	-0.023166558945727674
139	0x3fc24a17a33b8e30	0.14288611860603018
140	0xbfaeaa7af9b8faa5	-0.05989441202517768
141	0x3fc935257ee78107	0.19693440147876393
142	0xbfcd2d27ac1cef3b	-0.22794052032429044
143	0x3fc32e2fb2810102	0.14984699455272482
144	0x3f9531f2d980fac2	0.020698351407413502
145	0x3fb654d0e588fe39	0.08723168949017514
146	0xbfcb6a4744b95055	-0.21418085914285948
147	0xbfb119a46655333b	-0.06679751871452037
148	0x3fc84881d09194c8	0.18971274074571043
149	0x3f91acdfefe34efd	0.017261027351948666
150	0xbfc7227ed2eef6b4	-0.18074021625027614
151	0xbfaf0e30e6bec630	-0.06065514389719018
152	0xbfc2de771d4e5b4c	-0.14741410189591375
153	0x3fae8eb19b1758d7	0.059682417089492006
154	0x3fc7b23d41a5737b	0.18512693124185006
155	0xbfa66e03783ad1f1	-0.04380808680199156
156	0xbfc18395623721b8	-0.13682811065360823
157	0x3fc92d55f984b77b	0.19669603999630766
158	0xbfc8c555e338d806	-0.19352220148874738
159	0x3fb774dce2a9c349	0.09162693532722445
160	0x3fc3546fa854c268	0.15101428717891285
161	0xbfcd665b9d01fe9b	-0.2296862141265493
162	0x3fc3003bad68dedb	0.14844461409824458
163	0x3fc9b67f1ea84ddf	0.2008818530745051
164	0xbfccf8e04f4fb40a	-0.2263450991880805
165	0x3fca138e202a1400	0.20372177668119207
166	0x3faab6f1b5b745dc	0.052177003318899046
167	0xbfb907c4150c286c	-0.09777474893431454
168	0x3fcbfa02fbd6407f	0.21856725022053422
169	0xbfc19232720ed2ef	-0.13727407998307892
170	0x3f8e43ec5b8b5be7	0.014777990859711166
171	0x3fbd30063ccf25f5	0.11401404366110753
172	0xbfcaf9c2f972687a	-0.21074711971306553
173	0x3f79e5c21a2421be	0.006322630130178584
174	0xbfca7dc681f0f0b9	-0.20696336121353
175	0x3fc0ef6ed006caef	0.1323069110636292
176	0xbfb1e341914e1d7b	-0.06987390325058655
177	0x3f92a53956cac3b3	0.01820840446697831
178	0x3fb278eda13f38b3	0.072157718531545
179	0x3fadba23976336c1	0.058060753087926915
180	0xbfbd979b60000000	-0.11559458822011948
181	0xbfc1425d40000000	-0.1348377764225006
182	0xbfcac7e3a0000000	-0.209225133061409
183	0xbf84598600000000	-0.0099363774061203
184	0xbfb61f3240000000	-0.08641351759433746
185	0xbf9e7dd700000000	-0.029776915907859802
186	0x3fc5241c20000000	0.16516448557376862
187	0x3fa3bf3b80000000	0.03856836259365082
188	0x3fa1ccf380000000	0.034766778349876404
189	0x3f8db7e600000000	0.01451091468334198
190	0x3fb71b0dc0000000	0.09025655686855316
191	0x3f818be600000000	0.00856761634349823
192	0xbfb4d59ec0000000	-0.0813845843076706
193	0x3fc2670ca0000000	0.14376981556415558
194	0xbfcc358180000000	-0.22038286924362183
195	0x3f93956100000000	0.019124522805213928
196	0x3f71225c00000000	0.004183158278465271
197	0xbfcc76fec0000000	-0.22238144278526306
198	0xbfc320611a8b0732	-0.14942563816117055
199	0x3fa6fa0c2ed61f88	0.0448764617131579
200	0xbf9cdd773e6793d0	-0.028188574966310942
201	0xbfbcbfa60a0c2da1	-0.1122993254213527
202	0x3fcb863dc7e06443	0.2150342203101748
203	0x3fc7f7df3d27f27f	0.18725195394644698
204	0x3fcd65813cd33280	0.22966018171281988
205	0xbfa919c10c78cd28	-0.04902461316342005
206	0xbfc2b40c781e1bce	-0.14611965050809633
207	0xbfad269a89b18369	-0.05693514757945801
208	0xbfc11af5d34d306b	-0.13363526170212778
209	0x3fc800a17cf0a233	0.18751925087532725
210	0xbfbcdb81bef8437a	-0.11272440826748023
211	0xbfb5b8fa1422f7bc	-0.08485377303710967
212	0x3f9294ad78fbe89a	0.01814528513839573
213	0x3f783b45b0328399	0.005915901393707034
214	0x3fb6a2dcb47e7dca	0.08842257887453467
215	0xbfbead143313f6f9	-0.11982847449322866
216	0xbfb8ced7767e8d13	-0.09690615313461519
217	0x3f9af5d844976e08	0.02632844847344809
218	0x3fbbb3ec2177900d	0.10821414773050737
219	0x3f92c4e29ed5d130	0.018329182571919123
220	0xbfc22d61a024631a	-0.14200992888870517
221	0xbfc43188037d4944	-0.15776157541638203
222	0x3fc8135ae600fc00	0.18809066992432122
223	0x3fbee2f5c761fc6f	0.12065063588851087
224	0xbfb470ac6db3060a	-0.07984426191526253
225	0xbfaa805917cdad2b	-0.05176046767777572
226	0x3f968ad67882f4d3	0.02201399908584707
227	0x3fb779f5abfd6b89	0.09170470665905674
228	0xbfcd927db4ea3b9c	-0.23103305181254263
229	0xbfab370e7f15ff7c	-0.053154423726481576
230	0x3fc8e8dc01e4c2a8	0.19460630505047516
231	0xbfc0f9174a18d494	-0.13260165327088613
232	0x3fae7823b87b4fc4	0.0595103419015284
233	0x3fa44dbae4ea9dd8	0.039655533260255005
234	0xbfc4621f40000000	-0.15924444794654846
235	0xbfc2810880000000	-0.14456278085708618
236	0xbf6e05a800000000	-0.0036648064851760864
237	0xbf889eba00000000	-0.012021496891975403
238	0xbfc0e78c80000000	-0.13206630945205688
239	0x3fa0f66380000000	0.033129796385765076
240	0x3fb1574dc0000000	0.06773839890956879
241	0x3fc25b0be0000000	0.14340351521968842
242	0xbfc58bda80000000	-0.16833049058914185
243	0xbfb4bc2180000000	-0.08099564909934998
244	0x3fc03fbd60000000	0.12694518268108368
245	0xbfb8c99300000000	-0.09682577848434448
246	0xbfc0732e00000000	-0.12851500511169434
247	0xbf8b5a7000000000	-0.01335608959197998
248	0xbfbe49b780000000	-0.11831232905387878
249	0xbfcc079ac0000000	-0.21898207068443298
250	0x3fb073c6c0000000	0.06426660716533661
251	0xbfc7292420000000	-0.18094302713871002
252	0xbfb3c4d19bce8c55	-0.07722196630361229
253	0x3fb1d02a227eb527	0.06958258955156237
254	0xbfbf99c5910ce6d4	-0.12344012061376058
255	0x3fc30361ab7aebbf	0.14854069588713334

layer0.bias f8 [256]
0	0x3fbd1ceb0245d1ad	0.11372250371443356
1	0xbf97d706f3f077d3	-0.023281201018214247
2	0x3fa8c6b180000000	0.048390910029411316
3	0x3fc55370a1dbf078	0.16660888579633926
4	0xbf52bcb88b7ef1aa	-0.00114362737620786
5	0x3f540a0bd2a6f311	0.0012230983216873807
6	0x3fa7c0cbfa9f8b5b	0.04639279779782753
7	0xbfc51eb753d52a72	-0.16499988168137097
8	0xbf5e5c1267f053ef	-0.0018530063387107683
9	0xbfba93e7be844817	-0.10381935502326232
10	0x3fa8be6d80000000	0.04832784831523895
11	0x3fb32da733500fab	0.07491536143066806
12	0xbfb1ce6e80c84d90	-0.06955614704229718
13	0x3fba1ac540000000	0.10197098553180695
14	0xbf83331e6427b58d	-0.009374844962588802
15	0xbfc45b0d08c32fad	-0.15902865341047115
16	0xbfc625554b4a2bbb	-0.1730143182397493
17	0x3fc50a2f4e1ce9ef	0.1643733149920332
18	0x3fabf7ec3c479a32	0.054625875814782524
19	0xbf8efcfb8648f0fa	-0.015130963359404326
20	0xbfb3f1098986d2fa	-0.07789668662628549
21	0xbfc70b653efaa461	-0.18003526282453478
22	0x3f8b0b0a73a00a19	0.013204652455901788
23	0x3fc5a3e3a282e278	0.16906400141830935
24	0xbfb4bda785a4100d	-0.08101889622417975
25	0xbfa2479b51446cf8	-0.0357025658324463
26	0xbfc574eaee2bea44	-0.16763054494352236
27	0xbfbd14d7535284d4	-0.1135992601798706
28	0x3fc24edfcd9e08e7	0.1430320505133473
29	0x3fac594c37d91fbd	0.05536878759136197
30	0xbfc703d337fb019f	-0.17980423196241888
31	0x3fc2f271998b14cd	0.14802379605513352
32	0xbfcce0f86f63584f	-0.2256155532729189
33	0xbfca084bec0d1a3a	-0.20337819124161333
34	0xbfb1992548132292	-0.06874306687962875
35	0x3fc7478ee597ff67	0.18187128267890815
36	0x3fcc815985c70703	0.22269743949987494
37	0x3fcb8a56d2feb9b3	0.21515927603236448
38	0x3fc6697d81d444f0	0.1750943073207405
39	0xbfc58c5e70ceaf77	-0.16834621914074052
40	0x3fcd7e0da0675439	0.23040933925827448
41	0xbfb2c76aef600ae1	-0.07335537284965767
42	0xbfc56c6b7ee0a45f	-0.1673712129134257
43	0x3f8eaa0a8172aea9	0.014972765040816087
44	0x3fb7989db8a38c1b	0.09217248685631356
45	0xbfbbb99d7aa6b681	-0.10830101246275527
46	0x3fcb83db38582c61	0.2149614358062051
47	0x3fccee147f7f1e25	0.22601562714975035
48	0xbfcaf8ecfdaba2b7	-0.21072161089184302
49	0x3fb1144940000000	0.0667157918214798
50	0x3fc5ff14bdc9a28a	0.1718469549844211
51	0x3fc9e1777b58f54c	0.2021931984217339
52	0xbfa0c910af715168	-0.03278400556215183
53	0xbfca2c083ae98b61	-0.20446875454498595
54	0x3fa869b7d3fa4ff8	0.047681564928239994
55	0x3fa2fd884e2e8818	0.03709054903380621
56	0xbfb6042e5c587f38	-0.08600129847081639
57	0xbfc66d9f99e281f5	-0.17522044195085554
58	0xbfa7a148b789087e	-0.04615237465306253
59	0x3fc235f253370c4f	0.142271319038715
60	0x3fc854d450d7ad15	0.1900887865771003
61	0xbf929fd1538921b2	-0.018187781070339866
62	0xbfafb0f5a63fab7e	-0.06189696936038212
63	0xbfcc4d0ba0000000	-0.22110123932361603
64	0x3fc458e61953c654	0.1589629768055142
65	0x3fcdd4be38811c18	0.233054902639396
66	0x3fcb516837778bf7	0.21342184742306333
67	0x3fca49d271b430d3	0.20537787010142114
68	0xbf9bb31ae40bb313	-0.027050419014744764
69	0x3fcab399ea29ccfc	0.20860599454645257
70	0x3fc0556f07ad2000	0.1276072299463067
71	0x3fc15d82b003e21a	0.13566621393671668
72	0x3f66cc9567574fc2	0.002783099941305851
73	0x3fca774ad3028b42	0.20676551154346084
74	0xbf810fd42e81b97b	-0.008330972356102908
75	0x3fbc069a799918cf	0.10947576016141912
76	0xbfc3a4a1268c42a6	-0.15346159345837868
77	0xbfb0c41d7c004ed0	-0.0654924800622283
78	0xbfb7240de7f1f343	-0.09039389527056323
79	0xbfcccd4985ccb93c	-0.22501486809910343
80	0xbfc57b59e0dbc4f7	-0.16782687644403158
81	0xbfc2cc548b3b1d5a	-0.14686066435227013
82	0xbfc8611e215ef6ee	-0.19046379689637355
83	0xbfb14aad6df4f625	-0.06754573759550249
84	0x3fc59c0b0e2e90ea	0.16882456009364627
85	0x3fce4948edc5cf37	0.236611476993511
86	0xbfcd848073284dad	-0.23060613272592204
87	0xbfc3ef42f555b844	-0.15573918322792413
88	0xbfb1a7789837e72d	-0.06896165577191189
89	0x3fc2cac366ae0fd7	0.1468128444067804
90	0xbfbbcada627a047e	-0.10856404213156343
91	0xbfc313c32f55ea88	-0.14904060183819845
92	0x3fc771b541bebe77	0.1831575938244787
93	0xbfb75e0be31c3597	-0.09127878470117988
94	0xbfa52194d9e057a6	-0.04127183112738857
95	0xbfc47b65ec1c3a4d	-0.1600158121950294
96	0xbfc5a69598eebf4d	-0.1691462513676875
97	0x3fc5a137c385cc42	0.16898247763637825
98	0x3fcc0675c9ef860b	0.2189471469892371
99	0xbfa445605a6640a6	-0.0395917997694835
100	0xbfb4965d9976e8a8	-0.08041939732257453
101	0x3fc46d8cf427517e	0.15959321900903584
102	0x3fcb33a70c37c338	0.21251381012509696
103	0x3fbf37d9366a7a6d	0.1219459302760499
104	0xbfcca92025b53ef8	-0.22391130295954276
105	0x3fc5184e9a34bc3b	0.1648042920073481
106	0xbfcbfdae20000000	-0.21867920458316803
107	0x3fb9c60e6d4008e4	0.10067835013618126
108	0xbfc641a20c99d91a	-0.17387796035081565
109	0xbfb1f45584515e4d	-0.07013449173370497
110	0xbfb775833f7e33df	-0.09163685131188924
111	0xbf922abe59325f11	-0.017741178697718022
112	0x3fc5ef36eb0b473b	0.17136274792442827
113	0x3fc1ab14ad94901c	0.1380334708748031
114	0x3fcd4f5ca27a515b	0.228984431586137
115	0x3fb6093536d80ee1	0.08607800091709407
116	0xbfaf775001aedfe6	-0.06145715733094885
117	0xbfb1d29b29ed059a	-0.06961984418469172
118	0x3fc5354a0c3c64a5	0.1656887588258417
119	0xbfc7452946ed149c	-0.18179813349903362
120	0xbfba6b8ce52aa41c	-0.10320358843695526
121	0x3fc4a805caa7038e	0.16137764353882428
122	0x3fcceeb460000000	0.22603468596935272
123	0xbfa48e5fe2a906d2	-0.04014873163079148
124	0xbfc94822e9fc628f	-0.1975139276990103
125	0x3fce407d03d62c2d	0.23634302794775533
126	0x3fb9d8b2807653f5	0.10096278797421106
127	0xbfc1bc4c9e965495	-0.13855893844143866
128	0x3fb1924ac0000000	0.06863848865032196
129	0x3fc689791b39b5d4	0.17607034520498976
130	0xbfb01ae33a8c8802	-0.0629102724019788
131	0x3f8e2f40a4b6251b	0.014738564516636068
132	0x3fcac8f32b45358f	0.20925750363168702
133	0xbfa6333380000000	-0.043359383940696716
134	0xbfc896e940000000	-0.19210544228553772
135	0xbfc2933b3f3dc671	-0.14511814678148796
136	0x3fbdad8ee1798369	0.11592953686478115
137	0xbfbc2805e8fb9114	-0.1099857038312318
138	0x3fb47127e303779b	0.07985162060091826
139	0x3fc2f76049a6855a	0.1481743201848456
140	0xbfc057bd045f8add	-0.12767756188903592
141	0xbfbec6a13baa2e75	-0.12021835047397096
142	0x3fa1c87e365cc082	0.03473276532747695
143	0xbfb16c7b7958bf67	-0.06806155884328079
144	0xbfcd51db89e450bb	-0.2290605948734362
145	0xbfb090460f201aa0	-0.06470144147179235
146	0xbf6fb8b6e31f1f16	-0.0038722583785534377
147	0xbfcbc22505d0c0b4	-0.21686232360798885
148	0x3fce7200dc320151	0.23785410644269203
149	0xbfbf901cd895553d	-0.12329273498229028
150	0x3f9f4fbc7611bb9f	0.0305776068748248
151	0xbfac4669df363cd9	-0.05522471284631942
152	0xbfcf3fbf9e37e86f	-0.24413295007235855
153	0x3fbb741182f96214	0.10723981330500748
154	0x3fcc7a3d0903ebce	0.22248042049599664
155	0x3fa66c8f97c96779	0.04379700401177806
156	0x3fc61109d1ca6ece	0.17239496940316318
157	0xbfc5e88d80000000	-0.17115944623947144
158	0x3fc42fae3668b533	0.15770509392442875
159	0xbfcd618a87adaee7	-0.22953921914028472
160	0x3fca06e5dde9f8bd	0.20333550773279355
161	0xbfc090c2178a1e50	-0.12941766881361838
162	0x3fc172d434ec4a96	0.13631680091983317
163	0x3fb2915fcc6dc6b9	0.0725307344526084
164	0x3fc1a424d47be464	0.13782177329247525
165	0x3fc25e31ac8ec6b3	0.14349957395238774
166	0xbfb8a21fb6b33762	-0.09622381411028649
167	0x3fb2a2e07f90cabb	0.07279780496973391
168	0x3fcdf68fe1bef2c1	0.23408697626827826
169	0x3fb2287e17d1f566	0.07093036729380273
170	0xbfa3d3ec367182c2	-0.03872621693222335
171	0xbfc440b958fb6844	-0.15822522015406737
172	0x3fc11fd8e4fd8559	0.13378440076034329
173	0x3fbd8454f004fd51	0.11530047283030355
174	0xbfa3a582411ea5ff	-0.03837210698049986
175	0x3fc5999f1a6b96e8	0.16875065603306116
176	0x3fa75c7757554d92	0.04562733594016345
177	0xbfb7d9b6fe1a533e	-0.09316581443483771
178	0x3f90bee4f878b167	0.01635320440816326
179	0xbfb1a4350e55df09	-0.06891185379015154
180	0x3fb0bf6f782e5895	0.06542107280833627
181	0x3fc8becff0620abb	0.19332312810373317
182	0x3fc8d5e0dfac3d8b	0.1940270511772549
183	0xbfc3ff61e0000000	-0.15623115003108978
184	0xbfcd2d314fc03221	-0.22794166940765684
185	0x3fa208943021f977	0.03522170150334863
186	0xbfc1b78f00000000	-0.13841426372528076
187	0xbf9cb91600993cf5	-0.028049796854529203
188	0xbfc8cac45955b21a	-0.1936879574017361
189	0x3fc6c5b42e751542	0.17790844219613616
190	0xbfbbb26b12bb9ba7	-0.10819119651169605
191	0xbfb6ef53fa7d738e	-0.08958935609321214
192	0x3fb3c5e2517d6947	0.07723822106837473
193	0xbf7ec287b00e9dab	-0.007509737043541002
194	0xbfc4b23fd4be9eaa	-0.16168973815841997
195	0xbfa7e9df6eb5ef53	-0.0467061827320935
196	0x3f831643c44bb976	0.009319810321781512
197	0xbfbb71688ae5780e	-0.10719922438644877
198	0xbfc88760ddfee867	-0.191631420513491
199	0x3f8a0c8c638da9f1	0.012719246662261848
200	0xbfc4c068014c9592	-0.16212177337108052
201	0xbfc34893f7eec31d	-0.15065240484320777
202	0x3f93e520edf49ebe	0.019428743861822133
203	0x3fba44fd356b7a43	0.10261519006915258
204	0x3fb494c944b6971f	0.08039529731339855
205	0xbfbb8d740bae1db2	-0.1076271561161011
206	0x3fc22cbd63482f50	0.14199035022499595
207	0x3f99a95100000000	0.025059953331947327
208	0x3fc87129509adb14	0.19095341144358058
209	0x3fc89b14fa72a4b6	0.19223272541902298
210	0xbfc5b33521321236	-0.16953148003462254
211	0x3fc0c89b185da10f	0.13112200441106167
212	0x3fc1f4a5ea28a967	0.14027856763398036
213	0xbfa6d29f70d9d03d	-0.04457567455838827
214	0x3f3f0c750c1f2aa3	0.00047376496888477444
215	0xbfbc9f7693f7aaa3	-0.11180821526037703
216	0x3fb8711750402f13	0.09547563275571873
217	0x3fc1fbbfd0e4a33c	0.1404952783571164
218	0x3fceb569cf1013f6	0.23991129503715997
219	0xbfb1a48d62830834	-0.06891711859773936
220	0xbfb31dea30adff51	-0.07467521370381049
221	0x3fb812204e8edb3a	0.09402658384247511
222	0xbfc806b6c2e5edbb	-0.18770489231597573
223	0xbfc5b98ef9a6cc1a	-0.16972529592530422
224	0xbf6a173b449472ca	-0.0031849057746867514
225	0x3f883ef0ab2811af	0.011838798735887971
226	0x3fb4b1c652a8cf70	0.08083762662937288
227	0xbfc33323a5f59be4	-0.14999814609038176
228	0xbf9a62fc26b7c05b	-0.025768222678323443
229	0x3fb64c65dd3ba109	0.08710323954767686
230	0xbf9645ff8cf5e344	-0.021751397112413487
231	0x3fc97af7c1057180	0.1990651791082989
232	0x3fca28e72b9633d8	0.20437326076753837
233	0xbfb271d9de7f77f6	-0.07204972917631366
234	0xbfb28c768ae96577	-0.07245579615973506
235	0xbfa79fd933443378	-0.04614142180262254
236	0x3fc55afbebce855d	0.16683911336898918
237	0xbfc0e7803ca6477c	-0.1320648475780749
238	0xbfcd16da20000000	-0.22725988924503326
239	0x3fa31e71c623c73d	0.03734164756487111
240	0xbfcd4a6ea17eb315	-0.22883398900503296
241	0x3fcb6fb2f0ff5959	0.21434628264860114
242	0x3fcdf8908cd6f650	0.23414809109628942
243	0xbfb32234920247d0	-0.07474068226500141
244	0xbfb39a10f863dacb	-0.07656961502275832
245	0xbfa41f896f4caf24	-0.0393031071056085
246	0xbfbe40769a3eec3f	-0.1181711317612306
247	0xbfcbe0e220000000	-0.21780039370059967
248	0x3f910fb358d35841	0.016661455437166465
249	0xbfc7f3db5451b8af	-0.18712941758298515
250	0x3f9e6b0fed66dc8e	0.029705284943443426
251	0x3fc733cecdb78111	0.1812685493923785
252	0x3fb2a63a36e3d694	0.07284892883384436
253	0x3fb82e2e356f4566	0.09445465855175925
254	0xbfa67240857252e0	-0.04384042386042153
255	0x3f9ea332795b0010	0.029919422776174598

layer1.weight f8 [256, 256]
0	0xbf999c03f296b320	-0.02500921409744017
1	0x3fa0e24477f63b3f	0.03297628368738125
2	0x3fa58a0080000000	0.042068496346473694
3	0xbfa0aba8fb2c1cbe	-0.0325596624953106
4	0xbfa68d3d8189e329	-0.04404632765085232
5	0x3fac7e62dec62e53	0.055651750272855204
6	0xbf9a57154bb5c393	-0.025722820993397354
7	0xbf8ccf2779cbd673	-0.014066990284372615
8	0xbfad99e39d67398e	-0.05781470581461
9	0xbf78ae435539d297	-0.006025565165704314
10	0xbf3a220000000000	-0.0003987550735473633
11	0x3fa2dac4f0146aaa	0.03682532721196215
12	0x3fac11ce721c6876	0.05482335226970829
13	0xbfa2c8fb40000000	-0.03668961673974991
14	0x3f908b7e38a31d4c	0.01615712376294924
15	0xbfa8a0157130820c	-0.04809634215076039
16	0x3fa9c2d30476c48f	0.05031451634875694
17	0xbfa6af28f792ad90	-0.04430511495715017
18	0xbf9195ce2ae4c7c0	-0.017173024528524428
19	0x3f430fae71c1ea08	0.000581703355705899
20	0xbf925683bfc083d7	-0.01790815217839622
21	0xbfa5982e930fad1e	-0.04217668099576087
22	0xbfabc6366b7e02f7	-0.054246616956339304
23	0xbfa947a16a86ddd9	-0.04937462258697751
24	0x3f8c0b7e23d3f423	0.013693795650846557
25	0x3f96c467836ee241	0.022233598134081104
26	0xbfa28c60c56cc873	-0.0362272492406114
27	0xbf9356a9cb404276	-0.01888528159185162
28	0xbf9111229588120b	-0.016666927696876537
29	0x3fa90a6f19e6893b	0.04890773001831624
30	0x3f956637c8d59dcb	0.020897742875062335
31	0xbfae2f2365cb81ad	-0.05895338647474389
32	0x3f904023c15bc92a	0.015869673420590015
33	0x3f9e30561f30ce04	0.029481263784147074
34	0xbfa69b7d69ec80fa	-0.04415504377380049
35	0xbfa70298c96a3b4a	-0.044941687189853655
36	0x3f97da34752018bb	0.02329332318188258
37	0x3fa6fa06e139cdc0	0.04487630366648032
38	0xbfaa110029b131ed	-0.05091095456063841
39	0x3f8407fb71799e85	0.009780849838718861
40	0x3f998d734410b661	0.024953652409911323
41	0xbfa91412b83eb92e	-0.048981270781370476
42	0x3fa71db1fbd2e2e9	0.04514843176861467
43	0x3fa62490f80d6843	0.04324772861464556
44	0x3faba8434b541aaf	0.05401811880624529
45	0xbf995844be0fdbe4	-0.024750780201397662
46	0xbf925e704e4715fd	-0.017938380029383073
47	0xbf7d6f12b48a828c	-0.007186005656564586
48	0xbfaa63a9a881aa04	-0.051541616267815754
49	0x3fa2e32200000000	0.03688913583755493
50	0xbfa4d726b7e5c2db	-0.04070397372095665
51	0xbfa089a5540fc959	-0.03230015422004113
52	0xbf9a4850489104b4	-0.025666479519945454
53	0x3fa8600dceeaf4fc	0.047607833393593396
54	0xbfad1890b866dfa8	-0.05682804347037457
55	0xbfac5ff8e29441ba	-0.05541970983370299
56	0x3fa46563f00358f8	0.03983604721877215
57	0x3f717b089f4f323b	0.004267724686496661
58	0x3faf9f09d342e5a9	0.06176024154542443
59	0xbf965f83ca203a18	-0.02184873505762583
60	0x3fa21a7811de299e	0.03535819261658733
61	0x3fa3bc626b8d725a	0.038546634320230935
62	0xbfa7ca5ae833065b	-0.04646572193588546
63	0xbf9bcd9680000000	-0.0271514430642128
64	0x3fabbc5a2f116040	0.0541713888603117
65	0x3f9fd270a529a504	0.031076202469567896
66	0x3f978fe5b51c4db1	0.023009862116919858
67	0x3f7a2c4d0955e9fc	0.006389904903125739
68	0xbfa5741cc1d549cc	-0.04190149179580124
69	0xbfaa6434c08604fb	-0.05154576158657594
70	0x3f7a52a858a39396	0.006426484682582242
71	0x3f33537d89a3dedf	0.0002948934067172736
72	0x3fa1fee580916e8f	0.03514783091006023
73	0x3f8772d54ce7244f	0.011449495705976668
74	0xbf931022227b3bbd	-0.018616231302811082
75	0xbfa65de213a547e8	-0.04368502130331803
76	0x3fada393a434d754	0.05788861636612688
77	0x3faf375ffc12e2d6	0.060969352265095075
78	0xbfadd6fff6bbfb76	-0.05828094374554997
79	0x3f53205f4c942b3d	0.0011673861175178345
80	0x3f9c839dc90ea610	0.027845826527174877
81	0xbf94a4bc088d7793	-0.020159662267694122
82	0xbf92a19102ccce39	-0.018194452091121447
83	0x3fae20cd6288078d	0.05884401157165007
84	0x3f88853860125e0f	0.011972847396733348
85	0xbf9b4362204f2a57	-0.026624234411239147
86	0xbf784a5c03513d93	-0.005930289674395256
87	0x3f8d0091973d1a79	0.014161240985811606
88	0x3fa11052d5f65a5b	0.03332766401142769
89	0xbfade0a9dbf6354c	-0.05835467157440152
90	0x3fae3d89bcd56591	0.05906324796769547
91	0xbf925d75b79cbb6e	-0.017934645969201517
92	0xbf941cff0626a7b8	-0.01964186167757706
93	0x3fa0bab4df8ba51b	0.03267445782496222
94	0xbfaa4c636b20d7ef	-0.05136404688566631
95	0x3fa7c72c11eb4acf	0.046441437899962794
96	0x3f5c1ced9604938d	0.0017158813644268828
97	0xbf8afbb818299021	-0.013175428616882869
98	0xbf668f953df4ebca	-0.0027540125735447717
99	0xbf9100a771f3e0c0	-0.016604057626836477
100	0x3fa737516df8f56c	0.04534391848981553
101	0x3f9e8b85226151f5	0.029829101775549167
102	0xbf91757a8020b647	-0.017049707479762224
103	0xbf9c2e034c81f9ed	-0.027519275231037744
104	0x3f8ed5123b8d5c99	0.01505483860243677
105	0x3fa9661ef7cea105	0.049607246160407605
106	0x3f743eea00000000	0.004942812025547028
107	0xbf93fa3368c671bb	-0.019509127874344872
108	0x3fa704de3e098ca7	0.0449590159157876
109	0x3f976db411ec51ba	0.02287942275423103
110	0x3f8df8da20470f07	0.014634803876908643
111	0x3fa070116ae21524	0.03210501126981516
112	0x3f912be2397cc039	0.01676896549105342
113	0x3fa2bfa058b87e88	0.03661824305549738
114	0xbf923ba1ca11051a	-0.017805602987441473
115	0x3fa79e29b001541d	0.0461285617208562
116	0x3f9b6b1815d42e12	0.026775719005895544
117	0x3faa589b7896be78	0.051457270117109155
118	0x3fa78dc2e18584f4	0.046003427533614444
119	0x3fa060d00835aae4	0.03198862171378439
120	0xbf9d77d76cf53bb4	-0.02877747156645301
121	0xbf9e2db180590de9	-0.029471181353313645
122	0x3faa1539c0000000	0.05094318836927414
123	0xbfa67be2f6186538	-0.043913929501466276
124	0x3fa1450e90f5def6	0.03372998733078518
125	0xbf72ccd8a7e43fd1	-0.0045898879163956555
126	0xbfa2319f97175dd5	-0.03553484649063036
127	0x3f80ed42108a7f70	0.008265033845702624
128	0x3fa099b600000000	0.03242272138595581
129	0xbfae27c504bfccd4	-0.058897167997111005
130	0x3fa2ccd9d70a7719	0.036719138622386356
131	0x3fa49b12659d07f8	0.04024560442350372
132	0xbf175f64045678ae	-8.915946917517861e-05
133	0x3f8aac9700000000	0.013024501502513885
134	0x3fabbc2900000000	0.054169923067092896
135	0x3fa268b8f49aa518	0.03595521913423222
136	0x3f94be61798470aa	0.020257494966344915
137	0x3facd6e02795b835	0.05632687075818447
138	0x3fa3d482d3fdc8b3	0.0387307056215759
139	0xbfa1968ea20edea6	-0.034351784975510655
140	0xbfa78c3d0f5993aa	-0.045991809963005295
141	0x3f61886d4903e0cd	0.00214024872559202
142	0x3f7462f8ae19b2bd	0.004977198988495854
143	0xbf7e173c1a12e314	-0.00734637715611865
144	0x3f8509fe9ed1ff99	0.0102729694574462
145	0xbfadce8fae12db92	-0.058216562270380426
146	0x3f94f7c3f6ed76d3	0.020476400324119858
147	0x3fa3d44a86e802c4	0.03872902771764111
148	0x3facdb636528cf19	0.05636129960876541
149	0xbf86404ebb9b050c	-0.010864844417826557
150	0x3f95e89c127ba78c	0.02139514792262491
151	0xbfa85b7c574dcdf7	-0.047572980553834236
152	0xbfacb707c56e894b	-0.056083910799559954
153	0xbfa90fc5346cacd3	-0.04894844307849557
154	0x3f78012803024d39	0.005860477729714924
155	0x3fa8a9a06f5f6f91	0.048169149012863184
156	0x3f8220865d28d0eb	0.008851098745346472
157	0xbfa9951300000000	-0.049965471029281616
158	0x3f9ca768b62552e9	0.027982364766404286
159	0xbfa3afa3acfebf84	-0.038449396960799326
160	0x3f90eb36e5b4fa6a	0.016522271890830366
161	0xbf1f9fbc897f96f1	-0.00012063587416796439
162	0x3f96189afed8d5de	0.02157823734724739
163	0xbfa73416d431c227	-0.04531928386939326
164	0x3f7620a8cf2ac87d	0.005402240191573535
165	0xbfa19fbe1bbd1f04	-0.034421864400938446
166	0x3f95e17ca6ae3d50	0.02136797683084285
167	0xbfa84c5e840929b1	-0.04745765077366871
168	0x3fa3b6e557572ac4	0.03850475970428627
169	0xbf9e0ce81dfcd7cb	-0.029346110182096468
170	0x3fac0e404432c61f	0.0547962268114015
171	0x3f81c06d4c5f1551	0.008667806523485895
172	0x3f984d37dc44e486	0.023732064074668567
173	0x3faadf6b5872137e	0.05248580412538838
174	0x3f9123a0f4b8c749	0.01673747533477091
175	0xbf9678dd56cfd564	-0.02194543688161356
176	0x3fab6627f2cda01d	0.05351376379877613
177	0x3fac3b16fcebb091	0.05513831937227665
178	0x3faa7440ded86e9e	0.05166819305688118
179	0xbf57396d8e1ec187	-0.0014175004839494813
180	0x3f94c3fef45b91b3	0.020278915085229787
181	0xbf961881e685a82d	-0.021577863402321085
182	0x3f4bffa0f3214c46	0.0008544479262674396
183	0xbf9ebdf400000000	-0.030021488666534424
184	0xbf9f907714975efd	-0.030824528343003078
185	0x3fac27642f8aa917	0.054988032153533144
186	0xbf98c56480000000	-0.024190492928028107
187	0xbf9f97d8f1b75f79	-0.030852689507667706
188	0xbfa9f0aaa1fa5194	-0.05066426493900447
189	0x3f9180878fb843bb	0.017091863772353593
190	0x3f802ba1c5e322fc	0.00789572129396409
191	0x3fa1f7b4bce92f54	0.03509297185936924
192	0x3fa4338f2283003b	0.039455864870888445
193	0x3fac5a87a060546e	0.055378187491592054
194	0xbfaa9725e4b0316a	-0.05193441788296378
195	0xbfa5f0c16b44c2cc	-0.04285244402342911
196	0xbf622b8219675151	-0.0022180119515075388
197	0xbfa2fdf056187850	-0.03709364939662463
198	0x3fac4f715ec28fae	0.055293600861915024
199	0xbf89f1762acfa441	-0.012667582684985247
200	0xbfa49b295ed6343b	-0.04024628908801061
201	0xbf78b25549559e05	-0.006029446745152271
202	0xbfaaafe9ec4c3ff4	-0.052123365492775436
203	0xbfaf304f02806e37	-0.06091544061220271
204	0x3f9ac8781fc6859d	0.02615535444204441
205	0xbfab7a9d69998677	-0.05366985239085136
206	0xbfa617eecfbd37a3	-0.04315134321096472
207	0x3fa28fe1c0000000	0.03625398129224777
208	0x3f7fb23df934f73b	0.0077383442724661645
209	0xbf9b11a13c0442d0	-0.026434439933896325
210	0xbf8298ed8ffceebd	-0.00908074947039183
211	0x3fa42d9685caf69f	0.03941030867779926
212	0xbf85ebdf89865c44	-0.010703798660683835
213	0xbf7efdba1a963c28	-0.007566191642935961
214	0xbf9336f03f9907eb	-0.018764261132908116
215	0xbf5317cabd166a04	-0.0011653404111259267
216	0x3fa9e1ecb1530339	0.050551792760876464
217	0xbfac889fde11c961	-0.055729862077799515
218	0x3f8949252920744c	0.012346544568624072
219	0x3f9ccc3ebf5d420d	0.02812288325304917
220	0xbfa06da888938608	-0.0320866266936371
221	0xbfb010f2a6437261	-0.06275860366026499
222	0x3f90a433a1190319	0.016251379687903886
223	0xbfae3b609abac017	-0.05904676331317676
224	0x3fa64bf1d808371a	0.04354816209898456
225	0x3fa59a17e713f7c1	0.04219126411224706
226	0xbfa1c89089e0e444	-0.034733311491841806
227	0xbf90d0ba86a6e2b9	-0.01642123648500402
228	0x3fad63ec45582418	0.057402976479416334
229	0x3f98a20facbf50ea	0.024055714529667073
230	0x3fac5dad80a2cf3c	0.05540220446837771
231	0xbfa03e7839e663bd	-0.03172660548006643
232	0xbefb96087333d0a9	-2.6308123051558292e-05
233	0x3f882f1eb388bdec	0.0118086241282915
234	0x3faeb4fa379e2e6e	0.05997449807099718
235	0x3f801276594ba1ba	0.007847714042740307
236	0xbf96a3fee1f69d65	-0.022109968702037536
237	0xbf9d9bd1075471df	-0.028914705345515542
238	0xbfa9656000000000	-0.04960155487060547
239	0x3f80e95f27349f5c	0.008257621177633893
240	0xbfa8a99e51bc6634	-0.048169085958033625
241	0x3f8fbedd802972b4	0.015500765298548692
242	0xbfa083254d9ecc3e	-0.032250562405714764
243	0x3fad6281215d421b	0.057392154047765064
244	0x3f5e91716a25f918	0.0018657310070860408
245	0x3f70ff8aaaba2971	0.004149953525152448
246	0xbf712e16a9072411	-0.0041943440596208395
247	0x3fad7a25c0000000	0.057572536170482635
248	0x3f68da1bd4124c3b	0.0030336898349303787
249	0xbfac8342ea33f257	-0.05568894490167924
250	0x3fa07e944d352422	0.032215723442796454
251	0x3f7dc46b4b44c8a9	0.0072673979923811105
252	0xbf9f04e65af2cec6	-0.03029212885003465
253	0x3fa654418739d2cb	0.04361157203394369
254	0xbfa2bdaf93e80ff8	-0.03660343819140616
255	0xbfa1642439313091	-0.03396714399477319

layer1.bias f8 [256]
0	0x3fa567a5281942fb	0.04180637468801326
1	0x3fa97a5615fe31de	0.04976147669285401
2	0x3fa3a47d7e191405	0.03836433567315826
3	0xbf7e9007e7da603b	-0.00746157730250024
4	0xbf927681ec31be6a	-0.018030195275456164
5	0x3f8f34516fa144df	0.015236507624793947
6	0xbfaf4146e6146cee	-0.061044898591910854
7	0xbf972dd7ea1a8d1d	-0.022635816253239505
8	0x3fad75dc6a3a4e1a	0.05753983303761974
9	0xbf9bce22b745074c	-0.027153532443896553
10	0x3f888ea2c7e49cf7	0.011990806317568643
11	0x3fa0f90105fc869c	0.033149749737515694
12	0x3f94a9ac5f456b81	0.02017850238312802
13	0xbf7adb82ebbeb57a	-0.006556998643572393
14	0x3f8e44a8ba306448	0.0147793943233855
15	0xbfb025893884c2f2	-0.06307275419090866
16	0xbf9b9df0ff26c00b	-0.02696968610115395
17	0x3f9034087b53eec2	0.015823490645728418
18	0xbf83a7dbc67778a3	-0.009597508424971151
19	0xbf8860bfcbd3cd44	-0.011903284461800674
20	0xbfa8a4efc0000000	-0.04813336580991745
21	0x3f9144bb030500b8	0.01686374860696624
22	0x3fa1a39d0123e6a1	0.034451395405949777
23	0xbfa3cbbb00000000	-0.03866371512413025
24	0xbfa80df07703b998	-0.04698134854139652
25	0x3fb24ed36b12377a	0.07151528705636948
26	0xbf80796fe9a73f45	-0.008044122999222867
27	0xbf6fd88c00000000	-0.0038874372839927673
28	0x3fa0d85bbb684415	0.032900683047167124
29	0xbfa87a6800000000	-0.04780888557434082
30	0xbfa2cab22b2e7eb9	-0.03670269753569983
31	0xbfa5abe2d1a10ee6	-0.04232701119374642
32	0x3f40b02fb1dbf74a	0.0005092842945655176
33	0x3f9a363fe32c0aaa	0.025597570648651903
34	0xbfa7d04f50a468d1	-0.04651115283395913
35	0xbfab73cf1fa175c8	-0.053617928134126525
36	0xbf9ba673015bc68d	-0.027002140958706056
37	0x3f8145408ed7b71b	0.008432869300090176
38	0xbfa8e812416492a5	-0.048645563585784125
39	0xbf92fb8a8cc50d6b	-0.018537678567793685
40	0xbfa0d18c6d68f3e0	-0.03284872851916254
41	0xbfaec6795313341d	-0.060107985869400894
42	0x3f8ca480abb1112e	0.013985638846982864
43	0x3fad51d4944f9fc3	0.057264941315053906
44	0xbf5b1f2885d03dc1	-0.0016553779344156002
45	0xbfa9721d2e0b3c6b	-0.04969874560412609
46	0xbfa455beb96b33d3	-0.039716682561994475
47	0x3faa5cdd8da044e0	0.05148975709756498
48	0x3fabb91daf6a5a99	0.054146697676675966
49	0xbfaeba9940000000	-0.060017384588718414
50	0x3f9127d000000000	0.016753435134887695
51	0x3f32378c076870c8	0.0002779690616152683
52	0xbfa44b56e47eb2a1	-0.03963729418987794
53	0x3f938bf0d478212b	0.019088519065946812
54	0xbfa19086c0000000	-0.03430577367544174
55	0x3fa9cb5bd3d4328c	0.05037962876131016
56	0x3f9c3d5280000000	0.027577675879001617
57	0xbf72e50c1abef519	-0.004612967761145081
58	0x3fabbc3c66520f96	0.05417050122289806
59	0xbfa18456329362a3	-0.03421277396563951
60	0xbf84ee5f7b3d9d73	-0.010220285366542048
61	0xbf930e3d00000000	-0.018609002232551575
62	0x3f9555066b41a5a6	0.02083215741769142
63	0xbfa4a917d5b44599	-0.04035257800763787
64	0x3f66a194efc1fd6c	0.0027625950734201845
65	0xbf913024942822c8	-0.016785213034412633
66	0xbfa9ea6770e27be4	-0.05061648610102745
67	0x3f970835ce1d10f7	0.022492256837055326
68	0xbfa220f9fea70442	-0.03540784104871665
69	0xbfaf28b32d2db1bf	-0.06085739065642625
70	0xbf8053e03cd66799	-0.007972480637181966
71	0x3fa50094fa1dba51	0.04102006486106247
72	0x3f9f8aa98af358da	0.030802392106885935
73	0xbfa728104b75ac4c	-0.04522753640306884
74	0x3f801f0b3987fd08	0.007871711438382181
75	0x3f9c39c281ad9406	0.027564086117667606
76	0x3fae849d0eddc87d	0.05960551077340968
77	0x3fa80fbec5af5a85	0.04699512637278239
78	0xbfabb6116f0d1b1f	-0.054123444372228706
79	0xbf9a0d65a90bee8b	-0.025441730921541377
80	0xbf7a6cb4d0702019	-0.006451326661597556
81	0x3faad3e0d61d3928	0.05239775289247667
82	0x3f7913265ba1bce6	0.00612177833146108
83	0x3fa73a2f50ad4f9f	0.045365789984003195
84	0xbfaa2fd4c0000000	-0.05114617198705673
85	0x3f9fea02f30629db	0.031166120608341657
86	0x3f9512a88d81851c	0.020578988682591434
87	0xbf7b650200000000	-0.006688125431537628
88	0x3fa673bcf9244e6b	0.043851762211627975
89	0x3fa578668744b28b	0.04193420792794197
90	0xbfa18221e684ca7d	-0.034195956601611656
91	0xbf96d82a9668227f	-0.02230898421297178
92	0xbf893839bcdc1894	-0.01231427295307367
93	0xbf81e5ab887b580c	-0.00873884210833966
94	0xbf98643da7e62794	-0.023819888470405795
95	0x3f79ed61e3260ca0	0.006329901096594842
96	0xbf92258c80000000	-0.01772136241197586
97	0x3fad244e64188d36	0.0569176194369682
98	0x3fa3043ee0a6f238	0.037141766475063454
99	0x3f93a00180000000	0.01916506141424179
100	0xbf6f993c0d5fcc28	-0.0038572476287242093
101	0xbf83d10200000000	-0.009675994515419006
102	0xbfab8e7cad6b180a	-0.05382146469996492
103	0x3fa4efbbf0909204	0.04089152633267548
104	0xbfae5beae2610a2e	-0.05929502499977378
105	0x3faa1442b37917c1	0.05093582573731182
106	0x3f946b9bbc93569a	0.01994174326394802
107	0xbfa607a90441acbb	-0.04302719284972897
108	0xbfa51c51d55c69bc	-0.04123168687347653
109	0xbf99c63200000000	-0.025170117616653442
110	0xbf90fbead2da3b5c	-0.01658598815862021
111	0x3f774f47d2a4e021	0.00569084220688157
112	0x3fa416a843a55180	0.03923536134485328
113	0xbfa2bd4eb27a8283	-0.03660055092519079
114	0xbf9563e01df9ed86	-0.020888807134253472
115	0x3f9437e780e43843	0.01974450802031692
116	0x3fa3d0c62f1bf4b9	0.03870219540656578
117	0x3fa3318000000000	0.037487030029296875
118	0x3fb009310c618485	0.06264025261181601
119	0xbfb08095a81527c5	-0.06446204522686035
120	0xbf9729146bd37646	-0.022617644387415113
121	0x3f7ef58800000000	0.007558375597000122
122	0x3fa295a0f903dc3c	0.03629782714590887
123	0xbf406e70362c2069	-0.0005014465244537306
124	0x3fa1a8edaece0397	0.03449194678160621
125	0x3f9f088caefa951b	0.03030605142580099
126	0xbf90e250bc8dd743	-0.01648832465021789
127	0xbfa32ade5088e5ef	-0.0374364350613624
128	0xbf95eadeedffcb54	-0.0214037735713178
129	0x3f885b1600000000	0.01189248263835907
130	0xbf45e3a7def8784d	-0.0006680078203691403
131	0x3f9ff06d4a76d4a9	0.03119059340470601
132	0xbfab7f4123ba6567	-0.05370524941572335
133	0x3f9a39267b9c22cb	0.02560863618330948
134	0x3fadd47525570f7c	0.05826154785930179
135	0x3f77dc3aad2e4c46	0.005825261311559754
136	0x3fa7dfbc45c10281	0.04662884093750553
137	0x3f9ac0b4e2e89a79	0.02612574229183415
138	0xbf90e5c9b333b12b	-0.016501571238152806
139	0x3f8d18877e142abc	0.014206942114943437
140	0xbfb17122f36e99e5	-0.06813257640042243
141	0xbf935cdb1ce17f8c	-0.01890890468382582
142	0xbf9917876d0f8110	-0.02450381854203082
143	0xbfa37cc59d400bc3	-0.038061309285715626
144	0xbfabb1fdbc34c6b4	-0.05409233972967567
145	0xbfacecae56eb7794	-0.05649323283226618
146	0xbf98a83fd9a28a34	-0.024079320581799915
147	0xbf7497aa49ad46dd	-0.00502745169326754
148	0xbfae83a4c0000000	-0.05959811061620712
149	0x3fa4ffc8f411ba9e	0.04101398448334702
150	0xbf802b8abf6fd4f5	-0.007895549742878741
151	0x3f633b0f42a45304	0.0023474977543948023
152	0x3fa2f38e9d852d95	0.0370144431386407
153	0xbf906599936408a4	-0.01601257288076198
154	0xbf9583bbb1219f68	-0.02101033466934102
155	0x3f9782c958d93369	0.022959848449591123
156	0xbfab9137deb7d7d1	-0.05384230226256615
157	0x3fad10efa8ba18d4	0.05676983770995184
158	0xbf84d5527804f545	-0.010172504699421334
159	0xbf8f2fcf97600861	-0.015227910811521807
160	0xbf96f55fdc14ea79	-0.02242040425083267
161	0x3f906da3e0c33de9	0.01604324397413662
162	0xbfa51e49613833dd	-0.041246693723316
163	0x3f82c4e500000000	0.009164609014987946
164	0xbf8379c642b2e29a	-0.009509610090718202
165	0x3fa1e742c0000000	0.03496750444173813
166	0x3fabbdc918c644eb	0.0541823237173363
167	0x3fa75b402e4def9e	0.04561806264152256
168	0xbf867b72da7ba2cf	-0.010977647106714809
169	0x3f9454d35fa393e2	0.019854834282245444
170	0x3fa709b4cbaa349e	0.04499592767852188
171	0x3fb410bd24ca9631	0.07838041446901724
172	0x3fa62c091a78a443	0.043304714661936326
173	0x3fad30b270595d09	0.05701215383003883
174	0x3fa47fa457d336eb	0.040036330910522576
175	0xbfb04690ece72a90	-0.06357675346149905
176	0xbfa579a1efff859e	-0.04194360785164551
177	0xbfa59ff29ab6a999	-0.04223592890351142
178	0x3fa2d0c299c4e368	0.03674896361412189
179	0xbf53a002f2ab6377	-0.0011978176868778481
180	0xbf9b6a2e83436e33	-0.02677223850410666
181	0xbf94e459bd3e7ee8	-0.02040233819536655
182	0x3f96cef76cb22607	0.0222738895504673
183	0xbfa111fc00000000	-0.03334033489227295
184	0xbfad399b80000000	-0.05708013474941254
185	0xbfafb9d7bc707c41	-0.06196474242482753
186	0xbfa3876e8a30d7f9	-0.038142637604707326
187	0x3f8bd088ede23dd1	0.013581342467914677
188	0xbfa8f9447d0d8b87	-0.04877676035427841
189	0xbfa0ae68c87c3ce8	-0.03258063742952705
190	0xbfadb330770f700d	-0.05800773099301191
191	0xbfac1cf5c0000000	-0.054908446967601776
192	0xbf67c52b3f56a6c7	-0.0029016346622555453
193	0x3fa76aba1d61a71a	0.04573613747272827
194	0xbf93644d07ce5d74	-0.018937305070350033
195	0xbfafb8e2329bd6af	-0.061957424810242905
196	0xbf9bb5f4a7272074	-0.027061293317985194
197	0xbf99494af76f93cc	-0.024693652488980963
198	0x3f9ef545e1622be2	0.030232517129245802
199	0x3f67635c7f692576	0.002854996356550894
200	0x3f7a38508b82d257	0.006401362065095193
201	0xbf97232b1298e4c2	-0.022595093736730083
202	0xbf91baca3c83d73b	-0.017314109748404177
203	0xbfa71fb73b4e3cd8	-0.04516384695954806
204	0xbfa367f05cc687e1	-0.03790236599458275
205	0xbf96ea4ea1c465b9	-0.022378185866818365
206	0xbf8bed18479ef587	-0.013635816274354408
207	0x3f972bd2a90f9520	0.022628108566910332
208	0x3f7d9393d181705c	0.007220818915893625
209	0x3f82dbc89d8427c9	0.009208266551031035
210	0xbfa3c0e11951beb7	-0.03858092722009359
211	0x3fa6ddf6eff9d6ad	0.04466220549958897
212	0x3f950b2200000000	0.020550280809402466
213	0xbfae8809fee8e60f	-0.059631645552553285
214	0xbf3e321585fb1e02	-0.0004607489154122292
215	0x3f9e3a4d6bae0138	0.029519281098601996
216	0x3f9ceae7719cc8dc	0.028239837941506404
217	0xbfafd332b4796e05	-0.06215818837219093
218	0x3fa924a7c3f930a0	0.04910778300526997
219	0xbf4bdba0dc7a9311	-0.0008501563506412032
220	0xbfa043efec4853d8	-0.031768319695551106
221	0xbfac5f70ce5836a0	-0.05541565436224727
222	0xbfa2ea17339feb41	-0.036942219783631554
223	0xbfb14a00ea0d4c57	-0.06753545488509026
224	0xbfaf844a2037e757	-0.061556164200694034
225	0x3f9fcb320372601e	0.03104856630361052
226	0x3efb590eeedd66cf	2.6080974684239776e-05
227	0xbf712c180f1ab78c	-0.004192441921686451
228	0x3fb0e1c9c4590fa0	0.06594525378846905
229	0xbfae1e729a1fd6a9	-0.05882604724312774
230	0xbfab189dfd325561	-0.05292218890933032
231	0xbfa4a609c0000000	-0.04032927006483078
232	0x3fa9c9c1f64011b1	0.0503674138163065
233	0xbfa8d8ce6df4b687	-0.04852910129771453
234	0xbf974aa053d31edd	-0.02274561416268638
235	0xbf91996e286638c2	-0.01718685266092091
236	0xbfa4aae3b87f3669	-0.04036628367576329
237	0x3f647bc693ea9acc	0.0025004271004321673
238	0x3fa13eee40000000	0.03368324786424637
239	0x3fa881cf6e0802c2	0.04786537378459378
240	0x3f97d0e0444424fd	0.023257736364972626
241	0xbf74b5711da01fe8	-0.005055848940180831
242	0x3fa05bbb7c57ccf4	0.031949862412057245
243	0xbfae949c04d00e79	-0.059727550113191925
244	0x3f836f0b9a60e047	0.00948914589763218
245	0x3fadc11180000000	0.058113619685173035
246	0x3f98418173a36158	0.023687384303089004
247	0xbfa5fa29c6a9be94	-0.042924218655454954
248	0x3faba1f036c0d841	0.05396986645102731
249	0x3fab66b6c0000000	0.05351801961660385
250	0x3f89d5be1b428a1a	0.012614712912470561
251	0x3fa834f947522c7d	0.047279157596755696
252	0xbfad55bd37550ae8	-0.05729476261560312
253	0x3fa902ac1e84283b	0.04884851334107095
254	0xbf9d2b741c1efef0	-0.028486074653982507
255	0xbf984a66f07fb2a0	-0.02372132151497175
