python/snapshots/snapshot2400.pt (torch_old, 584819 bytes, 6 tensors)

layer0.weight f8 [256, 18]
-0.1738804273482126 0.004831684917243765 -0.1820085216245226 -0.20874398501086106 0.08800733635377678 0.16804260916181882 0.08737934536405897 0.052791481145268396
-0.21308256939488915 0.14225026914593444 0.014458157042186495 0.06098382725363441 -0.1934950645633069 0.1267584354347833 0.025751043471931676 -0.10151065102365783
0.04194157665713186 -0.13272889928298448 0.036226637663943045 0.05077624004070296 -0.042492845418549176 -0.2409031488185717 -0.0024811068407684287 0.20072540953619178
-0.04490766390498135 -0.20159804450212557 0.17271229186306275 0.03751299462556264 -0.1813649228545047 0.0279376942430417 -0.15403945356220838 0.036405360785370385
-0.19693208279252655 -0.1535012566735477 -0.0291918774979152 0.14987857852077438 -0.07918822765350342 -0.022874057292938232 -0.2217698097229004 0.000588729977607727
-0.1349284052848816 -0.18963007628917694 -0.14983291923999786 -0.16047243773937225 -0.13818024098873138 -0.14981763064861298 0.2287856489419937 -0.0805562287569046
0.06252141296863556 0.05805830657482147 0.023798123002052307 -0.06146423518657684 0.12404556572437286 -0.2153971791267395 0.08432049749043803 0.1590680568462138
-0.18965924474535933 0.03612567378877364 0.0015545853214594322 0.19668825392699602 0.12581835404060399 0.17701475952222182 -0.022216664565885835 0.23128648971304214
-0.14262028489388584 0.08212465461623332 -0.20768428579425094 -0.12920177047662718 0.05435801492591303 0.0595917272798698 0.01146713826271677 -0.016295692669318296
0.11653660439584622 -0.01490634975607387 -0.1787899287145775 0.20502267472844346 0.16334611031306243 0.06075991544360325 0.10941551160174662 -0.13502170061174282
0.17068448945576908 0.10887364278225375 -0.09235435626570528 0.15914677458204501 0.05256599127305303 0.16278700459983722 0.15121114180990824 -0.21406913876882305
-0.11079244662193209 0.03668783549962282 0.12607358697253732 0.21584981001038273 -0.029464153033422605 -0.21629149488767385 -0.11138532319018714 0.06457138818230602
-0.23501437378537032 -0.11649070949169078 0.10109628275823504 -0.1962155681643524 0.19398485828045245 -0.11262562148193948 0.026548734209184105 -0.1398558526904178
-0.10424056185335098 -0.08891410142644947 0.12285927435837603 0.057387475771682246 0.10461660090726742 0.23267120535802058 -0.021822305882311658 -0.161352936408551
0.10964593043800198 0.08492553532451846 -0.037142039539473155 -0.1954034253142792 0.2283160133016568 -0.16175360093069935 0.11345602532959882 0.06985096931029192
-0.02724166046460029 -0.007352365108412445 0.1908863868914556 0.17275263143378944 0.01717126605590822 -0.17059306198525162 -0.1975362013391266 -0.15018059697043482
-0.06586525836733621 -0.06559141247082488 -0.04280089505005182 0.12820502331797337 0.02032629206817178 0.039106762857488785 0.15916696975153755 -0.00030853491489852045
0.21729556192078042 0.0829300786371165 -0.025420760934449217 0.1396403678667905 -0.06349812782939529 0.19478878037545733 -0.22205192854637587 0.13892872313971466
0.02067744542266881 0.08721078350543043 -0.21418365447643514 -0.06679984623019239 0.18971044788841893 0.017240121367203973 -0.18076112223502086 -0.060676049881934875
-0.14743500788065847 0.05966151110474731 0.18510602525710534 -0.04381292326107403 -0.13683287510474398 0.19667513401156295 -0.1935431074734921 0.09160602934247974
0.1509499568547866 -0.2297267754059543 0.14846583836437163 0.2008641973292482 -0.22487736270136563 0.2049669836806842 0.05418384867238014 -0.09677056991573442
0.21715643897260065 -0.13880780758112504 0.01306522407951541 0.11260286482448376 -0.21110804927837615 0.004862890528645519 -0.20706813337863605 0.13256839617636082
-0.06998842406384523 0.018335189296094682 0.06824284398662223 0.05613946578895369 -0.11559458822011948 -0.1348377764225006 -0.209225133061409 -0.0099363774061203
-0.08641351759433746 -0.029776915907859802 0.16516448557376862 0.03856836259365082 0.034766778349876404 0.01451091468334198 0.09025655686855316 0.00856761634349823
-0.0813845843076706 0.14376981556415558 -0.22038286924362183 0.019124522805213928 0.004183158278465271 -0.22238144278526306 -0.14913446122626275 0.045261795395777044
-0.027730195942507533 -0.1122202449275541 0.21465700285730854 0.18686629487947326 0.22933904838960983 -0.049697106253886195 -0.1467916365575054 -0.056956519792838715
-0.13357416287591453 0.18723957829584129 -0.11337335256671234 -0.08549543885002306 0.01758146552731057 0.0055233169568726665 0.08805788441158718 -0.12026585244103118
-0.0948904523621061 0.02831954530048978 0.10859122281942087 0.01902017809571064 -0.14175614429474262 -0.1584332718590214 0.18995121796494246 0.12366933983791828
-0.07621542812485547 -0.04917060534248392 0.022275955827076255 0.0927287846732822 -0.23053250643333814 -0.0522260580318163 0.19573818094094567 -0.130697714415974
0.05997578539289911 0.053708263703754096 -0.15924444794654846 -0.14456278085708618 -0.0036648064851760864 -0.012021496891975403 -0.13206630945205688 0.033129796385765076
0.06773839890956879 0.14340351521968842 -0.16833049058914185 -0.08099564909934998 0.12694518268108368 -0.09682577848434448 -0.12851500511169434 -0.01335608959197998
-0.11831232905387878 -0.21898207068443298 0.06426660716533661 -0.18094302713871002 -0.07728826495408807 0.06947820775207922 -0.12354360428216006 0.14845600730815836
00000000: 8702 70be b641 c6bf aa26 448b 63ca 733f
00000010: b73d fc23 0e4c c7bf d2de 6d76 1fb8 cabf
00000020: 3092 7217 a687 b63f 699e 5793 6b82 c53f
00000030: de3c af26 7e5e b63f ea7a 0d2a 7c07 ab3f
00000040: 9508 7325 4a46 cbbf 391c eabe 4135 c23f
00000050: 9bc3 40fd 3c9c 8d3f d44e 47af 4539 af3f
00000060: d84f 1e3f 72c4 c8bf 699e 57d3 9e39 c03f
00000070: 3c04 3346 7b5e 9a3f 9e9f 571e 9afc b9bf
00000080: c48c 2bc8 5d79 a53f 88c6 d3b4 42fd c0bf
00000090: 7c77 0540 4c8c a23f 17ff c6e4 57ff a93f
000000a0: 45f7 c54a 9fc1 a5bf 95ef d614 ead5 cebf
000000b0: 2bbe a517 4253 64bf 3c92 b7c6 5eb1 c93f
000000c0: 2f91 9f27 23fe a6bf cb7e 09f8 f6cd c9bf
000000d0: cea3 95b6 6f1b c63f 6a02 2f3a e734 a33f
000000e0: d19c 263e f736 c7bf 5de6 65ec b29b 9c3f
000000f0: 64f4 ab97 90b7 c3bf 51ca f133 b9a3 a23f
00000100: b243 900b 1235 c9bf a265 a7de eda5 c3bf
00000110: 0448 a6bc 79e4 9dbf 9910 8fa4 382f c33f
00000120: 0000 0000 ae45 b4bf 0000 0000 4c6c 97bf
00000130: 0000 0000 f462 ccbf 0000 0000 a04a 433f
00000140: 0000 0080 5545 c1bf 0000 0060 cc45 c8bf
00000150: 0000 00a0 b92d c3bf 0000 0060 5c8a c4bf
00000160: 0000 00e0 e3af c1bf 0000 0060 392d c3bf
00000170: 0000 0020 d948 cd3f 0000 0040 559f b4bf
00000180: 0000 0040 6701 b03f 0000 0080 d1b9 ad3f
00000190: 0000 0000 895e 983f 0000 0080 3d78 afbf
000001a0: 0000 0040 73c1 bf3f 0000 0080 2292 cbbf
000001b0: f997 1a33 0796 b53f ab12 ff92 575c c43f
000001c0: 505e c80e c146 c8bf a2ff ef76 107f a23f
000001d0: 5e21 5447 6778 593f 66d8 0fa9 142d c93f
000001e0: 0aa4 ebd9 d01a c03f e153 876d 6ba8 c63f
000001f0: b05c f21e f7bf 96bf f57d a9b2 cb9a cd3f
00000200: d2c6 aea9 6141 c2bf f1a2 c511 1f06 b53f
00000210: 0191 b00f 6695 cabf 1426 6401 af89 c0bf
00000220: b9b9 c350 d0d4 ab3f 3bf2 8e8f ce82 ae3f
00000230: 9a60 893e 157c 873f 8051 526c d1af 90bf
00000240: bfc3 aac8 57d5 bd3f 48fe a365 3887 8ebf
00000250: c675 57a0 96e2 c6bf 83d4 72d9 2e3e ca3f
00000260: bf98 dc7c 86e8 c43f 4edb 7973 ec1b af3f
00000270: 242e 01ac a702 bc3f bd59 301e 6448 c1bf
00000280: 68d0 1246 fdd8 c53f 286b 259f 24df bb3f
00000290: 05e9 cdfb 88a4 b7bf 9200 0ce8 eb5e c43f
000002a0: 4c96 ccfa ede9 aa3f 512c 7c5e 34d6 c43f
000002b0: d0a3 6efe e25a c33f 5428 0c17 9e66 cbbf
000002c0: ef90 e2ce e45c bcbf 6c89 437b bfc8 a23f
000002d0: e7dd 77e6 2d23 c03f 00d4 6b71 f7a0 cb3f
000002e0: 5447 bbd6 d92b 9ebf 7c06 7990 70af cbbf
000002f0: d132 5ba0 bf83 bcbf 5115 8020 c087 b03f
00000300: 42c1 bf74 f314 cebf 75fd 8dcb 55d2 bdbf
00000310: 1a9c 312c 72e1 b93f 9db0 1d7c 971d c9bf
00000320: 21eb 1def 7ed4 c83f 13e4 f460 08d5 bcbf
00000330: f8ed b664 972f 9b3f 25d2 baec cbe6 c1bf
00000340: aaa9 136c 82af babf c5a2 c715 13c3 b6bf
00000350: fd27 6195 b473 bf3f 315b 4727 e461 ad3f
00000360: 17f1 834f 27c8 ba3f 8de6 dd88 2bc8 cd3f
00000370: f1f1 5928 9658 96bf 6d80 7e88 36a7 c4bf
00000380: d1e6 5e75 c111 bc3f d468 d00c aebd b53f
00000390: f1ee 410a 4804 a3bf 9327 a0bc fa02 c9bf
000003a0: d650 2489 7539 cd3f acf8 008d 57b4 c4bf
000003b0: 6d24 533e 740b bd3f 2a17 c8cc c0e1 b13f
000003c0: dc03 23e3 3ce5 9bbf 20aa 057b 831d 7ebf
000003d0: dea6 7912 f76e c83f 362d 271b c21c c63f
000003e0: fa6c 9028 5895 913f 1959 1353 fed5 c5bf
000003f0: 0f89 43c2 dd48 c9bf c7aa 3d28 1e39 c3bf
00000400: 4d5b a1aa 8bdc b0bf 77ec 754b 99ca b0bf
00000410: 2381 f5b8 ffe9 a5bf d5b3 2aaf 0569 c03f
00000420: 931a ba5e 6ad0 943f 9bf9 0c37 cd05 a43f
00000430: dcd7 d750 955f c43f 3b7c 815e 5b38 34bf
00000440: 4a02 024a 57d0 cb3f 3de3 99d7 e73a b53f
00000450: fd5c 6963 e607 9abf 253a 984e bcdf c13f
00000460: 4c6d 62ce 6941 b0bf 788f abb8 d6ee c83f
00000470: b369 8f95 326c ccbf 2e18 2e99 6ac8 c13f
00000480: 41b6 6bdf 772c 953f 18ad 0327 7253 b63f
00000490: e332 a8b7 5e6a cbbf cebe ef72 cb19 b1bf
000004a0: 6bf4 b194 6e48 c83f 7c0a cef5 64a7 913f
000004b0: 459f 3132 2e23 c7bf 7168 c963 ee10 afbf
000004c0: dd03 917c 26df c2bf 96b6 0c1e f48b ae3f
000004d0: eaca 62e2 8db1 c73f 24d1 18c1 a56e a6bf
000004e0: f5d7 cb59 bd83 c1bf ea0e 429a a62c c93f
000004f0: 9780 7b42 05c6 c8bf 2872 2424 7e73 b73f
00000500: cb0f 0304 5452 c33f 8b2a b1dd af67 cdbf
00000510: c391 2cb8 ed00 c33f 60b3 3b03 ebb5 c93f
00000520: 51e0 340b c8c8 ccbf ff8a d5ad 5b3c ca3f
00000530: d1df 0944 fcbd ab3f 41dc 00c1 f4c5 b8bf
00000540: e166 c03d c8cb cb3f 32c5 fe48 74c4 c1bf
00000550: d168 17b1 f0c1 8a3f b668 db95 8ad3 bc3f
00000560: 7957 c9ab 9605 cbbf 798f 8d3c 1ceb 733f
00000570: 4cd7 7366 3581 cabf 17c3 074f 00f8 c03f
00000580: 5aea 73e8 c2ea b1bf e11e 92b9 75c6 923f
00000590: 6ccb 1bef 5c78 b13f d12c 28e3 4fbe ac3f
000005a0: 0000 0060 9b97 bdbf 0000 0040 5d42 c1bf
000005b0: 0000 00a0 e3c7 cabf 0000 0000 8659 84bf
000005c0: 0000 0040 321f b6bf 0000 0000 d77d 9ebf
000005d0: 0000 0020 1c24 c53f 0000 0080 3bbf a33f
000005e0: 0000 0080 f3cc a13f 0000 0000 e6b7 8d3f
000005f0: 0000 00c0 0d1b b73f 0000 0000 e68b 813f
00000600: 0000 00c0 9ed5 b4bf 0000 00a0 0c67 c23f
00000610: 0000 0080 8135 ccbf 0000 0000 6195 933f
00000620: 0000 0000 5c22 713f 0000 00c0 fe76 ccbf
00000630: 4531 d688 d616 c3bf a459 f7d5 8d2c a73f
00000640: f12c bdf2 4d65 9cbf 67b7 e949 77ba bcbf
00000650: 1294 9073 e179 cb3f 28b3 9d18 3ceb c73f
00000660: b8ba 4360 fb5a cd3f 3aef 212c e671 a9bf
00000670: 759f 2b7f 11ca c2bf 97c2 9bab 6729 adbf
00000680: b541 924a f518 c1bf 7d13 a66c 77f7 c73f
00000690: 590c 8339 0906 bdbf 8e69 d171 07e3 b5bf
000006a0: c77b d22d e000 923f e294 1f1b 9e9f 763f
000006b0: 24e5 b325 f68a b63f 714e 0f2f bec9 bebf
000006c0: 6d0f 999d bd4a b8bf eade 9c83 ccff 9c3f
000006d0: 255e a466 a2cc bb3f ba6a 8a8b 067a 933f
000006e0: 8961 e0b9 1025 c2bf 8acb 9d9c 8a47 c4bf
000006f0: 7655 7f4e 5250 c83f 402c 1f3a cba8 bf3f
00000700: 5f34 3fb3 da82 b3bf 0ab1 bdbb e32c a9bf
00000710: 90c7 0e17 82cf 963f 8bcf 91d9 12bd b73f
00000720: 81e6 e5d3 1682 cdbf b9c5 7db6 5fbd aabf
00000730: 6d25 dcde f20d c93f 200e 8ae4 b3ba c0bf
00000740: 29fb a069 25b5 ae3f e9df 4348 a67f ab3f
00000750: 0000 0040 1f62 c4bf 0000 0080 0881 c2bf
00000760: 0000 0000 a805 6ebf 0000 0000 ba9e 88bf
00000770: 0000 0080 8ce7 c0bf 0000 0080 63f6 a03f
00000780: 0000 00c0 4d57 b13f 0000 00e0 0b5b c23f
00000790: 0000 0080 da8b c5bf 0000 0080 21bc b4bf
000007a0: 0000 0060 bd3f c03f 0000 0000 93c9 b8bf
000007b0: 0000 0000 2e73 c0bf 0000 0000 705a 8bbf
000007c0: 0000 0080 b749 bebf 0000 00c0 9a07 ccbf
000007d0: 0000 00c0 c673 b03f 0000 0020 2429 c7bf
000007e0: f3a6 57ea 29c9 b3bf 9e72 14e6 52c9 b13f
000007f0: 8197 05bc 8da0 bfbf 6d42 2440 9b00 c33f

layer0.bias f8 [256]
0.11373765177198744 -0.02374181593567959 0.048390910029411316 0.1629496691178305 -0.003855808213471746 0.001562994519762309 0.04552136243615856 -0.1666346658556919
-0.0018739123234554728 -0.10429351220062459 0.04832784831523895 0.0745297023636945 -0.0666904573129496 0.10197098553180695 -0.00945953354156398 -0.1582182573722949
-0.17186084675515595 0.16291105725321303 0.053626264248724964 -0.017057710817705497 -0.08041925835434581 -0.18027112029109324 0.01211996357283511 0.16840703116092884
-0.08210960153042934 -0.03534920489757497 -0.16808980959695471 -0.11218139505406327 0.1430153762674543 0.05592249584097278 -0.18033992242973954 0.14819309319565313
-0.22551823784268155 -0.20357851723135456 -0.06905777519713786 0.1819582357248913 0.2220777942873861 0.2153726718596467 0.1755739242371965 -0.16807490506282954
0.2325094670677571 -0.07342013450164958 -0.16528173121426046 0.014972765040816087 0.09179094367867867 -0.1089059059931846 0.21646056069307174 0.2252913271008221
-0.2113589046363605 0.0667157918214798 0.17076946491788228 0.2030271587326913 -0.03221577799970998 -0.20409299878953843 0.047280940904368234 0.036959736386686134
-0.0876470098033228 -0.1752190851260186 -0.046148144715679976 0.14036585298411172 0.18859096661397626 -0.019542695500935035 -0.06189696936038212 -0.22110123932361603
0.15908516152536642 0.2334712588455536 0.21381763441588175 0.20345202184486827 -0.025442932529969133 0.20737612370981232 0.12746513599628928 0.13471509361270337
0.001355153642297829 0.20611122760830528 -0.008330972356102908 0.1053041378098477 -0.15346159345837868 -0.06615208463227157 -0.08819032784489521 -0.22689342375777383
-0.16592187545454082 -0.14716069497841477 -0.19046379689637355 -0.06852938010040083 0.16896800087223518 0.23532511471306125 -0.23068671641233796 -0.15771116746097688
-0.06924645906896143 0.14563550776454773 -0.10928967967473652 -0.1487879398027523 0.18488742817539097 -0.09207280776062957 -0.04148830372577223 -0.1613285764511328
-0.16984002096566858 0.16879571700480298 0.22007255543003357 -0.03940665419816155 -0.07819800365638194 0.15977182040319432 0.21219307936182513 0.12223601345536973
-0.22467065825268132 0.16394644798186137 -0.21867920458316803 0.10296745948827178 -0.17511805926775006 -0.07028074588074082 -0.09117434355692688 -0.018861648860130066
0.1697430908335948 0.1378814321671655 0.228984431586137 0.08663206768052242 -0.06514779368252108 -0.06985402846858717 0.16493585390641807 -0.18207829190385433
-0.10600921394965779 0.1587465424368455 0.22603468596935272 -0.04011572063438414 -0.1946308460445444 0.23643256637136703 0.10096607060729285 -0.13846559052832857
0.06863848865032196 0.17593811782293584 -0.06682760376265999 0.012460706256236413 0.2126635776086211 -0.043359383940696716 -0.19210544228553772 -0.14373378551547758
0.11123997476535155 -0.11020313758756456 0.0801203702986564 0.14644374561483897 -0.12771612416975225 -0.12190248237197421 0.034962216804259455 -0.06807439769470595
-0.22872881662210845 -0.0666696850225673 -0.003709571075334545 -0.21508717854273302 0.23899338339939613 -0.12216786834768795 0.03248618373099591 -0.05582859335257625
-0.24587580136652312 0.10783425589449697 0.22433338282112264 0.0433074581328256 0.1742354794645894 -0.17115944623947144 0.1562906066258271 -0.22962487775259266
0.2036628657937062 -0.12903866441969047 0.13450855958420915 0.07110937728503805 0.13729931076094984 0.14312967943082824 -0.09721775860313635 0.07279498647223809
0.23468568849758562 0.07061916807892044 -0.034127756718632524 -0.15779754219463987 0.13572843943197918 0.1152856737282322 -0.04066004981118896 0.1663906896768147
0.045370019823994225 -0.09575438835469917 0.015191216726771262 -0.06765319195481485 0.06540932543457245 0.19241604252219374 0.19229962616933102 -0.15623115003108978
-0.2275093971014676 0.03786459785472221 -0.13841426372528076 -0.028580150175178926 -0.1951537093015738 0.179837716097781 -0.1081967075073346 -0.08981535634522733
0.07714721218846382 -0.0086039019731981 -0.1612475483378895 -0.04904968268034374 0.008190541628369038 -0.10883297054365518 -0.1909875194068073 0.013225800868513845
-0.1630161083344515 -0.15115459205460244 0.019118127857026348 0.10236707511845 0.08088727797011477 -0.10823026757766717 0.14180844346098775 0.025059953331947327
0.19024244791531902 0.19196504604551665 -0.17021789657841796 0.12940667767039807 0.14036501901919488 -0.047445109745850915 -0.0024832621315905383 -0.11163200342990287
0.09701606880944953 0.13967868525298996 0.23758152710843886 -0.06926212545940694 -0.07535892283476986 0.09365291587190594 -0.189003178040842 -0.16952890279542657
-0.0014705442896461828 0.010792614936302184 0.08080580382631096 -0.15253899186108336 -0.023007155794809844 0.08786293519232881 -0.019360175507459138 0.19910403770609464
0.20503277869012215 -0.07402915835158701 -0.07242783264562204 -0.045571693112587526 0.16580305193460226 -0.13229018928054756 -0.22725988924503326 0.03739535356471555
-0.23096464851302237 0.21435209662200455 0.2343368871959803 -0.0733656660766493 -0.07613298458764682 -0.040283382838866844 -0.11810672156725992 -0.21780039370059967
0.0166239070833015 -0.1875410172946173 0.03152965758535883 0.18216956805389883 0.072777657466461 0.09433533685406702 -0.04233262923072114 0.030075303290189724
00000000: de3c af26 e91d bd3f 6030 f74b c64f 98bf
00000010: 0000 0080 b1c6 a83f 38a7 e0e5 88db c43f
00000020: e8f6 a545 3796 6fbf a63e 2896 ac9b 593f
00000030: 2086 dd75 934e a73f 6973 1de4 4854 c5bf
00000040: 319c 4409 c2b3 5ebf 532f 16c8 fab2 babf
00000050: 0000 0080 6dbe a83f 0891 3bea 6014 b33f
00000060: 7d49 1d35 a012 b1bf 0000 0040 c51a ba3f
00000070: 204b 9219 855f 83bf a4a5 85f0 7e40 c4bf
00000080: 925c 2346 89ff c5bf 3e98 87ff 44da c43f
00000090: b052 4fd6 e674 ab3f 0a3b 6d98 9377 91bf
000000a0: b7b9 9944 5b96 b4bf ab21 08c3 1f13 c7bf
000000b0: 186e 64f9 59d2 883f 9556 a091 5c8e c53f
000000c0: d8c2 4285 2205 b5bf 3e0a f37d 4a19 a2bf
000000d0: b740 8185 f783 c5bf 5c13 fa7e ebb7 bcbf
000000e0: b469 f2ed 534e c23f 24cf 7e95 dfa1 ac3f
000000f0: 39dc 7fea 6015 c7bf 455b 62c4 fdf7 c23f
00000100: 7cca 1718 c8dd ccbf b4a2 d660 dc0e cabf
00000110: 1998 0136 c5ad b1bf eb8f d64f 684a c73f
00000120: eee9 d08f 0b6d cc3f e86e 0beb 5491 cb3f
00000130: af87 50d3 3479 c63f d5f6 427e 7a83 c5bf
00000140: fc7f 88c6 dec2 cd3f 0c71 8d74 a9cb b2bf
00000150: 6f83 18a7 f327 c5bf a9ae 7281 0aaa 8e3f
00000160: 373d 2b7d 9c7f b73f 87fc 94e8 41e1 bbbf
00000170: f478 86ca fab4 cb3f 5738 fca0 58d6 cc3f
00000180: abd6 90ff ce0d cbbf 0000 0040 4914 b13f
00000190: 0d26 7d19 c6db c53f 7975 7a3f cbfc c93f
000001a0: 1010 d921 967e a0bf a362 9229 b81f cabf
000001b0: e715 d11d 3535 a83f ee64 19f6 62ec a23f
000001c0: ec8c b2d0 0870 b6bf 452a 2038 946d c6bf
000001d0: 025c a6c8 baa0 a7bf 1b5d 051e 82f7 c13f
000001e0: 89ca f6b0 bf23 c83f 8674 3518 0003 94bf
000001f0: 7eab 3fa6 f5b0 afbf 0000 00a0 0b4d ccbf
00000200: bbe1 030f e75c c43f de17 a6de 62e2 cd3f
00000210: f0e8 8f51 605e cb3f 167c 1042 b70a ca3f
00000220: 6aaf 854c b60d 9abf c506 a702 4d8b ca3f
00000230: 10fc 3d0f c750 c03f c30c ac1c 583e c13f
00000240: 1849 c824 ed33 563f 3942 f54a da61 ca3f
00000250: 7bb9 812e d40f 81bf 97da 0644 36f5 ba3f
00000260: a642 8c26 a1a4 c3bf fccd 0ed0 57ef b0bf
00000270: ffd6 ea2d a493 b6bf 32ca 5bfd d70a cdbf
00000280: 9f55 6292 ed3c c5bf a02e 1862 29d6 c2bf
00000290: eef6 5e21 1e61 c8bf 04ac 5836 248b b1bf
000002a0: 408b e852 bea0 c53f af5d cf23 221f ce3f
000002b0: 446a 4e6f 2487 cdbf 6bbc 3a29 e12f c4bf
000002c0: 50a3 10cd 22ba b1bf 5117 7e2f 2fa4 c23f
000002d0: 8449 fe8f 68fa bbbf 18fb beb3 7b0b c3bf
000002e0: a138 ba28 64aa c73f eacb 2e62 1592 b7bf
000002f0: b960 5677 f43d a5bf f248 e22f 6aa6 c4bf
00000300: 72bc cc5b 51bd c5bf b3c8 1e1a 199b c53f
00000310: a0d9 2866 562b cc3f cb40 0de6 1b2d a4bf
00000320: e60f 51cc c804 b4bf 1e20 ba2b 6773 c43f
00000330: 0ef6 2590 2429 cb3f a129 2f00 dc4a bf3f
00000340: 9d74 c814 02c2 ccbf 9a50 307c 32fc c43f
00000350: 0000 0020 aefd cbbf b7e8 0d4f 135c ba3f
00000360: 9d3a bfc0 446a c6bf 0ea5 1841 ebfd b1bf
00000370: 58af cfa7 3357 b7bf baf6 02d4 7750 93bf
00000380: 6e16 ed3f 24ba c53f 671a f148 19a6 c13f
00000390: 5b51 7aa2 5c4f cd3f 0603 79e9 842d b63f
000003a0: 3ee2 459b 86ad b0bf 1335 c41f f4e1 b1bf
000003b0: 98a2 3b39 9e1c c53f b6f0 846a 574e c7bf
000003c0: e00a fd7a 6b23 bbbf 2046 0f84 ce51 c43f
000003d0: 0000 0060 b4ee cc3f eb3c 5c38 0c8a a4bf
000003e0: b4ed 46df a9e9 c8bf 951e 231e 6c43 ce3f
000003f0: 3492 4393 e9d8 b93f 4262 788f 3db9 c1bf
00000400: 0000 00c0 4a92 b13f c2ab 15e7 2385 c63f
00000410: ab73 a124 9d1b b1bf c243 d8ae ff84 893f
00000420: b48f 7063 8f38 cb3f 0000 0080 3333 a6bf
00000430: 0000 0040 e996 c8bf bd43 0f62 de65 c2bf
00000440: 4a03 a015 397a bc3f f4ec dad7 4536 bcbf
00000450: 7217 2dc2 c482 b43f 044b 0f2d abbe c23f
00000460: 2290 3d80 0059 c0bf 98be 1647 0035 bfbf
00000470: ac37 8a53 91e6 a13f 4b2d cbdf 526d b1bf
00000480: f1b9 8561 fc46 cdbf e779 ceb4 4311 b1bf
00000490: 0e8a 6cce 8863 6ebf 3ea2 d006 fa87 cbbf
000004a0: f494 d4ce 5597 ce3f f4e3 2cb7 6446 bfbf
000004b0: 5598 6471 07a2 a03f 2b12 43bd 9095 acbf
000004c0: fd9d dfb6 db78 cfbf 7492 749a 069b bb3f
000004d0: 1613 4fcf f4b6 cc3f 97ed b428 652c a63f
000004e0: a438 0d23 594d c63f 0000 0080 8de8 c5bf
000004f0: 7ea1 10a2 5401 c43f 20cf 2516 5964 cdbf
00000500: 752e fff1 9f11 ca3f 4411 cdc5 5684 c0bf
00000510: 941e 3994 9337 c13f 56cf e061 3934 b23f
00000520: bda5 bd18 0693 c13f 0506 1fc6 1252 c23f
00000530: fb77 ca55 43e3 b8bf bc05 3636 b1a2 b23f
00000540: 17db 773e 2e0a ce3f 08a4 5e09 1914 b23f
00000550: 0c18 fc7d 3179 a1bf 82bd 8eb9 b532 c4bf
00000560: 03ad 3fac 8c5f c13f 722e 5ca6 5c83 bd3f
00000570: 0db5 62e0 64d1 a4bf b4a9 4245 4a4c c53f
00000580: 8dd1 b93e bd3a a73f 0f92 6e0e 5c83 b8bf
00000590: c033 3998 921c 8f3f 0d7b ea36 b851 b1bf
000005a0: 004c 9861 aabe b03f 8ae5 edc0 16a1 c83f
000005b0: 2714 b72e 469d c83f 0000 00e0 61ff c3bf
000005c0: 7daf 0a26 071f cdbf 94a8 ec12 fd62 a33f
000005d0: 0000 0000 8fb7 c1bf 28c6 4469 1d44 9dbf
000005e0: 4f59 92f7 cbfa c8bf 3c18 9d1a ec04 c73f
000005f0: aa64 4788 c7b2 bbbf 226c 2ea2 23fe b6bf
00000600: e4b7 5371 ebbf b33f 9f35 be2c ec9e 81bf
00000610: eaf0 5579 c2a3 c4bf a485 fb3d 0a1d a9bf
00000620: ab66 71e3 33c6 803f da26 3641 7adc bbbf
00000630: 86f0 e56e 4772 c8bf aba5 8cf1 2016 8b3f
00000640: c142 023b b6dd c4bf f7e2 c19e 0859 c3bf
00000650: 576f a0d7 b393 933f b027 d287 ba34 ba3f
00000660: 6a4a 8b55 07b5 b43f eff3 ae93 fab4 bbbf
00000670: f415 7b71 c726 c23f 0000 0000 51a9 993f
00000680: 4ebb 0d52 dd59 c83f e7cc 5e85 4f92 c83f
00000690: 86c5 7f35 b3c9 c5bf 553b 3de4 6590 c03f
000006a0: 554d 181f 7bf7 c13f cf57 6db5 b94a a8bf
000006b0: d3fc 8f34 c757 64bf c81b eb3b ea93 bcbf
000006c0: 351b b98a 0bd6 b83f 3310 8ebc fde0 c13f
000006d0: f540 884c 1269 ce3f 1a19 b3a3 29bb b1bf
000006e0: f880 09ed b84a b3bf c049 d832 a3f9 b73f
000006f0: fc42 4392 4131 c8bf e1d6 9d82 1fb3 c5bf
00000700: 7009 68e8 e817 58bf e295 8441 701a 863f
00000710: b7d0 c26c b0af b43f b13e b4ce 6586 c3bf
00000720: 24ca d916 308f 97bf a17e 2e71 2f7e b63f
00000730: 18f1 9862 27d3 93bf 4880 39b9 3d7c c93f
00000740: 9c81 8a9b 833e ca3f 6b0a 122e 93f3 b2bf
00000750: c179 8864 a18a b2bf 7975 1547 2c55 a7bf
00000760: ee6b d1ce 0839 c53f 3353 458a e2ee c0bf
00000770: 0000 0020 da16 cdbf 1d66 2ad9 7b25 a33f
00000780: e9a1 f2e5 3f90 cdbf 8207 69b6 e36f cb3f
00000790: 1768 6049 c0fe cd3f a0ce 72a0 17c8 b2bf
000007a0: 9f68 f386 737d b3bf f8f8 ba07 06a0 a4bf
000007b0: 6bb4 91fa 3d3c bebf 0000 0020 e2e0 cbbf
000007c0: 99a1 0485 db05 913f 922f f813 5801 c8bf
000007d0: accb 5dc0 a724 a03f b818 8f18 5551 c73f
000007e0: 36ac b27a 8ea1 b23f 6736 a552 5c26 b83f
000007f0: 2304 3354 9fac a5bf 46d0 3170 0fcc 9e3f

layer1.weight f8 [256, 256]
-0.025007339270084635 0.03310092712068244 0.042068496346473694 -0.032192587648408 -0.04415341375979031 0.055844340191662026 -0.02561061764521322 -0.014973684158679872
-0.05781415516611325 -0.0057541800238955845 -0.0003987550735473633 0.03684734682373829 0.05474858957900769 -0.03668961673974991 0.016167235595705425 -0.04780473718481462
0.05045696961082723 -0.04384319348369395 -0.016141866186208827 0.0010638661317739384 -0.0187757771129375 -0.04219361972871216 -0.05442312244404846 -0.04931228730869207
0.013776132176769372 0.02227820228756795 -0.036213785351997894 -0.018649864635232535 -0.01666690596484507 0.04895857558278112 0.0215002916734753 -0.058551741015274085
0.015865034096038504 0.030564227114791846 -0.04413599109739038 -0.044938307907378156 0.023550689932189624 0.0453246585160954 -0.050787576041752394 0.009480863026064837
0.02603454431922725 -0.0489736356891641 0.04492885934399065 0.04324772861464556 0.05392284468141871 -0.0249058188440308 -0.017556926810525977 -0.006175759321849489
-0.051712022934204224 0.03688913583755493 -0.04064880625832079 -0.03151623190910075 -0.02569259269540762 0.04754621455682366 -0.05615551141368855 -0.05538169469138918
0.03987215961302672 0.004267724686496661 0.062099131583534 -0.021671112741315106 0.03570835451487801 0.03799386207846008 -0.04646572193588546 -0.0271514430642128
0.05453348458185985 0.031120838685397344 0.02341713047216463 0.006609513954562773 -0.04189339096355614 -0.05180311799759297 0.006557708503348854 0.0006222267155794393
0.034722852783426655 0.011225351136659914 -0.018616231302811082 -0.042788167546612715 0.05788861636612688 0.0607877892040604 -0.05684260172202044 0.0016740443865681431
0.02844856317592062 -0.01993654584807416 -0.018194452091121447 0.058904170723736285 0.012692494900840914 -0.026940649384137077 -0.005790973284662993 0.014196646645900863
0.03412146341426127 -0.057970741578787004 0.05923487105170118 -0.018107514781937843 -0.019355023715922 0.03299597325818387 -0.051374013685684734 0.04653875719354276
0.001717135449120147 -0.013082822106669972 -0.002666129286521453 -0.016599210749721757 0.04546222555291631 0.029829101775549167 -0.01694651980421724 -0.027512965463603215
0.01519094415810222 0.04907386508608165 0.004942812025547028 -0.018781274262387335 0.0454439136632849 0.02303349170248226 0.014634803876908643 0.03156693981307105
0.016576964269992982 0.036874226685415706 -0.017805602987441473 0.04585169263738488 0.027077785508240245 0.05144867816181572 0.04593023194346174 0.03198971818128102
-0.027779768104108267 -0.027871151014212142 0.05094318836927414 -0.04418167416255764 0.03385767912036334 -0.004229878995571981 -0.03553166077025771 0.008510359323853986
0.03242272138595581 -0.05883490954033936 0.0369560137346101 0.04078083915608023 0.00030004465362647924 0.013024501502513885 0.054169923067092896 0.035680630670262364
0.021650646715382065 0.05632229714062198 0.03870820100660164 -0.034034473887560084 -0.04624920887436659 0.0032126664307258203 0.005224343777197416 -0.00734343116385753
0.010284311520472812 -0.058443258992100865 0.020855149742865564 0.03981101904346936 0.056516154259564834 -0.010610221556736445 0.020702480668348892 -0.04753041358189369
-0.056251698872172 -0.0490277308161341 0.0066556612433895075 0.04789021030348541 0.009537381617439852 -0.049965471029281616 0.028704850474280914 -0.038124676176134895
0.015910536607549552 -9.095112336230985e-05 0.021271540768407395 -0.0455098745992634 0.005647134737371312 -0.03384135344695139 0.021994609568296433 -0.04745765077366871
0.03782274802809269 -0.029298161435887954 0.05507904093803404 0.008566286525723455 0.024016545687579573 0.05248927203274194 0.016749178829603157 -0.02159653619306674
0.05349747602789244 0.05549775819949367 0.05161862865128922 -0.0017025799532562529 0.020272976054749866 -0.020282029885220463 0.0013672578627552325 -0.030021488666534424
-0.030095748929641234 0.05488800524406037 -0.024190492928028107 -0.03126533289783303 -0.050799556618348514 0.017193241473979336 0.00789576405933228 0.035292275673294314
0.039462943680108664 0.055268392695976304 -0.0520038409677752 -0.041958146385538735 -0.0022291410014811342 -0.03703654328753298 0.05649641890071615 -0.012838737509758603
-0.0401184579898334 -0.005568166139242855 -0.05199442661069284 -0.060852315264005516 0.02616270220702841 -0.054317279046095325 -0.04313575049832385 0.03625398129224777
0.008287797727736 -0.025321366171922075 -0.009052443911798868 0.04043552440235597 -0.010701684582885868 -0.007928334723231123 -0.018996723855170032 -0.0011414130877982712
0.0511707548351107 -0.05544886224399081 0.013097308247676402 0.028045858557785044 -0.03204460016765854 -0.06269649458221258 0.016226364670090178 -0.05860481223975241
0.04316491823877833 0.042301840961919024 -0.0338550968509704 -0.016899542802228964 0.05689735438831439 0.024127950406742683 0.055798009529467216 -0.031728020266612464
-0.00013843445228819634 0.012256995491388489 0.05995090075451607 0.007927839926971275 -0.02213889186204952 -0.02913113702084684 -0.04960155487060547 0.008155812949115049
-0.04799167120834625 0.015841006665421268 -0.03188620384641152 0.05775831574091829 0.001876206236889334 0.004818244176818375 -0.004168573864194724 0.057572536170482635
0.003049138918262312 -0.056469959409686576 0.032095656354679154 0.007045241531820077 -0.030309716234980067 0.04359841051689053 -0.036787445291073195 -0.034296844570839397
00000000: 2fca 4c21 869b 99bf 6cb6 e6ce 9af2 a03f
00000010: 0000 0080 008a a53f ca3e 3ffe 8b7b a0bf
00000020: dfc9 35b8 469b a6bf 0a6c 941d a197 ac3f
00000030: a0bf dd74 ab39 9abf 16e9 18de 85aa 8ebf
00000040: f55f 5e23 d199 adbf e86e 49f0 b191 77bf
00000050: 0000 0000 0022 3abf 66ca 1acb a7dd a23f
00000060: e8e8 7cd3 0108 ac3f 0000 0040 fbc8 a2bf
00000070: 7ee3 99d0 248e 903f 74f5 9acd dc79 a8bf
00000080: bfe3 aaf4 7ed5 a93f 144f 5474 9d72 a6bf
00000090: 9ff6 764d 7e87 90bf cd14 928f 2d6e 513f
000000a0: 34d2 a012 f539 93bf 105b abf1 669a a5bf
000000b0: 7137 16f6 58dd abbf 8e46 90ca 753f a9bf
000000c0: 9f18 5129 a936 8c3f e381 f4d8 18d0 963f
000000d0: 9b9c 80ff 9c8a a2bf dc8b bb3a f318 93bf
000000e0: d795 2d20 2111 91bf 6a3c f931 1911 a93f
000000f0: 163f 5e26 2c04 963f 45a5 9169 7efa adbf
00000100: cea0 5e6a ec3e 903f f1cc 8a8f 3a4c 9f3f
00000110: 5bff ad1c fe98 a6bf 1c7b 9965 2702 a7bf
00000120: d25b 3a0c ac1d 983f c7d8 0e2c cb34 a73f
00000130: daed 4844 d400 aabf 2814 14e5 b36a 833f
00000140: 205c abb1 cca8 9a3f 3c67 4d87 1213 a9bf
00000150: 37dc 0e5b ea00 a73f 4368 0df8 9024 a63f
00000160: 4ef5 d36c c69b ab3f 8c2d a935 e980 99bf
00000170: f7bd e069 71fa 91bf 3a83 0bc5 c04b 79bf
00000180: 16f4 9f8e ff79 aabf 0000 0000 22e3 a23f
00000190: a079 009b ebcf a4bf 897b af42 e522 a0bf
000001a0: ec40 81b5 284f 9abf 96eb 2339 fa57 a83f
000001b0: ec1d 064a 6ac0 acbf dc3e fe4e fd5a acbf
000001c0: 8220 1eab 1f6a a43f 3b32 4f9f 087b 713f
000001d0: 64c6 8516 75cb af3f aeae f7c1 f330 96bf
000001e0: 46b6 ab8d 5d48 a23f dbc4 2676 ee73 a33f
000001f0: 5b06 33e8 5aca a7bf 0000 0080 96cd 9bbf
00000200: d7cb a119 d0eb ab3f 33f1 8221 24de 9f3f
00000210: bb2b 2d06 a9fa 973f ffd4 6fe4 9312 7b3f
00000220: beca 36f0 0c73 a5bf b1cf 4233 f085 aabf
00000230: 3bf6 ef78 41dc 7a3f 3e3c 72b2 9d63 443f
00000240: 1cdd 419a 31c7 a13f 4802 2520 51fd 863f
00000250: bd3b 7b22 2210 93bf ec74 89a8 54e8 a5bf
00000260: 54d7 34a4 93a3 ad3f 5652 41bd 931f af3f
00000270: 99cd d436 791a adbf d777 1c79 736d 5b3f
00000280: 88c7 d5c1 9e21 9d3f 6696 a6f1 3e6a 94bf
00000290: 39ce cc02 91a1 92bf 5a80 b6fd af28 ae3f
000002a0: 88b2 07d4 85fe 893f bbc7 2660 5496 9bbf
000002b0: c108 ea8d 46b8 77bf ddc2 74a8 2113 8d3f
000002c0: 626d e952 5e78 a13f 0f59 694e 57ae adbf
000002d0: 9a50 e673 0854 ae3f 4177 33bf c68a 92bf
000002e0: 5c25 7ea7 cdd1 93bf 7751 1624 d9e4 a03f
000002f0: 11de 49d9 b14d aabf a516 4990 edd3 a73f
00000300: a788 3126 3022 5c3f b044 b3a8 2acb 8abf
00000310: 2ae7 f542 47d7 65bf cfe4 3c2d 62ff 90bf
00000320: 6b03 e827 d346 a73f f551 6122 858b 9e3f
00000330: e04a 5cb1 6d5a 91bf 3153 87db 5b2c 9cbf
00000340: 96d5 d502 6e1c 8f3f 6a1d 44ab 3520 a93f
00000350: 0000 0000 ea3e 743f acc7 effa 653b 93bf
00000360: 5cdc f8b5 6c44 a73f 21a5 4c76 1796 973f
00000370: 070f 4720 daf8 8d3f b58d 43bc 8a29 a03f
00000380: 9b56 a03d 8df9 903f acb9 5bbb 2de1 a23f
00000390: 1a05 11ca a13b 92bf 2208 b080 df79 a73f
000003a0: 3ff0 d26c 47ba 9b3f 3b3e 412c 7b57 aa3f
000003b0: d891 30d8 2a84 a73f 0c31 cbd2 f460 a03f
000003c0: 328d fdad 4c72 9cbf 2882 6e48 418a 9cbf
000003d0: 0000 00c0 3915 aa3f 68af 38fb fa9e a6bf
000003e0: 45b2 1431 cb55 a13f 4378 3b7f 5953 71bf
000003f0: 702e f6b1 3431 a2bf eb08 c917 e16d 813f
00000400: 0000 0000 b699 a03f 2681 adf8 9b1f aebf
00000410: 1fe8 c20c e6eb a23f 6225 f5e4 39e1 a43f
00000420: 8bab 83f9 e9a9 333f 0000 0000 97ac 8a3f
00000430: 0000 0000 29bc ab3f 3cab a84b bb44 a23f
00000440: 3bbb 514e 962b 963f 7056 82b0 46d6 ac3f
00000450: 2d19 d2b2 8fd1 a33f cf38 9170 f76c a1bf
00000460: 349d 29ef f9ad a7bf 03f5 1728 7351 6a3f
00000470: a771 a81a 1f66 753f a9f1 064b 2514 7ebf
00000480: ba71 23ed f00f 853f dbe0 155c 46ec adbf
00000490: 5029 6568 0d5b 953f 0bd0 9f21 1c62 a43f
000004a0: b525 7b74 afef ac3f 544a b7d4 cfba 85bf
000004b0: 3ea1 aaf5 0733 953f bf96 cc07 e855 a8bf
000004c0: e536 00ce 05cd acbf 519f e7a8 291a a9bf
000004d0: 3d51 fa75 f742 7b3f f3a3 1ace 1085 a83f
000004e0: 2b4c 17b1 5588 833f 0000 0000 1395 a9bf
000004f0: 552c 18e8 cd64 9d3f beb5 b1da 1385 a3bf
00000500: 33a0 9009 da4a 903f 4edb c866 a0d7 17bf
00000510: f74c beef 34c8 953f 1509 19fe 114d a7bf
00000520: 6db8 3530 7321 773f 7133 9d64 a753 a1bf
00000530: d7f0 2243 c185 963f b129 0984 5e4c a8bf
00000540: cda8 a6d3 805d a33f 68de cc54 5600 9ebf
00000550: cd3c 0cef 5133 ac3f 8726 cf83 338b 813f
00000560: 7707 2a19 cb97 983f a6fe 8ab5 dfdf aa3f
00000570: a564 3b5d b226 913f 33d9 9f02 671d 96bf
00000580: ceab ea6b 0564 ab3f 33b0 efc0 336a ac3f
00000590: 44e3 d7c3 c16d aa3f 59b5 f44d 23e5 5bbf
000005a0: 9f49 9764 70c2 943f 09cd 36fc cfc4 94bf
000005b0: 621f 91f3 b166 563f 0000 0000 f4bd 9ebf
000005c0: 1112 9b85 6bd1 9ebf 848c eed6 471a ac3f
000005d0: 0000 0080 64c5 98bf ebe8 967c 0202 a0bf
000005e0: 997a a744 6602 aabf 1334 5fe7 1a9b 913f
000005f0: 1b4b 4b83 a72b 803f 23ed a243 d411 a23f
00000600: 0819 05a9 7c34 a43f a46e 4386 234c ac3f
00000610: 5e2a 7258 3fa0 aabf 9fa7 0dc5 897b a5bf
00000620: 7695 62f6 d842 62bf 198b 5a2c 74f6 a2bf
00000630: 1615 0a3f 19ed ac3f 3a8c cf2d 324b 8abf
00000640: 9387 1012 688a a4bf 23c7 7737 a5ce 76bf
00000650: 5c01 bc73 039f aabf e6ba e3df 0828 afbf
00000660: 9aac 6a39 65ca 9a3f c5ab 3872 79cf abbf
00000670: bf80 5b9b e315 a6bf 0000 00c0 e18f a23f
00000680: f268 9261 31f9 803f 09cf 641e d8ed 99bf
00000690: d980 6674 168a 82bf 9e38 cf0d f7b3 a43f
000006a0: b064 5dca c3ea 85bf 20be c812 bb3c 80bf
000006b0: fea2 c18e e073 93bf 6850 88f8 6eb3 52bf
000006c0: f28e 0e9d 0d33 aa3f 5f6f e013 cb63 acbf
000006d0: fc17 b7f4 c2d2 8a3f 97fb 2cb5 0db8 9c3f
000006e0: f18b 775b 2668 a0bf 0ef0 cda1 e00c b0bf
000006f0: fa30 5de6 a49d 903f 5b79 ea2f 7301 aebf
00000700: 0013 5750 b619 a63f 10ec fb3e 96a8 a53f
00000710: cb3f 8e8b 7455 a1bf 8798 9c1e 1d4e 91bf
00000720: 7849 a768 a621 ad3f 0a77 aa57 ffb4 983f
00000730: 7ecf 3884 8e91 ac3f eee7 d2b2 a73e a0bf
00000740: 838b f3e3 1625 22bf 8609 4316 321a 893f
00000750: 8578 366c e2b1 ae3f 63d0 b6a9 783c 803f
00000760: 7b98 11e2 93ab 96bf 2c07 3383 8dd4 9dbf
00000770: 0000 0000 6065 a9bf 0025 1caf feb3 803f
00000780: 71f5 a344 5d92 a8bf 313b 41f6 9f38 903f
00000790: d387 6d75 6353 a0bf 62cb 5b7a 7f92 ad3f
000007a0: 0534 641b 61bd 5e3f 4c03 9e92 4bbc 733f
000007b0: bfcd ae06 1113 71bf 0000 00c0 257a ad3f
000007c0: 0dae eafd 81fa 683f 70fa bd69 a1e9 acbf
000007d0: 1125 c684 d76e a03f 0ba0 8b9f 78db 7c3f
000007e0: 6dce eb9f 8209 9fbf c3be a7e6 8752 a63f
000007f0: b86a dbd4 cdd5 a2bf 0454 9323 5b8f a1bf

layer1.bias f8 [256]
0.04234169493365251 0.053041385663885575 0.0391614336760025 -0.004567918925396145 -0.014628481961556259 0.015055147537626587 -0.061044898591910854 -0.02006302997214326
0.05862099663413229 -0.02723301358194678 0.01151063467922622 0.030371768935467704 0.022710570647784218 -0.006825456997689291 0.01707238921963868 -0.06982498572882298
-0.02668796415934698 0.015874894250971612 -0.009905230259589417 -0.012509533553501385 -0.04813336580991745 0.01686374860696624 0.03285073522444808 -0.03866371512413025
-0.047166312034848897 0.06745539868598067 -0.008439403802196726 -0.0038874372839927673 0.03097293433714219 -0.04780888557434082 -0.03474722711619343 -0.05151455326053123
0.00038026409777056134 0.023982476843899914 -0.04681111661513175 -0.054568567022821396 -0.026340896716789197 0.008292736731005952 -0.046737733777168854 -0.019295275772350316
-0.03235323458192891 -0.060107985869400894 0.014666757447553844 0.057593492738002926 -0.0010654529071123444 -0.04974217247216005 -0.04370645076807865 0.04937079274842772
0.05333947285598297 -0.060017384588718414 0.016753435134887695 -0.0014235982551095818 -0.03997023084627984 0.020248033487422743 -0.03430577367544174 0.04792542916532988
0.027577675879001617 -0.004967642607963057 0.055353078831067666 -0.03710401754517375 -0.012141029004392328 -0.018609002232551575 0.020169597640498915 -0.040518260462137724
0.0027632880126241873 -0.017163820432278463 -0.04684492155073461 0.01905617098237888 -0.03533402619467234 -0.06085739065642625 -0.007972480637181966 0.03641761272142998
0.029591335226971487 -0.045469301023871686 0.008431744061793414 0.02734213646597805 0.062119023421703404 0.046115494307844763 -0.054495123753599196 -0.025778475677992133
-0.006503180955965647 0.05021603377828094 0.006038891193748931 0.04502324165642327 -0.05114617198705673 0.03142438237658215 0.019865162409910146 -0.006688125431537628
0.04376710211156138 0.042022273828739035 -0.03502017517614295 -0.021548952110028163 -0.011885522883947343 -0.008449447897646727 -0.02384726528747839 0.005250899353830528
-0.01772136241197586 0.057191683240578724 0.037404039917208254 0.01916506141424179 -0.006169392022075319 -0.009675994515419006 -0.05235568240785258 0.04074986226430859
-0.05941499450970057 0.05134145926624592 0.019947545474579862 -0.04299990822858921 -0.04123296195738111 -0.025170117616653442 -0.01643817352531926 0.0045993856775296766
0.03752496153358663 -0.03660209312040199 -0.025155751408214334 0.02292402988636037 0.04004533007633003 0.037487030029296875 0.06478022046124823 -0.064974068657978
-0.02263809760723934 0.007558375597000122 0.03492443569513901 0.0007348860953703627 0.03194572576905217 0.030284316167717942 -0.016946723797679704 -0.03731658209132791
-0.021995443446970003 0.01189248263835907 -0.0022229386462283745 0.032188348893842186 -0.05380250040470157 0.02666260895946581 0.05828306513487129 0.0054613499091160965
0.04693733127075168 0.027379048093290895 -0.01800079757388154 0.01480309429202085 -0.06813257640042243 -0.01880428945500079 -0.02297378886488357 -0.03776365212637546
-0.05112620928177605 -0.05635098940633303 -0.024215265940715117 -0.004993253347315538 -0.05959811061620712 0.04067113809403474 -0.007676971263407127 0.0020861179663655754
0.03700495215379548 -0.01630218514911439 -0.020651755711849535 0.02450762233977101 -0.053314889099491856 0.05679299575419399 -0.008550443668414063 -0.013276270317961233
-0.019097336439063632 0.0160876841941764 -0.041964971496288105 0.009164609014987946 -0.009768590060655348 0.03496750444173813 0.05484809298805697 0.0468050043417006
-0.012424764985755095 0.017350845985450045 0.04830968630061022 0.07693177976795623 0.0439372743720787 0.05481834426064222 0.039727929573790455 -0.06577396051028922
-0.04243582584140438 -0.042045187313426935 0.03678416631599998 -0.0011394093329638265 -0.02819355997002547 -0.02072186735034064 0.023151654551355018 -0.03334033489227295
-0.05708013474941254 -0.06209169884052495 -0.03849344737297022 0.01536253150787999 -0.049989777904606424 -0.03258063742952705 -0.05628580020702893 -0.054908446967601776
-0.003181136381428686 0.04551946399867438 -0.01963082468240293 -0.06226337189264092 -0.027038374345226376 -0.023379036436748647 0.028234420026283978 0.0032970477457514888
0.006401362065095193 -0.021719515772626093 -0.017314109748404177 -0.043051458577103026 -0.0381745353671748 -0.024577245221877493 -0.013409666129978416 0.02302069417863047
0.009248441388081705 0.009025548468899339 -0.03813869125055712 0.04459465720252839 0.020550280809402466 -0.059739096035919606 -0.0007117319803316254 0.029512538042361005
0.02938793477295695 -0.06226070659976691 0.04795492465830833 -0.00035747482819203176 -0.03219279560439686 -0.054997950659891735 -0.039050543819008555 -0.06580329556313659
-0.061556164200694034 0.03086071859673335 0.0011579297195958964 -0.0022867267547584565 0.06654771663017618 -0.05886035170777844 -0.05289642173867368 -0.04032927006483078
0.05053631580986148 -0.0490404130591299 -0.024255192633634796 -0.01760188848558224 -0.03963146938676205 0.00087750784334228 0.03368324786424637 0.04575470449100526
0.02163860985965218 -0.0052364796310320465 0.030594544122317314 -0.05987358952476861 0.008443328793688667 0.05813757670309703 0.02286434746771524 -0.04693062106445486
0.05348407771975043 0.05351801961660385 0.01376673394771555 0.049256900908871415 -0.05861937397516685 0.05018347536076967 -0.028316719942717138 -0.023487965033779794
00000000: 1597 fe85 cfad a53f 3b96 8591 3d28 ab3f
00000010: 6849 cea9 f70c a43f b760 5366 cfb5 72bf
00000020: 658a eb9c 89f5 8dbf 7807 7cb2 3bd5 8e3f
00000030: ee6c 14e6 4641 afbf df28 5b26 678b 94bf
00000040: a917 ce3e 9203 ae3f cbed d29a f8e2 9bbf
00000050: 8e20 073c e392 873f cab0 32e9 c619 9f3f
00000060: 15ab d298 7041 973f d682 5da9 02f5 7bbf
00000070: 35a4 73a5 6c7b 913f 5622 26de 0ce0 b1bf
00000080: 0e7c 0bf5 1654 9bbf 72a1 8a1e 8241 903f
00000090: eebc 3180 3149 84bf c707 012c 999e 89bf
000000a0: 0000 00c0 efa4 a8bf b800 0503 bb44 913f
000000b0: e68a e0c2 cfd1 a03f 0000 0000 bbcb a3bf
000000c0: 4141 53cf 2e26 a8bf 6d80 4bcb c144 b13f
000000d0: 2919 a09a ad48 81bf 0000 0000 8cd8 6fbf
000000e0: 1a1f 2870 5eb7 9f3f 0000 0000 687a a8bf
000000f0: d774 2e78 63ca a1bf c147 0b93 1d60 aabf
00000100: 0cde 1fdd c5eb 383f 4df2 e2c6 dc8e 983f
00000110: 0608 e76d a0f7 a7bf 0c55 8145 69f0 abbf
00000120: 23a0 c8a7 1bf9 9abf 049c 6e48 c8fb 803f
00000130: e3ca 1f1c 02ee a7bf f65f a309 24c2 93bf
00000140: a9fd e568 9a90 a0bf 1d34 1353 79c6 aebf
00000150: 78d8 9adc 9a09 8e3f 6b55 8bef e47c ad3f
00000160: ddef 0d59 d574 51bf 5ef5 ff57 ce77 a9bf
00000170: bea4 5821 b160 a6bf a2d4 76e8 2047 a93f
00000180: f330 01b7 4f4f ab3f 0000 0040 99ba aebf
00000190: 0000 0000 d027 913f 3493 b1fc 0053 57bf
000001a0: 53c0 9864 fa76 a4bf 9913 8c86 e6bb 943f
000001b0: 0000 00c0 8690 a1bf d8de d28d ae89 a83f
000001c0: 0000 0080 523d 9c3f 3974 a168 f358 74bf
000001d0: c1eb 9f1e 3d57 ac3f 1b3f d03b 4cff a2bf
000001e0: d6f5 1b54 65dd 88bf 0000 0000 3d0e 93bf
000001f0: f02a f5c8 56a7 943f 05c1 2637 cfbe a4bf
00000200: 4cc7 98f4 08a3 663f d965 b97d 6493 91bf
00000210: 1093 16bc 0efc a7bf 7f0d a0fc 7583 933f
00000220: 365e e22d 4d17 a2bf bfb1 2d2d b328 afbf
00000230: 9967 d63c e053 80bf 631c 464f 54a5 a23f
00000240: 0ee4 2de4 304d 9e3f 2e30 bd91 c047 a7bf
00000250: 1bfc f287 a944 813f 0053 b2b7 93ff 9b3f
00000260: 5281 1c8c 10ce af3f fd39 c837 739c a73f
00000270: 4d59 a0ec c8e6 abbf 312c e937 ac65 9abf
00000280: cbd9 6958 14a3 7abf 4906 a07d eab5 a93f
00000290: a86a e682 3cbc 783f f4cf f24c 490d a73f
000002a0: 0000 00c0 d42f aabf 6b76 354d db16 a03f
000002b0: 6e6b 857b 8857 943f 0000 0000 0265 7bbf
000002c0: 4971 6b40 a468 a63f 4292 9887 f183 a53f
000002d0: dcd7 2916 2aee a1bf e074 4db2 ed10 96bf
000002e0: 61c8 a8e0 6f57 88bf 1c00 1eb3 f14d 81bf
000002f0: 43f7 08e2 6a6b 98bf 2517 fd8f f781 753f
00000300: 0000 0080 8c25 92bf 3932 3e72 3a48 ad3f
00000310: 4889 5d50 9f26 a33f 0000 0080 01a0 933f
00000320: eb48 898f 1345 79bf 0000 0000 02d1 83bf
00000330: 9d29 672f 5dce aabf 66c1 7b7b 2add a43f
00000340: 7253 9f64 a46b aebf 5473 f480 6d49 aa3f
00000350: 7990 cb1d 216d 943f fd44 257f 1504 a6bf
00000360: 6d92 3f9e 7c1c a5bf 0000 0000 32c6 99bf
00000370: d8f3 c926 2bd5 90bf d91f 1131 ced6 723f
00000380: 1e0d 24c5 7836 a33f d3a4 d571 82bd a2bf
00000390: ba18 6be6 6dc2 99bf ab26 9e9a 6579 973f
000003a0: 0e1b 124e d280 a43f 0000 0000 8031 a33f
000003b0: 0209 4fc0 6f95 b03f ec5c f9fb 23a2 b0bf
000003c0: 018d 7703 712e 97bf 0000 0000 88f5 7e3f
000003d0: 1da4 489a 9de1 a13f cbad 79df ab14 483f
000003e0: eda1 d9ae 305b a03f 349a 160e da02 9f3f
000003f0: 4207 f161 7b5a 91bf 9d8b 5cb7 281b a3bf
00000400: bb21 1039 f985 96bf 0000 0000 165b 883f
00000410: 2a8b 2b19 d735 62bf 6661 9fc3 fd7a a03f
00000420: dec8 5c57 008c abbf de1b 0766 714d 9b3f
00000430: 166f 5425 47d7 ad3f 25d3 06f4 a35e 763f
00000440: 59ee 897d 2b08 a83f f10b a0d0 4009 9c3f
00000450: 28e6 8613 cd6e 92bf b521 e9ae 1551 8e3f
00000460: e599 6ef3 2271 b1bf 205b ef80 6e41 93bf
00000470: 860a 5cdf 7086 97bf b279 b8e5 c155 a3bf
00000480: 14d8 aae9 362d aabf 06e4 3171 09da acbf
00000490: 8404 1efd e2cb 98bf bde0 3c3d ce73 74bf
000004a0: 0000 00c0 a483 aebf 9b8c 02f0 d8d2 a43f
000004b0: 587e 2348 e371 7fbf cecd 1d0e e816 613f
000004c0: 0bc9 9426 50f2 a23f 1a6f 4620 85b1 90bf
000004d0: 05ac 8cdd bb25 95bf 64e2 ceb1 8618 993f
000004e0: 5bf5 24d2 164c abbf 47f0 cfb6 f813 ad3f
000004f0: ff84 601f e582 81bf 18c4 a0d6 9630 8bbf
00000500: fe33 c98d 408e 93bf c3f0 ed35 4a79 903f
00000510: 13ea 4ec8 6e7c a5bf 0000 0000 e5c4 823f
00000520: 4757 b5f6 8d01 84bf 0000 00c0 42e7 a13f
00000530: 766a 439b 0c15 ac3f a99c df55 d3f6 a73f
00000540: 51c6 31ba 2772 89bf ec02 4390 6bc4 913f
00000550: b876 7b15 0cbc a83f cc5e 2016 cdb1 b33f
00000560: 1cc5 0149 f27e a63f fc01 a467 2611 ac3f
00000570: 80b2 831c 3857 a43f 44f1 51f1 8fd6 b0bf
00000580: 81cd 5508 26ba a5bf 0844 ee60 f286 a5bf
00000590: fcf9 acce 5fd5 a23f 6bf9 9874 07ab 52bf
000005a0: 9cc5 1dc8 c5de 9cbf bdb9 53fa 1c38 95bf
000005b0: 3adf 953c 11b5 973f 0000 0000 fc11 a1bf
000005c0: 0000 0080 9b39 adbf a70b bfaf 7bca afbf
000005d0: 4f87 27c3 69b5 a3bf eae9 4713 6476 8f3f
000005e0: eb1b 789a 4298 a9bf e83c 7cc8 68ae a0bf
000005f0: 369c 3c0e 7ed1 acbf 0000 00c0 f51c acbf
00000600: eb81 1d97 530f 6abf d558 69c2 534e a73f
00000610: 5889 0458 1a1a 94bf 0800 0914 fce0 afbf
00000620: 5ff2 3296 f2af 9bbf 9d9d a193 acf0 97bf
00000630: a6a4 89da 7be9 9c3f 472a b907 6902 6b3f
00000640: 57d2 828b 5038 7a3f 9faa b607 a43d 96bf
00000650: 3bd7 833c caba 91bf b17b 443d d70a a6bf
00000660: 484f e2d9 9c8b a3bf 32a0 d001 c72a 99bf
00000670: c70a d4eb 8676 8bbf 9584 83a2 bc92 973f
00000680: 5201 68ca d8f0 823f b5e2 049c fc7b 823f
00000690: ee4a 441f ea86 a3bf bcba 8564 1cd5 a63f
000006a0: 0000 0000 220b 953f 3aa4 886f 1f96 aebf
000006b0: 6309 1eca 7052 47bf a707 dbe6 8838 9e3f
000006c0: 57c1 fcea de17 9e3f c1fc 57a5 a2e0 afbf
000006d0: 33dd 2d42 8c8d a83f 76ff 3bb2 6e6d 37bf
000006e0: 084d 93f8 927b a0bf abcd dcfe b028 acbf
000006f0: c5f3 2fd1 6efe a3bf 49a6 691a 7cd8 b0bf
00000700: 57e7 3720 4a84 afbf 8386 6ac4 f399 9f3f
00000710: 35f5 b591 b5f8 523f a8e8 0c14 9dbb 62bf
00000720: 2dd2 8c6a 4509 b13f ea5f 3bab f122 aebf
00000730: 6cd4 e262 3d15 abbf 0000 00c0 09a6 a4bf
00000740: 3cce 535f e5df a93f 14e7 8a34 d31b a9bf
00000750: 5183 7a6c 5ad6 98bf 4ddb 92bd 3a06 92bf
00000760: d92f d171 934a a4bf d717 9cbe 11c1 4c3f
00000770: 0000 0040 ee3e a13f 4ea1 da1e 296d a73f
00000780: 4662 b686 6e28 963f 1ee9 2ecc d872 75bf
00000790: 9df9 c319 2d54 9f3f 3e57 ce49 c0a7 aebf
000007a0: 6e5f 4e68 bc4a 813f 6d8c 375d 35c4 ad3f
000007b0: fa0d 7962 c069 973f 1b3c 4e55 4a07 a8bf
000007c0: 567b 53d9 4362 ab3f 0000 00c0 b666 ab3f
000007d0: 4118 a0c0 bb31 8c3f 5807 0355 3338 a93f
000007e0: a64a 45cc 5b03 aebf d8c0 f202 a6b1 a93f
000007f0: e6f9 55e8 0eff 9cbf 7bbf ada6 3a0d 98bf
