python/snapshots/snapshot1000.pt (torch_old, 584819 bytes, 6 tensors)

layer0.weight f8 [256, 18]
0	0xbfc640bdddf82108	-0.17385075891821367
1	0x3f73c21aeed04e5e	0.004823785025127229
2	0xbfc74bf9c7dad496	-0.18200609453711952
3	0xbfcab7d2a90844d7	-0.20873482945947927
4	0x3fb689b2e1a7224d	0.08803861626723482
5	0x3fc5831570d39115	0.16806285866835738
6	0x3fb65fd1e1a7224d	0.08739959487059785
7	0x3fab082eecea5278	0.05279680864365316
8	0xbfcb46bd3537259c	-0.21309628580483497
9	0x3fc23585d3976e38	0.14225838500611743
10	0x3f8dc4c01161cf26	0.014535427599390593
11	0x3faf3e88fabcefcb	0.06102397976653114
12	0xbfc8c4fb86084b6c	-0.19351142925787757
13	0x3fc03a48b0d39115	0.12677868494132186
14	0x3f9a6319d9faf6e2	0.025768665246451834
15	0xbfb9fcdd8be71a46	-0.10151467004389145
16	0x3fa56a132e4b359d	0.04182491245374396
17	0xbfc0faed26963135	-0.1326576651012005
18	0x3fa5531f55ef7ccb	0.04164979862229642
19	0x3fac6fa1b1e3e36e	0.05553918167601678
20	0xbfa3ca66c1aecf36	-0.03865357507984728
21	0xbfceb74218b38119	-0.23996759611237264
22	0xbf6d48c28b84fcfe	-0.0035747337061874376
23	0x3fc994dbc9b200da	0.19985530231861653
24	0xbfa898811bb51db7	-0.04803851569391376
25	0xbfc9f458084eab1b	-0.20276928334836772
26	0x3fc628ee1651daec	0.17312408532935508
27	0x3fa2af90820a2cea	0.03649570071601167
28	0xbfc790d2749b9f8c	-0.184107119500592
29	0x3f9cbff9c18099d1	0.028076078830190646
30	0xbfc2d57c14b90899	-0.14714003574232917
31	0x3fa572ac61d3a047	0.0418905133645358
32	0xbfc8865c2caaa37f	-0.19160034352287522
33	0xbfc2e7f01cf00d6a	-0.147703184251536
34	0xbfa1e11f3fc275ed	-0.03492067006412101
35	0x3fc6a0988580b579	0.17677599447908302
36	0xbfb445ae00000000	-0.07918822765350342
37	0xbf976c4c00000000	-0.022874057292938232
38	0xbfcc62f400000000	-0.2217698097229004
39	0x3f434aa000000000	0.000588729977607727
40	0xbfc1455580000000	-0.1349284052848816
41	0xbfc845cc60000000	-0.18963007628917694
42	0xbfc32db9a0000000	-0.14983291923999786
43	0xbfc48a5c60000000	-0.16047243773937225
44	0xbfc1afe3e0000000	-0.13818024098873138
45	0xbfc32d3960000000	-0.14981763064861298
46	0x3fcd48d920000000	0.2287856489419937
47	0xbfb49f5540000000	-0.0805562287569046
48	0x3fb0016740000000	0.06252141296863556
49	0x3fadb9d180000000	0.05805830657482147
50	0x3f985e8900000000	0.023798123002052307
51	0xbfaf783d80000000	-0.06146423518657684
52	0x3fbfc17340000000	0.12404556572437286
53	0xbfcb922280000000	-0.2153971791267395
54	0x3fb70a60cae89b24	0.0900021071798674
55	0x3fc51c5d9a37d86c	0.16492815046484866
56	0xbfc7aefe195f7a4e	-0.1850278495685011
57	0x3fa478cad2986b13	0.0399840719294017
58	0x3f6e9bc9f1143d0a	0.0037363952802774757
59	0x3fc8ee1756196c74	0.19476596550052572
60	0x3fbe3daad958a88c	0.11812846952730832
61	0x3fc66cb68d8185df	0.1751926604220406
62	0xbf95c015d6000ba2	-0.02124055975583484
63	0x3fcd691bb47cd6d5	0.22977014840005575
64	0xbfc26c52a5f68c8f	-0.1439307508818257
65	0x3fb5205211baadbd	0.08252442295877578
66	0xbfc9fc2a2c253cfe	-0.20300795703449376
67	0xbfbfac22f9a69a72	-0.12372034640302745
68	0x3faf9bcd601597d8	0.061735551814123546
69	0x3fb0addce40faa0e	0.06515293662929642
70	0x3f6cda46d3c5bc23	0.003522051176495748
71	0x3f88687d42ceaf35	0.011918047524737222
72	0x3fc01028100874ee	0.12549305708754538
73	0xbf70309d30c34a1e	-0.0039526119473572135
74	0xbfc6a654c6ecf378	-0.1769510241810186
75	0x3fca59c58a6dd0d5	0.20586461314417784
76	0x3fc3780f3e4f7367	0.15210142652986322
77	0x3faa4e71f7d9f1bf	0.0513797392895614
78	0x3fb88b46b04c42c5	0.09587518505237387
79	0xbfc0f95bbcbf8640	-0.13260981289117701
80	0x3fc60cb5dba09221	0.17226289009080722
81	0x3fba53b4dd24909f	0.10283975981707492
82	0xbfb9e312fe2bf806	-0.10112112717976637
83	0x3fc2e962ec166093	0.14774738815026875
84	0x3fa6388ab601a994	0.04340013000258405
85	0x3fc4873d97c5ff42	0.1603772154885466
86	0x3fc3f3ee6324ffea	0.15588168946305753
87	0xbfca65bbe8117638	-0.20622967559295247
88	0xbfc02a971cbb6ea7	-0.12629975226342546
89	0x3fb2234621de280f	0.07085073782778316
90	0x3fbfc5bc15fb109c	0.12411094223631597
91	0x3fcb57e9b4ed2ca9	0.21362038931178987
92	0xbfa00c5d999a2224	-0.03134434223199303
93	0xbfcbca90c2794032	-0.2171193074777889
94	0xbfbb9f1104130835	-0.10789591168853081
95	0x3fb1727fffe329f1	0.06815338132142991
96	0xbfcd56268073f010	-0.22919160148728723
97	0xbfbcd9ba4e6338f9	-0.11269726194152331
98	0x3fbada6a03cd9580	0.10489523499344067
99	0xbfc847280f52c3ec	-0.18967152355392558
100	0x3fc9c0fdc3915199	0.20120212601854062
101	0xbfbbcad63282e4ab	-0.10856379254518582
102	0x3f99fde2e30b6e9c	0.025382561786371313
103	0xbfc1e571f41c987d	-0.13981460971371354
104	0xbfbacfa93cc12f57	-0.10473115666644382
105	0xbfb6fb76ad8f0316	-0.08977452981254105
106	0x3fbfa2b043871029	0.12357617996809779
107	0x3fadc8ad9f28892b	0.058171678236492795
108	0x3fba68b4dd523fe1	0.10316019442893733
109	0x3fcdb52e0d16780d	0.23209167136241185
110	0xbf9b86371acbcfb3	-0.026879178057199925
111	0xbfc52a11ebb8557c	-0.16534637460487633
112	0x3fbbbe6787c5f508	0.10837409081246474
113	0x3fb5345db09a633d	0.08283029138182214
114	0xbfa74850828a71cb	-0.045473590788990124
115	0xbfc9126e427630cb	-0.195874960376733
116	0x3fcd8190b997b3b4	0.23051652013910273
117	0xbfc47c9b2315dfe9	-0.16005267346531518
118	0x3fbe5a73adb48c8f	0.11856768599368393
119	0x3fb255879ae8b5bd	0.07161757976492474
120	0xbfa0840623e3e2aa	-0.032257263070225875
121	0xbf890c7e79b8358b	-0.012230861749254604
122	0x3fc8736a9e7e5cdc	0.19102223147340325
123	0x3fc60dbbfe83f1a4	0.17229413917074254
124	0x3f92dcd3b42f1071	0.018420513031529532
125	0xbfc1be46a36a6e8c	-0.13861926059040675
126	0xbfc8ad17aad64f03	-0.19278236238152865
127	0xbfc2a00edaf74137	-0.1455095833939681
128	0xbfaf589d2db9b17a	-0.06122294600649787
129	0xbfb01da6b0f28e4f	-0.0629524404526418
130	0xbfa6aaba74eac201	-0.044271303913209444
131	0x3fbfac552f62979d	0.12372333914626528
132	0x3f8465c9e9998aac	0.00995977157726221
133	0x3fa045b23b02578c	0.03178173990561026
134	0x3fc36dc11553d8ab	0.15178693333991097
135	0xbf8aa19925d41639	-0.013003536669667347
136	0x3fca31ca0c0813be	0.2046444472072419
137	0x3fb30a07fd6390be	0.07437181411984548
138	0xbf92acbb06910918	-0.018237039829053975
139	0x3fc2f72a087adacc	0.14816785253579778
140	0xbfabeb32e21d603f	-0.05452879915418451
141	0x3fc9ed4f07415189	0.20255458692794218
142	0xbfcee289c973b38f	-0.24128839813729683
143	0x3fc62dd4a6a1e5d2	0.17327364097927372
144	0x3f95329e83bddbc7	0.020700909415122284
145	0x3fb654f7976fa746	0.0872339958874849
146	0xbfcb6a33d6f74dab	-0.21417854305637482
147	0xbfb119797bc5faf4	-0.06679496070681151
148	0x3fc8489c3cf1cffe	0.18971589065370148
149	0x3f91adb45cc3a5a2	0.0172641927355578
150	0xbfc7227a3ae1cbfd	-0.1807396686086519
151	0xbfaf0e39d1e1ef59	-0.06065540968935918
152	0xbfc2de7773948457	-0.14741414207040535
153	0x3fae8f07ad78157f	0.05968498222868401
154	0x3fc7b252b6ed0f9d	0.18512948924955888
155	0xbfa66dada31c6173	-0.04380552879428281
156	0xbfc1837fecef8596	-0.1368255526458994
157	0x3fc92d5d209dee8e	0.19669689266799079
158	0xbfc8c54f2024e295	-0.1935213953927543
159	0x3fb77507cd38fb90	0.09162949333493331
160	0x3fc354af97b27112	0.1510219088276093
161	0xbfcd66290274512d	-0.22968018169252372
162	0x3fc36a9b3b0657ea	0.15169086820668493
163	0x3fc9ffd929d77bfe	0.20312037032178404
164	0xbfcd2ff6af76b3c1	-0.22802623336374775
165	0x3fc97fe495e700c1	0.1992154819436163
166	0x3fa6b1fef9fe74d3	0.04432675172504621
167	0xbfba03467a593753	-0.10161247717880188
168	0x3fcc32d8ba936694	0.2203017149939127
169	0xbfc0dad6fd1d43f2	-0.13167846068475303
170	0x3f96d61e52cb5701	0.02230117206894189
171	0x3fbf4362e909712d	0.122121984380503
172	0xbfca1ed82a476a7a	-0.20406629623797184
173	0x3f81aa9206ae5938	0.00862611849678939
174	0xbfcaa5938325b823	-0.20817798522642858
175	0x3fc0dcf36e68c17e	0.1317428864581522
176	0xbfb13d209ab40d00	-0.06733897950111967
177	0x3f960452953605ff	0.021500864369505376
178	0x3fb36d2f7bd7cde1	0.0758847882605589
179	0x3fb2e5e7d2c3b75a	0.07382058044069364
180	0xbfbd979b60000000	-0.11559458822011948
181	0xbfc1425d40000000	-0.1348377764225006
182	0xbfcac7e3a0000000	-0.209225133061409
183	0xbf84598600000000	-0.0099363774061203
184	0xbfb61f3240000000	-0.08641351759433746
185	0xbf9e7dd700000000	-0.029776915907859802
186	0x3fc5241c20000000	0.16516448557376862
187	0x3fa3bf3b80000000	0.03856836259365082
188	0x3fa1ccf380000000	0.034766778349876404
189	0x3f8db7e600000000	0.01451091468334198
190	0x3fb71b0dc0000000	0.09025655686855316
191	0x3f818be600000000	0.00856761634349823
192	0xbfb4d59ec0000000	-0.0813845843076706
193	0x3fc2670ca0000000	0.14376981556415558
194	0xbfcc358180000000	-0.22038286924362183
195	0x3f93956100000000	0.019124522805213928
196	0x3f71225c00000000	0.004183158278465271
197	0xbfcc76fec0000000	-0.22238144278526306
198	0xbfc330d638374c96	-0.14992788071558455
199	0x3fa6a6abbff18c8f	0.04424034803448606
200	0xbf9d82d35f62b5be	-0.02881937284171498
201	0xbfbcd5e3d8bd366a	-0.11263870278818336
202	0x3fcb81b771616727	0.21489613567501317
203	0x3fc7f4d72ae2b430	0.1871594390298994
204	0x3fcd642c4e10c757	0.22961953937334087
205	0xbfa8f2cd93547b4e	-0.0487274401041221
206	0xbfc2a8cc4ff572d1	-0.14577630905377828
207	0xbfad21f0f8f1d1ac	-0.056899576557870674
208	0xbfc1319302daa010	-0.13432538642268854
209	0x3fc7e87905c5de78	0.18678200513726373
210	0xbfbcd4617de94531	-0.11261567424778175
211	0xbfb5a1c2f12f7638	-0.0844995344955003
212	0x3f9309de56632b14	0.018592332861582753
213	0x3f799d6a4c6432b5	0.006253638485088577
214	0x3fb6c819944ae81a	0.08899078245568184
215	0xbfbeaa44d80815e2	-0.11978559755524246
216	0xbfba36eb9befbcd6	-0.1024005180076871
217	0x3f95c193ff43cff1	0.02124625440133338
218	0x3fbadc75540d9d19	0.10492642690734434
219	0x3f9220872c788f4b	0.01770220955781036
220	0xbfc24a09807f4127	-0.14288443350097532
221	0xbfc46551ef291138	-0.1593420427108272
222	0x3fc7f563210e7128	0.18717612375338288
223	0x3fbdf8d55c9bd187	0.11707814703897244
224	0xbfb5c73796784ee4	-0.08507106231291633
225	0xbfad793f66d51d76	-0.05756567125586802
226	0x3f93f39aab71bbd3	0.01948396369374079
227	0x3fb6d809b4255a14	0.08923397682279016
228	0xbfcd8b7d37e1f1a9	-0.23081937054292936
229	0xbfabf28b32e4d59d	-0.05458483692420233
230	0x3fc87f875798a2a8	0.19139186646613848
231	0xbfc17e82bc5ea6d5	-0.13667329976788403
232	0x3fa8096d7f56764e	0.046946927827985804
233	0x3f82fbbb1a05aa97	0.009269201022751345
234	0xbfc4621f40000000	-0.15924444794654846
235	0xbfc2810880000000	-0.14456278085708618
236	0xbf6e05a800000000	-0.0036648064851760864
237	0xbf889eba00000000	-0.012021496891975403
238	0xbfc0e78c80000000	-0.13206630945205688
239	0x3fa0f66380000000	0.033129796385765076
240	0x3fb1574dc0000000	0.06773839890956879
241	0x3fc25b0be0000000	0.14340351521968842
242	0xbfc58bda80000000	-0.16833049058914185
243	0xbfb4bc2180000000	-0.08099564909934998
244	0x3fc03fbd60000000	0.12694518268108368
245	0xbfb8c99300000000	-0.09682577848434448
246	0xbfc0732e00000000	-0.12851500511169434
247	0xbf8b5a7000000000	-0.01335608959197998
248	0xbfbe49b780000000	-0.11831232905387878
249	0xbfcc079ac0000000	-0.21898207068443298
250	0x3fb073c6c0000000	0.06426660716533661
251	0xbfc7292420000000	-0.18094302713871002
252	0xbfb3c9a50a3b2c30	-0.07729560375007405
253	0x3fb1d34d3cc9f248	0.06963045820334302
254	0xbfbf969a5903b97f	-0.1233917681999852
255	0x3fc30607f459021c	0.148621553717036

layer0.bias f8 [256]
0	0x3fbd1f3ce1a7224d	0.11375790127852632
1	0xbf94277fb9273ae1	-0.01968192641816813
2	0x3fa8c6b180000000	0.048390910029411316
3	0x3fc5ac6b84c6b1b0	0.1693243406601943
4	0x3f7933735f138633	0.006152582807062812
5	0xbf47c40416b55b64	-0.0007252712215784882
6	0x3fa75c9dc5cfcbee	0.04562848128980322
7	0xbfc48f3ec82ea85c	-0.1606214978649544
8	0xbf5e5157c42243bd	-0.0018504483310019936
9	0xbfb9e66208323876	-0.10117161464788346
10	0x3fa8be6d80000000	0.04832784831523895
11	0x3fb3270fd0ec2b30	0.0748147854866772
12	0xbfb30087b4e37740	-0.0742268387434395
13	0x3fba1ac540000000	0.10197098553180695
14	0xbf8308b9d6464fdc	-0.009293987132686192
15	0xbfc4027a15f79c1e	-0.1563255889188619
16	0xbfc6208c2ffa0e10	-0.17286827414146488
17	0x3fc54931a1f7eb65	0.1662961998807432
18	0x3facbbce2c6e32ee	0.056120341228142454
19	0xbf902806f271edba	-0.015777691409750473
20	0xbfb3204348377115	-0.07471104157543025
21	0xbfc6ff50c57696a2	-0.17966661111602372
22	0x3f8e7b32754a7cf8	0.01488341732448227
23	0x3fc5d9d90061c51a	0.17071068304679998
24	0xbfb44ff682715dc7	-0.07934513744964199
25	0xbfa27550de8f7874	-0.03605129925539155
26	0xbfc56ef4dc239655	-0.1674486231706164
27	0xbfbd343152f44f3c	-0.11407764697315498
28	0x3fc2520a2a4b8d99	0.1431286531943499
29	0x3fac566c21c58e7e	0.055346850512049336
30	0xbfc6f3c81b40f61c	-0.17931462603330395
31	0x3fc2efbabe1a566d	0.14794096262328385
32	0xbfcccb23052031c9	-0.22494924307137712
33	0xbfca168892e9d74f	-0.20381266759403124
34	0xbfb18ac401230e51	-0.0685236456657148
35	0x3fc73bd96594d148	0.181513952827695
36	0x3fcc66a0e736df1d	0.22188197412264624
37	0x3fcb6e4c390a57d4	0.2143035200612632
38	0x3fc5fb94bd3a1a81	0.17174014319990152
39	0xbfc5af667be6565f	-0.16941529321472878
40	0x3fcd4b19cc9907f6	0.22885439386487832
41	0xbfb2e2173e15d63f	-0.07376237169031528
42	0xbfc567f8c9207583	-0.16723546810764497
43	0x3f8e836942e19da2	0.014899084428363466
44	0x3fb7282a86a2e5b5	0.09045663630504104
45	0xbfbb34ac76386fed	-0.10627248655549666
46	0x3fcc0e41ea3f5bc7	0.21918510377756048
47	0x3fcce67b22183622	0.2257837215878889
48	0xbfca895dc1e6d66c	-0.2073170849595728
49	0x3fb1144940000000	0.0667157918214798
50	0x3fc5fca93a82b116	0.17177310330351564
51	0x3fca7aa706bea97b	0.20686805562338492
52	0xbfa05096e525733e	-0.031864848586997216
53	0xbfca93a09355dde0	-0.20763022607910298
54	0x3fa90d02855dddc7	0.04892738225947429
55	0x3fa3659c44fd0303	0.037884601041247044
56	0xbfb5cd9d689b8301	-0.08516868404286627
57	0xbfc66d90f437cf8f	-0.17521869587619363
58	0xbfa73e161380c410	-0.04539555538247708
59	0x3fc2fe779fcd17db	0.14839072516241356
60	0x3fc8f53628c54ad1	0.19498326292758475
61	0xbf936d0c39b3ffd6	-0.01897067167465124
62	0xbfafb02680000000	-0.061890795826911926
63	0xbfcc4d0ba0000000	-0.22110123932361603
64	0x3fc43e4d28d93de7	0.15815128798065745
65	0x3fcdc608ad779c1b	0.23260601492003805
66	0x3fcafc2530870a7b	0.2108198630285932
67	0x3fcad219119b7bc4	0.20953667983755342
68	0xbf9abdab795c379c	-0.026114157945862013
69	0x3fcb1a4db45c97a8	0.21174022013400173
70	0x3fc06f55765a08bc	0.12839763907328983
71	0x3fc21b2840e420f1	0.14145377319824307
72	0x3f8528d68197ef27	0.010331798391227288
73	0x3fca4733153adb13	0.20529783760658712
74	0xbf810fd42e81b97b	-0.008330972356102908
75	0x3fbd39944a639be8	0.11415983978405075
76	0xbfc3a4a1268c42a6	-0.15346159345837868
77	0xbfb1d0ccb327730a	-0.06959227918509839
78	0xbfb8ba67195c67be	-0.09659427994884504
79	0xbfcbf6a4c0d4a5c9	-0.21846446433600722
80	0xbfc5e6c40b76a7a1	-0.17110491332760794
81	0xbfc35285d906567f	-0.15095589730178813
82	0xbfc86141282d62e3	-0.19046797239095445
83	0xbfb13aefc3411ecd	-0.06730555073692841
84	0x3fc522b82c5f42f2	0.16512205282790365
85	0x3fce41ee90c34f68	0.2363870817995306
86	0xbfcd8c3f12175345	-0.2308424795470733
87	0xbfc3b7e45f7e8b15	-0.15404944098289577
88	0xbfb134706b15807c	-0.06720640768389957
89	0x3fc3275e7935c2b8	0.14963894766289854
90	0xbfbc11743788f984	-0.10964132648311958
91	0xbfc270567e98607f	-0.1440532796993956
92	0x3fc7435f006fe695	0.18174350282042853
93	0xbfb7cf90e06b5323	-0.09301095465646063
94	0xbfa51d2c0f468abc	-0.04123819052189989
95	0xbfc4352cd572843b	-0.15787277624352378
96	0xbfc586bac9edd8f6	-0.16817412242716728
97	0x3fc5d6f58f4ad137	0.1706225347203458
98	0x3fcb8102f822bb7b	0.21487462154388112
99	0xbfa46fa84ef48a6f	-0.039914378774729246
100	0xbfb47a0a6011ad27	-0.07998719067989112
101	0x3fc46ac3f7714a0a	0.15950822431712225
102	0x3fcb3617e7cee5d1	0.2125882989765118
103	0x3fbefebc080d8f3c	0.12107443997007022
104	0xbfccbdabefa4b67e	-0.2245383186467968
105	0x3fc5f3f8d85bc25e	0.17150793613793075
106	0xbfcbfdae20000000	-0.21867920458316803
107	0x3fb8c3fad78c3256	0.09674041521447782
108	0xbfc63d96b1ed7932	-0.1737545365130671
109	0xbfb1f202740905a6	-0.07009902317897473
110	0xbfb7692c7fadf849	-0.09144857518364903
111	0xbf9262b5d595064b	-0.017954674874323378
112	0x3fc57589fd6f1fdb	0.16764950632773332
113	0x3fc1b76417617e97	0.13840914861338113
114	0x3fcd4f660987a98a	0.22898555245712898
115	0x3fb4a67ac6d3734e	0.08066527704381807
116	0xbfad664867653fdd	-0.05742098104622049
117	0xbfb1d5ac7d8b967c	-0.06966665329999872
118	0x3fc541a48c0075cb	0.16606575809502852
119	0xbfc754dd6481cb50	-0.1822773686177137
120	0xbfb94a2a1b7f7681	-0.09878791018805978
121	0x3fc558a6e5bb8689	0.16676794259460717
122	0x3fcceeb460000000	0.22603468596935272
123	0xbfa3c20cef30b08f	-0.03858986301233457
124	0xbfc967f623475a22	-0.19848515246003823
125	0x3fcdffb1ce8d20f7	0.2343656786490624
126	0x3fb9def8cc8e206b	0.10105853075049402
127	0xbfc210f9c64a33cc	-0.1411430566990063
128	0x3fb1924ac0000000	0.06863848865032196
129	0x3fc6840c25c4eaec	0.17590476841163338
130	0xbfab530e0348cfe8	-0.05336803236096427
131	0x3f93f92b7d71bf4a	0.0195051951708927
132	0x3fcaa413ff66abbc	0.2081322667193869
133	0xbfa6333380000000	-0.043359383940696716
134	0xbfc896e940000000	-0.19210544228553772
135	0xbfc3bb3c02f98d3f	-0.1541514410520026
136	0x3fbe232af9db3621	0.11772411918646998
137	0xbfba93d0095dff14	-0.1038179419392658
138	0x3fb4a373bfe55104	0.08061908183055172
139	0x3fc35697f4be1ce7	0.15108012628863962
140	0xbfc05adc6e66576a	-0.1277728594838508
141	0xbfbd5bb579ea8897	-0.11468061663120675
142	0x3fa148bea22acacc	0.033758122726245426
143	0xbfb178c3a69e7f10	-0.06824896638726963
144	0xbfcd83739310a7e1	-0.23057408028517926
145	0xbfb17be3fd0c260e	-0.06829667022625349
146	0xbf3ffb22874d6121	-0.0004879912660746989
147	0xbfcbb414a106fccd	-0.21643312323246847
148	0x3fce7319f4e02ebd	0.2378876157457536
149	0xbfbea3c071234ab9	-0.11968615305094489
150	0x3f950ad20b82511d	0.02054908938642185
151	0xbfaaff0c34f0b95e	-0.05272710939640278
152	0xbfce657c658d3e01	-0.23747210463123739
153	0x3fbc90294b11f73b	0.11157472689407381
154	0x3fcd23055a673369	0.2276312533780598
155	0x3fab9e093df65870	0.053940094770198566
156	0x3fc5f387fe6ddf7e	0.17149448321628918
157	0xbfc5e88d80000000	-0.17115944623947144
158	0x3fc47bf03674f8f4	0.1600322976973484
159	0xbfcd52b66dd6b8e0	-0.2290866886446059
160	0x3fc9b7c88d5ea70e	0.20092112448519867
161	0xbfc0ab7ff0517304	-0.13023375734601228
162	0x3fc23e0d5c4deeed	0.14251868254711245
163	0x3fb37b9489b571e0	0.07610443460493554
164	0x3fc1752380ecee5d	0.13638728900137922
165	0x3fc2ae9f61a2464a	0.14595405833510916
166	0xbfb91a12505bd62b	-0.09805407010920734
167	0x3fb2a6cd91d51043	0.07285771189077743
168	0x3fcd86e49272fcfd	0.2306791033824779
169	0x3fb22ccb7244a7c3	0.07099601306677443
170	0xbfa569edac83c2ec	-0.04182379465954064
171	0xbfc45cdbc62a5f93	-0.15908381629992316
172	0x3fc0f1d0b0379868	0.13237961391786546
173	0x3fbdbcb59bbe4f63	0.11616072704629014
174	0xbfa10dcbe282a8e6	-0.033308383369630865
175	0x3fc6900970332e0d	0.1762706563807658
176	0x3fa6fe7ddd6e7f84	0.04491036727927081
177	0xbfb633f5f89783e5	-0.08673035925995938
178	0x3f9253a6f8aa93ac	0.017897232940089644
179	0xbfb2299a53e59599	-0.0709473090006071
180	0x3fb0f2a688edf81a	0.06620255320555693
181	0x3fc93e10ce28dba2	0.19720659319292816
182	0x3fc8b43cec54504c	0.1930004266693025
183	0xbfc3ff61e0000000	-0.15623115003108978
184	0xbfcd6c75a12988ad	-0.2298724209713944
185	0x3fa12b9ef9ae5701	0.03353592679847673
186	0xbfc1b78f00000000	-0.13841426372528076
187	0xbf981a9fff9cf500	-0.023539066292177502
188	0xbfc7cf62c52b6e16	-0.18601641299652333
189	0x3fc6cf24af8fac4c	0.17819651195836383
190	0xbfbbb0519f5acf7e	-0.10815916195389083
191	0xbfb637ee2d14c882	-0.08679092980017525
192	0x3fb3d1b6abdffec9	0.07741872497717418
193	0xbf70e415cdd06c87	-0.0041237689702270435
194	0xbfc4b133b099599d	-0.16165777323722078
195	0xbfa7bfa32fb23eb5	-0.04638395268659449
196	0x3f89e23dac080711	0.012638551533203509
197	0xbfbc2358c202374c	-0.10991434799708805
198	0xbfc7ae80c165ce3d	-0.1850129074406243
199	0x3f86d9b560ad34c4	0.011157433522067335
200	0xbfc459051829fced	-0.15896667175181936
201	0xbfc274d6acb94c37	-0.14419063028125986
202	0x3f97f2ad150f10db	0.02338667336495424
203	0x3fba8ef6e848b10f	0.10374396487231173
204	0x3fb3aa2e9398c68a	0.07681552031933783
205	0xbfbb9e12c9a0f486	-0.1078807585008282
206	0x3fc1fc20aa4bd690	0.14050682368513323
207	0x3f99a95100000000	0.025059953331947327
208	0x3fc892b5fe0bbd55	0.19197726158697984
209	0x3fc88a4cb1001790	0.19172056810947113
210	0xbfc58e5773881571	-0.16840642110052387
211	0x3fc170b9f6d26f2f	0.13625263740402135
212	0x3fc1f0102b0f752e	0.14013864615018562
213	0xbfa5aec540d9c38e	-0.04234901825555602
214	0x3f71ebf1703e8e47	0.0043754035176877875
215	0xbfbc9e4da7d50d02	-0.11179051730600878
216	0x3fb8769d70eb1470	0.09555992132944069
217	0x3fc230d5fe2326aa	0.14211535367058065
218	0x3fce422e3648a849	0.23639466906144183
219	0xbfb1a99889990128	-0.06899407729452334
220	0xbfb29e18cbc5f729	-0.07272486662801882
221	0x3fb7baf3c9ab9672	0.09269641564932288
222	0xbfc7816bc12babc2	-0.18363711292417234
223	0xbfc52a750881034f	-0.16535818972809088
224	0xbf7def435505ba8f	-0.0073082571183095265
225	0x3f872cf2848727d0	0.01131619898741923
226	0x3fb6147d6786fb4f	0.08625015046616834
227	0xbfc295d6b2aa2cdb	-0.14519771312584492
228	0xbf9a5257ba7341e9	-0.025704737429636557
229	0x3fb5e5e5819c1dc0	0.08553919233610596
230	0xbf9878bf28b097b8	-0.02389811216212198
231	0x3fc9793c016dd5e6	0.19901228017594902
232	0x3fca2bfc7dc068f6	0.20446735515799447
233	0xbfb1d205990bebd6	-0.06961092936027966
234	0xbfb295094d8457f8	-0.07258661406044087
235	0xbfa58d3a59ae7512	-0.04209310860390238
236	0x3fc51b6ebd66eddd	0.16489967582843593
237	0xbfc0ab65a7a657da	-0.13023062406563107
238	0xbfcd16da20000000	-0.22725988924503326
239	0x3fa32252d2927948	0.03737124271832443
240	0xbfcc55190bc8ab3c	-0.2213469798601525
241	0x3fcb56e86ab4e0a8	0.2135897179630366
242	0x3fcdf2e6f1641d55	0.23397528444932428
243	0xbfb3b973cf29a59b	-0.07704852874453254
244	0xbfb2d93777c98afe	-0.07362696337217398
245	0xbfa40e42a232d3e6	-0.039171297359111
246	0xbfbe485e9cee41f8	-0.1182917721873834
247	0xbfcbe0e220000000	-0.21780039370059967
248	0x3f90f952cd90c502	0.016576093479845795
249	0xbfc81f9fd5fd2a17	-0.18846509884527116
250	0x3f9ea5f030972d3c	0.029929879155855973
251	0x3fc6f153c5d0a3fe	0.17923972281394634
252	0x3fb2a329a3e817d2	0.0728021645701056
253	0x3fb81fab878a79a6	0.09423324641327344
254	0xbfa86e61cf1e2345	-0.047717148335385796
255	0x3f99b224fd76f44c	0.025093629808669513

layer1.weight f8 [256, 256]
0	0xbf999bfe7f22610f	-0.02500913287130496
1	0x3fa0fff5e91d5ae6	0.03320282431257286
2	0x3fa58a0080000000	0.042068496346473694
3	0xbfa06eec18d79830	-0.03209626963852974
4	0xbfa68c4daced3012	-0.04403918014449472
5	0x3faca3292a2323be	0.05593231810923481
6	0xbf9a8eb834b84329	-0.025935056894073192
7	0xbf8d2ac9ee677cfe	-0.014241769397755007
8	0xbfad99ef1162a97c	-0.057815047142258685
9	0xbf762e34a822bf9f	-0.0054151589303471906
10	0xbf3a220000000000	-0.0003987550735473633
11	0x3fa2d85af9d55a65	0.036806910512201786
12	0x3fac1d93e31e843d	0.05491315982295262
13	0xbfa2c8fb40000000	-0.03668961673974991
14	0x3f909381b6495d41	0.016187693358316272
15	0xbfa84a3300761e3a	-0.04744109516746815
16	0x3fa9905a4b88480d	0.04992944881463766
17	0xbfa78f2dffa49cca	-0.04601424928324034
18	0xbf903a83945f6322	-0.015848213129945006
19	0x3f53c715c9ac9384	0.0012071335574514739
20	0xbf9301adfefde452	-0.01856109494062636
21	0xbfa59a4d69e57937	-0.04219285886459761
22	0xbfabea188d8c6b53	-0.05452038505446546
23	0xbfa88d3b41cde6cc	-0.04795251062655623
24	0x3f8b96e7862e9a9b	0.013471421034251299
25	0x3f96bacf9df6cdcf	0.02219700242649286
26	0xbfa2a74403d49c7d	-0.036432385890571496
27	0xbf93118b572c160a	-0.018621613689012086
28	0xbf91112cae8eb083	-0.01666707816518499
29	0x3fa8b08cde1d9df6	0.04822197162030399
30	0x3f95da7191a004ab	0.02134110881161592
31	0xbfae06221319c2c4	-0.05864054186975445
32	0x3f9040cca64e9d42	0.015872190142230076
33	0x3f9e661b2351d2ee	0.029686378508318727
34	0xbfa69e3a5e8646f8	-0.04417593387473845
35	0xbfa709608e184e09	-0.04499341711575872
36	0x3f97c29bb19e85ef	0.023203308788316276
37	0x3fa79697b56010e2	0.04607080544522703
38	0xbfaab3989b5f40f9	-0.052151459661787976
39	0x3f8454c30af21a94	0.009927295466934973
40	0x3f99b12afc15cb02	0.02508990443807147
41	0xbfa912e85b3f71e9	-0.04897237886300216
42	0x3fa6a38c8581f6ce	0.04421652917606665
43	0x3fa62408fcf105f5	0.043243676067969895
44	0x3fab536f6c806fb6	0.05337093543513964
45	0xbf9962e246834c78	-0.024791274598851193
46	0xbf9284aa51639d83	-0.01808420297393588
47	0xbf80c99135034c4e	-0.008196958952259827
48	0xbfaa5b67ac5c5031	-0.05147861460696424
49	0x3fa2e32200000000	0.03688913583755493
50	0xbfa4e234cc0314be	-0.0407883166349534
51	0xbf9f1ce6d0b1a3cc	-0.030383688438096176
52	0xbf9a32ecbed08ad9	-0.025584887644195618
53	0x3fa884c7eee89ab7	0.04788803855290296
54	0xbfacd184b440767c	-0.056285998347658656
55	0xbfac4c9faab85d11	-0.055272092428078186
56	0x3fa44ad113aed02b	0.03963330617207846
57	0x3f717b0750555fa0	0.0042677198119562
58	0x3fafbbc0165945b9	0.061979296424975634
59	0xbf95f3321dcf5b32	-0.021435530728776082
60	0x3fa27fec5bcb31c1	0.036132227139748625
61	0x3fa3843a82e6c568	0.03811819885175788
62	0xbfa7ca6280000000	-0.04646594822406769
63	0xbf9bcd9680000000	-0.0271514430642128
64	0x3fac3c71412bd58a	0.055148638921234186
65	0x3f9fb8ebe63b8171	0.030978856971047578
66	0x3f973912bc6f6c1d	0.022678654433416868
67	0x3f7d190f3529f267	0.007103976635900545
68	0xbfa58320bec46ab2	-0.04201605156614131
69	0xbfaa2ee4f424abfb	-0.051139025499956824
70	0x3f7a0d34170b860a	0.006360248066557892
71	0x3f5e2f702e392cf8	0.0018423648370056705
72	0x3fa21cf954484adc	0.035377303636911356
73	0x3f87a282c0bf5d31	0.011540433413684244
74	0xbf931022227b3bbd	-0.018616231302811082
75	0xbfa660c9930ceda2	-0.043707179260731324
76	0x3fada393a434d754	0.05788861636612688
77	0x3faefaf5112b03b1	0.06050840220041865
78	0xbfad6f0310cfae9a	-0.05748757915702392
79	0x3f6a33d015e67b5e	0.003198534409605199
80	0x3f9ce292ff20604e	0.028208062001880578
81	0xbf94597f86d1b817	-0.01987265835162341
82	0xbf92a1962b168842	-0.018194528941997364
83	0x3fae246e4330e247	0.05887169428064403
84	0x3f8865d0709cd6ad	0.011912945210137716
85	0xbf9c409366004f40	-0.027590087032947297
86	0xbf784f0e3d1136e1	-0.005934768313705625
87	0x3f8e6ab7fae0cd90	0.014851987212842116
88	0x3fa187ab480656d0	0.03423819784363291
89	0xbfadddc162630a22	-0.0583324844933666
90	0x3fae77e439ca37c2	0.0595084496063545
91	0xbf91e97c9b625a73	-0.01749224375142906
92	0xbf92ab279df73341	-0.01823102857251802
93	0x3fa06406fd92580d	0.03201314778668527
94	0xbfaa47f0a52755bd	-0.05133010879550735
95	0x3fa79c4d43504205	0.04611436316202248
96	0x3f5c26ff8f05901b	0.0017182822885724095
97	0xbf8a909e33b5c935	-0.012971149399821339
98	0xbf6667ac9582eb66	-0.002734982565099231
99	0xbf90fa869033586c	-0.01658067946558399
100	0x3fa75abc848ca2ec	0.045614138775197904
101	0x3f9e86fb5c418ed6	0.029811789995064363
102	0xbf9186fcd6cc3f58	-0.017116499529094525
103	0xbf9c486061c4daf4	-0.027619844405502428
104	0x3f8ec4974299d14d	0.01502340480804123
105	0x3fa98dcca949285a	0.049909969010130964
106	0x3f743eea00000000	0.004942812025547028
107	0xbf933b27e1cecaea	-0.01878034892770134
108	0x3fa7303c85a60742	0.04528988963558202
109	0x3f976c8f1149fa5b	0.022875056677089094
110	0x3f8df8da20470f07	0.014634803876908643
111	0x3fa06e2bc4b71ec9	0.0320905377989767
112	0x3f8fd11ce1c2a293	0.015535569801003823
113	0x3fa2c887bf2d3813	0.036686174475662046
114	0xbf923ba33559414f	-0.017805624133246763
115	0x3fa7268fb4091e38	0.045216074683193275
116	0x3f9d69a449508c3a	0.028723303770800103
117	0x3faa542df6e9a7a8	0.051423488989555566
118	0x3fa78d1946837084	0.04599837289581024
119	0x3fa05a24a8726674	0.031937738001215715
120	0xbf9bb459d6af812c	-0.02705517170750331
121	0xbf9c94b7a430bb94	-0.027911061664947903
122	0x3faa1539c0000000	0.05094318836927414
123	0xbfa666fdbbee86c3	-0.04375451010788602
124	0x3fa112d08743e81c	0.03334666873156797
125	0xbf74af5e7a3868b6	-0.005050057461199289
126	0xbfa2375c86c503b9	-0.035578624202123384
127	0x3f80eeb2f6bfcb2a	0.008267782359302329
128	0x3fa099b600000000	0.03242272138595581
129	0xbfae2b78a68c8613	-0.05892540963237649
130	0x3fa3614168c25a22	0.037851375616061014
131	0x3fa5147f9d61678d	0.0411720161070682
132	0x3f531b1adcaecc94	0.0011661302876120648
133	0x3f8aac9700000000	0.013024501502513885
134	0x3fabbc2900000000	0.054169923067092896
135	0x3fa26b777ddb2237	0.03597615634277356
136	0x3f96c8f5f3ac5448	0.022250979421262224
137	0x3face363f42ff226	0.056422351415651925
138	0x3fa3ca7ce4ec2cd0	0.03865423483338193
139	0xbfa1696367f313f7	-0.03400717395701485
140	0xbfa7c1c5abcd7944	-0.046400239202500276
141	0x3f693efaf39daaa1	0.0030817891501347537
142	0x3f777820e387978f	0.005729797813250572
143	0xbf7e1aa93d123325	-0.007349644744988369
144	0x3f850214aa27289e	0.010257874910980565
145	0xbfada71c5684d160	-0.05791557842386186
146	0x3f9633e720304f36	0.021682368602412093
147	0x3fa415541df4c367	0.03922522416758661
148	0x3fac61cf8abcc3f5	0.05543373650142051
149	0xbf84d569d0f6ed82	-0.010172678651420911
150	0x3f95510b0b246e58	0.020816967539856485
151	0xbfa863c02377661e	-0.04763603623332478
152	0xbfacf2780b4b2ec8	-0.056537391070006715
153	0xbfa8f5ca64e41e85	-0.04875023347454736
154	0x3f7b500a1f1dd12a	0.00666812852601976
155	0x3fa90b490c85df76	0.04891422536724026
156	0x3f7cfea2a8997bbe	0.007078776726841816
157	0xbfa9951300000000	-0.049965471029281616
158	0x3f9c5d6adb1cc21a	0.027700109122806273
159	0xbfa394dcee8231a5	-0.03824510966760223
160	0x3f90d55761f0812e	0.016438832619429515
161	0xbf2ebfa66d4e7f08	-0.0002345934541638716
162	0x3f97a4115dbbf8c2	0.02308680662735508
163	0xbfa7610e4d48a485	-0.04566235249905851
164	0x3f76760c6f9c2cb6	0.0054836736469596106
165	0xbfa0e92c1c2a0127	-0.033028963506696755
166	0x3f963fb88a90d319	0.02172745080698055
167	0xbfa84db5ebce1af8	-0.04746788505058491
168	0x3fa3823f1d961071	0.038103077279658566
169	0xbf9e39ef9a6b026d	-0.029517883109976873
170	0x3fabd07625a8190e	0.05432481012035072
171	0x3f81d15ae1070cb4	0.008700094215674838
172	0x3f9847035257667f	0.023708393002243696
173	0x3faadb33e3540f79	0.05245363378528984
174	0x3f9145dfeded2b6b	0.016868113419416114
175	0xbf964248a79e22c4	-0.0217372276597725
176	0x3fab5012f7ae6c3e	0.053345291838205786
177	0x3facaa243847adac	0.055985576505772044
178	0x3faa6b42bac52f54	0.0515995839110405
179	0xbf4483a423e38000	-0.0006260444131633847
180	0x3f94660a2869f77a	0.019920500485106164
181	0xbf95008ab40729db	-0.020509879339252506
182	0xbf363b94924b0e80	-0.00033924462540489003
183	0xbf9ebdf400000000	-0.030021488666534424
184	0xbf9f26d750a375fd	-0.030421604439530004
185	0x3fac0325b7a7e3ed	0.054711512249873674
186	0xbf98c56480000000	-0.024190492928028107
187	0xbf9fef155589cf9c	-0.03118546804985521
188	0xbfa9fbbe33c1ce98	-0.05074877149391205
189	0x3f917df87fd3404b	0.017082102586585084
190	0x3f802b697cdf6593	0.007895301936445864
191	0x3fa29aa3391be47b	0.03633604118471908
192	0x3fa431348b3fdf7f	0.039437906263571236
193	0x3fac82d921a35441	0.05568579230899973
194	0xbfaa8e915a8cb2fd	-0.051868955901545256
195	0xbfa54fb72de4996a	-0.041623806335610095
196	0xbf618fd828ec9006	-0.0021437856552370986
197	0xbfa300dca8f825cc	-0.037115951181543844
198	0x3facb59133df8443	0.05607274778572748
199	0xbf89f45b891571ed	-0.01267310630890336
200	0xbfa3f22d6a2a8f7f	-0.03895704194044835
201	0xbf78109266114807	-0.00587517916672376
202	0xbfaa47b6087f8d6a	-0.05132836202372
203	0xbfaf35c0f5425d71	-0.060956983507987846
204	0x3f9ad08541857242	0.02618606769952892
205	0xbfab3257993a9657	-0.05311845536679687
206	0xbfa620d8a1ae7a17	-0.04321934674884547
207	0x3fa28fe1c0000000	0.03625398129224777
208	0x3f7c4873d52096e2	0.006905033560576009
209	0xbf9b4ee5764720d3	-0.026668153137308814
210	0xbf81f3d4afe276db	-0.008765851609776323
211	0x3fa3be6e725b67d4	0.03856225152931328
212	0xbf85f17ffc5a9b62	-0.010714530838709716
213	0xbf7c7867acd65e88	-0.006950764637984393
214	0xbf92f15ce6c2073b	-0.018498851379724384
215	0xbf5343b39c75e6e6	-0.0011758092894908422
216	0x3faa0683fad3a206	0.05083095967149025
217	0xbfac84fc8e05835f	-0.0557021067968495
218	0x3f88869f0f6ab57d	0.011975519807800645
219	0x3f9ca133ab512dde	0.027958686190954533
220	0xbfa05a68dc861d08	-0.03193977062169934
221	0xbfb00fd360110f6d	-0.06274148078324311
222	0x3f90b0aba1f968dd	0.016298944245456738
223	0xbfae28ce261cdcfe	-0.05890506949656958
224	0x3fa668565026c003	0.04376477936182257
225	0x3fa594be1ae5a650	0.0421504409631096
226	0xbfa13e6efc623f2a	-0.03367945509773869
227	0xbf9080d37bc19e58	-0.01611643259857795
228	0x3fada83ad8e77c85	0.05792411706692583
229	0x3f98994cee2def99	0.024022295033759276
230	0x3fac6033cdce2b6d	0.05542146575233784
231	0xbfa03e7d3f293701	-0.031726755104143585
232	0xbf3bef8db30fe3b9	-0.00042626580676557616
233	0x3f8acdaa7388b7b7	0.013087588930911538
234	0x3faeabb0cd01912c	0.05990364553943758
235	0x3f80a6b073ae2eb2	0.008130434541974683
236	0xbf968285dd68efb4	-0.021982280386722855
237	0xbf9dd2cb5751923b	-0.029124428944117247
238	0xbfa9656000000000	-0.04960155487060547
239	0x3f801861fca6329d	0.007859006426565169
240	0xbfa89330b5a9ff3a	-0.047997972656047286
241	0x3f8fc9e00ab56c9d	0.01552176506691288
242	0xbfa0463c0626b1c8	-0.031785846472618895
243	0x3fadb1bfc91fbaae	0.057996743489515765
244	0x3f60250705389baa	0.0019707810513582462
245	0x3f76116dc33216b5	0.005387715110492121
246	0xbf71375b5ca27cab	-0.0042031830618320205
247	0x3fad7a25c0000000	0.057572536170482635
248	0x3f68f03525014a48	0.0030442274074087596
249	0xbfac9abdf4e05c10	-0.05586808790410924
250	0x3fa077f6599d08c3	0.032165239752900664
251	0x3f7ef8ed11231165	0.007561613123645426
252	0xbf9f05a8546218e5	-0.03029501929315694
253	0x3fa652f05708c844	0.04360152304106227
254	0xbfa2b22a73694b29	-0.036515547359746776
255	0xbfa1b666078c3a3c	-0.03459471552024637

layer1.bias f8 [256]
0	0x3fa588186a7f586f	0.04205395030992142
1	0x3fa6f30183822cc7	0.04482273798301999
2	0x3fa5ecd54499f93c	0.04282251799030454
3	0xbf820b12bfb68456	-0.008810183024993073
4	0xbf952e635373a167	-0.020684768646704123
5	0x3f8c91170fb1a603	0.013948612371865293
6	0xbfaf4146e6146cee	-0.061044898591910854
7	0xbf985f60aae948e8	-0.02380133670005416
8	0x3fad0cad659ec1ad	0.056737345366289695
9	0xbf9c7c998a19f173	-0.027819060377156157
10	0x3f85c4611b55034d	0.010628470083817421
11	0x3fa0d0e6e92bca6c	0.032843795741332865
12	0x3f8a726eec3ee2d9	0.012913576683659599
13	0xbf909fad228c2d20	-0.016234116777053775
14	0x3f85aad7915b94cb	0.01057976162287346
15	0xbfa1ee40c6c7977f	-0.03502085138806787
16	0xbf9fcc3257010738	-0.031052385864547477
17	0x3f8f4f040a9caeac	0.015287429403165596
18	0xbf82026cb5a49c6c	-0.008793687146477512
19	0xbf881b5e8ac4e093	-0.011770952806373003
20	0xbfa8a4efc0000000	-0.04813336580991745
21	0x3f915001234acf66	0.016906755236689185
22	0x3fa09faf366a8df3	0.03246829547176935
23	0xbfa3cbbb00000000	-0.03866371512413025
24	0xbfa821d58ece8e8b	-0.04713313453910669
25	0x3fb1e422c32afce2	0.06988732590524507
26	0xbf7e4c918d1adf41	-0.0073972402184877
27	0xbf6fd88c00000000	-0.0038874372839927673
28	0x3f9fbdf2df402a9f	0.03099803435911019
29	0xbfa87a6800000000	-0.04780888557434082
30	0xbfa2d93e5443c8e8	-0.036813686166981274
31	0xbfa352ebff35790a	-0.03774201860754729
32	0x3f5768ecffa882dc	0.0014288248481834553
33	0x3f9bea42cbb8dd82	0.027260821994983704
34	0xbfadeb6bd90ebad7	-0.05843674683216243
35	0xbfa7f67e3b3d6412	-0.046802468043729686
36	0xbf983bec52a54bd3	-0.02366608862332582
37	0x3f81d1cf7ddf327e	0.00870096304779477
38	0xbfaa80cfceb63e70	-0.05176400564516548
39	0xbf9631dd6b5a4552	-0.021674594571384383
40	0xbfa232828cfe3781	-0.03554161044222238
41	0xbfae912dc6cc65ba	-0.05970137645472158
42	0x3f882dffd9fd9fae	0.01180648693089367
43	0x3fad8ecd714edde7	0.057730121690322815
44	0xbf70b9a527638c92	-0.004083294994617808
45	0xbfa8dc1b2510a8b5	-0.04855427577452202
46	0xbf9d56f432950ab8	-0.028652015292446292
47	0x3fa89e955d937e8b	0.04808489577567084
48	0x3fae59ff1d428794	0.059280369111788606
49	0xbfaeba9940000000	-0.060017384588718414
50	0x3f9127d000000000	0.016753435134887695
51	0xbf6bde3b0f1587b3	-0.003401866292436184
52	0xbfa35a9b988c3b96	-0.037800657626681985
53	0x3f92d700818f8302	0.018398292453528427
54	0xbfa19086c0000000	-0.03430577367544174
55	0x3fa84d6558a229f6	0.047465483731759336
56	0x3f9c3d5280000000	0.027577675879001617
57	0xbf65eb3a56d731a5	-0.0026756419599449238
58	0x3fabaad52f75ecc4	0.054037725490127225
59	0xbfa1ab6ff89b632e	-0.034511088464290615
60	0xbf870ee83dce2a17	-0.0112589019643297
61	0xbf930e3d00000000	-0.018609002232551575
62	0x3f9569bfac732d4c	0.02091121187258453
63	0xbfa47d4bec779f5d	-0.0400184370189993
64	0x3f67d58c00000000	0.002909444272518158
65	0xbf90d566b9cdffa6	-0.01643906125127583
66	0xbfaa47d701c87e1b	-0.051329344718620905
67	0x3fa05bd8be66f2cf	0.031950734369706184
68	0xbfa161b6cdf2ac2b	-0.033948624267701476
69	0xbfaeb93ceaa2a369	-0.060007003442769165
70	0xbf7e0e8a5bbdc494	-0.007338085615502216
71	0x3fa4f48ee2c74074	0.040928330595876
72	0x3f8ce9c9e5681a73	0.014117791474757646
73	0xbfa77f201c40df64	-0.04589176506891482
74	0x3f800b572ee212ed	0.007834130399950701
75	0x3f9b441fcf09a940	0.026627060901242006
76	0x3faa6929cc527a4c	0.051583582107231324
77	0x3fa82c43677f5bb5	0.04721270216366894
78	0xbfab977f1b4275b3	-0.05389020164259808
79	0xbf9abbd925420641	-0.02610720910934661
80	0xbf80d6ebaab7c423	-0.008222428462405123
81	0x3fa6bbf47ed4e245	0.04440273330914527
82	0x3f7b146b6efe4321	0.0066112705825538695
83	0x3fa77c7db46da278	0.045871666216787454
84	0xbfaa2fd4c0000000	-0.05114617198705673
85	0x3fa01c5259191193	0.031466077209674335
86	0x3f90fa0fedba4870	0.016578911671395635
87	0xbf7b650200000000	-0.006688125431537628
88	0x3fa632c89b60d0ac	0.043356198279441344
89	0x3fa5c3980226fef2	0.042507887137160597
90	0xbfa0b084b257211d	-0.0325967281056043
91	0xbf954ecfa7bffe7a	-0.02080845319141964
92	0xbf88a2764ba36361	-0.012028621848388434
93	0xbf91624eefb138d5	-0.016976579074530946
94	0xbf98e107e4409d34	-0.02429592447893221
95	0x3f7729e5c5b77443	0.005655190990606465
96	0xbf92258c80000000	-0.01772136241197586
97	0x3fac042645b82d0f	0.05471915818278649
98	0x3fa264d1f941837a	0.03592544715571129
99	0x3f93a00180000000	0.01916506141424179
100	0xbf7f2fa3bca29992	-0.007613792035192539
101	0xbf83d10200000000	-0.009675994515419006
102	0xbfab4b2dd79eb3c3	-0.05330794579581479
103	0x3fa653e5a60bb2cc	0.04360883380818378
104	0xbfae4138284f5250	-0.05909133426726909
105	0x3faa94683a75aa48	0.05191350663774991
106	0x3f94e7a614bea1a0	0.020414919868615322
107	0xbfa59ef7a327b918	-0.04222844950332866
108	0xbfa4dffba89a32e5	-0.04077135499128363
109	0xbf99c63200000000	-0.025170117616653442
110	0xbf95334b735d9410	-0.020703486362794676
111	0x3f5aebb6bc543b3b	0.0016431126144344627
112	0x3fa4d401ef306892	0.04067998928822293
113	0xbfa2b17bd69adade	-0.036510343500983686
114	0xbf97583a2a416bf7	-0.022797497586321182
115	0x3f9f0033b5b1d54a	0.03027420803524209
116	0x3fa426eeb939f993	0.03935953150811424
117	0x3fa3318000000000	0.037487030029296875
118	0x3faf50a8f2af2a11	0.061162261604824526
119	0xbfb0739f38418e13	-0.06426425097884474
120	0xbf97b66fa57aee85	-0.023156876063451754
121	0x3f7ef58800000000	0.007558375597000122
122	0x3fa43dbf848dca26	0.039533600741283245
123	0xbf50730b9dc8db93	-0.001003991455162033
124	0x3fa1d07e2be26896	0.03479379926393837
125	0x3fa05c0716f58c46	0.03195211558593107
126	0xbf9063f66301d903	-0.01600632647792911
127	0xbfa2f0e2ef0edcc4	-0.03699406784238016
128	0xbf97f775402bca7b	-0.02340491489571626
129	0x3f885b1600000000	0.01189248263835907
130	0xbf6f49027a4020de	-0.003818993414828594
131	0x3fa05c40182dd111	0.031953814460310544
132	0xbfab790c13d5b3ee	-0.05365789167522182
133	0x3f9545e442cfc24e	0.02077442796502487
134	0x3fae79f659e8f931	0.059524248576496304
135	0x3f7876cfec4452b9	0.005972683142563434
136	0x3fa56468aa1db8f4	0.04178168369877425
137	0x3f9ab86679a1028d	0.02609405629505317
138	0xbf850d3e49936951	-0.01027916585956193
139	0x3f8c5fd8d48fa0d9	0.013854688631866828
140	0xbfb16caab1a3d6c0	-0.06806437336839632
141	0xbf928830e30f4fb7	-0.018097652300482738
142	0xbf97acc79bfc49d7	-0.023120039840316266
143	0xbfa3850fedb3bb2e	-0.03812455917965561
144	0xbfab76ecfb21c736	-0.05364170613837731
145	0xbfad5de7a353c513	-0.05735706204166937
146	0xbf996a0b93b69f6c	-0.02481859292097914
147	0xbf6d16686791b965	-0.003550723948641354
148	0xbfae83a4c0000000	-0.05959811061620712
149	0x3fa59004fc341531	0.04211440638213516
150	0xbf801ab100000000	-0.00786340981721878
151	0x3f73e6b3e19dad32	0.004858687077880662
152	0x3fa2f9ea4f2dc556	0.037062952199344565
153	0xbf90298f56262a8d	-0.015783538468478176
154	0xbf9919504a34bb3c	-0.02451062634389277
155	0x3f93c34b7bc2fd45	0.019299678257764147
156	0xbfab90afbd8c8afb	-0.05383824528532518
157	0x3fad970b33099f94	0.05779299734132262
158	0xbf8680522ef01b10	-0.010986940438682008
159	0xbf9010c566e91e7a	-0.015688976675191736
160	0xbf97affce14be910	-0.023132277728088957
161	0x3f90b6f4ef4cb646	0.016322924714748298
162	0xbfa626e644ebf4bb	-0.04326552954987891
163	0x3f82c4e500000000	0.009164609014987946
164	0xbf89bd3c31f67c04	-0.012567968630547106
165	0x3fa1e742c0000000	0.03496750444173813
166	0x3fabf8b715121160	0.05463192112168502
167	0x3f9b6758eb332f12	0.026761426310982613
168	0xbf851b3274b0bd3b	-0.010305780588253035
169	0x3f8a35b5dd6088e9	0.012797756975548373
170	0x3fa2a0e0d7d03e71	0.036383653969207404
171	0x3fb2146f75a27ce1	0.07062431928578718
172	0x3fa5eca8fa90f751	0.04282119806928953
173	0x3fad44580fea8205	0.057162048285366786
174	0x3fa5807915285620	0.04199579604407355
175	0xbfb0148551823554	-0.06281312217671103
176	0xbfa48da887baa74b	-0.04014326722001601
177	0xbfa4dc86f8725716	-0.04074498923107066
178	0x3fa3269a847011eb	0.03740389696762122
179	0xbf53a002f2ab6377	-0.0011978176868778481
180	0xbf9d237c91b70dfc	-0.028455683130017548
181	0xbf93cd10707ce2b9	-0.019336945405685955
182	0x3f970709164e546f	0.0224877757896888
183	0xbfa111fc00000000	-0.03334033489227295
184	0xbfad399b80000000	-0.05708013474941254
185	0xbfaf8dce9e875892	-0.06162877736248719
186	0xbfa3779ea0e472f0	-0.038022000446494064
187	0x3f8e84f102b975e1	0.014902003188747183
188	0xbfa968901bdc3f1d	-0.049625876809044046
189	0xbfa0addb0314b5f1	-0.03257641232117326
190	0xbfad352a3bba139c	-0.05704624156081836
191	0xbfac1cf5c0000000	-0.054908446967601776
192	0xbf6271f820db834f	-0.0022516103989435386
193	0x3fa74de67c587071	0.04551620738877283
194	0xbf9345d08f609c6d	-0.018821009398518763
195	0xbfadbd766631171d	-0.0580861091371345
196	0xbf9b57692517c1fb	-0.026700632943120067
197	0xbf9cfafd6467cae8	-0.02830120015455409
198	0x3f9feddeb926531a	0.031180839586869437
199	0x3f5faba41b0bae7e	0.0019330122560700376
200	0x3f7b2bbfb68d93c4	0.006633519057548779
201	0xbf9a21fabc1a7cfc	-0.025520246249127063
202	0xbf91baca3c83d73b	-0.017314109748404177
203	0xbfa7429a84d93dcd	-0.04543002006232264
204	0xbfa33b920a2b1653	-0.037563861600159364
205	0xbf96900dcb9be5c1	-0.022033896972947668
206	0xbf923b02e0738341	-0.017803235005774857
207	0x3f979afc11d14074	0.02305215700863568
208	0xbf5de21cfabc57e6	-0.0018239291193302642
209	0x3f81ec57eb0309e8	0.0087515705676013
210	0xbfa33a47442746a4	-0.03755400378180454
211	0x3fa720bbf992edfa	0.04517161771351748
212	0x3f950b2200000000	0.020550280809402466
213	0xbfae796d41292d8d	-0.05952016277714298
214	0x3f696e69c21d319e	0.0031044068900085283
215	0x3fa44b07157f004d	0.03963491570857567
216	0x3f9dc52a595946fb	0.02907243891087939
217	0xbfae9ca0260096a9	-0.05978870834250689
218	0x3fa85af8ab04dcf2	0.04756905639299615
219	0xbf4c63b1cc07a4e2	-0.0008663767003415335
220	0xbfa09d35ecb1f26d	-0.032449422019429665
221	0xbfadca56631ae505	-0.058184337232384954
222	0xbfa2eda4bba74c93	-0.036969325930521844
223	0xbfb13325ecb8a425	-0.06718670873000628
224	0xbfaf14506a133014	-0.06070185942516573
225	0x3fa08eebd0f9db1c	0.032340401897206855
226	0xbf44e8b6c6a8ca84	-0.0006380932293893059
227	0xbf760610ca4329a3	-0.005376878343847843
228	0x3fae57cb56e278c4	0.05926356731036855
229	0xbfadd740faacc680	-0.05828288135525117
230	0xbfab20a2389a1d3e	-0.052983350190567866
231	0xbfa4a609c0000000	-0.04032927006483078
232	0x3fa9ff555d39674f	0.050776164655600746
233	0xbfa8f8086f659739	-0.04876734123062793
234	0xbf9717efde3c75bf	-0.022552249850482427
235	0xbf90669bef29e742	-0.016016422722237474
236	0xbfa3632ce9462dff	-0.037866023517462814
237	0x3f677f98a6b5c106	0.0028684598416292032
238	0x3fa13eee40000000	0.03368324786424637
239	0x3fa6c44c476d1b59	0.044466384619730355
240	0x3f972fbd2dae5be3	0.022643047249939385
241	0xbf717440469b6733	-0.004261256291749937
242	0x3fa457eee2015a66	0.03973337658742508
243	0xbfae93b6f717609a	-0.05972072378398359
244	0x3f608502c92f21ce	0.002016549531138368
245	0x3fadc11180000000	0.058113619685173035
246	0x3f95215bce744072	0.020635065532645
247	0xbfa8d00427d33831	-0.04846203790803861
248	0x3fad20ce907bca02	0.05689092172351097
249	0x3fab66b6c0000000	0.05351801961660385
250	0x3f8d2dfa1240169c	0.01424785011478074
251	0x3fa7196142ce78f2	0.04511550846585689
252	0xbfae89f1c4df066d	-0.059646182329299836
253	0x3fa7e63f39490618	0.04667851995737865
254	0xbfa05ee716b76790	-0.03197405006694887
255	0xbf9e732bfe9dfca4	-0.02973622075614614
