python/snapshots/snapshot0.pt (torch_old, 584819 bytes, 6 tensors)

layer0.weight f8 [256, 18]
0	0xbfc643fc20000000	-0.173949733376503
1	0x3f733f9800000000	0.00469931960105896
2	0xbfc749e500000000	-0.18194258213043213
3	0xbfcab76260000000	-0.20872144401073456
4	0x3fb683eac0000000	0.08795039355754852
5	0x3fc5803160000000	0.16797463595867157
6	0x3fb65a09c0000000	0.08731137216091156
7	0x3faafa1b80000000	0.05268941819667816
8	0xbfcb4b95c0000000	-0.21324416995048523
9	0x3fc231ede0000000	0.1421487182378769
10	0x3f8da16e00000000	0.014468058943748474
11	0x3faf446780000000	0.061068758368492126
12	0xbfc8c44500000000	-0.193489670753479
13	0x3fc03764a0000000	0.12669046223163605
14	0x3f9a553f00000000	0.025715813040733337
15	0xbfba07d100000000	-0.10168176889419556
16	0x3fa5684280000000	0.04181106388568878
17	0xbfc10157c0000000	-0.13285347819328308
18	0x3faa276cc116569e	0.05108203751585204
19	0x3fb087b4e08b2b50	0.06457071764013489
20	0xbf9f30907dd352c3	-0.03045869605996888
21	0xbfcde3e6afba6a57	-0.23351749020078458
22	0x3f532dd822cad416	0.0011705980970593325
23	0x3fc9c17c1fb5c069	0.20121718929613344
24	0xbfa77cf90dbd49c1	-0.04587534229962698
25	0xbfc98fe85b17f536	-0.199704212645807
26	0x3fc6743bf30290bc	0.1754221855709427
27	0x3fa44abca1becf2f	0.03963269686155823
28	0xbfc77c5672411797	-0.18348198489019005
29	0x3f9d55b602fc5ce6	0.028647273952711404
30	0xbfc2366a6fba6a57	-0.1422856374309329
31	0x3fa96a6cc116569e	0.04964008194944579
32	0xbfc75d196fba6a57	-0.18252866702535428
33	0xbfc1ba05efba6a57	-0.13848947720983304
34	0xbf9bea34d0f15a0d	-0.027260613682608837
35	0x3fcad1d8f19ae0e7	0.2095290355407606
36	0xbfb445ae00000000	-0.07918822765350342
37	0xbf976c4c00000000	-0.022874057292938232
38	0xbfcc62f400000000	-0.2217698097229004
39	0x3f434aa000000000	0.000588729977607727
40	0xbfc1455580000000	-0.1349284052848816
41	0xbfc845cc60000000	-0.18963007628917694
42	0xbfc32db9a0000000	-0.14983291923999786
43	0xbfc48a5c60000000	-0.16047243773937225
44	0xbfc1afe3e0000000	-0.13818024098873138
45	0xbfc32d3960000000	-0.14981763064861298
46	0x3fcd48d920000000	0.2287856489419937
47	0xbfb49f5540000000	-0.0805562287569046
48	0x3fb0016740000000	0.06252141296863556
49	0x3fadb9d180000000	0.05805830657482147
50	0x3f985e8900000000	0.023798123002052307
51	0xbfaf783d80000000	-0.06146423518657684
52	0x3fbfc17340000000	0.12404556572437286
53	0xbfcb922280000000	-0.2153971791267395
54	0x3fb69228f6487ad2	0.08816772473117432
55	0x3fc4e19c3b243d68	0.1631350792672308
56	0xbfc7dc7984dbc298	-0.18641585337856692
57	0x3fa2f446ec90f5a0	0.037019935968128026
58	0x3f4ef87b243d6814	0.000945148589816871
59	0x3fc8ba83268c77e3	0.19319190389882043
60	0x3fbdde1fd2ae2d1d	0.11667059796871056
61	0x3fc637b902c0fc70	0.1735755217978041
62	0xbf966157f4c929de	-0.021855711284198047
63	0x3fcd1e2e5378bcbb	0.22748354984057592
64	0xbfc2cd56873ec8fb	-0.14689141849300555
65	0x3fb508aa22eb149c	0.08216346123215817
66	0xbfc9c89024dbc298	-0.201433198926243
67	0xbfbf5b4f09b7852e	-0.12248701083401123
68	0x3faeee2fec90f5a0	0.06041097414752561
69	0x3fb0451e76487ad2	0.06355467212459168
70	0x3f7dceeb8ad6cf4d	0.007277412497774649
71	0x3f9e59efd277895c	0.029639956684954213
72	0x3fc09b2a34975ccd	0.12973525588924986
73	0x3f2c2d525d731cd8	0.0002149737399348209
74	0xbfc61a9b6b68a333	-0.1726869844872226
75	0x3fcaa348b4975ccd	0.20810803239758116
76	0x3fc34240b4975ccd	0.15045937364513975
77	0x3fa980e760bce987	0.04981158309824978
78	0x3fb732be7fd4465b	0.0906180440981869
79	0xbfc12013186780e2	-0.13379133884064404
80	0x3fc61affba42e7e6	0.17269894213478593
81	0x3fb9d8c1f3d6b2cd	0.10096370890705515
82	0xbfbafe91e7424ecc	-0.10544692893955271
83	0x3fc297aaa299775a	0.1452534955923806
84	0x3fa6dc0ad25d731e	0.04464753930981245
85	0x3fc4aae7b4975ccd	0.16146560972149474
86	0x3fc42172b4975ccd	0.1572707540314923
87	0xbfca12a40b68a333	-0.203693872042345
88	0xbfc0695bfb37eb10	-0.12821531073117187
89	0x3fb49321aef11d7a	0.08037004967729003
90	0x3fbf5c85cd999b2d	0.12250553388149106
91	0x3fcb248b26cccd98	0.21205272097141115
92	0xbfa0e1abe4ccc9a0	-0.03297173660247954
93	0xbfcbfb04b9333268	-0.21859797518699797
94	0xbfbbda80326664d3	-0.10880280714481509
95	0x3fb1587c93075e29	0.06775644864625775
96	0xbfcd4bc636810112	-0.2288749471790728
97	0xbfbcd28c20ddb674	-0.11258769800562068
98	0x3fbafb17f71d3260	0.10539388449724063
99	0xbfc8391cdcfe0740	-0.18924294272079045
100	0x3fc9c2a0daa15c2e	0.20125208545025103
101	0xbfbbe0f0896dcd87	-0.10890105586240938
102	0x3f99068736666cba	0.024438965506857292
103	0xbfc1ffbf59333268	-0.1406172929331604
104	0xbfbb0e43326664d3	-0.10568637829273379
105	0xbfb7677cf26664d3	-0.09142285268753207
106	0x3fbeb69c7ceb1f80	0.11997392701880294
107	0x3fa8a4ceface9f71	0.0481323891793285
108	0x3fb8d8cb40000000	0.0970580130815506
109	0x3fcce521a0000000	0.22574253380298615
110	0xbfa087cd80000000	-0.03228609263896942
111	0xbfc611ae40000000	-0.17241457104682922
112	0x3fbaa16a40000000	0.10402549803256989
113	0x3fb472bfc0000000	0.07987593114376068
114	0xbfa99a5580000000	-0.05000559985637665
115	0xbfca04b920000000	-0.2032691389322281
116	0x3fcd0a43e0000000	0.22687576711177826
117	0xbfc546d4e0000000	-0.16622410714626312
118	0x3fbceb6f40000000	0.11296744644641876
119	0x3fb1464ac0000000	0.06747882068157196
120	0xbfa34ccc80000000	-0.037695303559303284
121	0xbf9456f100000000	-0.019862905144691467
122	0x3fc77c3860000000	0.18347840011119843
123	0x3fc54034a0000000	0.1660218983888626
124	0x3f917c5f00000000	0.017076000571250916
125	0xbfc0e4e1e0000000	-0.13198493421077728
126	0xbfc851ffaf2c8fc7	-0.19000240376874286
127	0xbfc23ed86f2c8fc7	-0.142542890819753
128	0xbfaded953cb23f29	-0.05845323911591855
129	0xbfaf708c3cb23f29	-0.06140554657861081
130	0xbfa4fce63cb23f29	-0.0409919690220007
131	0x3fbffd8bf598bea8	0.12496256586086452
132	0x3f815e7fa20b568a	0.008481022961329705
133	0x3f9d9f868b297f82	0.028928854221134788
134	0x3fc312b1973a42b0	0.1490079868713301
135	0xbf8dbc072891cfb4	-0.014518791127762977
136	0x3fca099c78f68970	0.20341831118009734
137	0x3fb298e6469b4aea	0.07264556144518122
138	0xbf8d51d8f2c8fc99	-0.014316267880643262
139	0x3fc37dc330d37039	0.15227546581343335
140	0xbfaa600c3cb23f29	-0.051514036568845185
141	0x3fca55de70d37039	0.2057455111415736
142	0xbfce053c898dd2f5	-0.23453480450157085
143	0x3fcad02559480b0c	0.20947710856861368
144	0x3f9532d700000000	0.020701751112937927
145	0x3fb6553a40000000	0.08723796904087067
146	0xbfcb6a1880000000	-0.214175283908844
147	0xbfb1197580000000	-0.06679472327232361
148	0x3fc8489ce0000000	0.18971596658229828
149	0x3f91adc300000000	0.017264410853385925
150	0xbfc7228e20000000	-0.1807420402765274
151	0xbfaf0e1b80000000	-0.06065450608730316
152	0xbfc2dfa340000000	-0.14744988083839417
153	0x3fae8f8280000000	0.059688642621040344
154	0x3fc7b25920000000	0.1851302534341812
155	0xbfa66d9400000000	-0.04380476474761963
156	0xbfc1837fc0000000	-0.1368255317211151
157	0x3fc92bf120000000	0.19665350019931793
158	0xbfc8c55e60000000	-0.19352321326732635
159	0x3fb774f040000000	0.09162808954715729
160	0x3fc3563620000000	0.15106846392154694
161	0xbfcd658ee0000000	-0.22966180741786957
162	0x3fc3c6679d8af2e5	0.15449233238714224
163	0x3fca3ededd8af2e5	0.20504365746992118
164	0xbfccf50d62750d1b	-0.2262284022091102
165	0x3fc9a3599d8af2e5	0.20029754822271353
166	0x3fa76a89762bcb93	0.045734687495403346
167	0xbfb99c8933df22a8	-0.1000447990073875
168	0x3fcc342fb9e7769a	0.2203426034674763
169	0xbfc0fc9b530db270	-0.13270894580218195
170	0x3f9765643ce75394	0.022847715585004716
171	0x3fbf90435f7e9e5c	0.12329503137027004
172	0xbfc9e1e30284735b	-0.20220601675910185
173	0x3f86714d2dacee4f	0.010958292919546113
174	0xbfca0f1b02750d1b	-0.20358598346693033
175	0x3fc12a019d8af2e5	0.13409443085210807
176	0xbfb0d0a8c4ea1a38	-0.06568388755304333
177	0x3f98c70cec579724	0.024196817326717426
178	0x3fb5e0a955af4664	0.0854593118849834
179	0x3fb6e88791009fc4	0.08948561945055561
180	0xbfbd979b60000000	-0.11559458822011948
181	0xbfc1425d40000000	-0.1348377764225006
182	0xbfcac7e3a0000000	-0.209225133061409
183	0xbf84598600000000	-0.0099363774061203
184	0xbfb61f3240000000	-0.08641351759433746
185	0xbf9e7dd700000000	-0.029776915907859802
186	0x3fc5241c20000000	0.16516448557376862
187	0x3fa3bf3b80000000	0.03856836259365082
188	0x3fa1ccf380000000	0.034766778349876404
189	0x3f8db7e600000000	0.01451091468334198
190	0x3fb71b0dc0000000	0.09025655686855316
191	0x3f818be600000000	0.00856761634349823
192	0xbfb4d59ec0000000	-0.0813845843076706
193	0x3fc2670ca0000000	0.14376981556415558
194	0xbfcc358180000000	-0.22038286924362183
195	0x3f93956100000000	0.019124522805213928
196	0x3f71225c00000000	0.004183158278465271
197	0xbfcc76fec0000000	-0.22238144278526306
198	0xbfc345d7c0000000	-0.15056893229484558
199	0x3fa62fc180000000	0.04333309829235077
200	0xbf9e8bdf00000000	-0.029830440878868103
201	0xbfbd009960000000	-0.11329039186239243
202	0x3fcb701d60000000	0.21435897052288055
203	0x3fc7e1ef60000000	0.18658249080181122
204	0x3fcd598f60000000	0.22929565608501434
205	0xbfa8d1af80000000	-0.04847477376461029
206	0xbfc2a68e60000000	-0.1457078903913498
207	0xbfad71cd80000000	-0.05750887095928192
208	0xbfc14e34c0000000	-0.1351991593837738
209	0x3fc7c92b60000000	0.18582670390605927
210	0xbfbcf5a6e0000000	-0.1131233498454094
211	0xbfb5bd7ac0000000	-0.08492247760295868
212	0x3f92cfbd00000000	0.018370583653450012
213	0x3f790b5c00000000	0.006114348769187927
214	0x3fb6ca4b40000000	0.08902426064014435
215	0xbfbe99b0a0000000	-0.11953262239694595
216	0xbfb9f0ebde8d7de6	-0.10133241828361114
217	0x3f96f07485ca0860	0.02240163866600431
218	0x3fbb1699a172821a	0.10581360045990387
219	0x3f9302fa85ca0860	0.018566049972385534
220	0xbfc239e8ef46bef5	-0.14239226993003454
221	0xbfc461fd0da1bf5f	-0.15924037137619515
222	0x3fc80e19ab788ec6	0.1879303061733621
223	0x3fbe064e4b77998c	0.11728371946774113
224	0xbfb5dad371a16569	-0.08537026905232427
225	0xbfad3d258b10dde3	-0.057107136941734436
226	0x3f9471b21b39f47d	0.019964964782492423
227	0x3fb6cec1acc78122	0.08909235447163558
228	0xbfcd7ae52f46bef5	-0.23031296547332372
229	0xbfaad3c8bd1afbd4	-0.05239703472533788
230	0x3fc8bffd90b9410b	0.19335908476433192
231	0xbfc15123af46bef5	-0.13528867777267065
232	0x3fa85e3b6108aa8e	0.047593932719185536
233	0x3f955ed474406aad	0.020869559855877174
234	0xbfc4621f40000000	-0.15924444794654846
235	0xbfc2810880000000	-0.14456278085708618
236	0xbf6e05a800000000	-0.0036648064851760864
237	0xbf889eba00000000	-0.012021496891975403
238	0xbfc0e78c80000000	-0.13206630945205688
239	0x3fa0f66380000000	0.033129796385765076
240	0x3fb1574dc0000000	0.06773839890956879
241	0x3fc25b0be0000000	0.14340351521968842
242	0xbfc58bda80000000	-0.16833049058914185
243	0xbfb4bc2180000000	-0.08099564909934998
244	0x3fc03fbd60000000	0.12694518268108368
245	0xbfb8c99300000000	-0.09682577848434448
246	0xbfc0732e00000000	-0.12851500511169434
247	0xbf8b5a7000000000	-0.01335608959197998
248	0xbfbe49b780000000	-0.11831232905387878
249	0xbfcc079ac0000000	-0.21898207068443298
250	0x3fb073c6c0000000	0.06426660716533661
251	0xbfc7292420000000	-0.18094302713871002
252	0xbfb3e70200000000	-0.07774364948272705
253	0x3fb1b64dc0000000	0.06918798387050629
254	0xbfbfbaa400000000	-0.12394165992736816
255	0x3fc2f1cda0000000	0.14800424873828888

layer0.bias f8 [256]
0	0x3fbd1974c0000000	0.11366967856884003
1	0xbf84a3fefba6a57d	-0.010078422598627007
2	0x3fa8c6b180000000	0.048390910029411316
3	0x3fc56f9b7b243d68	0.16746848595401365
4	0x3f842fa34975cc79	0.009856486968351274
5	0xbf6511764ccc9a3e	-0.002571803145104994
6	0x3fa3ec7880000000	0.03891350328922272
7	0xbfc43f5c4f2c8fc7	-0.1581836115448125
8	0xbf5e4dd000000000	-0.0018496066331863403
9	0xbfb8f6b484ea1a38	-0.09751442189199444
10	0x3fa8be6d80000000	0.04832784831523895
11	0x3fb3011340000000	0.07423515617847443
12	0xbfb2dd6f5e8d7de6	-0.0736913305131491
13	0x3fba1ac540000000	0.10197098553180695
14	0xbf846ba000000000	-0.009970903396606445
15	0xbfc3f10fd27ea70d	-0.15579412248671823
16	0xbfc5def480000000	-0.17086654901504517
17	0x3fc5055c60000000	0.16422609984874725
18	0x3fadbacaf1f64463	0.0580657406200167
19	0xbf91019559047c40	-0.01660760265178518
20	0xbfb1ce9f35530519	-0.06955905010092457
21	0xbfc6efca00000000	-0.17919278144836426
22	0x3f8bfa72e6da9a63	0.013661286993124471
23	0x3fc5eccd87213dfc	0.17128914926659877
24	0xbfb3490840000000	-0.0753331333398819
25	0xbfa2789e80000000	-0.03607650101184845
26	0xbfc5674e80000000	-0.16721516847610474
27	0xbfbd4e9e3be5714d	-0.1144808670264343
28	0x3fc258ef20000000	0.14333905279636383
29	0x3fabfdfe7b76bf97	0.05467219597937783
30	0xbfc6a819ba3693ba	-0.1770050200695133
31	0x3fc2b66520000000	0.14619125425815582
32	0xbfccac80a0000000	-0.22401435673236847
33	0xbfc9f89fc0000000	-0.20289990305900574
34	0xbfb15da9c0000000	-0.06783543527126312
35	0x3fc7505fa0000000	0.1821403056383133
36	0x3fcc690b60000000	0.22195570170879364
37	0x3fcb5acc85b2bb56	0.2137084629843808
38	0x3fc542afe0000000	0.16609762609004974
39	0xbfc4e0f30832477c	-0.16311490917410854
40	0x3fcd3db320000000	0.22844542562961578
41	0xbfb2d29000000000	-0.07352542877197266
42	0xbfc51a67dfff5d18	-0.16486833989504457
43	0x3f8e843a00000000	0.014900639653205872
44	0x3fb6c0c340000000	0.0888788253068924
45	0xbfbaf8bc344e3ad9	-0.1053578975390609
46	0x3fcc96bc915032df	0.22335011573195282
47	0x3fcc61f820000000	0.2217397838830948
48	0xbfca8dc0de0f1032	-0.20745097010342445
49	0x3fb1144940000000	0.0667157918214798
50	0x3fc5dbda60000000	0.17077188193798065
51	0x3fcb09209b05fab7	0.21121604508876654
52	0xbfa003d0f7ad94f3	-0.03127911590017076
53	0xbfcac4797b059ddc	-0.2091209269230906
54	0x3fa8e2738a12f334	0.048602686505068965
55	0x3fa3571780000000	0.03777383267879486
56	0xbfb507e0aaae3fe4	-0.08215145270355567
57	0xbfc66eb400000000	-0.17525339126586914
58	0xbfa7bf2e80000000	-0.04638047516345978
59	0x3fc361efb2c4466b	0.15142627934305905
60	0x3fc94765adfd6ced	0.19749136920550062
61	0xbf90c1ac27566d10	-0.016363801861740745
62	0xbfafb02680000000	-0.061890795826911926
63	0xbfcc4d0ba0000000	-0.22110123932361603
64	0x3fc3d458e1fd263c	0.1549178222142461
65	0x3fcdbc8b20000000	0.23231638967990875
66	0x3fcab207e0000000	0.2085580676794052
67	0x3fcb340cbfa0e9a8	0.21252593380797902
68	0xbf9949aa00000000	-0.02469506859779358
69	0x3fcb6aabf2810102	0.2141928609944515
70	0x3fc0887d20000000	0.12916530668735504
71	0x3fc296bf4ea26869	0.14522544231005277
72	0x3f9079d4c9f1698a	0.016089749169944358
73	0x3fca17c7308dabd5	0.20385064955493584
74	0xbf80a56200000000	-0.008127942681312561
75	0x3fbd9f461289d161	0.115711574102368
76	0xbfc3a44320000000	-0.1534503847360611
77	0xbfb2b949606cd984	-0.07313974956637109
78	0xbfb8c1103a3701ce	-0.09669591351758486
79	0xbfcbd0a4089d5a97	-0.21730471058500164
80	0xbfc5a38eba969647	-0.16905387984040685
81	0xbfc37c0a4310d380	-0.15222290301030839
82	0xbfc85f6880000000	-0.19041162729263306
83	0xbfb19411c7e983fd	-0.06866561060589045
84	0x3fc4a9d520000000	0.1614328771829605
85	0x3fcde9b720000000	0.233694925904274
86	0xbfcd8c4fc0000000	-0.23084446787834167
87	0xbfc3bde56dd05aa9	-0.15423267232900642
88	0xbfb04053e1109626	-0.06348156208749653
89	0x3fc3d0ac60000000	0.15480570495128632
90	0xbfbc55a38137e523	-0.11068174271340019
91	0xbfc17148f79451b3	-0.13626968468510156
92	0x3fc7b69fbd43e40d	0.18526074162926456
93	0xbfb85221992e3a35	-0.09500322332153462
94	0xbfa5582c00000000	-0.04168832302093506
95	0xbfc3c55420000000	-0.15445949137210846
96	0xbfc56b4939baa0bf	-0.16733661001967978
97	0x3fc569f33c3e81c9	0.1672958416138626
98	0x3fcb5b8620000000	0.213730588555336
99	0xbfa461fa00000000	-0.039810001850128174
100	0xbfb44e5217aa142c	-0.07932007863753715
101	0x3fc45ec160000000	0.15914170444011688
102	0x3fcb33f860000000	0.21252350509166718
103	0x3fbf12b5c0000000	0.12137924134731293
104	0xbfcc9c5da0000000	-0.2235219031572342
105	0x3fc68f7a1b597559	0.17625356994077881
106	0xbfcbfdae20000000	-0.21867920458316803
107	0x3fb8456640000000	0.09480895102024078
108	0xbfc6516a15ad8824	-0.17435957010735692
109	0xbfb1e1058e10c750	-0.06983980863949779
110	0xbfb7321353948825	-0.09060784140140805
111	0xbf95384774b6e1af	-0.020722500322990885
112	0x3fc504b160000000	0.16420571506023407
113	0x3fc1a603e0000000	0.137878879904747
114	0x3fcd4f68a0000000	0.22898586094379425
115	0x3fb4b7b8c31b8af5	0.08092837108010172
116	0xbfacd5ed3f3e927d	-0.05631963154818196
117	0xbfb1efa400000000	-0.07006287574768066
118	0x3fc5760ba0000000	0.16766496002674103
119	0xbfc75551c0000000	-0.18229123950004578
120	0xbfb83ac5ae6bd8cd	-0.09464679249126391
121	0x3fc629770afb2a80	0.17314041172206274
122	0x3fcceeb460000000	0.22603468596935272
123	0xbfa19d389455019e	-0.03440262613958399
124	0xbfc95b1d80000000	-0.19809311628341675
125	0x3fce1a2af0e0701b	0.23517357598837027
126	0x3fb9fb8bc0000000	0.10149453580379486
127	0xbfc218b9a0000000	-0.14137955009937286
128	0x3fb1924ac0000000	0.06863848865032196
129	0x3fc666cb20000000	0.17501200735569
130	0xbfa7971ce5612ce1	-0.04607477474254452
131	0x3f92f70d10d05874	0.018520549918399756
132	0x3fca91e85c5426cf	0.20757774837721008
133	0xbfa6333380000000	-0.043359383940696716
134	0xbfc896e940000000	-0.19210544228553772
135	0xbfc45a2f40000000	-0.15900221467018127
136	0x3fbea95a8fefbb55	0.1197716332824091
137	0xbfb9fb7ab31bff11	-0.10149351952349785
138	0x3fb4b10940000000	0.08082635700702667
139	0x3fc38a605b6f10b0	0.15266041245025042
140	0xbfc05d3600000000	-0.12784457206726074
141	0xbfbcccce00d5142c	-0.11250007171936777
142	0x3f9fb609c1cb02a1	0.030967857793032242
143	0xbfb18c5b585b4355	-0.06854792506352443
144	0xbfcddfe00ecce1cc	-0.23339462969467062
145	0xbfb131349e28eafe	-0.06715706693004717
146	0x3f67fcf838ff27d3	0.0029282425020697805
147	0xbfcb26e760000000	-0.2121247500181198
148	0x3fce1d8ee0000000	0.23527704179286957
149	0xbfbf17ed85ae75e7	-0.12145885957439582
150	0x3f96467414ef79cc	0.02175313356189594
151	0xbfab826209f21701	-0.05372911807448411
152	0xbfcdb5d5ea8256f3	-0.23211168242112698
153	0x3fbcc2c0174ce1e6	0.11234665459495083
154	0x3fcd58a19141e1b7	0.22926730721134245
155	0x3fb111d8fcbe7ebf	0.06667858286391047
156	0x3fc5826ce0000000	0.16804276406764984
157	0xbfc5e88d80000000	-0.17115944623947144
158	0x3fc47093e4b78a0f	0.1596855990201935
159	0xbfcd7d0047774c6e	-0.2303772305445792
160	0x3fc92e57e98bbb4a	0.19672678855519116
161	0xbfc07a8c60000000	-0.1287398785352707
162	0x3fc27fee4dca29e5	0.14452914045644075
163	0x3fb3183e934b65b0	0.07458869072015406
164	0x3fc17bbde0000000	0.13658879697322845
165	0x3fc38b8e6ce06a9e	0.15269642177812143
166	0xbfb9305bf457e146	-0.09839415278827798
167	0x3fb2b6a640000000	0.07309950888156891
168	0x3fcd6e3e7b352948	0.22992688194274025
169	0x3fb2537ec0000000	0.07158653438091278
170	0xbfa8fb2200000000	-0.04879099130630493
171	0xbfc490eba8b09210	-0.16067262398532067
172	0x3fc0f78060000000	0.13255314528942108
173	0x3fbdc3d2c0000000	0.11626927554607391
174	0xbfa0f47a88254ae5	-0.03311522399839876
175	0x3fc76f44bc718aa1	0.1830831451544173
176	0x3fa77f90c639da94	0.04589512271643517
177	0xbfb555eb094fd8d8	-0.08334225632993097
178	0x3f92f8024d56362a	0.01852420422578952
179	0xbfb1f8feca80b38c	-0.07020561641611617
180	0x3fb0b891304125c5	0.06531627109611467
181	0x3fc9827bf83f4fe4	0.199294563498028
182	0x3fc7cf4f20000000	0.1860140711069107
183	0xbfc3ff61e0000000	-0.15623115003108978
184	0xbfcd817600000000	-0.230513334274292
185	0x3fa21d07a0adce4c	0.035377729763152205
186	0xbfc1b78f00000000	-0.13841426372528076
187	0xbf94129a7bba149f	-0.019602216531457214
188	0xbfc7b73304d21a84	-0.18527829871546342
189	0x3fc6c7b0a0000000	0.1779690533876419
190	0xbfbbb05440000000	-0.10815931856632233
191	0xbfb519da4f10a044	-0.08242573194786568
192	0x3fb3e1e140000000	0.07766540348529816
193	0xbf69fa7fc951e37b	-0.003171205122779628
194	0xbfc44d27a68913d6	-0.15860458022703366
195	0xbfa6565c93ce758a	-0.04362763695028622
196	0x3f90b116300c0cf5	0.016300532038269606
197	0xbfbbe60b678faf8b	-0.10897895124770522
198	0xbfc755da56e88816	-0.18230752223559027
199	0x3f870d9e6781a652	0.011256444486394877
200	0xbfc306fc403ae0bd	-0.14865067611913743
201	0xbfc1fc47b6252097	-0.14051147836494657
202	0x3f9df8f49d31a536	0.02927000245509711
203	0x3fbaef22c0000000	0.10521142184734344
204	0x3fb40e830b44c52c	0.07834643387902379
205	0xbfbc16213a1bb09c	-0.10971267384201372
206	0x3fc1e095e0000000	0.13966630399227142
207	0x3f99a95100000000	0.025059953331947327
208	0x3fc83c01e0000000	0.1893312782049179
209	0x3fc97517e0000000	0.19888590276241302
210	0xbfc52dcbc89ea77f	-0.16546008392225173
211	0x3fc2159560000000	0.14128367602825165
212	0x3fc1f0c460000000	0.14016012847423553
213	0xbfa28ca5d3f0d482	-0.03622930729071873
214	0x3f80104ea7c70020	0.007843603606374983
215	0xbfbc994a20000000	-0.11171401292085648
216	0x3fb84948c0000000	0.09486822783946991
217	0x3fc24f45a0000000	0.14304418861865997
218	0x3fce18f9aa5a0135	0.2351371843142346
219	0xbfb183f600000000	-0.06841981410980225
220	0xbfb221ea95e3de01	-0.07083002242494986
221	0x3fb7a70ac0000000	0.09239260852336884
222	0xbfc7288fb8d4ec7b	-0.18092533612238867
223	0xbfc4d0b5c0000000	-0.16261932253837585
224	0xbf86b6e80dc2e906	-0.011091053886378887
225	0x3f834ba000000000	0.009421586990356445
226	0x3fb648c81f1528cc	0.08704806097844936
227	0xbfc21c4d69585025	-0.1414887203578711
228	0xbf9bcf794a5de67e	-0.027158637203206208
229	0x3fb5c464c0000000	0.08502797782421112
230	0xbf9b370d00000000	-0.026577189564704895
231	0x3fc977bf20000000	0.1989668756723404
232	0x3fca7fc720000000	0.2070244699716568
233	0xbfb10621c2e6b99c	-0.06649981506664066
234	0xbfb29a7380000000	-0.07266923785209656
235	0xbfa2ffb50492521b	-0.03710714035802117
236	0x3fc5079fe2d87a55	0.16429518295713544
237	0xbfc057a7d3e79d24	-0.1276750359240647
238	0xbfcd16da20000000	-0.22725988924503326
239	0x3fa3a0df80000000	0.03833673894405365
240	0xbfcba7b791e89760	-0.21605581879083058
241	0x3fcbae28a0000000	0.216252401471138
242	0x3fcdce828835aecb	0.2328646817289751
243	0xbfb47a525eef59e9	-0.07999148195026574
244	0xbfb2d93900000000	-0.0736270546913147
245	0xbfa46ee84b0131b8	-0.03990865626892365
246	0xbfbe2c164e13a0a2	-0.11786021619957635
247	0xbfcbe0e220000000	-0.21780039370059967
248	0x3f906f9500000000	0.01605065166950226
249	0xbfc7f00681917577	-0.18701249434063147
250	0x3f9ede6fdc8421eb	0.03014540465759012
251	0x3fc70c7b80c8bf26	0.1800684336499156
252	0x3fb2a1d8c0000000	0.07278208434581757
253	0x3fb827d5c0000000	0.09435783326625824
254	0xbfa531bc90e090db	-0.0413950850345672
255	0x3f9776ff8d37cdbd	0.022914879793416654

layer1.weight f8 [256, 256]
0	0xbf999f6100000000	-0.025022044777870178
1	0x3fa2e53a07e4d5ef	0.03690511080132441
2	0x3fa58a0080000000	0.042068496346473694
3	0xbf9d20ca3ccfd030	-0.02844539638677207
4	0xbfa43d3c16d8b9a9	-0.03952968386544182
5	0x3facc845df02dbaf	0.05621546122841125
6	0xbf9857f480000000	-0.02377302199602127
7	0xbf7e867b2b112dfb	-0.007452469945814051
8	0xbfad997340000000	-0.05781135708093643
9	0xbf74c1ad16cd34ce	-0.005067516450094801
10	0xbf3a220000000000	-0.0003987550735473633
11	0x3fa310a580000000	0.037236377596855164
12	0x3fac91717226af5e	0.05579714315839966
13	0xbfa2c8fb40000000	-0.03668961673974991
14	0x3f913a2700000000	0.01682339608669281
15	0xbfa8697157f92570	-0.04767946432964265
16	0x3fa9a1ef40000000	0.050063587725162506
17	0xbfa4ebb780000000	-0.04086087644100189
18	0xbf884b7b944f7d85	-0.011862721885278269
19	0x3f738def4c23482f	0.004774031405945719
20	0xbf8bde1505f9d7dd	-0.013607181782599948
21	0xbfa59697c0000000	-0.04216455668210983
22	0xbfa9e95774d5b3a6	-0.05060838032918662
23	0xbfa5df80f7dec7ec	-0.04272082353362791
24	0x3f8c58cb00000000	0.013841234147548676
25	0x3f96cf4300000000	0.022275015711784363
26	0xbfa281e780000000	-0.036147341132164
27	0xbf91bf3efaefd1ef	-0.01733110815617239
28	0xbf91142c80000000	-0.016678519546985626
29	0x3fa8d4b09d6d8e0c	0.04849769517639055
30	0x3f972de61b8c712f	0.022636027747567396
31	0xbfae3d1f80000000	-0.05906008183956146
32	0x3f90938f00000000	0.016187891364097595
33	0x3f9e717180000000	0.029729627072811127
34	0xbfa6a313c0000000	-0.04421292990446091
35	0xbfa701af00000000	-0.0449347198009491
36	0x3f97862100000000	0.022972598671913147
37	0x3fa7e82ac93e17ab	0.04669316965650635
38	0xbfa8f04b80000000	-0.04870830476284027
39	0x3f88d49eadb2d4f1	0.012124290157184055
40	0x3f9dbdb600000000	0.029044002294540405
41	0xbfa8e1eb40000000	-0.048598624765872955
42	0x3fa72ddf4dbbeeba	0.045271852721240305
43	0x3fa62406c0000000	0.04324360936880112
44	0x3fac6ef080000000	0.05553390085697174
45	0xbf9600b4aeda98bf	-0.02148706738685102
46	0xbf923ec0ec97e1a6	-0.017817511024959785
47	0xbf68de6000000000	-0.00303572416305542
48	0xbfa842fd224f0b63	-0.0473860840206928
49	0x3fa2e32200000000	0.03688913583755493
50	0xbfa4e25340000000	-0.040789224207401276
51	0xbf9e440ed2ce943e	-0.02955649530089865
52	0xbf971ab9693b2534	-0.022562882468979598
53	0x3faa42e4c28e1c67	0.051291607617763905
54	0xbfac3d4132bbe12c	-0.05515483612356528
55	0xbfac2cda80000000	-0.05502970516681671
56	0x3fa5922b8ed7cf92	0.04213081473054027
57	0x3f71791a00000000	0.004265882074832916
58	0x3faf688f00000000	0.06134459376335144
59	0xbf913ce5d6b5947d	-0.016833869199576846
60	0x3fa4dd6f0b6d52d2	0.040751905579474404
61	0x3fa3746b72bec9c2	0.03799758697222756
62	0xbfa7ca6280000000	-0.04646594822406769
63	0xbf9bcd9680000000	-0.0271514430642128
64	0x3fac8204d1857024	0.05567946488983491
65	0x3f9fa98980000000	0.03092017024755478
66	0x3f96fa3e80000000	0.022438980638980865
67	0x3f8dfdd9e8decb0d	0.014644339007508412
68	0xbfa57be240000000	-0.041960783302783966
69	0xbfa8a402a5f5d7b4	-0.048126299628094144
70	0x3f7b10a200000000	0.006607659161090851
71	0x3f79712e767b0501	0.006211453910226484
72	0x3fa61f183330dc34	0.0432059824456065
73	0x3f877633d7f6bf81	0.011455922153657873
74	0xbf93100100000000	-0.018615737557411194
75	0xbfa40a49126545b9	-0.03914097165637593
76	0x3fada3d2c0000000	0.05789049714803696
77	0x3faef8c5d22a6e59	0.060491735367773365
78	0xbfade95f0672e092	-0.05842110589714013
79	0x3f81828f080edb42	0.008549802239810615
80	0x3f9e2c0ac120b1ba	0.029464881932811805
81	0xbf93eb908224c4b3	-0.019453294699989864
82	0xbf92a1a980000000	-0.018194817006587982
83	0x3fae4d24e0bb3d15	0.059182312424690554
84	0x3f88913700000000	0.011995725333690643
85	0xbf99fd3680000000	-0.02537999302148819
86	0xbf7615d800000000	-0.005391925573348999
87	0x3f918866b1e1e52c	0.017121891600685377
88	0x3fa0b03b4a61c8b0	0.032594540433721675
89	0xbfacc8f280000000	-0.056220605969429016
90	0x3faf0bc293047839	0.06063659710547182
91	0xbf8ff684f8618363	-0.015606917219146593
92	0xbf903505346ca805	-0.01582725651238805
93	0x3fa1c00b0ea1c3ed	0.03466829827892313
94	0xbfaa369a00000000	-0.051197826862335205
95	0x3fa7c13300000000	0.04639586806297302
96	0x3f6a20a385b934db	0.0031893914981880717
97	0xbf89f2473af9d393	-0.012669140326787154
98	0xbf6743f400000000	-0.0028400197625160217
99	0xbf90f0f380000000	-0.016544155776500702
100	0x3fa80e55c6dab82a	0.04698436787053624
101	0x3f9e803380000000	0.029785923659801483
102	0xbf91082e80000000	-0.016632772982120514
103	0xbf9c25ec00000000	-0.027488410472869873
104	0x3f90147500000000	0.01570303738117218
105	0x3fab9084880fc223	0.05383695755870501
106	0x3f743eea00000000	0.004942812025547028
107	0xbf94472680000000	-0.019802667200565338
108	0x3fa99e8aa0c494c0	0.05003770077227321
109	0x3f99730d586c07a9	0.024852951547479716
110	0x3f8dacd86966dc82	0.014489832607848866
111	0x3fa1c33790394bd2	0.0346925128511867
112	0x3f91dc9480000000	0.017443008720874786
113	0x3fa3073b80000000	0.03716455399990082
114	0xbf923ba880000000	-0.01780570298433304
115	0x3fa6f55949589950	0.04484061260545735
116	0x3fa002e8c9877e96	0.03127219638895189
117	0x3faa606b80000000	0.05151687562465668
118	0x3fa7a1d680000000	0.04615660011768341
119	0x3fa0552d80000000	0.03189985454082489
120	0xbf96919cc4d9924d	-0.022039842142833433
121	0xbf9a3a6381e78577	-0.02561336021779456
122	0x3faa1539c0000000	0.05094318836927414
123	0xbfa6aa239b763dc3	-0.04426680824974085
124	0x3fa12c2c80000000	0.03354014456272125
125	0xbf75577c5c8c77e0	-0.00521038607328525
126	0xbfa23b4a80000000	-0.03560860455036163
127	0x3f82202600000000	0.008850380778312683
128	0x3fa099b600000000	0.03242272138595581
129	0xbfadbe2040000000	-0.0580911710858345
130	0x3fa854c3dc813225	0.047521706263612885
131	0x3fa6896e8977c79a	0.044017271309612485
132	0x3f624745cdd68fd9	0.002231251083417246
133	0x3f8aac9700000000	0.013024501502513885
134	0x3fabbc2900000000	0.054169923067092896
135	0x3fa26eddc0000000	0.03600209206342697
136	0x3f9be5eee7962824	0.027244313130303635
137	0x3faebd95ff638b94	0.06004017584361701
138	0x3fa3d5e140000000	0.03874114900827408
139	0xbf9d3682d078b838	-0.02852825543794088
140	0xbfa7c6c5c0000000	-0.04643838852643967
141	0x3f629fc349e5392a	0.0022734464866182207
142	0x3f74c698d83006bc	0.0050722094047174725
143	0xbf7d787c46ac2ff8	-0.0071949820073875445
144	0x3f85152741365b28	0.010294253041860893
145	0xbfaaaa6d043d9f8c	-0.05208149601713705
146	0x3f98ce7584f2a49c	0.024225078811160303
147	0x3fa57ffd80000000	0.04199211299419403
148	0x3facaccf40000000	0.05600593239068985
149	0xbf85165aa3817830	-0.010296543230818939
150	0x3f9588ff171bdb4b	0.021030412469339493
151	0xbfa8e711277cf757	-0.04863790137322493
152	0xbfaa82fd2b3d362e	-0.051780616310321256
153	0xbfa841f4fddb4f35	-0.04737821196400064
154	0x3f746b0708d0bfac	0.004984881857168871
155	0x3faa1b0d0493ccd7	0.05098763161540781
156	0x3f81cf4600000000	0.008696123957633972
157	0xbfa9951300000000	-0.049965471029281616
158	0x3fa13d4f06e5325d	0.033670873252593415
159	0xbfa47c6f4802e756	-0.040011861362883636
160	0x3f923065da31f33c	0.017762748186658003
161	0x3f4e43c000000000	0.0009236037731170654
162	0x3f9e64e67e30777a	0.029681779338822413
163	0xbfa5d2a51abd0c89	-0.04262271834752435
164	0x3f791db400000000	0.006131842732429504
165	0xbfa106e050125898	-0.033255586408970916
166	0x3f9412e7f39f3f50	0.019603370899687278
167	0xbfa84f2c00000000	-0.04747903347015381
168	0x3fa47fadfd9cbc23	0.04003661843159303
169	0xbf9e1b6080000000	-0.02940130978822708
170	0x3facc4e600000000	0.05618971586227417
171	0x3f868f9f434f74ef	0.011016124955796928
172	0x3f98cb6480000000	0.024213381111621857
173	0x3faaea6b80000000	0.05256973206996918
174	0x3f92f6551fe80570	0.018517808983238238
175	0xbf91388355654dcb	-0.016817142569676407
176	0x3fab78f081565fbd	0.0536570699579779
177	0x3faf0d8d7d76ac75	0.060650273862244676
178	0x3facab0df1feb109	0.055992542066947655
179	0x3f62d45e41603286	0.0022985306668544285
180	0x3f96276a8c5758f6	0.021634735885378974
181	0xbf92cd2cfa7929a0	-0.018360808170010068
182	0x3f631b6800000000	0.0023324042558670044
183	0xbf9ebdf400000000	-0.030021488666534424
184	0xbf9d78dc80000000	-0.028781361877918243
185	0x3fac22ceaa3e116e	0.05495305851130437
186	0xbf98c56480000000	-0.024190492928028107
187	0xbf9bc4f2221bde3a	-0.027118476230468348
188	0xbfa78e38c743d4ef	-0.04600694115098657
189	0x3f91b42300000000	0.017288729548454285
190	0x3f802c3500000000	0.007896818220615387
191	0x3fa29fb811545d33	0.03637480937521289
192	0x3fa44c0480000000	0.039642468094825745
193	0x3fae20c91fd9d6d8	0.05884388459973672
194	0xbfa859575f06f60f	-0.047556619977950125
195	0xbfa33e68ca4b020a	-0.0375855204524705
196	0x3f710c33d68a8d20	0.004162027828587683
197	0xbfa239d40f76c3e0	-0.0355974453808654
198	0x3fad0ddd23db448b	0.05674639761640162
199	0xbf89a460bc5a5d44	-0.012520557163311914
200	0xbfa1ed420e2c6de1	-0.03501326010720241
201	0xbf74012dc4edeb00	-0.0048839366780792925
202	0xbfa97957c55a6f81	-0.04975389751527271
203	0xbfaefc09c0000000	-0.06051664799451828
204	0x3f9c5f8fe42e12d2	0.02770829038810769
205	0xbfa9537696fdfb8c	-0.04946489899793169
206	0xbfa5de06c0000000	-0.04270955175161362
207	0x3fa28fe1c0000000	0.03625398129224777
208	0x3f7b89ee00000000	0.00672333687543869
209	0xbf9ac68280000000	-0.026147879660129547
210	0xbf777d8294362a33	-0.00573493010905195
211	0x3fa688ad00000000	0.04401150345802307
212	0xbf85965a00000000	-0.010540679097175598
213	0xbf68cb87a07df618	-0.0030267380679436344
214	0xbf8a06330697aba2	-0.012707136763273234
215	0xbf5383b800000000	-0.001191072165966034
216	0x3faac0c880000000	0.05225206911563873
217	0xbfab783dc0000000	-0.05365174263715744
218	0x3f8ea2d6da52958c	0.014959028756787139
219	0x3f9c954080000000	0.027913101017475128
220	0xbf9e595b39f11c75	-0.029637742434968268
221	0xbfafc9ec00000000	-0.062087416648864746
222	0x3f91c5235a46ee8e	0.01735358465678743
223	0xbfae7eb640000000	-0.05956048518419266
224	0x3fa7e0bc047edf4b	0.04663646273496499
225	0x3fa56ded80000000	0.04185430705547333
226	0xbf9e335fe7743203	-0.029492853643249727
227	0xbf83db48058c0233	-0.009695589703825202
228	0x3fae62a2e4c2e3c0	0.059346285271608235
229	0x3f98bcc000000000	0.02415752410888672
230	0x3face9a2c0000000	0.05646999925374985
231	0xbfa0444500000000	-0.03177085518836975
232	0x3f6250a400000000	0.002235718071460724
233	0x3f8c89123a91f0bf	0.013933317577759728
234	0x3faea4d980000000	0.059851452708244324
235	0x3f8b32a15bb3c063	0.013280163394000682
236	0xbf94c9973e49d794	-0.020300257851395623
237	0xbf9b252482f774a1	-0.026508875363891907
238	0xbfa9656000000000	-0.04960155487060547
239	0x3f82a96100000000	0.009112127125263214
240	0xbfa64ba672439f76	-0.04354591507745813
241	0x3f914fd280000000	0.01690606027841568
242	0xbf9d2cc5a9b85395	-0.028491104587448374
243	0x3facdd9c9781519f	0.05637826299121972
244	0x3f5f6b0000000000	0.0019176006317138672
245	0x3f73df5c3c7cef8f	0.004851684854482743
246	0xbf7107aae99119d2	-0.0041577030434098595
247	0x3fad7a25c0000000	0.057572536170482635
248	0x3f6a719400000000	0.0032279863953590393
249	0xbfaaedeee8df88ba	-0.05259653656664072
250	0x3fa083873a28bb3e	0.03225348076772726
251	0x3f7c0fa301b3a4cb	0.006850849861828222
252	0xbf9f06a300000000	-0.030298754572868347
253	0x3fa6530ec0000000	0.04360242933034897
254	0xbfa2cc142ec37364	-0.036713247974808266
255	0xbfa1e3a68f2e3b48	-0.03493996141252481

layer1.bias f8 [256]
0	0x3fa6640877cdd405	0.04373194181872723
1	0x3fa700ebcc8e497a	0.044928902359191406
2	0x3fa39b5240000000	0.03829438239336014
3	0xbf73a124fc809bef	-0.00479235122478537
4	0xbf9527bf8932b48d	-0.02065943980112599
5	0x3f887668fd45e455	0.011944599370268852
6	0xbfaeea4100000000	-0.0603809654712677
7	0xbf933affc8c4e977	-0.018779751423815463
8	0x3fad090c00000000	0.0567096471786499
9	0xbf95f2e060fdde6a	-0.021434312744047203
10	0x3f88718600000000	0.0119352787733078
11	0x3f9e2c5700000000	0.029466018080711365
12	0x3f8ed11cd709f896	0.01504728823897165
13	0xbf92d72280000000	-0.018398799002170563
14	0x3f8f112a89206307	0.015169460592049612
15	0xbf839fae535b5bf7	-0.009581911009645323
16	0xbfa162bf0cf38000	-0.03395649941535339
17	0x3f8fa85500000000	0.015457786619663239
18	0xbf71d58bc82a3561	-0.004354043982528339
19	0xbf893f4700000000	-0.012327723205089569
20	0xbfa8a4efc0000000	-0.04813336580991745
21	0x3f9285ef80000000	0.01808904856443405
22	0x3fa2cb8c7040da12	0.03670920248298527
23	0xbfa3cbbb00000000	-0.03866371512413025
24	0xbfa9121bc0000000	-0.04896628111600876
25	0x3facddd13268e59a	0.05637983074525295
26	0xbf7602f200000000	-0.00537390261888504
27	0xbf6fd88c00000000	-0.0038874372839927673
28	0x3f9cb61880000000	0.028038389980793
29	0xbfa87a6800000000	-0.04780888557434082
30	0xbfa64eaf8d082622	-0.04356907459812144
31	0xbfa27ebdb4ecf819	-0.03612320741238779
32	0x3f5b70a000000000	0.0016748011112213135
33	0x3fa2cfb484c9159e	0.036740914544263634
34	0xbfacded280000000	-0.05638749897480011
35	0xbfa22fc0dfa0fdac	-0.03552057962269414
36	0xbf9ff35a80000000	-0.031201757490634918
37	0x3f82079500000000	0.00880352407693863
38	0xbfac0129873fc76d	-0.05469636703482093
39	0xbf98a367fe7fd34b	-0.024060845287709836
40	0xbfa5816ddbb10258	-0.04200309092312143
41	0xbfa9ce33deb688e1	-0.05040132611908788
42	0x3f8fa665606bb9f3	0.015454093937901958
43	0x3faeec294a2ebb55	0.06039551764057786
44	0xbf61415800000000	-0.0021063536405563354
45	0xbfa796fc560a8e26	-0.046073804381446856
46	0xbf9bc9aa1aacf9c0	-0.027136476400522858
47	0x3fa629fc68bbdae7	0.04328907755364302
48	0x3fb001f92f7a556f	0.0625301113999137
49	0xbfaeba9940000000	-0.060017384588718414
50	0x3f9127d000000000	0.016753435134887695
51	0xbf504335f4915328	-0.0009925867946282783
52	0xbfa3166700000000	-0.03728029131889343
53	0x3f91d82180000000	0.017426036298274994
54	0xbfa19086c0000000	-0.03430577367544174
55	0x3fa73003d22730d4	0.04528819980950663
56	0x3f9c3d5280000000	0.027577675879001617
57	0xbf54abd856bb1ecb	-0.0012616741832278007
58	0x3fac87aec581ae18	0.05572267685860427
59	0xbfa19683123b2c8f	-0.03435144040630533
60	0xbf8c814b00000000	-0.013918481767177582
61	0xbf930e3d00000000	-0.018609002232551575
62	0x3f905ce8da59a81e	0.015979421927490127
63	0xbfa491c140000000	-0.04017452150583267
64	0x3f67d58c00000000	0.002909444272518158
65	0xbf90caad80000000	-0.016398154199123383
66	0xbfa827c4598e8d98	-0.047178398067696026
67	0x3fa727481701eb2c	0.04522156983235556
68	0xbfa096c09789c7c9	-0.03240014886695481
69	0xbfad26a540000000	-0.05693546682596207
70	0xbf6f2d0f20708d79	-0.003805665535325961
71	0x3f9f232d80000000	0.030407629907131195
72	0x3f657a3800000000	0.002621755003929138
73	0xbfa69fbac0000000	-0.04418738931417465
74	0x3f91debddf89150e	0.017451254623911665
75	0x3f9ac16d2d1cf8f8	0.026128488424768087
76	0x3fa61c83b37ad0c9	0.04318629804530045
77	0x3fa86d9497d0e9c5	0.04771103242133593
78	0xbfa7d58998b7aced	-0.046551036731978225
79	0xbf949b765b567328	-0.020124291729746308
80	0xbf8c921c00000000	-0.013950556516647339
81	0x3fa5e1fb7f29e7ff	0.04273973395625318
82	0x3f819d9f0a250fe8	0.008601419922918255
83	0x3fa6715915b55e40	0.043833526515922205
84	0xbfaa2fd4c0000000	-0.05114617198705673
85	0x3fa0aa0e80000000	0.03254742920398712
86	0x3f8a2dba00000000	0.01278252899646759
87	0xbf7b650200000000	-0.006688125431537628
88	0x3fa7f5bb056c4cc5	0.04679665032576844
89	0x3fa9c9456fe2c8a0	0.05036370268625601
90	0xbf9fe47000000000	-0.03114485740661621
91	0xbf92bef200000000	-0.01830652356147766
92	0xbf88d4cd3d8d354e	-0.012124637070565793
93	0xbf8beaecba5ca87f	-0.01363167709094548
94	0xbf975f0000000000	-0.022823333740234375
95	0x3f7ddbafb2ea00b4	0.007289587329637626
96	0xbf92258c80000000	-0.01772136241197586
97	0x3fad1bc48ed08514	0.05685247653333128
98	0x3fa4612577872abd	0.0398036678703497
99	0x3f93a00180000000	0.01916506141424179
100	0xbf7c063e00000000	-0.006841890513896942
101	0xbf83d10200000000	-0.009675994515419006
102	0xbfa8e09a80000000	-0.0485885888338089
103	0x3fa75c3321fd8a98	0.045625303172319664
104	0xbfacccdf61533f85	-0.05625055373241054
105	0x3fa64aa8abc4ab5e	0.043538351981928555
106	0x3f96785dd8952d8f	0.021943537086639927
107	0xbfa3f0e2a4989468	-0.03894718417385762
108	0xbfa3849a80000000	-0.0381210595369339
109	0xbf99c63200000000	-0.025170117616653442
110	0xbf979c4200000000	-0.023057013750076294
111	0x3f6db22c7d0a923f	0.003624998942841878
112	0x3fa446ecc0000000	0.03960361331701279
113	0xbfa2a81300000000	-0.036438554525375366
114	0xbf96eb4300000000	-0.022381827235221863
115	0x3fa26fe44b119461	0.03600991646161656
116	0x3fa2ede16cd9c59d	0.036971134698329446
117	0x3fa3318000000000	0.037487030029296875
118	0x3faf646635605c50	0.06131286050384033
119	0xbfafe1761d801db8	-0.06226700887787778
120	0xbf937637131c6954	-0.019005642453614982
121	0x3f7ef58800000000	0.007558375597000122
122	0x3fa4b1a59e30b139	0.04041783863098875
123	0x3f82cc34608e95de	0.0091785518614626
124	0x3fa2314c939e7c71	0.03553237249365616
125	0x3fa1d0f7d783076a	0.034797425325009027
126	0xbf90c94c00000000	-0.016392886638641357
127	0xbfa2676840000000	-0.03594518452882767
128	0xbf97e79280000000	-0.023344315588474274
129	0x3f885b1600000000	0.01189248263835907
130	0xbf811c7a7f530980	-0.008355099688178269
131	0x3fa0359040000000	0.031658656895160675
132	0xbfab3aa100000000	-0.05318167805671692
133	0x3f8c577600000000	0.013838693499565125
134	0x3faec03f589e0179	0.06006048161271144
135	0x3f80f7a0eaaaa76d	0.008284814034897637
136	0x3fa573f89b854e08	0.04190041445204079
137	0x3f99e86241911e5b	0.0253005363959161
138	0x3f3e318def0f4516	0.0004607173460132325
139	0x3f8c354000000000	0.013773441314697266
140	0xbfabf63221134b9b	-0.05461270002128701
141	0xbf8fac0c00000000	-0.015464872121810913
142	0xbf9881e880000000	-0.023933060467243195
143	0xbfa41bf40785803e	-0.0392757662946228
144	0xbfac0b40529fba48	-0.05477334030716868
145	0xbfac58b52eb6263b	-0.055364286377038906
146	0xbf95ba9385135ede	-0.021219544408125006
147	0x3f59c29614a69831	0.0015722718841089218
148	0xbfae83a4c0000000	-0.05959811061620712
149	0x3fa7687d1cefaea4	0.045719060690172314
150	0xbf801ab100000000	-0.00786340981721878
151	0x3f71482c00000000	0.004219219088554382
152	0x3fa3759700000000	0.03800651431083679
153	0xbf9060613b97d39b	-0.015992659818909166
154	0xbf98f8c90f49f174	-0.02438654094520261
155	0x3f8cce686eddc0b1	0.014065566905373169
156	0xbfab8ffb00000000	-0.05383285880088806
157	0x3fae811080000000	0.05957843363285065
158	0xbf8c67a26dae528f	-0.013869542095372082
159	0xbf8b82c3c234e7a9	-0.013433007587639727
160	0xbf9b7cd316e2a039	-0.0268433554380467
161	0x3f97d372b5627f5b	0.023267547913405334
162	0xbfaa7a23c0000000	-0.05171310156583786
163	0x3f82c4e500000000	0.009164609014987946
164	0xbf90c67400000000	-0.016382038593292236
165	0x3fa1e742c0000000	0.03496750444173813
166	0x3fad6be3d42124f9	0.05746376003714632
167	0x3f98c32600000000	0.02418193221092224
168	0xbf805e886fce0d30	-0.007992807304396082
169	0x3f77f63f0988575a	0.0058500730888420786
170	0x3f9dfa5530ace68a	0.029275256248388483
171	0x3faf2d33ccd00d1c	0.06089174151568441
172	0x3fa4a4d79a43946d	0.040320146161129646
173	0x3faec2b6d48c0b5c	0.060079301305470095
174	0x3fa410be93f4cacd	0.03919024997812457
175	0xbfafaf024c2aa93b	-0.06188208751457799
176	0xbfa017d385e2238a	-0.03143177995031639
177	0xbfa4010b00000000	-0.039070457220077515
178	0x3fa353fac0000000	0.037750087678432465
179	0x3f631cbc128c6632	0.0023330376901753653
180	0xbf9ed1f800000000	-0.0300978422164917
181	0xbf92dc563017ac2c	-0.01841864269765041
182	0x3f9a738d41742984	0.025831420059185387
183	0xbfa111fc00000000	-0.03334033489227295
184	0xbfad399b80000000	-0.05708013474941254
185	0xbfadb02517e658d8	-0.057984503905730456
186	0xbfa3510d00000000	-0.03772774338722229
187	0x3f93f33300000000	0.01948241889476776
188	0xbfa9fbdf83bd9684	-0.050749764281857984
189	0xbf9fdb9e80000000	-0.0311112180352211
190	0xbfac433ac0000000	-0.05520042032003403
191	0xbfac1cf5c0000000	-0.054908446967601776
192	0xbf60d3d800000000	-0.0020541399717330933
193	0x3fa34f8940000000	0.03771618753671646
194	0xbf89e96a5547688f	-0.012652235724932374
195	0xbfad0f9686d1db3b	-0.05675955196141166
196	0xbf998fa580000000	-0.024962030351161957
197	0xbf9f071962f081ef	-0.030300518668925077
198	0x3f9cd7291156826d	0.028164521868918536
199	0x3f5a7e1800000000	0.0016169771552085876
200	0x3f7b770200000000	0.006705291569232941
201	0xbf9d33129fb07f5e	-0.02851513957659734
202	0xbf91bb1680000000	-0.017315246164798737
203	0xbfaf63bcc0000000	-0.06130781024694443
204	0xbfa2d9be00000000	-0.03681749105453491
205	0xbf95e74f37b5eac7	-0.0213901880028782
206	0xbf9270eb00000000	-0.018008872866630554
207	0x3fa0d19a0fe3b9f2	0.032849134864466736
208	0xbf72f4b400000000	-0.004627898335456848
209	0x3f82a59d00000000	0.00910494476556778
210	0xbfa3f5b9f99ade7f	-0.03898411914763943
211	0x3fa7542f344ff40f	0.04556415093973253
212	0x3f950b2200000000	0.020550280809402466
213	0xbfad351f40000000	-0.057045914232730865
214	0x3f6c8eb000000000	0.0034860074520111084
215	0x3fac6fa915c2f708	0.05553940191883383
216	0x3f9f9dc2b1916a7c	0.030875246131794473
217	0xbfaea4810512566e	-0.059848815793128604
218	0x3fa9587b5af55bc7	0.04950318799335878
219	0xbf58076800000000	-0.001466609537601471
220	0xbfa1fbbc77edf90e	-0.035123719825593466
221	0xbfb006d5e57e7e97	-0.06260430195697562
222	0xbfa43eef24c8cd61	-0.03954264949825404
223	0xbfaed0cf323667b3	-0.06018683898874091
224	0xbfaeaff8c0000000	-0.05993630737066269
225	0x3fa2d3a17751665a	0.036770864310437815
226	0x3f754ee469811759	0.005202190623156821
227	0xbf6fb4a2091a003a	-0.003870312190713346
228	0x3fad6d8c80000000	0.05747641623020172
229	0xbfadd5f780000000	-0.058273062109947205
230	0xbfaa904d0c257ea9	-0.05188217900535836
231	0xbfa4a609c0000000	-0.04032927006483078
232	0x3faaf91a7dcbc574	0.05268175874324302
233	0xbfa4bdf463cb15ba	-0.040511738950538015
234	0xbf94d27e1a892b77	-0.020334215516679657
235	0xbf965b2eb12cb917	-0.021832208217511608
236	0xbfa1a61c21aa57ee	-0.03447044287638322
237	0x3f5cea6800000000	0.0017648711800575256
238	0x3fa13eee40000000	0.03368324786424637
239	0x3fa56ca200000000	0.04184442758560181
240	0x3f9312fab9a0ab4a	0.018627088146028904
241	0xbf6119bd8bb57791	-0.002087469297903995
242	0x3fa7f8f3c8ffe837	0.046821230207527646
243	0xbfae921200000000	-0.05970817804336548
244	0xbf8175ea0672716b	-0.008525684663532393
245	0x3fadc11180000000	0.058113619685173035
246	0x3f93fc2c80000000	0.019516654312610626
247	0xbfa97e5f00000000	-0.04979225993156433
248	0x3fabd2b0222ebe3b	0.05434179703967997
249	0x3fab66b6c0000000	0.05351801961660385
250	0x3f92a2661824da3c	0.018197627280836168
251	0x3fa6379500000000	0.04339280724525452
252	0xbfad4d155494d7a6	-0.0572287240742491
253	0x3fa8e436da8a9704	0.048616136720097486
254	0xbfa17a7ff63609b1	-0.03413772469049848
255	0xbf9e19d94d13433f	-0.029395480469989407
