python/snapshots/snapshot2600.pt (torch_old, 584819 bytes, 6 tensors)

layer0.weight f8 [256, 18]
-0.17388315109203542 0.00482879857719363 -0.18201218398960115 -0.208748624205194 0.08795237599311911 0.16798764880116124 0.08732438500340131 0.05273652078461076
-0.2130981900023581 0.14219530878527686 0.014403196681528816 0.060928866892976774 -0.19355002492396448 0.12670347507412572 0.02570519538080922 -0.10151366360016628
0.041953859410294184 -0.13293127645510294 0.03517524831172266 0.04975038649166339 -0.0437729200240749 -0.24160936920815887 -0.0028392535314240124 0.201139264828547
-0.045351304498167586 -0.20193075904347066 0.17147394553673795 0.03700144417859859 -0.18175489546766957 0.02667724625847261 -0.15588603361361697 0.034863643062351665
-0.19849644710478792 -0.15469381801169102 -0.029167330180358178 0.14316925998721408 -0.07918822765350342 -0.022874057292938232 -0.2217698097229004 0.000588729977607727
-0.1349284052848816 -0.18963007628917694 -0.14983291923999786 -0.16047243773937225 -0.13818024098873138 -0.14981763064861298 0.2287856489419937 -0.0805562287569046
0.06252141296863556 0.05805830657482147 0.023798123002052307 -0.06146423518657684 0.12404556572437286 -0.2153971791267395 0.08374299850742954 0.15844910702969306
-0.18984787005418097 0.03698458401623062 0.0025045211754417085 0.19786835425295474 0.12650258928854657 0.17699770431428513 -0.0225516423080798 0.23027262572590398
-0.14349322910611545 0.0812650813188994 -0.20878532044899067 -0.1301628484068339 0.053529181048153254 0.05891984521245777 0.010409697536191484 -0.009069953756813916
0.1143033075943388 -0.016480349057987884 -0.17900247023680163 0.20408153108143634 0.16249472902222728 0.06071422902223481 0.10699255976107251 -0.13899851259623427
0.16767485222436704 0.10798511538797123 -0.09095056027888701 0.161175610075522 0.05298265195761338 0.16299785866039695 0.15076215952809055 -0.21666668252203128
-0.11260994313607367 0.032908956515884734 0.1254911967008481 0.21554075726273988 -0.029571180141793267 -0.2170320953617383 -0.1123488810705701 0.06307972529654887
-0.23702547316210637 -0.117270322096701 0.10033578081898761 -0.19702151980822996 0.1933231654465648 -0.11295038736048406 0.02602214589720718 -0.1406803438048192
-0.10505845235345375 -0.08954124810459556 0.12250916769464472 0.047281775531503645 0.10471391765067731 0.23316889067596275 -0.020117038029317347 -0.16011354337286626
0.10956609957754535 0.08400266075409202 -0.03839329482074693 -0.19634578135236966 0.22749325240936485 -0.16261618869964362 0.11302171207897488 0.07220969048897885
-0.027311414167915538 -0.007212570071699892 0.1915158218801027 0.1725059753247579 0.020182098587332022 -0.17087959953517015 -0.19883526903894116 -0.15130061063859407
-0.06796590367465509 -0.06718373956001923 -0.04450364621482623 0.12809651576527337 0.019734024142234168 0.03961577217043153 0.1595767348279409 0.0003278247937089208
0.21574435325156727 0.08098674877274231 -0.02731821658709847 0.1381472294888821 -0.06561829501152451 0.19320260316773694 -0.22662456655088728 0.12427856101250284
0.020677735534195323 0.08721084787496686 -0.2141835849782926 -0.06679955611866589 0.18971073799994542 0.017240411478730486 -0.18076083212349436 -0.06067600387204835
-0.14743497279185352 0.05966154344098711 0.18510631536863184 -0.043812633149547545 -0.1368325849932175 0.19667542412308944 -0.1935428173619656 0.09160631945400624
0.15095084676472834 -0.2297261712848192 0.14707723949905593 0.19983669288101424 -0.22540370661436185 0.20522525923119306 0.054980431509533585 -0.09624756357410781
0.21608582616608962 -0.14027250169311412 0.011159951599397935 0.11132855252169574 -0.21194262465439906 0.003850479517913208 -0.20832908596773791 0.13116362132013917
-0.07140671717263726 0.01681456936447082 0.07039720932374599 0.05437615657803349 -0.11559458822011948 -0.1348377764225006 -0.209225133061409 -0.0099363774061203
-0.08641351759433746 -0.029776915907859802 0.16516448557376862 0.03856836259365082 0.034766778349876404 0.01451091468334198 0.09025655686855316 0.00856761634349823
-0.0813845843076706 0.14376981556415558 -0.22038286924362183 0.019124522805213928 0.004183158278465271 -0.22238144278526306 -0.1487721789006475 0.04538175011217196
-0.02769105824090632 -0.11216352242337974 0.21429815253078133 0.1867119276298758 0.22918468114001236 -0.049879651534908524 -0.1468811579588692 -0.056980273774873726
-0.13369967814898207 0.1870820354740913 -0.11361817172650227 -0.08562530107940292 0.017470514992946988 0.005403974645533091 0.08800333524733905 -0.12086312830071995
-0.09398198026985406 0.02869761688428209 0.10809198287688065 0.018911723451213697 -0.14222126720437944 -0.15865811306904443 0.19022655187914647 0.12498753898750209
-0.07512931578168869 -0.048330847492180064 0.022637259267839112 0.09268111861089694 -0.23132862362437123 -0.052658509504361954 0.19586725664270027 -0.1301681344480675
0.05924304781898114 0.05544933343655877 -0.15924444794654846 -0.14456278085708618 -0.0036648064851760864 -0.012021496891975403 -0.13206630945205688 0.033129796385765076
0.06773839890956879 0.14340351521968842 -0.16833049058914185 -0.08099564909934998 0.12694518268108368 -0.09682577848434448 -0.12851500511169434 -0.01335608959197998
-0.11831232905387878 -0.21898207068443298 0.06426660716533661 -0.18094302713871002 -0.07731275856670512 0.06946369971934613 -0.12355837902735152 0.14845250137327481
00000000: 1303 a297 cd41 c6bf 6a00 7dbf 5cc7 733f
00000010: 4fbc dadc 2c4c c7bf 3bed 0561 46b8 cabf
00000020: 10f6 7e02 0c84 b63f 5cd0 dd88 9e80 c53f
00000030: bea0 bb11 e45a b63f ae42 2600 4800 ab3f
00000040: 59ce 722e cd46 cbbf 2c4e 70b4 7433 c23f
00000050: 92e2 a355 6c7f 8d3f 9816 6085 1132 af3f
00000060: e51d 9849 3fc6 c8bf 5cd0 ddc8 d137 c03f
00000070: 8dd0 fd75 7652 9a3f 2c86 42a9 ccfc b9bf
00000080: 6265 37ec f97a a53f f0be 7e5e e403 c1bf
00000090: 5b4b 417a 7d02 a23f 2dde e3f5 e178 a93f
000000a0: c85b e877 6769 a6bf 67ff 9349 0eed cebf
000000b0: 1827 00a2 5842 67bf dea6 3072 eebe c93f
000000c0: 2e17 4d43 4938 a7bf fff6 12fb ddd8 c9bf
000000d0: ce22 19b6 dbf2 c53f 5abf 4d71 daf1 a23f
000000e0: 01f5 f591 be43 c7bf 0df0 e8b0 4751 9b3f
000000f0: b006 23d4 12f4 c3bf 1e60 8bbd a5d9 a13f
00000100: 12f8 57e2 5468 c9bf 9875 a0cc 01cd c3bf
00000110: 54f1 f164 0ade 9dbf 7803 b8cc 5e53 c23f
00000120: 0000 0000 ae45 b4bf 0000 0000 4c6c 97bf
00000130: 0000 0000 f462 ccbf 0000 0000 a04a 433f
00000140: 0000 0080 5545 c1bf 0000 0060 cc45 c8bf
00000150: 0000 00a0 b92d c3bf 0000 0060 5c8a c4bf
00000160: 0000 00e0 e3af c1bf 0000 0060 392d c3bf
00000170: 0000 0020 d948 cd3f 0000 0040 559f b4bf
00000180: 0000 0040 6701 b03f 0000 0080 d1b9 ad3f
00000190: 0000 0000 895e 983f 0000 0080 3d78 afbf
000001a0: 0000 0040 73c1 bf3f 0000 0080 2292 cbbf
000001b0: 3bbf db5f 2e70 b53f 8cef 6272 0f48 c43f
000001c0: 1e8a 8c5c ef4c c8bf a19b 9cb5 a4ef a23f
000001d0: 9719 4d91 5c84 643f 2203 370f c053 c93f
000001e0: aa43 eda1 3c31 c03f 7e9b bf5b dca7 c63f
000001f0: 3ab7 bc18 c717 97bf 3712 54ca 9279 cd3f
00000200: 56a6 1a73 fc5d c2bf c64a 92d2 c9cd b43f
00000210: 404d 9b35 7ab9 cabf 1ce1 871c 2da9 c0bf
00000220: da8a f743 2d68 ab3f 04b8 8bf0 bd2a ae3f
00000230: c563 d5f3 ad51 853f 640f 1896 4493 82bf
00000240: 763b f147 fb42 bd3f 7c42 ec80 39e0 90bf
00000250: d1fe c88d 8de9 c6bf 282f dbf6 571f ca3f
00000260: e41f 7695 a0cc c43f f5cd 1a78 ef15 af3f
00000270: 5bd1 1649 dd63 bb3f 6f90 e508 b4ca c1bf
00000280: 3328 559b 5e76 c53f b4ce 0b9b e9a4 bb3f
00000290: d660 f331 8948 b7bf aaf6 1703 67a1 c43f
000002a0: 0a9c d3ca 8a20 ab3f 04d9 2124 1ddd c43f
000002b0: bfe0 52a8 2c4c c33f ed4f c8dd bbbb cbbf
000002c0: a24e f956 01d4 bcbf 4b61 f657 71d9 a03f
000002d0: c90d e274 1810 c03f 6f03 b3eb d696 cb3f
000002e0: 7ed7 734e e847 9ebf 1469 e12b b5c7 cbbf
000002f0: fbb6 f071 e5c2 bcbf ac78 302d fe25 b03f
00000300: 0e6c c6c7 d956 cebf 0b5c 3286 6d05 bebf
00000310: 0676 3c11 9baf b93f ca9f 174c 0038 c9bf
00000320: 107b 9340 d0be c83f d3a7 c80b 51ea bcbf
00000330: bca6 66a6 8ca5 9a3f 4876 ea41 d001 c2bf
00000340: f5c5 0659 1ce5 babf 1b94 40dc 2cec b6bf
00000350: f96b b5c4 c25c bf3f e890 351f 5135 a83f
00000360: f2e5 be03 88ce ba3f 0eed f26b 7ad8 cd3f
00000370: ed95 b691 8f99 94bf 1271 37c0 997e c4bf
00000380: fe92 6f1e 860c bc3f 303f b7c8 3281 b53f
00000390: 2f16 4833 49a8 a3bf e7d8 ceca db21 c9bf
000003a0: ae56 94b7 7f1e cd3f eaef 2176 9bd0 c4bf
000003b0: ecfb 1dad fdee bc3f 00bd 1a93 557c b23f
000003c0: 6d84 a2fa 85f7 9bbf 3abb 3f89 ed8a 7dbf
000003d0: 0620 d227 9783 c83f 9d34 3101 ad14 c63f
000003e0: c7c5 96b5 9daa 943f 1f50 c7f9 61df c5bf
000003f0: 7e24 e820 6f73 c9bf 265f 4783 d15d c3bf
00000400: 3b96 86a5 3666 b1bf 31b7 3b1c f432 b1bf
00000410: f942 1792 2ec9 a6bf 40c1 f874 7765 c03f
00000420: 8bcb 3cf1 2735 943f bd6d c1bb 8448 a43f
00000430: 99ec a4ac 026d c43f e364 8ec4 fc7b 353f
00000440: 388e c1ce 829d cb3f 6467 632d 8cbb b43f
00000450: cb78 4e7b 4ef9 9bbf 5f08 58f4 ceae c13f
00000460: d101 184f 5ccc b0bf 6fc2 0de7 dcba c83f
00000470: c132 e7a6 0802 cdbf 1484 2443 b8d0 bf3f
00000480: eeb2 7f57 8b2c 953f dcba 7a3b 7353 b63f
00000490: dc30 6922 5e6a cbbf a4bf ea94 c619 b1bf
000004a0: 0074 b403 7148 c83f 2907 e26d 78a7 913f
000004b0: b01f 2fc3 2b23 c7bf f798 90d8 ec10 afbf
000004c0: 96bd 3631 26df c2bf 47db d033 f58b ae3f
000004d0: 7f4a 6551 90b1 c73f d2d2 0e05 9c6e a6bf
000004e0: 6058 c9ea ba83 c1bf 7f8e 4409 a92c c93f
000004f0: 0201 79d3 02c6 c8bf 5271 2902 8373 b73f
00000500: db39 147b 5b52 c33f 540f 5acc aa67 cdbf
00000510: 2c34 d14e 6dd3 c23f 007d 3bae 3f94 c93f
00000520: 8526 2756 07da ccbf 3405 5b40 d244 ca3f
00000530: 91bf 8126 6526 ac3f 61d7 de29 aea3 b8bf
00000540: 7899 414a b3a8 cb3f 6067 a607 73f4 c1bf
00000550: a8a4 2759 07db 863f 5a13 312c 0780 bc3f
00000560: 2470 c298 ef20 cbbf 4daf 4e73 0a8b 6f3f
00000570: a4bc 8409 87aa cabf bd59 ff33 f8c9 c03f
00000580: 79a0 f8ea b547 b2bf 8920 11a6 d637 913f
00000590: 9470 c62f 8d05 b23f eca1 5e0c 31d7 ab3f
000005a0: 0000 0060 9b97 bdbf 0000 0040 5d42 c1bf
000005b0: 0000 00a0 e3c7 cabf 0000 0000 8659 84bf
000005c0: 0000 0040 321f b6bf 0000 0000 d77d 9ebf
000005d0: 0000 0020 1c24 c53f 0000 0080 3bbf a33f
000005e0: 0000 0080 f3cc a13f 0000 0000 e6b7 8d3f
000005f0: 0000 00c0 0d1b b73f 0000 0000 e68b 813f
00000600: 0000 00c0 9ed5 b4bf 0000 00a0 0c67 c23f
00000610: 0000 0080 8135 ccbf 0000 0000 6195 933f
00000620: 0000 0000 5c22 713f 0000 00c0 fe76 ccbf
00000630: a76a 777d f70a c3bf d350 22d9 463c a73f
00000640: 1a32 2576 0b5b 9cbf f4d1 9ca4 bfb6 bcbf
00000650: 2441 5b32 1f6e cb3f 7dc2 782b 2de6 c73f
00000660: 0dca 1e73 ec55 cd3f 0718 2860 d389 a9bf
00000670: 727d ea74 00cd c2bf c5aa c2b8 842c adbf
00000680: 775b 9130 121d c1bf fce1 03dc 4df2 c73f
00000690: 8af0 cb9b 1416 bdbf d89f d82b 8aeb b5bf
000006a0: aeeb 276a cae3 913f 7086 ef65 7a22 763f
000006b0: d084 d3f6 6287 b63f 2d06 58cf e2f0 bebf
000006c0: 811e acfb 330f b8bf 85ea f677 e862 9d3f
000006d0: 9c7e 6a8b eaab bb3f f892 ef46 985d 933f
000006e0: 5820 b875 4e34 c2bf f434 70b7 e84e c4bf
000006f0: 936d 93f9 5759 c83f 5cdd 5bf0 2eff bf3f
00000700: 58d2 40c2 ac3b b3bf 4dd7 bb22 d2be a8bf
00000710: 62e0 e7c0 382e 973f c3f7 6325 f3b9 b73f
00000720: 0035 8c24 2d9c cdbf 47cc 5a60 0ef6 aabf
00000730: 129e d1a2 2d12 c93f abc7 3774 59a9 c0bf
00000740: feb7 cbd1 1a55 ae3f 8fd9 63e3 da63 ac3f
00000750: 0000 0040 1f62 c4bf 0000 0080 0881 c2bf
00000760: 0000 0000 a805 6ebf 0000 0000 ba9e 88bf
00000770: 0000 0080 8ce7 c0bf 0000 0080 63f6 a03f
00000780: 0000 00c0 4d57 b13f 0000 00e0 0b5b c23f
00000790: 0000 0080 da8b c5bf 0000 0080 21bc b4bf
000007a0: 0000 0060 bd3f c03f 0000 0000 93c9 b8bf
000007b0: 0000 0000 2e73 c0bf 0000 0000 705a 8bbf
000007c0: 0000 0080 b749 bebf 0000 00c0 9a07 ccbf
000007d0: 0000 00c0 c673 b03f 0000 0020 2429 c7bf
000007e0: e587 9bd9 c4ca b3bf f4c2 8d7e 5fc8 b13f
000007f0: 2dba 119d 85a1 bfbf 942c 34d7 7d00 c33f

layer0.bias f8 [256]
0.11368269141132978 -0.024926972877829603 0.048390910029411316 0.1622887658551877 -0.006805528196644098 0.0009297426646310388 0.04529225838631756 -0.16835382777049293
-0.0018736222119289556 -0.10576824288731576 0.04832784831523895 0.07437533511409723 -0.06605790133374348 0.10197098553180695 -0.009463039476447615 -0.1580757203173702
-0.1716892533190861 0.1608436145812298 0.05334188316701784 -0.017532033025016394 -0.08094420743177286 -0.18032993694444038 0.011484972324647132 0.16815802671735788
-0.08156167899557361 -0.035285891259899185 -0.16797627887201924 -0.1130713041801107 0.1429702030753334 0.05695963727430875 -0.17989363997976096 0.14830025118801887
-0.22594385849646137 -0.20289363816620265 -0.06899836705398842 0.18214004542601236 0.22227800189213556 0.21571853132161287 0.17532142582936355 -0.16731087339988265
0.23252943468154344 -0.07343727205578973 -0.16398764437681 0.014967463663295492 0.09177767600286475 -0.10771740518988414 0.2133782507663543 0.2252394401121239
-0.21283430695249045 0.0667157918214798 0.17105472192268287 0.2020775748048041 -0.03227780755219392 -0.2024473594864554 0.04607478110825119 0.03723723435010906
-0.08739130107855486 -0.17522692225915104 -0.045397802302691595 0.14056249184408315 0.18589511219426488 -0.01838354809129424 -0.06189696936038212 -0.22110123932361603
0.15944143420798387 0.2337567532782539 0.21454495241655522 0.20319478381997022 -0.025566472326311877 0.20855837821840936 0.12740027436800583 0.1346356187278991
-0.0016562614771586388 0.20874941718054724 -0.008330972356102908 0.10403006246743057 -0.15346159345837868 -0.06625305631307664 -0.08800151260017712 -0.22717407199808623
-0.16712187805849635 -0.14587604647897515 -0.19043324114392826 -0.06772403339548826 0.17062370500979177 0.2363159921316787 -0.23087743144725031 -0.15707571862612077
-0.07027047556684865 0.1453613508582029 -0.1088597726963216 -0.14881178860096417 0.18631384735556164 -0.09212145536251946 -0.041427127908053765 -0.16075727536490506
-0.1699513742736444 0.1688653807291331 0.21990532851296063 -0.03942488284158557 -0.08044089708775234 0.15977875905203434 0.21186477163285694 0.12301075672467154
-0.2245891015630968 0.16301747945650077 -0.21867920458316803 0.10341977724974631 -0.1746600179251657 -0.06837738364079361 -0.09118977435369455 -0.020170546080512396
0.17014122077177057 0.13795456591142494 0.228984431586137 0.08876814091793675 -0.06689025280427567 -0.06987431391906307 0.16510149742831184 -0.18189054504741745
-0.1077590138787438 0.15779835087559552 0.22603468596935272 -0.03861568515881839 -0.19398234971217013 0.23903895760417265 0.10096713860883265 -0.13807954204432665
0.06863848865032196 0.17526838577211276 -0.06771269615034567 0.01069692451297304 0.21133005098450547 -0.043359383940696716 -0.19210544228553772 -0.143167143017772
0.11100536401577417 -0.11106611727701123 0.07993491115577551 0.14579070034135558 -0.12760725726009414 -0.12303916016135973 0.03477030767728402 -0.0685602007349526
-0.22850451571281918 -0.06890206754603495 -0.0021166097657484826 -0.21346237981456437 0.2383117516056238 -0.1221415730060236 0.034535317078603786 -0.05551883034331689
-0.24751506255953365 0.10749132711867045 0.22487094017446224 0.042840930139853683 0.16959909263591483 -0.17115944623947144 0.1535175787221302 -0.2291356891536134
0.20458359696009257 -0.12900254340059444 0.13427727666949743 0.07101393877678126 0.13640158551681225 0.1431225292316677 -0.09687706785864786 0.07279498647223809
0.23449009163316345 0.07068437540450541 -0.03392494178027033 -0.15818073738103808 0.13577854120782606 0.11528671676824429 -0.0405249596108329 0.16519952391005843
0.045015708956503725 -0.09590600201616684 0.013687049785512728 -0.06768734017352733 0.06677373919412166 0.19117925320980098 0.1907771268751933 -0.15623115003108978
-0.2270324547334641 0.036899657969340444 -0.13841426372528076 -0.028793487520089638 -0.19650280475035034 0.1787961351594616 -0.1081967075073346 -0.09081759543760091
0.07710233237183606 -0.010518007809503177 -0.16244446639150678 -0.049999184761451834 0.006897496868181516 -0.10906746917159867 -0.19179842758511792 0.013246944363329913
-0.16358944456762597 -0.15354511696131162 0.01840412031642646 0.10221364370093615 0.08152792149061973 -0.10762137488975945 0.14182295685122914 0.025059953331947327
0.18937948892903475 0.19203807002593443 -0.16899582263183596 0.12831121443602675 0.14035946226461557 -0.04696353952622076 -0.0051922943007163885 -0.11161250599113494
0.09810123398008329 0.14006807169607524 0.23613382208391395 -0.06934039749213841 -0.07612422213573262 0.09273112933391621 -0.18977330182087765 -0.1696651986470267
-0.003201591149675533 0.011222681622995674 0.07984049401206245 -0.15227334931121242 -0.023139628468751818 0.08825874675871596 -0.018515414967818514 0.19910344957298817
0.2047005758527035 -0.07348618957064103 -0.07252991017020027 -0.04870308912116127 0.16545060486084123 -0.1313506922914444 -0.22725988924503326 0.03871822182758758
-0.23365833554380386 0.21505024184790167 0.23571299900401896 -0.07228521534979801 -0.0760393486261657 -0.04047424917723009 -0.1180502020773609 -0.21780039370059967
0.016540064783594544 -0.18817232634146036 0.032312946348225034 0.18296876897256473 0.072777657466461 0.09439643841137718 -0.042439452747671136 0.02997241943788806
00000000: bea0 bb11 4f1a bd3f f7b8 31d5 7486 99bf
00000010: 0000 0080 b1c6 a83f 0899 edd6 e0c5 c43f
00000020: c3e1 9510 1de0 7bbf 63f6 4c2b 3f77 4e3f
00000030: 80fb 0f01 8c30 a73f a520 3744 9e8c c5bf
00000040: 51d1 0488 8ab2 5ebf 360a 28a8 a013 bbbf
00000050: 0000 0080 6dbe a83f c1af f10f 430a b33f
00000060: 42ee dead 2be9 b0bf 0000 0040 c51a ba3f
00000070: e3a8 93a8 5b61 83bf f901 8740 d33b c4bf
00000080: d741 0ad8 e9f9 c5bf b2ca 3208 8696 c43f
00000090: c235 6b97 a04f ab3f c43b e6d1 eaf3 91bf
000000a0: c658 b873 c2b8 b4bf 3643 d526 0d15 c7bf
000000b0: a414 3de4 6e85 873f 17cd a7c4 3386 c53f
000000c0: 1591 e4e7 39e1 b4bf ba65 f109 fe10 a2bf
000000d0: 232a 2128 3f80 c5bf 29d4 91b1 3df2 bcbf
000000e0: 9d69 41fd d84c c23f f002 9246 d029 ad3f
000000f0: 2d59 3c3a c106 c7bf 06aa 6bac 80fb c23f
00000100: 9cb7 7c75 baeb ccbf 14c2 3e32 6bf8 c9bf
00000110: af6a f981 e0a9 b1bf 54c6 3271 5d50 c73f
00000120: 019c 5f06 9b73 cc3f f36f 9532 aa9c cb3f
00000130: 8ed3 1cb7 ee70 c63f be43 c254 716a c5bf
00000140: b944 a846 86c3 cd3f 867d c9f9 c8cc b2bf
00000150: f7f2 c510 8cfd c4bf 82dd 80f7 42a7 8e3f
00000160: 7d68 efe4 bd7e b73f ef22 802c 5e93 bbbf
00000170: 0c0e 5c80 fa4f cb3f a384 865e a5d4 cc3f
00000180: 6ef4 e991 273e cbbf 0000 0040 4914 b13f
00000190: 73fd 3d02 1fe5 c53f 0a54 858f addd c93f
000001a0: a481 a57f b786 a0bf ebf3 138a cbe9 c9bf
000001b0: 2783 0f1c 1d97 a73f 6054 743f c210 a33f
000001c0: 2858 16bc 465f b6bf 3cab 3df6 d56d c6bf
000001d0: 2a92 6678 613e a7bf 8ade c1a4 f3fd c13f
000001e0: bf28 ae39 69cb c73f 15a1 5807 23d3 92bf
000001f0: 7eab 3fa6 f5b0 afbf 0000 00a0 0b4d ccbf
00000200: ed7a c6b0 9368 c43f 8a4d 46c5 bdeb cd3f
00000210: 5753 1381 3576 cb3f 73be 9c63 4902 ca3f
00000220: 11f9 0fea 182e 9abf 7b9f e07a 0ab2 ca3f
00000230: d0bc f4f5 a64e c03f 1412 a86d bd3b c13f
00000240: 037f 3138 dd22 5bbf c6bc ec07 4db8 ca3f
00000250: 7bb9 812e d40f 81bf 1c34 19d4 b6a1 ba3f
00000260: a642 8c26 a1a4 c3bf 07ed 1fd6 f5f5 b0bf
00000270: 5bc5 9d62 4487 b6bf 1b8f dd3c 0a14 cdbf
00000280: 2d8a 5aec 3f64 c5bf 0dd0 72f8 10ac c2bf
00000290: f968 64cf 1d60 c8bf bf3a 96bc 5c56 b1bf
000002a0: 7d3e 7860 ffd6 c53f ea19 dd38 9a3f ce3f
000002b0: 6ea7 b944 648d cdbf 7358 3fa1 0e1b c4bf
000002c0: 7219 6ff2 3efd b1bf 14e9 0464 339b c23f
000002d0: 6ea8 94eb 3bde bbbf ba73 a6c2 430c c3bf
000002e0: b78f 97d4 21d9 c73f e7bc 0a8e 4595 b7bf
000002f0: 9a89 10bf ef35 a5bf 95a6 24c4 b193 c4bf
00000300: 0531 3575 f7c0 c5bf 6640 d47b 619d c53f
00000310: 60f3 1699 db25 cc3f 480f e88c 7f2f a4bf
00000320: 5eb7 404e c697 b4bf 71aa 5c60 a173 c43f
00000330: 6e37 ab84 621e cb3f 184d 3009 a27d bf3f
00000340: ea31 20ef 55bf ccbf 3394 78bb c1dd c43f
00000350: 0000 0020 aefd cbbf 9319 0cf1 b779 ba3f
00000360: 6324 746c 425b c6bf f9f3 8522 2e81 b1bf
00000370: 2628 948a 3658 b7bf c375 086f 96a7 94bf
00000380: 5a48 7501 30c7 c53f 7f33 76c6 7ea8 c13f
00000390: 5b51 7aa2 5c4f cd3f 7a54 2b46 82b9 b63f
000003a0: 632d 3738 b81f b1bf 58e1 1c75 48e3 b1bf
000003b0: 41d4 fcbd 0b22 c53f 2d13 377b 3048 c7bf
000003c0: ab5a 7540 1896 bbbf 16cc 2f82 bc32 c43f
000003d0: 0000 0060 b4ee cc3f dd50 bd61 6fc5 a3bf
000003e0: b5eb 01e4 69d4 c8bf fe9e b01c d498 ce3f
000003f0: bfae 4b7e fbd8 b93f 72dc a926 97ac c1bf
00000400: 0000 00c0 4a92 b13f dbfb 74c8 316f c63f
00000410: 465e 7d87 9e55 b1bf dba5 9be7 44e8 853f
00000420: b6fa d1f4 dc0c cb3f 0000 0080 3333 a6bf
00000430: 0000 0040 e996 c8bf 44c1 8f0a 4d53 c2bf
00000440: edd9 20f8 d86a bc3f b901 663d d46e bcbf
00000450: 4504 3945 9d76 b43f a576 0309 45a9 c23f
00000460: d809 5542 6f55 c0bf 6735 0591 7e7f bfbf
00000470: ba0b b1ec 69cd a13f afbc f64b 298d b1bf
00000480: c1c8 fcce a23f cdbf 3cac bcde 90a3 b1bf
00000490: 3df3 1c37 da56 61bf db6c 1d3a bc52 cbbf
000004a0: 4c06 b3dd ff80 ce3f 62f9 8a8d ab44 bfbf
000004b0: 3eb6 d1f2 9cae a13f f7ff 45d1 f66c acbf
000004c0: a6f4 7ad5 92ae cfbf 450d 9436 8d84 bb3f
000004d0: 0a5f ef2a 92c8 cc3f 5004 c313 3fef a53f
000004e0: 42b9 264e 6cb5 c53f 0000 0080 8de8 c5bf
000004f0: f37f fcc9 76a6 c33f b96e a179 5154 cdbf
00000500: 25ee 1e99 cb2f ca3f dbd0 80c4 2783 c0bf
00000510: 8d1a f26f ff2f c13f 753e 9b30 f82d b23f
00000520: a468 756e 9b75 c13f ed76 2fcb d651 c23f
00000530: 8c6d 2f7e efcc b8bf bc05 3636 b1a2 b23f
00000540: 2376 6675 c503 ce3f 6d56 b308 5f18 b23f
00000550: e70f ee26 9c5e a1bf 0b51 f432 443f c4bf
00000560: d83b fef4 3061 c13f 8ecd 2e26 6e83 bd3f
00000570: ee86 6600 b0bf a4bf 9415 410c 4225 c53f
00000580: 1c83 8c8b 4c0c a73f b048 26b6 4b8d b8bf
00000590: 46f6 a8b9 f407 8c3f db05 6620 f553 b1bf
000005a0: d004 1272 1518 b13f abda 1ad0 8f78 c83f
000005b0: 737c 6088 626b c83f 0000 00e0 61ff c3bf
000005c0: 6ffc 1a44 660f cdbf 8c7e 6c10 83e4 a23f
000005d0: 0000 0000 8fb7 c1bf 2e3f f23c 0a7c 9dbf
000005e0: b9cd fcff 0027 c9bf 619e 94b0 cae2 c63f
000005f0: aa64 4788 c7b2 bbbf 7f4c 4e6a d23f b7bf
00000600: d07b fb7b fabc b33f 3db3 7c1c 778a 85bf
00000610: 28aa 48f3 faca c4bf e212 c13e 7e99 a9bf
00000620: 70d3 91b7 8c40 7c3f ed45 267d d8eb bbbf
00000630: c17e f3d2 d98c c8bf 25dd 7fc6 3621 8b3f
00000640: d6c2 31b9 7ff0 c4bf 1298 e7cb 5da7 c3bf
00000650: ff98 7b9b 87d8 923f 4b88 e660 ac2a ba3f
00000660: 6158 838c 03df b43f d287 800d 138d bbbf
00000670: 0cc0 bf30 4127 c23f 0000 0000 51a9 993f
00000680: ffdf bd4b 963d c83f 9c96 2c17 b494 c83f
00000690: 17a3 aeb5 a7a1 c5bf 4f3c db7a 806c c03f
000006a0: 6f2a 0e82 4cf7 c13f ec31 bde4 9a0b a8bf
000006b0: 4790 67e3 8344 75bf a978 0e1f a392 bcbf
000006c0: 8f46 a497 291d b93f a3ff 9225 c0ed c13f
000006d0: ef39 aa11 a239 ce3f 4a37 85d3 4ac0 b1bf
000006e0: 25a4 8184 e07c b3bf e570 cf2f 3abd b73f
000006f0: eabf 7cd6 7d4a c8bf 55aa bad7 96b7 c5bf
00000700: d17e 0e29 393a 6abf 847e 5ad4 eafb 863f
00000710: 8ca4 ad36 6d70 b43f 8d09 ac6f b17d c3bf
00000720: 9a3c 0f2e eab1 97bf 4325 ea0e 2098 b63f
00000730: 64db 0877 b4f5 92bf 0fe8 37ca 387c c93f
00000740: cb3e 61e3 a033 ca3f 09df e9ac fdcf b2bf
00000750: 18af 29f8 5191 b2bf bea7 fa7d 9cef a8bf
00000760: 9e88 7d44 7c2d c53f 6d6f d977 19d0 c0bf
00000770: 0000 0020 da16 cdbf 747c 04f1 dfd2 a33f
00000780: 6b99 cc2e 84e8 cdbf 88e7 dd2d c486 cb3f
00000790: 8f6f fbf2 d72b ce3f 2665 e9ab 4881 b2bf
000007a0: 71fb 8e93 5077 b3bf 41bc 1771 0ab9 a4bf
000007b0: 655d 35bd 8938 bebf 0000 0020 e2e0 cbbf
000007c0: 10ec 46f5 e0ef 903f 420c d3e1 0716 c8bf
000007d0: a326 9b8f 528b a03f 0799 7647 856b c73f
000007e0: 36ac b27a 8ea1 b23f 44f3 d56f 5d2a b83f
000007f0: 7007 39bb 9fba a5bf 3826 1205 17b1 9e3f

layer1.weight f8 [256, 256]
-0.025007339270084635 0.033082100141343655 0.042068496346473694 -0.032473307836410545 -0.04451905151794724 0.055789458963822806 -0.025453561424084496 -0.015799956255543746
-0.05781414443562705 -0.0057056878587620945 -0.0003987550735473633 0.03686119484795135 0.05494298067509511 -0.03668961673974991 0.016160734958464252 -0.04761131024238491
0.05051460783644258 -0.044013510287717 -0.01608836286919312 0.001059211045141702 -0.019533027019014833 -0.042193418849098954 -0.054769012173458476 -0.04934234115661198
0.013711391798263372 0.022280241854944195 -0.03627921062395333 -0.01870634516355596 -0.016666948117903965 0.04863478164435648 0.021614305694703115 -0.05845062903537303
0.01589049326036666 0.03107711268522031 -0.04413592744719262 -0.044937315520827206 0.023655429746523963 0.0452287364982295 -0.05092174401551807 0.00917909249285856
0.026513030662843245 -0.04899151718103221 0.04435454283748844 0.043248126655746365 0.05378183416233737 -0.02503329675406461 -0.017687922737299057 -0.005996389465027444
-0.051990988208180565 0.03688913583755493 -0.04065765432173699 -0.031083840186918215 -0.025762132501824433 0.047569915359853644 -0.05605222399950913 -0.055296375548752226
0.03955762409482306 0.004268468803691813 0.06219882531998203 -0.022273201035325246 0.035685977641079586 0.03768091227961204 -0.04646572193588546 -0.0271514430642128
0.054725050390080986 0.03112042318024848 0.023279424089834664 0.006388249641823591 -0.04189541172830703 -0.051970126965935615 0.006612458067019733 0.0009451157316220448
0.034236808291902045 0.011012978700937192 -0.018616231302811082 -0.04296089144743109 0.05788861636612688 0.06037777453939018 -0.05651342690582372 0.002002287890062182
0.028471864744125393 -0.01974977500969621 -0.018194452091121447 0.05873572929740618 0.012797586497115737 -0.027185338537248128 -0.0057789564432415156 0.014171910042922965
0.03428320922550365 -0.057549989066689296 0.05932146761235946 -0.01808082625936805 -0.01967768396439689 0.03262190308924299 -0.05137834459659812 0.04652777864448473
0.0017506412187318612 -0.013155832584219389 -0.002666711988831141 -0.016598334123909455 0.04557127095032097 0.02982909529447159 -0.016905278894037284 -0.027520299534334464
0.015225977399827865 0.048701141458953476 0.004942812025547028 -0.01855014006402205 0.04540139363262161 0.02307611796553871 0.01463407707553632 0.031245795416109872
0.016432954687892097 0.03695191333242741 -0.017805602987441473 0.04536658987590292 0.027442340284757488 0.05145247201177973 0.045920889266920305 0.031989619364285383
-0.027651876977059644 -0.027166277284580886 0.05094318836927414 -0.044096434331367645 0.033904203511851506 -0.004581940832154847 -0.0355231878746652 0.008602300561406928
0.03242272138595581 -0.05883021761512809 0.03648206477574914 0.04120043108846075 0.0005708566658029536 0.013024501502513885 0.054169923067092896 0.03543265420189397
0.022352069775004552 0.056292605826162745 0.038708571454993554 -0.034451196306081705 -0.046339864068699575 0.0037375335462905665 0.005196379258556491 -0.00733975569372337
0.010281102190890045 -0.058594274891087234 0.02080588501140249 0.04004309876659579 0.056294618449971356 -0.010547364035918431 0.020184650587963298 -0.04754274790999116
-0.05675668787078483 -0.049021118611055264 0.007135626733384516 0.04813840000683118 0.00931570469994058 -0.049965471029281616 0.02854578031399157 -0.037919296748744065
0.015452493462268518 -0.00011408723223942376 0.020841950707991424 -0.045883819364192016 0.005795757218218314 -0.03338537934057816 0.02219711315384568 -0.04745765077366871
0.037496725953852277 -0.02934095023604028 0.05530128395177711 0.008303945062498095 0.024049893868600552 0.05249243508642281 0.016749369521885223 -0.021538046547711912
0.05340774505781804 0.05564700121796806 0.05108108712684595 -0.0019532644772179207 0.0202169494165629 -0.019859508241030426 0.0011025531686232166 -0.030021488666534424
-0.029705681485447742 0.05463047092378136 -0.024190492928028107 -0.032051750469975326 -0.051125417046856074 0.017175469373264828 0.00789576405933228 0.03547308967818509
0.039467603838800255 0.054791545509943425 -0.051950410502046115 -0.04177997776475272 -0.0027236765323806512 -0.03709873009629476 0.056926506595504106 -0.012924025228549338
-0.039885643094263984 -0.005513946830420521 -0.05197098376074415 -0.06079787245145548 0.02623898865393703 -0.054817319547292985 -0.04318292258459646 0.03625398129224777
0.008294847861223534 -0.024875677623202922 -0.009037944222631444 0.040830818789773855 -0.010717695367836223 -0.008194559461722208 -0.019464020718479535 -0.0011358805070836163
0.0514478733653124 -0.05530234922797687 0.013020345740794595 0.0279726491587658 -0.031893229782596164 -0.06267382097908002 0.016244167300843496 -0.058364226573488574
0.04303109256509757 0.042394270461453915 -0.03401808486497814 -0.01747942164733115 0.05684039931539166 0.024021818452749682 0.0561256996953558 -0.03172803143416499
-0.00029240697725985544 0.012618951824668349 0.05994598458780178 0.007908242781317637 -0.022290098034669054 -0.029440271052058088 -0.04960155487060547 0.008095475107565215
-0.04801859923323517 0.016083600156108394 -0.03192200469033227 0.05807040181910383 0.0019355039032031888 0.005314922406897518 -0.00417328472277646 0.057572536170482635
0.0030324825794578094 -0.057052323440604194 0.03188108150172744 0.0069905119630016286 -0.030309716234980067 0.04358551306020879 -0.036819992920893156 -0.034657210802917934
00000000: 2fca 4c21 869b 99bf 9750 6114 23f0 a03f
00000010: 0000 0080 008a a53f 3ef7 4c66 57a0 a0bf
00000020: 6315 a37c 33cb a6bf 3f1c 6c9b 6f90 ac3f
00000030: be5d 8897 7f10 9abf 3d4a 951d dd2d 90bf
00000040: 41c9 31c7 d099 adbf 55b5 12ec d85e 77bf
00000050: 0000 0000 0022 3abf 1e14 ba74 78df a23f
00000060: d6e0 4982 7c21 ac3f 0000 0040 fbc8 a2bf
00000070: 3df3 8090 708c 903f 384e d278 8260 a8bf
00000080: 316d 41f9 0cdd a93f b92a 8956 f088 a6bf
00000090: dd3a 7ac1 7779 90bf 88bb 1933 a75a 513f
000000a0: 4247 f440 7700 94bf 2a6a 2034 609a a5bf
000000b0: b80b 3d18 af0a acbf 33c5 263b 6643 a9bf
000000c0: e676 d9da b714 8c3f cdb0 74b8 a1d0 963f
000000d0: 7f24 4f4e 3093 a2bf a015 d292 c127 93bf
000000e0: ecb2 5cf4 2311 91bf 29a2 3879 a8e6 a83f
000000f0: 3c86 5680 0f22 963f a26d 46a8 3ded adbf
00000100: 2b7a 7bf3 9845 903f 476b 8cba add2 9f3f
00000110: 7ebb edf9 fb98 a6bf 7a60 1019 0602 a7bf
00000120: 915d 8904 2139 983f 17d7 3290 3828 a73f
00000130: df63 6732 6a12 aabf 90a2 82f0 7ccc 823f
00000140: d882 755e 3b26 9b3f 7ddd 2588 6a15 a9bf
00000150: b503 d57d a3b5 a63f 6b0b 3353 9e24 a63f
00000160: 8d38 b1e5 4a89 ab3f 1ba5 7a1b 54a2 99bf
00000170: 8a74 c366 c81c 92bf f789 578a ab8f 78bf
00000180: 3beb 1414 909e aabf 0000 0000 22e3 a23f
00000190: a5b1 497f 14d1 a4bf 3bca 2534 71d4 9fbf
000001a0: 773f 4872 6361 9abf 5df5 7c7d 155b a83f
000001b0: 9d54 e489 e0b2 acbf 7171 2379 ce4f acbf
000001c0: 69e6 969b e540 a43f 0955 a75e d07b 713f
000001d0: 35a8 3241 86d8 af3f bb87 1838 c9ce 96bf
000001e0: bcd7 c9b5 6e45 a23f 2448 d99b e94a a33f
000001f0: 5b06 33e8 5aca a7bf 0000 0080 96cd 9bbf
00000200: 0b0b 65fb eb04 ac3f cdf8 2f3f 08de 9f3f
00000210: c9ce 8ab4 8fd6 973f 6e22 a5b4 902a 7a3f
00000220: 2279 73be 5073 a5bf 2015 6017 d49b aabf
00000230: 1ae9 4d32 aa15 7b3f 4798 4194 34f8 4e3f
00000240: a5c4 dda7 7c87 a13f f909 d1fa f88d 863f
00000250: bd3b 7b22 2210 93bf 6025 8c4f f8fe a5bf
00000260: 54d7 34a4 93a3 ad3f 2e98 1aee d5e9 ae3f
00000270: 2fd8 b0f0 53ef acbf 00e9 2820 1a67 603f
00000280: 9286 ba7f ba27 9d3f bf7b 14f7 4839 94bf
00000290: 39ce cc02 91a1 92bf 9acd e008 9c12 ae3f
000002a0: 1062 c8fb 9e35 8a3f ddec ca2f 79d6 9bbf
000002b0: d114 dcce acab 77bf 07ea 3f91 2906 8d3f
000002c0: 60d6 d99c 918d a13f c169 da31 3177 adbf
000002d0: a00d b126 625f ae3f 28e4 dfb5 c783 92bf
000002e0: 0e39 5a04 6326 94bf e59b cd6d d1b3 a03f
000002f0: 07af 872b 434e aabf cb65 442f 7dd2 a73f
00000300: f7d0 03b2 b8ae 5c3f 8963 9bf5 71f1 8abf
00000310: b9c8 f418 80d8 65bf 67cc eb58 27ff 90bf
00000320: 2ed1 bc1c 1e55 a73f 513d 09b3 848b 9e3f
00000330: 2829 eb0f 9e4f 91bf 4884 e709 482e 9cbf
00000340: 2fec da17 cc2e 8f3f 962a b023 5bef a83f
00000350: 0000 0000 ea3e 743f 0e10 a5d3 cefe 92bf
00000360: fd9a b0f9 d93e a73f 7029 ec0f 44a1 973f
00000370: 3f94 9293 78f8 8d3f cb7d ccd5 e5fe 9f3f
00000380: c636 d8eb ccd3 903f 5e26 9376 5ceb a23f
00000390: 1a05 11ca a13b 92bf 5033 b227 4a3a a73f
000003a0: 0be8 3148 d819 9c3f c28a 2d79 fa57 aa3f
000003b0: 0396 355b f182 a73f f551 f681 f160 a03f
000003c0: 276f 280d c650 9cbf 8322 f701 7ad1 9bbf
000003d0: 0000 00c0 3915 aa3f 5c99 a5ce ce93 a6bf
000003e0: 7d87 8f4a e45b a13f 3bc6 6b60 83c4 72bf
000003f0: 4abb 5764 1830 a2bf a020 a73c 159e 813f
00000400: 0000 0000 b699 a03f 02da 5889 fe1e aebf
00000410: 446d 34f6 c6ad a23f f44a 3610 3918 a53f
00000420: 2a01 ec5a b1b4 423f 0000 0000 97ac 8a3f
00000430: 0000 0000 29bc ab3f aae5 0396 3a24 a23f
00000440: 75e9 b902 76e3 963f 985a 0f6a 62d2 ac3f
00000450: 26ba f220 9cd1 a33f 2ca9 e252 96a3 a1bf
00000460: 5b30 5ad1 dbb9 a7bf d92d 2b0b 2d9e 6e3f
00000470: cade 916f cc48 753f 0c8b a4aa 4a10 7ebf
00000480: 33e5 692d 420e 853f 1cb5 c79c 1100 aebf
00000490: 69d4 c04e 234e 953f 191c 446f 8780 a43f
000004a0: e8e9 5df2 a5d2 ac3f 9c07 bf3c db99 85bf
000004b0: cb3e a0f8 48ab 943f b4ea dee6 8557 a8bf
000004c0: 44f6 776c 360f adbf 2ce2 7eca 4b19 a9bf
000004d0: 7535 4d37 3f3a 7d3f 1916 6cab 98a5 a83f
000004e0: fd18 34b8 1c14 833f 0000 0000 1395 a9bf
000004f0: 1eb1 8ce3 1a3b 9d3f 61aa d876 286a a3bf
00000500: c32c 7f90 8ea5 8f3f ce4c b6b9 43e8 1dbf
00000510: 1be2 b3a2 9757 953f ca67 2b7f 157e a7bf
00000520: dd29 53bb 4abd 773f 4f5b dd70 e317 a1bf
00000530: 09da 3e0c d7ba 963f b129 0984 5e4c a8bf
00000540: d794 5b57 c532 a33f d117 cad6 8d0b 9ebf
00000550: acd7 ff2b 7350 ac3f bf09 c5a3 a801 813f
00000560: 5b38 8d0e 89a0 983f f798 f7d7 49e0 aa3f
00000570: 42eb 4c29 bf26 913f f128 2bd6 110e 96bf
00000580: f9bb c08c 4258 ab3f d00a b484 c37d ac3f
00000590: e8cf 4edd 4c27 aa3f 4f55 9ae1 4a00 60bf
000005a0: 36ae 4682 c0b3 943f 7bb4 a309 0d56 94bf
000005b0: b61e 4973 7110 523f 0000 0000 f4bd 9ebf
000005c0: 460a f189 2a6b 9ebf 0e27 f76b 86f8 ab3f
000005d0: 0000 0080 64c5 98bf 20a0 1848 1669 a0bf
000005e0: c7d4 6b54 1c2d aabf 36a9 013d 7296 913f
000005f0: 1b4b 4b83 a72b 803f 529c 1c60 8729 a23f
00000600: 666f 7a07 1935 a43f 5900 2030 a30d ac3f
00000610: e678 3d84 3e99 aabf ff22 416c 2f64 a5bf
00000620: 88e6 34b4 f64f 66bf f632 f9d0 9afe a2bf
00000630: 0cd9 3498 7825 ad3f d8ae 834d e977 8abf
00000640: fcee 5619 e46b a4bf 96c6 efd4 ca95 76bf
00000650: aeca 2fd7 f09b aabf bbd5 b013 e620 afbf
00000660: 5f58 98b8 64de 9a3f c385 6b05 0411 acbf
00000670: b33a 7e70 121c a6bf 0000 00c0 e18f a23f
00000680: a262 50a2 e3fc 803f 5113 6e77 0279 99bf
00000690: 26cb df56 7c82 82bf 39f1 bdee c6e7 a43f
000006a0: da2c bfb8 28f3 85bf c152 2527 4fc8 80bf
000006b0: 03f7 bc51 60ee 93bf bd5c 5368 3a9c 52bf
000006c0: 2d04 1b2b 6057 aa3f b5fa a6ea 9650 acbf
000006d0: c856 1d39 69aa 8a3f d20b 47b5 dca4 9c3f
000006e0: b697 c235 4f54 a0bf 5fa6 6b3b 640b b0bf
000006f0: b143 3b9d 4fa2 903f 4b68 c778 eae1 adbf
00000700: d875 8ede 2b08 a63f fce5 56aa b3b4 a53f
00000710: af6d ef83 d16a a1bf 1629 5021 20e6 91bf
00000720: 8268 4d50 2f1a ad3f 4b7d 94f2 2c99 983f
00000730: 1837 50f9 81bc ac3f 1b9d c012 a83e a0bf
00000740: 4a40 8a67 c629 33bf 4f8b 2c0b f7d7 893f
00000750: b389 a976 3db1 ae3f c3ac ea60 3232 803f
00000760: d88a 5528 37d3 96bf cd75 6a25 9725 9ebf
00000770: 0000 0000 6065 a9bf ea1c a946 5c94 803f
00000780: 63ea 9cd2 e495 a8bf 7490 b022 3878 903f
00000790: 74e1 55bc 1458 a0bf 5f75 5b59 67bb ad3f
000007a0: 1660 cb7d 17b6 5f3f c3c6 b19e 19c5 753f
000007b0: 0d67 6b96 0118 71bf 0000 00c0 257a ad3f
000007c0: 6c8b 24b0 93d7 683f c229 ad4e f635 adbf
000007d0: 8472 d294 b752 a03f 21d7 3644 15a2 7c3f
000007e0: 6dce eb9f 8209 9fbf 8690 5822 d750 a63f
000007f0: d74d def2 11da a2bf 3e2f f005 97be a1bf

layer1.bias f8 [256]
0.0421774681746525 0.056028891786423084 0.029492295521383168 -0.0044078926275550245 -0.014969236408020814 0.014626259636318764 -0.061044898591910854 -0.023766238917545934
0.05724105164210537 -0.02891453519409704 0.010848761905761015 0.02982078067654689 0.023521202076428206 -0.004274554547082193 0.01820928485521289 -0.06905040918018761
-0.02537560125044592 0.01561862259051039 -0.009905230259589417 -0.012181171091087458 -0.04813336580991745 0.016859248788015094 0.03267256156660001 -0.03866371512413025
-0.047692718404488924 0.07301930058479097 -0.008357537752153112 -0.0038874372839927673 0.030540246531007818 -0.04780888557434082 -0.03426266313736858 -0.05275015378999626
0.00020889018309249913 0.02084742769487608 -0.0443307483485432 -0.05461575128571912 -0.026735613866678606 0.008126255654434708 -0.0487380723794465 -0.019539690919524195
-0.033072799825543 -0.06053187559571894 0.014848018417122341 0.05766406865991174 -6.306056306041964e-05 -0.049948397082979004 -0.04208407264966535 0.0503402775515471
0.05307112817307426 -0.060017384588718414 0.016753435134887695 -0.002917608723959643 -0.04014814949126759 0.018932131418807677 -0.03430577367544174 0.04683762719824012
0.027577675879001617 -0.005026294524556638 0.05537852715341849 -0.03614196483296366 -0.00929275879139331 -0.018609002232551575 0.021424370515653025 -0.04050647347165421
0.0027632880126241873 -0.017672638115558387 -0.04303244633917001 0.01778394172742531 -0.03532664914458234 -0.06085739065642625 -0.007972480637181966 0.03158375392781518
0.026323927558027874 -0.045463778097009404 0.0074251242434487785 0.028380816033430536 0.06721786214113264 0.04702283140933948 -0.05443325871748185 -0.025864125471162392
-0.005946106475030938 0.049971048556615126 0.005621284199724665 0.04524456207292783 -0.05114617198705673 0.03153110527609963 0.02186161104047836 -0.006688125431537628
0.043693460593197765 0.041865896064885035 -0.03539706626018295 -0.020710109478791806 -0.012180920593386785 -0.005340394463633784 -0.023799792689199656 0.005525572099272292
-0.01772136241197586 0.05575916556963267 0.039265304052042795 0.01916506141424179 -0.00598473583007794 -0.009675994515419006 -0.050549138713582506 0.040696749761165475
-0.05953308106334257 0.05428716988924453 0.019947545474579862 -0.04299485721547415 -0.04122200086106299 -0.025170117616653442 -0.01823586735386628 0.005233066192861661
0.038246336507297606 -0.03660209312040199 -0.024377397747372916 0.018876980381890337 0.04120559592794043 0.037487030029296875 0.06756624703698566 -0.064974068657978
-0.022361621068657817 0.007558375597000122 0.034525721391024396 0.0015950328601277732 0.032843183936483576 0.030545609522334243 -0.016844253681750437 -0.03726195917611708
-0.02250230445937448 0.01189248263835907 -0.00024165471268674176 0.03198394440118734 -0.05382115022389185 0.0274293441737079 0.06260082581468722 0.005343639732264081
0.04611236995755536 0.028571893759495297 -0.02000498018981557 0.017710949387746398 -0.06835653363848387 -0.01917215839909162 -0.023503395439794527 -0.0379649761431629
-0.05206105952305054 -0.05539635276221443 -0.023562356225844308 -0.0052585060884602994 -0.05959811061620712 0.03992352407717191 -0.007676971263407127 0.002116358900387451
0.03700495215379548 -0.016463291982410703 -0.019229880436654048 0.025590228216086763 -0.053360377365185244 0.05676629397786918 -0.009742325814680958 -0.012058676943252316
-0.015565358644872315 0.016022560226361688 -0.04047656248161003 0.009164609014987946 -0.009611602553782047 0.03496750444173813 0.0536289778908278 0.05224046683491563
-0.009987541180517683 0.01679311095409828 0.0525844457682588 0.07774539061480103 0.04575584484907374 0.05610839046759901 0.038864938013367496 -0.06754907004884131
-0.04243582584140438 -0.04203170949429606 0.037049528876027596 -0.001236501447839936 -0.02709471789846106 -0.019495189600050998 0.023056731262637357 -0.03334033489227295
-0.05708013474941254 -0.06214781197399692 -0.037724073393304886 0.015608745645638888 -0.04943696702290719 -0.03267278894526014 -0.05388948554986141 -0.054908446967601776
-0.003181136381428686 0.04190942884043411 -0.019959830311859432 -0.06861047764978925 -0.027034398811974114 -0.02452047892986569 0.027012015623996192 0.0026507237642057185
0.006341895345015621 -0.020553672136943715 -0.017314109748404177 -0.04379233321342241 -0.03820487242865177 -0.024652808982838968 -0.011853364886112097 0.021461390352709893
0.009553997107874685 0.009075105935466947 -0.038063646496018476 0.04458455574498691 0.020550280809402466 -0.05974333721062579 -0.0007730890265009218 0.02947732973311659
0.02911541651878727 -0.06257363884333632 0.04877598564147073 -0.00131697374800688 -0.03321647464692096 -0.05711672825716826 -0.037201053331759694 -0.06537709437195738
-0.061556164200694034 0.02955546177948252 0.0015408318980555797 4.839099722155593e-05 0.06860609691579798 -0.05961814260954158 -0.05303984168479624 -0.04032927006483078
0.04773563582853921 -0.0490404130591299 -0.024189628110346282 -0.016879644716840888 -0.037088813670638994 0.000910170045147763 0.03368324786424637 0.04592221692106219
0.022505332704423453 -0.005250265111827926 0.028069463262913638 -0.05987358952476861 0.011669327276198429 0.05813757670309703 0.024058430691295693 -0.04619385346940314
0.05360117796701518 0.05351801961660385 0.014228682495197353 0.04930036509264816 -0.058145736940895844 0.04948600370401795 -0.028856833073627935 -0.023577416968826453
00000000: 7e5d e0fc 4898 a53f 9b26 b5a3 d1af ac3f
00000010: 7244 fe72 3a33 9e3f f7c1 dfaa 020e 72bf
00000020: b35f 8ce6 30a8 8ebf a806 6856 5ff4 8d3f
00000030: ee6c 14e6 4641 afbf 8360 994b 2d56 98bf
00000040: 223e 95f9 b24e ad3f a197 269c c59b 9dbf
00000050: 45dc b22c e037 863f 77e2 fcb6 5689 9e3f
00000060: 0d35 b926 f115 983f 3946 c1ff 3182 71bf
00000070: ff2a bf6b 74a5 923f 934e 34a1 49ad b1bf
00000080: a2b0 f2c5 0ffc 99bf 80e3 e009 a8fc 8f3f
00000090: eebc 3180 3149 84bf dea2 b41b 71f2 88bf
000000a0: 0000 00c0 efa4 a8bf d1f6 b708 8d43 913f
000000b0: 6d68 cf3e 75ba a03f 0000 0000 bbcb a3bf
000000c0: caf6 9b13 2e6b a8bf 6e0c fd93 64b1 b23f
000000d0: ce8d 90ba c11d 81bf 0000 0000 8cd8 6fbf
000000e0: 79f4 3f40 f145 9f3f 0000 0000 687a a8bf
000000f0: bf37 4c33 e08a a1bf 7025 c672 1102 abbf
00000100: 7b17 7a02 3161 2b3f 51f1 9e30 0759 953f
00000110: 4c78 ba14 85b2 a6bf 8abd 3c83 98f6 abbf
00000120: cf91 c8ac 9460 9bbf c5a6 3292 7fa4 803f
00000130: f12d e155 32f4 a8bf f5a9 e475 3602 94bf
00000140: cf95 4603 ebee a0bf a12a 19b4 08fe aebf
00000150: 3877 184c a368 8e3f a7e4 1812 2586 ad3f
00000160: 7e2b 5b39 ec87 10bf 3a04 eb17 d692 a9bf
00000170: 38f4 6c27 0b8c a5bf 5ccb 826b 33c6 a93f
00000180: a2f8 ba8f 232c ab3f 0000 0040 99ba aebf
00000190: 0000 0000 d027 913f 1d6b a941 abe6 67bf
000001a0: f6ac 1e5a 4c8e a4bf e13f 26d5 f162 933f
000001b0: 0000 00c0 8690 a1bf 0dce 13fa 19fb a73f
000001c0: 0000 0080 523d 9c3f a407 a6a9 7396 74bf
000001d0: cd95 0c06 935a ac3f 9707 f119 3381 a2bf
000001e0: 6809 caf8 1408 83bf 0000 0000 3d0e 93bf
000001f0: 9af7 ce2a 45f0 953f 5991 acb5 43bd a4bf
00000200: 4cc7 98f4 08a3 663f 9822 f6aa c618 92bf
00000210: dd20 634b 5908 a6bf cffa 7320 f435 923f
00000220: a9a9 81a5 5516 a2bf bfb1 2d2d b328 afbf
00000230: 9967 d63c e053 80bf bce5 68ec be2b a03f
00000240: 9123 dbdf a8f4 9a3f 4f94 2840 0747 a7bf
00000250: 8ea7 b59c ce69 7e3f 171d ca52 dc0f 9d3f
00000260: 656b 9a97 3035 b13f de09 2366 6013 a83f
00000270: a238 0314 adde abbf ad33 2714 207c 9abf
00000280: a0a6 94cd f15a 78bf 9b50 9826 ce95 a93f
00000290: a817 cafc 5706 773f 62a2 d994 4b2a a73f
000002a0: 0000 00c0 d42f aabf c666 ef53 d824 a03f
000002b0: 44b0 d3e1 e362 963f 0000 0000 0265 7bbf
000002c0: 9dfc 9740 fd5e a63f 8534 d55c 726f a53f
000002d0: 1675 ec73 901f a2bf 3dc8 a1eb 0735 95bf
000002e0: 2a8f ab7c 4ff2 88bf 92d0 1a39 cfdf 75bf
000002f0: a8bb 010d f95e 98bf 813b 5477 fba1 763f
00000300: 0000 0080 8c25 92bf efcb 2521 778c ac3f
00000310: 25c3 8af9 941a a43f 0000 0080 01a0 933f
00000320: de69 a54a 7383 78bf 0000 0000 02d1 83bf
00000330: b64a 3ba3 93e1 a9bf e52e 8e52 34d6 a43f
00000340: e4f3 64b8 1e7b aebf 0f8d 8826 87cb ab3f
00000350: 7990 cb1d 216d 943f 22f7 4503 6c03 a6bf
00000360: b2dc 25d3 0c1b a5bf 0000 0000 32c6 99bf
00000370: 7ea0 9857 6cac 92bf eb90 7f82 446f 753f
00000380: 0337 fb18 0695 a33f d3a4 d571 82bd a2bf
00000390: c2a0 5878 63f6 98bf 5fc0 8cb5 7c54 933f
000003a0: 786b d85d e618 a53f 0000 0000 8031 a33f
000003b0: f859 5685 054c b13f ec5c f9fb 23a2 b0bf
000003c0: e5a3 b3fc f6e5 96bf 0000 0000 88f5 7e3f
000003d0: 6192 7df8 5aad a13f 8b4c 197e 0d22 5a3f
000003e0: 03b3 ce61 d2d0 a03f 4b3f bd27 5947 9f3f
000003f0: 582c c1ba 9e3f 91bf f0b5 17e0 ff13 a3bf
00000400: 175a f316 d80a 97bf 0000 0000 165b 883f
00000410: b40a 032d 96ac 2fbf 3f7e 6616 3360 a03f
00000420: 5ae5 1620 728e abbf ff0b b520 7016 9c3f
00000430: eba0 9393 9b06 b03f b152 445e 36e3 753f
00000440: 1948 d161 0a9c a73f 1b95 2055 f341 9d3f
00000450: e485 b07e 2f7c 94bf 191e 9bb1 d122 923f
00000460: 6cf9 7154 d07f b1bf 4975 45c5 dda1 93bf
00000470: 0316 092b 4611 98bf c74a db35 2570 a3bf
00000480: 74dd 1748 bfa7 aabf 2fdf dc26 e95c acbf
00000490: d476 a0f5 ba20 98bf 4ae3 cf7a f189 75bf
000004a0: 0000 00c0 a483 aebf 8e4a 812c db70 a43f
000004b0: 587e 2348 e371 7fbf 50be 7088 5356 613f
000004c0: 0bc9 9426 50f2 a23f 2187 98d2 c0db 90bf
000004d0: 975f 536e ffb0 93bf 931d 2425 5334 9a3f
000004e0: aa12 5f27 0d52 abbf f5d5 4cc0 7810 ad3f
000004f0: 9097 16d6 c8f3 83bf 299a d538 38b2 88bf
00000500: 8b53 a412 bbe0 8fbf f580 aed0 3768 903f
00000510: 31dd 3910 58b9 a4bf 0000 0000 e5c4 823f
00000520: 118f 0b75 3faf 83bf 0000 00c0 42e7 a13f
00000530: 156a 51e4 4175 ab3f 59df 2a31 43bf aa3f
00000540: 76f7 e615 5974 84bf 1a41 6299 3632 913f
00000550: ccb6 b435 59ec aa3f f9f5 1a36 1fe7 b33f
00000560: d78a 7462 4f6d a73f a6d7 2d2c 3dba ac3f
00000570: 69fb 74eb 1ae6 a33f 1428 bc56 e54a b1bf
00000580: 81cd 5508 26ba a5bf 1690 5823 2e85 a5bf
00000590: 4aa1 b5e5 27f8 a23f 0f5c ea51 4342 54bf
000005a0: 7cac 12bd b7be 9bbf b6d0 0b07 8cf6 93bf
000005b0: d11a e70a 2f9c 973f 0000 0000 fc11 a1bf
000005c0: 0000 0080 9b39 adbf 067e e487 d6d1 afbf
000005d0: 2407 feda 9150 a3bf 1306 a360 7af7 8f3f
000005e0: 8a54 2759 cd4f a9bf 8e5e fadf 7cba a0bf
000005f0: f2e0 1114 6797 abbf 0000 00c0 f51c acbf
00000600: eb81 1d97 530f 6abf 2c04 8714 2775 a53f
00000610: 1e4d b189 5970 94bf 6a35 abcd 7490 b1bf
00000620: 00cc 0ecb e7ae 9bbf 4e18 587c e51b 99bf
00000630: d100 d1ae 09a9 9b3f fc85 187c f8b6 653f
00000640: 09bb 9f91 f5f9 793f c442 9096 050c 95bf
00000650: 3bd7 833c caba 91bf b832 efdd f26b a6bf
00000660: ae00 42cb 968f a3bf 66e3 5701 963e 99bf
00000670: 7b6a 44b4 9346 88bf 422d c486 f9f9 953f
00000680: 9dc5 fec8 0b91 833f 5cc2 9a19 f895 823f
00000690: e3da bb09 147d a3bf 45ae a971 c9d3 a63f
000006a0: 0000 0000 220b 953f 8673 f2be ad96 aebf
000006b0: 2bce f80a 2455 49bf 4765 b51c 4e2f 9e3f
000006c0: c9ca 0787 6ed0 9d3f 1781 6c74 d304 b0bf
000006d0: 8810 527e 2af9 a83f 0b32 5acb c993 55bf
000006e0: 5808 98f0 bf01 a1bf 9b8e d65f 673e adbf
000006f0: dd91 df36 040c a3bf 102d 3ca2 8dbc b0bf
00000700: 57e7 3720 4a84 afbf 1a52 0b77 c943 9e3f
00000710: bb0e 17a7 b73e 593f 028b ff00 ee5e 093f
00000720: 3f3f 8f4e 2b90 b13f 9232 83e9 4486 aebf
00000730: cea9 d7c2 0928 abbf 0000 00c0 09a6 a4bf
00000740: dc84 7925 ce70 a83f 14e7 8a34 d31b a9bf
00000750: 999c 8b76 2ac5 98bf bf93 1bc8 e548 91bf
00000760: f191 8613 4efd a2bf 065a f249 0fd3 4d3f
00000770: 0000 0040 ee3e a13f 58eb abe7 1d83 a73f
00000780: a0ec cd4f a30b 973f 90c8 354f 4d81 75bf
00000790: ec04 ecca 3dbe 9c3f 3e57 ce49 c0a7 aebf
000007a0: ce07 2498 16e6 873f 6d8c 375d 35c4 ad3f
000007b0: 8c7d 0cf4 c5a2 983f 69c7 da83 b8a6 a7bf
000007c0: a772 ca14 9d71 ab3f 0000 00c0 b666 ab3f
000007d0: f337 db6f ed23 8d3f f5ef 81bf e53d a93f
000007e0: 2d3d 202d 47c5 adbf c777 09bf 3a56 a93f
000007f0: d8fa 4449 a58c 9dbf 6897 38ab ad24 98bf
