python/snapshots/snapshot1200.pt (torch_old, 584819 bytes, 6 tensors)

layer0.weight f8 [256, 18]
0	0xbfc640cb609e5167	-0.17385236947724111
1	0x3f73c096be8370a5	0.004822338909630163
2	0xbfc74c0a726ddb05	-0.18200808131560833
3	0xbfcab86ab8638149	-0.20875295642236782
4	0x3fb6887ec1fa7061	0.08802025066182885
5	0x3fc5827b60fd3821	0.16804449306295147
6	0x3fb65e9dc1fa7061	0.08738122926519189
7	0x3fab05c6ad90eea1	0.0527784430382472
8	0xbfcb46e7a0081e6a	-0.21310134233521022
9	0x3fc234eb21ef97ae	0.14223994404818313
10	0x3f8dbb3e0b62c139	0.0145172927117022
11	0x3faf3c2b0196b9c1	0.06100592035669506
12	0xbfc8c5931d07c726	-0.19352950017451426
13	0x3fc039aea0fd3821	0.12676031933591594
14	0x3f9a628cc19fc082	0.02576656276500034
15	0xbfb9fcfa1647f50d	-0.10151637119266273
16	0x3fa5663408bf5ba6	0.04179537398129378
17	0xbfc0fc98608d8001	-0.13270859446038233
18	0x3fa4890493b4e8e4	0.04010786345539133
19	0x3fab9d5bb5f16fbd	0.05393492313370938
20	0xbfa473090e367e83	-0.03994015024659083
21	0xbfcec1a59f688186	-0.24028463634114078
22	0xbf689c96c55e7915	-0.0030043549295008056
23	0x3fc99f8b934360b4	0.2001814335878912
24	0xbfa8c05b4ca571aa	-0.04834256468413696
25	0xbfc9f8aceeaa6901	-0.2029014745101634
26	0x3fc6236fe4d6ab8f	0.17295645402677137
27	0x3fa2d8a9789b99be	0.03680924985183108
28	0xbfc7886a1e16acfe	-0.18385054082077795
29	0x3f9cbe571fbe0e84	0.028069840729143994
30	0xbfc2f5a223f05e55	-0.148121135280905
31	0x3fa50b7967f0ba24	0.041103166521100826
32	0xbfc8abde16c313f4	-0.1927449809210483
33	0xbfc322faec8fe6cb	-0.14950501013645687
34	0xbfa041426d61c16d	-0.031747890331533
35	0x3fc61013ac469bec	0.17236562644868003
36	0xbfb445ae00000000	-0.07918822765350342
37	0xbf976c4c00000000	-0.022874057292938232
38	0xbfcc62f400000000	-0.2217698097229004
39	0x3f434aa000000000	0.000588729977607727
40	0xbfc1455580000000	-0.1349284052848816
41	0xbfc845cc60000000	-0.18963007628917694
42	0xbfc32db9a0000000	-0.14983291923999786
43	0xbfc48a5c60000000	-0.16047243773937225
44	0xbfc1afe3e0000000	-0.13818024098873138
45	0xbfc32d3960000000	-0.14981763064861298
46	0x3fcd48d920000000	0.2287856489419937
47	0xbfb49f5540000000	-0.0805562287569046
48	0x3fb0016740000000	0.06252141296863556
49	0x3fadb9d180000000	0.05805830657482147
50	0x3f985e8900000000	0.023798123002052307
51	0xbfaf783d80000000	-0.06146423518657684
52	0x3fbfc17340000000	0.12404556572437286
53	0xbfcb922280000000	-0.2153971791267395
54	0x3fb6c13b4f65f54d	0.08888598144945555
55	0x3fc5029305d86f5d	0.1641410616438134
56	0xbfc7bda2cf6110e6	-0.18547473073898074
57	0x3fa432876e8d64f6	0.03944800591006896
58	0x3f68d6e1ed064c35	0.003032151471594991
59	0x3fc8e979744e734e	0.19462507418657043
60	0x3fbe80510e4abe08	0.11914545630383355
61	0x3fc65ce66b4c2def	0.174710085288424
62	0xbf9723f9e0b68016	-0.02259817537344596
63	0x3fcd44ac7fb9c991	0.22865825878723148
64	0xbfc279a7fddcb167	-0.14433765311822386
65	0x3fb4f6bf9cdbf1d8	0.08189008311814605
66	0xbfca1b01ccd429ca	-0.20394918919948984
67	0xbfbfd0c55f7c1d1b	-0.12427934247181265
68	0x3faefeda28218c59	0.06053811778908686
69	0x3fb06df3b86b6700	0.06417773487501321
70	0x3f6f6eb9b648e7e2	0.0038369776905513445
71	0x3f7c8c5b204a9e9c	0.006969791375616954
72	0x3fbfa5f882293490	0.1236262624526765
73	0xbf78c1a06e8c9100	-0.00604403179821511
74	0xbfc6dabde103ed61	-0.1785504673679084
75	0x3fca32a22be3e6aa	0.20467021124914214
76	0x3fc3916a7e28295d	0.15287524375919306
77	0x3fab353fcea3dcdc	0.053140634512539114
78	0x3fb92ab65af215f5	0.09830798836090777
79	0xbfc10aabc416e502	-0.13313815188102046
80	0x3fc5fb356772838a	0.17172877837313322
81	0x3fba7e6b75048fd9	0.1034915123642003
82	0xbfb98c41bc6beb5f	-0.09979639864097355
83	0x3fc329624e5bb9e8	0.14970043970193037
84	0x3fa758d5ca43e5ad	0.04559963316018965
85	0x3fc4a78315c306d5	0.16136206209744466
86	0x3fc3e30ff334b211	0.15536689162526376
87	0xbfca8f2146bb4e12	-0.20749298051542603
88	0xbfbf9e3ebd00292a	-0.12350837816498897
89	0x3fb113ef7a11f16c	0.06671044092394646
90	0x3fbfd0fe2b21d93d	0.12428272774727574
91	0x3fcb617a5447e2be	0.21391228785775768
92	0xbfa00bfea216bdee	-0.031341511999354185
93	0xbfcbcd9f94fa2951	-0.21721262716557502
94	0xbfbbdc0931c64c04	-0.10882623162460453
95	0x3fb157a3e615d68f	0.06774353377644558
96	0xbfcd5dbb65df6fa6	-0.22942297434098896
97	0xbfbce1a051cdf28e	-0.11281778332881684
98	0x3fbab74a1ec098f1	0.10435927630223653
99	0xbfc87042bedd1267	-0.19092592544088235
100	0x3fc9939d0772d35c	0.19981730331133007
101	0xbfbc0af835e70c98	-0.10954238239269143
102	0x3f999c73df6ebd6b	0.025010881912462517
103	0xbfc1f988aa2354f5	-0.14042766864319103
104	0xbfbafb5ac900ad93	-0.10539786727229332
105	0xbfb71808a2cc2727	-0.09021047567889849
106	0x3fbfd9a0dab88fda	0.12441449489466497
107	0x3facb955adf018f5	0.05610149143471858
108	0x3fba0d13ed716bdb	0.10176205203008186
109	0x3fcd81afe757ba51	0.2305202369311297
110	0xbf9cffd98d89cccb	-0.028319739593325715
111	0xbfc53a3e2b44c624	-0.16583993065573666
112	0x3fbb73a3603db8ce	0.10723324870716341
113	0x3fb56d4ad832694e	0.08369891908879376
114	0xbfa6a395d1b95dcf	-0.044216806269726676
115	0xbfc94351f46ec175	-0.19736694750964615
116	0x3fcd47414b5c375a	0.22873703174303267
117	0xbfc4b3648d663d4d	-0.16172463325754408
118	0x3fbdf2e43d936699	0.11698748114886327
119	0x3fb1ff9fba358397	0.07030676170462723
120	0xbf9ff8544beff091	-0.031220738539545826
121	0xbf8621e4c974907f	-0.010806834600380675
122	0x3fc8511f15a2bd24	0.18997562939100832
123	0x3fc5ded3ee45728d	0.1708626664575558
124	0x3f8eee84792c10d0	0.015103373477821341
125	0xbfc2fa1a4ca3bf41	-0.14825752966089037
126	0xbfc8c2366e2d21c0	-0.19342689876272168
127	0xbfc2a1a77295ba7f	-0.1455582913872213
128	0xbfaefb316e09155d	-0.06051020115095682
129	0xbfafa0877d6a4ab7	-0.06177161603877351
130	0xbfa5cbe1936bed11	-0.04257111477451237
131	0x3fc008b50932a1d4	0.1252657217894596
132	0x3f874515aa7fe94e	0.011362237230049612
133	0x3fa04295e131df2e	0.031758006801224745
134	0x3fc3709a96f7540d	0.15187389727967152
135	0xbf8988cd5020ee56	-0.012467960365135127
136	0x3fca638d64c28adb	0.20616309566420096
137	0x3fb3a2e9eaf82bcc	0.07670461641843856
138	0xbf92c249cc5962d3	-0.018319275948985258
139	0x3fc2f73dad669e57	0.1481701943096023
140	0xbfac0cb5f6cc9c25	-0.05478447568594217
141	0x3fc9dc97224d2afb	0.20204438376307352
142	0xbfce73c0e3bf4099	-0.23790751572096694
143	0x3fc6296fdf1914f4	0.17313955682235582
144	0x3f95329e83bddbc7	0.020700909415122284
145	0x3fb654f7976fa746	0.0872339958874849
146	0xbfcb6a33d6f74dab	-0.21417854305637482
147	0xbfb119797bc5faf4	-0.06679496070681151
148	0x3fc8489c3cf1cffe	0.18971589065370148
149	0x3f91adb45cc3a5a2	0.0172641927355578
150	0xbfc7227a3ae1cbfd	-0.1807396686086519
151	0xbfaf0e39d1e1ef59	-0.06065540968935918
152	0xbfc2de7773948457	-0.14741414207040535
153	0x3fae8f07ad78157f	0.05968498222868401
154	0x3fc7b252b6ed0f9d	0.18512948924955888
155	0xbfa66dada31c6173	-0.04380552879428281
156	0xbfc1837fecef8596	-0.1368255526458994
157	0x3fc92d5d209dee8e	0.19669689266799079
158	0xbfc8c54f2024e295	-0.1935213953927543
159	0x3fb77507cd38fb90	0.09162949333493331
160	0x3fc354af97b27112	0.1510219088276093
161	0xbfcd66290274512d	-0.22968018169252372
162	0x3fc335f102fbadcf	0.15008366246853064
163	0x3fc9ce629484b1b7	0.20161087276336584
164	0xbfcd47f3ed51582f	-0.22875832641392566
165	0x3fc992f435be326b	0.19979717849891485
166	0x3fa75bbeab6391eb	0.045621832295896635
167	0xbfb9a91c842f2863	-0.1002366850581509
168	0x3fcc2a0b673a0773	0.22003309765210197
169	0xbfc11c1801bda33e	-0.1336698540210594
170	0x3f9490d4cc2ef518	0.020083737337462798
171	0x3fbec37ac44e88bf	0.12017028134008266
172	0xbfca4add5992528b	-0.20540968774425425
173	0x3f80d724dba124f7	0.008222854569015043
174	0xbfca921b594b3207	-0.2075838266377021
175	0x3fc0dbd9959e0c63	0.13170928769622767
176	0xbfb19d32f8bd1938	-0.06880491802903499
177	0x3f9461a88a0d586f	0.0199037870655378
178	0x3fb38b45abf0eda5	0.07634387443334008
179	0x3fb293d46730af3e	0.07256820220271451
180	0xbfbd979b60000000	-0.11559458822011948
181	0xbfc1425d40000000	-0.1348377764225006
182	0xbfcac7e3a0000000	-0.209225133061409
183	0xbf84598600000000	-0.0099363774061203
184	0xbfb61f3240000000	-0.08641351759433746
185	0xbf9e7dd700000000	-0.029776915907859802
186	0x3fc5241c20000000	0.16516448557376862
187	0x3fa3bf3b80000000	0.03856836259365082
188	0x3fa1ccf380000000	0.034766778349876404
189	0x3f8db7e600000000	0.01451091468334198
190	0x3fb71b0dc0000000	0.09025655686855316
191	0x3f818be600000000	0.00856761634349823
192	0xbfb4d59ec0000000	-0.0813845843076706
193	0x3fc2670ca0000000	0.14376981556415558
194	0xbfcc358180000000	-0.22038286924362183
195	0x3f93956100000000	0.019124522805213928
196	0x3f71225c00000000	0.004183158278465271
197	0xbfcc76fec0000000	-0.22238144278526306
198	0xbfc324bca5b16cdf	-0.14955862131578265
199	0x3fa6dc94a92e4121	0.04465164723581184
200	0xbf9d0adb35713080	-0.028361725937700033
201	0xbfbcb151f825561f	-0.1120806914162462
202	0x3fcb950a591656a8	0.21548585271800857
203	0x3fc806c421a45587	0.1877064861552464
204	0x3fcd74cb7751e2b5	0.230126794110921
205	0xbfa8c3bd6a0b19f3	-0.048368376917597454
206	0xbfc2a413e1301a64	-0.14563225265029012
207	0xbfad0177404536bc	-0.05665180835295078
208	0xbfc1214f855d1b7a	-0.13382905971431197
209	0x3fc7ff51c3ae79fd	0.18747922949565057
210	0xbfbcb2d99313aa10	-0.11210403290503046
211	0xbfb5884c23441c6a	-0.08411098347652204
212	0x3f933a198fcfedbc	0.018776320841409108
213	0x3f7a9529d4086855	0.00648990954553071
214	0x3fb6f136adffa6b4	0.08961812732709512
215	0xbfbe4c60e7a5c31d	-0.11835294394928693
216	0xbfb9aafb3d3a533b	-0.10026521916217927
217	0x3f982225ac1f828b	0.02356776106887763
218	0x3fbb64912fe3778e	0.10700328272966272
219	0x3f93d778dd4807c2	0.019376648431723494
220	0xbfc224ab575501f5	-0.14174405826817318
221	0xbfc43c86b0388c87	-0.15809711079154828
222	0x3fc82e204e5d363d	0.18890765978214744
223	0x3fbea19391b35d2c	0.11965296084541838
224	0xbfb5168f8ecfd3a5	-0.0823755000745466
225	0xbfac45a08660eb49	-0.0552187122379651
226	0x3f9539bdb7cb063f	0.020728077261770613
227	0x3fb7157b602cbe7a	0.09017153833405614
228	0xbfcd904a9c966394	-0.23096592565414353
229	0xbfab982b80b8c967	-0.05389533945380514
230	0x3fc8a6d615a2e261	0.1925914388318857
231	0xbfc151e299a2b968	-0.1353114366697341
232	0x3faafc16783c4528	0.052704527070213836
233	0x3f948af9a8656ee4	0.020061398413743783
234	0xbfc4621f40000000	-0.15924444794654846
235	0xbfc2810880000000	-0.14456278085708618
236	0xbf6e05a800000000	-0.0036648064851760864
237	0xbf889eba00000000	-0.012021496891975403
238	0xbfc0e78c80000000	-0.13206630945205688
239	0x3fa0f66380000000	0.033129796385765076
240	0x3fb1574dc0000000	0.06773839890956879
241	0x3fc25b0be0000000	0.14340351521968842
242	0xbfc58bda80000000	-0.16833049058914185
243	0xbfb4bc2180000000	-0.08099564909934998
244	0x3fc03fbd60000000	0.12694518268108368
245	0xbfb8c99300000000	-0.09682577848434448
246	0xbfc0732e00000000	-0.12851500511169434
247	0xbf8b5a7000000000	-0.01335608959197998
248	0xbfbe49b780000000	-0.11831232905387878
249	0xbfcc079ac0000000	-0.21898207068443298
250	0x3fb073c6c0000000	0.06426660716533661
251	0xbfc7292420000000	-0.18094302713871002
252	0xbfb3c9c6339bbce2	-0.07729758033723358
253	0x3fb1d31c782a2add	0.06962755140026951
254	0xbfbf96d50706ca49	-0.1233952657847023
255	0x3fc30505e82ae936	0.14859079204854603

layer0.bias f8 [256]
0	0x3fbd1e08c1fa7061	0.11373953567312035
1	0xbf9574452e791254	-0.02095134826801577
2	0x3fa8c6b180000000	0.048390910029411316
3	0x3fc58e101a77ba3a	0.16839791576735924
4	0x3f7456e29f66053f	0.004965672726372105
5	0xbf4205a10d9354c1	-0.0005499874488587229
6	0x3fa6a61038df28c9	0.044235712950084834
7	0xbfc497102650d8d0	-0.16086007948769643
8	0xbf5e5157c42243bd	-0.0018504483310019936
9	0xbfba3922cd725a4d	-0.10243432536877002
10	0x3fa8be6d80000000	0.04832784831523895
11	0x3fb34ae9be6f6e13	0.07536183261202493
12	0xbfb266dba5223c90	-0.071881988349775
13	0x3fba1ac540000000	0.10197098553180695
14	0xbf8318da9927de5d	-0.009324748801176225
15	0xbfc4369fcd9b31a5	-0.15791699923864858
16	0xbfc6332f35c22a46	-0.17343702435421643
17	0x3fc50d66502a552c	0.1644714251930649
18	0x3fac8cc8b2523efe	0.055761596458181004
19	0xbf9102ffea0a80c4	-0.01661300531361644
20	0xbfb34ac6402ca256	-0.07535971705204622
21	0xbfc6ff91636e81fe	-0.1796743140703398
22	0x3f8e78e525bf08a0	0.014879026617453939
23	0x3fc5d064a7842f65	0.17042215518483342
24	0xbfb4766190fea73a	-0.07993135251913666
25	0xbfa2738bf4f6736b	-0.03603780141131704
26	0xbfc555c7d023f9e6	-0.16668031371223363
27	0xbfbd09150b766809	-0.11341983346792985
28	0x3fc251b1766fafbf	0.14311807902356397
29	0x3fac5003c076d9a0	0.05529796337525572
30	0xbfc6e8f03604d51b	-0.17898371350899187
31	0x3fc2ecc48db262cc	0.14785057944097557
32	0xbfccbb3f1d4c1e16	-0.224464310937251
33	0xbfca23820d736c36	-0.204208618705566
34	0xbfb196595a267cff	-0.06870039416252281
35	0x3fc7420977ba7a32	0.18170278879274943
36	0x3fcc667a6eb9909d	0.22187738806235738
37	0x3fcb750d73a9f9ae	0.2145096602216205
38	0x3fc61f7e2761e10f	0.1728360836311897
39	0xbfc5b4f8a0e2e66f	-0.1695853028848435
40	0x3fcd4816da46ee76	0.22876248987255438
41	0xbfb2e3b0eb3f891d	-0.07378679030765452
42	0xbfc592fd85cbd49d	-0.16854828866022312
43	0x3f8e836942e19da2	0.014899084428363466
44	0x3fb7177ba97a7ba6	0.09020207297952129
45	0xbfbb1e4571bdb945	-0.10593065287477994
46	0x3fcc094eab9ebd07	0.21903403644453354
47	0x3fcd0135d7b16225	0.22659943611030645
48	0xbfca89c4a01a01c4	-0.2073293477769892
49	0x3fb1144940000000	0.0667157918214798
50	0x3fc5f1d3f1fe30c1	0.17144250217496018
51	0x3fca82b6827fdee4	0.20711404201551098
52	0xbfa0b60af3092b83	-0.0326388761210046
53	0xbfca6d3e3790ed6e	-0.20645883286656946
54	0x3fa91c46e97b8372	0.04904386139037954
55	0x3fa326b9718191c0	0.0374048186356819
56	0xbfb5c1e027db46cf	-0.08498955700931819
57	0xbfc66d90f437cf8f	-0.17521869587619363
58	0xbfa7181e672c1921	-0.0451058865492533
59	0x3fc2e06630d17495	0.14747311958027312
60	0x3fc8e1ce58fcabaa	0.19439105362957082
61	0xbf931a23816344a9	-0.01865439870090727
62	0xbfafb02680000000	-0.061890795826911926
63	0xbfcc4d0ba0000000	-0.22110123932361603
64	0x3fc43bde7f6c72a0	0.15807706090790408
65	0x3fcdd64e972ed654	0.23310263044338575
66	0x3fcb16b6abb387f1	0.2116306627640934
67	0x3fcaa5445b7fd567	0.20816854923001957
68	0xbf9b5031e49c8404	-0.026673106745082734
69	0x3fcb0f4707d6b389	0.21140373118160152
70	0x3fc06a1bd2280515	0.1282381797937339
71	0x3fc1d74656f86cb7	0.1393821644458961
72	0x3f8578088202eb3b	0.010482851474412072
73	0x3fca4ffbd92368b8	0.2055659113164603
74	0xbf810fd42e81b97b	-0.008330972356102908
75	0x3fbcab05b1721556	0.1119845922676935
76	0xbfc3a4a1268c42a6	-0.15346159345837868
77	0xbfb16f0a0835cd5a	-0.06810057354396318
78	0xbfb8884216373145	-0.09582913439152659
79	0xbfcc2fafe6b0e7d3	-0.2202052952214318
80	0xbfc5a30a95169f69	-0.16903812675195276
81	0xbfc3306b01f642a4	-0.14991510005758812
82	0xbfc86137b1e6b1d9	-0.1904668444307294
83	0xbfb14a74eb99ef54	-0.06754236938462316
84	0x3fc51582431cfddb	0.1647188976003083
85	0x3fce4a83a883b4db	0.2366489956688501
86	0xbfcd83273eac8f0e	-0.23056498108154994
87	0xbfc3a4b48b75b25b	-0.15346390542562713
88	0xbfb111295fe99566	-0.06666811553585247
89	0x3fc33218039e5015	0.14996624161415242
90	0xbfbbf103c02a7db2	-0.10914634172012574
91	0xbfc29bc521d1e36b	-0.14537872458802367
92	0x3fc765ae5cd12477	0.18279056102827315
93	0xbfb77d3867c82f68	-0.09175446065654358
94	0xbfa51f62df00b466	-0.041255082818999964
95	0xbfc44042c0df271c	-0.15821108262599004
96	0xbfc59252c51b5a93	-0.16852793335302305
97	0x3fc5d512b419d6e3	0.17056497377387023
98	0x3fcb900d78028539	0.21533363685470322
99	0xbfa453a2e1c0c0bb	-0.03970059400342182
100	0xbfb45f5aace2f7b3	-0.0795799896322638
101	0x3fc46f543647aae2	0.15964749002826922
102	0x3fcb3a62dad240b0	0.21271930393823402
103	0x3fbef399c7c0bf37	0.12090455176143854
104	0xbfccb6893cb65383	-0.22432055916274515
105	0x3fc5d4b30ac78a63	0.17055357004490465
106	0xbfcbfdae20000000	-0.21867920458316803
107	0x3fb8e63ac26e3872	0.09726302382316179
108	0xbfc63751209b903b	-0.17356313793345798
109	0xbfb217e6cdabb26c	-0.07067720910317526
110	0xbfb7628840f063b2	-0.09134723267960856
111	0xbf932c5ded7fcac1	-0.018723933811950703
112	0x3fc57d6418c22eb4	0.16788912972366676
113	0x3fc1bcd0b62b06ab	0.13857468504834478
114	0x3fcd4f660987a98a	0.22898555245712898
115	0x3fb4a9fcf531ab4f	0.08071881281072744
116	0xbfadf97b29e3087a	-0.05854401480020584
117	0xbfb1d2ccba6e8ccd	-0.06962279845770354
118	0x3fc53973490ae8d1	0.16581574503454147
119	0xbfc7558f5eff28c8	-0.18229858530532383
120	0xbfb9707f8b709059	-0.09937283663072217
121	0x3fc54dd0a14188aa	0.1664372241385242
122	0x3fcceeb460000000	0.22603468596935272
123	0xbfa4550eeadd59ed	-0.03971144310951389
124	0xbfc963dcedd0a679	-0.19836007701933392
125	0x3fce141c534872e9	0.234988728204278
126	0x3fb9def8cc8e206b	0.10105853075049402
127	0xbfc20c5104f60bfb	-0.14100086920015528
128	0x3fb1924ac0000000	0.06863848865032196
129	0x3fc685765112a173	0.17594794233924524
130	0xbfac42812d9f3ab8	-0.05519488984974913
131	0x3f91ef691c0454af	0.017514841399208943
132	0x3fcab1c04ebf8b7a	0.20854953618171718
133	0xbfa6333380000000	-0.043359383940696716
134	0xbfc896e940000000	-0.19210544228553772
135	0xbfc37e75621172fc	-0.15229670799717343
136	0x3fbe2c52f5780705	0.11786383145229358
137	0xbfbad4d977fc28e8	-0.10481032542535085
138	0x3fb49137ca9dc6f1	0.08034084984481261
139	0x3fc35e4e8acf333c	0.15131551530648746
140	0xbfc06165e02f2a66	-0.12797234961029175
141	0xbfbdbd914ba42f3f	-0.11617382141792819
142	0x3fa1318f683ff290	0.03358123920040612
143	0xbfb1772c6de43750	-0.06822469408890908
144	0xbfcd654b9a2eb701	-0.2296537878841534
145	0xbfb1461ff3f1d2c3	-0.06747626977614644
146	0xbf639d2410c7a267	-0.0023942665486525352
147	0xbfcbe775bedb43a0	-0.2180010969082362
148	0x3fce947e7bc36f2c	0.2389066795648146
149	0xbfbeea3480e9c940	-0.12076118609710296
150	0x3f957be08b47aa6f	0.02098036623093907
151	0xbfab4ce472a2e554	-0.05332101725930252
152	0xbfce820de63aaaaa	-0.23834394208582427
153	0x3fbbff9c240b0edf	0.1093690479274829
154	0x3fcd042c1896f7ff	0.22668982697172166
155	0x3faa3050219c35b0	0.05114984903603259
156	0x3fc5ee8fe799cdf4	0.1713428383696819
157	0xbfc5e88d80000000	-0.17115944623947144
158	0x3fc449115b55e471	0.15847985229246178
159	0xbfcd7522d50acdc6	-0.23013720896197593
160	0x3fc9d803ad50a12d	0.20190473520893573
161	0xbfc0931be3e0d322	-0.1294894087492589
162	0x3fc229f3f866fe70	0.1419053042318299
163	0x3fb323b642b6b2ab	0.0747636711955219
164	0x3fc178cd50a191f6	0.1364990848261553
165	0x3fc2af0df2a8d08f	0.1459672388897428
166	0xbfb8f8de7168b711	-0.0975474383237407
167	0x3fb2a300a358dca7	0.07279972064940186
168	0x3fcd9a30ea02181e	0.231268038045699
169	0x3fb1f5b0498bed25	0.07015516086169223
170	0xbfa43d364e889b7c	-0.039529511534332124
171	0xbfc4568b63d88f09	-0.15889112830438304
172	0x3fc102a19fa37fcc	0.13289280218941568
173	0x3fbdbb5ced604802	0.1161401824504367
174	0xbfa162edb940cacd	-0.033957890380767
175	0x3fc652223849b2da	0.17438152073318386
176	0x3fa6e6bb1633a5dc	0.04472908636109782
177	0xbfb6604c099d0969	-0.08740687594130282
178	0x3f92d16cf76212ff	0.0183770204535163
179	0xbfb1b41407b71690	-0.0691540259204777
180	0x3fb0dc8b002edbd7	0.06586521868199156
181	0x3fc9050f452dac4d	0.19546690824367588
182	0x3fc86c6a31bb5b43	0.19080855778039493
183	0xbfc3ff61e0000000	-0.15623115003108978
184	0xbfcd71a86ab35dbf	-0.2300310631751312
185	0x3fa14e3c9d8d1e79	0.033800024254159795
186	0xbfc1b78f00000000	-0.13841426372528076
187	0xbf98e73eb47ee6c9	-0.02431962944658642
188	0xbfc8197f1408110b	-0.1882780883607967
189	0x3fc6c8cd0e519f13	0.17800296019708436
190	0xbfbbb06d563ffbf3	-0.10816081386290914
191	0xbfb615dbad7a092e	-0.08627102837821063
192	0x3fb3cff5fc4d7b18	0.07739198121769808
193	0xbf72b7788d675c8b	-0.004569502742433627
194	0xbfc4b49bc2d6e534	-0.16176173223156243
195	0xbfa76e1fea5f24be	-0.04576205955488309
196	0x3f8af60b64a2a0a6	0.013164605148930097
197	0xbfbbfe2e285fe1e7	-0.10934723363596498
198	0xbfc7ed1e118ec9c4	-0.18692375047028353
199	0x3f88bd891a729b32	0.012080260390872153
200	0xbfc44a365887db23	-0.15851477930819965
201	0xbfc28d406f49e98f	-0.1449356597330049
202	0x3f96682b262e60db	0.021881746487992664
203	0x3fba816578173654	0.10353693181897344
204	0x3fb3d2a4d12584ed	0.07743291956059624
205	0xbfbba9e9ae3b52a0	-0.10806141380028089
206	0x3fc2075238aad022	0.14084842459635732
207	0x3f99a95100000000	0.025059953331947327
208	0x3fc8a423d056d787	0.19250915215314654
209	0x3fc8aef632decf9b	0.19283940776733463
210	0xbfc56923fa25f093	-0.1672711345125931
211	0x3fc135867cd76e9a	0.13444596381929302
212	0x3fc1f343f7c2007e	0.1402363738780003
213	0xbfa64b95989384a2	-0.0435454128980919
214	0x3f6d68edf64e4544	0.003590073365963649
215	0xbfbc9dbc44938512	-0.11178185152268252
216	0x3fb868eeaf30ae0c	0.09535114075759327
217	0x3fc227cf72f3ac87	0.14183991539843907
218	0x3fce5495de312989	0.23695634221287445
219	0xbfb198f8d335f190	-0.06874041706573153
220	0xbfb2cdfbb3bedee4	-0.0734555543739322
221	0x3fb7b8a9b1c384db	0.09266148176131443
222	0xbfc7a18860f2befe	-0.18461708768654
223	0xbfc55c1c5514191d	-0.16687349466537507
224	0xbf7b8aa4a52f3f3c	-0.0067240172820247045
225	0x3f862399e1c0bec8	0.010810091211254216
226	0x3fb5bee2eabf1b34	0.08494394522777499
227	0xbfc2bdc5394d3cc7	-0.1464163331788539
228	0xbf99b8c57ca18b26	-0.02511890958011089
229	0x3fb5fb031fc32e0d	0.08586139226388685
230	0xbf98ac5911bc48e7	-0.02409495516537499
231	0x3fc9796604ca5aa3	0.1990172885313842
232	0x3fca167e0451b438	0.20381140910049722
233	0xbfb235af460fdd35	-0.07113166294572155
234	0xbfb291a9d59c548d	-0.0725351473341382
235	0xbfa4bd5bdda3b4e8	-0.040507193379974826
236	0x3fc53e39fc861218	0.16596150236377194
237	0xbfc0c0578cff1167	-0.1308698118647371
238	0xbfcd16da20000000	-0.22725988924503326
239	0x3fa306e458b4dedb	0.03716195662349061
240	0xbfcc63f81a6e7376	-0.2218008164462863
241	0x3fcb3f963770eb6e	0.21287801463207806
242	0x3fcdf082cfef2259	0.2339023127845106
243	0xbfb3ae2aaf19fed7	-0.07687632346096095
244	0xbfb31f3244df6855	-0.07469476872884802
245	0xbfa42735835ae020	-0.039361641201537845
246	0xbfbe35ead083958b	-0.11801021185563891
247	0xbfcbe0e220000000	-0.21780039370059967
248	0x3f90da6ec8b28502	0.016458254813760405
249	0xbfc82df67ab0b806	-0.18890267363298124
250	0x3f9e3eff935c03ee	0.029537194604021204
251	0x3fc6edd7c6613147	0.1791333883906054
252	0x3fb2a3eadc5c3c13	0.07281368141069348
253	0x3fb82096f75db32d	0.09424727954110486
254	0xbfa84ca7400751d5	-0.047459818426122936
255	0x3f9cb2635914356d	0.028024246513316187

layer1.weight f8 [256, 256]
0	0xbf999c03f296b320	-0.02500921409744017
1	0x3fa0f5e5c8ef27e6	0.03312604978380289
2	0x3fa58a0080000000	0.042068496346473694
3	0xbfa0833c40bff235	-0.0322512463608046
4	0xbfa67b325f5b38bb	-0.04390866674440149
5	0x3fac96335d9cfcac	0.055833439996143625
6	0xbf9a906dc5abf138	-0.025941577138824473
7	0xbf8cb4c10e086fc5	-0.014016636124374213
8	0xbfad99ef1162a97c	-0.057815047142258685
9	0xbf7737d8f16d7dcc	-0.005668494638342247
10	0xbf3a220000000000	-0.0003987550735473633
11	0x3fa2d8f7eb5a5bd4	0.03681158779107077
12	0x3fac16777d5f0bc8	0.05485890775118879
13	0xbfa2c8fb40000000	-0.03668961673974991
14	0x3f90938cb557d518	0.016187857216171414
15	0xbfa86715ca694a2d	-0.047661477049264135
16	0x3fa993ee5f693983	0.04995675005612823
17	0xbfa7507308b81d33	-0.04553565484462254
18	0xbf90af8f6f1de91c	-0.016294709355386336
19	0x3f4fc88fe53531ea	0.0009699537862757877
20	0xbf928fb951888bd3	-0.01812638816967278
21	0xbfa59a45405e6bc1	-0.04219261561157551
22	0xbfabdb25ee18d64c	-0.054406342806413294
23	0xbfa8cbf33f85a8e4	-0.04843101644913064
24	0x3f8ba784a12a4706	0.013503109138841573
25	0x3f96bada6dc92e48	0.022197163534924763
26	0xbfa29d91f65b6c67	-0.036358414957896205
27	0xbf9321358cb6e584	-0.018681370461967287
28	0xbf91112cae8eb083	-0.01666707816518499
29	0x3fa8da0133527210	0.0485382437848082
30	0x3f95aaaeb169dbe3	0.021158914164029496
31	0xbfae1603edd23efb	-0.058761713772694756
32	0x3f9036cdf08e1498	0.01583406239253246
33	0x3f9e470e0c365d4f	0.029567927832969073
34	0xbfa69b38553ab2a6	-0.044152985004392506
35	0xbfa709691fa3a715	-0.04499367247792755
36	0x3f97c2817f0914ff	0.023202918413763204
37	0x3fa75cd5d930119b	0.04563015247552756
38	0xbfaa7c8a803fece1	-0.05173142257259556
39	0x3f84314d2afa2a7b	0.00985966002851523
40	0x3f9977976183df9b	0.024870267226077308
41	0xbfa9149fd3c4c7b7	-0.048985476113002795
42	0x3fa6d096cbda5d5c	0.04456015814246925
43	0x3fa62408fcf105f5	0.043243676067969895
44	0x3fab6a76230bfaec	0.05354661157433846
45	0xbf994837440aae5e	-0.02468954422754021
46	0xbf92745eef3c5387	-0.018022044517312288
47	0xbf8042580c6c3100	-0.007939041022404059
48	0xbfaa51acb8b605fb	-0.05140437845967579
49	0x3fa2e32200000000	0.03688913583755493
50	0xbfa4e2a89e5a84b9	-0.040791768389007506
51	0xbf9fbf25968444e2	-0.03100260478192219
52	0xbf9a390f7f8cc84b	-0.02560829368594168
53	0x3fa878c29fec6e46	0.04779632761184564
54	0xbfacf139fb7471be	-0.05652791208760587
55	0xbfac582b14f8ef3e	-0.05536017066012143
56	0x3fa465289024686f	0.03983427772091452
57	0x3f717b0750555fa0	0.0042677198119562
58	0x3fafad6ccdc27593	0.061870002858294935
59	0xbf95f58a5cadef62	-0.02144447508497594
60	0x3fa25495ce1434bc	0.035801583677405685
61	0x3fa39cfd34149dbc	0.03830710659741096
62	0xbfa7ca6280000000	-0.04646594822406769
63	0xbf9bcd9680000000	-0.0271514430642128
64	0x3fac1022b270386b	0.05481060436442039
65	0x3f9fbf7360612dfa	0.031003763921303197
66	0x3f97490fb9083c4f	0.022739644688098356
67	0x3f7c42430c3bc8dd	0.0068991297773541545
68	0xbfa5784655e8cbc1	-0.04193324850748282
69	0xbfaa3a9ce10255a0	-0.05122843023961399
70	0x3f79f705f06fa410	0.0063390953064095396
71	0x3f550fec15ec95e6	0.0012855344318237704
72	0x3fa221c05ddf40ad	0.035413752993578164
73	0x3f8790ad94144291	0.011506420213238474
74	0xbf931022227b3bbd	-0.018616231302811082
75	0xbfa656d661d9f85c	-0.043631267018086034
76	0x3fada393a434d754	0.05788861636612688
77	0x3faf1b2c60031650	0.06075419113180358
78	0xbfad994251567b3c	-0.057809898785527086
79	0x3f641d848fe3f895	0.002455481443688854
80	0x3f9cad37d3739e71	0.028004524498923936
81	0xbf9480323227ce09	-0.020020279227493307
82	0xbf92a19102ccce39	-0.018194452091121447
83	0x3fae278c9d5c05ba	0.05889548703090548
84	0x3f88624160381eb6	0.01190615725410225
85	0xbf9bed008329f8d3	-0.027271278386700026
86	0xbf784942b862386c	-0.00592924177739294
87	0x3f8df13449b98b3c	0.014620216846372373
88	0x3fa161ddfd2508d3	0.03394979205269668
89	0xbfadf7529b508868	-0.05852754732065152
90	0x3fae5b357dfef041	0.05928961909327813
91	0xbf9221710b459328	-0.017705694497084284
92	0xbf9312c599887a5c	-0.018626296516340055
93	0x3fa08c1462330486	0.03231872271272444
94	0xbfaa4a57cbc52626	-0.051348441719323554
95	0x3fa7a2733625e2c5	0.04616127048479294
96	0x3f5c1bfcfd737404	0.001715657291973872
97	0xbf8ac98cfd8920d1	-0.013079740035337658
98	0xbf667840bc030d0b	-0.0027428879112406704
99	0xbf90fde3139cd13e	-0.016593502113395824
100	0x3fa7495c2eaf5a72	0.04548156804928717
101	0x3f9e8b3405898dec	0.029827893102618505
102	0xbf9181f1fe9e8f73	-0.017097264447911664
103	0xbf9c4337f907795c	-0.02760016877606951
104	0x3f8ec21429cc84a7	0.015018613362885637
105	0x3fa997d5a4d4d2bf	0.04998653065778091
106	0x3f743eea00000000	0.004942812025547028
107	0xbf9378c70e032a39	-0.01901541731857945
108	0x3fa71a704a8b4e6a	0.04512358579600291
109	0x3f9768734b6b0143	0.022859384039066965
110	0x3f8df8da20470f07	0.014634803876908643
111	0x3fa0718784963d9f	0.032116160330697634
112	0x3f90342554395565	0.015823920503256334
113	0x3fa2bf34c43c06fe	0.03661503692093325
114	0xbf923ba33559414f	-0.017805624133246763
115	0x3fa747226da9add8	0.04546458805711112
116	0x3f9cb6feb6ca55d2	0.02804182043708698
117	0x3faa54694aa76685	0.05142525707533444
118	0x3fa78b5b38f836cf	0.045985079483313755
119	0x3fa060b621fa34df	0.031987849853160936
120	0xbf9c46e3d0d30b7d	-0.027614173527364273
121	0xbf9d2264c9adc271	-0.028451514062398823
122	0x3faa1539c0000000	0.05094318836927414
123	0xbfa66566f4b8a85e	-0.04374238717385091
124	0x3fa125be9cebb401	0.033491093306885496
125	0xbf73ea5fa803b1cc	-0.004862188012549184
126	0xbfa2375c86c503b9	-0.035578624202123384
127	0x3f80dcdc242ff7a4	0.008233756880141226
128	0x3fa099b600000000	0.03242272138595581
129	0xbfae28700fa19b32	-0.058902265461077255
130	0x3fa34397961977f8	0.03762506205815436
131	0x3fa4e7329791779b	0.04082639789770256
132	0x3f450ca4e09e3d0a	0.0006423764291287059
133	0x3f8aac9700000000	0.013024501502513885
134	0x3fabbc2900000000	0.054169923067092896
135	0x3fa26c28fe0d10cc	0.035981446277703805
136	0x3f9603d45d807794	0.021498983580492473
137	0x3face11140b7e570	0.056404627943218766
138	0x3fa3d41a485b7a13	0.03872758992450911
139	0xbfa174cecf9e0b12	-0.03409429821387823
140	0xbfa7b22dcca02339	-0.04628127215261774
141	0x3f65987b519e8d4b	0.002636185509759114
142	0x3f75e4b36be38d74	0.005345059266093844
143	0xbf7e1aa93d123325	-0.007349644744988369
144	0x3f8502c28ab4b0af	0.010259170396772125
145	0xbfada4b2320259d2	-0.05789715633834515
146	0x3f95cec5f39e2ee0	0.021296589845902214
147	0x3fa3f1a70610fe24	0.03895303677608933
148	0x3fac84fb73a1195a	0.05570207392206568
149	0xbf854a05547f5b70	-0.010395089760931703
150	0x3f9577e34a34a870	0.02096514835754032
151	0xbfa862835c507b53	-0.04762659551510375
152	0xbfacd4b0794cabc7	-0.05631019097048511
153	0xbfa8fd76ad100936	-0.048808773637590994
154	0x3f79b85d96193694	0.0062793403354369955
155	0x3fa8ec7cd86f685a	0.04867925779372291
156	0x3f7f4b21dae3b55b	0.007640011068571563
157	0xbfa9951300000000	-0.049965471029281616
158	0x3f9c89fbc54e3fe0	0.02787011520155136
159	0xbfa3a2e312b8c0f1	-0.038352104220736545
160	0x3f90f5f96ea4801b	0.016563317659461157
161	0xbf24d4c4ea7edc53	-0.00015892890701049936
162	0x3f9735d50e1c5dd4	0.022666291223769466
163	0xbfa75148560ddacb	-0.04554201174226121
164	0x3f7626a49988dbec	0.005407946555854953
165	0xbfa1330b3ca6d2dc	-0.033592559007421946
166	0x3f961bd006cb5be3	0.02159047166318463
167	0xbfa84c5e840929b1	-0.04745765077366871
168	0x3fa39b443a9132e8	0.03829396452838357
169	0xbf9e2e7e7bfc413d	-0.029474235837427577
170	0x3fabdeff6076e4ee	0.054435711408084106
171	0x3f81e0673e9af796	0.008728796575606695
172	0x3f983dcc5db52d7a	0.02367324182459416
173	0x3faadbc87b10dbfd	0.05245806219357261
174	0x3f9133adc20ae846	0.016798701256199665
175	0xbf964e84626c08f1	-0.021783894068911406
176	0x3fab534d2dd42840	0.05336991486008502
177	0x3fac88e7cac4422b	0.055732005597864585
178	0x3faa775676e9adb1	0.05169172479221674
179	0xbf4d4114acda130a	-0.000892767997087236
180	0x3f947659ce734dea	0.019982722497685325
181	0xbf9570290629358a	-0.020935669899974786
182	0x3f0588a2c3fd54e8	4.1072337352213346e-05
183	0xbf9ebdf400000000	-0.030021488666534424
184	0xbf9f50d6d1f6e2ed	-0.03058181435128209
185	0x3fac100f1fc728ec	0.05481002104677821
186	0xbf98c56480000000	-0.024190492928028107
187	0xbf9fb7192d8b5a3d	-0.03097190227966905
188	0xbfa9eddb257f5a9e	-0.050642822577789945
189	0x3f917d9d69184aa7	0.017080745257838228
190	0x3f802b697cdf6593	0.007895301936445864
191	0x3fa25f753f019241	0.03588453668706793
192	0x3fa4314a5ee5fc3f	0.039438556751513414
193	0x3fac83666c1757f6	0.05569000310394749
194	0xbfaa92adb6f0c8c8	-0.05190031870042017
195	0xbfa594ff4eb48685	-0.04215238414532244
196	0xbf6164c8a00159bd	-0.0021232527215417616
197	0xbfa300aa9bce6109	-0.037114459533031115
198	0x3fac9548b2f82a48	0.0558264463871479
199	0xbf89ea2c29d420de	-0.012653679872997644
200	0xbfa432f4b38e5244	-0.03945126239628796
201	0xbf7810b75fc0e856	-0.005875316910584591
202	0xbfaa68811ae1119c	-0.051578554659985815
203	0xbfaf372794b43ff9	-0.06096767130122766
204	0x3f9acd34c49bb339	0.026173424243938846
205	0xbfab3dfaad895ef0	-0.05320723884932288
206	0xbfa619daae0749d2	-0.04316600202914213
207	0x3fa28fe1c0000000	0.03625398129224777
208	0x3f7d70fce2f03443	0.007187831723979579
209	0xbf9b499281ff81ff	-0.02664784353680893
210	0xbf82434d8702e25c	-0.00891743248244941
211	0x3fa3d49546649545	0.038731255381473186
212	0xbf85f091c192a443	-0.010712755889772057
213	0xbf7d414597970e4c	-0.00714232620652273
214	0xbf92e89a5b172f27	-0.01846543484661747
215	0xbf53436ecfb4ab75	-0.001175745214662097
216	0x3fa9eda517bbc85e	0.0506412116500463
217	0xbfac8d802eb9ecf0	-0.055767064765825825
218	0x3f88ae0feb3c9442	0.012050747267105536
219	0x3f9ca6dc9a39a62b	0.027980276978644063
220	0xbfa0646ed85c1854	-0.03201624289617713
221	0xbfb012e84ca2b6a9	-0.06278850432382889
222	0x3f90afa65399bf63	0.016295050480436567
223	0xbfae35009dcefb4f	-0.058998126281486145
224	0x3fa664b2bf98c879	0.04373701657131419
225	0x3fa595787283fcdd	0.04215599439521054
226	0xbfa1658dad70718d	-0.033977916166097
227	0xbf9082ba6ca74a00	-0.016123688584977813
228	0x3fad91bde15ba583	0.05775254608108595
229	0x3f989a07decb6a0a	0.024025080655386367
230	0x3fac5a7480889d9e	0.05537761754049629
231	0xbfa03e7d3f293701	-0.031726755104143585
232	0xbf3435b0705cb771	-0.0003083759078091808
233	0x3f8999521f035243	0.012499467441025596
234	0x3faeacbb858e003a	0.05991159444147383
235	0x3f808ed76e7c7304	0.008084948596257309
236	0xbf969cfdd94dbbbb	-0.022083250415956473
237	0xbf9db537eac5da30	-0.029011605934522844
238	0xbfa9656000000000	-0.04960155487060547
239	0x3f806ddf0a10e05c	0.008022062773406606
240	0xbfa893ece19de6b5	-0.04800358060942981
241	0x3f8fafc66faa40d6	0.015471983225581114
242	0xbfa05d4c3ebb0b31	-0.0319618059707153
243	0x3fad9442817838d3	0.057771757416149726
244	0x3f5f89822538ef6f	0.001924874396435929
245	0x3f740341ff964346	0.0048859193860984525
246	0xbf71375b5ca27cab	-0.0042031830618320205
247	0x3fad7a25c0000000	0.057572536170482635
248	0x3f68d97a11d86f5b	0.003033388535881016
249	0xbfac8fe025ef6fbf	-0.05578518355443362
250	0x3fa07a73db174c5a	0.03218423890543738
251	0x3f7e707bac52541e	0.007431490991753468
252	0xbf9f056d456f466b	-0.03029413925452788
253	0x3fa65303e80dd33b	0.04360210616770251
254	0xbfa2b22a73694b29	-0.036515547359746776
255	0xbfa19551c0b04ec8	-0.03434234120518692

layer1.bias f8 [256]
0	0x3fa57e8b59dd6f19	0.041981081695409546
1	0x3fa77b9207fab25a	0.04586464259532326
2	0x3fa6b04dc8522480	0.04431384153674234
3	0xbf82983952a53391	-0.00907940658057685
4	0xbf94d7117aa2f546	-0.020351670370236684
5	0x3f8b788dc5e653b6	0.013413531877441414
6	0xbfaf4146e6146cee	-0.061044898591910854
7	0xbf972cd251efbd25	-0.022631918192869045
8	0x3fad0cad659ec1ad	0.056737345366289695
9	0xbf9c62950c3cd7ce	-0.027719811317375158
10	0x3f85f1511d5859cd	0.010714181621591568
11	0x3fa0b18a5e27a2ee	0.03260452651358557
12	0x3f8c9668c2c0cec0	0.013958757823366752
13	0xbf8dcdd5c3995ef3	-0.014552755386076898
14	0x3f895186d354777f	0.012362531017568788
15	0xbfa580f4ed2876b5	-0.04199948687549463
16	0xbf9fca2adff9987c	-0.031044645233486254
17	0x3f8fa100d674330f	0.015443808121312878
18	0xbf82bbdf269e164a	-0.009147399297727028
19	0xbf87381c38a17a8a	-0.011337490537866719
20	0xbfa8a4efc0000000	-0.04813336580991745
21	0x3f915001234acf66	0.016906755236689185
22	0x3fa106f25265b7f1	0.03325612312151794
23	0xbfa3cbbb00000000	-0.03866371512413025
24	0xbfa79256263e94ba	-0.0460383340535286
25	0x3fb225e3daf5d112	0.0708906564303258
26	0xbf8051cc3fedcf27	-0.007968517018276678
27	0xbf6fd88c00000000	-0.0038874372839927673
28	0x3f9e7455a1317af3	0.029740655864197895
29	0xbfa87a6800000000	-0.04780888557434082
30	0xbfa3ee0d8611f252	-0.03892557393644282
31	0xbfa551e04fdc74da	-0.041640290974308505
32	0x3f4cacb9c4085ca1	0.0008750826892222238
33	0x3f95a1b2264f6708	0.021124633396403275
34	0xbfad5c962219253e	-0.057347003614788936
35	0xbfa842aea1e3873b	-0.04738374448949264
36	0xbf992fc986a60a47	-0.02459635624246406
37	0x3f816718a7910665	0.008497421849941131
38	0xbfa92bb4d7417ffd	-0.04916157844195366
39	0xbf95900e4a05daf3	-0.021057341831204956
40	0xbfa2865a2464f90a	-0.036181275313071096
41	0xbfae90a8e6fb3b9a	-0.05969741649243261
42	0x3f8a02afbed194e4	0.012700436602424543
43	0x3fadc1b758b2d6af	0.0581185622954029
44	0xbf72315bcfd6552f	-0.004441603317350925
45	0xbfa8f594146fca29	-0.04874861478301213
46	0xbf9eaf4b0d761d43	-0.02996556539212959
47	0x3fa8ebe4586c1298	0.04867471293804221
48	0x3fad65f08c0d8f0a	0.05741836270934016
49	0xbfaeba9940000000	-0.060017384588718414
50	0x3f9127d000000000	0.016753435134887695
51	0xbf643fafd83298c2	-0.002471774526912802
52	0xbfa41ef70497e9a6	-0.03929874354431044
53	0x3f92c75680964634	0.018338538740471047
54	0xbfa19086c0000000	-0.03430577367544174
55	0x3faa45d013573987	0.051313879357269214
56	0x3f9c3d5280000000	0.027577675879001617
57	0xbf6d892a02acf191	-0.0036054440037373643
58	0x3fab842787e59f37	0.05374263318918653
59	0xbfa1a87663a71d42	-0.03448839155640339
60	0xbf8627bb463f46dd	-0.010817969399713185
61	0xbf930e3d00000000	-0.018609002232551575
62	0x3f969c87551ded67	0.02208148438465454
63	0xbfa48201a11ea413	-0.04005436984818558
64	0x3f67d58c00000000	0.002909444272518158
65	0xbf910f6620a479fd	-0.016660304777468927
66	0xbfa9f2775ff47766	-0.05067799612355266
67	0x3f9fa77d27cf22e7	0.030912356905704732
68	0xbfa201e1c7ac1223	-0.03517060816196629
69	0xbfaebb2fe55496ea	-0.060021874184071525
70	0xbf7f2254d0884060	-0.00760110026068625
71	0x3fa2f10a58e585fe	0.03699524245417861
72	0x3f92caf521108e59	0.018352346556765962
73	0xbfa780a9ed16cacb	-0.04590350169327947
74	0x3f8198da8784e0b0	0.008592326412881185
75	0x3f9a8b6fde9ddf5e	0.025922534906811172
76	0x3fab1668b951c11b	0.05290534269522792
77	0x3fa820e0b50379f2	0.047125837417968955
78	0xbfabbaab16d901b1	-0.054158541239761056
79	0xbf9abbd925420641	-0.02610720910934661
80	0xbf8394d281cff4f1	-0.009561199747617684
81	0x3fa77033c4a3be10	0.04577790999780629
82	0x3f7b02938e3f8d8e	0.006594253911291216
83	0x3fa75e12aaf54f9e	0.04563959442989972
84	0xbfaa2fd4c0000000	-0.05114617198705673
85	0x3f9f4e189f6333a3	0.030571350792161344
86	0x3f90105878c84513	0.015687353488890454
87	0xbf7b650200000000	-0.006688125431537628
88	0x3fa69d397c1ae460	0.04416827812151136
89	0x3fa5719db95311a0	0.041882447121255995
90	0xbfa0f78f98e3ce9a	-0.033138739980043755
91	0xbf95cef042097f3b	-0.02129722025927026
92	0xbf8810606b3120d3	-0.011749985953557395
93	0xbf91312b41ae3d7d	-0.016789127239062552
94	0xbf98a067af689913	-0.024049396592226446
95	0x3f772d9d1f1f97a2	0.005658735042720327
96	0xbf92258c80000000	-0.01772136241197586
97	0x3fabe55b433e1f56	0.05448422618707009
98	0x3fa29d48c797e159	0.036356233944334355
99	0x3f93a00180000000	0.01916506141424179
100	0xbf7db0e3154b8a1d	-0.007248770755469394
101	0xbf83d10200000000	-0.009675994515419006
102	0xbfac27cec47e8c9f	-0.05499120854008165
103	0x3fa58545c4194c7c	0.042032413661808626
104	0xbfae4138284f5250	-0.05909133426726909
105	0x3fa930233d340cc1	0.04919538614378772
106	0x3f9512ef0fface09	0.020580039358447908
107	0xbfa5e0b43ad46167	-0.04272998064169791
108	0xbfa4f9229389217f	-0.04096324969265463
109	0xbf99c63200000000	-0.025170117616653442
110	0xbf952db3e6a792c1	-0.02068215461067058
111	0x3f5fa372814c5c6d	0.0019310587133014826
112	0x3fa47bf314a75722	0.04000815989608798
113	0xbfa2b334382c778a	-0.03652346788133716
114	0xbf979b8e139fc405	-0.023054332683333473
115	0x3f9c5b59d03e92e1	0.02769222577593922
116	0x3fa49b60c9ee5cc7	0.04024794068316733
117	0x3fa3318000000000	0.037487030029296875
118	0x3faf1b799036c4f2	0.060756491522065206
119	0xbfb073b61aac953d	-0.06426561499809665
120	0xbf9816f0b3cfaa21	-0.023525010084919033
121	0x3f7ef58800000000	0.007558375597000122
122	0x3fa3c0a359a1def4	0.038579086963123205
123	0xbf456f29a16a3769	-0.0006541207574899235
124	0x3fa1a7e408f522d3	0.03448402985902068
125	0x3fa06ae4f8869dd6	0.032065539682033226
126	0xbf915d08a9f5b432	-0.016956458447953966
127	0xbfa33c43cfb2c94b	-0.03756915960674919
128	0xbf979a1db321af62	-0.023048843439411278
129	0x3f885b1600000000	0.01189248263835907
130	0xbf606365f8a9c532	-0.002000521815084832
131	0x3f9f65294116bd51	0.0306593366601054
132	0xbfab84b27c7041af	-0.0537467743780583
133	0x3f9713e5b6b4929b	0.022536839748812026
134	0x3faf0860bb5ab3f3	0.060610792990111316
135	0x3f78f6688df502f2	0.006094368377774316
136	0x3fa5e98d16baac74	0.04279747869926434
137	0x3f9bd09634d1b53c	0.02716288277990951
138	0xbf865448cebacf75	-0.010902947243586184
139	0x3f8c4b14d691d4e8	0.013815081403871735
140	0xbfb16ca25d9a058a	-0.06806387696453534
141	0xbf92e051b892dc08	-0.018433834925158293
142	0xbf981c6e849a0ee5	-0.02354595836960884
143	0xbfa346697ef438ea	-0.03764657664042821
144	0xbfab0d10ba70e010	-0.05283405567064403
145	0xbfac79208797e4f0	-0.05561162619773963
146	0xbf99457712b494a3	-0.024679050938307367
147	0xbf6a79ae4234487f	-0.0032318500030977244
148	0xbfae83a4c0000000	-0.05959811061620712
149	0x3fa5c6dc51fa5946	0.04253281117159928
150	0xbf801ab100000000	-0.00786340981721878
151	0x3f67c0af5fd2a211	0.0028994965819786407
152	0x3fa2f9ea4f2dc556	0.037062952199344565
153	0xbf905923d42a48bc	-0.01596504194692082
154	0xbf97df612c91f045	-0.023313062997189844
155	0x3f92a73aae5cf658	0.018216053859978792
156	0xbfab90c06652a21a	-0.0538387417703385
157	0x3fad75573fa6ae94	0.05753586437216743
158	0xbf869de27f8a8523	-0.011043328778500843
159	0xbf901ce50a9e9fd4	-0.015735224507494497
160	0xbf96452739cc328f	-0.021748173620880492
161	0x3f8ffc6664db0581	0.015618133499972544
162	0xbfa6eb7070811136	-0.0447650086721602
163	0x3f82c4e500000000	0.009164609014987946
164	0xbf87d9816d7009b8	-0.011645327713272077
165	0x3fa1e742c0000000	0.03496750444173813
166	0x3fabcc6f278c8a5f	0.05429408414626801
167	0x3f9dd32d19b418dc	0.029125885671441462
168	0xbf876b7bfa35f577	-0.011435478757216384
169	0x3f8ef122e7d444ee	0.015108368587365164
170	0x3fa36f2f3b4bae45	0.037957645405040576
171	0x3fb283a990057134	0.07232150808471688
172	0x3fa62e4deccb703c	0.043322024493790384
173	0x3fad58039284c8fa	0.057312118182737806
174	0x3fa493d165198e1f	0.040190261451041424
175	0xbfb02116af86afa0	-0.06300489220910643
176	0xbfa4d5be6ef06612	-0.04069323639141599
177	0xbfa4f0a77bc96cbd	-0.040898546086020705
178	0x3fa2f08aeaa9eddf	0.036991444726449656
179	0xbf53a002f2ab6377	-0.0011978176868778481
180	0xbf9d4b4ab8b31a90	-0.028607528231783308
181	0xbf93e6764536c9f8	-0.01943383023690079
182	0x3f98baf759d7b82e	0.024150719507751876
183	0xbfa111fc00000000	-0.03334033489227295
184	0xbfad399b80000000	-0.05708013474941254
185	0xbfaf9ba39ed5ed91	-0.06173430742179698
186	0xbfa3818bab76e1b8	-0.038097729378424317
187	0x3f8d8b98be1a9386	0.014426415730960828
188	0xbfa8b94b79667ab5	-0.04828868729531647
189	0xbfa0addb0314b5f1	-0.03257641232117326
190	0xbfacd00fce060917	-0.05627488508163674
191	0xbfac1cf5c0000000	-0.054908446967601776
192	0xbf6271f820db834f	-0.0022516103989435386
193	0x3fa7dcd8b170c9b1	0.046606799755312685
194	0xbf9327d3791d6787	-0.018706611888184035
195	0xbfaf5a48d927e3f5	-0.06123569155528933
196	0xbf9b7ad34dba11a7	-0.026835729235715224
197	0xbf9d37ad2c7af72c	-0.028532701339592112
198	0x3f9dcc4e8670b125	0.02909968085821037
199	0x3f61e5544cd49fc7	0.002184548042936971
200	0x3f7b2bbfb68d93c4	0.006633519057548779
201	0xbf9d04cee20ab53a	-0.028338654085634497
202	0xbf91baca3c83d73b	-0.017314109748404177
203	0xbfa634dde506419e	-0.04337209149082642
204	0xbfa33d86f3727732	-0.037578789918582337
205	0xbf988b9a1c7848b0	-0.023970039355909634
206	0xbf8fb9950cb140c4	-0.015490688752976552
207	0x3f98ce51ae3f962f	0.024224544773366382
208	0xbf55e0fdb416fa35	-0.001335380322742841
209	0x3f846049114dfa08	0.009949274864763616
210	0xbfa34d721b51b319	-0.03770023902402481
211	0x3fa6771f873958c6	0.04387758756335951
212	0x3f950b2200000000	0.020550280809402466
213	0xbfae4e8757d15392	-0.059192876310283485
214	0x3f62c2571235affd	0.0022899342163125156
215	0x3fa2c3549d4ec161	0.03664650364169365
216	0x3f9c8dff9d693b9d	0.027885431273087503
217	0xbfae5307db5317de	-0.05922722389509237
218	0x3fa84fccabd7e8a0	0.04748382184693978
219	0xbf3e757ddea6f211	-0.00046476672164511105
220	0xbfa160bb68ece263	-0.03394113212420249
221	0xbfac8a0b5b65c48b	-0.055740694910931664
222	0xbfa464f9bdc9e96b	-0.03983288232571421
223	0xbfb1419541b98d13	-0.06740696768388359
224	0xbfaf0ae454549439	-0.060629973692166
225	0x3fa0c1567355eaf6	0.0327250495710895
226	0xbf43031eac6ba0a7	-0.0005802058957131887
227	0xbf76add577988020	-0.005536874633918415
228	0x3fae9f05904063e8	0.05980698953516833
229	0xbfadeae2f0d479c5	-0.0584326666814721
230	0xbfab2424fb05b079	-0.05301013530956395
231	0xbfa4a609c0000000	-0.04032927006483078
232	0x3faa674d9e7c3fe5	0.05156939086566562
233	0xbfa8fa6a7f4b98ee	-0.04878552249810918
234	0xbf9760f151bc794a	-0.02283074437502223
235	0xbf90a4d0d2ac7546	-0.016253722055912044
236	0xbfa4301d53eb0918	-0.039429584974202736
237	0x3f539dd656d0f40c	0.0011972993045354955
238	0x3fa13eee40000000	0.03368324786424637
239	0x3fa61d30594f90b6	0.0431914433500266
240	0x3f9809871b7748de	0.023473845530880826
241	0xbf73300f64e3d45a	-0.004684505589684107
242	0x3fa29882b78df9bc	0.03631981363922729
243	0xbfae93b6f717609a	-0.05972072378398359
244	0x3f58db7f3828d923	0.0015171759010975192
245	0x3fadc11180000000	0.058113619685173035
246	0x3f94a384d15c621c	0.02015502479398111
247	0xbfa83587801d4823	-0.047283396138155596
248	0x3fad303cc1269e18	0.057008646562561605
249	0x3fab66b6c0000000	0.05351801961660385
250	0x3f8bcb60f092c652	0.013571507779803902
251	0x3fa7601ea7e0f781	0.04565521048833344
252	0xbfae41663c170cae	-0.05909270747681582
253	0x3fa856a0dd4f8396	0.04753592206521444
254	0xbfa10e961db4c5fc	-0.0333144103300462
255	0xbf9b6b7a4cd393d5	-0.0267771825209769
