python/snapshots/snapshot1800.pt (torch_old, 584819 bytes, 6 tensors)

layer0.weight f8 [256, 18]
000000 87 ea e1 26 ce 40 c6 bf 68 78 4e 2a 38 c0 73 3f
       -0.1738527002197154 0.004821986575647676
000010 99 80 98 39 0e 4c c7 bf 60 a0 3c 5c 71 b8 ca bf
       -0.18200853168764722 -0.20875374797583657
000020 e0 9e 81 2b 19 88 b6 3f 63 cf c0 95 48 82 c5 3f
       0.08801419555822632 0.168038437959349
000030 e0 9e 81 2b 38 5e b6 3f 8e c0 4a c7 05 05 ab 3f
       0.08737517416158935 0.05277269418491058
000040 1d 59 27 cc f5 46 cb bf f0 2e b3 56 b8 34 c2 3f
       -0.21310303181116633 0.14223388894458067
000050 1f 35 9c 57 11 b8 8d 3f ba 16 a5 d4 5f 3b af 3f
       0.014511237608099635 0.06099986525309249
000060 e4 2f 44 e8 c5 c5 c8 bf 63 cf c0 d5 7b 39 c0 3f
       -0.19353555527811672 0.12675426423231348
000070 74 7a bc 67 f6 60 9a 3f 58 0c 1a 31 00 fd b9 bf
       0.025760507661397772 -0.10151673506520476
000080 e9 88 fa 81 35 65 a5 3f c0 48 53 30 53 fd c0 bf
       0.04178778850224935 -0.13273086413989255
000090 7b a7 65 18 ce 81 a3 3f a0 2e 71 bc a1 f9 aa 3f
       0.03809970901313783 0.052685789349735446
0000a0 ca e2 e0 3a 42 e2 a4 bf e2 3b 84 bf 15 d0 ce bf
       -0.04078871697169502 -0.24072524882691854
0000b0 d8 61 2c af be ab 69 bf b1 3d 6c 22 ff b4 c9 3f
       -0.003133652143685089 0.20083607846070842
0000c0 0c 8e c0 70 35 fa a6 bf f9 2e de 5e d1 bf c9 bf
       -0.04487769128197891 -0.20116631633970153
0000d0 db 04 e5 6f 3b 2a c6 3f ab d9 47 1e 57 7c a3 3f
       0.17316382373431946 0.0380580162490561
0000e0 75 dd ec 09 f2 37 c7 bf 53 a4 f0 96 f6 ae 9d 3f
       -0.18139482006675292 0.028987744295737205
0000f0 e7 ef 4b f8 93 59 c3 bf c7 18 04 f0 1b 82 a3 3f
       -0.15117120384081703 0.03810202889330721
000100 af 82 25 18 64 0c c9 bf fc f8 49 5e d8 77 c3 bf
       -0.19569064311055714 -0.15209488491013434
000110 00 31 3b f9 85 01 9f bf 56 cb 5d 5e 46 28 c4 3f
       -0.030279248558870542 0.15747909171804036
000120 00 00 00 00 ae 45 b4 bf 00 00 00 00 4c 6c 97 bf
       -0.07918822765350342 -0.022874057292938232
000130 00 00 00 00 f4 62 cc bf 00 00 00 00 a0 4a 43 3f
       -0.2217698097229004 0.000588729977607727
000140 00 00 00 80 55 45 c1 bf 00 00 00 60 cc 45 c8 bf
       -0.1349284052848816 -0.18963007628917694
000150 00 00 00 a0 b9 2d c3 bf 00 00 00 60 5c 8a c4 bf
       -0.14983291923999786 -0.16047243773937225
000160 00 00 00 e0 e3 af c1 bf 00 00 00 60 39 2d c3 bf
       -0.13818024098873138 -0.14981763064861298
000170 00 00 00 20 d9 48 cd 3f 00 00 00 40 55 9f b4 bf
       0.2287856489419937 -0.0805562287569046
000180 00 00 00 40 67 01 b0 3f 00 00 00 80 d1 b9 ad 3f
       0.06252141296863556 0.05805830657482147
000190 00 00 00 00 89 5e 98 3f 00 00 00 80 3d 78 af bf
       0.023798123002052307 -0.06146423518657684
0001a0 00 00 00 40 73 c1 bf 3f 00 00 00 80 22 92 cb bf
       0.12404556572437286 -0.2153971791267395
0001b0 4a 5a 12 8b 13 5e b6 3f a4 1d 43 05 2c be c4 3f
       0.08737299104027688 0.16205358750287957
0001c0 97 2e c8 58 aa f8 c7 bf 92 e8 ae e3 fd 36 a3 3f
       -0.18727616629654584 0.03752892879806881
0001d0 01 fd 6b b9 c1 7e 66 3f 5a 62 95 fd 0a 01 c9 3f
       0.002745989196568766 0.19534432775505445
0001e0 cb 68 c3 e7 dc 74 bf 3f 98 02 d5 48 9d 7b c6 3f
       0.12287693651470304 0.17564741188291033
0001f0 e3 d2 97 aa 9a 5c 96 bf 25 b5 87 e4 16 9b cd 3f
       -0.021837631857084438 0.2312954536313693
000200 a5 9e 75 91 07 21 c2 bf fe 5d 05 0d 2e 68 b5 3f
       -0.1416329822779875 0.08362090890783944
000210 e3 8d 33 ba 8d 58 ca bf c5 81 96 d4 49 2e c0 bf
       -0.20582744209160272 -0.1264126098658506
000220 d6 bd a5 a0 8c a3 ad 3f 13 73 ba 7b 6e 05 b0 3f
       0.05788840733555005 0.0625828792639818
000230 aa 85 ba fd e5 16 82 3f 57 70 e2 08 52 f7 30 bf
       0.008832737737352787 -0.00025888207245273104
000240 04 df 7a 91 81 b0 be 3f 6a 3e b1 1c 61 bc 85 bf
       0.11988076974637002 -0.010613211334344192
000250 dc cb 8f db 15 21 c7 bf bc ff b5 ea de ed c9 3f
       -0.18069718571459148 0.2025717397737007
000260 aa a7 c6 e0 27 fc c3 3f 2e 7b ed f4 04 a6 ab 3f
       0.15613268351927206 0.05400100221480951
000270 63 98 cc 3f c4 84 bb 3f 0b e8 c1 04 af 9f c0 bf
       0.10749460752103483 -0.12987315876290526
000280 71 eb 08 30 96 5b c6 3f b3 d8 ba a8 7e 85 bb 3f
       0.17467000337077423 0.10750571841603822
000290 35 58 55 cb 74 ae b8 bf 39 a6 bb 43 df 24 c4 3f
       -0.09641199077791003 0.15737524802470818
0002a0 fd 5a 18 2d b3 2b a9 3f 07 43 10 39 8a f1 c4 3f
       0.049161528830316194 0.16362121378235647
0002b0 bf b8 b5 0d d0 a8 c3 3f 2f 92 71 bb db e4 ca bf
       0.15358925504137308 -0.21010920193215685
0002c0 a5 39 e0 b8 fd 70 be bf ed cc 62 ae d0 af ad 3f
       -0.11891160739489821 0.05798198822722065
0002d0 d8 aa 4f 8b 16 1d c0 3f 75 a7 d2 5a 14 94 cb 3f
       0.12588769724182813 0.2154565280409845
0002e0 6d ac 3d 90 8d a8 9e bf 76 8d 65 b9 d7 b1 cb bf
       -0.029939853600279443 -0.21636482765743964
0002f0 be 60 35 6b 7d f9 bb bf 71 89 76 c7 ee 22 b1 3f
       -0.10927566401858521 0.0669392811746883
000300 78 54 fe 9b 75 c6 cd bf cd a4 ab 96 e9 69 bd bf
       -0.23261900059575047 -0.1148973458145008
000310 9b 76 f1 1b 10 2b ba 3f de b8 77 e8 8f e7 c8 bf
       0.10221958811004088 -0.19456671572647272
000320 e8 b1 cb 11 e6 18 c9 3f 86 0a 4f 8e b9 b8 bc bf
       0.1960723482983575 -0.11219367718062231
000330 32 29 5f af a4 65 9b 3f 08 c3 cd 31 df d9 c1 bf
       0.026754925922241664 -0.1394614213163765
000340 13 21 d9 94 7a a5 ba bf 9a 62 9c 2b 33 c3 b6 bf
       -0.10408750661838821 -0.0889160138580202
000350 88 cf 39 20 62 d0 bf 3f 2f 8f 44 81 a7 73 ad 3f
       0.12427342688334708 0.057522997407686176
000360 cc 98 8f fc 43 fc b9 3f 97 b8 7f 6e 9f 6c cd 3f
       0.10150551715887274 0.22987740416960342
000370 47 b5 19 46 8d 49 9c bf b2 21 04 f1 53 4b c5 bf
       -0.02762432804450057 -0.16636132496229333
000380 35 e7 a3 14 4f 7d bb 3f 3b 5a 46 13 4f 44 b5 3f
       0.10738081220543168 0.08307356091095468
000390 94 91 a8 70 1b 57 a5 bf f9 7a 65 e3 28 38 c9 bf
       -0.041680200102095416 -0.19702635863628595
0003a0 34 5f c5 b1 60 0c cd 3f 48 10 a9 55 5d f6 c4 bf
       0.2269402378103621 -0.16376845057141254
0003b0 d1 e4 07 b1 9e 1e bd 3f 94 9a 43 7a af d0 b1 3f
       0.11374847242395282 0.06959053740465954
0003c0 11 fb 49 12 ad a7 9d bf 8d d3 76 6e 7d de 83 bf
       -0.028959945908805077 -0.009701709683989335
0003d0 69 e8 2c 18 03 27 c8 3f 87 4d c0 83 ae d6 c5 3f
       0.18869055443230145 0.1706140654865573
0003e0 9f 92 91 71 06 cb 91 3f 02 7c 40 63 6d bc c4 bf
       0.01737604206245413 -0.16200034471782493
0003f0 dc ea e9 b3 81 49 c9 bf 08 90 b8 8f f9 22 c3 bf
       -0.19755574498034079 -0.14950484769462968
000400 cf 04 34 94 61 40 b0 bf 29 ba 9d 64 90 8f b0 bf
       -0.06348237865678928 -0.06469061333130156
000410 19 b3 47 77 9d 47 a6 bf ec 32 8a 0d 42 34 c0 3f
       -0.04351512986236212 0.12659478818058945
000420 68 07 11 e9 fd 42 92 3f 63 2b d0 25 68 e1 a1 3f
       0.017833678579570217 0.034922842613091
000430 90 15 88 bd bf f5 c3 3f 54 b5 4c 3d 9d 02 76 bf
       0.15593716387244827 -0.005373586861236863
000440 59 8a de a5 7f 28 cb 3f 3f 08 fa 9c 1f 95 b4 3f
       0.21217341994368402 0.08040044386328392
000450 d9 d4 64 7f 7e c9 97 bf f7 0f 26 14 60 65 c2 3f
       -0.0232295766120004 0.14371872886488266
000460 9b 2d 9c 16 43 09 ae bf 3a 67 96 44 79 50 c9 3f
       -0.058664413938539904 0.19776836251258506
000470 50 64 6f f4 25 c9 cd bf 3d d2 a7 23 5a 12 c3 3f
       -0.23270105777081307 0.1489975618457197
000480 c2 fa 80 d9 f2 31 95 3f 39 fe 88 e5 d0 54 b6 3f
       0.020698351407413502 0.08723168949017514
000490 55 50 b9 44 47 6a cb bf 3b 33 55 66 a4 19 b1 bf
       -0.21418085914285948 -0.06679751871452037
0004a0 c8 94 91 d0 81 48 c8 3f fd 4e e3 ef df ac 91 3f
       0.18971274074571043 0.017261027351948666
0004b0 b4 f6 ee d2 7e 22 c7 bf 30 c6 be e6 30 0e af bf
       -0.18074021625027614 -0.06065514389719018
0004c0 4c 5b 4e 1d 77 de c2 bf d7 58 17 9b b1 8e ae 3f
       -0.14741410189591375 0.059682417089492006
0004d0 7b 73 a5 41 3d b2 c7 3f f1 d1 3a 78 03 6e a6 bf
       0.18512693124185006 -0.04380808680199156
0004e0 b8 21 37 62 95 83 c1 bf 7b b7 84 f9 55 2d c9 3f
       -0.13682811065360823 0.19669603999630766
0004f0 06 d8 38 e3 55 c5 c8 bf 49 c3 a9 e2 dc 74 b7 3f
       -0.19352220148874738 0.09162693532722445
000500 68 c2 54 a8 6f 54 c3 3f 9b fe 01 9d 5b 66 cd bf
       0.15101428717891285 -0.2296862141265493
000510 2f a7 49 aa 71 12 c3 3f bb d0 66 49 66 c2 c9 3f
       0.14900036635236222 0.2012451036840782
000520 61 20 4a df 46 0c cd bf 82 6a b1 c1 1d f9 c9 3f
       -0.2269371595650709 0.20291492421786833
000530 f2 91 4f b7 03 b7 a9 3f c5 a6 8f c2 db 64 b9 bf
       0.0502244149463741 -0.0991952276232509
000540 9f d7 09 bb 37 17 cc 3f d0 a7 97 d8 17 45 c1 bf
       0.219458547904364 -0.1349210555629825
000550 e0 e8 d2 23 0a a7 91 3f bc d2 dd c2 72 c1 bd 3f
       0.017238768040194752 0.11623303658945877
000560 fe a0 52 4f 03 cf ca bf 1e 02 12 f0 b3 94 7a 3f
       -0.2094425332372864 0.006489470369274856
000570 90 4c b4 b1 90 6b ca bf a7 60 84 e9 2c 11 c1 3f
       -0.20640762974708027 0.13333665277673853
000580 10 d0 1f 0b c7 bc b1 bf 94 07 22 be ad 33 93 3f
       -0.0692867662581309 0.01875182602862642
000590 c9 62 e4 ea 64 d8 b2 3f ba d9 24 64 b7 df ae 3f
       0.0736144135920639 0.060300570463755546
0005a0 00 00 00 60 9b 97 bd bf 00 00 00 40 5d 42 c1 bf
       -0.11559458822011948 -0.1348377764225006
0005b0 00 00 00 a0 e3 c7 ca bf 00 00 00 00 86 59 84 bf
       -0.209225133061409 -0.0099363774061203
0005c0 00 00 00 40 32 1f b6 bf 00 00 00 00 d7 7d 9e bf
       -0.08641351759433746 -0.029776915907859802
0005d0 00 00 00 20 1c 24 c5 3f 00 00 00 80 3b bf a3 3f
       0.16516448557376862 0.03856836259365082
0005e0 00 00 00 80 f3 cc a1 3f 00 00 00 00 e6 b7 8d 3f
       0.034766778349876404 0.01451091468334198
0005f0 00 00 00 c0 0d 1b b7 3f 00 00 00 00 e6 8b 81 3f
       0.09025655686855316 0.00856761634349823
000600 00 00 00 c0 9e d5 b4 bf 00 00 00 a0 0c 67 c2 3f
       -0.0813845843076706 0.14376981556415558
000610 00 00 00 80 81 35 cc bf 00 00 00 00 61 95 93 3f
       -0.22038286924362183 0.019124522805213928
000620 00 00 00 00 5c 22 71 3f 00 00 00 c0 fe 76 cc bf
       0.004183158278465271 -0.22238144278526306
000630 55 ae 24 5e 09 23 c3 bf c4 c5 4c 38 7e e7 a6 3f
       -0.14950673195686429 0.04473490178350972
000640 af 1c 8a 13 f7 f8 9c bf 13 bb 81 49 36 ae bc bf
       -0.02829347664603848 -0.1120332650623193
000650 27 15 36 1d 5c 96 cb 3f e7 30 b6 48 11 05 c8 3f
       0.21552611757594173 0.1876546483075636
000660 91 75 3f 38 46 73 cd 3f 72 87 53 44 0f dd a8 bf
       0.23008039232710734 -0.04856155118046858
000670 ac d0 ab a9 ba a4 c2 bf d3 c5 65 4b 84 ee ac bf
       -0.1456521347496439 -0.0565072385824227
000680 f3 e1 d5 67 2e 1b c1 bf fa ef b2 40 8a 04 c8 3f
       -0.13364200658885714 0.18763855132226565
000690 e5 bd b1 30 db b9 bc bf 94 1f 9c 5f b7 96 b5 bf
       -0.11221094073129441 -0.0843309982702734
0006a0 0c 51 bf 75 cd 08 93 3f e7 0f 12 81 a2 e5 79 3f
       0.018588266669966422 0.006322512418709159
0006b0 91 3a 89 67 36 da b6 3f f5 3e 55 a8 ee 60 be bf
       0.08926715877280801 -0.1186665688485354
0006c0 d5 9a 63 74 ed e4 b8 bf 4a 59 01 91 e9 e9 9a 3f
       -0.09724315730600648 0.026282929873866302
0006d0 75 12 7d 3a 74 cf bb 3f 8e a6 b1 d2 d6 d1 93 3f
       0.10863424709266119 0.01935516034101297
0006e0 42 17 4b 1e 91 2f c2 bf 8d 2d c6 1b 89 21 c4 bf
       -0.14207662562528794 -0.15727342468413177
0006f0 e1 47 e2 a0 05 1f c8 3f b4 67 dc f8 73 dd be 3f
       0.18844671588573106 0.12056660485941856
000700 72 d4 ef 63 d0 82 b4 bf e3 16 44 d9 89 b8 aa bf
       -0.080121063612596 -0.052189166805005426
000710 03 f8 14 69 7d d9 96 3f e4 54 77 38 9a 79 b7 3f
       0.022314033068362004 0.09169925573890542
000720 dc 7d e4 fd 71 90 cd bf 09 5f b4 5b 41 70 ab bf
       -0.2309706201276488 -0.053590815014272826
000730 80 90 6b d8 1e df c8 3f 48 7e 53 39 0c f9 c0 bf
       0.19430909697905818 -0.1326003341591664
000740 c4 e3 79 1a 51 4b ae 3f 25 0a 16 41 2b 7c a2 3f
       0.05916837166018454 0.03610358399875605
000750 00 00 00 40 1f 62 c4 bf 00 00 00 80 08 81 c2 bf
       -0.15924444794654846 -0.14456278085708618
000760 00 00 00 00 a8 05 6e bf 00 00 00 00 ba 9e 88 bf
       -0.0036648064851760864 -0.012021496891975403
000770 00 00 00 80 8c e7 c0 bf 00 00 00 80 63 f6 a0 3f
       -0.13206630945205688 0.033129796385765076
000780 00 00 00 c0 4d 57 b1 3f 00 00 00 e0 0b 5b c2 3f
       0.06773839890956879 0.14340351521968842
000790 00 00 00 80 da 8b c5 bf 00 00 00 80 21 bc b4 bf
       -0.16833049058914185 -0.08099564909934998
0007a0 00 00 00 60 bd 3f c0 3f 00 00 00 00 93 c9 b8 bf
       0.12694518268108368 -0.09682577848434448
0007b0 00 00 00 00 2e 73 c0 bf 00 00 00 00 70 5a 8b bf
       -0.12851500511169434 -0.01335608959197998
0007c0 00 00 00 80 b7 49 be bf 00 00 00 c0 9a 07 cc bf
       -0.11831232905387878 -0.21898207068443298
0007d0 00 00 00 c0 c6 73 b0 3f 00 00 00 20 24 29 c7 bf
       0.06426660716533661 -0.18094302713871002
0007e0 74 50 e9 8e f7 ca b3 bf f0 14 51 f0 86 c9 b1 3f
       -0.07731578101203401 0.06948130957706034
0007f0 f8 b4 99 c1 69 a0 bf bf c0 7a 11 31 4d 00 c3 3f
       -0.12354145981381126 0.1484467019644935

layer0.bias f8 [256]
000000 e0 9e 81 2b a3 1d bd 3f 26 36 6f 66 d3 2f 97 bf
       0.11373348056951782 -0.02264337837896426
000010 00 00 00 80 b1 c6 a8 3f ba 3b 11 82 ce 44 c5 3f
       0.048390910029411316 0.166162312993462
000020 6e 70 d6 08 57 6d 4d 3f 67 7d 4a 36 c4 27 55 3f
       0.0008980441067936282 0.0012912193425690056
000030 02 0b 29 51 f8 19 a6 3f d5 bd fb 8e 16 10 c5 bf
       0.04316688528753866 -0.1645534704361881
000040 ef 53 f0 67 12 5c 5e bf dc 3d cf 9f 4d 6c ba bf
       -0.0018530063387107683 -0.10321507598495522
000050 00 00 00 80 6d be a8 3f 88 8c 6c 4a 0b 48 b3 3f
       0.04832784831523895 0.07531805579178485
000060 28 5e 2d 96 95 c9 b1 bf 00 00 00 40 c5 1a ba 3f
       -0.06948218265949235 0.10197098553180695
000070 83 c5 be 0a 66 64 83 bf 82 a3 02 24 ad 40 c4 bf
       -0.009468838885228653 -0.1582237649756984
000080 05 42 eb 26 b4 33 c6 bf 6c b2 b3 66 76 f4 c4 3f
       -0.17345287227955467 0.16371040358298516
000090 ca 51 fe 6e 12 29 ad 3f a5 cd 48 d4 d3 81 8f bf
       0.05695397953892074 -0.015384344974427597
0000a0 2a a7 b2 c1 9d cf b3 bf 73 b4 53 6e 52 06 c7 bf
       -0.0773867223639654 -0.17988043200549306
0000b0 1b a0 2a 42 42 e5 8c 3f e7 3d 3e d9 21 d5 c5 3f
       0.014109151500932218 0.1705667792088967
0000c0 5f 05 55 21 29 a2 b4 bf 8d 44 8b 82 55 56 a2 bf
       -0.08059937537929816 -0.035814926324413944
0000d0 45 bc 73 53 23 73 c5 bf b1 49 07 96 c9 02 bd bf
       -0.16757623266991764 -0.11332378304294967
0000e0 6e 75 cd 15 36 4f c2 3f 4c 14 d6 d9 54 e6 ab 3f
       0.143042336126125 0.05449166449674489
0000f0 a0 bd 27 9d 28 eb c6 bf 29 e1 ab bc ff ed c2 3f
       -0.1790514724120671 0.1478881522414295
000100 5c f8 b7 33 9c bd cc bf 44 f9 48 93 53 04 ca bf
       -0.22453644299816033 -0.20325703326848032
000110 c0 75 1b 92 2f 98 b1 bf ed 11 b3 e4 fb 47 c7 3f
       -0.0687284213740531 0.18188427607505223
000120 96 a5 94 c1 37 72 cc 3f 70 77 ba 62 b1 93 cb 3f
       0.22223565056019073 0.21544473000261233
000130 c6 87 23 7c b0 30 c6 3f 46 a0 e7 22 2a c2 c5 bf
       0.17336088239158992 -0.16998793320022026
000140 5b e1 81 82 8f 6c cd 3f 21 93 17 a9 7b c8 b2 bf
       0.229875506138124 -0.07337162855362724
000150 6a 6a 1e 7d 4c 60 c5 bf c7 0c f3 f2 34 a9 8e 3f
       -0.16700130566899257 0.014971173919894899
000160 8b 61 93 2d d7 5a b7 3f 6b f5 db da 9c 4d bb bf
       0.09122986662567294 -0.10665302603952902
000170 76 5f 0c 85 5d be cb 3f 2e 82 f8 e1 fc f4 cc 3f
       0.2167469882631356 0.2262264350292908
000180 da 5b ed 41 20 b1 ca bf 00 00 00 40 49 14 b1 3f
       -0.20853045672512743 0.0667157918214798
000190 8b c4 4c 50 58 f9 c5 3f 0e 0f 15 4e ea 31 ca 3f
       0.17167190476314817 0.20464829266176604
0001a0 d0 5b 52 4b bd e7 a0 bf 5e 62 a0 06 3a 61 ca bf
       -0.033018031544251536 -0.20609212230262391
0001b0 bd c5 17 46 1b 1f a9 3f 07 14 8f 8b f6 ec a2 3f
       0.04906544905305619 0.036964134727476554
0001c0 4d b7 26 26 5f e5 b5 bf c1 09 c0 31 ae 6d c6 bf
       -0.08553118401934263 -0.17522218159872519
0001d0 43 a7 c9 f7 9b e1 a7 bf 45 85 c5 62 0e 6d c2 3f
       -0.04664313697578717 0.14395313093977272
0001e0 c7 36 ce 82 e0 a7 c8 3f c4 89 82 4c 0a 13 93 bf
       0.19262319933880276 -0.01862732021312198
0001f0 00 00 00 80 26 b0 af bf 00 00 00 a0 0b 4d cc bf
       -0.061890795826911926 -0.22110123932361603
000200 52 9a 53 e7 31 53 c4 3f f8 be e0 ac 03 e6 cd 3f
       0.158788907959393 0.2335819810991706
000210 87 c9 74 3b 63 47 cb 3f d1 51 7c 20 91 70 ca 3f
       0.2131160774529912 0.20656026922428208
000220 39 4f 4f ff ec 00 9c bf 43 d3 1e ca 73 d5 ca 3f
       -0.027347281535028165 0.20963904732857416
000230 37 31 f8 8c b2 59 c0 3f 42 a6 2c 66 81 a6 c1 3f
       0.12773734935070433 0.13789384354577022
000240 4a 7c fd 0b 8b 2a 76 3f b8 9e d3 1d e9 64 ca 3f
       0.005411666061120599 0.2062045474660772
000250 7b b9 81 2e d4 0f 81 bf d3 4b c9 46 2d 5f bc 3f
       -0.008330972356102908 0.11082728365117527
000260 a6 42 8c 26 a1 a4 c3 bf 03 ff 0b 56 65 13 b1 bf
       -0.15346159345837868 -0.0667022070956556
000270 83 38 ce 4c 39 5b b7 bf cb 66 f1 2b f4 af cc bf
       -0.0912357151521253 -0.22411968370106758
000280 1e 63 aa 4a 5e 93 c5 bf 78 c1 74 08 02 05 c3 bf
       -0.1685598244264605 -0.14859033024687185
000290 ee f6 5e 21 1e 61 c8 bf cb 0e 8c c2 78 80 b1 bf
       -0.19046379689637355 -0.06836657285389973
0002a0 64 75 77 b5 e6 8b c5 3f d6 51 0c 5b fb 40 ce 3f
       0.16833194599795853 0.23635808892926374
0002b0 3e 6a af a0 5c 89 cd bf ff 7e ac 9c 32 dc c3 bf
       -0.23075445028264768 -0.1551574006089069
0002c0 bb 64 90 5e 86 52 b1 bf b6 c3 05 52 42 ec c2 3f
       -0.06766547974293051 0.14783505444532147
0002d0 55 0e 6f 8e 6f 09 bc bf 6a 3b 31 a5 77 07 c3 bf
       -0.1095189783800888 -0.1486653858759966
0002e0 01 68 95 52 cb 3e c7 3f 24 95 db 3a 1d 6a b7 bf
       0.18160382778552278 -0.09146292387921001
0002f0 4c f0 08 17 d7 1d a5 bf a9 76 bf 2b 5e 67 c4 bf
       -0.04124328762233684 -0.15940453659179823
000300 5f b3 0c b7 50 9e c5 bf 1d 9a 12 b4 d6 e4 c5 3f
       -0.16889389932603202 0.17104610245333243
000310 9f 6f 31 47 96 f4 cb 3f 61 0f 68 c3 a6 61 a4 bf
       0.2184017036078076 -0.03980752120335641
000320 00 2d a9 0e 2c 95 b4 bf 0c 57 5a c7 a3 6f c4 3f
       -0.0804011855881761 0.1596569751169955
000330 bf 8d 6a e3 a7 37 cb 3f 11 96 fa 50 eb 06 bf 3f
       0.21263598064716224 0.12119932868025553
000340 60 1e e1 67 81 a6 cc bf d4 6f 72 1c bb 43 c5 3f
       -0.2238313443397031 0.16612948311819642
000350 00 00 00 20 ae fd cb bf 20 99 95 2e 27 8e b9 3f
       -0.21867920458316803 0.09982533347428957
000360 66 a7 75 01 76 4d c6 bf 71 75 8d 72 0b e7 b1 bf
       -0.17423892089146448 -0.0699317125958794
000370 23 f9 8b ca 65 7e b7 bf 41 b6 44 76 01 1d 91 bf
       -0.09177242465009221 -0.01671221050599159
000380 fb 93 76 de 35 a7 c5 3f c9 91 7a 5f 5c ae c1 3f
       0.1691653572317192 0.13813357030916354
000390 5b 51 7a a2 5c 4f cd 3f f3 1b af 0b 7b 60 b5 3f
       0.228984431586137 0.08350342784170532
0003a0 46 29 d6 ee d3 dc ae bf ce a2 1a 59 95 d9 b1 bf
       -0.06027853289113465 -0.06972630906478658
0003b0 db 7c db 0d 5f 36 c5 3f 9e e3 6a 4a f6 51 c7 bf
       0.1657217805540999 -0.18218878396671995
0003c0 f9 78 c9 2f 48 30 ba bf 37 a1 ee 19 7c ce c4 3f
       -0.1022992245357023 0.16255141512125146
0003d0 00 00 00 60 b4 ee cc 3f 6f 4f a6 17 37 56 a4 bf
       0.22603468596935272 -0.03972026981060039
0003e0 71 8b 2a 91 db 3f c9 bf 5b 62 c5 a1 47 5b ce 3f
       -0.19726128185456163 0.23716063879944013
0003f0 83 4c 06 eb 00 d9 b9 3f e9 d2 78 ce 14 f3 c1 bf
       0.10096746194749255 -0.14023075181616854
000400 00 00 00 c0 4a 92 b1 3f 72 41 19 b0 66 80 c6 3f
       0.06863848865032196 0.1757934913498605
000410 e2 41 df 61 78 bd ae bf 32 fe 83 40 ab bc 8d 3f
       -0.06003929323890468 0.014520013719901834
000420 a3 87 6f b5 70 9a ca 3f 00 00 00 80 33 33 a6 bf
       0.20783814295924427 -0.043359383940696716
000430 00 00 00 40 e9 96 c8 bf 91 f0 6b a1 0c 1b c3 bf
       -0.19210544228553772 -0.14926298028865806
000440 64 40 84 f1 d8 c9 bd 3f 52 40 3a f1 9b f0 bb bf
       0.11636119743730117 -0.10914015426010451
000450 79 98 97 8d e2 8f b4 3f 91 d5 3f 8a dd 14 c3 3f
       0.08032051045265289 0.14907426119286218
000460 70 31 3c 91 69 53 c0 bf af 26 ab be f2 40 be bf
       -0.12754554359015513 -0.11817853121751896
000470 29 46 3d df d6 39 a1 3f 44 84 c8 09 8b 56 b1 bf
       0.0336444041737532 -0.06772679318284341
000480 81 8a 0b 40 88 3e cd bf 6f 5e 41 a6 8f ff b0 bf
       -0.2284708321304443 -0.06639955338447988
000490 2b c3 be 9d 3e 74 68 bf 8a 06 25 2e fd bc cb bf
       -0.002985117242097953 -0.21670498612552463
0004a0 c1 c4 38 c4 38 80 ce 3f 39 f5 2d 92 d2 f1 be bf
       0.23828801709308858 -0.12087741917453777
0004b0 9f d9 54 df af 6a 9a 3f 4b 80 cd 70 61 cf ab bf
       0.025797603612966232 -0.0543165636252075
0004c0 10 61 6e 6d 81 09 cf bf 2d b6 d7 bb 52 e2 bb 3f
       -0.24247758715933587 0.10892216764451552
0004d0 54 90 9c 11 b0 fc cc 3f 41 6b 4a a1 d0 50 a7 3f
       0.22646141872349068 0.04553844422226528
0004e0 f7 33 ed 8d 12 02 c6 3f 00 00 00 80 8d e8 c5 bf
       0.17193824701317315 -0.17115944623947144
0004f0 bc 7d fd 29 ce 56 c4 3f 99 dd 0a f2 e4 62 cd bf
       0.15889908838560796 -0.22958051508406355
000500 b6 31 6c a0 b9 fa c9 3f 67 14 e5 0e c2 92 c0 bf
       0.20296402295242694 -0.12947869994437441
000510 b4 2e 19 ec 36 9d c1 3f c2 58 d3 6e 57 b1 b2 3f
       0.13761030700913113 0.07301851707174747
000520 3b 4b 97 d3 f4 87 c1 3f 37 e8 32 e9 85 52 c2 3f
       0.13696155864325896 0.14314340483343965
000530 66 4a f3 53 5e d6 b8 bf bb ca 90 7f e0 a2 b2 3f
       -0.09702100324219884 0.07279780496973391
000540 d5 3a 93 26 ed e9 cd 3f 11 69 fa 31 75 0b b2 3f
       0.23370136626768692 0.0704873320595747
000550 e5 7b a3 6a 15 73 a4 bf ea 0f 73 4e 5a 22 c4 bf
       -0.039940518634231904 -0.15729836302318684
000560 4a a1 bb d0 d0 1b c1 3f c4 75 db 6f c0 95 bd 3f
       0.13366136734044637 0.11556627970590855
000570 58 95 d6 b6 01 ff a2 bf fe b3 9a 3c f5 e5 c5 3f
       -0.03710179669296093 0.17108025988764547
000580 e9 95 cf 2a 2a 8f a7 3f 2f cb 30 a5 f5 4a b7 bf
       0.046014135099351545 -0.09098754199002877
000590 88 19 08 43 ea 6f 91 3f 7d 5f db 59 8a 9f b1 bf
       0.017028484669958682 -0.06884064382336237
0005a0 b7 d3 c1 0f 2a d7 b0 3f e3 bc 51 34 17 c8 c8 3f
       0.06578314671226236 0.19360628180172687
0005b0 52 0a 17 ad c3 d3 c8 3f 00 00 00 e0 61 ff c3 bf
       0.1939625353971502 -0.15623115003108978
0005c0 65 60 3e da 25 37 cd bf ab ec a7 10 cf a9 a0 3f
       -0.22824547916821128 0.032545538695523867
0005d0 00 00 00 00 8f b7 c1 bf 56 c3 37 78 c9 58 9c bf
       -0.13841426372528076 -0.02768244549037332
0005e0 5a 4f db 20 5c 8a c8 bf da 04 6f 58 06 d4 c6 3f
       -0.19172240833597237 0.17834548299837288
0005f0 69 f7 55 e1 d8 b0 bb bf 8d 5e d1 bc 3b 88 b6 bf
       -0.10816722394335233 -0.08801625594912306
000600 64 b1 4d 9e 2e cc b3 3f 4a 60 e5 6a 6d b0 78 bf
       0.07733432164031268 -0.00602762929187157
000610 95 46 21 fc 41 d4 c4 bf d8 86 a6 69 7d 8e a8 bf
       -0.16272759257349337 -0.047962111613072345
000620 01 bc b2 69 53 12 85 3f 1d 42 6b 1d 0a 85 bb bf
       0.010288859999802115 -0.10749877184139973
000630 a8 70 ca ed ad 3f c8 bf a0 45 5f ae 6c 59 8a 3f
       -0.1894433413589287 0.012865876265922449
000640 b1 a0 c5 ef b8 a6 c4 bf b3 f2 8d d1 37 03 c3 bf
       -0.1613379641305577 -0.14853570682671133
000650 b7 04 9c 8b f2 13 95 3f 07 59 5e 5e 79 59 ba 3f
       0.020583905955395134 0.10292776636046962
000660 3c 4f bd 78 89 45 b4 3f 3a c7 e0 7b 5e 88 bb bf
       0.07918605039349996 -0.10754957699171266
000670 5e 88 61 71 28 28 c2 3f 00 00 00 00 51 a9 99 3f
       0.14185052429371842 0.025059953331947327
000680 3a 3a 46 02 bb 7a c8 3f a7 fd d8 c8 83 bd c8 3f
       0.19124543772746155 0.19328353220951763
000690 16 3d ed 0f 3c 7c c5 bf 87 f6 f6 26 5e d8 c0 3f
       -0.1678538396613269 0.13160302069256977
0006a0 28 42 fa 6c f7 f4 c1 3f 87 c1 47 a3 23 eb a6 bf
       0.1402882845036555 -0.04476271980445561
0006b0 5c 34 8e 0e 04 eb 4e 3f 9b fa 8e 55 03 9e bc bf
       0.0009435434159158584 -0.11178608740645261
0006c0 b3 ef d8 f5 ee 9b b8 3f 71 a7 cc 06 b9 0a c2 3f
       0.09612935545095418 0.1409522326660482
0006d0 81 52 2c 08 25 a9 ce 3f 31 c6 c2 bf 61 ae b1 bf
       0.23953688525275044 -0.06906710559521724
0006e0 43 6f c7 62 45 1b b3 bf 5b 9a 79 dd 0d fc b7 3f
       -0.0746348730239648 0.09368979127030157
0006f0 fc 31 26 2f 2e ea c7 bf d9 04 ad 5d ff 94 c5 bf
       -0.1868341188641266 -0.16860954355255478
000700 46 1a 21 91 41 40 6d bf 6a bf c5 70 80 15 89 3f
       -0.0035706787685143874 0.012248042527715792
000710 46 99 d3 ac c3 63 b5 3f db 0d eb 1d 91 07 c3 bf
       0.08355353326223733 -0.14866842232559815
000720 b5 97 65 be 0b 2c 9a bf 9f 9c 6d 84 e5 5c b6 3f
       -0.02555864667501569 0.08735498889073988
000730 32 77 aa 0a 6b 16 97 bf 4b 43 c6 ad 80 79 c9 3f
       -0.022546455884927492 0.19902046666222825
000740 43 f7 df 61 78 23 ca 3f f5 4c 51 bb e7 e2 b1 bf
       0.2042074659256575 -0.06986854861434096
000750 54 12 d6 92 aa 94 b2 bf ac 99 ce a9 12 04 a7 bf
       -0.07258096775883277 -0.0449529487880683
000760 9b cf 45 6f 85 45 c5 3f 9d 3e a2 45 d0 cc c0 bf
       0.16618411954152354 -0.13125041389547656
000770 00 00 00 20 da 16 cd bf 2a ce d4 b2 f8 f2 a2 3f
       -0.22725988924503326 0.03700997527121459
000780 ae 89 5d 01 5e 07 cd bf d3 01 e2 43 c9 56 cb 3f
       -0.22678732935589835 0.21358600439636052
000790 b0 fb 4f ba 30 f8 cd 3f e0 78 c8 77 6f 73 b3 bf
       0.2341366681793864 -0.07598015474693254
0007a0 26 ca bf f7 e4 63 b3 bf 5d 86 1e 4c 2c 67 a4 bf
       -0.07574301765979694 -0.039849647800349365
0007b0 59 38 af 85 8c 51 be bf 00 00 00 20 e2 e0 cb bf
       -0.11843183769016842 -0.21780039370059967
0007c0 3b dc 4b c8 2d 1f 91 3f 07 9e b9 aa 80 12 c8 bf
       0.01672050032626891 -0.18806465469536723
0007d0 47 00 9e 42 24 74 9e 3f 4a f4 01 7f 7b 12 c7 3f
       0.029739920202246386 0.180251538291403
0007e0 b2 7e 08 77 af a4 b2 3f 2c 85 b4 72 80 27 b8 3f
       0.07282539993365836 0.0943527488748443
0007f0 cf 16 67 94 f0 af a6 bf b3 8b 81 16 fb 9a 9c 3f
       -0.04431106387668892 0.027934954880389728

layer1.weight f8 [256, 256]
000000 20 b3 96 f2 03 9c 99 bf a1 e5 b3 d2 f4 e2 a0 3f
       -0.02500921409744017 0.03298153945975036
000010 00 00 00 80 00 8a a5 3f 80 2a a2 cb b1 c5 a0 bf
       0.042068496346473694 -0.03275828943977377
000020 b2 b6 08 55 4d 91 a6 bf c9 74 51 78 1d 7d ac 3f
       -0.04407731688511997 0.0556420525906361
000030 69 21 f7 93 dc 90 9a bf ec 41 09 32 8d 8c 8c bf
       -0.025943228274429773 -0.013939955796701896
000040 8e 39 67 9d e3 99 ad bf e5 52 5e e1 56 2b 79 bf
       -0.05781470581461 -0.0061448472751137505
000050 00 00 00 00 00 22 3a bf ae 59 bf a0 7a d9 a2 3f
       -0.0003987550735473633 0.03681548321008009
000060 ae fa af 9c 87 0f ac 3f 00 00 00 40 fb c8 a2 bf
       0.05480598247230738 -0.03668961673974991
000070 98 0c 26 40 5c 90 90 3f c1 98 07 32 24 9a a8 bf
       0.016175691047021518 -0.048051005465639125
000080 56 b9 28 e3 6e a5 a9 3f 11 87 8b b9 b5 09 a7 bf
       0.05009027979791607 -0.04499595537141777
000090 32 e1 11 7c ae 75 91 bf 99 14 4e a7 e2 b5 3c 3f
       -0.017050482103941174 0.0004380873063428242
0000a0 45 46 48 2a e3 66 92 bf 60 02 f3 a6 36 99 a5 bf
       -0.01797060914583983 -0.042184551124141434
0000b0 b6 a4 d2 7a f9 bf ab bf 17 63 f1 19 a6 08 a9 bf
       -0.05419902443220208 -0.048894110361919534
0000c0 a6 f6 ab d8 57 d5 8b 3f 46 0e 13 1b 87 bd 96 3f
       0.013590513515278357 0.022207366015903916
0000d0 39 92 69 80 d7 96 a2 bf f2 e0 db 53 f5 53 93 bf
       -0.036307081628170264 -0.01887496303876985
0000e0 0b 12 88 95 22 11 91 bf cb 59 dd 42 cd f3 a8 3f
       -0.016666927696876537 0.04873506013125314
0000f0 23 ab cd 70 dc 3b 95 3f a8 b4 94 77 9c 33 ae bf
       0.020736164460156147 -0.058987512204433046
000100 6a 7a 1a 2d e8 38 90 3f 2a 99 9b 7a 3a 16 9e 3f
       0.015842082741637155 0.02938166974390658
000110 11 f4 a2 86 bf 9b a6 bf e2 7e 33 45 92 04 a7 bf
       -0.044157014069675544 -0.044956751773268314
000120 a9 23 21 3a 2b a9 97 3f 0c f2 58 84 86 02 a7 3f
       0.023106265471401297 0.04494114270753266
000130 d5 c5 43 5a 09 3d aa bf a5 30 73 e3 f5 1f 84 3f
       -0.051246921795506196 0.009826584819528536
000140 75 ed 06 1a 20 62 99 3f 49 99 fd b5 f6 15 a9 bf
       0.024788381184163783 -0.04899569484296024
000150 df 9d 6b b8 6f f2 a6 3f 43 68 0d f8 90 24 a6 3f
       0.04481839300370515 0.04324772861464556
000160 a6 de c7 94 af 8c ab 3f 13 cb 11 58 42 46 99 bf
       0.0538077229611507 -0.024682079911552423
000170 7e 3f 6d 14 9d c4 92 bf 6e a2 17 1d 1d 52 7f bf
       -0.018328146335363275 -0.007646669125712975
000180 7e a4 6d a4 bf 49 aa bf 00 00 00 00 22 e3 a2 3f
       -0.05134390718632974 0.03688913583755493
000190 e6 5d c0 f3 a8 e1 a4 bf 8e ce b5 56 c1 75 a0 bf
       -0.040784148936093875 -0.03214840110277094
0001a0 c2 a2 70 8a 08 46 9a bf 23 c5 19 b6 73 78 a8 3f
       -0.025657781076150916 0.047793975810132026
0001b0 45 27 c4 cc 1c 25 ad bf 64 8d 6f 27 cf 5c ac bf
       -0.056923770900608996 -0.05539557796853492
0001c0 5b 9c 75 06 59 65 a4 3f a0 5f 55 50 07 7b 71 3f
       0.03983572200632387 0.0042677198119562
0001d0 e1 14 d5 31 90 95 af 3f 41 8b c1 2c bc 69 96 bf
       0.06168795212082912 -0.02188772223633895
0001e0 71 00 be 20 77 13 a2 3f 57 b3 12 52 88 a1 a3 3f
       0.035304758784150965 0.03834177018993639
0001f0 00 00 00 80 62 ca a7 bf 00 00 00 80 96 cd 9b bf
       -0.04646594822406769 -0.0271514430642128
000200 f4 36 ba 63 62 bb ab 3f b2 73 16 a5 9f c5 9f 3f
       0.05416400401473523 0.031027311755326976
000210 a8 0f 34 87 d5 18 97 3f f6 54 49 db 61 70 7a 3f
       0.02255567205158085 0.0064548323176343205
000220 31 5a ce 91 db 76 a5 bf 81 e4 09 1c 72 4d aa bf
       -0.04192243723735024 -0.05137211410778609
000230 7d d0 69 3a 41 56 7a 3f 91 17 a7 1e 8a 0a 43 3f
       0.0064299152351062734 0.0005810903942850989
000240 2e f8 fb 6a 3a 29 a2 3f e9 17 31 5a 0f 62 87 3f
       0.03547079616508629 0.011417503299650593
000250 bd 3b 7b 22 22 10 93 bf 26 87 66 0c e0 87 a6 bf
       -0.018616231302811082 -0.04400539542554176
000260 54 d7 34 a4 93 a3 ad 3f 22 d4 71 9a 98 2b af 3f
       0.05788861636612688 0.060879486897569515
000270 32 f6 4a b9 9d f2 ad bf 0f 6d 9b b5 10 7b 59 3f
       -0.05849163901210054 0.0015552199533235866
000280 05 20 98 9f ff 6e 9c 3f c1 d8 0a 97 bd b2 94 bf
       0.027767175784930504 -0.020213091224569938
000290 39 ce cc 02 91 a1 92 bf 3c 61 20 fd fc 30 ae 3f
       -0.018194452091121447 0.05896750059054276
0002a0 c3 44 50 0e 2c ae 87 3f cb 4a 6c bc 40 97 9b bf
       0.01156267565423475 -0.02694417142908882
0002b0 a0 f2 95 71 f3 80 78 bf d6 26 a6 95 12 1f 8d 3f
       -0.00598235221093249 0.014219422523427932
0002c0 24 92 85 0c 17 fc a0 3f 1c 0f 25 21 f6 fe ad bf
       0.033173294333014774 -0.058585826440802985
0002d0 c7 1c 1e 5d c2 3a ae 3f 31 f1 30 55 4e 61 92 bf
       0.05904204737367418 -0.01794931788411808
0002e0 13 38 73 47 71 bf 93 bf e9 b7 d4 00 6c 8d a0 3f
       -0.01928498266789098 0.03232896337645725
0002f0 4c 49 fa dc d7 4b aa bf 4a bc f3 65 a3 a3 a7 3f
       -0.051359887814344946 0.046170335955928524
000300 e3 6d ec 9c ca 19 5c 3f 58 0a f7 3f 13 13 8b bf
       0.001715133537522167 -0.01321997679668134
000310 aa 9f 05 96 19 b9 66 bf f4 6c 22 34 61 ff 90 bf
       -0.002773809406949786 -0.01659919624999602
000320 f0 5e a9 71 bb 34 a7 3f 00 92 69 16 3d 8b 9e 3f
       0.04532418978186381 0.02982802819532715
000330 db d9 a1 65 ab 7b 91 bf 00 7e d4 36 5d 2e 9c bf
       -0.01707332427801043 -0.027520615073738597
000340 2b 18 5a 1b 7b bb 8e 3f 63 3c c1 4d e1 96 a9 3f
       0.01500602891179533 0.04997924875407802
000350 00 00 00 00 ea 3e 74 3f b9 71 d7 3a db 10 94 bf
       0.004942812025547028 -0.019595551935582132
000360 af e6 fd e1 42 14 a7 3f aa b6 d8 c6 be 61 97 3f
       0.045076456152810855 0.02283380592978427
000370 07 0f 47 20 da f8 8d 3f b7 a6 0a 83 1d 56 a0 3f
       0.014634803876908643 0.03190700745228752
000380 52 8f 09 94 60 c1 90 3f d1 89 53 60 9e b8 a2 3f
       0.016362675700647707 0.03656477857454699
000390 1a 05 11 ca a1 3b 92 bf 87 ad 32 ac 6d 66 a7 3f
       -0.017805602987441473 0.04570334174180873
0003a0 6d cd b8 d8 8a 9f 9b 3f c7 14 9f fa ee 55 aa 3f
       0.026975793340353094 0.051436870664056715
0003b0 55 e0 fa fd d5 94 a7 3f 14 d0 01 c5 c0 60 a0 3f
       0.04605740285245533 0.031988166855541206
0003c0 14 26 02 49 05 57 9d bf 88 93 28 6b 0e 19 9e bf
       -0.02865226991756316 -0.029392457285343038
0003d0 00 00 00 c0 39 15 aa 3f be d7 30 62 c2 76 a6 bf
       0.05094318836927414 -0.04387481163614336
0003e0 00 4c cb 79 8e 31 a1 3f f3 f4 fa 7e 49 39 73 bf
       0.03358121144051296 -0.004693305105033507
0003f0 bb a3 f1 57 f5 31 a2 bf 43 15 5b 71 2e c1 80 3f
       -0.03553740213903419 0.008180964311928057
000400 00 00 00 00 b6 99 a0 3f b2 a5 e5 09 64 28 ae bf
       0.03242272138595581 -0.05890190716565814
000410 10 56 c2 17 7c e9 a2 3f 25 a0 62 34 bd a8 a4 3f
       0.03693759717968359 0.040349877018627724
000420 5b 7e 4b 2d e7 ec 17 3f 00 00 00 00 97 ac 8a 3f
       9.126816741966122e-05 0.013024501502513885
000430 00 00 00 00 29 bc ab 3f 41 ed 79 d4 ff 76 a2 3f
       0.054169923067092896 0.03606414288239047
000440 8c ac 3e 5d 36 bd 94 3f a1 b1 3a fa eb d8 ac 3f
       0.020253037873470478 0.056342481895032444
000450 92 68 53 0e 3b d4 a3 3f fe e7 0e 52 7a 91 a1 bf
       0.038728566645390164 -0.0343130326431975
000460 7a 3b e8 17 a9 a3 a7 bf 56 3a ad b3 96 bc 5d 3f
       -0.04617050568423671 0.0018149825761672087
000470 6d 8c c3 24 9f 07 74 3f 8f d0 51 19 6c 1a 7e bf
       0.004890081076356895 -0.007349416982027303
000480 47 53 ac 00 9a 03 85 3f 8f 4f d5 5d 75 9e ad bf
       0.010260775704901482 -0.0578495671312843
000490 1b 21 d1 8b 2c e3 94 3f 43 93 ed bf aa b1 a3 3f
       0.020397850068804773 0.03846486657020034
0004a0 52 b3 9a 8b 19 bb ac 3f 9f a5 30 02 b7 0d 86 bf
       0.056114958087482805 -0.01076834655221398
0004b0 d8 43 73 5c 4f ca 95 3f e1 a0 05 c8 11 60 a8 bf
       0.021279563920703598 -0.04760795180010447
0004c0 e4 77 d5 d4 10 c4 ac bf 91 ae 89 e0 0b 05 a9 bf
       -0.056183362942405585 -0.04886662593784508
0004d0 7a f8 53 fd e8 1d 78 3f c9 7d 20 01 e8 c5 a8 3f
       0.005887899508932754 0.04838490499264087
0004e0 f2 dd 3c 93 36 77 80 3f 00 00 00 00 13 95 a9 bf
       0.008039881103839772 -0.049965471029281616
0004f0 2e e1 95 b9 27 6a 9c 3f 9c 2c 01 d9 47 b0 a3 bf
       0.027748699857938756 -0.03845428966504835
000500 af 4d 49 b3 58 fb 90 3f bd d9 d0 82 72 26 21 bf
       0.016583810751695512 -0.0001308455261168194
000510 02 e5 47 b9 c9 63 96 3f 5c 0c ca 97 c1 35 a7 bf
       0.021865035947461038 -0.04533200242897159
000520 5e 2f ed 5d 97 c3 75 3f 29 05 c4 18 0e 8a a1 bf
       0.005313483502344811 -0.0342564015609333
000530 5c df ae ea db f1 95 3f b1 29 09 84 5e 4c a8 bf
       0.021430431555671134 -0.04745765077366871
000540 59 97 27 17 5e bf a3 3f a7 ff b8 e7 f9 16 9e bf
       0.03856939346932959 -0.02938452221701451
000550 29 49 05 33 88 06 ac 3f 58 6d 41 cd 8e 04 82 3f
       0.054737335422617335 0.00879775585069946
000560 8a 2b d1 72 c4 2a 98 3f b4 76 fa 74 3a dd aa 3f
       0.023600644595983357 0.052469088344179765
000570 65 0d c8 72 57 2b 91 3f 90 3e c9 e2 de 6b 96 bf
       0.016766897564605716 -0.02189586886589595
000580 7c 7d b4 38 00 6b ab 3f 2c b4 2b 94 09 56 ac 3f
       0.0535507268161792 0.055343913399930805
000590 e1 f1 f9 b3 9a 91 aa 3f c2 57 9e e1 d4 21 55 bf
       0.051892122716683316 -0.0012898043555415882
0005a0 fa 5f 29 8d fb c8 94 3f 13 f2 63 26 82 2a 96 bf
       0.02029793786127241 -0.021646531670727564
0005b0 45 2f d7 38 6a 86 31 3f 00 00 00 00 f4 bd 9e bf
       0.0002674111682068224 -0.030021488666534424
0005c0 f5 33 83 08 68 ad 9f bf cc 08 41 9f b2 23 ac 3f
       -0.03093493034321067 0.054959852161589134
0005d0 00 00 00 80 64 c5 98 bf 05 6a 89 44 cb ae 9f bf
       -0.024190492928028107 -0.0309402237493064
0005e0 74 d9 51 83 1a dd a9 bf 3a 12 42 d8 ee 7e 91 3f
       -0.0505150113394163 0.017085773419710494
0005f0 60 7a 03 63 8d 2b 80 3f d7 a8 5c 68 65 ff a1 3f
       0.007895569404749725 0.03515164278936005
000600 3c 65 0a a6 f9 31 a4 3f 7f 84 88 81 60 59 ac 3f
       0.03944378043997651 0.055369392215887984
000610 3e 65 70 af 79 97 aa bf ca f2 41 94 da e8 a5 bf
       -0.051936915079020526 -0.042792158696988006
000620 e9 73 7c 3a ff 8a 62 bf a0 8c 15 6c 7e ff a2 bf
       -0.0022635445528877873 -0.03710551328074385
000630 18 3b 8f a0 77 44 ac 3f 57 c5 ea 50 aa d1 89 bf
       0.05520986399607447 -0.012606936067956083
000640 61 1b 76 44 94 7f a4 bf 99 b5 a0 f4 56 d9 78 bf
       -0.040035851819132835 -0.0060666462614284095
000650 00 df 05 c5 f9 ab aa bf 5e 33 6b 54 b7 31 af bf
       -0.05209332017960655 -0.060926178984664445
000660 93 3e 88 a4 94 c9 9a 3f 10 0d 3e d8 c8 56 ab bf
       0.0261595940992821 -0.05339648856809209
000670 37 d9 91 a9 70 19 a6 bf 00 00 00 c0 e1 8f a2 3f
       -0.04316284246390228 0.03625398129224777
000680 cf d7 59 1a 09 19 7e 3f ef 46 61 c4 ec 7e 9b bf
       0.007348094518979622 -0.026851367460330285
000690 26 09 2b ca 44 6f 82 bf 0c a1 ea 01 a8 ff a3 3f
       -0.009001290721589127 0.03905987761874216
0006a0 44 5c 86 89 df eb 85 bf ec 2e 1f 8c a4 86 7e bf
       -0.010703798660683835 -0.007452624095048082
0006b0 cb 1c 7a b6 ba 14 93 bf 77 5b 69 cb 00 2a 53 bf
       -0.018633763682854004 -0.0011696822890791805
0006c0 95 a8 48 40 9b ca a9 3f d5 59 a7 e6 65 94 ac bf
       0.05037388953890446 -0.05581968727681256
0006d0 6a da 30 6d 42 8a 88 3f dd cd 2c c1 68 ba 9c 3f
       0.011982459027519005 0.02805484465643625
0006e0 ac 0b 39 69 50 6c a0 bf 78 a3 02 64 05 13 b0 bf
       -0.03207637104471614 -0.06279023830087549
0006f0 e1 b2 a1 95 01 b0 90 3f 11 e2 2f e5 51 46 ae bf
       0.016296410329618708 -0.0591302482861843
000700 45 70 b2 c0 30 61 a6 3f 32 69 61 49 a3 95 a5 3f
       0.04371025421389211 0.042157271106321295
000710 a3 4e e8 21 6d e9 a1 bf a9 02 52 3d 81 88 90 bf
       -0.0349840263262682 -0.016145724647233326
000720 63 2e 2d 0e 9a 73 ad 3f 86 fe b5 e9 7f 9d 98 3f
       0.05752259657910199 0.024038313521940434
000730 81 55 19 c6 04 4f ac 3f bd 63 e6 39 78 3e a0 bf
       0.05529036443901259 -0.03172660548006643
000740 f5 d0 c6 35 ad ed 12 bf 90 2e ff c0 d8 5d 88 3f
       -7.220620813691902e-05 0.011897748365206767
000750 79 91 96 a4 8b af ae 3f c2 53 a8 9f 57 66 80 3f
       0.05993305572636393 0.008007702407704435
000760 ca 65 8e d4 5b 93 96 bf c1 50 86 53 dd ab 9d bf
       -0.022046503876117098 -0.028975923750821368
000770 00 00 00 00 60 65 a9 bf 0c 74 9d 30 cb a1 80 3f
       -0.04960155487060547 0.008121097012628219
000780 46 31 f4 b2 dc 9b a8 bf c5 7f 85 fe eb ad 8f 3f
       -0.04806413349624221 0.015468448357466866
000790 f6 72 40 57 59 6f a0 bf da 0f d2 21 7a 6b ad 3f
       -0.032099525357102296 0.05746061003540577
0007a0 53 50 89 f2 6b 05 60 3f 4f 3f 6c e0 dd 76 71 3f
       0.001955710253506418 0.004263750749274055
0007b0 99 fb 43 14 8a 38 71 bf 00 00 00 c0 25 7a ad 3f
       -0.004204310771682617 0.057572536170482635
0007c0 23 ef 17 f3 f2 d8 68 3f 83 31 dc e6 e4 82 ac bf
       0.003033136855035938 -0.05568614309422328
0007d0 43 72 d0 8b 4f 7c a0 3f c5 bb cf c0 7f 44 7d 3f
       0.03219841558186378 0.007145403896159534
0007e0 b4 75 3a e8 fe 04 9f bf bc 0e fb df 57 53 a6 3f
       -0.030292494701475284 0.043604608622926005
0007f0 31 7f 88 73 24 b3 a2 bf de 6c 80 8a 42 7d a1 bf
       -0.036522997954533294 -0.0341587823933993
