python/snapshots/snapshot800.pt (torch_old, 584819 bytes, 6 tensors)

layer0.weight f8 [256, 18]
000000 89 8e 0d c6 02 40 c6 bf 70 a3 78 f3 00 e0 73 3f
       -0.17382845564417362 0.004852298464847901
000010 ca 33 8f 1b 2c 46 c7 bf 00 8b 63 04 02 b2 ca bf
       -0.18182898851082846 -0.20855736936854186
000020 56 be d4 c9 db 95 b6 3f 1e 5f ea e4 29 89 c5 3f
       0.08822415997996677 0.16824840238108946
000030 56 be d4 c9 fa 6b b6 3f d1 f3 fb 56 69 15 ab 3f
       0.08758513858332981 0.052897731655299325
000040 85 c8 b5 10 57 45 cb bf 5e 8b 2a 1b 05 3a c2 3f
       -0.21305359188005837 0.14239562822794033
000050 9e 45 89 ce 63 25 8e 3f b2 9c 40 b6 b1 56 af 3f
       0.014719753017888245 0.06120829915772087
000060 d7 f3 00 26 f1 be c8 bf 1e 5f ea 24 5d 40 c0 3f
       -0.19332708697939324 0.12696422865405393
000070 07 ff 2e 27 aa 92 9a 3f 83 bc 3b a7 4c fb b9 bf
       0.02595010627896868 -0.10149077494473784
000080 4a af 94 ee 04 91 a5 3f 92 c2 cf b6 ad f0 c0 bf
       0.04212203419078138 -0.1323449270853599
000090 29 23 dd cb a8 df a5 3f a4 93 4a 2e 45 f0 ac 3f
       0.042722010503501835 0.05652061643676312
0000a0 e9 fb df 24 9f 79 a3 bf c0 c7 1f 93 a1 a7 ce bf
       -0.03803727460034862 -0.2394906967525099
0000b0 01 2d 80 59 2b 81 6c bf 67 ec bf b1 46 87 c9 3f
       -0.003479561488352823 0.19944080046829812
0000c0 96 59 c4 fe b3 ba a8 bf 02 77 1d 85 b3 fe c9 bf
       -0.04829943165730126 -0.2030853652931271
0000d0 3c 70 5c 55 1d 18 c6 3f 6b 61 f8 2b a1 a9 a2 3f
       0.1726109186937509 0.0364504209684949
0000e0 c3 35 88 47 1b a7 c7 bf 98 e7 a2 c5 43 c0 9b 3f
       -0.18478718750740883 0.02710061925674942
0000f0 e4 22 d7 a7 72 e3 c2 bf b1 5c ef 22 e1 68 a5 3f
       -0.1475661582501494 0.04181579162075744
000100 e7 d0 85 81 e6 71 c8 bf 4e af 83 65 26 c6 c2 bf
       -0.19097596477843767 -0.14667205769307617
000110 cc 53 ee 45 2b 82 9f bf e5 7a 66 c6 f3 6d c6 3f
       -0.03076999296498055 0.17523047626033086
000120 00 00 00 00 ae 45 b4 bf 00 00 00 00 4c 6c 97 bf
       -0.07918822765350342 -0.022874057292938232
000130 00 00 00 00 f4 62 cc bf 00 00 00 00 a0 4a 43 3f
       -0.2217698097229004 0.000588729977607727
000140 00 00 00 80 55 45 c1 bf 00 00 00 60 cc 45 c8 bf
       -0.1349284052848816 -0.18963007628917694
000150 00 00 00 a0 b9 2d c3 bf 00 00 00 60 5c 8a c4 bf
       -0.14983291923999786 -0.16047243773937225
000160 00 00 00 e0 e3 af c1 bf 00 00 00 60 39 2d c3 bf
       -0.13818024098873138 -0.14981763064861298
000170 00 00 00 20 d9 48 cd 3f 00 00 00 40 55 9f b4 bf
       0.2287856489419937 -0.0805562287569046
000180 00 00 00 40 67 01 b0 3f 00 00 00 80 d1 b9 ad 3f
       0.06252141296863556 0.05805830657482147
000190 00 00 00 00 89 5e 98 3f 00 00 00 80 3d 78 af bf
       0.023798123002052307 -0.06146423518657684
0001a0 00 00 00 40 73 c1 bf 3f 00 00 00 80 22 92 cb bf
       0.12404556572437286 -0.2153971791267395
0001b0 f7 75 6a 94 fd e1 b6 3f 65 cc 7f a4 ff 0c c5 3f
       0.08938584206995147 0.16445918590725053
0001c0 8d 4f 75 26 d7 af c7 bf df 8f 4c 68 b3 48 a4 3f
       -0.18505372407764434 0.03961716316396723
0001d0 bf 20 dd 41 50 84 6b 3f 5f b9 39 fb e1 ec c8 3f
       0.0033589904332168292 0.19472908751363158
0001e0 84 3c bf fd 11 48 be 3f a3 a1 df 88 5f 6e c6 3f
       0.11828720517154251 0.17524332221297553
0001f0 cd c5 2f 47 26 60 95 bf 9b a9 75 c6 1b 67 cd 3f
       -0.020874593825231536 0.22970912161265464
000200 08 48 b2 35 b9 88 c2 bf 36 59 44 dd a7 32 b5 3f
       -0.14479746934790705 0.08280419494653732
000210 b5 04 b4 65 51 e7 c9 bf c3 34 52 96 99 a5 bf bf
       -0.20237176385857017 -0.1236206047053257
000220 6d 8b db 58 9c 62 af 3f d7 de ad de 4a 8b b0 3f
       0.06129921517074064 0.06462543426993804
000230 c9 fb 36 f2 f3 b8 65 3f f9 d4 e1 92 a3 a4 93 3f
       0.002651668984725107 0.019182735290503825
000240 33 be eb 67 a3 00 c0 3f 2e b7 20 47 4b d6 72 bf
       0.12501947950612333 -0.004598897985528967
000250 79 cb c6 78 2b a7 c6 bf 16 b3 e0 9c b2 4c ca 3f
       -0.17697661778728582 0.20546562824292697
000260 d7 7c e8 76 62 56 c3 3f 91 77 18 22 cf 30 aa 3f
       0.15107374960005046 0.051153633987481524
000270 cf cb 04 7d fc 42 b8 3f 8f b4 88 55 33 18 c1 bf
       0.09477212955680091 -0.13355104137864202
000280 11 26 5b f1 88 11 c6 3f 48 59 93 5e 15 67 ba 3f
       0.17241012368167266 0.1031354289910712
000290 c0 54 52 60 72 0e ba bf bb 2a b8 0a 8c d2 c2 3f
       -0.10178294040300084 0.14705038569839765
0002a0 58 f6 80 59 9d fb a5 3f 9e b1 02 6b 79 6f c4 3f
       0.042935292411567516 0.1596519253265684
0002b0 ab 4f 6f ca a0 df c3 3f 39 2b d2 a7 5a 75 ca bf
       0.15526208767425706 -0.20670636362441444
0002c0 91 da a0 03 19 4d c0 bf 9c b8 a7 c5 ab 2a b3 3f
       -0.12735283543743894 0.07486985755505987
0002d0 6e e3 18 0f 97 e8 bf 3f 15 2f 9f 8a d5 68 cb 3f
       0.1246427928789566 0.21413678425448582
0002e0 77 29 8e dd f4 a1 9f bf 32 96 5f 74 8e c3 cb bf
       -0.030891252539313876 -0.21690540964407173
0002f0 84 d9 14 66 ad 78 bb bf 21 18 17 27 2e a2 b1 3f
       -0.10731014005873446 0.06888092474318387
000300 50 b5 ae ab b5 3f cd bf d4 fe d8 e9 f9 a7 bc bf
       -0.22850676424915628 -0.11193811377688273
000310 f0 20 a7 05 67 11 bb 3f bc e0 0d 8d 5a 30 c8 bf
       0.10573429000863022 -0.18897563826954478
000320 0e d3 a1 34 f3 d7 c9 3f 87 7b dd c9 1b 96 bb bf
       0.2019027716629797 -0.1077592246851805
000330 59 18 5a 58 df 83 9a 3f 48 c5 bf 6e 0a d2 c1 bf
       0.02589367844350252 -0.13922243507071586
000340 37 80 98 97 81 ad ba bf b0 ec f8 40 3e d3 b6 bf
       -0.10420999480311442 -0.08916081510772034
000350 1d 1f 1a d3 09 c0 bf 3f 9d 14 f4 41 20 a7 af 3f
       0.12402402309282619 0.061821945239026045
000360 7e 70 5f aa ff 08 ba 3f 6a 60 30 e4 c6 76 cd 3f
       0.1016998091649288 0.23018728391685112
000370 4e 37 e0 6c dd 99 9c bf 58 18 0c b2 3e 56 c5 bf
       -0.027930698175672668 -0.16669448560441213
000380 07 63 ed 55 16 a3 bb 3f 7a b5 5a 31 d9 31 b5 3f
       0.10795726392587933 0.08279187636317956
000390 f3 fa bb 5c 1d bd a7 bf 9f 63 4b 64 79 61 c9 bf
       -0.04636470562944863 -0.19828717610542143
0003a0 b1 6a 6c 15 9b 7a cd 3f e6 38 c7 0f 8c 94 c4 bf
       0.23030413194722635 -0.1607832982103396
0003b0 2f 9d 5b cf d7 d9 bd 3f ac e7 fb 5c b9 df b1 3f
       0.11660527050445489 0.0698200084697464
0003c0 5a cc aa 78 79 86 a1 bf c6 55 17 4a 59 eb 8d bf
       -0.03422908399570508 -0.014609048436720406
0003d0 2b 33 98 60 ad 31 c8 3f 3a 42 a8 dd e0 e9 c5 3f
       0.18901602951555083 0.17119990180118966
0003e0 fb 86 55 20 de c3 8c 3f 16 ca fa 05 09 ec c0 bf
       0.014045462953336854 -0.13220322410559565
0003f0 b4 65 f1 57 ba 91 c8 bf 0b 59 cb de 88 85 c2 bf
       -0.19194726270761253 -0.14470015410069723
000400 c9 de e3 2a 8d be ae bf 01 7b b0 b0 86 bf af bf
       -0.060047542081461076 -0.062008103436019375
000410 71 0e 41 b7 d9 72 a6 bf c7 ad c8 79 6e df bf 3f
       -0.043844989414108755 0.124503044826887
000420 52 d3 e4 2d b3 83 85 3f 95 da 5e 31 aa 62 a0 3f
       0.010505103910512101 0.03200275280635371
000430 d4 1a e3 97 dd 70 c3 3f 16 69 fc 6d 8b f4 89 bf
       0.15188188473094633 -0.012673463148122493
000440 10 a4 85 5b 3e 11 ca 3f 36 e8 5a 77 83 c5 b2 3f
       0.20365123242234562 0.07332631744330417
000450 d1 a9 cb 80 91 42 92 bf f6 8e db 57 f5 10 c3 3f
       -0.017832063184792638 0.14895502843784642
000460 6f 3c 34 41 87 6b ab bf 4b b6 e0 70 66 0e ca 3f
       -0.05355475111911622 0.20356445800409725
000470 cf e1 c3 ee f4 fb ce bf be ee 29 12 5e 10 c7 3f
       -0.24206411035971917 0.18018699538139588
000480 62 08 ab 42 e2 32 95 3f 69 f2 2a 87 08 55 b6 3f
       0.020701918906305024 0.08723500537866759
000490 40 dd 84 f4 2b 6a cb bf d7 7b db b7 69 19 b1 bf
       -0.21417760314373346 -0.06679402102189101
0004a0 0d 61 55 48 9e 48 c8 3f 3b 9a ab 5e c4 ad 91 3f
       0.1897161343756654 0.017264431265085128
0004b0 77 a9 47 0f 78 22 c7 bf 0a 59 6b f2 17 0e af bf
       -0.18073940988626777 -0.06065440019817643
0004c0 c2 de b6 fb 6e de c2 bf ce ab ee 8c 29 8f ae 3f
       -0.14741313257922256 0.05968599171986676
0004d0 0d 61 55 88 5a b2 c7 3f cc 7b aa 5e 8e 6d a6 bf
       0.18513042122754833 -0.04380459695425251
0004e0 24 de 32 70 7e 83 c1 bf 39 7d 78 34 5f 2d c9 3f
       -0.13682537535145045 0.19669714033168775
0004f0 00 3d 47 a8 46 c5 c8 bf b3 46 f4 bc 18 75 b7 3f
       -0.1935203859015715 0.091630502826116
000500 ba dc 63 03 c4 54 c3 3f 68 1a 23 89 25 66 cd bf
       0.15102434316188412 -0.229679767571912
000510 06 be 86 df 9f 7c c3 3f de 78 09 c7 9f fa c9 3f
       0.15224073805210042 0.20296094149211447
000520 33 d9 3a bc 04 30 cd bf a8 4b ab 1c dc 85 c9 3f
       -0.2280279082385249 0.19939757728442697
000530 69 a3 de 3d 6e cd a6 3f 5d 05 8c 26 c3 cc b9 bf
       0.044536061336947715 -0.10078067484939397
000540 27 ee e0 e9 a4 45 cc 3f 71 65 2b a6 0d d4 c0 bf
       0.22087537212233707 -0.13147135366197518
000550 86 bb 5c ab 0f 9a 97 3f 06 a2 26 4b a6 97 bf 3f
       0.023048634370919106 0.12340773901690491
000560 63 6f e6 00 1e 0d ca bf d3 9b 32 5a 3c de 81 3f
       -0.20352530521347054 0.008724662306418473
000570 71 a8 44 68 b8 86 ca bf e7 36 71 93 cc f0 c0 3f
       -0.20723633853168935 0.1323486061032135
000580 44 16 d3 9a 37 1a b1 bf 94 16 f5 54 dd d1 96 3f
       -0.06680629281898925 0.022284944830309586
000590 17 57 75 d5 e6 29 b4 3f 6c 86 ad 48 b6 2f b3 3f
       0.07876436911950822 0.07494677805291311
0005a0 00 00 00 60 9b 97 bd bf 00 00 00 40 5d 42 c1 bf
       -0.11559458822011948 -0.1348377764225006
0005b0 00 00 00 a0 e3 c7 ca bf 00 00 00 00 86 59 84 bf
       -0.209225133061409 -0.0099363774061203
0005c0 00 00 00 40 32 1f b6 bf 00 00 00 00 d7 7d 9e bf
       -0.08641351759433746 -0.029776915907859802
0005d0 00 00 00 20 1c 24 c5 3f 00 00 00 80 3b bf a3 3f
       0.16516448557376862 0.03856836259365082
0005e0 00 00 00 80 f3 cc a1 3f 00 00 00 00 e6 b7 8d 3f
       0.034766778349876404 0.01451091468334198
0005f0 00 00 00 c0 0d 1b b7 3f 00 00 00 00 e6 8b 81 3f
       0.09025655686855316 0.00856761634349823
000600 00 00 00 c0 9e d5 b4 bf 00 00 00 a0 0c 67 c2 3f
       -0.0813845843076706 0.14376981556415558
000610 00 00 00 80 81 35 cc bf 00 00 00 00 61 95 93 3f
       -0.22038286924362183 0.019124522805213928
000620 00 00 00 00 5c 22 71 3f 00 00 00 c0 fe 76 cc bf
       0.004183158278465271 -0.22238144278526306
000630 2c 1f 7e df e5 37 c3 bf ed 39 1f 7d 24 95 a6 3f
       -0.15014336979606335 0.0441066172348775
000640 95 13 49 99 e5 97 9d bf b1 dd 59 0b 2c dc bc bf
       -0.028899753075410557 -0.11273455884098983
000650 79 d5 ec 3a 23 83 cb 3f 59 ae 12 91 40 f8 c7 3f
       0.21493950249866225 0.18726355632439853
000660 4c db 69 52 b9 67 cd 3f 42 37 f4 19 c1 e5 a8 bf
       0.22972790264221954 -0.04862788621731663
000670 9d d4 c2 a0 36 a1 c2 bf 85 8b 66 ba 87 15 ad bf
       -0.14554484223996136 -0.056804887298560515
000680 7f 71 ee 6e 15 2e c1 bf e2 31 12 87 07 e8 c7 3f
       -0.1342188636452981 0.1867684754873969
000690 71 e7 4d a4 7e d3 bc bf e4 7b 3e da 6e 96 b5 bf
       -0.1126021529325081 -0.08432667568420943
0006a0 dd 04 6c 81 43 36 93 3f 3f c2 62 b6 e0 07 7a 3f
       0.018761687063492672 0.006355169089304057
0006b0 00 31 e8 4d 1b d4 b6 3f bf 9e 8d c6 7d 7a be bf
       0.08917399074579535 -0.1190565690754921
0006c0 93 10 ad b0 ca 05 ba bf dc 59 8a cd 98 9c 96 3f
       -0.10165087521915188 0.02208174471396683
0006d0 76 9c 36 5c b0 0f bb 3f 40 4d 00 9e 24 96 92 3f
       0.10570814372350576 0.018150875228525765
0006e0 00 07 e9 99 15 43 c2 bf 86 a1 31 0f 34 5b c4 bf
       -0.1426722527995068 -0.15903330556762912
0006f0 4b 4f d1 78 60 0c c8 3f 6a 0d 82 63 7b 14 be 3f
       0.18787771128938355 0.11750003032107306
000700 ee 98 2f fb 9b c2 b5 bf ea d1 95 d2 32 60 ad bf
       -0.08500075228184631 -0.057374561506467206
000710 84 c2 39 31 7d 8d 94 3f e5 a5 5b 97 6f 16 b7 3f
       0.020070987824910805 0.09018609471572565
000720 c4 ff b0 4c fc 72 cd bf fc aa 2b 7b 09 7c ab bf
       -0.2300715803594341 -0.05368070248171894
000730 5a 35 6f e3 c0 9e c8 3f a5 46 09 bb d5 5d c1 bf
       0.19234477143474288 -0.1356761134398329
000740 9a 29 b5 84 ec 72 a8 3f b1 a0 64 d4 c1 7a 89 3f
       0.04775179977385165 0.012441171926710433
000750 00 00 00 40 1f 62 c4 bf 00 00 00 80 08 81 c2 bf
       -0.15924444794654846 -0.14456278085708618
000760 00 00 00 00 a8 05 6e bf 00 00 00 00 ba 9e 88 bf
       -0.0036648064851760864 -0.012021496891975403
000770 00 00 00 80 8c e7 c0 bf 00 00 00 80 63 f6 a0 3f
       -0.13206630945205688 0.033129796385765076
000780 00 00 00 c0 4d 57 b1 3f 00 00 00 e0 0b 5b c2 3f
       0.06773839890956879 0.14340351521968842
000790 00 00 00 80 da 8b c5 bf 00 00 00 80 21 bc b4 bf
       -0.16833049058914185 -0.08099564909934998
0007a0 00 00 00 60 bd 3f c0 3f 00 00 00 00 93 c9 b8 bf
       0.12694518268108368 -0.09682577848434448
0007b0 00 00 00 00 2e 73 c0 bf 00 00 00 00 70 5a 8b bf
       -0.12851500511169434 -0.01335608959197998
0007c0 00 00 00 80 b7 49 be bf 00 00 00 c0 9a 07 cc bf
       -0.11831232905387878 -0.21898207068443298
0007d0 00 00 00 c0 c6 73 b0 3f 00 00 00 20 24 29 c7 bf
       0.06426660716533661 -0.18094302713871002
0007e0 36 3f d4 60 ad ce b3 bf ad e0 15 92 ee cc b1 3f
       -0.07737239469520038 0.06953326288737811
0007f0 3a 9a 9a b0 66 9d bf bf d1 91 8d c8 a1 02 c3 3f
       -0.12349550067538298 0.14851782124163873

layer0.bias f8 [256]
000000 56 be d4 c9 65 2b bd 3f 0e 20 d9 3f ad 62 93 bf
       0.11394344499125827 -0.01893110944936898
000010 00 00 00 80 b1 c6 a8 3f c6 ae c7 2c 2d a9 c5 3f
       0.048390910029411316 0.16922535597347216
000020 85 27 a2 36 e6 59 7a 3f f9 1c 0e 4d 14 4b 38 bf
       0.006433390875949634 -0.0003706860125522595
000030 1f 41 d1 4b de a7 a6 3f c1 5c 07 a6 41 61 c4 bf
       0.04424948382859583 -0.15921803099511148
000040 e5 79 4f d5 1b 4d 5e bf 96 77 be 58 68 94 b9 bf
       -0.0018494388398192449 -0.09992077032663213
000050 00 00 00 80 6d be a8 3f 79 1f 4c 9d e2 2d b3 3f
       0.04832784831523895 0.0749189027811762
000060 70 4b cd 61 68 d8 b2 bf 00 00 00 40 c5 1a ba 3f
       -0.0736146200918435 0.10197098553180695
000070 bb 55 fd 92 1c 3f 83 bf 55 90 70 83 09 f5 c3 bf
       -0.00939771960808399 -0.15591544073061195
000080 b9 b4 8a 91 c4 0f c6 bf 9d e3 ed 7a eb 5a c5 3f
       -0.17235619646581826 0.16683715345768926
000090 ff de f7 9f 81 0b ad 3f bb 7c be 4f 4e c6 8e bf
       0.05672841146218665 -0.015026675995441932
0000a0 d0 1f 8c f2 47 d1 b2 bf b1 56 e5 28 f8 f6 c6 bf
       -0.0735058753162996 -0.17941190716617464
0000b0 d5 d0 4c d0 1d 97 8e 3f b7 99 8f 2d 3f de c5 3f
       0.014936669272721673 0.17084493374495732
0000c0 a1 56 ce 0d f1 09 b4 bf 01 03 de 0a 30 6f a2 bf
       -0.07827669703541541 -0.036004544569555826
0000d0 e5 26 ea 4f 1b 6c c5 bf f1 3d 10 3a 9e 1c bd bf
       -0.16736165430147945 -0.11371792714657382
0000e0 db df cf 75 5b 52 c2 3f 99 1b 8e fd 18 53 ac 3f
       0.14313834431209113 0.055321484519530624
0000f0 99 1c 5f b3 40 f7 c6 bf fc b1 18 8c 26 cf c2 3f
       -0.17942055471778387 0.14694673386237855
000100 19 ed e5 d1 10 bf cc bf a1 5c 06 ce 56 2f ca bf
       -0.2245808625119501 -0.20456967410857366
000110 03 0d d4 07 c8 77 b1 bf e6 f7 ec d0 92 4d c7 3f
       -0.06823396865006619 0.1820548553604901
000120 14 30 da ee af 7b cc 3f 85 96 39 62 fa 69 cb 3f
       0.22252463495931407 0.21417169376507075
000130 54 08 cc 5c a0 cd c5 3f 23 f7 4f 4b 87 95 c5 bf
       0.17033772021392457 -0.16862574746476708
000140 9e f1 97 d7 d1 2c cd 3f ef 91 b1 02 6f e5 b2 bf
       0.22793028857257708 -0.07381337943804288
000150 7d 20 48 14 38 5c c5 bf a2 9d e1 42 69 83 8e 3f
       -0.16687680235213867 0.014899084428363466
000160 d1 f9 37 0f b6 19 b7 3f a6 1b 7b af 05 19 bb bf
       0.09023607131528101 -0.10585055860711509
000170 0b 58 70 20 35 38 cc 3f 7a 7b b1 58 e1 af cc 3f
       0.22046531757285978 0.2241174395630557
000180 bc 08 3d 84 6a 91 ca bf 00 00 00 40 49 14 b1 3f
       -0.20756274659112772 0.0667157918214798
000190 12 01 72 24 3d 08 c6 3f 96 db d8 44 89 b0 ca 3f
       0.17212642936284134 0.20851245748209796
0001a0 27 86 8f de d0 3f a0 bf 09 c2 6f eb 79 de ca bf
       -0.03173687664799401 -0.2099144363014747
0001b0 d1 b7 cd 49 e3 d5 a9 3f 1d 3c 2e b7 d4 43 a3 3f
       0.05045995975420648 0.037626883850968997
0001c0 bb 9a 3e 89 1e 94 b5 bf db bc 27 86 6e 6d c6 bf
       -0.08429137087532983 -0.17521459150837057
0001d0 3a f7 ec ce bf 72 a7 bf 92 7a b8 f0 d7 28 c3 3f
       -0.045797342309454384 0.14968394521652734
0001e0 64 68 0e a3 7d 21 c9 3f 3c 7a 8e 89 f6 d0 92 bf
       0.19633455716831627 -0.01837525572374886
0001f0 00 00 00 80 26 b0 af bf 00 00 00 a0 0b 4d cc bf
       -0.061890795826911926 -0.22110123932361603
000200 22 a7 4d 38 48 3b c4 3f 52 83 db 14 b1 bc cd 3f
       0.15805914639650448 0.232320914444268
000210 33 e6 9d 66 ab f5 ca 3f d7 9e 81 e6 4d fb ca 3f
       0.2106222392138065 0.21079419856254475
000220 d7 7d 93 06 80 77 9a bf 1b 4e bf 7c 65 fc ca 3f
       -0.02584648170602385 0.2108275279157262
000230 b3 46 ef 8f 30 72 c0 3f e9 cd fc c9 48 1e c2 3f
       0.12848479297695334 0.14154920447036481
000240 89 4d 96 59 cd 55 88 3f 81 72 da fd d1 28 ca 3f
       0.0118824046101398 0.2043707360761751
000250 6e 79 c0 51 6d bf 80 bf b6 85 d3 52 68 15 bd 3f
       -0.008177618081444318 0.11360790273786034
000260 b2 ba 1c 80 9f a4 c3 bf cc 29 57 be 77 d0 b1 bf
       -0.1534613967464416 -0.0695872153948251
000270 98 6c 0c 5b 15 1c b9 bf fc 8b 91 2a ad e6 cb bf
       -0.0980847689901786 -0.21797718599836446
000280 b4 c4 a5 50 28 dc c5 bf 87 2d e1 02 06 56 c3 bf
       -0.17078117311351593 -0.151062728315406
000290 6c 3b 15 51 64 62 c8 bf b1 af 76 64 f6 6c b1 bf
       -0.19050268134239035 -0.06806888535237367
0002a0 ef 20 9f 45 17 e2 c4 3f 30 ca 3d 57 41 2f ce 3f
       0.16314974688999181 0.23581711540062278
0002b0 38 1f 0b 69 c5 86 cd bf df 20 87 77 8f 97 c3 bf
       -0.23067538861345738 -0.15306275688477108
0002c0 08 5b 77 39 f3 1c b1 bf 0f 0b 19 af 36 56 c3 3f
       -0.06684799340233039 0.15106853055666433
0002d0 54 52 6e 87 f9 69 bc bf 42 31 36 f9 e5 38 c2 bf
       -0.11099204594058537 -0.1423613993505431
0002e0 60 5a 2f 05 b7 6d c7 3f 76 92 27 e6 c8 b0 b7 bf
       0.18303573373005388 -0.09254127139099375
0002f0 ff 90 6e 62 e3 29 a5 bf 13 f3 18 ba fe 1b c4 bf
       -0.04133520676194457 -0.15710434042730323
000300 2e 1c 53 16 0e 7e c5 bf e6 ed da eb 4f a9 c5 3f
       -0.16790939416952838 0.1692294980656321
000310 a8 60 ec 9b 3d 82 cb 3f 9e d0 78 a0 a5 73 a4 bf
       0.2149121295303804 -0.03994481643567947
000320 ed 29 09 e8 7d 84 b4 bf 3a 9a 9b f2 67 6a c4 3f
       -0.08014666476189065 0.15949725481114446
000330 cf ed a4 09 24 3d cb 3f 99 13 29 cf f5 fd be 3f
       0.2128033682910044 0.12106262500408461
000340 ce cd df b6 d1 b3 cc bf 67 4d 30 34 2b 2a c6 3f
       -0.22423764638334237 0.1731618885829491
000350 00 00 00 20 ae fd cb bf 59 44 67 4b d1 92 b8 3f
       -0.21867920458316803 0.0959902581301021
000360 ab 61 eb 44 1c 59 c6 bf 85 c3 fb dc d8 40 b2 bf
       -0.17459443440635644 -0.07130198855499088
000370 8f db a9 28 47 68 b7 bf 12 b5 b8 49 81 39 95 bf
       -0.09143490545998943 -0.020727176785091457
000380 b7 3b c2 60 f5 3c c5 3f 7b ec 59 c4 fc 83 c1 3f
       0.16592280602023177 0.13684043490852446
000390 00 00 00 a0 68 4f cd 3f 45 40 57 51 0d 2d b4 3f
       0.22898586094379425 0.07881243930683109
0003a0 ef a5 6f 42 97 63 ad bf f5 97 f5 da 1f dc b1 bf
       -0.057400442943457246 -0.06976508231818442
0003b0 43 43 f6 6f c9 44 c5 3f 31 be d8 55 87 4f c7 bf
       0.16616170851605191 -0.18211452190142688
0003c0 04 4f 40 d5 d2 36 b9 bf 82 25 6e d7 9e 93 c5 3f
       -0.09849279123619331 0.16856751936965614
0003d0 00 00 00 60 b4 ee cc 3f 38 6b db 9f 11 38 a3 bf
       0.22603468596935272 -0.03753714634304689
0003e0 cf 52 5e 99 93 59 c9 bf a4 14 73 d6 cf f1 cd 3f
       -0.19804615963643932 0.23394201251190794
0003f0 da 74 15 9d 0f f1 b9 3f a8 62 3d 02 a3 27 c2 bf
       0.10133454880765971 -0.1418346177040537
000400 00 00 00 c0 4a 92 b1 3f 45 c0 37 f0 e0 86 c6 3f
       0.06863848865032196 0.1759911702097289
000410 ef 1b 66 03 29 a5 aa bf f8 32 75 76 be 51 94 3f
       -0.05204132238855396 0.019843078594294433
000420 06 43 ac aa d7 73 ca 3f 00 00 00 80 33 33 a6 bf
       0.20666023095738967 -0.043359383940696716
000430 00 00 00 40 e9 96 c8 bf b4 6b 3c 73 9a 0f c4 bf
       -0.19210544228553772 -0.1567261755634185
000440 e1 6b 04 7d 4b 03 be 3f ed fa 20 5b 5b 2f ba bf
       0.11723777582339735 -0.10228510832619593
000450 55 86 cc 22 5f b6 b4 3f b8 03 e6 38 5b 75 c3 3f
       0.08090777015288471 0.1520189311814002
000460 88 02 4e b6 f0 4d c0 bf 13 c5 dc dd 2d 1b bd bf
       -0.12737854863737064 -0.11369597117006362
000470 18 0f 9e 04 f7 64 a1 3f a8 75 0a 58 1a 6f b1 bf
       0.03397342616429294 -0.06810154580531125
000480 5e b7 c1 90 4e 9f cd bf b4 48 6f 04 3c a8 b1 bf
       -0.2314241606540532 -0.0689733038737213
000490 15 0d 4c ab 7d bf 2d 3f 86 7a af eb 7d 86 cb bf
       0.00022695931479441907 -0.2150418663795401
0004a0 95 7b 30 7c bc 6a ce 3f 50 00 65 42 e6 cc be bf
       0.23763233245787477 -0.1203140174957309
0004b0 ae 83 61 57 69 33 95 3f 8c ed f4 99 90 b8 aa bf
       0.02070393176871093 -0.05218936805109839
0004c0 13 67 6a 5e 2e 1d ce bf af be 75 be b9 85 bc 3f
       -0.2352655373586506 0.11141549014950657
0004d0 d1 c0 bb 1b 80 25 cd 3f b2 f2 fd 57 fa c7 ab 3f
       0.22770692209406332 0.054260085335930866
0004e0 a5 48 ea c3 33 9c c5 3f 00 00 00 80 8d e8 c5 bf
       0.1688294130913778 -0.17115944623947144
0004f0 e6 b6 b1 89 9c 79 c4 3f 07 b1 60 64 b8 36 cd bf
       0.15996128772115198 -0.2282324304700369
000500 d8 e6 df 9c 29 99 c9 3f 0e dd 7c 70 e2 9f c0 bf
       0.19998665008443228 -0.12987928860250303
000510 c4 9d 93 ba 4f 2e c2 3f 54 bd 2c 3a 3e 73 b3 3f
       0.14203831300913639 0.0759772197750313
000520 5d 06 3e be 4a 58 c1 3f 00 de b3 9e 1a d0 c2 3f
       0.1355069569508939 0.14697582959318822
000530 aa e7 74 6e 6d cf b8 bf 60 db c4 80 9d a7 b2 3f
       -0.09691509195991324 0.07287010568402996
000540 39 86 47 a6 de 68 cd 3f 27 84 7f fe 68 02 b2 3f
       0.22976287001715592 0.07034927571614046
000550 46 f8 9b 7b d0 fc a6 bf 83 28 31 69 a8 70 c4 bf
       -0.04489757069494309 -0.15968804489449803
000560 2f e6 dc ef 08 fd c0 3f d5 6b 30 69 35 b7 bd 3f
       0.1327220126348023 0.11607679193586702
000570 81 d0 60 17 e0 b2 a0 bf ec 67 22 11 79 a5 c6 3f
       -0.03261471066835587 0.17692483269348658
000580 5e a3 2a 91 2f 26 a7 3f ae a0 92 9d c5 e4 b5 bf
       0.045213209600950974 -0.08552203270903888
000590 cf 02 71 91 0c 73 92 3f 9d c1 e0 18 a9 28 b2 bf
       0.018017002465287753 -0.07093293053981715
0005a0 e5 e5 f4 58 04 0c b1 3f 30 f8 bb 1a 6d 5a c9 3f
       0.0665896145991592 0.198072088292919
0005b0 e0 75 de 28 ef 9f c8 3f 00 00 00 e0 61 ff c3 bf
       0.19238080497318233 -0.15623115003108978
0005c0 67 5e c5 bf 11 94 cd bf a5 22 88 0f 2c 1b a1 3f
       -0.23108121742073992 0.03341043176266582
0005d0 00 00 00 00 8f b7 c1 bf eb 49 65 f3 53 2d 96 bf
       -0.13841426372528076 -0.02165728734082421
0005e0 7c a9 36 54 40 e9 c7 bf 77 7f 39 a8 3b cb c6 3f
       -0.18680576431263407 0.17807718004314285
0005f0 e0 c1 7e a9 3e b0 bb bf e9 df 29 c3 24 da b5 bf
       -0.10815803182663997 -0.0853598572228972
000600 d1 9a 47 ff cf d2 b3 3f 9f e2 de 73 c8 8c 6e bf
       0.07743549330153178 -0.003729239949248189
000610 eb 8f 4d 59 53 cd c4 bf 57 f7 25 df eb 33 a7 bf
       -0.16251603947159707 -0.04531800364473664
000620 65 02 a6 3a 4d a9 8c 3f 18 cf 2a f4 c5 1d bc bf
       0.01399479232054652 -0.10982930384744483
000630 89 87 ed 32 20 a3 c7 bf e4 7a ff df 29 40 87 3f
       -0.18466570364676851 0.011352851055503384
000640 17 51 73 84 44 4f c4 bf b1 95 9b c1 8d 53 c2 bf
       -0.15866905658061434 -0.1431748576498371
000650 74 20 18 da cc 38 98 3f 90 a9 be 04 bf b1 ba 3f
       0.023654175578514416 0.10427469125594357
000660 49 88 b5 3d dc df b3 3f 6e a4 b0 ac 97 14 bc bf
       0.07763458735056007 -0.10968921629013703
000670 f4 23 a0 75 dc f5 c1 3f 00 00 00 00 51 a9 99 3f
       0.14031558745799055 0.025059953331947327
000680 70 c5 d7 b3 e0 8d c8 3f 6a 56 eb 39 d5 bf c8 3f
       0.1918297651423404 0.1933542759713192
000690 f8 5a 52 81 8a 9b c5 bf 16 4f 47 51 7e ab c1 3f
       -0.16880923571144257 0.13804606407813286
0006a0 52 4e 7e 77 9f e8 c1 3f 76 55 10 72 7b 12 a5 bf
       0.13991158804548093 -0.04115663306599064
0006b0 24 2a 89 25 11 c9 77 3f a5 68 4d e8 11 9b bc bf
       0.005806986788750499 -0.11174117967076087
0006c0 b4 9d 4f f3 ba 4b b8 3f 52 91 02 6f e0 45 c2 3f
       0.09490555229387249 0.1427574674645578
0006d0 ce c0 59 c3 13 4a ce 3f 32 8a f6 8e 25 98 b1 bf
       0.2366356567249625 -0.06872782459553475
0006e0 6a 09 1d 87 a4 9a b2 bf 84 15 8a 0b fb c4 b7 3f
       -0.07267216013591385 0.09284943610881241
0006f0 40 7d 94 24 31 6c c7 bf d8 d2 5f 2c 3a 18 c5 bf
       -0.18298925672659472 -0.16480185667719272
000700 a8 ba 90 a5 8e 9e 81 bf b0 5a bf ad 48 83 86 3f
       -0.00860320513501496 0.010992591669418544
000710 4b de 3c 36 da 5d b6 3f 82 be ef ef a1 8e c2 bf
       0.08736957382358772 -0.14497780051850745
000720 18 d8 1b 34 2e 75 9a bf e8 19 70 68 d6 d1 b5 3f
       -0.02583763306662243 0.08523311662438682
000730 b6 8c 63 a0 86 06 9b bf 99 fa 14 44 64 79 c9 3f
       -0.026392081775054442 0.199017079585208
000740 8f fc 89 59 b1 4b ca 3f 88 f3 b8 9a 75 d1 b1 bf
       0.20543496009847614 -0.06960234668163257
000750 4c 17 90 d6 20 95 b2 bf 84 a3 6d 19 90 91 a5 bf
       -0.07258801687575306 -0.04212618170169605
000760 e1 57 14 fe 71 f5 c4 3f cb cb 5a 45 e7 a5 c0 bf
       0.16374039560531542 -0.13006297003229714
000770 00 00 00 20 da 16 cd bf d0 3e ab 41 6f ea a2 3f
       -0.22725988924503326 0.03694484402296683
000780 47 fd 68 3b a2 2a cc bf ec 83 1d b9 a6 76 cb 3f
       -0.22005107785114772 0.21455844916184164
000790 58 24 fc e7 99 d2 cd 3f 67 49 80 dd 79 e9 b3 bf
       0.2329895384539522 -0.07778131158582867
0007a0 de 6d f7 e0 ce d4 b2 bf 8c 90 b0 e2 a8 74 a4 bf
       -0.07355969421717343 -0.039952542945941166
0007b0 55 c5 a4 21 66 45 be bf 00 00 00 20 e2 e0 cb bf
       -0.11824644395234903 -0.21780039370059967
0007c0 d7 a4 ba 2d 24 9d 90 3f c6 01 17 77 5b 2c c8 bf
       0.016224446574288755 -0.18885367693839167
0007d0 29 3a bc 70 73 92 9e 3f 6f df 06 5c c3 db c6 3f
       0.029855540996374472 0.17858163827417736
0007e0 b7 e1 f9 7a ea a1 b2 3f e2 e7 f3 cf 4c 1b b8 3f
       0.07278314115854455 0.09416656567546469
0007f0 77 a9 54 ff 80 fc a7 bf f3 49 93 93 46 70 9a 3f
       -0.0468483268435475 0.025818922765049334

layer1.weight f8 [256, 256]
000000 92 d0 dd f8 fc 9b 99 bf 5a c5 42 95 6f 12 a1 3f
       -0.02500911015472746 0.03334377953559438
000010 00 00 00 80 00 8a a5 3f 45 63 0f 3c 43 5c a0 bf
       0.042068496346473694 -0.031953908044391834
000020 8d ba 47 30 40 73 a6 bf 4d 5e 55 e5 dd b6 ac 3f
       -0.04384804334028045 0.056082662815864916
000030 85 5a da 89 47 bf 9a bf 52 51 d1 9b 70 64 8d bf
       -0.026120298184276542 -0.014351730113198489
000040 fe 0e fa 8b ef 99 ad bf 7a 8c b8 99 17 41 74 bf
       -0.05781506141377511 -0.004944889249176682
000050 00 00 00 00 00 22 3a bf 8c 22 0a ae 61 d9 a2 3f
       -0.0003987550735473633 0.036814739699427695
000060 bb 49 c9 ba 0a 1d ac 3f 00 00 00 40 fb c8 a2 bf
       0.054909072209415176 -0.03668961673974991
000070 4e e7 ce 67 25 93 90 3f d9 a7 66 44 76 17 a8 bf
       0.01618631788344454 -0.04705400071118477
000080 91 7f 59 e2 20 7a a9 3f 17 50 a8 b8 73 d6 a7 bf
       0.04975989115769076 -0.046558014193721124
000090 6c 2b 76 df 52 41 8f bf b0 6a b3 82 b5 d5 58 3f
       -0.015261313862330282 0.0015157959522215485
0000a0 11 54 a1 39 50 1e 93 bf 2f 32 a3 38 21 a1 a5 bf
       -0.018670323865382758 -0.04224494758964103
0000b0 72 64 33 1e 48 f7 ab bf 09 93 05 d5 0a 4d a8 bf
       -0.05462098473226086 -0.0474627862011286
0000c0 ed 57 ae 0b aa 71 8b 3f 99 1c bc a8 cd b8 96 3f
       0.013400391084171981 0.022189343856578423
0000d0 07 ed 69 ba 69 b0 a2 bf 2b 58 79 45 6b 03 93 bf
       -0.036502174382770085 -0.018567730059963743
0000e0 a7 0b 51 19 4b 11 91 bf f6 ea 24 cf 85 91 a8 3f
       -0.016667531414224303 0.04798525003066871
0000f0 1b 07 42 c5 03 4e 96 3f a6 a4 39 2e 77 f4 ad bf
       0.021781977572124505 -0.05850574912330701
000100 ec df 29 cb bc 33 90 3f bc af 10 e8 b8 7e 9e 3f
       0.015822362804527687 0.029780282177099812
000110 ee a4 4b fb 81 9a a6 bf 5e 0f b3 53 02 0e a7 bf
       -0.04414755051204532 -0.04502875587198106
000120 5d 0b 5e 97 9c d2 97 3f c6 97 d6 98 20 ee a7 3f
       0.023264357317667506 0.04673864236546836
000130 4d 19 90 1b 4a ef aa bf f2 a4 9e c3 ee 84 84 3f
       -0.05260688387356769 0.010019173950996028
000140 34 13 a4 c3 67 a7 99 3f 27 77 45 9c 6a 17 a9 bf
       0.025052663150762558 -0.049006778312771275
000150 84 73 c3 55 30 81 a6 3f f5 05 f1 fc 08 24 a6 3f
       0.043954382390189145 0.043243676067969895
000160 c6 1b 72 1e e7 1d ab 3f a3 87 75 0c 98 a5 99 bf
       0.052962515322227996 -0.02504575325054471
000170 27 95 97 fd 88 5e 92 bf 20 b1 76 18 46 63 81 bf
       -0.017938747861895223 -0.00849013101727586
000180 2f 05 84 79 e2 60 aa bf 00 00 00 00 22 e3 a2 3f
       -0.05152042134614942 0.03688913583755493
000190 8b 9f 06 38 3b e8 a4 bf bb fb 62 81 05 03 9e bf
       -0.040834284390540786 -0.029308401128897304
0001a0 a3 e8 c2 03 37 2d 9a bf 1e ee 1f e1 81 8f a8 3f
       -0.025563106159758885 0.04796987412552432
0001b0 69 12 4a ea 8a 7d ac bf b7 c2 cf 5d ae 53 ac bf
       -0.055645314311765066 -0.055325936271292724
0001c0 8a 39 52 83 57 53 a4 3f 61 7a 7f b8 a6 79 71 3f
       0.03969834783594013 0.004266406300273391
0001d0 73 5f 26 3d 49 e3 af 3f 60 7a fe cf de 7f 95 bf
       0.062280930246912634 -0.020995599217366823
0001e0 b9 7e 57 76 4a c6 a2 3f 58 06 37 7d 6d 73 a3 3f
       0.03666908926584029 0.03799001840117161
0001f0 00 00 00 80 62 ca a7 bf 00 00 00 80 96 cd 9b bf
       -0.04646594822406769 -0.0271514430642128
000200 80 fa 1b 68 9f 74 ac 3f c1 1d 5c 28 9d b2 9f 3f
       0.05557726045480127 0.030954795444839926
000210 77 04 02 73 c7 41 97 3f 62 b1 a2 93 98 42 7e 3f
       0.02271186484768292 0.007387729647387738
000220 c8 5e 59 42 1a 86 a5 bf 6c 20 a9 73 9a 27 aa bf
       -0.0420387464516217 -0.05108339940903836
000230 bb 9a 8b bf 48 d2 79 3f 10 55 da 24 c4 5a 64 3f
       0.006304058239698203 0.002484686940827381
000240 6e 0b 59 55 3e 22 a2 3f 56 4a b8 b7 5e 8b 87 3f
       0.03541750709384571 0.011496295911489412
000250 9a d0 01 de 4f 11 93 bf 9c 2e 9d 3e 72 3c a6 bf
       -0.01862072746776331 -0.04342991842585528
000260 54 d7 34 a4 93 a3 ad 3f a1 58 8a 5c 08 e1 ae 3f
       0.05788861636612688 0.06031061296123253
000270 6f ed c4 64 12 10 ad bf 5c df 37 50 75 71 6f 3f
       -0.05676324348538741 0.003838280799524014
000280 9b f2 77 c9 d7 3e 9d 3f 55 8e 4c d4 7e 1a 94 bf
       0.028560039207138215 -0.019632322032647604
000290 00 00 00 80 a9 a1 92 bf 6e 4a 32 5e ff 1f ae 3f
       -0.018194817006587982 0.058837871788587445
0002a0 1e 07 c5 25 03 af 88 3f 9a d1 a9 e9 96 a1 9c bf
       0.012052559461725173 -0.02796016503494201
0002b0 9e a6 b0 52 f4 3a 78 bf bc 82 d0 43 f5 e6 8e 3f
       -0.005915598284482874 0.015088955051454682
0002c0 bd 19 70 dc d4 e8 a1 3f 2f 64 26 d2 96 f8 ad bf
       0.03497948828594442 -0.0585372096567841
0002d0 fb 7a b4 1d ec a0 ae 3f d0 18 36 2f 38 ae 91 bf
       0.05982148993120081 -0.017266157037305885
0002e0 76 b1 01 a2 1e 44 92 bf 1a 98 08 fe 77 58 a0 3f
       -0.017837980878924374 0.031924962768514045
0002f0 72 fe 7c 5b 5a 47 aa bf b0 87 19 43 70 8f a7 3f
       -0.051325629871368586 0.04601622408951245
000300 64 f7 0e 1a 6d 40 5c 3f ca a3 47 c5 bc 4a 8a bf
       0.001724344773023267 -0.012837862749579449
000310 72 fb 45 1e d1 4e 66 bf 3a f4 80 04 58 f9 90 bf
       -0.0027231296864437754 -0.016576171183477074
000320 76 5b b5 12 55 76 a7 3f 1b 81 40 97 d6 86 9e 3f
       0.045824678930037985 0.029811242086112615
000330 0f cd cf 51 9c 89 91 bf b9 53 d0 4d 9b 4a 9c bf
       -0.01712650536860588 -0.027628351806999272
000340 49 85 9a fb 15 13 8f 3f 80 ba 26 83 b4 88 a9 3f
       0.015173122158844381 0.049871102342298634
000350 00 00 00 00 ea 3e 74 3f bc 84 4d 7a 43 ee 92 bf
       0.004942812025547028 -0.018487028445979034
000360 53 6a 9d c3 37 36 a7 3f 12 07 c2 73 7a 94 97 3f
       0.04533552420499078 0.023027337374975927
000370 07 0f 47 20 da f8 8d 3f 31 e0 b7 9d bd 54 a0 3f
       0.014634803876908643 0.03189652014037881
000380 f6 2d 62 fe 6b bf 8e 3f 18 96 f3 34 d9 e3 a2 3f
       0.015013545704525715 0.03689459582691884
000390 00 00 00 80 a8 3b 92 bf 6e 8c c4 60 86 13 a7 3f
       -0.01780570298433304 0.04507083827254453
0003a0 f5 83 54 b8 4b 6e 9e 3f dd 45 74 01 66 53 aa 3f
       0.029717620015734487 0.05141752975226741
0003b0 41 42 61 49 3e 8b a7 3f c3 ff f2 2e 21 5a a0 3f
       0.045984217126378464 0.03193763445005928
0003c0 58 64 37 1f 06 ee 9a bf e3 98 53 d5 f5 cd 9b bf
       -0.026298614173218077 -0.027152863641185198
0003d0 00 00 00 c0 39 15 aa 3f fe 3c c8 de 58 66 a6 bf
       0.05094318836927414 -0.04374959678181688
0003e0 bf eb 59 af 5d 0f a1 3f 5d 00 31 69 e1 06 75 bf
       0.03332035794752341 -0.005133514891952099
0003f0 4d b9 36 47 f2 38 a2 bf 7a 7f bb bc 57 e1 80 3f
       -0.03559071654614119 0.00824230713573092
000400 00 00 00 00 b6 99 a0 3f fc 3c 66 7e a7 1e ae bf
       0.03242272138595581 -0.058827623538599355
000410 b8 64 41 e7 61 a9 a3 3f a7 d4 91 2f 8e 34 a5 3f
       0.03840166042272969 0.04141659098324029
000420 b2 15 40 07 2f c7 5c 3f 00 00 00 00 97 ac 8a 3f
       0.0017564734707787685 0.013024501502513885
000430 00 00 00 00 29 bc ab 3f 0f 55 b3 9b 69 68 a2 3f
       0.054169923067092896 0.03595285440102646
000440 9b 67 23 1d 99 8f 97 3f 2e 7e 4d 77 11 e9 ac 3f
       0.0230087207827193 0.056465669453924824
000450 45 73 05 84 cf c7 a3 3f 56 b3 5d 2b 15 61 a1 bf
       0.03863380896175398 -0.0339438071667703
000460 55 41 75 98 41 d7 a7 bf 9b e8 c2 1e 2a 4e 6f 3f
       -0.04656414972362436 0.003821451440754476
000470 cc 7e bb 63 0b b2 79 3f 25 33 12 3d a9 1a 7e bf
       0.006273312082811077 -0.007349644744988369
000480 55 a5 5a e8 87 01 85 3f cd 21 35 b8 9c a6 ad bf
       0.0102568261894073 -0.05791177509906085
000490 c2 15 fa ef 4b e5 96 3f 91 d9 0c 6a d2 31 a4 3f
       0.022359072229411366 0.03944261116560022
0004a0 39 b9 fe 55 87 47 ac 3f 49 42 bc 88 b7 f2 83 bf
       0.05523322033637829 -0.009740289554913366
0004b0 4e c2 2b 8d 5f 29 95 3f 93 17 dc f9 50 65 a8 bf
       0.020665638915433875 -0.047647982120948694
0004c0 46 0d 46 2f 45 09 ad bf 9f 97 46 4d 60 f4 a8 bf
       -0.05671135141440202 -0.04873944228465565
0004d0 71 3a c3 4f 6b de 7c 3f 6d db 5b 90 c3 17 a9 3f
       0.007048052965002869 0.04900942933266248
0004e0 84 06 60 a1 94 96 7b 3f 00 00 00 00 13 95 a9 bf
       0.006735401713741877 -0.049965471029281616
0004f0 37 50 d6 a5 1f 75 9c 3f 74 91 d6 81 63 79 a3 bf
       0.027790541169068397 -0.03803549728334846
000500 cb ac 24 bb e2 82 90 3f 7c 1d b1 e0 bb 5d 2d bf
       0.016124289200132574 -0.00022404592923151365
000510 68 a6 7c 4d 77 14 98 3f 60 7c 6b f0 fd 6f a7 bf
       0.023515571693826592 -0.045776305769088976
000520 1b 04 38 64 0f 8f 76 3f 0d 43 9c 21 95 88 a0 bf
       0.005507526514976237 -0.03229204211505108
000530 a0 c8 c5 07 8d 90 96 3f 29 c5 59 45 bf 4d a8 bf
       0.022035792922402764 -0.04746816369596225
000540 2c 83 db da 16 53 a3 3f 6e 11 cb 0c 79 3d 9e bf
       0.037743295875549115 -0.02953137531837185
000550 cc 94 79 a0 87 b5 ab 3f 53 d5 e2 94 4e c9 81 3f
       0.05411933740541883 0.00868474380363674
000560 35 c2 6d 53 27 4a 98 3f 7a 76 aa 5e 1d d8 aa 3f
       0.023720373599134887 0.052430074506657
000570 ac 9e 7f f8 e9 5f 91 3f 02 11 9b a2 74 2d 96 bf
       0.016967445175309834 -0.021657774376550705
000580 f9 b3 a0 4d 52 43 ab 3f ac a0 70 7b d9 cb ac 3f
       0.053247997261088593 0.05624274856410358
000590 fd 22 bf 3b 4a 65 aa 3f 73 9a 64 ff fb 50 41 bf
       0.05155403117493582 -0.0005284529168293042
0005a0 1c bc 8b c1 a6 2c 94 3f ce 3c db ba a7 71 94 bf
       0.01970158153829625 -0.019964810161408768
0005b0 23 d3 1f cc 22 f4 42 bf 00 00 00 00 f4 bd 9e bf
       -0.0005784196766841259 -0.030021488666534424
0005c0 8a 34 86 6b 0b fa 9e bf 21 0a 0e a4 d3 f6 ab 3f
       -0.030250719487913837 0.05461751344320854
0005d0 00 00 00 80 64 c5 98 bf 23 19 55 8a 1b 11 a0 bf
       -0.024190492928028107 -0.031380520473748306
0005e0 66 49 68 07 90 ff a9 bf 17 65 e3 60 d0 7e 91 3f
       -0.05077791300222394 0.017085319436636128
0005f0 c5 74 e1 be 57 2b 80 3f f5 84 9f 22 ee e1 a2 3f
       0.007895169747082051 0.03687996075292147
000600 26 e0 79 9a f0 30 a4 3f f6 31 97 07 a8 ae ac 3f
       0.039435881478255205 0.056020022322261484
000610 e7 28 f2 ae eb 8d aa bf 73 04 c2 5c 26 f5 a4 bf
       -0.05186401854105487 -0.04093284494684548
000620 39 3c 6b f7 08 d7 60 bf 03 35 b9 99 d8 02 a3 bf
       -0.0020556616903842054 -0.03713108898646491
000630 a1 08 81 d5 19 10 ad 3f 96 a8 9e be 0f f5 89 bf
       0.05676346522570098 -0.01267444897151319
000640 d8 6f 9a ae ef c1 a3 bf 98 c5 93 b6 93 96 76 bf
       -0.038588991226077674 -0.00551469517198324
000650 ac 11 76 32 a4 07 aa bf e7 aa 94 c4 e3 3e af bf
       -0.050839549217048 -0.061026685473128776
000660 68 5d 63 25 3c d6 9a 3f 60 33 5a 46 a0 14 ab bf
       0.02620786646079179 -0.05289173945229808
000670 27 99 fa 23 17 21 a6 bf 00 00 00 c0 e1 8f a2 3f
       -0.04322120966144132 0.03625398129224777
000680 0c 23 aa f8 c8 6b 7b 3f 67 91 79 cb 92 03 9b bf
       0.006694588703461301 -0.0263808190051277
000690 d1 04 cc 0a cc bb 81 bf fc f3 13 4e e3 9b a3 3f
       -0.008658975677010268 0.03829870536899446
0006a0 32 4e 2e bf c9 f1 85 bf 24 73 77 15 3c 3b 7c bf
       -0.010715080401303732 -0.0068924281144660295
0006b0 5a 00 26 93 a0 bc 92 bf 26 4d ec 9b d7 71 53 bf
       -0.018297680836895182 -0.0011868100697867783
0006c0 dd bc 3d 06 47 fa a9 3f ea 52 f5 13 97 76 ac bf
       0.050737590324269034 -0.05559227102881954
0006d0 67 27 34 3c e8 59 88 3f f6 60 7c 2f 93 9e 9c 3f
       0.01189023431517784 0.027948665402704763
0006e0 40 55 31 d1 d1 4a a0 bf 67 7d a5 a0 e2 0e b0 bf
       -0.031820828233927845 -0.06272713110000937
0006f0 dd 68 f9 a1 ab b0 90 3f a5 16 6d d7 be 25 ae bf
       0.016298944245456738 -0.05888172511781179
000700 ed e1 81 65 27 6f a6 3f 8c 9b 1d ad 17 98 a5 3f
       0.04381678690055311 0.04217599857547957
000710 2a a9 5e 32 4c e6 a0 bf 8d 70 d8 b3 c7 b1 90 bf
       -0.0330070315825018 -0.016303177215477183
000720 3e 9f c9 89 2f b7 ad 3f 6e ce e1 3f 42 99 98 3f
       0.05803822094895715 0.02402213587670448
000730 6d 2d de ec 16 5e ac 3f 01 37 29 3f 7d 3e a0 bf
       0.055405346312080585 -0.031726755104143585
000740 61 c7 f8 44 9b 7e 45 bf ae 07 fe 32 a2 ea 8b 3f
       -0.0006559618140668904 0.013631121808206217
000750 8a 6e 03 c6 8b a9 ae 3f 3b ee 9b 2d d9 f8 80 3f
       0.05988728325038746 0.008287140564326658
000760 42 d6 e8 24 a3 64 96 bf 3d 0a 43 82 c4 d3 9d bf
       -0.021868275764253882 -0.029128141832879918
000770 00 00 00 00 60 65 a9 bf 23 75 a5 bc c3 23 7f 3f
       -0.04960155487060547 0.0076024671528476554
000780 b3 c6 c7 da 37 88 a8 bf a8 7b 7e 27 0e 9d 8f 3f
       -0.047914262253369165 0.015436277942908763
000790 1a b1 c9 25 a3 2f a0 bf 91 56 af 15 5a ee ad 3f
       -0.031613443720603665 0.05845910563190871
0007a0 18 cc 58 16 01 d0 5e 3f 13 54 8e 0f 1a 26 78 3f
       0.001880646764573118 0.00589571170794036
0007b0 db e3 51 e0 62 39 71 bf 00 00 00 c0 25 7a ad 3f
       -0.004205118403768328 0.057572536170482635
0007c0 8a f2 60 58 a2 06 69 3f 51 94 fc 87 80 a3 ac bf
       0.0030549212270030756 -0.05593492183678762
0007d0 83 ca 78 9d 21 75 a0 3f cc b1 9e 08 9a f0 7e 3f
       0.032143640968929986 0.007553674406079524
0007e0 e7 5b 5b 7e 73 06 9f bf 0f f4 98 12 b2 52 a6 3f
       -0.030298046672068948 0.043599667329978435
0007f0 24 c0 4a 46 2b b2 a2 bf dc 9d 90 38 22 d0 a1 bf
       -0.03651557190949031 -0.03479105892648324
